…
    mean_value: 90
    mean_value: 60
    mean_value: 69
    mean_value: 90
    mean_value: 60
    mean_value: 69
    mean_value: 90
    mean_value: 60
    mean_value: 69
    mean_value: 90
    mean_value: 60
    mean_value: 69
    mean_value: 90
    mean_value: 60
    mean_value: 69
    mean_value: 90
    mean_value: 60
    mean_value: 69
    mean_value: 90
    mean_value: 60
    mean_value: 69
    mean_value: 90
    mean_value: 60
    mean_value: 69
    mean_value: 90
  }
  data_param {
    source: "../LMDB/train"
    batch_size: 7
    backend: LMDB
  }
}
layer {
  name: "slice_pair"
  type: "Slice"
  bottom: "pair_data"
  top: "data_stacked_fp"
  top: "data_stacked_tp"
  slice_param {
    slice_dim: 1
    slice_point: 48
  }
}
layer {
  name: "reshape_fp"
  type: "Reshape"
  bottom: "data_stacked_fp"
  top: "data_fp"
  reshape_param {
    shape {
      dim: 0
      dim: 3
      dim: 16
      dim: 112
      dim: 112
    }
  }
}
layer {
  name: "reshape_tp"
  type: "Reshape"
  bottom: "data_stacked_tp"
  top: "data_tp"
  reshape_param {
    shape {
      dim: 0
      dim: 3
      dim: 16
      dim: 112
      dim: 112
    }
  }
}
layer {
  name: "conv1a_fp"
  type: "NdConvolution"
  bottom: "data_fp"
  top: "conv1a_fp"
  param {
    name: "conv1a_w"
    lr_mult: 1
    decay_mult: 1
  }
  param {
    name: "conv1a_b"
    lr_mult: 2
    decay_mult: 0
  }
  convolution_param {
    num_output: 64
    weight_filler {
      type: "gaussian"
      std: 0.01
    }
    bias_filler {
      type: "constant"
      value: 0
    }
    pad_shape {
      dim: 1
      dim: 1
      dim: 1
    }
    kernel_shape {
      dim: 3
      dim: 3
      dim: 3
    }
    stride_shape {
      dim: 1
      dim: 1
      dim: 1
    }
  }
}
layer {
  name: "relu1a_fp"
  type: "ReLU"
  bottom: "conv1a_fp"
  top: "conv1a_fp"
}
layer {
  name: "pool1_fp"
  type: "NdPooling"
  bottom: "conv1a_fp"
  top: "pool1_fp"
  pooling_param {
    pool: MAX
    kernel_shape {
      dim: 1
      dim: 2
      dim: 2
    }
    stride_shape {
      dim: 1
      dim: 2
      dim: 2
    }
  }
}
layer {
  name: "conv2a_fp"
  type: "NdConvolution"
  bottom: "pool1_fp"
  top: "conv2a_fp"
  param {
    name: "conv2a_w"
    lr_mult: 1
    decay_mult: 1
  }
  param {
    name: "conv2a_b"
    lr_mult: 2
    decay_mult: 0
  }
  convolution_param {
    num_output: 128
    weight_filler {
      type: "gaussian"
      std: 0.01
    }
    bias_filler {
      type: "constant"
      value: 1
    }
    pad_shape {
      dim: 1
      dim: 1
      dim: 1
    }
    kernel_shape {
      dim: 3
      dim: 3
      dim: 3
    }
    stride_shape {
      dim: 1
      dim: 1
      dim: 1
    }
  }
}
layer {
  name: "relu2a_fp"
  type: "ReLU"
  bottom: "conv2a_fp"
  top: "conv2a_fp"
}
layer {
  name: "pool2_fp"
  type: "NdPooling"
  bottom: "conv2a_fp"
  top: "pool2_fp"
  pooling_param {
    pool: MAX
    kernel_shape {
      dim: 2
      dim: 2
      dim: 2
    }
    stride_shape {
      dim: 2
      dim: 2
      dim: 2
    }
  }
}
layer {
  name: "conv3a_fp"
  type: "NdConvolution"
  bottom: "pool2_fp"
  top: "conv3a_fp"
  param {
    name: "conv3a_w"
    lr_mult: 1
    decay_mult: 1
  }
  param {
    name: "conv3a_b"
    lr_mult: 2
    decay_mult: 0
  }
  convolution_param {
    num_output: 256
    weight_filler {
      type: "gaussian"
      std: 0.01
    }
    bias_filler {
      type: "constant"
      value: 1
    }
    pad_shape {
      dim: 1
      dim: 1
      dim: 1
    }
    kernel_shape {
      dim: 3
      dim: 3
      dim: 3
    }
    stride_shape {
      dim: 1
      dim: 1
      dim: 1
    }
  }
}
layer {
  name: "relu3a_fp"
  type: "ReLU"
  bottom: "conv3a_fp"
  top: "conv3a_fp"
}
layer {
  name: "pool3_fp"
  type: "NdPooling"
  bottom: "conv3a_fp"
  top: "pool3_fp"
  pooling_param {
    pool: MAX
    kernel_shape {
      dim: 2
      dim: 2
      dim: 2
    }
    stride_shape {
      dim: 2
      dim: 2
      dim: 2
    }
  }
}
layer {
  name: "conv4a_fp"
  type: "NdConvolution"
  bottom: "pool3_fp"
  top: "conv4a_fp"
  param {
    name: "conv4a_w"
    lr_mult: 1
    decay_mult: 1
  }
  param {
    name: "conv4a_b"
    lr_mult: 2
    decay_mult: 0
  }
  convolution_param {
    num_output: 256
    weight_filler {
      type: "gaussian"
      std: 0.01
    }
    bias_filler {
      type: "constant"
      value: 1
    }
    pad_shape {
      dim: 1
      dim: 1
      dim: 1
    }
    kernel_shape {
      dim: 3
      dim: 3
      dim: 3
    }
    stride_shape {
      dim: 1
      dim: 1
      dim: 1
    }
  }
}
layer {
  name: "relu4a_fp"
  type: "ReLU"
  bottom: "conv4a_fp"
  top: "conv4a_fp"
}
layer {
  name: "pool4_fp"
  type: "NdPooling"
  bottom: "conv4a_fp"
  top: "pool4_fp"
  pooling_param {
    pool: MAX
    kernel_shape {
      dim: 2
      dim: 2
      dim: 2
    }
    stride_shape {
      dim: 2
      dim: 2
      dim: 2
    }
  }
}
layer {
  name: "conv5a_fp"
  type: "NdConvolution"
  bottom: "pool4_fp"
  top: "conv5a_fp"
  param {
    name: "conv5a_w"
    lr_mult: 1
    decay_mult: 1
  }
  param {
    name: "conv5a_b"
    lr_mult: 2
    decay_mult: 0
  }
  convolution_param {
    num_output: 256
    weight_filler {
      type: "gaussian"
      std: 0.01
    }
    bias_filler {
      type: "constant"
      value: 1
    }
    pad_shape {
      dim: 1
      dim: 1
      dim: 1
    }
    kernel_shape {
      dim: 3
      dim: 3
      dim: 3
    }
    stride_shape {
      dim: 1
      dim: 1
      dim: 1
    }
  }
}
layer {
  name: "relu5a_fp"
  type: "ReLU"
  bottom: "conv5a_fp"
  top: "conv5a_fp"
}
layer {
  name: "pool5_fp"
  type: "NdPooling"
  bottom: "conv5a_fp"
  top: "pool5_fp"
  pooling_param {
    pool: MAX
    kernel_shape {
      dim: 2
      dim: 2
      dim: 2
    }
    stride_shape {
      dim: 2
      dim: 2
      dim: 2
    }
  }
}
layer {
  name: "fc6_fp"
  type: "InnerProduct"
  bottom: "pool5_fp"
  top: "fc6_fp"
  param {
    name: "fc6_w"
    lr_mult: 1
    decay_mult: 1
  }
  param {
    name: "fc6_b"
    lr_mult: 2
    decay_mult: 0
  }
  inner_product_param {
    num_output: 2048
    weight_filler {
      type: "gaussian"
      std: 0.005
    }
    bias_filler {
      type: "constant"
      value: 1
    }
  }
}
layer {
  name: "relu6_fp"
  type: "ReLU"
  bottom: "fc6_fp"
  top: "fc6_fp"
}
layer {
  name: "drop6_fp"
  type: "Dropout"
  bottom: "fc6_fp"
  top: "fc6_fp"
  dropout_param {
    dropout_ratio: 0.5
  }
}
layer {
  name: "fc7_fp"
  type: "InnerProduct"
  bottom: "fc6_fp"
  top: "fc7_fp"
  param {
    lr_mult: 1
    decay_mult: 1
  }
  param {
    lr_mult: 2
    decay_mult: 0
  }
  inner_product_param {
    num_output: 2048
    weight_filler {
      type: "gaussian"
      std: 0.005
    }
    bias_filler {
      type: "constant"
      value: 1
    }
  }
}
layer {
  name: "relu7_fp"
  type: "ReLU"
  bottom: "fc7_fp"
  top: "fc7_fp"
}
layer {
  name: "drop7"
  type: "Dropout"
  bottom: "fc7_fp"
  top: "fc7_fp"
  dropout_param {
    dropout_ratio: 0.5
  }
}
layer {
  name: "conv1a_tp"
  type: "NdConvolution"
  bottom: "data_tp"
  top: "conv1a_tp"
  param {
    name: "conv1a_w"
    lr_mult: 1
    decay_mult: 1
  }
  param {
    name: "conv1a_b"
    lr_mult: 2
    decay_mult: 0
  }
  convolution_param {
    num_output: 64
    weight_filler {
      type: "gaussian"
      std: 0.01
    }
    bias_filler {
      type: "constant"
      value: 0
    }
    pad_shape {
      dim: 1
      dim: 1
      dim: 1
    }
    kernel_shape {
      dim: 3
      dim: 3
      dim: 3
    }
    stride_shape {
      dim: 1
      dim: 1
      dim: 1
    }
  }
}
layer {
  name: "relu1a_tp"
  type: "ReLU"
  bottom: "conv1a_tp"
  top: "conv1a_tp"
}
layer {
  name: "pool1_tp"
  type: "NdPooling"
  bottom: "conv1a_tp"
  top: "pool1_tp"
  pooling_param {
    pool: MAX
    kernel_shape {
      dim: 1
      dim: 2
      dim: 2
    }
    stride_shape {
      dim: 1
      dim: 2
      dim: 2
    }
  }
}
layer {
  name: "conv2a_tp"
  type: "NdConvolution"
  bottom: "pool1_tp"
  top: "conv2a_tp"
  param {
    name: "conv2a_w"
    lr_mult: 1
    decay_mult: 1
  }
  param {
    name: "conv2a_b"
    lr_mult: 2
    decay_mult: 0
  }
  convolution_param {
    num_output: 128
    weight_filler {
      type: "gaussian"
      std: 0.01
    }
    bias_filler {
      type: "constant"
      value: 1
    }
    pad_shape {
      dim: 1
      dim: 1
      dim: 1
    }
    kernel_shape {
      dim: 3
      dim: 3
      dim: 3
    }
    stride_shape {
      dim: 1
      dim: 1
      dim: 1
    }
  }
}
layer {
  name: "relu2a_tp"
  type: "ReLU"
  bottom: "conv2a_tp"
  top: "conv2a_tp"
}
layer {
  name: "pool2_tp"
  type: "NdPooling"
  bottom: "conv2a_tp"
  top: "pool2_tp"
  pooling_param {
    pool: MAX
    kernel_shape {
      dim: 2
      dim: 2
      dim: 2
    }
    stride_shape {
      dim: 2
      dim: 2
      dim: 2
    }
  }
}
layer {
  name: "conv3a_tp"
  type: "NdConvolution"
  bottom: "pool2_tp"
  top: "conv3a_tp"
  param {
    name: "conv3a_w"
    lr_mult: 1
    decay_mult: 1
  }
  param {
    name: "conv3a_b"
    lr_mult: 2
    decay_mult: 0
  }
  convolution_param {
    num_output: 256
    weight_filler {
      type: "gaussian"
      std: 0.01
    }
    bias_filler {
      type: "constant"
      value: 1
    }
    pad_shape {
      dim: 1
      dim: 1
      dim: 1
    }
    kernel_shape {
      dim: 3
      dim: 3
      dim: 3
    }
    stride_shape {
      dim: 1
      dim: 1
      dim: 1
    }
  }
}
layer {
  name: "relu3a_tp"
  type: "ReLU"
  bottom: "conv3a_tp"
  top: "conv3a_tp"
}
layer {
  name: "pool3_tp"
  type: "NdPooling"
  bottom: "conv3a_tp"
  top: "pool3_tp"
  pooling_param {
    pool: MAX
    kernel_shape {
      dim: 2
      dim: 2
      dim: 2
    }
    stride_shape {
      dim: 2
      dim: 2
      dim: 2
    }
  }
}
layer {
  name: "conv4a_tp"
  type: "NdConvolution"
  bottom: "pool3_tp"
  top: "conv4a_tp"
  param {
    name: "conv4a_w"
    lr_mult: 1
    decay_mult: 1
  }
  param {
    name: "conv4a_b"
    lr_mult: 2
    decay_mult: 0
  }
  convolution_param {
    num_output: 256
    weight_filler {
      type: "gaussian"
      std: 0.01
    }
    bias_filler {
      type: "constant"
      value: 1
    }
    pad_shape {
      dim: 1
      dim: 1
      dim: 1
    }
    kernel_shape {
      dim: 3
      dim: 3
      dim: 3
    }
    stride_shape {
      dim: 1
      dim: 1
      dim: 1
    }
  }
}
layer {
  name: "relu4a_tp"
  type: "ReLU"
  bottom: "conv4a_tp"
  top: "conv4a_tp"
}
layer {
  name: "pool4_tp"
  type: "NdPooling"
  bottom: "conv4a_tp"
  top: "pool4_tp"
  pooling_param {
    pool: MAX
    kernel_shape {
      dim: 2
      dim: 2
      dim: 2
    }
    stride_shape {
      dim: 2
      dim: 2
      dim: 2
    }
  }
}
layer {
  name: "conv5a_tp"
  type: "NdConvolution"
  bottom: "pool4_tp"
  top: "conv5a_tp"
  param {
    name: "conv5a_w"
    lr_mult: 1
    decay_mult: 1
  }
  param {
    name: "conv5a_b"
    lr_mult: 2
    decay_mult: 0
  }
  convolution_param {
    num_output: 256
    weight_filler {
      type: "gaussian"
      std: 0.01
    }
    bias_filler {
      type: "constant"
      value: 1
    }
    pad_shape {
      dim: 1
      dim: 1
      dim: 1
    }
    kernel_shape {
      dim: 3
      dim: 3
      dim: 3
    }
    stride_shape {
      dim: 1
      dim: 1
      dim: 1
    }
  }
}
layer {
  name: "relu5a_tp"
  type: "ReLU"
  bottom: "conv5a_tp"
  top: "conv5a_tp"
}
layer {
  name: "pool5_tp"
  type: "NdPooling"
  bottom: "conv5a_tp"
  top: "pool5_tp"
  pooling_param {
    pool: MAX
    kernel_shape {
      dim: 2
      dim: 2
      dim: 2
    }
    stride_shape {
      dim: 2
      dim: 2
      dim: 2
    }
  }
}
layer {
  name: "fc6_tp"
  type: "InnerProduct"
  bottom: "pool5_tp"
  top: "fc6_tp"
  param {
    name: "fc6_w"
    lr_mult: 1
    decay_mult: 1
  }
  param {
    name: "fc6_b"
    lr_mult: 2
    decay_mult: 0
  }
  inner_product_param {
    num_output: 2048
    weight_filler {
      type: "gaussian"
      std: 0.005
    }
    bias_filler {
      type: "constant"
      value: 1
    }
  }
}
layer {
  name: "relu6_tp"
  type: "ReLU"
  bottom: "fc6_tp"
  top: "fc6_tp"
}
layer {
  name: "drop6_tp"
  type: "Dropout"
  bottom: "fc6_tp"
  top: "fc6_tp"
  dropout_param {
    dropout_ratio: 0.5
  }
}
layer {
  name: "fc7_tp"
  type: "InnerProduct"
  bottom: "fc6_tp"
  top: "fc7_tp"
  param {
    name: "fc7_w"
    lr_mult: 1
    decay_mult: 1
  }
  param {
    name: "fc7_b"
    lr_mult: 2
    decay_mult: 0
  }
  inner_product_param {
    num_output: 2048
    weight_filler {
      type: "gaussian"
      std: 0.005
    }
    bias_filler {
      type: "constant"
      value: 1
    }
  }
}
layer {
  name: "relu7_tp"
  type: "ReLU"
  bottom: "fc7_tp"
  top: "fc7_tp"
}
layer {
  name: "drop7_tp"
  type: "Dropout"
  bottom: "fc7_tp"
  top: "fc7_tp"
  dropout_param {
    dropout_ratio: 0.5
  }
}
layer {
  name: "loss"
  type: "ContrastiveLoss"
  bottom: "fc7_fp"
  bottom: "fc7_tp"
  bottom: "label"
  top: "loss"
  contrastive_loss_param {
    margin: 1
  }
}
I0225 16:35:34.532148 18369 layer_factory.hpp:77] Creating layer data
I0225 16:35:34.533098 18369 net.cpp:100] Creating Layer data
I0225 16:35:34.533128 18369 net.cpp:408] data -> pair_data
I0225 16:35:34.533188 18369 net.cpp:408] data -> label
I0225 16:35:34.534296 18381 db_lmdb.cpp:35] Opened lmdb ../LMDB/train
I0225 16:35:34.543279 18369 data_layer.cpp:41] output data size: 7,96,112,112
I0225 16:35:34.581401 18369 net.cpp:150] Setting up data
I0225 16:35:34.581424 18369 net.cpp:157] Top shape: 7 96 112 112 (8429568)
I0225 16:35:34.581429 18369 net.cpp:157] Top shape: 7 (7)
I0225 16:35:34.581430 18369 net.cpp:165] Memory required for data: 33718300
I0225 16:35:34.581441 18369 layer_factory.hpp:77] Creating layer slice_pair
I0225 16:35:34.581452 18369 net.cpp:100] Creating Layer slice_pair
I0225 16:35:34.581457 18369 net.cpp:434] slice_pair <- pair_data
I0225 16:35:34.581468 18369 net.cpp:408] slice_pair -> data_stacked_fp
I0225 16:35:34.581480 18369 net.cpp:408] slice_pair -> data_stacked_tp
I0225 16:35:34.581599 18369 net.cpp:150] Setting up slice_pair
I0225 16:35:34.581624 18369 net.cpp:157] Top shape: 7 48 112 112 (4214784)
I0225 16:35:34.581630 18369 net.cpp:157] Top shape: 7 48 112 112 (4214784)
I0225 16:35:34.581634 18369 net.cpp:165] Memory required for data: 67436572
I0225 16:35:34.581639 18369 layer_factory.hpp:77] Creating layer reshape_fp
I0225 16:35:34.581648 18369 net.cpp:100] Creating Layer reshape_fp
I0225 16:35:34.581653 18369 net.cpp:434] reshape_fp <- data_stacked_fp
I0225 16:35:34.581660 18369 net.cpp:408] reshape_fp -> data_fp
I0225 16:35:34.581702 18369 net.cpp:150] Setting up reshape_fp
I0225 16:35:34.581712 18369 net.cpp:157] Top shape: 7 3 16 112 112 (4214784)
I0225 16:35:34.581715 18369 net.cpp:165] Memory required for data: 84295708
I0225 16:35:34.581719 18369 layer_factory.hpp:77] Creating layer reshape_tp
I0225 16:35:34.581725 18369 net.cpp:100] Creating Layer reshape_tp
I0225 16:35:34.581729 18369 net.cpp:434] reshape_tp <- data_stacked_tp
I0225 16:35:34.581737 18369 net.cpp:408] reshape_tp -> data_tp
I0225 16:35:34.581765 18369 net.cpp:150] Setting up reshape_tp
I0225 16:35:34.581775 18369 net.cpp:157] Top shape: 7 3 16 112 112 (4214784)
I0225 16:35:34.581781 18369 net.cpp:165] Memory required for data: 101154844
I0225 16:35:34.581785 18369 layer_factory.hpp:77] Creating layer conv1a_fp
I0225 16:35:34.581804 18369 net.cpp:100] Creating Layer conv1a_fp
I0225 16:35:34.581809 18369 net.cpp:434] conv1a_fp <- data_fp
I0225 16:35:34.581820 18369 net.cpp:408] conv1a_fp -> conv1a_fp
I0225 16:35:34.789670 18369 net.cpp:150] Setting up conv1a_fp
I0225 16:35:34.789707 18369 net.cpp:157] Top shape: 7 64 16 112 112 (89915392)
I0225 16:35:34.789710 18369 net.cpp:165] Memory required for data: 460816412
I0225 16:35:34.789723 18369 layer_factory.hpp:77] Creating layer relu1a_fp
I0225 16:35:34.789731 18369 net.cpp:100] Creating Layer relu1a_fp
I0225 16:35:34.789733 18369 net.cpp:434] relu1a_fp <- conv1a_fp
I0225 16:35:34.789738 18369 net.cpp:395] relu1a_fp -> conv1a_fp (in-place)
I0225 16:35:34.789986 18369 net.cpp:150] Setting up relu1a_fp
I0225 16:35:34.790015 18369 net.cpp:157] Top shape: 7 64 16 112 112 (89915392)
I0225 16:35:34.790019 18369 net.cpp:165] Memory required for data: 820477980
I0225 16:35:34.790022 18369 layer_factory.hpp:77] Creating layer pool1_fp
I0225 16:35:34.790030 18369 net.cpp:100] Creating Layer pool1_fp
I0225 16:35:34.790032 18369 net.cpp:434] pool1_fp <- conv1a_fp
I0225 16:35:34.790038 18369 net.cpp:408] pool1_fp -> pool1_fp
I0225 16:35:34.791049 18369 net.cpp:150] Setting up pool1_fp
I0225 16:35:34.791076 18369 net.cpp:157] Top shape: 7 64 16 56 56 (22478848)
I0225 16:35:34.791079 18369 net.cpp:165] Memory required for data: 910393372
I0225 16:35:34.791082 18369 layer_factory.hpp:77] Creating layer conv2a_fp
I0225 16:35:34.791111 18369 net.cpp:100] Creating Layer conv2a_fp
I0225 16:35:34.791115 18369 net.cpp:434] conv2a_fp <- pool1_fp
I0225 16:35:34.791137 18369 net.cpp:408] conv2a_fp -> conv2a_fp
I0225 16:35:34.793931 18369 net.cpp:150] Setting up conv2a_fp
I0225 16:35:34.793963 18369 net.cpp:157] Top shape: 7 128 16 56 56 (44957696)
I0225 16:35:34.793965 18369 net.cpp:165] Memory required for data: 1090224156
I0225 16:35:34.793987 18369 layer_factory.hpp:77] Creating layer relu2a_fp
I0225 16:35:34.794013 18369 net.cpp:100] Creating Layer relu2a_fp
I0225 16:35:34.794015 18369 net.cpp:434] relu2a_fp <- conv2a_fp
I0225 16:35:34.794020 18369 net.cpp:395] relu2a_fp -> conv2a_fp (in-place)
I0225 16:35:34.794931 18369 net.cpp:150] Setting up relu2a_fp
I0225 16:35:34.794940 18369 net.cpp:157] Top shape: 7 128 16 56 56 (44957696)
I0225 16:35:34.794942 18369 net.cpp:165] Memory required for data: 1270054940
I0225 16:35:34.794945 18369 layer_factory.hpp:77] Creating layer pool2_fp
I0225 16:35:34.794951 18369 net.cpp:100] Creating Layer pool2_fp
I0225 16:35:34.794953 18369 net.cpp:434] pool2_fp <- conv2a_fp
I0225 16:35:34.794958 18369 net.cpp:408] pool2_fp -> pool2_fp
I0225 16:35:34.795372 18369 net.cpp:150] Setting up pool2_fp
I0225 16:35:34.795382 18369 net.cpp:157] Top shape: 7 128 8 28 28 (5619712)
I0225 16:35:34.795385 18369 net.cpp:165] Memory required for data: 1292533788
I0225 16:35:34.795403 18369 layer_factory.hpp:77] Creating layer conv3a_fp
I0225 16:35:34.795413 18369 net.cpp:100] Creating Layer conv3a_fp
I0225 16:35:34.795416 18369 net.cpp:434] conv3a_fp <- pool2_fp
I0225 16:35:34.795438 18369 net.cpp:408] conv3a_fp -> conv3a_fp
I0225 16:35:34.805109 18369 net.cpp:150] Setting up conv3a_fp
I0225 16:35:34.805142 18369 net.cpp:157] Top shape: 7 256 8 28 28 (11239424)
I0225 16:35:34.805145 18369 net.cpp:165] Memory required for data: 1337491484
I0225 16:35:34.805153 18369 layer_factory.hpp:77] Creating layer relu3a_fp
I0225 16:35:34.805160 18369 net.cpp:100] Creating Layer relu3a_fp
I0225 16:35:34.805162 18369 net.cpp:434] relu3a_fp <- conv3a_fp
I0225 16:35:34.805166 18369 net.cpp:395] relu3a_fp -> conv3a_fp (in-place)
I0225 16:35:34.805411 18369 net.cpp:150] Setting up relu3a_fp
I0225 16:35:34.805423 18369 net.cpp:157] Top shape: 7 256 8 28 28 (11239424)
I0225 16:35:34.805425 18369 net.cpp:165] Memory required for data: 1382449180
I0225 16:35:34.805428 18369 layer_factory.hpp:77] Creating layer pool3_fp
I0225 16:35:34.805434 18369 net.cpp:100] Creating Layer pool3_fp
I0225 16:35:34.805438 18369 net.cpp:434] pool3_fp <- conv3a_fp
I0225 16:35:34.805445 18369 net.cpp:408] pool3_fp -> pool3_fp
I0225 16:35:34.805721 18369 net.cpp:150] Setting up pool3_fp
I0225 16:35:34.805728 18369 net.cpp:157] Top shape: 7 256 4 14 14 (1404928)
I0225 16:35:34.805732 18369 net.cpp:165] Memory required for data: 1388068892
I0225 16:35:34.805733 18369 layer_factory.hpp:77] Creating layer conv4a_fp
I0225 16:35:34.805768 18369 net.cpp:100] Creating Layer conv4a_fp
I0225 16:35:34.805773 18369 net.cpp:434] conv4a_fp <- pool3_fp
I0225 16:35:34.805779 18369 net.cpp:408] conv4a_fp -> conv4a_fp
I0225 16:35:34.822618 18369 net.cpp:150] Setting up conv4a_fp
I0225 16:35:34.822654 18369 net.cpp:157] Top shape: 7 256 4 14 14 (1404928)
I0225 16:35:34.822656 18369 net.cpp:165] Memory required for data: 1393688604
I0225 16:35:34.822664 18369 layer_factory.hpp:77] Creating layer relu4a_fp
I0225 16:35:34.822685 18369 net.cpp:100] Creating Layer relu4a_fp
I0225 16:35:34.822686 18369 net.cpp:434] relu4a_fp <- conv4a_fp
I0225 16:35:34.822710 18369 net.cpp:395] relu4a_fp -> conv4a_fp (in-place)
I0225 16:35:34.823396 18369 net.cpp:150] Setting up relu4a_fp
I0225 16:35:34.823426 18369 net.cpp:157] Top shape: 7 256 4 14 14 (1404928)
I0225 16:35:34.823428 18369 net.cpp:165] Memory required for data: 1399308316
I0225 16:35:34.823432 18369 layer_factory.hpp:77] Creating layer pool4_fp
I0225 16:35:34.823453 18369 net.cpp:100] Creating Layer pool4_fp
I0225 16:35:34.823472 18369 net.cpp:434] pool4_fp <- conv4a_fp
I0225 16:35:34.823480 18369 net.cpp:408] pool4_fp -> pool4_fp
I0225 16:35:34.823856 18369 net.cpp:150] Setting up pool4_fp
I0225 16:35:34.823868 18369 net.cpp:157] Top shape: 7 256 2 7 7 (175616)
I0225 16:35:34.823870 18369 net.cpp:165] Memory required for data: 1400010780
I0225 16:35:34.823873 18369 layer_factory.hpp:77] Creating layer conv5a_fp
I0225 16:35:34.823889 18369 net.cpp:100] Creating Layer conv5a_fp
I0225 16:35:34.823894 18369 net.cpp:434] conv5a_fp <- pool4_fp
I0225 16:35:34.823921 18369 net.cpp:408] conv5a_fp -> conv5a_fp
I0225 16:35:34.839552 18369 net.cpp:150] Setting up conv5a_fp
I0225 16:35:34.839586 18369 net.cpp:157] Top shape: 7 256 2 7 7 (175616)
I0225 16:35:34.839589 18369 net.cpp:165] Memory required for data: 1400713244
I0225 16:35:34.839602 18369 layer_factory.hpp:77] Creating layer relu5a_fp
I0225 16:35:34.839609 18369 net.cpp:100] Creating Layer relu5a_fp
I0225 16:35:34.839612 18369 net.cpp:434] relu5a_fp <- conv5a_fp
I0225 16:35:34.839617 18369 net.cpp:395] relu5a_fp -> conv5a_fp (in-place)
I0225 16:35:34.839949 18369 net.cpp:150] Setting up relu5a_fp
I0225 16:35:34.839977 18369 net.cpp:157] Top shape: 7 256 2 7 7 (175616)
I0225 16:35:34.839980 18369 net.cpp:165] Memory required for data: 1401415708
I0225 16:35:34.839984 18369 layer_factory.hpp:77] Creating layer pool5_fp
I0225 16:35:34.840011 18369 net.cpp:100] Creating Layer pool5_fp
I0225 16:35:34.840014 18369 net.cpp:434] pool5_fp <- conv5a_fp
I0225 16:35:34.840087 18369 net.cpp:408] pool5_fp -> pool5_fp
I0225 16:35:34.840396 18369 net.cpp:150] Setting up pool5_fp
I0225 16:35:34.840405 18369 net.cpp:157] Top shape: 7 256 1 4 4 (28672)
I0225 16:35:34.840409 18369 net.cpp:165] Memory required for data: 1401530396
I0225 16:35:34.840412 18369 layer_factory.hpp:77] Creating layer fc6_fp
I0225 16:35:34.840440 18369 net.cpp:100] Creating Layer fc6_fp
I0225 16:35:34.840445 18369 net.cpp:434] fc6_fp <- pool5_fp
I0225 16:35:34.840454 18369 net.cpp:408] fc6_fp -> fc6_fp
I0225 16:35:34.911916 18369 net.cpp:150] Setting up fc6_fp
I0225 16:35:34.911934 18369 net.cpp:157] Top shape: 7 2048 (14336)
I0225 16:35:34.911936 18369 net.cpp:165] Memory required for data: 1401587740
I0225 16:35:34.911944 18369 layer_factory.hpp:77] Creating layer relu6_fp
I0225 16:35:34.911950 18369 net.cpp:100] Creating Layer relu6_fp
I0225 16:35:34.911953 18369 net.cpp:434] relu6_fp <- fc6_fp
I0225 16:35:34.911958 18369 net.cpp:395] relu6_fp -> fc6_fp (in-place)
I0225 16:35:34.912703 18369 net.cpp:150] Setting up relu6_fp
I0225 16:35:34.912713 18369 net.cpp:157] Top shape: 7 2048 (14336)
I0225 16:35:34.912714 18369 net.cpp:165] Memory required for data: 1401645084
I0225 16:35:34.912717 18369 layer_factory.hpp:77] Creating layer drop6_fp
I0225 16:35:34.912753 18369 net.cpp:100] Creating Layer drop6_fp
I0225 16:35:34.912755 18369 net.cpp:434] drop6_fp <- fc6_fp
I0225 16:35:34.912760 18369 net.cpp:395] drop6_fp -> fc6_fp (in-place)
I0225 16:35:34.912832 18369 net.cpp:150] Setting up drop6_fp
I0225 16:35:34.912842 18369 net.cpp:157] Top shape: 7 2048 (14336)
I0225 16:35:34.912844 18369 net.cpp:165] Memory required for data: 1401702428
I0225 16:35:34.912847 18369 layer_factory.hpp:77] Creating layer fc7_fp
I0225 16:35:34.912855 18369 net.cpp:100] Creating Layer fc7_fp
I0225 16:35:34.912859 18369 net.cpp:434] fc7_fp <- fc6_fp
I0225 16:35:34.912865 18369 net.cpp:408] fc7_fp -> fc7_fp
I0225 16:35:34.948915 18369 net.cpp:150] Setting up fc7_fp
I0225 16:35:34.948951 18369 net.cpp:157] Top shape: 7 2048 (14336)
I0225 16:35:34.948952 18369 net.cpp:165] Memory required for data: 1401759772
I0225 16:35:34.949000 18369 layer_factory.hpp:77] Creating layer relu7_fp
I0225 16:35:34.949008 18369 net.cpp:100] Creating Layer relu7_fp
I0225 16:35:34.949012 18369 net.cpp:434] relu7_fp <- fc7_fp
I0225 16:35:34.949018 18369 net.cpp:395] relu7_fp -> fc7_fp (in-place)
I0225 16:35:34.949378 18369 net.cpp:150] Setting up relu7_fp
I0225 16:35:34.949407 18369 net.cpp:157] Top shape: 7 2048 (14336)
I0225 16:35:34.949411 18369 net.cpp:165] Memory required for data: 1401817116
I0225 16:35:34.949414 18369 layer_factory.hpp:77] Creating layer drop7
I0225 16:35:34.949421 18369 net.cpp:100] Creating Layer drop7
I0225 16:35:34.949426 18369 net.cpp:434] drop7 <- fc7_fp
I0225 16:35:34.949451 18369 net.cpp:395] drop7 -> fc7_fp (in-place)
I0225 16:35:34.949520 18369 net.cpp:150] Setting up drop7
I0225 16:35:34.949539 18369 net.cpp:157] Top shape: 7 2048 (14336)
I0225 16:35:34.949542 18369 net.cpp:165] Memory required for data: 1401874460
I0225 16:35:34.949546 18369 layer_factory.hpp:77] Creating layer conv1a_tp
I0225 16:35:34.949574 18369 net.cpp:100] Creating Layer conv1a_tp
I0225 16:35:34.949594 18369 net.cpp:434] conv1a_tp <- data_tp
I0225 16:35:34.949621 18369 net.cpp:408] conv1a_tp -> conv1a_tp
I0225 16:35:34.952004 18369 net.cpp:150] Setting up conv1a_tp
I0225 16:35:34.952034 18369 net.cpp:157] Top shape: 7 64 16 112 112 (89915392)
I0225 16:35:34.952036 18369 net.cpp:165] Memory required for data: 1761536028
I0225 16:35:34.952040 18369 net.cpp:493] Sharing parameters 'conv1a_w' owned by layer 'conv1a_fp', param index 0
I0225 16:35:34.952057 18369 net.cpp:493] Sharing parameters 'conv1a_b' owned by layer 'conv1a_fp', param index 1
I0225 16:35:34.952060 18369 layer_factory.hpp:77] Creating layer relu1a_tp
I0225 16:35:34.952083 18369 net.cpp:100] Creating Layer relu1a_tp
I0225 16:35:34.952085 18369 net.cpp:434] relu1a_tp <- conv1a_tp
I0225 16:35:34.952092 18369 net.cpp:395] relu1a_tp -> conv1a_tp (in-place)
I0225 16:35:34.952574 18369 net.cpp:150] Setting up relu1a_tp
I0225 16:35:34.952584 18369 net.cpp:157] Top shape: 7 64 16 112 112 (89915392)
I0225 16:35:34.952587 18369 net.cpp:165] Memory required for data: 2121197596
I0225 16:35:34.952592 18369 layer_factory.hpp:77] Creating layer pool1_tp
I0225 16:35:34.952601 18369 net.cpp:100] Creating Layer pool1_tp
I0225 16:35:34.952606 18369 net.cpp:434] pool1_tp <- conv1a_tp
I0225 16:35:34.952615 18369 net.cpp:408] pool1_tp -> pool1_tp
I0225 16:35:34.953009 18369 net.cpp:150] Setting up pool1_tp
I0225 16:35:34.953037 18369 net.cpp:157] Top shape: 7 64 16 56 56 (22478848)
I0225 16:35:34.953038 18369 net.cpp:165] Memory required for data: 2211112988
I0225 16:35:34.953040 18369 layer_factory.hpp:77] Creating layer conv2a_tp
I0225 16:35:34.953066 18369 net.cpp:100] Creating Layer conv2a_tp
I0225 16:35:34.953069 18369 net.cpp:434] conv2a_tp <- pool1_tp
I0225 16:35:34.953074 18369 net.cpp:408] conv2a_tp -> conv2a_tp
I0225 16:35:34.956039 18369 net.cpp:150] Setting up conv2a_tp
I0225 16:35:34.956048 18369 net.cpp:157] Top shape: 7 128 16 56 56 (44957696)
I0225 16:35:34.956069 18369 net.cpp:165] Memory required for data: 2390943772
I0225 16:35:34.956075 18369 net.cpp:493] Sharing parameters 'conv2a_w' owned by layer 'conv2a_fp', param index 0
I0225 16:35:34.956079 18369 net.cpp:493] Sharing parameters 'conv2a_b' owned by layer 'conv2a_fp', param index 1
I0225 16:35:34.956082 18369 layer_factory.hpp:77] Creating layer relu2a_tp
I0225 16:35:34.956087 18369 net.cpp:100] Creating Layer relu2a_tp
I0225 16:35:34.956090 18369 net.cpp:434] relu2a_tp <- conv2a_tp
I0225 16:35:34.956095 18369 net.cpp:395] relu2a_tp -> conv2a_tp (in-place)
I0225 16:35:34.956405 18369 net.cpp:150] Setting up relu2a_tp
I0225 16:35:34.956415 18369 net.cpp:157] Top shape: 7 128 16 56 56 (44957696)
I0225 16:35:34.956418 18369 net.cpp:165] Memory required for data: 2570774556
I0225 16:35:34.956419 18369 layer_factory.hpp:77] Creating layer pool2_tp
I0225 16:35:34.956425 18369 net.cpp:100] Creating Layer pool2_tp
I0225 16:35:34.956428 18369 net.cpp:434] pool2_tp <- conv2a_tp
I0225 16:35:34.956431 18369 net.cpp:408] pool2_tp -> pool2_tp
I0225 16:35:34.957226 18369 net.cpp:150] Setting up pool2_tp
I0225 16:35:34.957237 18369 net.cpp:157] Top shape: 7 128 8 28 28 (5619712)
I0225 16:35:34.957240 18369 net.cpp:165] Memory required for data: 2593253404
I0225 16:35:34.957244 18369 layer_factory.hpp:77] Creating layer conv3a_tp
I0225 16:35:34.957271 18369 net.cpp:100] Creating Layer conv3a_tp
I0225 16:35:34.957275 18369 net.cpp:434] conv3a_tp <- pool2_tp
I0225 16:35:34.957295 18369 net.cpp:408] conv3a_tp -> conv3a_tp
I0225 16:35:34.966449 18369 net.cpp:150] Setting up conv3a_tp
I0225 16:35:34.966464 18369 net.cpp:157] Top shape: 7 256 8 28 28 (11239424)
I0225 16:35:34.966467 18369 net.cpp:165] Memory required for data: 2638211100
I0225 16:35:34.966471 18369 net.cpp:493] Sharing parameters 'conv3a_w' owned by layer 'conv3a_fp', param index 0
I0225 16:35:34.966475 18369 net.cpp:493] Sharing parameters 'conv3a_b' owned by layer 'conv3a_fp', param index 1
I0225 16:35:34.966477 18369 layer_factory.hpp:77] Creating layer relu3a_tp
I0225 16:35:34.966488 18369 net.cpp:100] Creating Layer relu3a_tp
I0225 16:35:34.966491 18369 net.cpp:434] relu3a_tp <- conv3a_tp
I0225 16:35:34.966495 18369 net.cpp:395] relu3a_tp -> conv3a_tp (in-place)
I0225 16:35:34.966708 18369 net.cpp:150] Setting up relu3a_tp
I0225 16:35:34.966719 18369 net.cpp:157] Top shape: 7 256 8 28 28 (11239424)
I0225 16:35:34.966722 18369 net.cpp:165] Memory required for data: 2683168796
I0225 16:35:34.966725 18369 layer_factory.hpp:77] Creating layer pool3_tp
I0225 16:35:34.966732 18369 net.cpp:100] Creating Layer pool3_tp
I0225 16:35:34.966735 18369 net.cpp:434] pool3_tp <- conv3a_tp
I0225 16:35:34.966742 18369 net.cpp:408] pool3_tp -> pool3_tp
I0225 16:35:34.967038 18369 net.cpp:150] Setting up pool3_tp
I0225 16:35:34.967048 18369 net.cpp:157] Top shape: 7 256 4 14 14 (1404928)
I0225 16:35:34.967051 18369 net.cpp:165] Memory required for data: 2688788508
I0225 16:35:34.967063 18369 layer_factory.hpp:77] Creating layer conv4a_tp
I0225 16:35:34.967070 18369 net.cpp:100] Creating Layer conv4a_tp
I0225 16:35:34.967099 18369 net.cpp:434] conv4a_tp <- pool3_tp
I0225 16:35:34.967106 18369 net.cpp:408] conv4a_tp -> conv4a_tp
I0225 16:35:34.983028 18369 net.cpp:150] Setting up conv4a_tp
I0225 16:35:34.983045 18369 net.cpp:157] Top shape: 7 256 4 14 14 (1404928)
I0225 16:35:34.983048 18369 net.cpp:165] Memory required for data: 2694408220
I0225 16:35:34.983053 18369 net.cpp:493] Sharing parameters 'conv4a_w' owned by layer 'conv4a_fp', param index 0
I0225 16:35:34.983055 18369 net.cpp:493] Sharing parameters 'conv4a_b' owned by layer 'conv4a_fp', param index 1
I0225 16:35:34.983058 18369 layer_factory.hpp:77] Creating layer relu4a_tp
I0225 16:35:34.983064 18369 net.cpp:100] Creating Layer relu4a_tp
I0225 16:35:34.983067 18369 net.cpp:434] relu4a_tp <- conv4a_tp
I0225 16:35:34.983070 18369 net.cpp:395] relu4a_tp -> conv4a_tp (in-place)
I0225 16:35:34.983283 18369 net.cpp:150] Setting up relu4a_tp
I0225 16:35:34.983291 18369 net.cpp:157] Top shape: 7 256 4 14 14 (1404928)
I0225 16:35:34.983294 18369 net.cpp:165] Memory required for data: 2700027932
I0225 16:35:34.983297 18369 layer_factory.hpp:77] Creating layer pool4_tp
I0225 16:35:34.983304 18369 net.cpp:100] Creating Layer pool4_tp
I0225 16:35:34.983307 18369 net.cpp:434] pool4_tp <- conv4a_tp
I0225 16:35:34.983314 18369 net.cpp:408] pool4_tp -> pool4_tp
I0225 16:35:34.984035 18369 net.cpp:150] Setting up pool4_tp
I0225 16:35:34.984045 18369 net.cpp:157] Top shape: 7 256 2 7 7 (175616)
I0225 16:35:34.984050 18369 net.cpp:165] Memory required for data: 2700730396
I0225 16:35:34.984053 18369 layer_factory.hpp:77] Creating layer conv5a_tp
I0225 16:35:34.984063 18369 net.cpp:100] Creating Layer conv5a_tp
I0225 16:35:34.984066 18369 net.cpp:434] conv5a_tp <- pool4_tp
I0225 16:35:34.984098 18369 net.cpp:408] conv5a_tp -> conv5a_tp
I0225 16:35:34.999758 18369 net.cpp:150] Setting up conv5a_tp
I0225 16:35:34.999799 18369 net.cpp:157] Top shape: 7 256 2 7 7 (175616)
I0225 16:35:34.999824 18369 net.cpp:165] Memory required for data: 2701432860
I0225 16:35:34.999827 18369 net.cpp:493] Sharing parameters 'conv5a_w' owned by layer 'conv5a_fp', param index 0
I0225 16:35:34.999845 18369 net.cpp:493] Sharing parameters 'conv5a_b' owned by layer 'conv5a_fp', param index 1
I0225 16:35:34.999848 18369 layer_factory.hpp:77] Creating layer relu5a_tp
I0225 16:35:34.999855 18369 net.cpp:100] Creating Layer relu5a_tp
I0225 16:35:34.999857 18369 net.cpp:434] relu5a_tp <- conv5a_tp
I0225 16:35:34.999879 18369 net.cpp:395] relu5a_tp -> conv5a_tp (in-place)
I0225 16:35:35.000886 18369 net.cpp:150] Setting up relu5a_tp
I0225 16:35:35.000915 18369 net.cpp:157] Top shape: 7 256 2 7 7 (175616)
I0225 16:35:35.000916 18369 net.cpp:165] Memory required for data: 2702135324
I0225 16:35:35.000919 18369 layer_factory.hpp:77] Creating layer pool5_tp
I0225 16:35:35.000928 18369 net.cpp:100] Creating Layer pool5_tp
I0225 16:35:35.000933 18369 net.cpp:434] pool5_tp <- conv5a_tp
I0225 16:35:35.000958 18369 net.cpp:408] pool5_tp -> pool5_tp
I0225 16:35:35.001452 18369 net.cpp:150] Setting up pool5_tp
I0225 16:35:35.001478 18369 net.cpp:157] Top shape: 7 256 1 4 4 (28672)
I0225 16:35:35.001482 18369 net.cpp:165] Memory required for data: 2702250012
I0225 16:35:35.001503 18369 layer_factory.hpp:77] Creating layer fc6_tp
I0225 16:35:35.001513 18369 net.cpp:100] Creating Layer fc6_tp
I0225 16:35:35.001516 18369 net.cpp:434] fc6_tp <- pool5_tp
I0225 16:35:35.001525 18369 net.cpp:408] fc6_tp -> fc6_tp
I0225 16:35:35.068083 18369 net.cpp:150] Setting up fc6_tp
I0225 16:35:35.068120 18369 net.cpp:157] Top shape: 7 2048 (14336)
I0225 16:35:35.068121 18369 net.cpp:165] Memory required for data: 2702307356
I0225 16:35:35.068126 18369 net.cpp:493] Sharing parameters 'fc6_w' owned by layer 'fc6_fp', param index 0
I0225 16:35:35.068130 18369 net.cpp:493] Sharing parameters 'fc6_b' owned by layer 'fc6_fp', param index 1
I0225 16:35:35.068133 18369 layer_factory.hpp:77] Creating layer relu6_tp
I0225 16:35:35.068174 18369 net.cpp:100] Creating Layer relu6_tp
I0225 16:35:35.068179 18369 net.cpp:434] relu6_tp <- fc6_tp
I0225 16:35:35.068186 18369 net.cpp:395] relu6_tp -> fc6_tp (in-place)
I0225 16:35:35.068533 18369 net.cpp:150] Setting up relu6_tp
I0225 16:35:35.068557 18369 net.cpp:157] Top shape: 7 2048 (14336)
I0225 16:35:35.068560 18369 net.cpp:165] Memory required for data: 2702364700
I0225 16:35:35.068563 18369 layer_factory.hpp:77] Creating layer drop6_tp
I0225 16:35:35.068585 18369 net.cpp:100] Creating Layer drop6_tp
I0225 16:35:35.068609 18369 net.cpp:434] drop6_tp <- fc6_tp
I0225 16:35:35.068616 18369 net.cpp:395] drop6_tp -> fc6_tp (in-place)
I0225 16:35:35.068706 18369 net.cpp:150] Setting up drop6_tp
I0225 16:35:35.068729 18369 net.cpp:157] Top shape: 7 2048 (14336)
I0225 16:35:35.068733 18369 net.cpp:165] Memory required for data: 2702422044
I0225 16:35:35.068758 18369 layer_factory.hpp:77] Creating layer fc7_tp
I0225 16:35:35.068766 18369 net.cpp:100] Creating Layer fc7_tp
I0225 16:35:35.068788 18369 net.cpp:434] fc7_tp <- fc6_tp
I0225 16:35:35.068794 18369 net.cpp:408] fc7_tp -> fc7_tp
I0225 16:35:35.105410 18369 net.cpp:150] Setting up fc7_tp
I0225 16:35:35.105427 18369 net.cpp:157] Top shape: 7 2048 (14336)
I0225 16:35:35.105430 18369 net.cpp:165] Memory required for data: 2702479388
I0225 16:35:35.105458 18369 layer_factory.hpp:77] Creating layer relu7_tp
I0225 16:35:35.105468 18369 net.cpp:100] Creating Layer relu7_tp
I0225 16:35:35.105473 18369 net.cpp:434] relu7_tp <- fc7_tp
I0225 16:35:35.105499 18369 net.cpp:395] relu7_tp -> fc7_tp (in-place)
I0225 16:35:35.106703 18369 net.cpp:150] Setting up relu7_tp
I0225 16:35:35.106729 18369 net.cpp:157] Top shape: 7 2048 (14336)
I0225 16:35:35.106734 18369 net.cpp:165] Memory required for data: 2702536732
I0225 16:35:35.106739 18369 layer_factory.hpp:77] Creating layer drop7_tp
I0225 16:35:35.106765 18369 net.cpp:100] Creating Layer drop7_tp
I0225 16:35:35.106770 18369 net.cpp:434] drop7_tp <- fc7_tp
I0225 16:35:35.106776 18369 net.cpp:395] drop7_tp -> fc7_tp (in-place)
I0225 16:35:35.106861 18369 net.cpp:150] Setting up drop7_tp
I0225 16:35:35.106869 18369 net.cpp:157] Top shape: 7 2048 (14336)
I0225 16:35:35.106873 18369 net.cpp:165] Memory required for data: 2702594076
I0225 16:35:35.106876 18369 layer_factory.hpp:77] Creating layer loss
I0225 16:35:35.106884 18369 net.cpp:100] Creating Layer loss
I0225 16:35:35.106889 18369 net.cpp:434] loss <- fc7_fp
I0225 16:35:35.106894 18369 net.cpp:434] loss <- fc7_tp
I0225 16:35:35.106899 18369 net.cpp:434] loss <- label
I0225 16:35:35.106907 18369 net.cpp:408] loss -> loss
…
