…
    mean_value: 86
    mean_value: 63
    mean_value: 71
    mean_value: 86
    mean_value: 63
    mean_value: 71
    mean_value: 86
    mean_value: 63
    mean_value: 71
    mean_value: 86
    mean_value: 63
    mean_value: 71
    mean_value: 86
    mean_value: 63
    mean_value: 71
    mean_value: 86
    mean_value: 63
    mean_value: 71
    mean_value: 86
    mean_value: 63
    mean_value: 71
    mean_value: 86
    mean_value: 63
    mean_value: 71
    mean_value: 86
  }
  data_param {
    source: "../LMDB/train"
    batch_size: 7
    backend: LMDB
  }
}
layer {
  name: "slice_pair"
  type: "Slice"
  bottom: "pair_data"
  top: "data_stacked_fp"
  top: "data_stacked_tp"
  slice_param {
    slice_dim: 1
    slice_point: 48
  }
}
layer {
  name: "reshape_fp"
  type: "Reshape"
  bottom: "data_stacked_fp"
  top: "data_fp"
  reshape_param {
    shape {
      dim: 0
      dim: 3
      dim: 16
      dim: 112
      dim: 112
    }
  }
}
layer {
  name: "reshape_tp"
  type: "Reshape"
  bottom: "data_stacked_tp"
  top: "data_tp"
  reshape_param {
    shape {
      dim: 0
      dim: 3
      dim: 16
      dim: 112
      dim: 112
    }
  }
}
layer {
  name: "conv1a_fp"
  type: "NdConvolution"
  bottom: "data_fp"
  top: "conv1a_fp"
  param {
    name: "conv1a_w"
    lr_mult: 1
    decay_mult: 1
  }
  param {
    name: "conv1a_b"
    lr_mult: 2
    decay_mult: 0
  }
  convolution_param {
    num_output: 64
    weight_filler {
      type: "gaussian"
      std: 0.01
    }
    bias_filler {
      type: "constant"
      value: 0
    }
    pad_shape {
      dim: 1
      dim: 1
      dim: 1
    }
    kernel_shape {
      dim: 3
      dim: 3
      dim: 3
    }
    stride_shape {
      dim: 1
      dim: 1
      dim: 1
    }
  }
}
layer {
  name: "relu1a_fp"
  type: "ReLU"
  bottom: "conv1a_fp"
  top: "conv1a_fp"
}
layer {
  name: "pool1_fp"
  type: "NdPooling"
  bottom: "conv1a_fp"
  top: "pool1_fp"
  pooling_param {
    pool: MAX
    kernel_shape {
      dim: 1
      dim: 2
      dim: 2
    }
    stride_shape {
      dim: 1
      dim: 2
      dim: 2
    }
  }
}
layer {
  name: "conv2a_fp"
  type: "NdConvolution"
  bottom: "pool1_fp"
  top: "conv2a_fp"
  param {
    name: "conv2a_w"
    lr_mult: 1
    decay_mult: 1
  }
  param {
    name: "conv2a_b"
    lr_mult: 2
    decay_mult: 0
  }
  convolution_param {
    num_output: 128
    weight_filler {
      type: "gaussian"
      std: 0.01
    }
    bias_filler {
      type: "constant"
      value: 1
    }
    pad_shape {
      dim: 1
      dim: 1
      dim: 1
    }
    kernel_shape {
      dim: 3
      dim: 3
      dim: 3
    }
    stride_shape {
      dim: 1
      dim: 1
      dim: 1
    }
  }
}
layer {
  name: "relu2a_fp"
  type: "ReLU"
  bottom: "conv2a_fp"
  top: "conv2a_fp"
}
layer {
  name: "pool2_fp"
  type: "NdPooling"
  bottom: "conv2a_fp"
  top: "pool2_fp"
  pooling_param {
    pool: MAX
    kernel_shape {
      dim: 2
      dim: 2
      dim: 2
    }
    stride_shape {
      dim: 2
      dim: 2
      dim: 2
    }
  }
}
layer {
  name: "conv3a_fp"
  type: "NdConvolution"
  bottom: "pool2_fp"
  top: "conv3a_fp"
  param {
    name: "conv3a_w"
    lr_mult: 1
    decay_mult: 1
  }
  param {
    name: "conv3a_b"
    lr_mult: 2
    decay_mult: 0
  }
  convolution_param {
    num_output: 256
    weight_filler {
      type: "gaussian"
      std: 0.01
    }
    bias_filler {
      type: "constant"
      value: 1
    }
    pad_shape {
      dim: 1
      dim: 1
      dim: 1
    }
    kernel_shape {
      dim: 3
      dim: 3
      dim: 3
    }
    stride_shape {
      dim: 1
      dim: 1
      dim: 1
    }
  }
}
layer {
  name: "relu3a_fp"
  type: "ReLU"
  bottom: "conv3a_fp"
  top: "conv3a_fp"
}
layer {
  name: "pool3_fp"
  type: "NdPooling"
  bottom: "conv3a_fp"
  top: "pool3_fp"
  pooling_param {
    pool: MAX
    kernel_shape {
      dim: 2
      dim: 2
      dim: 2
    }
    stride_shape {
      dim: 2
      dim: 2
      dim: 2
    }
  }
}
layer {
  name: "conv4a_fp"
  type: "NdConvolution"
  bottom: "pool3_fp"
  top: "conv4a_fp"
  param {
    name: "conv4a_w"
    lr_mult: 1
    decay_mult: 1
  }
  param {
    name: "conv4a_b"
    lr_mult: 2
    decay_mult: 0
  }
  convolution_param {
    num_output: 256
    weight_filler {
      type: "gaussian"
      std: 0.01
    }
    bias_filler {
      type: "constant"
      value: 1
    }
    pad_shape {
      dim: 1
      dim: 1
      dim: 1
    }
    kernel_shape {
      dim: 3
      dim: 3
      dim: 3
    }
    stride_shape {
      dim: 1
      dim: 1
      dim: 1
    }
  }
}
layer {
  name: "relu4a_fp"
  type: "ReLU"
  bottom: "conv4a_fp"
  top: "conv4a_fp"
}
layer {
  name: "pool4_fp"
  type: "NdPooling"
  bottom: "conv4a_fp"
  top: "pool4_fp"
  pooling_param {
    pool: MAX
    kernel_shape {
      dim: 2
      dim: 2
      dim: 2
    }
    stride_shape {
      dim: 2
      dim: 2
      dim: 2
    }
  }
}
layer {
  name: "conv5a_fp"
  type: "NdConvolution"
  bottom: "pool4_fp"
  top: "conv5a_fp"
  param {
    name: "conv5a_w"
    lr_mult: 1
    decay_mult: 1
  }
  param {
    name: "conv5a_b"
    lr_mult: 2
    decay_mult: 0
  }
  convolution_param {
    num_output: 256
    weight_filler {
      type: "gaussian"
      std: 0.01
    }
    bias_filler {
      type: "constant"
      value: 1
    }
    pad_shape {
      dim: 1
      dim: 1
      dim: 1
    }
    kernel_shape {
      dim: 3
      dim: 3
      dim: 3
    }
    stride_shape {
      dim: 1
      dim: 1
      dim: 1
    }
  }
}
layer {
  name: "relu5a_fp"
  type: "ReLU"
  bottom: "conv5a_fp"
  top: "conv5a_fp"
}
layer {
  name: "pool5_fp"
  type: "NdPooling"
  bottom: "conv5a_fp"
  top: "pool5_fp"
  pooling_param {
    pool: MAX
    kernel_shape {
      dim: 2
      dim: 2
      dim: 2
    }
    stride_shape {
      dim: 2
      dim: 2
      dim: 2
    }
  }
}
layer {
  name: "fc6_fp"
  type: "InnerProduct"
  bottom: "pool5_fp"
  top: "fc6_fp"
  param {
    name: "fc6_w"
    lr_mult: 1
    decay_mult: 1
  }
  param {
    name: "fc6_b"
    lr_mult: 2
    decay_mult: 0
  }
  inner_product_param {
    num_output: 2048
    weight_filler {
      type: "gaussian"
      std: 0.005
    }
    bias_filler {
      type: "constant"
      value: 1
    }
  }
}
layer {
  name: "relu6_fp"
  type: "ReLU"
  bottom: "fc6_fp"
  top: "fc6_fp"
}
layer {
  name: "drop6_fp"
  type: "Dropout"
  bottom: "fc6_fp"
  top: "fc6_fp"
  dropout_param {
    dropout_ratio: 0.5
  }
}
layer {
  name: "fc7_fp"
  type: "InnerProduct"
  bottom: "fc6_fp"
  top: "fc7_fp"
  param {
    lr_mult: 1
    decay_mult: 1
  }
  param {
    lr_mult: 2
    decay_mult: 0
  }
  inner_product_param {
    num_output: 2048
    weight_filler {
      type: "gaussian"
      std: 0.005
    }
    bias_filler {
      type: "constant"
      value: 1
    }
  }
}
layer {
  name: "relu7_fp"
  type: "ReLU"
  bottom: "fc7_fp"
  top: "fc7_fp"
}
layer {
  name: "drop7"
  type: "Dropout"
  bottom: "fc7_fp"
  top: "fc7_fp"
  dropout_param {
    dropout_ratio: 0.5
  }
}
layer {
  name: "conv1a_tp"
  type: "NdConvolution"
  bottom: "data_tp"
  top: "conv1a_tp"
  param {
    name: "conv1a_w"
    lr_mult: 1
    decay_mult: 1
  }
  param {
    name: "conv1a_b"
    lr_mult: 2
    decay_mult: 0
  }
  convolution_param {
    num_output: 64
    weight_filler {
      type: "gaussian"
      std: 0.01
    }
    bias_filler {
      type: "constant"
      value: 0
    }
    pad_shape {
      dim: 1
      dim: 1
      dim: 1
    }
    kernel_shape {
      dim: 3
      dim: 3
      dim: 3
    }
    stride_shape {
      dim: 1
      dim: 1
      dim: 1
    }
  }
}
layer {
  name: "relu1a_tp"
  type: "ReLU"
  bottom: "conv1a_tp"
  top: "conv1a_tp"
}
layer {
  name: "pool1_tp"
  type: "NdPooling"
  bottom: "conv1a_tp"
  top: "pool1_tp"
  pooling_param {
    pool: MAX
    kernel_shape {
      dim: 1
      dim: 2
      dim: 2
    }
    stride_shape {
      dim: 1
      dim: 2
      dim: 2
    }
  }
}
layer {
  name: "conv2a_tp"
  type: "NdConvolution"
  bottom: "pool1_tp"
  top: "conv2a_tp"
  param {
    name: "conv2a_w"
    lr_mult: 1
    decay_mult: 1
  }
  param {
    name: "conv2a_b"
    lr_mult: 2
    decay_mult: 0
  }
  convolution_param {
    num_output: 128
    weight_filler {
      type: "gaussian"
      std: 0.01
    }
    bias_filler {
      type: "constant"
      value: 1
    }
    pad_shape {
      dim: 1
      dim: 1
      dim: 1
    }
    kernel_shape {
      dim: 3
      dim: 3
      dim: 3
    }
    stride_shape {
      dim: 1
      dim: 1
      dim: 1
    }
  }
}
layer {
  name: "relu2a_tp"
  type: "ReLU"
  bottom: "conv2a_tp"
  top: "conv2a_tp"
}
layer {
  name: "pool2_tp"
  type: "NdPooling"
  bottom: "conv2a_tp"
  top: "pool2_tp"
  pooling_param {
    pool: MAX
    kernel_shape {
      dim: 2
      dim: 2
      dim: 2
    }
    stride_shape {
      dim: 2
      dim: 2
      dim: 2
    }
  }
}
layer {
  name: "conv3a_tp"
  type: "NdConvolution"
  bottom: "pool2_tp"
  top: "conv3a_tp"
  param {
    name: "conv3a_w"
    lr_mult: 1
    decay_mult: 1
  }
  param {
    name: "conv3a_b"
    lr_mult: 2
    decay_mult: 0
  }
  convolution_param {
    num_output: 256
    weight_filler {
      type: "gaussian"
      std: 0.01
    }
    bias_filler {
      type: "constant"
      value: 1
    }
    pad_shape {
      dim: 1
      dim: 1
      dim: 1
    }
    kernel_shape {
      dim: 3
      dim: 3
      dim: 3
    }
    stride_shape {
      dim: 1
      dim: 1
      dim: 1
    }
  }
}
layer {
  name: "relu3a_tp"
  type: "ReLU"
  bottom: "conv3a_tp"
  top: "conv3a_tp"
}
layer {
  name: "pool3_tp"
  type: "NdPooling"
  bottom: "conv3a_tp"
  top: "pool3_tp"
  pooling_param {
    pool: MAX
    kernel_shape {
      dim: 2
      dim: 2
      dim: 2
    }
    stride_shape {
      dim: 2
      dim: 2
      dim: 2
    }
  }
}
layer {
  name: "conv4a_tp"
  type: "NdConvolution"
  bottom: "pool3_tp"
  top: "conv4a_tp"
  param {
    name: "conv4a_w"
    lr_mult: 1
    decay_mult: 1
  }
  param {
    name: "conv4a_b"
    lr_mult: 2
    decay_mult: 0
  }
  convolution_param {
    num_output: 256
    weight_filler {
      type: "gaussian"
      std: 0.01
    }
    bias_filler {
      type: "constant"
      value: 1
    }
    pad_shape {
      dim: 1
      dim: 1
      dim: 1
    }
    kernel_shape {
      dim: 3
      dim: 3
      dim: 3
    }
    stride_shape {
      dim: 1
      dim: 1
      dim: 1
    }
  }
}
layer {
  name: "relu4a_tp"
  type: "ReLU"
  bottom: "conv4a_tp"
  top: "conv4a_tp"
}
layer {
  name: "pool4_tp"
  type: "NdPooling"
  bottom: "conv4a_tp"
  top: "pool4_tp"
  pooling_param {
    pool: MAX
    kernel_shape {
      dim: 2
      dim: 2
      dim: 2
    }
    stride_shape {
      dim: 2
      dim: 2
      dim: 2
    }
  }
}
layer {
  name: "conv5a_tp"
  type: "NdConvolution"
  bottom: "pool4_tp"
  top: "conv5a_tp"
  param {
    name: "conv5a_w"
    lr_mult: 1
    decay_mult: 1
  }
  param {
    name: "conv5a_b"
    lr_mult: 2
    decay_mult: 0
  }
  convolution_param {
    num_output: 256
    weight_filler {
      type: "gaussian"
      std: 0.01
    }
    bias_filler {
      type: "constant"
      value: 1
    }
    pad_shape {
      dim: 1
      dim: 1
      dim: 1
    }
    kernel_shape {
      dim: 3
      dim: 3
      dim: 3
    }
    stride_shape {
      dim: 1
      dim: 1
      dim: 1
    }
  }
}
layer {
  name: "relu5a_tp"
  type: "ReLU"
  bottom: "conv5a_tp"
  top: "conv5a_tp"
}
layer {
  name: "pool5_tp"
  type: "NdPooling"
  bottom: "conv5a_tp"
  top: "pool5_tp"
  pooling_param {
    pool: MAX
    kernel_shape {
      dim: 2
      dim: 2
      dim: 2
    }
    stride_shape {
      dim: 2
      dim: 2
      dim: 2
    }
  }
}
layer {
  name: "fc6_tp"
  type: "InnerProduct"
  bottom: "pool5_tp"
  top: "fc6_tp"
  param {
    name: "fc6_w"
    lr_mult: 1
    decay_mult: 1
  }
  param {
    name: "fc6_b"
    lr_mult: 2
    decay_mult: 0
  }
  inner_product_param {
    num_output: 2048
    weight_filler {
      type: "gaussian"
      std: 0.005
    }
    bias_filler {
      type: "constant"
      value: 1
    }
  }
}
layer {
  name: "relu6_tp"
  type: "ReLU"
  bottom: "fc6_tp"
  top: "fc6_tp"
}
layer {
  name: "drop6_tp"
  type: "Dropout"
  bottom: "fc6_tp"
  top: "fc6_tp"
  dropout_param {
    dropout_ratio: 0.5
  }
}
layer {
  name: "fc7_tp"
  type: "InnerProduct"
  bottom: "fc6_tp"
  top: "fc7_tp"
  param {
    name: "fc7_w"
    lr_mult: 1
    decay_mult: 1
  }
  param {
    name: "fc7_b"
    lr_mult: 2
    decay_mult: 0
  }
  inner_product_param {
    num_output: 2048
    weight_filler {
      type: "gaussian"
      std: 0.005
    }
    bias_filler {
      type: "constant"
      value: 1
    }
  }
}
layer {
  name: "relu7_tp"
  type: "ReLU"
  bottom: "fc7_tp"
  top: "fc7_tp"
}
layer {
  name: "drop7_tp"
  type: "Dropout"
  bottom: "fc7_tp"
  top: "fc7_tp"
  dropout_param {
    dropout_ratio: 0.5
  }
}
layer {
  name: "loss"
  type: "ContrastiveLoss"
  bottom: "fc7_fp"
  bottom: "fc7_tp"
  bottom: "label"
  top: "loss"
  contrastive_loss_param {
    margin: 1
  }
}
I0226 19:49:01.394501 24682 layer_factory.hpp:77] Creating layer data
I0226 19:49:01.395265 24682 net.cpp:100] Creating Layer data
I0226 19:49:01.395277 24682 net.cpp:408] data -> pair_data
I0226 19:49:01.395303 24682 net.cpp:408] data -> label
I0226 19:49:01.396096 24705 db_lmdb.cpp:35] Opened lmdb ../LMDB/train
I0226 19:49:01.410712 24682 data_layer.cpp:41] output data size: 7,96,112,112
I0226 19:49:01.456193 24682 net.cpp:150] Setting up data
I0226 19:49:01.456221 24682 net.cpp:157] Top shape: 7 96 112 112 (8429568)
I0226 19:49:01.456228 24682 net.cpp:157] Top shape: 7 (7)
I0226 19:49:01.456231 24682 net.cpp:165] Memory required for data: 33718300
I0226 19:49:01.456246 24682 layer_factory.hpp:77] Creating layer slice_pair
I0226 19:49:01.456262 24682 net.cpp:100] Creating Layer slice_pair
I0226 19:49:01.456271 24682 net.cpp:434] slice_pair <- pair_data
I0226 19:49:01.456290 24682 net.cpp:408] slice_pair -> data_stacked_fp
I0226 19:49:01.456315 24682 net.cpp:408] slice_pair -> data_stacked_tp
I0226 19:49:01.456392 24682 net.cpp:150] Setting up slice_pair
I0226 19:49:01.456415 24682 net.cpp:157] Top shape: 7 48 112 112 (4214784)
I0226 19:49:01.456421 24682 net.cpp:157] Top shape: 7 48 112 112 (4214784)
I0226 19:49:01.456424 24682 net.cpp:165] Memory required for data: 67436572
I0226 19:49:01.456429 24682 layer_factory.hpp:77] Creating layer reshape_fp
I0226 19:49:01.456439 24682 net.cpp:100] Creating Layer reshape_fp
I0226 19:49:01.456444 24682 net.cpp:434] reshape_fp <- data_stacked_fp
I0226 19:49:01.456451 24682 net.cpp:408] reshape_fp -> data_fp
I0226 19:49:01.456488 24682 net.cpp:150] Setting up reshape_fp
I0226 19:49:01.456497 24682 net.cpp:157] Top shape: 7 3 16 112 112 (4214784)
I0226 19:49:01.456501 24682 net.cpp:165] Memory required for data: 84295708
I0226 19:49:01.456504 24682 layer_factory.hpp:77] Creating layer reshape_tp
I0226 19:49:01.456509 24682 net.cpp:100] Creating Layer reshape_tp
I0226 19:49:01.456516 24682 net.cpp:434] reshape_tp <- data_stacked_tp
I0226 19:49:01.456523 24682 net.cpp:408] reshape_tp -> data_tp
I0226 19:49:01.456550 24682 net.cpp:150] Setting up reshape_tp
I0226 19:49:01.456558 24682 net.cpp:157] Top shape: 7 3 16 112 112 (4214784)
I0226 19:49:01.456562 24682 net.cpp:165] Memory required for data: 101154844
I0226 19:49:01.456567 24682 layer_factory.hpp:77] Creating layer conv1a_fp
I0226 19:49:01.456578 24682 net.cpp:100] Creating Layer conv1a_fp
I0226 19:49:01.456583 24682 net.cpp:434] conv1a_fp <- data_fp
I0226 19:49:01.456594 24682 net.cpp:408] conv1a_fp -> conv1a_fp
I0226 19:49:01.737699 24682 net.cpp:150] Setting up conv1a_fp
I0226 19:49:01.737723 24682 net.cpp:157] Top shape: 7 64 16 112 112 (89915392)
I0226 19:49:01.737726 24682 net.cpp:165] Memory required for data: 460816412
I0226 19:49:01.737742 24682 layer_factory.hpp:77] Creating layer relu1a_fp
I0226 19:49:01.737751 24682 net.cpp:100] Creating Layer relu1a_fp
I0226 19:49:01.737756 24682 net.cpp:434] relu1a_fp <- conv1a_fp
I0226 19:49:01.737762 24682 net.cpp:395] relu1a_fp -> conv1a_fp (in-place)
I0226 19:49:01.737992 24682 net.cpp:150] Setting up relu1a_fp
I0226 19:49:01.738003 24682 net.cpp:157] Top shape: 7 64 16 112 112 (89915392)
I0226 19:49:01.738006 24682 net.cpp:165] Memory required for data: 820477980
I0226 19:49:01.738009 24682 layer_factory.hpp:77] Creating layer pool1_fp
I0226 19:49:01.738018 24682 net.cpp:100] Creating Layer pool1_fp
I0226 19:49:01.738023 24682 net.cpp:434] pool1_fp <- conv1a_fp
I0226 19:49:01.738030 24682 net.cpp:408] pool1_fp -> pool1_fp
I0226 19:49:01.738714 24682 net.cpp:150] Setting up pool1_fp
I0226 19:49:01.738731 24682 net.cpp:157] Top shape: 7 64 16 56 56 (22478848)
I0226 19:49:01.738734 24682 net.cpp:165] Memory required for data: 910393372
I0226 19:49:01.738739 24682 layer_factory.hpp:77] Creating layer conv2a_fp
I0226 19:49:01.738754 24682 net.cpp:100] Creating Layer conv2a_fp
I0226 19:49:01.738780 24682 net.cpp:434] conv2a_fp <- pool1_fp
I0226 19:49:01.738792 24682 net.cpp:408] conv2a_fp -> conv2a_fp
I0226 19:49:01.742203 24682 net.cpp:150] Setting up conv2a_fp
I0226 19:49:01.742228 24682 net.cpp:157] Top shape: 7 128 16 56 56 (44957696)
I0226 19:49:01.742233 24682 net.cpp:165] Memory required for data: 1090224156
I0226 19:49:01.742249 24682 layer_factory.hpp:77] Creating layer relu2a_fp
I0226 19:49:01.742262 24682 net.cpp:100] Creating Layer relu2a_fp
I0226 19:49:01.742287 24682 net.cpp:434] relu2a_fp <- conv2a_fp
I0226 19:49:01.742297 24682 net.cpp:395] relu2a_fp -> conv2a_fp (in-place)
I0226 19:49:01.742907 24682 net.cpp:150] Setting up relu2a_fp
I0226 19:49:01.742918 24682 net.cpp:157] Top shape: 7 128 16 56 56 (44957696)
I0226 19:49:01.742921 24682 net.cpp:165] Memory required for data: 1270054940
I0226 19:49:01.742928 24682 layer_factory.hpp:77] Creating layer pool2_fp
I0226 19:49:01.742938 24682 net.cpp:100] Creating Layer pool2_fp
I0226 19:49:01.742964 24682 net.cpp:434] pool2_fp <- conv2a_fp
I0226 19:49:01.742982 24682 net.cpp:408] pool2_fp -> pool2_fp
I0226 19:49:01.743188 24682 net.cpp:150] Setting up pool2_fp
I0226 19:49:01.743198 24682 net.cpp:157] Top shape: 7 128 8 28 28 (5619712)
I0226 19:49:01.743201 24682 net.cpp:165] Memory required for data: 1292533788
I0226 19:49:01.743221 24682 layer_factory.hpp:77] Creating layer conv3a_fp
I0226 19:49:01.743233 24682 net.cpp:100] Creating Layer conv3a_fp
I0226 19:49:01.743238 24682 net.cpp:434] conv3a_fp <- pool2_fp
I0226 19:49:01.743247 24682 net.cpp:408] conv3a_fp -> conv3a_fp
I0226 19:49:01.752898 24682 net.cpp:150] Setting up conv3a_fp
I0226 19:49:01.752919 24682 net.cpp:157] Top shape: 7 256 8 28 28 (11239424)
I0226 19:49:01.752923 24682 net.cpp:165] Memory required for data: 1337491484
I0226 19:49:01.752935 24682 layer_factory.hpp:77] Creating layer relu3a_fp
I0226 19:49:01.752946 24682 net.cpp:100] Creating Layer relu3a_fp
I0226 19:49:01.752951 24682 net.cpp:434] relu3a_fp <- conv3a_fp
I0226 19:49:01.752987 24682 net.cpp:395] relu3a_fp -> conv3a_fp (in-place)
I0226 19:49:01.753145 24682 net.cpp:150] Setting up relu3a_fp
I0226 19:49:01.753154 24682 net.cpp:157] Top shape: 7 256 8 28 28 (11239424)
I0226 19:49:01.753157 24682 net.cpp:165] Memory required for data: 1382449180
I0226 19:49:01.753161 24682 layer_factory.hpp:77] Creating layer pool3_fp
I0226 19:49:01.753170 24682 net.cpp:100] Creating Layer pool3_fp
I0226 19:49:01.753186 24682 net.cpp:434] pool3_fp <- conv3a_fp
I0226 19:49:01.753196 24682 net.cpp:408] pool3_fp -> pool3_fp
I0226 19:49:01.753371 24682 net.cpp:150] Setting up pool3_fp
I0226 19:49:01.753381 24682 net.cpp:157] Top shape: 7 256 4 14 14 (1404928)
I0226 19:49:01.753383 24682 net.cpp:165] Memory required for data: 1388068892
I0226 19:49:01.753388 24682 layer_factory.hpp:77] Creating layer conv4a_fp
I0226 19:49:01.753397 24682 net.cpp:100] Creating Layer conv4a_fp
I0226 19:49:01.753402 24682 net.cpp:434] conv4a_fp <- pool3_fp
I0226 19:49:01.753409 24682 net.cpp:408] conv4a_fp -> conv4a_fp
I0226 19:49:01.771044 24682 net.cpp:150] Setting up conv4a_fp
I0226 19:49:01.771066 24682 net.cpp:157] Top shape: 7 256 4 14 14 (1404928)
I0226 19:49:01.771070 24682 net.cpp:165] Memory required for data: 1393688604
I0226 19:49:01.771080 24682 layer_factory.hpp:77] Creating layer relu4a_fp
I0226 19:49:01.771091 24682 net.cpp:100] Creating Layer relu4a_fp
I0226 19:49:01.771095 24682 net.cpp:434] relu4a_fp <- conv4a_fp
I0226 19:49:01.771103 24682 net.cpp:395] relu4a_fp -> conv4a_fp (in-place)
I0226 19:49:01.771677 24682 net.cpp:150] Setting up relu4a_fp
I0226 19:49:01.771690 24682 net.cpp:157] Top shape: 7 256 4 14 14 (1404928)
I0226 19:49:01.771693 24682 net.cpp:165] Memory required for data: 1399308316
I0226 19:49:01.771697 24682 layer_factory.hpp:77] Creating layer pool4_fp
I0226 19:49:01.771705 24682 net.cpp:100] Creating Layer pool4_fp
I0226 19:49:01.771711 24682 net.cpp:434] pool4_fp <- conv4a_fp
I0226 19:49:01.771718 24682 net.cpp:408] pool4_fp -> pool4_fp
I0226 19:49:01.771916 24682 net.cpp:150] Setting up pool4_fp
I0226 19:49:01.771924 24682 net.cpp:157] Top shape: 7 256 2 7 7 (175616)
I0226 19:49:01.771929 24682 net.cpp:165] Memory required for data: 1400010780
I0226 19:49:01.771932 24682 layer_factory.hpp:77] Creating layer conv5a_fp
I0226 19:49:01.771945 24682 net.cpp:100] Creating Layer conv5a_fp
I0226 19:49:01.771950 24682 net.cpp:434] conv5a_fp <- pool4_fp
I0226 19:49:01.771960 24682 net.cpp:408] conv5a_fp -> conv5a_fp
I0226 19:49:01.790154 24682 net.cpp:150] Setting up conv5a_fp
I0226 19:49:01.790175 24682 net.cpp:157] Top shape: 7 256 2 7 7 (175616)
I0226 19:49:01.790179 24682 net.cpp:165] Memory required for data: 1400713244
I0226 19:49:01.790192 24682 layer_factory.hpp:77] Creating layer relu5a_fp
I0226 19:49:01.790202 24682 net.cpp:100] Creating Layer relu5a_fp
I0226 19:49:01.790206 24682 net.cpp:434] relu5a_fp <- conv5a_fp
I0226 19:49:01.790213 24682 net.cpp:395] relu5a_fp -> conv5a_fp (in-place)
I0226 19:49:01.790422 24682 net.cpp:150] Setting up relu5a_fp
I0226 19:49:01.790433 24682 net.cpp:157] Top shape: 7 256 2 7 7 (175616)
I0226 19:49:01.790436 24682 net.cpp:165] Memory required for data: 1401415708
I0226 19:49:01.790441 24682 layer_factory.hpp:77] Creating layer pool5_fp
I0226 19:49:01.790452 24682 net.cpp:100] Creating Layer pool5_fp
I0226 19:49:01.790464 24682 net.cpp:434] pool5_fp <- conv5a_fp
I0226 19:49:01.790482 24682 net.cpp:408] pool5_fp -> pool5_fp
I0226 19:49:01.790709 24682 net.cpp:150] Setting up pool5_fp
I0226 19:49:01.790721 24682 net.cpp:157] Top shape: 7 256 1 4 4 (28672)
I0226 19:49:01.790724 24682 net.cpp:165] Memory required for data: 1401530396
I0226 19:49:01.790729 24682 layer_factory.hpp:77] Creating layer fc6_fp
I0226 19:49:01.790738 24682 net.cpp:100] Creating Layer fc6_fp
I0226 19:49:01.790743 24682 net.cpp:434] fc6_fp <- pool5_fp
I0226 19:49:01.790751 24682 net.cpp:408] fc6_fp -> fc6_fp
I0226 19:49:01.870345 24682 net.cpp:150] Setting up fc6_fp
I0226 19:49:01.870373 24682 net.cpp:157] Top shape: 7 2048 (14336)
I0226 19:49:01.870376 24682 net.cpp:165] Memory required for data: 1401587740
I0226 19:49:01.870389 24682 layer_factory.hpp:77] Creating layer relu6_fp
I0226 19:49:01.870419 24682 net.cpp:100] Creating Layer relu6_fp
I0226 19:49:01.870424 24682 net.cpp:434] relu6_fp <- fc6_fp
I0226 19:49:01.870432 24682 net.cpp:395] relu6_fp -> fc6_fp (in-place)
I0226 19:49:01.871353 24682 net.cpp:150] Setting up relu6_fp
I0226 19:49:01.871364 24682 net.cpp:157] Top shape: 7 2048 (14336)
I0226 19:49:01.871366 24682 net.cpp:165] Memory required for data: 1401645084
I0226 19:49:01.871371 24682 layer_factory.hpp:77] Creating layer drop6_fp
I0226 19:49:01.871403 24682 net.cpp:100] Creating Layer drop6_fp
I0226 19:49:01.871413 24682 net.cpp:434] drop6_fp <- fc6_fp
I0226 19:49:01.871420 24682 net.cpp:395] drop6_fp -> fc6_fp (in-place)
I0226 19:49:01.871469 24682 net.cpp:150] Setting up drop6_fp
I0226 19:49:01.871475 24682 net.cpp:157] Top shape: 7 2048 (14336)
I0226 19:49:01.871479 24682 net.cpp:165] Memory required for data: 1401702428
I0226 19:49:01.871481 24682 layer_factory.hpp:77] Creating layer fc7_fp
I0226 19:49:01.871492 24682 net.cpp:100] Creating Layer fc7_fp
I0226 19:49:01.871496 24682 net.cpp:434] fc7_fp <- fc6_fp
I0226 19:49:01.871505 24682 net.cpp:408] fc7_fp -> fc7_fp
I0226 19:49:01.908167 24682 net.cpp:150] Setting up fc7_fp
I0226 19:49:01.908186 24682 net.cpp:157] Top shape: 7 2048 (14336)
I0226 19:49:01.908190 24682 net.cpp:165] Memory required for data: 1401759772
I0226 19:49:01.908226 24682 layer_factory.hpp:77] Creating layer relu7_fp
I0226 19:49:01.908237 24682 net.cpp:100] Creating Layer relu7_fp
I0226 19:49:01.908268 24682 net.cpp:434] relu7_fp <- fc7_fp
I0226 19:49:01.908289 24682 net.cpp:395] relu7_fp -> fc7_fp (in-place)
I0226 19:49:01.908540 24682 net.cpp:150] Setting up relu7_fp
I0226 19:49:01.908546 24682 net.cpp:157] Top shape: 7 2048 (14336)
I0226 19:49:01.908550 24682 net.cpp:165] Memory required for data: 1401817116
I0226 19:49:01.908570 24682 layer_factory.hpp:77] Creating layer drop7
I0226 19:49:01.908596 24682 net.cpp:100] Creating Layer drop7
I0226 19:49:01.908601 24682 net.cpp:434] drop7 <- fc7_fp
I0226 19:49:01.908608 24682 net.cpp:395] drop7 -> fc7_fp (in-place)
I0226 19:49:01.908638 24682 net.cpp:150] Setting up drop7
I0226 19:49:01.908659 24682 net.cpp:157] Top shape: 7 2048 (14336)
I0226 19:49:01.908661 24682 net.cpp:165] Memory required for data: 1401874460
I0226 19:49:01.908665 24682 layer_factory.hpp:77] Creating layer conv1a_tp
I0226 19:49:01.908694 24682 net.cpp:100] Creating Layer conv1a_tp
I0226 19:49:01.908699 24682 net.cpp:434] conv1a_tp <- data_tp
I0226 19:49:01.908706 24682 net.cpp:408] conv1a_tp -> conv1a_tp
I0226 19:49:01.910655 24682 net.cpp:150] Setting up conv1a_tp
I0226 19:49:01.910670 24682 net.cpp:157] Top shape: 7 64 16 112 112 (89915392)
I0226 19:49:01.910673 24682 net.cpp:165] Memory required for data: 1761536028
I0226 19:49:01.910679 24682 net.cpp:493] Sharing parameters 'conv1a_w' owned by layer 'conv1a_fp', param index 0
I0226 19:49:01.910684 24682 net.cpp:493] Sharing parameters 'conv1a_b' owned by layer 'conv1a_fp', param index 1
I0226 19:49:01.910688 24682 layer_factory.hpp:77] Creating layer relu1a_tp
I0226 19:49:01.910715 24682 net.cpp:100] Creating Layer relu1a_tp
I0226 19:49:01.910733 24682 net.cpp:434] relu1a_tp <- conv1a_tp
I0226 19:49:01.910740 24682 net.cpp:395] relu1a_tp -> conv1a_tp (in-place)
I0226 19:49:01.910991 24682 net.cpp:150] Setting up relu1a_tp
I0226 19:49:01.911017 24682 net.cpp:157] Top shape: 7 64 16 112 112 (89915392)
I0226 19:49:01.911020 24682 net.cpp:165] Memory required for data: 2121197596
I0226 19:49:01.911026 24682 layer_factory.hpp:77] Creating layer pool1_tp
I0226 19:49:01.911051 24682 net.cpp:100] Creating Layer pool1_tp
I0226 19:49:01.911056 24682 net.cpp:434] pool1_tp <- conv1a_tp
I0226 19:49:01.911063 24682 net.cpp:408] pool1_tp -> pool1_tp
I0226 19:49:01.911262 24682 net.cpp:150] Setting up pool1_tp
I0226 19:49:01.911268 24682 net.cpp:157] Top shape: 7 64 16 56 56 (22478848)
I0226 19:49:01.911272 24682 net.cpp:165] Memory required for data: 2211112988
I0226 19:49:01.911275 24682 layer_factory.hpp:77] Creating layer conv2a_tp
I0226 19:49:01.911286 24682 net.cpp:100] Creating Layer conv2a_tp
I0226 19:49:01.911290 24682 net.cpp:434] conv2a_tp <- pool1_tp
I0226 19:49:01.911298 24682 net.cpp:408] conv2a_tp -> conv2a_tp
I0226 19:49:01.914013 24682 net.cpp:150] Setting up conv2a_tp
I0226 19:49:01.914031 24682 net.cpp:157] Top shape: 7 128 16 56 56 (44957696)
I0226 19:49:01.914033 24682 net.cpp:165] Memory required for data: 2390943772
I0226 19:49:01.914042 24682 net.cpp:493] Sharing parameters 'conv2a_w' owned by layer 'conv2a_fp', param index 0
I0226 19:49:01.914048 24682 net.cpp:493] Sharing parameters 'conv2a_b' owned by layer 'conv2a_fp', param index 1
I0226 19:49:01.914053 24682 layer_factory.hpp:77] Creating layer relu2a_tp
I0226 19:49:01.914063 24682 net.cpp:100] Creating Layer relu2a_tp
I0226 19:49:01.914093 24682 net.cpp:434] relu2a_tp <- conv2a_tp
I0226 19:49:01.914100 24682 net.cpp:395] relu2a_tp -> conv2a_tp (in-place)
I0226 19:49:01.914257 24682 net.cpp:150] Setting up relu2a_tp
I0226 19:49:01.914263 24682 net.cpp:157] Top shape: 7 128 16 56 56 (44957696)
I0226 19:49:01.914266 24682 net.cpp:165] Memory required for data: 2570774556
I0226 19:49:01.914268 24682 layer_factory.hpp:77] Creating layer pool2_tp
I0226 19:49:01.914274 24682 net.cpp:100] Creating Layer pool2_tp
I0226 19:49:01.914276 24682 net.cpp:434] pool2_tp <- conv2a_tp
I0226 19:49:01.914281 24682 net.cpp:408] pool2_tp -> pool2_tp
I0226 19:49:01.914984 24682 net.cpp:150] Setting up pool2_tp
I0226 19:49:01.914994 24682 net.cpp:157] Top shape: 7 128 8 28 28 (5619712)
I0226 19:49:01.914997 24682 net.cpp:165] Memory required for data: 2593253404
I0226 19:49:01.915000 24682 layer_factory.hpp:77] Creating layer conv3a_tp
I0226 19:49:01.915027 24682 net.cpp:100] Creating Layer conv3a_tp
I0226 19:49:01.915051 24682 net.cpp:434] conv3a_tp <- pool2_tp
I0226 19:49:01.915060 24682 net.cpp:408] conv3a_tp -> conv3a_tp
I0226 19:49:01.923957 24682 net.cpp:150] Setting up conv3a_tp
I0226 19:49:01.923991 24682 net.cpp:157] Top shape: 7 256 8 28 28 (11239424)
I0226 19:49:01.923995 24682 net.cpp:165] Memory required for data: 2638211100
I0226 19:49:01.924000 24682 net.cpp:493] Sharing parameters 'conv3a_w' owned by layer 'conv3a_fp', param index 0
I0226 19:49:01.924003 24682 net.cpp:493] Sharing parameters 'conv3a_b' owned by layer 'conv3a_fp', param index 1
I0226 19:49:01.924006 24682 layer_factory.hpp:77] Creating layer relu3a_tp
I0226 19:49:01.924053 24682 net.cpp:100] Creating Layer relu3a_tp
I0226 19:49:01.924057 24682 net.cpp:434] relu3a_tp <- conv3a_tp
I0226 19:49:01.924063 24682 net.cpp:395] relu3a_tp -> conv3a_tp (in-place)
I0226 19:49:01.924235 24682 net.cpp:150] Setting up relu3a_tp
I0226 19:49:01.924260 24682 net.cpp:157] Top shape: 7 256 8 28 28 (11239424)
I0226 19:49:01.924263 24682 net.cpp:165] Memory required for data: 2683168796
I0226 19:49:01.924265 24682 layer_factory.hpp:77] Creating layer pool3_tp
I0226 19:49:01.924273 24682 net.cpp:100] Creating Layer pool3_tp
I0226 19:49:01.924278 24682 net.cpp:434] pool3_tp <- conv3a_tp
I0226 19:49:01.924284 24682 net.cpp:408] pool3_tp -> pool3_tp
I0226 19:49:01.924533 24682 net.cpp:150] Setting up pool3_tp
I0226 19:49:01.924554 24682 net.cpp:157] Top shape: 7 256 4 14 14 (1404928)
I0226 19:49:01.924557 24682 net.cpp:165] Memory required for data: 2688788508
I0226 19:49:01.924574 24682 layer_factory.hpp:77] Creating layer conv4a_tp
I0226 19:49:01.924582 24682 net.cpp:100] Creating Layer conv4a_tp
I0226 19:49:01.924603 24682 net.cpp:434] conv4a_tp <- pool3_tp
I0226 19:49:01.924624 24682 net.cpp:408] conv4a_tp -> conv4a_tp
I0226 19:49:01.942064 24682 net.cpp:150] Setting up conv4a_tp
I0226 19:49:01.942080 24682 net.cpp:157] Top shape: 7 256 4 14 14 (1404928)
I0226 19:49:01.942082 24682 net.cpp:165] Memory required for data: 2694408220
I0226 19:49:01.942087 24682 net.cpp:493] Sharing parameters 'conv4a_w' owned by layer 'conv4a_fp', param index 0
I0226 19:49:01.942109 24682 net.cpp:493] Sharing parameters 'conv4a_b' owned by layer 'conv4a_fp', param index 1
I0226 19:49:01.942112 24682 layer_factory.hpp:77] Creating layer relu4a_tp
I0226 19:49:01.942121 24682 net.cpp:100] Creating Layer relu4a_tp
I0226 19:49:01.942124 24682 net.cpp:434] relu4a_tp <- conv4a_tp
I0226 19:49:01.942143 24682 net.cpp:395] relu4a_tp -> conv4a_tp (in-place)
I0226 19:49:01.942359 24682 net.cpp:150] Setting up relu4a_tp
I0226 19:49:01.942368 24682 net.cpp:157] Top shape: 7 256 4 14 14 (1404928)
I0226 19:49:01.942370 24682 net.cpp:165] Memory required for data: 2700027932
I0226 19:49:01.942373 24682 layer_factory.hpp:77] Creating layer pool4_tp
I0226 19:49:01.942380 24682 net.cpp:100] Creating Layer pool4_tp
I0226 19:49:01.942385 24682 net.cpp:434] pool4_tp <- conv4a_tp
I0226 19:49:01.942402 24682 net.cpp:408] pool4_tp -> pool4_tp
I0226 19:49:01.943125 24682 net.cpp:150] Setting up pool4_tp
I0226 19:49:01.943135 24682 net.cpp:157] Top shape: 7 256 2 7 7 (175616)
I0226 19:49:01.943136 24682 net.cpp:165] Memory required for data: 2700730396
I0226 19:49:01.943140 24682 layer_factory.hpp:77] Creating layer conv5a_tp
I0226 19:49:01.943150 24682 net.cpp:100] Creating Layer conv5a_tp
I0226 19:49:01.943155 24682 net.cpp:434] conv5a_tp <- pool4_tp
I0226 19:49:01.943163 24682 net.cpp:408] conv5a_tp -> conv5a_tp
I0226 19:49:01.959130 24682 net.cpp:150] Setting up conv5a_tp
I0226 19:49:01.959147 24682 net.cpp:157] Top shape: 7 256 2 7 7 (175616)
I0226 19:49:01.959151 24682 net.cpp:165] Memory required for data: 2701432860
I0226 19:49:01.959156 24682 net.cpp:493] Sharing parameters 'conv5a_w' owned by layer 'conv5a_fp', param index 0
I0226 19:49:01.959180 24682 net.cpp:493] Sharing parameters 'conv5a_b' owned by layer 'conv5a_fp', param index 1
I0226 19:49:01.959184 24682 layer_factory.hpp:77] Creating layer relu5a_tp
I0226 19:49:01.959193 24682 net.cpp:100] Creating Layer relu5a_tp
I0226 19:49:01.959197 24682 net.cpp:434] relu5a_tp <- conv5a_tp
I0226 19:49:01.959206 24682 net.cpp:395] relu5a_tp -> conv5a_tp (in-place)
I0226 19:49:01.961170 24682 net.cpp:150] Setting up relu5a_tp
I0226 19:49:01.961186 24682 net.cpp:157] Top shape: 7 256 2 7 7 (175616)
I0226 19:49:01.961189 24682 net.cpp:165] Memory required for data: 2702135324
I0226 19:49:01.961194 24682 layer_factory.hpp:77] Creating layer pool5_tp
I0226 19:49:01.961206 24682 net.cpp:100] Creating Layer pool5_tp
I0226 19:49:01.961213 24682 net.cpp:434] pool5_tp <- conv5a_tp
I0226 19:49:01.961221 24682 net.cpp:408] pool5_tp -> pool5_tp
I0226 19:49:01.961428 24682 net.cpp:150] Setting up pool5_tp
I0226 19:49:01.961439 24682 net.cpp:157] Top shape: 7 256 1 4 4 (28672)
I0226 19:49:01.961442 24682 net.cpp:165] Memory required for data: 2702250012
I0226 19:49:01.961447 24682 layer_factory.hpp:77] Creating layer fc6_tp
I0226 19:49:01.961457 24682 net.cpp:100] Creating Layer fc6_tp
I0226 19:49:01.961462 24682 net.cpp:434] fc6_tp <- pool5_tp
I0226 19:49:01.961469 24682 net.cpp:408] fc6_tp -> fc6_tp
I0226 19:49:02.032240 24682 net.cpp:150] Setting up fc6_tp
I0226 19:49:02.032260 24682 net.cpp:157] Top shape: 7 2048 (14336)
I0226 19:49:02.032263 24682 net.cpp:165] Memory required for data: 2702307356
I0226 19:49:02.032289 24682 net.cpp:493] Sharing parameters 'fc6_w' owned by layer 'fc6_fp', param index 0
I0226 19:49:02.032294 24682 net.cpp:493] Sharing parameters 'fc6_b' owned by layer 'fc6_fp', param index 1
I0226 19:49:02.032299 24682 layer_factory.hpp:77] Creating layer relu6_tp
I0226 19:49:02.032356 24682 net.cpp:100] Creating Layer relu6_tp
I0226 19:49:02.032361 24682 net.cpp:434] relu6_tp <- fc6_tp
I0226 19:49:02.032371 24682 net.cpp:395] relu6_tp -> fc6_tp (in-place)
I0226 19:49:02.032619 24682 net.cpp:150] Setting up relu6_tp
I0226 19:49:02.032627 24682 net.cpp:157] Top shape: 7 2048 (14336)
I0226 19:49:02.032629 24682 net.cpp:165] Memory required for data: 2702364700
I0226 19:49:02.032634 24682 layer_factory.hpp:77] Creating layer drop6_tp
I0226 19:49:02.032660 24682 net.cpp:100] Creating Layer drop6_tp
I0226 19:49:02.032701 24682 net.cpp:434] drop6_tp <- fc6_tp
I0226 19:49:02.032728 24682 net.cpp:395] drop6_tp -> fc6_tp (in-place)
I0226 19:49:02.032773 24682 net.cpp:150] Setting up drop6_tp
I0226 19:49:02.032778 24682 net.cpp:157] Top shape: 7 2048 (14336)
I0226 19:49:02.032780 24682 net.cpp:165] Memory required for data: 2702422044
I0226 19:49:02.032783 24682 layer_factory.hpp:77] Creating layer fc7_tp
I0226 19:49:02.032789 24682 net.cpp:100] Creating Layer fc7_tp
I0226 19:49:02.032791 24682 net.cpp:434] fc7_tp <- fc6_tp
I0226 19:49:02.032796 24682 net.cpp:408] fc7_tp -> fc7_tp
I0226 19:49:02.069233 24682 net.cpp:150] Setting up fc7_tp
I0226 19:49:02.069250 24682 net.cpp:157] Top shape: 7 2048 (14336)
I0226 19:49:02.069252 24682 net.cpp:165] Memory required for data: 2702479388
I0226 19:49:02.069279 24682 layer_factory.hpp:77] Creating layer relu7_tp
I0226 19:49:02.069286 24682 net.cpp:100] Creating Layer relu7_tp
I0226 19:49:02.069289 24682 net.cpp:434] relu7_tp <- fc7_tp
I0226 19:49:02.069294 24682 net.cpp:395] relu7_tp -> fc7_tp (in-place)
I0226 19:49:02.070189 24682 net.cpp:150] Setting up relu7_tp
I0226 19:49:02.070221 24682 net.cpp:157] Top shape: 7 2048 (14336)
I0226 19:49:02.070224 24682 net.cpp:165] Memory required for data: 2702536732
I0226 19:49:02.070226 24682 layer_factory.hpp:77] Creating layer drop7_tp
I0226 19:49:02.070233 24682 net.cpp:100] Creating Layer drop7_tp
I0226 19:49:02.070236 24682 net.cpp:434] drop7_tp <- fc7_tp
I0226 19:49:02.070260 24682 net.cpp:395] drop7_tp -> fc7_tp (in-place)
I0226 19:49:02.070305 24682 net.cpp:150] Setting up drop7_tp
I0226 19:49:02.070312 24682 net.cpp:157] Top shape: 7 2048 (14336)
I0226 19:49:02.070314 24682 net.cpp:165] Memory required for data: 2702594076
I0226 19:49:02.070317 24682 layer_factory.hpp:77] Creating layer loss
I0226 19:49:02.070338 24682 net.cpp:100] Creating Layer loss
I0226 19:49:02.070343 24682 net.cpp:434] loss <- fc7_fp
I0226 19:49:02.070348 24682 net.cpp:434] loss <- fc7_tp
I0226 19:49:02.070351 24682 net.cpp:434] loss <- label
I0226 19:49:02.070358 24682 net.cpp:408] loss -> loss
…
