…
    mean_value: 65
    mean_value: 74
    mean_value: 92
    mean_value: 65
    mean_value: 74
    mean_value: 92
    mean_value: 65
    mean_value: 74
    mean_value: 92
    mean_value: 65
    mean_value: 74
    mean_value: 92
    mean_value: 65
    mean_value: 74
    mean_value: 92
    mean_value: 65
    mean_value: 74
    mean_value: 92
    mean_value: 65
    mean_value: 74
    mean_value: 92
    mean_value: 65
    mean_value: 74
    mean_value: 92
  }
  data_param {
    source: "/home/lferrer/Documents/LMDB_MINI/train"
    batch_size: 5
    backend: LMDB
  }
}
layer {
  name: "slicer"
  type: "Slice"
  bottom: "triplet"
  top: "anchor_stacked"
  top: "positive_stacked"
  top: "negative_stacked"
  slice_param {
    slice_dim: 1
    slice_point: 48
    slice_point: 96
  }
}
layer {
  name: "reshape_anchor"
  type: "Reshape"
  bottom: "anchor_stacked"
  top: "anchor"
  reshape_param {
    shape {
      dim: 0
      dim: 3
      dim: 16
      dim: 112
      dim: 112
    }
  }
}
layer {
  name: "reshape_positive"
  type: "Reshape"
  bottom: "positive_stacked"
  top: "positive"
  reshape_param {
    shape {
      dim: 0
      dim: 3
      dim: 16
      dim: 112
      dim: 112
    }
  }
}
layer {
  name: "reshape_negative"
  type: "Reshape"
  bottom: "negative_stacked"
  top: "negative"
  reshape_param {
    shape {
      dim: 0
      dim: 3
      dim: 16
      dim: 112
      dim: 112
    }
  }
}
layer {
  name: "conv1"
  type: "Convolution3D"
  bottom: "anchor"
  top: "conv1"
  param {
    lr_mult: 1
    decay_mult: 1
  }
  convolution3d_param {
    num_output: 64
    bias_term: false
    pad: 3
    kernel_size: 7
    kernel_depth: 3
    stride: 2
    temporal_stride: 1
    weight_filler {
      type: "msra"
      variance_norm: FAN_OUT
    }
    temporal_pad: 1
  }
}
layer {
  name: "bn_conv1"
  type: "BatchNorm"
  bottom: "conv1"
  top: "conv1"
  param {
    lr_mult: 0
    decay_mult: 0
  }
  param {
    lr_mult: 0
    decay_mult: 0
  }
  param {
    lr_mult: 0
    decay_mult: 0
  }
  batch_norm_param {
    use_global_stats: false
  }
}
layer {
  name: "scale_conv1"
  type: "Scale"
  bottom: "conv1"
  top: "conv1"
  param {
    lr_mult: 1
    decay_mult: 0
  }
  param {
    lr_mult: 1
    decay_mult: 0
  }
  scale_param {
    bias_term: true
  }
}
layer {
  name: "conv1_relu"
  type: "ReLU"
  bottom: "conv1"
  top: "conv1"
}
layer {
  name: "res2a_branch1"
  type: "Convolution3D"
  bottom: "conv1"
  top: "res2a_branch1"
  param {
    lr_mult: 1
    decay_mult: 1
  }
  convolution3d_param {
    num_output: 64
    bias_term: false
    pad: 0
    kernel_size: 1
    kernel_depth: 1
    stride: 1
    temporal_stride: 1
    weight_filler {
      type: "msra"
      variance_norm: FAN_OUT
    }
    temporal_pad: 0
  }
}
layer {
  name: "bn2a_branch1"
  type: "BatchNorm"
  bottom: "res2a_branch1"
  top: "res2a_branch1"
  param {
    lr_mult: 0
    decay_mult: 0
  }
  param {
    lr_mult: 0
    decay_mult: 0
  }
  param {
    lr_mult: 0
    decay_mult: 0
  }
  batch_norm_param {
    use_global_stats: false
  }
}
layer {
  name: "scale2a_branch1"
  type: "Scale"
  bottom: "res2a_branch1"
  top: "res2a_branch1"
  param {
    lr_mult: 1
    decay_mult: 0
  }
  param {
    lr_mult: 1
    decay_mult: 0
  }
  scale_param {
    bias_term: true
  }
}
layer {
  name: "res2a_branch2a"
  type: "Convolution3D"
  bottom: "conv1"
  top: "res2a_branch2a"
  param {
    lr_mult: 1
    decay_mult: 1
  }
  convolution3d_param {
    num_output: 64
    bias_term: false
    pad: 1
    kernel_size: 3
    kernel_depth: 3
    stride: 1
    temporal_stride: 1
    weight_filler {
      type: "msra"
      variance_norm: FAN_OUT
    }
    temporal_pad: 1
  }
}
layer {
  name: "bn2a_branch2a"
  type: "BatchNorm"
  bottom: "res2a_branch2a"
  top: "res2a_branch2a"
  param {
    lr_mult: 0
    decay_mult: 0
  }
  param {
    lr_mult: 0
    decay_mult: 0
  }
  param {
    lr_mult: 0
    decay_mult: 0
  }
  batch_norm_param {
    use_global_stats: false
  }
}
layer {
  name: "scale2a_branch2a"
  type: "Scale"
  bottom: "res2a_branch2a"
  top: "res2a_branch2a"
  param {
    lr_mult: 1
    decay_mult: 0
  }
  param {
    lr_mult: 1
    decay_mult: 0
  }
  scale_param {
    bias_term: true
  }
}
layer {
  name: "res2a_branch2a_relu"
  type: "ReLU"
  bottom: "res2a_branch2a"
  top: "res2a_branch2a"
}
layer {
  name: "res2a_branch2b"
  type: "Convolution3D"
  bottom: "res2a_branch2a"
  top: "res2a_branch2b"
  param {
    lr_mult: 1
    decay_mult: 1
  }
  convolution3d_param {
    num_output: 64
    bias_term: false
    pad: 1
    kernel_size: 3
    kernel_depth: 3
    stride: 1
    temporal_stride: 1
    weight_filler {
      type: "msra"
      variance_norm: FAN_OUT
    }
    temporal_pad: 1
  }
}
layer {
  name: "bn2a_branch2b"
  type: "BatchNorm"
  bottom: "res2a_branch2b"
  top: "res2a_branch2b"
  param {
    lr_mult: 0
    decay_mult: 0
  }
  param {
    lr_mult: 0
    decay_mult: 0
  }
  param {
    lr_mult: 0
    decay_mult: 0
  }
  batch_norm_param {
    use_global_stats: false
  }
}
layer {
  name: "scale2a_branch2b"
  type: "Scale"
  bottom: "res2a_branch2b"
  top: "res2a_branch2b"
  param {
    lr_mult: 1
    decay_mult: 0
  }
  param {
    lr_mult: 1
    decay_mult: 0
  }
  scale_param {
    bias_term: true
  }
}
layer {
  name: "res2a"
  type: "Eltwise"
  bottom: "res2a_branch1"
  bottom: "res2a_branch2b"
  top: "res2a"
}
layer {
  name: "res2a_relu"
  type: "ReLU"
  bottom: "res2a"
  top: "res2a"
}
layer {
  name: "res2b_branch2a"
  type: "Convolution3D"
  bottom: "res2a"
  top: "res2b_branch2a"
  param {
    lr_mult: 1
    decay_mult: 1
  }
  convolution3d_param {
    num_output: 64
    bias_term: false
    pad: 1
    kernel_size: 3
    kernel_depth: 3
    stride: 1
    temporal_stride: 1
    weight_filler {
      type: "msra"
      variance_norm: FAN_OUT
    }
    temporal_pad: 1
  }
}
layer {
  name: "bn2b_branch2a"
  type: "BatchNorm"
  bottom: "res2b_branch2a"
  top: "res2b_branch2a"
  param {
    lr_mult: 0
    decay_mult: 0
  }
  param {
    lr_mult: 0
    decay_mult: 0
  }
  param {
    lr_mult: 0
    decay_mult: 0
  }
  batch_norm_param {
    use_global_stats: false
  }
}
layer {
  name: "scale2b_branch2a"
  type: "Scale"
  bottom: "res2b_branch2a"
  top: "res2b_branch2a"
  param {
    lr_mult: 1
    decay_mult: 0
  }
  param {
    lr_mult: 1
    decay_mult: 0
  }
  scale_param {
    bias_term: true
  }
}
layer {
  name: "res2b_branch2a_relu"
  type: "ReLU"
  bottom: "res2b_branch2a"
  top: "res2b_branch2a"
}
layer {
  name: "res2b_branch2b"
  type: "Convolution3D"
  bottom: "res2b_branch2a"
  top: "res2b_branch2b"
  param {
    lr_mult: 1
    decay_mult: 1
  }
  convolution3d_param {
    num_output: 64
    bias_term: false
    pad: 1
    kernel_size: 3
    kernel_depth: 3
    stride: 1
    temporal_stride: 1
    weight_filler {
      type: "msra"
      variance_norm: FAN_OUT
    }
    temporal_pad: 1
  }
}
layer {
  name: "bn2b_branch2b"
  type: "BatchNorm"
  bottom: "res2b_branch2b"
  top: "res2b_branch2b"
  param {
    lr_mult: 0
    decay_mult: 0
  }
  param {
    lr_mult: 0
    decay_mult: 0
  }
  param {
    lr_mult: 0
    decay_mult: 0
  }
  batch_norm_param {
    use_global_stats: false
  }
}
layer {
  name: "scale2b_branch2b"
  type: "Scale"
  bottom: "res2b_branch2b"
  top: "res2b_branch2b"
  param {
    lr_mult: 1
    decay_mult: 0
  }
  param {
    lr_mult: 1
    decay_mult: 0
  }
  scale_param {
    bias_term: true
  }
}
layer {
  name: "res2b"
  type: "Eltwise"
  bottom: "res2a"
  bottom: "res2b_branch2b"
  top: "res2b"
}
layer {
  name: "res2b_relu"
  type: "ReLU"
  bottom: "res2b"
  top: "res2b"
}
layer {
  name: "res3a_branch1"
  type: "Convolution3D"
  bottom: "res2b"
  top: "res3a_branch1"
  param {
    lr_mult: 1
    decay_mult: 1
  }
  convolution3d_param {
    num_output: 128
    bias_term: false
    pad: 0
    kernel_size: 1
    kernel_depth: 1
    stride: 2
    temporal_stride: 2
    weight_filler {
      type: "msra"
      variance_norm: FAN_OUT
    }
    temporal_pad: 0
  }
}
layer {
  name: "bn3a_branch1"
  type: "BatchNorm"
  bottom: "res3a_branch1"
  top: "res3a_branch1"
  param {
    lr_mult: 0
    decay_mult: 0
  }
  param {
    lr_mult: 0
    decay_mult: 0
  }
  param {
    lr_mult: 0
    decay_mult: 0
  }
  batch_norm_param {
    use_global_stats: false
  }
}
layer {
  name: "scale3a_branch1"
  type: "Scale"
  bottom: "res3a_branch1"
  top: "res3a_branch1"
  param {
    lr_mult: 1
    decay_mult: 0
  }
  param {
    lr_mult: 1
    decay_mult: 0
  }
  scale_param {
    bias_term: true
  }
}
layer {
  name: "res3a_branch2a"
  type: "Convolution3D"
  bottom: "res2b"
  top: "res3a_branch2a"
  param {
    lr_mult: 1
    decay_mult: 1
  }
  convolution3d_param {
    num_output: 128
    bias_term: false
    pad: 1
    kernel_size: 3
    kernel_depth: 3
    stride: 2
    temporal_stride: 2
    weight_filler {
      type: "msra"
      variance_norm: FAN_OUT
    }
    temporal_pad: 1
  }
}
layer {
  name: "bn3a_branch2a"
  type: "BatchNorm"
  bottom: "res3a_branch2a"
  top: "res3a_branch2a"
  param {
    lr_mult: 0
    decay_mult: 0
  }
  param {
    lr_mult: 0
    decay_mult: 0
  }
  param {
    lr_mult: 0
    decay_mult: 0
  }
  batch_norm_param {
    use_global_stats: false
  }
}
layer {
  name: "scale3a_branch2a"
  type: "Scale"
  bottom: "res3a_branch2a"
  top: "res3a_branch2a"
  param {
    lr_mult: 1
    decay_mult: 0
  }
  param {
    lr_mult: 1
    decay_mult: 0
  }
  scale_param {
    bias_term: true
  }
}
layer {
  name: "res3a_branch2a_relu"
  type: "ReLU"
  bottom: "res3a_branch2a"
  top: "res3a_branch2a"
}
layer {
  name: "res3a_branch2b"
  type: "Convolution3D"
  bottom: "res3a_branch2a"
  top: "res3a_branch2b"
  param {
    lr_mult: 1
    decay_mult: 1
  }
  convolution3d_param {
    num_output: 128
    bias_term: false
    pad: 1
    kernel_size: 3
    kernel_depth: 3
    stride: 1
    temporal_stride: 1
    weight_filler {
      type: "msra"
      variance_norm: FAN_OUT
    }
    temporal_pad: 1
  }
}
layer {
  name: "bn3a_branch2b"
  type: "BatchNorm"
  bottom: "res3a_branch2b"
  top: "res3a_branch2b"
  param {
    lr_mult: 0
    decay_mult: 0
  }
  param {
    lr_mult: 0
    decay_mult: 0
  }
  param {
    lr_mult: 0
    decay_mult: 0
  }
  batch_norm_param {
    use_global_stats: false
  }
}
layer {
  name: "scale3a_branch2b"
  type: "Scale"
  bottom: "res3a_branch2b"
  top: "res3a_branch2b"
  param {
    lr_mult: 1
    decay_mult: 0
  }
  param {
    lr_mult: 1
    decay_mult: 0
  }
  scale_param {
    bias_term: true
  }
}
layer {
  name: "res3a"
  type: "Eltwise"
  bottom: "res3a_branch1"
  bottom: "res3a_branch2b"
  top: "res3a"
}
layer {
  name: "res3a_relu"
  type: "ReLU"
  bottom: "res3a"
  top: "res3a"
}
layer {
  name: "res3b_branch2a"
  type: "Convolution3D"
  bottom: "res3a"
  top: "res3b_branch2a"
  param {
    lr_mult: 1
    decay_mult: 1
  }
  convolution3d_param {
    num_output: 128
    bias_term: false
    pad: 1
    kernel_size: 3
    kernel_depth: 3
    stride: 1
    temporal_stride: 1
    weight_filler {
      type: "msra"
      variance_norm: FAN_OUT
    }
    temporal_pad: 1
  }
}
layer {
  name: "bn3b_branch2a"
  type: "BatchNorm"
  bottom: "res3b_branch2a"
  top: "res3b_branch2a"
  param {
    lr_mult: 0
    decay_mult: 0
  }
  param {
    lr_mult: 0
    decay_mult: 0
  }
  param {
    lr_mult: 0
    decay_mult: 0
  }
  batch_norm_param {
    use_global_stats: false
  }
}
layer {
  name: "scale3b_branch2a"
  type: "Scale"
  bottom: "res3b_branch2a"
  top: "res3b_branch2a"
  param {
    lr_mult: 1
    decay_mult: 0
  }
  param {
    lr_mult: 1
    decay_mult: 0
  }
  scale_param {
    bias_term: true
  }
}
layer {
  name: "res3b_branch2a_relu"
  type: "ReLU"
  bottom: "res3b_branch2a"
  top: "res3b_branch2a"
}
layer {
  name: "res3b_branch2b"
  type: "Convolution3D"
  bottom: "res3b_branch2a"
  top: "res3b_branch2b"
  param {
    lr_mult: 1
    decay_mult: 1
  }
  convolution3d_param {
    num_output: 128
    bias_term: false
    pad: 1
    kernel_size: 3
    kernel_depth: 3
    stride: 1
    temporal_stride: 1
    weight_filler {
      type: "msra"
      variance_norm: FAN_OUT
    }
    temporal_pad: 1
  }
}
layer {
  name: "bn3b_branch2b"
  type: "BatchNorm"
  bottom: "res3b_branch2b"
  top: "res3b_branch2b"
  param {
    lr_mult: 0
    decay_mult: 0
  }
  param {
    lr_mult: 0
    decay_mult: 0
  }
  param {
    lr_mult: 0
    decay_mult: 0
  }
  batch_norm_param {
    use_global_stats: false
  }
}
layer {
  name: "scale3b_branch2b"
  type: "Scale"
  bottom: "res3b_branch2b"
  top: "res3b_branch2b"
  param {
    lr_mult: 1
    decay_mult: 0
  }
  param {
    lr_mult: 1
    decay_mult: 0
  }
  scale_param {
    bias_term: true
  }
}
layer {
  name: "res3b"
  type: "Eltwise"
  bottom: "res3a"
  bottom: "res3b_branch2b"
  top: "res3b"
}
layer {
  name: "res3b_relu"
  type: "ReLU"
  bottom: "res3b"
  top: "res3b"
}
layer {
  name: "res4a_branch1"
  type: "Convolution3D"
  bottom: "res3b"
  top: "res4a_branch1"
  param {
    lr_mult: 1
    decay_mult: 1
  }
  convolution3d_param {
    num_output: 256
    bias_term: false
    pad: 0
    kernel_size: 1
    kernel_depth: 1
    stride: 2
    temporal_stride: 2
    weight_filler {
      type: "msra"
      variance_norm: FAN_OUT
    }
    temporal_pad: 0
  }
}
layer {
  name: "bn4a_branch1"
  type: "BatchNorm"
  bottom: "res4a_branch1"
  top: "res4a_branch1"
  param {
    lr_mult: 0
    decay_mult: 0
  }
  param {
    lr_mult: 0
    decay_mult: 0
  }
  param {
    lr_mult: 0
    decay_mult: 0
  }
  batch_norm_param {
    use_global_stats: false
  }
}
layer {
  name: "scale4a_branch1"
  type: "Scale"
  bottom: "res4a_branch1"
  top: "res4a_branch1"
  param {
    lr_mult: 1
    decay_mult: 0
  }
  param {
    lr_mult: 1
    decay_mult: 0
  }
  scale_param {
    bias_term: true
  }
}
layer {
  name: "res4a_branch2a"
  type: "Convolution3D"
  bottom: "res3b"
  top: "res4a_branch2a"
  param {
    lr_mult: 1
    decay_mult: 1
  }
  convolution3d_param {
    num_output: 256
    bias_term: false
    pad: 1
    kernel_size: 3
    kernel_depth: 3
    stride: 2
    temporal_stride: 2
    weight_filler {
      type: "msra"
      variance_norm: FAN_OUT
    }
    temporal_pad: 1
  }
}
layer {
  name: "bn4a_branch2a"
  type: "BatchNorm"
  bottom: "res4a_branch2a"
  top: "res4a_branch2a"
  param {
    lr_mult: 0
    decay_mult: 0
  }
  param {
    lr_mult: 0
    decay_mult: 0
  }
  param {
    lr_mult: 0
    decay_mult: 0
  }
  batch_norm_param {
    use_global_stats: false
  }
}
layer {
  name: "scale4a_branch2a"
  type: "Scale"
  bottom: "res4a_branch2a"
  top: "res4a_branch2a"
  param {
    lr_mult: 1
    decay_mult: 0
  }
  param {
    lr_mult: 1
    decay_mult: 0
  }
  scale_param {
    bias_term: true
  }
}
layer {
  name: "res4a_branch2a_relu"
  type: "ReLU"
  bottom: "res4a_branch2a"
  top: "res4a_branch2a"
}
layer {
  name: "res4a_branch2b"
  type: "Convolution3D"
  bottom: "res4a_branch2a"
  top: "res4a_branch2b"
  param {
    lr_mult: 1
    decay_mult: 1
  }
  convolution3d_param {
    num_output: 256
    bias_term: false
    pad: 1
    kernel_size: 3
    kernel_depth: 3
    stride: 1
    temporal_stride: 1
    weight_filler {
      type: "msra"
      variance_norm: FAN_OUT
    }
    temporal_pad: 1
  }
}
layer {
  name: "bn4a_branch2b"
  type: "BatchNorm"
  bottom: "res4a_branch2b"
  top: "res4a_branch2b"
  param {
    lr_mult: 0
    decay_mult: 0
  }
  param {
    lr_mult: 0
    decay_mult: 0
  }
  param {
    lr_mult: 0
    decay_mult: 0
  }
  batch_norm_param {
    use_global_stats: false
  }
}
layer {
  name: "scale4a_branch2b"
  type: "Scale"
  bottom: "res4a_branch2b"
  top: "res4a_branch2b"
  param {
    lr_mult: 1
    decay_mult: 0
  }
  param {
    lr_mult: 1
    decay_mult: 0
  }
  scale_param {
    bias_term: true
  }
}
layer {
  name: "res4a"
  type: "Eltwise"
  bottom: "res4a_branch1"
  bottom: "res4a_branch2b"
  top: "res4a"
}
layer {
  name: "res4a_relu"
  type: "ReLU"
  bottom: "res4a"
  top: "res4a"
}
layer {
  name: "res4b_branch2a"
  type: "Convolution3D"
  bottom: "res4a"
  top: "res4b_branch2a"
  param {
    lr_mult: 1
    decay_mult: 1
  }
  convolution3d_param {
    num_output: 256
    bias_term: false
    pad: 1
    kernel_size: 3
    kernel_depth: 3
    stride: 1
    temporal_stride: 1
    weight_filler {
      type: "msra"
      variance_norm: FAN_OUT
    }
    temporal_pad: 1
  }
}
layer {
  name: "bn4b_branch2a"
  type: "BatchNorm"
  bottom: "res4b_branch2a"
  top: "res4b_branch2a"
  param {
    lr_mult: 0
    decay_mult: 0
  }
  param {
    lr_mult: 0
    decay_mult: 0
  }
  param {
    lr_mult: 0
    decay_mult: 0
  }
  batch_norm_param {
    use_global_stats: false
  }
}
layer {
  name: "scale4b_branch2a"
  type: "Scale"
  bottom: "res4b_branch2a"
  top: "res4b_branch2a"
  param {
    lr_mult: 1
    decay_mult: 0
  }
  param {
    lr_mult: 1
    decay_mult: 0
  }
  scale_param {
    bias_term: true
  }
}
layer {
  name: "res4b_branch2a_relu"
  type: "ReLU"
  bottom: "res4b_branch2a"
  top: "res4b_branch2a"
}
layer {
  name: "res4b_branch2b"
  type: "Convolution3D"
  bottom: "res4b_branch2a"
  top: "res4b_branch2b"
  param {
    lr_mult: 1
    decay_mult: 1
  }
  convolution3d_param {
    num_output: 256
    bias_term: false
    pad: 1
    kernel_size: 3
    kernel_depth: 3
    stride: 1
    temporal_stride: 1
    weight_filler {
      type: "msra"
      variance_norm: FAN_OUT
    }
    temporal_pad: 1
  }
}
layer {
  name: "bn4b_branch2b"
  type: "BatchNorm"
  bottom: "res4b_branch2b"
  top: "res4b_branch2b"
  param {
    lr_mult: 0
    decay_mult: 0
  }
  param {
    lr_mult: 0
    decay_mult: 0
  }
  param {
    lr_mult: 0
    decay_mult: 0
  }
  batch_norm_param {
    use_global_stats: false
  }
}
layer {
  name: "scale4b_branch2b"
  type: "Scale"
  bottom: "res4b_branch2b"
  top: "res4b_branch2b"
  param {
    lr_mult: 1
    decay_mult: 0
  }
  param {
    lr_mult: 1
    decay_mult: 0
  }
  scale_param {
    bias_term: true
  }
}
layer {
  name: "res4b"
  type: "Eltwise"
  bottom: "res4a"
  bottom: "res4b_branch2b"
  top: "res4b"
}
layer {
  name: "res4b_relu"
  type: "ReLU"
  bottom: "res4b"
  top: "res4b"
}
layer {
  name: "res5a_branch1"
  type: "Convolution3D"
  bottom: "res4b"
  top: "res5a_branch1"
  param {
    lr_mult: 1
    decay_mult: 1
  }
  convolution3d_param {
    num_output: 512
    bias_term: false
    pad: 0
    kernel_size: 1
    kernel_depth: 1
    stride: 2
    temporal_stride: 2
    weight_filler {
      type: "msra"
      variance_norm: FAN_OUT
    }
    temporal_pad: 0
  }
}
layer {
  name: "bn5a_branch1"
  type: "BatchNorm"
  bottom: "res5a_branch1"
  top: "res5a_branch1"
  param {
    lr_mult: 0
    decay_mult: 0
  }
  param {
    lr_mult: 0
    decay_mult: 0
  }
  param {
    lr_mult: 0
    decay_mult: 0
  }
  batch_norm_param {
    use_global_stats: false
  }
}
layer {
  name: "scale5a_branch1"
  type: "Scale"
  bottom: "res5a_branch1"
  top: "res5a_branch1"
  param {
    lr_mult: 1
    decay_mult: 0
  }
  param {
    lr_mult: 1
    decay_mult: 0
  }
  scale_param {
    bias_term: true
  }
}
layer {
  name: "res5a_branch2a"
  type: "Convolution3D"
  bottom: "res4b"
  top: "res5a_branch2a"
  param {
    lr_mult: 1
    decay_mult: 1
  }
  convolution3d_param {
    num_output: 512
    bias_term: false
    pad: 1
    kernel_size: 3
    kernel_depth: 3
    stride: 2
    temporal_stride: 2
    weight_filler {
      type: "msra"
      variance_norm: FAN_OUT
    }
    temporal_pad: 1
  }
}
layer {
  name: "bn5a_branch2a"
  type: "BatchNorm"
  bottom: "res5a_branch2a"
  top: "res5a_branch2a"
  param {
    lr_mult: 0
    decay_mult: 0
  }
  param {
    lr_mult: 0
    decay_mult: 0
  }
  param {
    lr_mult: 0
    decay_mult: 0
  }
  batch_norm_param {
    use_global_stats: false
  }
}
layer {
  name: "scale5a_branch2a"
  type: "Scale"
  bottom: "res5a_branch2a"
  top: "res5a_branch2a"
  param {
    lr_mult: 1
    decay_mult: 0
  }
  param {
    lr_mult: 1
    decay_mult: 0
  }
  scale_param {
    bias_term: true
  }
}
layer {
  name: "res5a_branch2a_relu"
  type: "ReLU"
  bottom: "res5a_branch2a"
  top: "res5a_branch2a"
}
layer {
  name: "res5a_branch2b"
  type: "Convolution3D"
  bottom: "res5a_branch2a"
  top: "res5a_branch2b"
  param {
    lr_mult: 1
    decay_mult: 1
  }
  convolution3d_param {
    num_output: 512
    bias_term: false
    pad: 1
    kernel_size: 3
    kernel_depth: 3
    stride: 1
    temporal_stride: 1
    weight_filler {
      type: "msra"
      variance_norm: FAN_OUT
    }
    temporal_pad: 1
  }
}
layer {
  name: "bn5a_branch2b"
  type: "BatchNorm"
  bottom: "res5a_branch2b"
  top: "res5a_branch2b"
  param {
    lr_mult: 0
    decay_mult: 0
  }
  param {
    lr_mult: 0
    decay_mult: 0
  }
  param {
    lr_mult: 0
    decay_mult: 0
  }
  batch_norm_param {
    use_global_stats: false
  }
}
layer {
  name: "scale5a_branch2b"
  type: "Scale"
  bottom: "res5a_branch2b"
  top: "res5a_branch2b"
  param {
    lr_mult: 1
    decay_mult: 0
  }
  param {
    lr_mult: 1
    decay_mult: 0
  }
  scale_param {
    bias_term: true
  }
}
layer {
  name: "res5a"
  type: "Eltwise"
  bottom: "res5a_branch1"
  bottom: "res5a_branch2b"
  top: "res5a"
}
layer {
  name: "res5a_relu"
  type: "ReLU"
  bottom: "res5a"
  top: "res5a"
}
layer {
  name: "res5b_branch2a"
  type: "Convolution3D"
  bottom: "res5a"
  top: "res5b_branch2a"
  param {
    lr_mult: 1
    decay_mult: 1
  }
  convolution3d_param {
    num_output: 512
    bias_term: false
    pad: 1
    kernel_size: 3
    kernel_depth: 3
    stride: 1
    temporal_stride: 1
    weight_filler {
      type: "msra"
      variance_norm: FAN_OUT
    }
    temporal_pad: 1
  }
}
layer {
  name: "bn5b_branch2a"
  type: "BatchNorm"
  bottom: "res5b_branch2a"
  top: "res5b_branch2a"
  param {
    lr_mult: 0
    decay_mult: 0
  }
  param {
    lr_mult: 0
    decay_mult: 0
  }
  param {
    lr_mult: 0
    decay_mult: 0
  }
  batch_norm_param {
    use_global_stats: false
  }
}
layer {
  name: "scale5b_branch2a"
  type: "Scale"
  bottom: "res5b_branch2a"
  top: "res5b_branch2a"
  param {
    lr_mult: 1
    decay_mult: 0
  }
  param {
    lr_mult: 1
    decay_mult: 0
  }
  scale_param {
    bias_term: true
  }
}
layer {
  name: "res5b_branch2a_relu"
  type: "ReLU"
  bottom: "res5b_branch2a"
  top: "res5b_branch2a"
}
layer {
  name: "res5b_branch2b"
  type: "Convolution3D"
  bottom: "res5b_branch2a"
  top: "res5b_branch2b"
  param {
    lr_mult: 1
    decay_mult: 1
  }
  convolution3d_param {
    num_output: 512
    bias_term: false
    pad: 1
    kernel_size: 3
    kernel_depth: 3
    stride: 1
    temporal_stride: 1
    weight_filler {
      type: "msra"
      variance_norm: FAN_OUT
    }
    temporal_pad: 1
  }
}
layer {
  name: "bn5b_branch2b"
  type: "BatchNorm"
  bottom: "res5b_branch2b"
  top: "res5b_branch2b"
  param {
    lr_mult: 0
    decay_mult: 0
  }
  param {
    lr_mult: 0
    decay_mult: 0
  }
  param {
    lr_mult: 0
    decay_mult: 0
  }
  batch_norm_param {
    use_global_stats: false
  }
}
layer {
  name: "scale5b_branch2b"
  type: "Scale"
  bottom: "res5b_branch2b"
  top: "res5b_branch2b"
  param {
    lr_mult: 1
    decay_mult: 0
  }
  param {
    lr_mult: 1
    decay_mult: 0
  }
  scale_param {
    bias_term: true
  }
}
layer {
  name: "res5b"
  type: "Eltwise"
  bottom: "res5a"
  bottom: "res5b_branch2b"
  top: "res5b"
}
layer {
  name: "res5b_relu"
  type: "ReLU"
  bottom: "res5b"
  top: "res5b"
}
layer {
  name: "pool5"
  type: "Pooling3D"
  bottom: "res5b"
  top: "pool5"
  pooling3d_param {
    pool: AVE
    kernel_size: 7
    stride: 1
    kernel_depth: 1
    temporal_stride: 1
  }
}
layer {
  name: "fc8-new"
  type: "InnerProduct"
  bottom: "pool5"
  top: "fc8-new"
  param {
    lr_mult: 1
    decay_mult: 1
  }
  param {
    lr_mult: 2
    decay_mult: 0
  }
  inner_product_param {
    num_output: 101
    weight_filler {
      type: "gaussian"
      std: 0.01
    }
    bias_filler {
      type: "constant"
      value: 0
    }
  }
}
layer {
  name: "silence"
  type: "Silence"
  bottom: "positive"
  bottom: "negative"
}
layer {
  name: "loss"
  type: "TripletLoss"
  bottom: "fc8-new"
  bottom: "fc8-new"
  bottom: "fc8-new"
  top: "loss"
  threshold_param {
    threshold: 1
  }
}
I0329 13:32:11.361392 86603 layer_factory.hpp:77] Creating layer data
I0329 13:32:11.400882 86603 db_lmdb.cpp:35] Opened lmdb /home/lferrer/Documents/LMDB_MINI/train
I0329 13:32:11.401036 86603 net.cpp:84] Creating Layer data
I0329 13:32:11.401100 86603 net.cpp:380] data -> triplet
I0329 13:32:11.579246 86603 data_layer.cpp:45] output data size: 5,144,112,112
I0329 13:32:11.579572 86603 net.cpp:122] Setting up data
I0329 13:32:11.579602 86603 net.cpp:129] Top shape: 5 144 112 112 (9031680)
I0329 13:32:11.579612 86603 net.cpp:137] Memory required for data: 36126720
I0329 13:32:11.579643 86603 layer_factory.hpp:77] Creating layer slicer
I0329 13:32:11.579661 86603 net.cpp:84] Creating Layer slicer
I0329 13:32:11.579674 86603 net.cpp:406] slicer <- triplet
I0329 13:32:11.579691 86603 net.cpp:380] slicer -> anchor_stacked
I0329 13:32:11.579710 86603 net.cpp:380] slicer -> positive_stacked
I0329 13:32:11.579727 86603 net.cpp:380] slicer -> negative_stacked
I0329 13:32:11.579777 86603 net.cpp:122] Setting up slicer
I0329 13:32:11.579805 86603 net.cpp:129] Top shape: 5 48 112 112 (3010560)
I0329 13:32:11.579816 86603 net.cpp:129] Top shape: 5 48 112 112 (3010560)
I0329 13:32:11.579826 86603 net.cpp:129] Top shape: 5 48 112 112 (3010560)
I0329 13:32:11.579834 86603 net.cpp:137] Memory required for data: 72253440
I0329 13:32:11.579864 86603 layer_factory.hpp:77] Creating layer reshape_anchor
I0329 13:32:11.579892 86603 net.cpp:84] Creating Layer reshape_anchor
I0329 13:32:11.579903 86603 net.cpp:406] reshape_anchor <- anchor_stacked
I0329 13:32:11.579921 86603 net.cpp:380] reshape_anchor -> anchor
I0329 13:32:11.579947 86603 net.cpp:122] Setting up reshape_anchor
I0329 13:32:11.579960 86603 net.cpp:129] Top shape: 5 3 16 112 112 (3010560)
I0329 13:32:11.579968 86603 net.cpp:137] Memory required for data: 84295680
I0329 13:32:11.579977 86603 layer_factory.hpp:77] Creating layer reshape_positive
I0329 13:32:11.579988 86603 net.cpp:84] Creating Layer reshape_positive
I0329 13:32:11.579998 86603 net.cpp:406] reshape_positive <- positive_stacked
I0329 13:32:11.580009 86603 net.cpp:380] reshape_positive -> positive
I0329 13:32:11.580024 86603 net.cpp:122] Setting up reshape_positive
I0329 13:32:11.580035 86603 net.cpp:129] Top shape: 5 3 16 112 112 (3010560)
I0329 13:32:11.580044 86603 net.cpp:137] Memory required for data: 96337920
I0329 13:32:11.580054 86603 layer_factory.hpp:77] Creating layer reshape_negative
I0329 13:32:11.580066 86603 net.cpp:84] Creating Layer reshape_negative
I0329 13:32:11.580077 86603 net.cpp:406] reshape_negative <- negative_stacked
I0329 13:32:11.580090 86603 net.cpp:380] reshape_negative -> negative
I0329 13:32:11.580121 86603 net.cpp:122] Setting up reshape_negative
I0329 13:32:11.580134 86603 net.cpp:129] Top shape: 5 3 16 112 112 (3010560)
I0329 13:32:11.580144 86603 net.cpp:137] Memory required for data: 108380160
I0329 13:32:11.580153 86603 layer_factory.hpp:77] Creating layer conv1
I0329 13:32:11.580168 86603 net.cpp:84] Creating Layer conv1
I0329 13:32:11.580193 86603 net.cpp:406] conv1 <- anchor
I0329 13:32:11.580219 86603 net.cpp:380] conv1 -> conv1
I0329 13:32:11.580904 86603 net.cpp:122] Setting up conv1
I0329 13:32:11.580940 86603 net.cpp:129] Top shape: 5 64 16 56 56 (16056320)
I0329 13:32:11.580950 86603 net.cpp:137] Memory required for data: 172605440
I0329 13:32:11.580983 86603 layer_factory.hpp:77] Creating layer bn_conv1
I0329 13:32:11.581013 86603 net.cpp:84] Creating Layer bn_conv1
I0329 13:32:11.581039 86603 net.cpp:406] bn_conv1 <- conv1
I0329 13:32:11.581065 86603 net.cpp:367] bn_conv1 -> conv1 (in-place)
I0329 13:32:11.581213 86603 net.cpp:122] Setting up bn_conv1
I0329 13:32:11.581272 86603 net.cpp:129] Top shape: 5 64 16 56 56 (16056320)
I0329 13:32:11.581310 86603 net.cpp:137] Memory required for data: 236830720
I0329 13:32:11.581328 86603 layer_factory.hpp:77] Creating layer scale_conv1
I0329 13:32:11.581357 86603 net.cpp:84] Creating Layer scale_conv1
I0329 13:32:11.581382 86603 net.cpp:406] scale_conv1 <- conv1
I0329 13:32:11.581411 86603 net.cpp:367] scale_conv1 -> conv1 (in-place)
I0329 13:32:11.581450 86603 layer_factory.hpp:77] Creating layer scale_conv1
I0329 13:32:11.581859 86603 net.cpp:122] Setting up scale_conv1
I0329 13:32:11.581923 86603 net.cpp:129] Top shape: 5 64 16 56 56 (16056320)
I0329 13:32:11.581946 86603 net.cpp:137] Memory required for data: 301056000
I0329 13:32:11.581979 86603 layer_factory.hpp:77] Creating layer conv1_relu
I0329 13:32:11.582011 86603 net.cpp:84] Creating Layer conv1_relu
I0329 13:32:11.582036 86603 net.cpp:406] conv1_relu <- conv1
I0329 13:32:11.582063 86603 net.cpp:367] conv1_relu -> conv1 (in-place)
I0329 13:32:11.592627 86603 net.cpp:122] Setting up conv1_relu
I0329 13:32:11.592809 86603 net.cpp:129] Top shape: 5 64 16 56 56 (16056320)
I0329 13:32:11.592876 86603 net.cpp:137] Memory required for data: 365281280
I0329 13:32:11.592927 86603 layer_factory.hpp:77] Creating layer conv1_conv1_relu_0_split
I0329 13:32:11.592968 86603 net.cpp:84] Creating Layer conv1_conv1_relu_0_split
I0329 13:32:11.593014 86603 net.cpp:406] conv1_conv1_relu_0_split <- conv1
I0329 13:32:11.593066 86603 net.cpp:380] conv1_conv1_relu_0_split -> conv1_conv1_relu_0_split_0
I0329 13:32:11.593117 86603 net.cpp:380] conv1_conv1_relu_0_split -> conv1_conv1_relu_0_split_1
I0329 13:32:11.593147 86603 net.cpp:122] Setting up conv1_conv1_relu_0_split
I0329 13:32:11.593183 86603 net.cpp:129] Top shape: 5 64 16 56 56 (16056320)
I0329 13:32:11.593217 86603 net.cpp:129] Top shape: 5 64 16 56 56 (16056320)
I0329 13:32:11.593248 86603 net.cpp:137] Memory required for data: 493731840
I0329 13:32:11.593279 86603 layer_factory.hpp:77] Creating layer res2a_branch1
I0329 13:32:11.593319 86603 net.cpp:84] Creating Layer res2a_branch1
I0329 13:32:11.593353 86603 net.cpp:406] res2a_branch1 <- conv1_conv1_relu_0_split_0
I0329 13:32:11.593394 86603 net.cpp:380] res2a_branch1 -> res2a_branch1
I0329 13:32:11.594104 86603 net.cpp:122] Setting up res2a_branch1
I0329 13:32:11.594815 86603 net.cpp:129] Top shape: 5 64 16 56 56 (16056320)
I0329 13:32:11.595228 86603 net.cpp:137] Memory required for data: 557957120
I0329 13:32:11.595257 86603 layer_factory.hpp:77] Creating layer bn2a_branch1
I0329 13:32:11.595286 86603 net.cpp:84] Creating Layer bn2a_branch1
I0329 13:32:11.595312 86603 net.cpp:406] bn2a_branch1 <- res2a_branch1
I0329 13:32:11.595338 86603 net.cpp:367] bn2a_branch1 -> res2a_branch1 (in-place)
I0329 13:32:11.595455 86603 net.cpp:122] Setting up bn2a_branch1
I0329 13:32:11.595829 86603 net.cpp:129] Top shape: 5 64 16 56 56 (16056320)
I0329 13:32:11.595859 86603 net.cpp:137] Memory required for data: 622182400
I0329 13:32:11.595876 86603 layer_factory.hpp:77] Creating layer scale2a_branch1
I0329 13:32:11.596325 86603 net.cpp:84] Creating Layer scale2a_branch1
I0329 13:32:11.596350 86603 net.cpp:406] scale2a_branch1 <- res2a_branch1
I0329 13:32:11.596379 86603 net.cpp:367] scale2a_branch1 -> res2a_branch1 (in-place)
I0329 13:32:11.596412 86603 layer_factory.hpp:77] Creating layer scale2a_branch1
I0329 13:32:11.596601 86603 net.cpp:122] Setting up scale2a_branch1
I0329 13:32:11.596633 86603 net.cpp:129] Top shape: 5 64 16 56 56 (16056320)
I0329 13:32:11.596657 86603 net.cpp:137] Memory required for data: 686407680
I0329 13:32:11.596683 86603 layer_factory.hpp:77] Creating layer res2a_branch2a
I0329 13:32:11.596710 86603 net.cpp:84] Creating Layer res2a_branch2a
I0329 13:32:11.596735 86603 net.cpp:406] res2a_branch2a <- conv1_conv1_relu_0_split_1
I0329 13:32:11.596763 86603 net.cpp:380] res2a_branch2a -> res2a_branch2a
I0329 13:32:11.598012 86603 net.cpp:122] Setting up res2a_branch2a
I0329 13:32:11.598063 86603 net.cpp:129] Top shape: 5 64 16 56 56 (16056320)
I0329 13:32:11.598088 86603 net.cpp:137] Memory required for data: 750632960
I0329 13:32:11.598119 86603 layer_factory.hpp:77] Creating layer bn2a_branch2a
I0329 13:32:11.598151 86603 net.cpp:84] Creating Layer bn2a_branch2a
I0329 13:32:11.598177 86603 net.cpp:406] bn2a_branch2a <- res2a_branch2a
I0329 13:32:11.598206 86603 net.cpp:367] bn2a_branch2a -> res2a_branch2a (in-place)
I0329 13:32:11.598311 86603 net.cpp:122] Setting up bn2a_branch2a
I0329 13:32:11.598341 86603 net.cpp:129] Top shape: 5 64 16 56 56 (16056320)
I0329 13:32:11.598364 86603 net.cpp:137] Memory required for data: 814858240
I0329 13:32:11.598392 86603 layer_factory.hpp:77] Creating layer scale2a_branch2a
I0329 13:32:11.598425 86603 net.cpp:84] Creating Layer scale2a_branch2a
I0329 13:32:11.598470 86603 net.cpp:406] scale2a_branch2a <- res2a_branch2a
I0329 13:32:11.598496 86603 net.cpp:367] scale2a_branch2a -> res2a_branch2a (in-place)
I0329 13:32:11.598533 86603 layer_factory.hpp:77] Creating layer scale2a_branch2a
I0329 13:32:11.598701 86603 net.cpp:122] Setting up scale2a_branch2a
I0329 13:32:11.598732 86603 net.cpp:129] Top shape: 5 64 16 56 56 (16056320)
I0329 13:32:11.598755 86603 net.cpp:137] Memory required for data: 879083520
I0329 13:32:11.598796 86603 layer_factory.hpp:77] Creating layer res2a_branch2a_relu
I0329 13:32:11.598841 86603 net.cpp:84] Creating Layer res2a_branch2a_relu
I0329 13:32:11.598873 86603 net.cpp:406] res2a_branch2a_relu <- res2a_branch2a
I0329 13:32:11.598929 86603 net.cpp:367] res2a_branch2a_relu -> res2a_branch2a (in-place)
I0329 13:32:11.598968 86603 net.cpp:122] Setting up res2a_branch2a_relu
I0329 13:32:11.599004 86603 net.cpp:129] Top shape: 5 64 16 56 56 (16056320)
I0329 13:32:11.599035 86603 net.cpp:137] Memory required for data: 943308800
I0329 13:32:11.599064 86603 layer_factory.hpp:77] Creating layer res2a_branch2b
I0329 13:32:11.599103 86603 net.cpp:84] Creating Layer res2a_branch2b
I0329 13:32:11.599133 86603 net.cpp:406] res2a_branch2b <- res2a_branch2a
I0329 13:32:11.599187 86603 net.cpp:380] res2a_branch2b -> res2a_branch2b
I0329 13:32:11.601080 86603 net.cpp:122] Setting up res2a_branch2b
I0329 13:32:11.601140 86603 net.cpp:129] Top shape: 5 64 16 56 56 (16056320)
I0329 13:32:11.601171 86603 net.cpp:137] Memory required for data: 1007534080
I0329 13:32:11.601207 86603 layer_factory.hpp:77] Creating layer bn2a_branch2b
I0329 13:32:11.601241 86603 net.cpp:84] Creating Layer bn2a_branch2b
I0329 13:32:11.601271 86603 net.cpp:406] bn2a_branch2b <- res2a_branch2b
I0329 13:32:11.601299 86603 net.cpp:367] bn2a_branch2b -> res2a_branch2b (in-place)
I0329 13:32:11.601425 86603 net.cpp:122] Setting up bn2a_branch2b
I0329 13:32:11.601505 86603 net.cpp:129] Top shape: 5 64 16 56 56 (16056320)
I0329 13:32:11.601536 86603 net.cpp:137] Memory required for data: 1071759360
I0329 13:32:11.601584 86603 layer_factory.hpp:77] Creating layer scale2a_branch2b
I0329 13:32:11.601616 86603 net.cpp:84] Creating Layer scale2a_branch2b
I0329 13:32:11.601645 86603 net.cpp:406] scale2a_branch2b <- res2a_branch2b
I0329 13:32:11.601678 86603 net.cpp:367] scale2a_branch2b -> res2a_branch2b (in-place)
I0329 13:32:11.601719 86603 layer_factory.hpp:77] Creating layer scale2a_branch2b
I0329 13:32:11.601917 86603 net.cpp:122] Setting up scale2a_branch2b
I0329 13:32:11.601958 86603 net.cpp:129] Top shape: 5 64 16 56 56 (16056320)
I0329 13:32:11.601991 86603 net.cpp:137] Memory required for data: 1135984640
I0329 13:32:11.602030 86603 layer_factory.hpp:77] Creating layer res2a
I0329 13:32:11.602068 86603 net.cpp:84] Creating Layer res2a
I0329 13:32:11.602104 86603 net.cpp:406] res2a <- res2a_branch1
I0329 13:32:11.602140 86603 net.cpp:406] res2a <- res2a_branch2b
I0329 13:32:11.602177 86603 net.cpp:380] res2a -> res2a
I0329 13:32:11.602234 86603 net.cpp:122] Setting up res2a
I0329 13:32:11.602273 86603 net.cpp:129] Top shape: 5 64 16 56 56 (16056320)
I0329 13:32:11.602306 86603 net.cpp:137] Memory required for data: 1200209920
I0329 13:32:11.602339 86603 layer_factory.hpp:77] Creating layer res2a_relu
I0329 13:32:11.602376 86603 net.cpp:84] Creating Layer res2a_relu
I0329 13:32:11.602411 86603 net.cpp:406] res2a_relu <- res2a
I0329 13:32:11.602443 86603 net.cpp:367] res2a_relu -> res2a (in-place)
I0329 13:32:11.602524 86603 net.cpp:122] Setting up res2a_relu
I0329 13:32:11.602560 86603 net.cpp:129] Top shape: 5 64 16 56 56 (16056320)
I0329 13:32:11.602603 86603 net.cpp:137] Memory required for data: 1264435200
I0329 13:32:11.602633 86603 layer_factory.hpp:77] Creating layer res2a_res2a_relu_0_split
I0329 13:32:11.602670 86603 net.cpp:84] Creating Layer res2a_res2a_relu_0_split
I0329 13:32:11.602701 86603 net.cpp:406] res2a_res2a_relu_0_split <- res2a
I0329 13:32:11.602733 86603 net.cpp:380] res2a_res2a_relu_0_split -> res2a_res2a_relu_0_split_0
I0329 13:32:11.602769 86603 net.cpp:380] res2a_res2a_relu_0_split -> res2a_res2a_relu_0_split_1
I0329 13:32:11.602813 86603 net.cpp:122] Setting up res2a_res2a_relu_0_split
I0329 13:32:11.602849 86603 net.cpp:129] Top shape: 5 64 16 56 56 (16056320)
I0329 13:32:11.602879 86603 net.cpp:129] Top shape: 5 64 16 56 56 (16056320)
I0329 13:32:11.602908 86603 net.cpp:137] Memory required for data: 1392885760
I0329 13:32:11.602939 86603 layer_factory.hpp:77] Creating layer res2b_branch2a
I0329 13:32:11.602980 86603 net.cpp:84] Creating Layer res2b_branch2a
I0329 13:32:11.603019 86603 net.cpp:406] res2b_branch2a <- res2a_res2a_relu_0_split_0
I0329 13:32:11.603065 86603 net.cpp:380] res2b_branch2a -> res2b_branch2a
I0329 13:32:11.605600 86603 net.cpp:122] Setting up res2b_branch2a
I0329 13:32:11.605734 86603 net.cpp:129] Top shape: 5 64 16 56 56 (16056320)
I0329 13:32:11.605793 86603 net.cpp:137] Memory required for data: 1457111040
I0329 13:32:11.605849 86603 layer_factory.hpp:77] Creating layer bn2b_branch2a
I0329 13:32:11.605898 86603 net.cpp:84] Creating Layer bn2b_branch2a
I0329 13:32:11.605937 86603 net.cpp:406] bn2b_branch2a <- res2b_branch2a
I0329 13:32:11.605983 86603 net.cpp:367] bn2b_branch2a -> res2b_branch2a (in-place)
I0329 13:32:11.606209 86603 net.cpp:122] Setting up bn2b_branch2a
I0329 13:32:11.606259 86603 net.cpp:129] Top shape: 5 64 16 56 56 (16056320)
I0329 13:32:11.606305 86603 net.cpp:137] Memory required for data: 1521336320
I0329 13:32:11.606358 86603 layer_factory.hpp:77] Creating layer scale2b_branch2a
I0329 13:32:11.606400 86603 net.cpp:84] Creating Layer scale2b_branch2a
I0329 13:32:11.606449 86603 net.cpp:406] scale2b_branch2a <- res2b_branch2a
I0329 13:32:11.606499 86603 net.cpp:367] scale2b_branch2a -> res2b_branch2a (in-place)
I0329 13:32:11.606571 86603 layer_factory.hpp:77] Creating layer scale2b_branch2a
I0329 13:32:11.606868 86603 net.cpp:122] Setting up scale2b_branch2a
I0329 13:32:11.606920 86603 net.cpp:129] Top shape: 5 64 16 56 56 (16056320)
I0329 13:32:11.606961 86603 net.cpp:137] Memory required for data: 1585561600
I0329 13:32:11.607003 86603 layer_factory.hpp:77] Creating layer res2b_branch2a_relu
I0329 13:32:11.607053 86603 net.cpp:84] Creating Layer res2b_branch2a_relu
I0329 13:32:11.607091 86603 net.cpp:406] res2b_branch2a_relu <- res2b_branch2a
I0329 13:32:11.607161 86603 net.cpp:367] res2b_branch2a_relu -> res2b_branch2a (in-place)
I0329 13:32:11.607223 86603 net.cpp:122] Setting up res2b_branch2a_relu
I0329 13:32:11.607280 86603 net.cpp:129] Top shape: 5 64 16 56 56 (16056320)
I0329 13:32:11.607312 86603 net.cpp:137] Memory required for data: 1649786880
I0329 13:32:11.607347 86603 layer_factory.hpp:77] Creating layer res2b_branch2b
I0329 13:32:11.607386 86603 net.cpp:84] Creating Layer res2b_branch2b
I0329 13:32:11.607422 86603 net.cpp:406] res2b_branch2b <- res2b_branch2a
I0329 13:32:11.607460 86603 net.cpp:380] res2b_branch2b -> res2b_branch2b
I0329 13:32:11.609611 86603 net.cpp:122] Setting up res2b_branch2b
I0329 13:32:11.609666 86603 net.cpp:129] Top shape: 5 64 16 56 56 (16056320)
I0329 13:32:11.609726 86603 net.cpp:137] Memory required for data: 1714012160
I0329 13:32:11.609756 86603 layer_factory.hpp:77] Creating layer bn2b_branch2b
I0329 13:32:11.609803 86603 net.cpp:84] Creating Layer bn2b_branch2b
I0329 13:32:11.609840 86603 net.cpp:406] bn2b_branch2b <- res2b_branch2b
I0329 13:32:11.609869 86603 net.cpp:367] bn2b_branch2b -> res2b_branch2b (in-place)
I0329 13:32:11.609987 86603 net.cpp:122] Setting up bn2b_branch2b
I0329 13:32:11.610018 86603 net.cpp:129] Top shape: 5 64 16 56 56 (16056320)
I0329 13:32:11.610040 86603 net.cpp:137] Memory required for data: 1778237440
I0329 13:32:11.610074 86603 layer_factory.hpp:77] Creating layer scale2b_branch2b
I0329 13:32:11.610119 86603 net.cpp:84] Creating Layer scale2b_branch2b
I0329 13:32:11.610201 86603 net.cpp:406] scale2b_branch2b <- res2b_branch2b
I0329 13:32:11.610242 86603 net.cpp:367] scale2b_branch2b -> res2b_branch2b (in-place)
I0329 13:32:11.610277 86603 layer_factory.hpp:77] Creating layer scale2b_branch2b
I0329 13:32:11.610465 86603 net.cpp:122] Setting up scale2b_branch2b
I0329 13:32:11.610508 86603 net.cpp:129] Top shape: 5 64 16 56 56 (16056320)
I0329 13:32:11.610532 86603 net.cpp:137] Memory required for data: 1842462720
I0329 13:32:11.610559 86603 layer_factory.hpp:77] Creating layer res2b
I0329 13:32:11.610596 86603 net.cpp:84] Creating Layer res2b
I0329 13:32:11.610621 86603 net.cpp:406] res2b <- res2a_res2a_relu_0_split_1
I0329 13:32:11.610656 86603 net.cpp:406] res2b <- res2b_branch2b
I0329 13:32:11.610695 86603 net.cpp:380] res2b -> res2b
I0329 13:32:11.610735 86603 net.cpp:122] Setting up res2b
I0329 13:32:11.610762 86603 net.cpp:129] Top shape: 5 64 16 56 56 (16056320)
I0329 13:32:11.610785 86603 net.cpp:137] Memory required for data: 1906688000
I0329 13:32:11.610838 86603 layer_factory.hpp:77] Creating layer res2b_relu
I0329 13:32:11.610870 86603 net.cpp:84] Creating Layer res2b_relu
I0329 13:32:11.610882 86603 net.cpp:406] res2b_relu <- res2b
I0329 13:32:11.610908 86603 net.cpp:367] res2b_relu -> res2b (in-place)
I0329 13:32:11.610935 86603 net.cpp:122] Setting up res2b_relu
I0329 13:32:11.610976 86603 net.cpp:129] Top shape: 5 64 16 56 56 (16056320)
I0329 13:32:11.611052 86603 net.cpp:137] Memory required for data: 1970913280
I0329 13:32:11.611107 86603 layer_factory.hpp:77] Creating layer res2b_res2b_relu_0_split
I0329 13:32:11.611202 86603 net.cpp:84] Creating Layer res2b_res2b_relu_0_split
I0329 13:32:11.611261 86603 net.cpp:406] res2b_res2b_relu_0_split <- res2b
I0329 13:32:11.611289 86603 net.cpp:380] res2b_res2b_relu_0_split -> res2b_res2b_relu_0_split_0
I0329 13:32:11.611317 86603 net.cpp:380] res2b_res2b_relu_0_split -> res2b_res2b_relu_0_split_1
I0329 13:32:11.611359 86603 net.cpp:122] Setting up res2b_res2b_relu_0_split
I0329 13:32:11.611384 86603 net.cpp:129] Top shape: 5 64 16 56 56 (16056320)
I0329 13:32:11.611407 86603 net.cpp:129] Top shape: 5 64 16 56 56 (16056320)
I0329 13:32:11.611429 86603 net.cpp:137] Memory required for data: 2099363840
I0329 13:32:11.611452 86603 layer_factory.hpp:77] Creating layer res3a_branch1
I0329 13:32:11.611487 86603 net.cpp:84] Creating Layer res3a_branch1
I0329 13:32:11.611541 86603 net.cpp:406] res3a_branch1 <- res2b_res2b_relu_0_split_0
I0329 13:32:11.611590 86603 net.cpp:380] res3a_branch1 -> res3a_branch1
I0329 13:32:11.611837 86603 net.cpp:122] Setting up res3a_branch1
I0329 13:32:11.611887 86603 net.cpp:129] Top shape: 5 128 8 28 28 (4014080)
I0329 13:32:11.611910 86603 net.cpp:137] Memory required for data: 2115420160
I0329 13:32:11.611935 86603 layer_factory.hpp:77] Creating layer bn3a_branch1
I0329 13:32:11.611964 86603 net.cpp:84] Creating Layer bn3a_branch1
I0329 13:32:11.611989 86603 net.cpp:406] bn3a_branch1 <- res3a_branch1
I0329 13:32:11.612015 86603 net.cpp:367] bn3a_branch1 -> res3a_branch1 (in-place)
I0329 13:32:11.612058 86603 net.cpp:122] Setting up bn3a_branch1
I0329 13:32:11.612099 86603 net.cpp:129] Top shape: 5 128 8 28 28 (4014080)
I0329 13:32:11.612121 86603 net.cpp:137] Memory required for data: 2131476480
I0329 13:32:11.612146 86603 layer_factory.hpp:77] Creating layer scale3a_branch1
I0329 13:32:11.612170 86603 net.cpp:84] Creating Layer scale3a_branch1
I0329 13:32:11.612192 86603 net.cpp:406] scale3a_branch1 <- res3a_branch1
I0329 13:32:11.612215 86603 net.cpp:367] scale3a_branch1 -> res3a_branch1 (in-place)
I0329 13:32:11.612246 86603 layer_factory.hpp:77] Creating layer scale3a_branch1
I0329 13:32:11.612298 86603 net.cpp:122] Setting up scale3a_branch1
I0329 13:32:11.612325 86603 net.cpp:129] Top shape: 5 128 8 28 28 (4014080)
I0329 13:32:11.612347 86603 net.cpp:137] Memory required for data: 2147532800
I0329 13:32:11.612370 86603 layer_factory.hpp:77] Creating layer res3a_branch2a
I0329 13:32:11.612397 86603 net.cpp:84] Creating Layer res3a_branch2a
I0329 13:32:11.612439 86603 net.cpp:406] res3a_branch2a <- res2b_res2b_relu_0_split_1
I0329 13:32:11.612510 86603 net.cpp:380] res3a_branch2a -> res3a_branch2a
I0329 13:32:11.614895 86603 net.cpp:122] Setting up res3a_branch2a
I0329 13:32:11.614938 86603 net.cpp:129] Top shape: 5 128 8 28 28 (4014080)
I0329 13:32:11.614962 86603 net.cpp:137] Memory required for data: 2163589120
I0329 13:32:11.614989 86603 layer_factory.hpp:77] Creating layer bn3a_branch2a
I0329 13:32:11.615018 86603 net.cpp:84] Creating Layer bn3a_branch2a
I0329 13:32:11.615043 86603 net.cpp:406] bn3a_branch2a <- res3a_branch2a
I0329 13:32:11.615069 86603 net.cpp:367] bn3a_branch2a -> res3a_branch2a (in-place)
I0329 13:32:11.615114 86603 net.cpp:122] Setting up bn3a_branch2a
I0329 13:32:11.615139 86603 net.cpp:129] Top shape: 5 128 8 28 28 (4014080)
I0329 13:32:11.615161 86603 net.cpp:137] Memory required for data: 2179645440
I0329 13:32:11.615187 86603 layer_factory.hpp:77] Creating layer scale3a_branch2a
I0329 13:32:11.615218 86603 net.cpp:84] Creating Layer scale3a_branch2a
I0329 13:32:11.615249 86603 net.cpp:406] scale3a_branch2a <- res3a_branch2a
I0329 13:32:11.615276 86603 net.cpp:367] scale3a_branch2a -> res3a_branch2a (in-place)
I0329 13:32:11.615309 86603 layer_factory.hpp:77] Creating layer scale3a_branch2a
I0329 13:32:11.615361 86603 net.cpp:122] Setting up scale3a_branch2a
I0329 13:32:11.615389 86603 net.cpp:129] Top shape: 5 128 8 28 28 (4014080)
I0329 13:32:11.615411 86603 net.cpp:137] Memory required for data: 2195701760
I0329 13:32:11.615437 86603 layer_factory.hpp:77] Creating layer res3a_branch2a_relu
I0329 13:32:11.615463 86603 net.cpp:84] Creating Layer res3a_branch2a_relu
I0329 13:32:11.615514 86603 net.cpp:406] res3a_branch2a_relu <- res3a_branch2a
I0329 13:32:11.615576 86603 net.cpp:367] res3a_branch2a_relu -> res3a_branch2a (in-place)
I0329 13:32:11.615618 86603 net.cpp:122] Setting up res3a_branch2a_relu
I0329 13:32:11.615630 86603 net.cpp:129] Top shape: 5 128 8 28 28 (4014080)
I0329 13:32:11.615825 86603 net.cpp:137] Memory required for data: 2211758080
I0329 13:32:11.615939 86603 layer_factory.hpp:77] Creating layer res3a_branch2b
I0329 13:32:11.615986 86603 net.cpp:84] Creating Layer res3a_branch2b
I0329 13:32:11.616068 86603 net.cpp:406] res3a_branch2b <- res3a_branch2a
I0329 13:32:11.616096 86603 net.cpp:380] res3a_branch2b -> res3a_branch2b
I0329 13:32:11.620805 86603 net.cpp:122] Setting up res3a_branch2b
I0329 13:32:11.620856 86603 net.cpp:129] Top shape: 5 128 8 28 28 (4014080)
I0329 13:32:11.620879 86603 net.cpp:137] Memory required for data: 2227814400
I0329 13:32:11.620895 86603 layer_factory.hpp:77] Creating layer bn3a_branch2b
I0329 13:32:11.620936 86603 net.cpp:84] Creating Layer bn3a_branch2b
I0329 13:32:11.620961 86603 net.cpp:406] bn3a_branch2b <- res3a_branch2b
I0329 13:32:11.620990 86603 net.cpp:367] bn3a_branch2b -> res3a_branch2b (in-place)
I0329 13:32:11.621035 86603 net.cpp:122] Setting up bn3a_branch2b
I0329 13:32:11.621069 86603 net.cpp:129] Top shape: 5 128 8 28 28 (4014080)
I0329 13:32:11.621103 86603 net.cpp:137] Memory required for data: 2243870720
I0329 13:32:11.621129 86603 layer_factory.hpp:77] Creating layer scale3a_branch2b
I0329 13:32:11.621168 86603 net.cpp:84] Creating Layer scale3a_branch2b
I0329 13:32:11.621204 86603 net.cpp:406] scale3a_branch2b <- res3a_branch2b
I0329 13:32:11.621229 86603 net.cpp:367] scale3a_branch2b -> res3a_branch2b (in-place)
I0329 13:32:11.621273 86603 layer_factory.hpp:77] Creating layer scale3a_branch2b
I0329 13:32:11.621327 86603 net.cpp:122] Setting up scale3a_branch2b
I0329 13:32:11.621364 86603 net.cpp:129] Top shape: 5 128 8 28 28 (4014080)
I0329 13:32:11.621387 86603 net.cpp:137] Memory required for data: 2259927040
I0329 13:32:11.621412 86603 layer_factory.hpp:77] Creating layer res3a
I0329 13:32:11.621436 86603 net.cpp:84] Creating Layer res3a
I0329 13:32:11.621462 86603 net.cpp:406] res3a <- res3a_branch1
I0329 13:32:11.621486 86603 net.cpp:406] res3a <- res3a_branch2b
I0329 13:32:11.621520 86603 net.cpp:380] res3a -> res3a
I0329 13:32:11.621551 86603 net.cpp:122] Setting up res3a
I0329 13:32:11.621575 86603 net.cpp:129] Top shape: 5 128 8 28 28 (4014080)
I0329 13:32:11.621608 86603 net.cpp:137] Memory required for data: 2275983360
I0329 13:32:11.621629 86603 layer_factory.hpp:77] Creating layer res3a_relu
I0329 13:32:11.621655 86603 net.cpp:84] Creating Layer res3a_relu
I0329 13:32:11.621678 86603 net.cpp:406] res3a_relu <- res3a
I0329 13:32:11.621714 86603 net.cpp:367] res3a_relu -> res3a (in-place)
I0329 13:32:11.621740 86603 net.cpp:122] Setting up res3a_relu
I0329 13:32:11.621774 86603 net.cpp:129] Top shape: 5 128 8 28 28 (4014080)
I0329 13:32:11.621795 86603 net.cpp:137] Memory required for data: 2292039680
I0329 13:32:11.621819 86603 layer_factory.hpp:77] Creating layer res3a_res3a_relu_0_split
I0329 13:32:11.621843 86603 net.cpp:84] Creating Layer res3a_res3a_relu_0_split
I0329 13:32:11.621865 86603 net.cpp:406] res3a_res3a_relu_0_split <- res3a
I0329 13:32:11.621891 86603 net.cpp:380] res3a_res3a_relu_0_split -> res3a_res3a_relu_0_split_0
I0329 13:32:11.621925 86603 net.cpp:380] res3a_res3a_relu_0_split -> res3a_res3a_relu_0_split_1
I0329 13:32:11.621971 86603 net.cpp:122] Setting up res3a_res3a_relu_0_split
I0329 13:32:11.621996 86603 net.cpp:129] Top shape: 5 128 8 28 28 (4014080)
I0329 13:32:11.622020 86603 net.cpp:129] Top shape: 5 128 8 28 28 (4014080)
I0329 13:32:11.622041 86603 net.cpp:137] Memory required for data: 2324152320
I0329 13:32:11.622063 86603 layer_factory.hpp:77] Creating layer res3b_branch2a
I0329 13:32:11.622088 86603 net.cpp:84] Creating Layer res3b_branch2a
I0329 13:32:11.622112 86603 net.cpp:406] res3b_branch2a <- res3a_res3a_relu_0_split_0
I0329 13:32:11.622140 86603 net.cpp:380] res3b_branch2a -> res3b_branch2a
I0329 13:32:11.626911 86603 net.cpp:122] Setting up res3b_branch2a
I0329 13:32:11.626982 86603 net.cpp:129] Top shape: 5 128 8 28 28 (4014080)
I0329 13:32:11.627007 86603 net.cpp:137] Memory required for data: 2340208640
I0329 13:32:11.627024 86603 layer_factory.hpp:77] Creating layer bn3b_branch2a
I0329 13:32:11.627053 86603 net.cpp:84] Creating Layer bn3b_branch2a
I0329 13:32:11.627079 86603 net.cpp:406] bn3b_branch2a <- res3b_branch2a
I0329 13:32:11.627107 86603 net.cpp:367] bn3b_branch2a -> res3b_branch2a (in-place)
I0329 13:32:11.627156 86603 net.cpp:122] Setting up bn3b_branch2a
I0329 13:32:11.627182 86603 net.cpp:129] Top shape: 5 128 8 28 28 (4014080)
I0329 13:32:11.627203 86603 net.cpp:137] Memory required for data: 2356264960
I0329 13:32:11.627229 86603 layer_factory.hpp:77] Creating layer scale3b_branch2a
I0329 13:32:11.627255 86603 net.cpp:84] Creating Layer scale3b_branch2a
I0329 13:32:11.627279 86603 net.cpp:406] scale3b_branch2a <- res3b_branch2a
I0329 13:32:11.627302 86603 net.cpp:367] scale3b_branch2a -> res3b_branch2a (in-place)
I0329 13:32:11.627336 86603 layer_factory.hpp:77] Creating layer scale3b_branch2a
I0329 13:32:11.627388 86603 net.cpp:122] Setting up scale3b_branch2a
I0329 13:32:11.627416 86603 net.cpp:129] Top shape: 5 128 8 28 28 (4014080)
I0329 13:32:11.627439 86603 net.cpp:137] Memory required for data: 2372321280
I0329 13:32:11.627463 86603 layer_factory.hpp:77] Creating layer res3b_branch2a_relu
I0329 13:32:11.627488 86603 net.cpp:84] Creating Layer res3b_branch2a_relu
I0329 13:32:11.627512 86603 net.cpp:406] res3b_branch2a_relu <- res3b_branch2a
I0329 13:32:11.627578 86603 net.cpp:367] res3b_branch2a_relu -> res3b_branch2a (in-place)
I0329 13:32:11.627638 86603 net.cpp:122] Setting up res3b_branch2a_relu
I0329 13:32:11.627719 86603 net.cpp:129] Top shape: 5 128 8 28 28 (4014080)
I0329 13:32:11.627743 86603 net.cpp:137] Memory required for data: 2388377600
I0329 13:32:11.627766 86603 layer_factory.hpp:77] Creating layer res3b_branch2b
I0329 13:32:11.627780 86603 net.cpp:84] Creating Layer res3b_branch2b
I0329 13:32:11.627806 86603 net.cpp:406] res3b_branch2b <- res3b_branch2a
I0329 13:32:11.627835 86603 net.cpp:380] res3b_branch2b -> res3b_branch2b
I0329 13:32:11.632194 86603 net.cpp:122] Setting up res3b_branch2b
I0329 13:32:11.632241 86603 net.cpp:129] Top shape: 5 128 8 28 28 (4014080)
I0329 13:32:11.632278 86603 net.cpp:137] Memory required for data: 2404433920
I0329 13:32:11.632293 86603 layer_factory.hpp:77] Creating layer bn3b_branch2b
I0329 13:32:11.632354 86603 net.cpp:84] Creating Layer bn3b_branch2b
I0329 13:32:11.632378 86603 net.cpp:406] bn3b_branch2b <- res3b_branch2b
I0329 13:32:11.632386 86603 net.cpp:367] bn3b_branch2b -> res3b_branch2b (in-place)
I0329 13:32:11.632413 86603 net.cpp:122] Setting up bn3b_branch2b
I0329 13:32:11.632417 86603 net.cpp:129] Top shape: 5 128 8 28 28 (4014080)
I0329 13:32:11.632421 86603 net.cpp:137] Memory required for data: 2420490240
I0329 13:32:11.632426 86603 layer_factory.hpp:77] Creating layer scale3b_branch2b
I0329 13:32:11.632433 86603 net.cpp:84] Creating Layer scale3b_branch2b
I0329 13:32:11.632436 86603 net.cpp:406] scale3b_branch2b <- res3b_branch2b
I0329 13:32:11.632441 86603 net.cpp:367] scale3b_branch2b -> res3b_branch2b (in-place)
I0329 13:32:11.632449 86603 layer_factory.hpp:77] Creating layer scale3b_branch2b
I0329 13:32:11.632477 86603 net.cpp:122] Setting up scale3b_branch2b
I0329 13:32:11.632510 86603 net.cpp:129] Top shape: 5 128 8 28 28 (4014080)
I0329 13:32:11.632514 86603 net.cpp:137] Memory required for data: 2436546560
I0329 13:32:11.632546 86603 layer_factory.hpp:77] Creating layer res3b
I0329 13:32:11.632555 86603 net.cpp:84] Creating Layer res3b
I0329 13:32:11.632557 86603 net.cpp:406] res3b <- res3a_res3a_relu_0_split_1
I0329 13:32:11.632560 86603 net.cpp:406] res3b <- res3b_branch2b
I0329 13:32:11.632565 86603 net.cpp:380] res3b -> res3b
I0329 13:32:11.632571 86603 net.cpp:122] Setting up res3b
I0329 13:32:11.632575 86603 net.cpp:129] Top shape: 5 128 8 28 28 (4014080)
I0329 13:32:11.632576 86603 net.cpp:137] Memory required for data: 2452602880
I0329 13:32:11.632578 86603 layer_factory.hpp:77] Creating layer res3b_relu
I0329 13:32:11.632582 86603 net.cpp:84] Creating Layer res3b_relu
I0329 13:32:11.632585 86603 net.cpp:406] res3b_relu <- res3b
I0329 13:32:11.632587 86603 net.cpp:367] res3b_relu -> res3b (in-place)
I0329 13:32:11.632591 86603 net.cpp:122] Setting up res3b_relu
I0329 13:32:11.632594 86603 net.cpp:129] Top shape: 5 128 8 28 28 (4014080)
I0329 13:32:11.632596 86603 net.cpp:137] Memory required for data: 2468659200
I0329 13:32:11.632598 86603 layer_factory.hpp:77] Creating layer res3b_res3b_relu_0_split
I0329 13:32:11.632603 86603 net.cpp:84] Creating Layer res3b_res3b_relu_0_split
I0329 13:32:11.632606 86603 net.cpp:406] res3b_res3b_relu_0_split <- res3b
I0329 13:32:11.632609 86603 net.cpp:380] res3b_res3b_relu_0_split -> res3b_res3b_relu_0_split_0
I0329 13:32:11.632614 86603 net.cpp:380] res3b_res3b_relu_0_split -> res3b_res3b_relu_0_split_1
I0329 13:32:11.632621 86603 net.cpp:122] Setting up res3b_res3b_relu_0_split
I0329 13:32:11.632623 86603 net.cpp:129] Top shape: 5 128 8 28 28 (4014080)
I0329 13:32:11.632627 86603 net.cpp:129] Top shape: 5 128 8 28 28 (4014080)
I0329 13:32:11.632628 86603 net.cpp:137] Memory required for data: 2500771840
I0329 13:32:11.632629 86603 layer_factory.hpp:77] Creating layer res4a_branch1
I0329 13:32:11.632634 86603 net.cpp:84] Creating Layer res4a_branch1
I0329 13:32:11.632637 86603 net.cpp:406] res4a_branch1 <- res3b_res3b_relu_0_split_0
I0329 13:32:11.632647 86603 net.cpp:380] res4a_branch1 -> res4a_branch1
I0329 13:32:11.633008 86603 net.cpp:122] Setting up res4a_branch1
I0329 13:32:11.633028 86603 net.cpp:129] Top shape: 5 256 4 14 14 (1003520)
I0329 13:32:11.633031 86603 net.cpp:137] Memory required for data: 2504785920
I0329 13:32:11.633036 86603 layer_factory.hpp:77] Creating layer bn4a_branch1
I0329 13:32:11.633045 86603 net.cpp:84] Creating Layer bn4a_branch1
I0329 13:32:11.633049 86603 net.cpp:406] bn4a_branch1 <- res4a_branch1
I0329 13:32:11.633054 86603 net.cpp:367] bn4a_branch1 -> res4a_branch1 (in-place)
I0329 13:32:11.633065 86603 net.cpp:122] Setting up bn4a_branch1
I0329 13:32:11.633069 86603 net.cpp:129] Top shape: 5 256 4 14 14 (1003520)
I0329 13:32:11.633071 86603 net.cpp:137] Memory required for data: 2508800000
I0329 13:32:11.633075 86603 layer_factory.hpp:77] Creating layer scale4a_branch1
I0329 13:32:11.633081 86603 net.cpp:84] Creating Layer scale4a_branch1
I0329 13:32:11.633083 86603 net.cpp:406] scale4a_branch1 <- res4a_branch1
I0329 13:32:11.633087 86603 net.cpp:367] scale4a_branch1 -> res4a_branch1 (in-place)
I0329 13:32:11.633095 86603 layer_factory.hpp:77] Creating layer scale4a_branch1
I0329 13:32:11.633110 86603 net.cpp:122] Setting up scale4a_branch1
I0329 13:32:11.633113 86603 net.cpp:129] Top shape: 5 256 4 14 14 (1003520)
I0329 13:32:11.633116 86603 net.cpp:137] Memory required for data: 2512814080
I0329 13:32:11.633118 86603 layer_factory.hpp:77] Creating layer res4a_branch2a
I0329 13:32:11.633142 86603 net.cpp:84] Creating Layer res4a_branch2a
I0329 13:32:11.633148 86603 net.cpp:406] res4a_branch2a <- res3b_res3b_relu_0_split_1
I0329 13:32:11.633152 86603 net.cpp:380] res4a_branch2a -> res4a_branch2a
I0329 13:32:11.642740 86603 net.cpp:122] Setting up res4a_branch2a
I0329 13:32:11.642771 86603 net.cpp:129] Top shape: 5 256 4 14 14 (1003520)
I0329 13:32:11.642774 86603 net.cpp:137] Memory required for data: 2516828160
I0329 13:32:11.642794 86603 layer_factory.hpp:77] Creating layer bn4a_branch2a
I0329 13:32:11.642825 86603 net.cpp:84] Creating Layer bn4a_branch2a
I0329 13:32:11.642829 86603 net.cpp:406] bn4a_branch2a <- res4a_branch2a
I0329 13:32:11.642838 86603 net.cpp:367] bn4a_branch2a -> res4a_branch2a (in-place)
I0329 13:32:11.642869 86603 net.cpp:122] Setting up bn4a_branch2a
I0329 13:32:11.642874 86603 net.cpp:129] Top shape: 5 256 4 14 14 (1003520)
I0329 13:32:11.642875 86603 net.cpp:137] Memory required for data: 2520842240
I0329 13:32:11.642880 86603 layer_factory.hpp:77] Creating layer scale4a_branch2a
I0329 13:32:11.642904 86603 net.cpp:84] Creating Layer scale4a_branch2a
I0329 13:32:11.642906 86603 net.cpp:406] scale4a_branch2a <- res4a_branch2a
I0329 13:32:11.642910 86603 net.cpp:367] scale4a_branch2a -> res4a_branch2a (in-place)
I0329 13:32:11.642921 86603 layer_factory.hpp:77] Creating layer scale4a_branch2a
I0329 13:32:11.642949 86603 net.cpp:122] Setting up scale4a_branch2a
I0329 13:32:11.642953 86603 net.cpp:129] Top shape: 5 256 4 14 14 (1003520)
I0329 13:32:11.642956 86603 net.cpp:137] Memory required for data: 2524856320
I0329 13:32:11.642958 86603 layer_factory.hpp:77] Creating layer res4a_branch2a_relu
I0329 13:32:11.642962 86603 net.cpp:84] Creating Layer res4a_branch2a_relu
I0329 13:32:11.642966 86603 net.cpp:406] res4a_branch2a_relu <- res4a_branch2a
I0329 13:32:11.642969 86603 net.cpp:367] res4a_branch2a_relu -> res4a_branch2a (in-place)
I0329 13:32:11.642973 86603 net.cpp:122] Setting up res4a_branch2a_relu
I0329 13:32:11.642976 86603 net.cpp:129] Top shape: 5 256 4 14 14 (1003520)
I0329 13:32:11.642978 86603 net.cpp:137] Memory required for data: 2528870400
I0329 13:32:11.642982 86603 layer_factory.hpp:77] Creating layer res4a_branch2b
I0329 13:32:11.642985 86603 net.cpp:84] Creating Layer res4a_branch2b
I0329 13:32:11.642987 86603 net.cpp:406] res4a_branch2b <- res4a_branch2a
I0329 13:32:11.642990 86603 net.cpp:380] res4a_branch2b -> res4a_branch2b
I0329 13:32:11.661332 86603 net.cpp:122] Setting up res4a_branch2b
I0329 13:32:11.661375 86603 net.cpp:129] Top shape: 5 256 4 14 14 (1003520)
I0329 13:32:11.661378 86603 net.cpp:137] Memory required for data: 2532884480
I0329 13:32:11.661386 86603 layer_factory.hpp:77] Creating layer bn4a_branch2b
I0329 13:32:11.661423 86603 net.cpp:84] Creating Layer bn4a_branch2b
I0329 13:32:11.661427 86603 net.cpp:406] bn4a_branch2b <- res4a_branch2b
I0329 13:32:11.661451 86603 net.cpp:367] bn4a_branch2b -> res4a_branch2b (in-place)
I0329 13:32:11.661471 86603 net.cpp:122] Setting up bn4a_branch2b
I0329 13:32:11.661475 86603 net.cpp:129] Top shape: 5 256 4 14 14 (1003520)
I0329 13:32:11.661478 86603 net.cpp:137] Memory required for data: 2536898560
I0329 13:32:11.661497 86603 layer_factory.hpp:77] Creating layer scale4a_branch2b
I0329 13:32:11.661502 86603 net.cpp:84] Creating Layer scale4a_branch2b
I0329 13:32:11.661505 86603 net.cpp:406] scale4a_branch2b <- res4a_branch2b
I0329 13:32:11.661509 86603 net.cpp:367] scale4a_branch2b -> res4a_branch2b (in-place)
I0329 13:32:11.661520 86603 layer_factory.hpp:77] Creating layer scale4a_branch2b
I0329 13:32:11.661535 86603 net.cpp:122] Setting up scale4a_branch2b
I0329 13:32:11.661538 86603 net.cpp:129] Top shape: 5 256 4 14 14 (1003520)
I0329 13:32:11.661540 86603 net.cpp:137] Memory required for data: 2540912640
I0329 13:32:11.661543 86603 layer_factory.hpp:77] Creating layer res4a
I0329 13:32:11.661547 86603 net.cpp:84] Creating Layer res4a
I0329 13:32:11.661550 86603 net.cpp:406] res4a <- res4a_branch1
I0329 13:32:11.661553 86603 net.cpp:406] res4a <- res4a_branch2b
I0329 13:32:11.661557 86603 net.cpp:380] res4a -> res4a
I0329 13:32:11.661563 86603 net.cpp:122] Setting up res4a
I0329 13:32:11.661567 86603 net.cpp:129] Top shape: 5 256 4 14 14 (1003520)
I0329 13:32:11.661569 86603 net.cpp:137] Memory required for data: 2544926720
I0329 13:32:11.661571 86603 layer_factory.hpp:77] Creating layer res4a_relu
I0329 13:32:11.661574 86603 net.cpp:84] Creating Layer res4a_relu
I0329 13:32:11.661577 86603 net.cpp:406] res4a_relu <- res4a
I0329 13:32:11.661598 86603 net.cpp:367] res4a_relu -> res4a (in-place)
I0329 13:32:11.661602 86603 net.cpp:122] Setting up res4a_relu
I0329 13:32:11.661618 86603 net.cpp:129] Top shape: 5 256 4 14 14 (1003520)
I0329 13:32:11.661623 86603 net.cpp:137] Memory required for data: 2548940800
I0329 13:32:11.661625 86603 layer_factory.hpp:77] Creating layer res4a_res4a_relu_0_split
I0329 13:32:11.661630 86603 net.cpp:84] Creating Layer res4a_res4a_relu_0_split
I0329 13:32:11.661633 86603 net.cpp:406] res4a_res4a_relu_0_split <- res4a
I0329 13:32:11.661638 86603 net.cpp:380] res4a_res4a_relu_0_split -> res4a_res4a_relu_0_split_0
I0329 13:32:11.661643 86603 net.cpp:380] res4a_res4a_relu_0_split -> res4a_res4a_relu_0_split_1
I0329 13:32:11.661649 86603 net.cpp:122] Setting up res4a_res4a_relu_0_split
I0329 13:32:11.661653 86603 net.cpp:129] Top shape: 5 256 4 14 14 (1003520)
I0329 13:32:11.661656 86603 net.cpp:129] Top shape: 5 256 4 14 14 (1003520)
I0329 13:32:11.661658 86603 net.cpp:137] Memory required for data: 2556968960
I0329 13:32:11.661659 86603 layer_factory.hpp:77] Creating layer res4b_branch2a
I0329 13:32:11.661664 86603 net.cpp:84] Creating Layer res4b_branch2a
I0329 13:32:11.661666 86603 net.cpp:406] res4b_branch2a <- res4a_res4a_relu_0_split_0
I0329 13:32:11.661670 86603 net.cpp:380] res4b_branch2a -> res4b_branch2a
I0329 13:32:11.680112 86603 net.cpp:122] Setting up res4b_branch2a
I0329 13:32:11.680162 86603 net.cpp:129] Top shape: 5 256 4 14 14 (1003520)
I0329 13:32:11.680166 86603 net.cpp:137] Memory required for data: 2560983040
I0329 13:32:11.680174 86603 layer_factory.hpp:77] Creating layer bn4b_branch2a
I0329 13:32:11.680189 86603 net.cpp:84] Creating Layer bn4b_branch2a
I0329 13:32:11.680193 86603 net.cpp:406] bn4b_branch2a <- res4b_branch2a
I0329 13:32:11.680200 86603 net.cpp:367] bn4b_branch2a -> res4b_branch2a (in-place)
I0329 13:32:11.680230 86603 net.cpp:122] Setting up bn4b_branch2a
I0329 13:32:11.680234 86603 net.cpp:129] Top shape: 5 256 4 14 14 (1003520)
I0329 13:32:11.680235 86603 net.cpp:137] Memory required for data: 2564997120
I0329 13:32:11.680241 86603 layer_factory.hpp:77] Creating layer scale4b_branch2a
I0329 13:32:11.680245 86603 net.cpp:84] Creating Layer scale4b_branch2a
I0329 13:32:11.680248 86603 net.cpp:406] scale4b_branch2a <- res4b_branch2a
I0329 13:32:11.680253 86603 net.cpp:367] scale4b_branch2a -> res4b_branch2a (in-place)
I0329 13:32:11.680263 86603 layer_factory.hpp:77] Creating layer scale4b_branch2a
I0329 13:32:11.680302 86603 net.cpp:122] Setting up scale4b_branch2a
I0329 13:32:11.680307 86603 net.cpp:129] Top shape: 5 256 4 14 14 (1003520)
I0329 13:32:11.680310 86603 net.cpp:137] Memory required for data: 2569011200
I0329 13:32:11.680313 86603 layer_factory.hpp:77] Creating layer res4b_branch2a_relu
I0329 13:32:11.680320 86603 net.cpp:84] Creating Layer res4b_branch2a_relu
I0329 13:32:11.680322 86603 net.cpp:406] res4b_branch2a_relu <- res4b_branch2a
I0329 13:32:11.680325 86603 net.cpp:367] res4b_branch2a_relu -> res4b_branch2a (in-place)
I0329 13:32:11.680330 86603 net.cpp:122] Setting up res4b_branch2a_relu
I0329 13:32:11.680332 86603 net.cpp:129] Top shape: 5 256 4 14 14 (1003520)
I0329 13:32:11.680335 86603 net.cpp:137] Memory required for data: 2573025280
I0329 13:32:11.680336 86603 layer_factory.hpp:77] Creating layer res4b_branch2b
I0329 13:32:11.680341 86603 net.cpp:84] Creating Layer res4b_branch2b
I0329 13:32:11.680343 86603 net.cpp:406] res4b_branch2b <- res4b_branch2a
I0329 13:32:11.680346 86603 net.cpp:380] res4b_branch2b -> res4b_branch2b
I0329 13:32:11.699128 86603 net.cpp:122] Setting up res4b_branch2b
I0329 13:32:11.699162 86603 net.cpp:129] Top shape: 5 256 4 14 14 (1003520)
I0329 13:32:11.699164 86603 net.cpp:137] Memory required for data: 2577039360
I0329 13:32:11.699173 86603 layer_factory.hpp:77] Creating layer bn4b_branch2b
I0329 13:32:11.699187 86603 net.cpp:84] Creating Layer bn4b_branch2b
I0329 13:32:11.699193 86603 net.cpp:406] bn4b_branch2b <- res4b_branch2b
I0329 13:32:11.699198 86603 net.cpp:367] bn4b_branch2b -> res4b_branch2b (in-place)
I0329 13:32:11.699434 86603 net.cpp:122] Setting up bn4b_branch2b
I0329 13:32:11.699445 86603 net.cpp:129] Top shape: 5 256 4 14 14 (1003520)
I0329 13:32:11.699447 86603 net.cpp:137] Memory required for data: 2581053440
I0329 13:32:11.699453 86603 layer_factory.hpp:77] Creating layer scale4b_branch2b
I0329 13:32:11.699460 86603 net.cpp:84] Creating Layer scale4b_branch2b
I0329 13:32:11.699462 86603 net.cpp:406] scale4b_branch2b <- res4b_branch2b
I0329 13:32:11.699475 86603 net.cpp:367] scale4b_branch2b -> res4b_branch2b (in-place)
I0329 13:32:11.699486 86603 layer_factory.hpp:77] Creating layer scale4b_branch2b
I0329 13:32:11.699501 86603 net.cpp:122] Setting up scale4b_branch2b
I0329 13:32:11.699506 86603 net.cpp:129] Top shape: 5 256 4 14 14 (1003520)
I0329 13:32:11.699507 86603 net.cpp:137] Memory required for data: 2585067520
I0329 13:32:11.699512 86603 layer_factory.hpp:77] Creating layer res4b
I0329 13:32:11.699515 86603 net.cpp:84] Creating Layer res4b
I0329 13:32:11.699517 86603 net.cpp:406] res4b <- res4a_res4a_relu_0_split_1
I0329 13:32:11.699520 86603 net.cpp:406] res4b <- res4b_branch2b
I0329 13:32:11.699523 86603 net.cpp:380] res4b -> res4b
I0329 13:32:11.699529 86603 net.cpp:122] Setting up res4b
I0329 13:32:11.699532 86603 net.cpp:129] Top shape: 5 256 4 14 14 (1003520)
I0329 13:32:11.699534 86603 net.cpp:137] Memory required for data: 2589081600
I0329 13:32:11.699537 86603 layer_factory.hpp:77] Creating layer res4b_relu
I0329 13:32:11.699539 86603 net.cpp:84] Creating Layer res4b_relu
I0329 13:32:11.699542 86603 net.cpp:406] res4b_relu <- res4b
I0329 13:32:11.699544 86603 net.cpp:367] res4b_relu -> res4b (in-place)
I0329 13:32:11.699548 86603 net.cpp:122] Setting up res4b_relu
I0329 13:32:11.699550 86603 net.cpp:129] Top shape: 5 256 4 14 14 (1003520)
I0329 13:32:11.699553 86603 net.cpp:137] Memory required for data: 2593095680
I0329 13:32:11.699554 86603 layer_factory.hpp:77] Creating layer res4b_res4b_relu_0_split
I0329 13:32:11.699559 86603 net.cpp:84] Creating Layer res4b_res4b_relu_0_split
I0329 13:32:11.699561 86603 net.cpp:406] res4b_res4b_relu_0_split <- res4b
I0329 13:32:11.699564 86603 net.cpp:380] res4b_res4b_relu_0_split -> res4b_res4b_relu_0_split_0
I0329 13:32:11.699569 86603 net.cpp:380] res4b_res4b_relu_0_split -> res4b_res4b_relu_0_split_1
I0329 13:32:11.699575 86603 net.cpp:122] Setting up res4b_res4b_relu_0_split
I0329 13:32:11.699578 86603 net.cpp:129] Top shape: 5 256 4 14 14 (1003520)
I0329 13:32:11.699580 86603 net.cpp:129] Top shape: 5 256 4 14 14 (1003520)
I0329 13:32:11.699582 86603 net.cpp:137] Memory required for data: 2601123840
I0329 13:32:11.699584 86603 layer_factory.hpp:77] Creating layer res5a_branch1
I0329 13:32:11.699589 86603 net.cpp:84] Creating Layer res5a_branch1
I0329 13:32:11.699590 86603 net.cpp:406] res5a_branch1 <- res4b_res4b_relu_0_split_0
I0329 13:32:11.699595 86603 net.cpp:380] res5a_branch1 -> res5a_branch1
I0329 13:32:11.701037 86603 net.cpp:122] Setting up res5a_branch1
I0329 13:32:11.701059 86603 net.cpp:129] Top shape: 5 512 2 7 7 (250880)
I0329 13:32:11.701062 86603 net.cpp:137] Memory required for data: 2602127360
I0329 13:32:11.701069 86603 layer_factory.hpp:77] Creating layer bn5a_branch1
I0329 13:32:11.701077 86603 net.cpp:84] Creating Layer bn5a_branch1
I0329 13:32:11.701081 86603 net.cpp:406] bn5a_branch1 <- res5a_branch1
I0329 13:32:11.701084 86603 net.cpp:367] bn5a_branch1 -> res5a_branch1 (in-place)
I0329 13:32:11.701098 86603 net.cpp:122] Setting up bn5a_branch1
I0329 13:32:11.701102 86603 net.cpp:129] Top shape: 5 512 2 7 7 (250880)
I0329 13:32:11.701103 86603 net.cpp:137] Memory required for data: 2603130880
I0329 13:32:11.701107 86603 layer_factory.hpp:77] Creating layer scale5a_branch1
I0329 13:32:11.701114 86603 net.cpp:84] Creating Layer scale5a_branch1
I0329 13:32:11.701117 86603 net.cpp:406] scale5a_branch1 <- res5a_branch1
I0329 13:32:11.701119 86603 net.cpp:367] scale5a_branch1 -> res5a_branch1 (in-place)
I0329 13:32:11.701128 86603 layer_factory.hpp:77] Creating layer scale5a_branch1
I0329 13:32:11.701153 86603 net.cpp:122] Setting up scale5a_branch1
I0329 13:32:11.701158 86603 net.cpp:129] Top shape: 5 512 2 7 7 (250880)
I0329 13:32:11.701159 86603 net.cpp:137] Memory required for data: 2604134400
I0329 13:32:11.701162 86603 layer_factory.hpp:77] Creating layer res5a_branch2a
I0329 13:32:11.701169 86603 net.cpp:84] Creating Layer res5a_branch2a
I0329 13:32:11.701170 86603 net.cpp:406] res5a_branch2a <- res4b_res4b_relu_0_split_1
I0329 13:32:11.701174 86603 net.cpp:380] res5a_branch2a -> res5a_branch2a
I0329 13:32:11.736011 86603 net.cpp:122] Setting up res5a_branch2a
I0329 13:32:11.736048 86603 net.cpp:129] Top shape: 5 512 2 7 7 (250880)
I0329 13:32:11.736050 86603 net.cpp:137] Memory required for data: 2605137920
I0329 13:32:11.736058 86603 layer_factory.hpp:77] Creating layer bn5a_branch2a
I0329 13:32:11.736069 86603 net.cpp:84] Creating Layer bn5a_branch2a
I0329 13:32:11.736075 86603 net.cpp:406] bn5a_branch2a <- res5a_branch2a
I0329 13:32:11.736081 86603 net.cpp:367] bn5a_branch2a -> res5a_branch2a (in-place)
I0329 13:32:11.736142 86603 net.cpp:122] Setting up bn5a_branch2a
I0329 13:32:11.736171 86603 net.cpp:129] Top shape: 5 512 2 7 7 (250880)
I0329 13:32:11.736174 86603 net.cpp:137] Memory required for data: 2606141440
I0329 13:32:11.736192 86603 layer_factory.hpp:77] Creating layer scale5a_branch2a
I0329 13:32:11.736198 86603 net.cpp:84] Creating Layer scale5a_branch2a
I0329 13:32:11.736201 86603 net.cpp:406] scale5a_branch2a <- res5a_branch2a
I0329 13:32:11.736207 86603 net.cpp:367] scale5a_branch2a -> res5a_branch2a (in-place)
I0329 13:32:11.736217 86603 layer_factory.hpp:77] Creating layer scale5a_branch2a
I0329 13:32:11.736230 86603 net.cpp:122] Setting up scale5a_branch2a
I0329 13:32:11.736234 86603 net.cpp:129] Top shape: 5 512 2 7 7 (250880)
I0329 13:32:11.736237 86603 net.cpp:137] Memory required for data: 2607144960
I0329 13:32:11.736240 86603 layer_factory.hpp:77] Creating layer res5a_branch2a_relu
I0329 13:32:11.736244 86603 net.cpp:84] Creating Layer res5a_branch2a_relu
I0329 13:32:11.736246 86603 net.cpp:406] res5a_branch2a_relu <- res5a_branch2a
I0329 13:32:11.736250 86603 net.cpp:367] res5a_branch2a_relu -> res5a_branch2a (in-place)
I0329 13:32:11.736255 86603 net.cpp:122] Setting up res5a_branch2a_relu
I0329 13:32:11.736258 86603 net.cpp:129] Top shape: 5 512 2 7 7 (250880)
I0329 13:32:11.736260 86603 net.cpp:137] Memory required for data: 2608148480
I0329 13:32:11.736261 86603 layer_factory.hpp:77] Creating layer res5a_branch2b
I0329 13:32:11.736268 86603 net.cpp:84] Creating Layer res5a_branch2b
I0329 13:32:11.736269 86603 net.cpp:406] res5a_branch2b <- res5a_branch2a
I0329 13:32:11.736274 86603 net.cpp:380] res5a_branch2b -> res5a_branch2b
I0329 13:32:11.812526 86603 net.cpp:122] Setting up res5a_branch2b
I0329 13:32:11.812567 86603 net.cpp:129] Top shape: 5 512 2 7 7 (250880)
I0329 13:32:11.812573 86603 net.cpp:137] Memory required for data: 2609152000
I0329 13:32:11.812584 86603 layer_factory.hpp:77] Creating layer bn5a_branch2b
I0329 13:32:11.812595 86603 net.cpp:84] Creating Layer bn5a_branch2b
I0329 13:32:11.812602 86603 net.cpp:406] bn5a_branch2b <- res5a_branch2b
I0329 13:32:11.812610 86603 net.cpp:367] bn5a_branch2b -> res5a_branch2b (in-place)
I0329 13:32:11.812636 86603 net.cpp:122] Setting up bn5a_branch2b
I0329 13:32:11.812641 86603 net.cpp:129] Top shape: 5 512 2 7 7 (250880)
I0329 13:32:11.812664 86603 net.cpp:137] Memory required for data: 2610155520
I0329 13:32:11.812669 86603 layer_factory.hpp:77] Creating layer scale5a_branch2b
I0329 13:32:11.812678 86603 net.cpp:84] Creating Layer scale5a_branch2b
I0329 13:32:11.812682 86603 net.cpp:406] scale5a_branch2b <- res5a_branch2b
I0329 13:32:11.812687 86603 net.cpp:367] scale5a_branch2b -> res5a_branch2b (in-place)
I0329 13:32:11.812702 86603 layer_factory.hpp:77] Creating layer scale5a_branch2b
I0329 13:32:11.812726 86603 net.cpp:122] Setting up scale5a_branch2b
I0329 13:32:11.812734 86603 net.cpp:129] Top shape: 5 512 2 7 7 (250880)
I0329 13:32:11.812738 86603 net.cpp:137] Memory required for data: 2611159040
I0329 13:32:11.812783 86603 layer_factory.hpp:77] Creating layer res5a
I0329 13:32:11.812789 86603 net.cpp:84] Creating Layer res5a
I0329 13:32:11.812793 86603 net.cpp:406] res5a <- res5a_branch1
I0329 13:32:11.812798 86603 net.cpp:406] res5a <- res5a_branch2b
I0329 13:32:11.812803 86603 net.cpp:380] res5a -> res5a
I0329 13:32:11.812811 86603 net.cpp:122] Setting up res5a
I0329 13:32:11.812816 86603 net.cpp:129] Top shape: 5 512 2 7 7 (250880)
I0329 13:32:11.812819 86603 net.cpp:137] Memory required for data: 2612162560
I0329 13:32:11.812821 86603 layer_factory.hpp:77] Creating layer res5a_relu
I0329 13:32:11.812830 86603 net.cpp:84] Creating Layer res5a_relu
I0329 13:32:11.812834 86603 net.cpp:406] res5a_relu <- res5a
I0329 13:32:11.812837 86603 net.cpp:367] res5a_relu -> res5a (in-place)
I0329 13:32:11.812844 86603 net.cpp:122] Setting up res5a_relu
I0329 13:32:11.812849 86603 net.cpp:129] Top shape: 5 512 2 7 7 (250880)
I0329 13:32:11.812850 86603 net.cpp:137] Memory required for data: 2613166080
I0329 13:32:11.812854 86603 layer_factory.hpp:77] Creating layer res5a_res5a_relu_0_split
I0329 13:32:11.812858 86603 net.cpp:84] Creating Layer res5a_res5a_relu_0_split
I0329 13:32:11.812861 86603 net.cpp:406] res5a_res5a_relu_0_split <- res5a
I0329 13:32:11.812866 86603 net.cpp:380] res5a_res5a_relu_0_split -> res5a_res5a_relu_0_split_0
I0329 13:32:11.812873 86603 net.cpp:380] res5a_res5a_relu_0_split -> res5a_res5a_relu_0_split_1
I0329 13:32:11.812880 86603 net.cpp:122] Setting up res5a_res5a_relu_0_split
I0329 13:32:11.812885 86603 net.cpp:129] Top shape: 5 512 2 7 7 (250880)
I0329 13:32:11.812888 86603 net.cpp:129] Top shape: 5 512 2 7 7 (250880)
I0329 13:32:11.812891 86603 net.cpp:137] Memory required for data: 2615173120
I0329 13:32:11.812893 86603 layer_factory.hpp:77] Creating layer res5b_branch2a
I0329 13:32:11.812916 86603 net.cpp:84] Creating Layer res5b_branch2a
I0329 13:32:11.812938 86603 net.cpp:406] res5b_branch2a <- res5a_res5a_relu_0_split_0
I0329 13:32:11.812944 86603 net.cpp:380] res5b_branch2a -> res5b_branch2a
I0329 13:32:11.881436 86603 net.cpp:122] Setting up res5b_branch2a
I0329 13:32:11.881482 86603 net.cpp:129] Top shape: 5 512 2 7 7 (250880)
I0329 13:32:11.881486 86603 net.cpp:137] Memory required for data: 2616176640
I0329 13:32:11.881494 86603 layer_factory.hpp:77] Creating layer bn5b_branch2a
I0329 13:32:11.881503 86603 net.cpp:84] Creating Layer bn5b_branch2a
I0329 13:32:11.881508 86603 net.cpp:406] bn5b_branch2a <- res5b_branch2a
I0329 13:32:11.881516 86603 net.cpp:367] bn5b_branch2a -> res5b_branch2a (in-place)
I0329 13:32:11.881547 86603 net.cpp:122] Setting up bn5b_branch2a
I0329 13:32:11.881551 86603 net.cpp:129] Top shape: 5 512 2 7 7 (250880)
I0329 13:32:11.881553 86603 net.cpp:137] Memory required for data: 2617180160
I0329 13:32:11.881558 86603 layer_factory.hpp:77] Creating layer scale5b_branch2a
I0329 13:32:11.881563 86603 net.cpp:84] Creating Layer scale5b_branch2a
I0329 13:32:11.881566 86603 net.cpp:406] scale5b_branch2a <- res5b_branch2a
I0329 13:32:11.881588 86603 net.cpp:367] scale5b_branch2a -> res5b_branch2a (in-place)
I0329 13:32:11.881602 86603 layer_factory.hpp:77] Creating layer scale5b_branch2a
I0329 13:32:11.881616 86603 net.cpp:122] Setting up scale5b_branch2a
I0329 13:32:11.881629 86603 net.cpp:129] Top shape: 5 512 2 7 7 (250880)
I0329 13:32:11.881633 86603 net.cpp:137] Memory required for data: 2618183680
I0329 13:32:11.881635 86603 layer_factory.hpp:77] Creating layer res5b_branch2a_relu
I0329 13:32:11.881639 86603 net.cpp:84] Creating Layer res5b_branch2a_relu
I0329 13:32:11.881641 86603 net.cpp:406] res5b_branch2a_relu <- res5b_branch2a
I0329 13:32:11.881652 86603 net.cpp:367] res5b_branch2a_relu -> res5b_branch2a (in-place)
I0329 13:32:11.881657 86603 net.cpp:122] Setting up res5b_branch2a_relu
I0329 13:32:11.881659 86603 net.cpp:129] Top shape: 5 512 2 7 7 (250880)
I0329 13:32:11.881661 86603 net.cpp:137] Memory required for data: 2619187200
I0329 13:32:11.881664 86603 layer_factory.hpp:77] Creating layer res5b_branch2b
I0329 13:32:11.881669 86603 net.cpp:84] Creating Layer res5b_branch2b
I0329 13:32:11.881683 86603 net.cpp:406] res5b_branch2b <- res5b_branch2a
I0329 13:32:11.881686 86603 net.cpp:380] res5b_branch2b -> res5b_branch2b
I0329 13:32:11.958220 86603 net.cpp:122] Setting up res5b_branch2b
I0329 13:32:11.958251 86603 net.cpp:129] Top shape: 5 512 2 7 7 (250880)
I0329 13:32:11.958256 86603 net.cpp:137] Memory required for data: 2620190720
I0329 13:32:11.958264 86603 layer_factory.hpp:77] Creating layer bn5b_branch2b
I0329 13:32:11.958277 86603 net.cpp:84] Creating Layer bn5b_branch2b
I0329 13:32:11.958281 86603 net.cpp:406] bn5b_branch2b <- res5b_branch2b
I0329 13:32:11.958287 86603 net.cpp:367] bn5b_branch2b -> res5b_branch2b (in-place)
I0329 13:32:11.958305 86603 net.cpp:122] Setting up bn5b_branch2b
I0329 13:32:11.958309 86603 net.cpp:129] Top shape: 5 512 2 7 7 (250880)
I0329 13:32:11.958312 86603 net.cpp:137] Memory required for data: 2621194240
I0329 13:32:11.958315 86603 layer_factory.hpp:77] Creating layer scale5b_branch2b
I0329 13:32:11.958320 86603 net.cpp:84] Creating Layer scale5b_branch2b
I0329 13:32:11.958323 86603 net.cpp:406] scale5b_branch2b <- res5b_branch2b
I0329 13:32:11.958326 86603 net.cpp:367] scale5b_branch2b -> res5b_branch2b (in-place)
I0329 13:32:11.958338 86603 layer_factory.hpp:77] Creating layer scale5b_branch2b
I0329 13:32:11.958350 86603 net.cpp:122] Setting up scale5b_branch2b
I0329 13:32:11.958354 86603 net.cpp:129] Top shape: 5 512 2 7 7 (250880)
I0329 13:32:11.958356 86603 net.cpp:137] Memory required for data: 2622197760
I0329 13:32:11.958359 86603 layer_factory.hpp:77] Creating layer res5b
I0329 13:32:11.958364 86603 net.cpp:84] Creating Layer res5b
I0329 13:32:11.958367 86603 net.cpp:406] res5b <- res5a_res5a_relu_0_split_1
I0329 13:32:11.958370 86603 net.cpp:406] res5b <- res5b_branch2b
I0329 13:32:11.958374 86603 net.cpp:380] res5b -> res5b
I0329 13:32:11.958379 86603 net.cpp:122] Setting up res5b
I0329 13:32:11.958395 86603 net.cpp:129] Top shape: 5 512 2 7 7 (250880)
I0329 13:32:11.958400 86603 net.cpp:137] Memory required for data: 2623201280
I0329 13:32:11.958401 86603 layer_factory.hpp:77] Creating layer res5b_relu
I0329 13:32:11.958405 86603 net.cpp:84] Creating Layer res5b_relu
I0329 13:32:11.958407 86603 net.cpp:406] res5b_relu <- res5b
I0329 13:32:11.958425 86603 net.cpp:367] res5b_relu -> res5b (in-place)
I0329 13:32:11.958428 86603 net.cpp:122] Setting up res5b_relu
I0329 13:32:11.958431 86603 net.cpp:129] Top shape: 5 512 2 7 7 (250880)
I0329 13:32:11.958451 86603 net.cpp:137] Memory required for data: 2624204800
I0329 13:32:11.958453 86603 layer_factory.hpp:77] Creating layer pool5
I0329 13:32:11.958457 86603 net.cpp:84] Creating Layer pool5
I0329 13:32:11.958472 86603 net.cpp:406] pool5 <- res5b
I0329 13:32:11.958478 86603 net.cpp:380] pool5 -> pool5
I0329 13:32:11.958492 86603 net.cpp:122] Setting up pool5
I0329 13:32:11.958497 86603 net.cpp:129] Top shape: 5 512 2 1 1 (5120)
I0329 13:32:11.958498 86603 net.cpp:137] Memory required for data: 2624225280
I0329 13:32:11.958499 86603 layer_factory.hpp:77] Creating layer fc8-new
I0329 13:32:11.958504 86603 net.cpp:84] Creating Layer fc8-new
I0329 13:32:11.958508 86603 net.cpp:406] fc8-new <- pool5
I0329 13:32:11.958510 86603 net.cpp:380] fc8-new -> fc8-new
I0329 13:32:11.962175 86603 net.cpp:122] Setting up fc8-new
I0329 13:32:11.962188 86603 net.cpp:129] Top shape: 5 101 (505)
I0329 13:32:11.962190 86603 net.cpp:137] Memory required for data: 2624227300
I0329 13:32:11.962196 86603 layer_factory.hpp:77] Creating layer fc8-new_fc8-new_0_split
I0329 13:32:11.962204 86603 net.cpp:84] Creating Layer fc8-new_fc8-new_0_split
I0329 13:32:11.962208 86603 net.cpp:406] fc8-new_fc8-new_0_split <- fc8-new
I0329 13:32:11.962455 86603 net.cpp:380] fc8-new_fc8-new_0_split -> fc8-new_fc8-new_0_split_0
I0329 13:32:11.962469 86603 net.cpp:380] fc8-new_fc8-new_0_split -> fc8-new_fc8-new_0_split_1
I0329 13:32:11.962474 86603 net.cpp:380] fc8-new_fc8-new_0_split -> fc8-new_fc8-new_0_split_2
I0329 13:32:11.962481 86603 net.cpp:122] Setting up fc8-new_fc8-new_0_split
I0329 13:32:11.962484 86603 net.cpp:129] Top shape: 5 101 (505)
I0329 13:32:11.962501 86603 net.cpp:129] Top shape: 5 101 (505)
I0329 13:32:11.962503 86603 net.cpp:129] Top shape: 5 101 (505)
I0329 13:32:11.962504 86603 net.cpp:137] Memory required for data: 2624233360
I0329 13:32:11.962507 86603 layer_factory.hpp:77] Creating layer silence
I0329 13:32:11.970762 86603 net.cpp:84] Creating Layer silence
I0329 13:32:11.971712 86603 net.cpp:406] silence <- positive
I0329 13:32:11.971763 86603 net.cpp:406] silence <- negative
I0329 13:32:11.971812 86603 net.cpp:122] Setting up silence
…
