…
    mean_value: 65
    mean_value: 74
    mean_value: 92
    mean_value: 65
    mean_value: 74
    mean_value: 92
    mean_value: 65
    mean_value: 74
    mean_value: 92
    mean_value: 65
    mean_value: 74
    mean_value: 92
    mean_value: 65
    mean_value: 74
    mean_value: 92
    mean_value: 65
    mean_value: 74
    mean_value: 92
    mean_value: 65
    mean_value: 74
    mean_value: 92
    mean_value: 65
    mean_value: 74
    mean_value: 92
  }
  data_param {
    source: "/data/leo-data/Synthetic/LMDB/train"
    batch_size: 18
    backend: LMDB
  }
}
layer {
  name: "slicer"
  type: "Slice"
  bottom: "triplet"
  top: "anchor_stacked"
  top: "positive_stacked"
  top: "negative_stacked"
  slice_param {
    slice_dim: 1
    slice_point: 48
    slice_point: 96
  }
}
layer {
  name: "reshape_anchor"
  type: "Reshape"
  bottom: "anchor_stacked"
  top: "anchor"
  reshape_param {
    shape {
      dim: 0
      dim: 3
      dim: 16
      dim: 112
      dim: 112
    }
  }
}
layer {
  name: "reshape_positive"
  type: "Reshape"
  bottom: "positive_stacked"
  top: "positive"
  reshape_param {
    shape {
      dim: 0
      dim: 3
      dim: 16
      dim: 112
      dim: 112
    }
  }
}
layer {
  name: "reshape_negative"
  type: "Reshape"
  bottom: "negative_stacked"
  top: "negative"
  reshape_param {
    shape {
      dim: 0
      dim: 3
      dim: 16
      dim: 112
      dim: 112
    }
  }
}
layer {
  name: "conv1a"
  type: "NdConvolution"
  bottom: "anchor"
  top: "conv1a"
  param {
    name: "conv1a_w"
    lr_mult: 1
    decay_mult: 1
  }
  param {
    name: "conv1a_b"
    lr_mult: 2
    decay_mult: 0
  }
  convolution_param {
    num_output: 64
    weight_filler {
      type: "gaussian"
      std: 0.01
    }
    bias_filler {
      type: "constant"
      value: 0
    }
    pad_shape {
      dim: 1
      dim: 1
      dim: 1
    }
    kernel_shape {
      dim: 3
      dim: 3
      dim: 3
    }
    stride_shape {
      dim: 1
      dim: 1
      dim: 1
    }
  }
}
layer {
  name: "relu1a"
  type: "ReLU"
  bottom: "conv1a"
  top: "conv1a"
}
layer {
  name: "pool1"
  type: "NdPooling"
  bottom: "conv1a"
  top: "pool1"
  pooling_param {
    pool: MAX
    kernel_shape {
      dim: 1
      dim: 2
      dim: 2
    }
    stride_shape {
      dim: 1
      dim: 2
      dim: 2
    }
  }
}
layer {
  name: "conv2a"
  type: "NdConvolution"
  bottom: "pool1"
  top: "conv2a"
  param {
    name: "conv2a_w"
    lr_mult: 1
    decay_mult: 1
  }
  param {
    name: "conv2a_b"
    lr_mult: 2
    decay_mult: 0
  }
  convolution_param {
    num_output: 128
    weight_filler {
      type: "gaussian"
      std: 0.01
    }
    bias_filler {
      type: "constant"
      value: 1
    }
    pad_shape {
      dim: 1
      dim: 1
      dim: 1
    }
    kernel_shape {
      dim: 3
      dim: 3
      dim: 3
    }
    stride_shape {
      dim: 1
      dim: 1
      dim: 1
    }
  }
}
layer {
  name: "relu2a"
  type: "ReLU"
  bottom: "conv2a"
  top: "conv2a"
}
layer {
  name: "pool2"
  type: "NdPooling"
  bottom: "conv2a"
  top: "pool2"
  pooling_param {
    pool: MAX
    kernel_shape {
      dim: 2
      dim: 2
      dim: 2
    }
    stride_shape {
      dim: 2
      dim: 2
      dim: 2
    }
  }
}
layer {
  name: "conv3a"
  type: "NdConvolution"
  bottom: "pool2"
  top: "conv3a"
  param {
    name: "conv3a_w"
    lr_mult: 1
    decay_mult: 1
  }
  param {
    name: "conv3a_b"
    lr_mult: 2
    decay_mult: 0
  }
  convolution_param {
    num_output: 256
    weight_filler {
      type: "gaussian"
      std: 0.01
    }
    bias_filler {
      type: "constant"
      value: 1
    }
    pad_shape {
      dim: 1
      dim: 1
      dim: 1
    }
    kernel_shape {
      dim: 3
      dim: 3
      dim: 3
    }
    stride_shape {
      dim: 1
      dim: 1
      dim: 1
    }
  }
}
layer {
  name: "relu3a"
  type: "ReLU"
  bottom: "conv3a"
  top: "conv3a"
}
layer {
  name: "pool3"
  type: "NdPooling"
  bottom: "conv3a"
  top: "pool3"
  pooling_param {
    pool: MAX
    kernel_shape {
      dim: 2
      dim: 2
      dim: 2
    }
    stride_shape {
      dim: 2
      dim: 2
      dim: 2
    }
  }
}
layer {
  name: "conv4a"
  type: "NdConvolution"
  bottom: "pool3"
  top: "conv4a"
  param {
    name: "conv4a_w"
    lr_mult: 1
    decay_mult: 1
  }
  param {
    name: "conv4a_b"
    lr_mult: 2
    decay_mult: 0
  }
  convolution_param {
    num_output: 256
    weight_filler {
      type: "gaussian"
      std: 0.01
    }
    bias_filler {
      type: "constant"
      value: 1
    }
    pad_shape {
      dim: 1
      dim: 1
      dim: 1
    }
    kernel_shape {
      dim: 3
      dim: 3
      dim: 3
    }
    stride_shape {
      dim: 1
      dim: 1
      dim: 1
    }
  }
}
layer {
  name: "relu4a"
  type: "ReLU"
  bottom: "conv4a"
  top: "conv4a"
}
layer {
  name: "pool4"
  type: "NdPooling"
  bottom: "conv4a"
  top: "pool4"
  pooling_param {
    pool: MAX
    kernel_shape {
      dim: 2
      dim: 2
      dim: 2
    }
    stride_shape {
      dim: 2
      dim: 2
      dim: 2
    }
  }
}
layer {
  name: "conv5a"
  type: "NdConvolution"
  bottom: "pool4"
  top: "conv5a"
  param {
    name: "conv5a_w"
    lr_mult: 1
    decay_mult: 1
  }
  param {
    name: "conv5a_b"
    lr_mult: 2
    decay_mult: 0
  }
  convolution_param {
    num_output: 256
    weight_filler {
      type: "gaussian"
      std: 0.01
    }
    bias_filler {
      type: "constant"
      value: 1
    }
    pad_shape {
      dim: 1
      dim: 1
      dim: 1
    }
    kernel_shape {
      dim: 3
      dim: 3
      dim: 3
    }
    stride_shape {
      dim: 1
      dim: 1
      dim: 1
    }
  }
}
layer {
  name: "relu5a"
  type: "ReLU"
  bottom: "conv5a"
  top: "conv5a"
}
layer {
  name: "pool5"
  type: "NdPooling"
  bottom: "conv5a"
  top: "pool5"
  pooling_param {
    pool: MAX
    kernel_shape {
      dim: 2
      dim: 2
      dim: 2
    }
    stride_shape {
      dim: 2
      dim: 2
      dim: 2
    }
  }
}
layer {
  name: "fc6"
  type: "InnerProduct"
  bottom: "pool5"
  top: "fc6"
  param {
    lr_mult: 1
    decay_mult: 1
  }
  param {
    lr_mult: 2
    decay_mult: 0
  }
  inner_product_param {
    num_output: 2048
    weight_filler {
      type: "gaussian"
      std: 0.005
    }
    bias_filler {
      type: "constant"
      value: 1
    }
  }
}
layer {
  name: "relu6"
  type: "ReLU"
  bottom: "fc6"
  top: "fc6"
}
layer {
  name: "drop6"
  type: "Dropout"
  bottom: "fc6"
  top: "fc6"
  dropout_param {
    dropout_ratio: 0.5
  }
}
layer {
  name: "fc7"
  type: "InnerProduct"
  bottom: "fc6"
  top: "fc7"
  param {
    lr_mult: 1
    decay_mult: 1
  }
  param {
    lr_mult: 2
    decay_mult: 0
  }
  inner_product_param {
    num_output: 2048
    weight_filler {
      type: "gaussian"
      std: 0.005
    }
    bias_filler {
      type: "constant"
      value: 1
    }
  }
}
layer {
  name: "relu7"
  type: "ReLU"
  bottom: "fc7"
  top: "fc7"
}
layer {
  name: "drop7"
  type: "Dropout"
  bottom: "fc7"
  top: "fc7"
  dropout_param {
    dropout_ratio: 0.5
  }
}
layer {
  name: "conv1a_pos"
  type: "NdConvolution"
  bottom: "positive"
  top: "conv1a_pos"
  param {
    name: "conv1a_w"
    lr_mult: 1
    decay_mult: 1
  }
  param {
    name: "conv1a_b"
    lr_mult: 2
    decay_mult: 0
  }
  convolution_param {
    num_output: 64
    weight_filler {
      type: "gaussian"
      std: 0.01
    }
    bias_filler {
      type: "constant"
      value: 0
    }
    pad_shape {
      dim: 1
      dim: 1
      dim: 1
    }
    kernel_shape {
      dim: 3
      dim: 3
      dim: 3
    }
    stride_shape {
      dim: 1
      dim: 1
      dim: 1
    }
  }
}
layer {
  name: "relu1a_pos"
  type: "ReLU"
  bottom: "conv1a_pos"
  top: "conv1a_pos"
}
layer {
  name: "pool1_pos"
  type: "NdPooling"
  bottom: "conv1a_pos"
  top: "pool1_pos"
  pooling_param {
    pool: MAX
    kernel_shape {
      dim: 1
      dim: 2
      dim: 2
    }
    stride_shape {
      dim: 1
      dim: 2
      dim: 2
    }
  }
}
layer {
  name: "conv2a_pos"
  type: "NdConvolution"
  bottom: "pool1_pos"
  top: "conv2a_pos"
  param {
    name: "conv2a_w"
    lr_mult: 1
    decay_mult: 1
  }
  param {
    name: "conv2a_b"
    lr_mult: 2
    decay_mult: 0
  }
  convolution_param {
    num_output: 128
    weight_filler {
      type: "gaussian"
      std: 0.01
    }
    bias_filler {
      type: "constant"
      value: 1
    }
    pad_shape {
      dim: 1
      dim: 1
      dim: 1
    }
    kernel_shape {
      dim: 3
      dim: 3
      dim: 3
    }
    stride_shape {
      dim: 1
      dim: 1
      dim: 1
    }
  }
}
layer {
  name: "relu2a_pos"
  type: "ReLU"
  bottom: "conv2a_pos"
  top: "conv2a_pos"
}
layer {
  name: "pool2_pos"
  type: "NdPooling"
  bottom: "conv2a_pos"
  top: "pool2_pos"
  pooling_param {
    pool: MAX
    kernel_shape {
      dim: 2
      dim: 2
      dim: 2
    }
    stride_shape {
      dim: 2
      dim: 2
      dim: 2
    }
  }
}
layer {
  name: "conv3a_pos"
  type: "NdConvolution"
  bottom: "pool2_pos"
  top: "conv3a_pos"
  param {
    name: "conv3a_w"
    lr_mult: 1
    decay_mult: 1
  }
  param {
    name: "conv3a_b"
    lr_mult: 2
    decay_mult: 0
  }
  convolution_param {
    num_output: 256
    weight_filler {
      type: "gaussian"
      std: 0.01
    }
    bias_filler {
      type: "constant"
      value: 1
    }
    pad_shape {
      dim: 1
      dim: 1
      dim: 1
    }
    kernel_shape {
      dim: 3
      dim: 3
      dim: 3
    }
    stride_shape {
      dim: 1
      dim: 1
      dim: 1
    }
  }
}
layer {
  name: "relu3a_pos"
  type: "ReLU"
  bottom: "conv3a_pos"
  top: "conv3a_pos"
}
layer {
  name: "pool3_pos"
  type: "NdPooling"
  bottom: "conv3a_pos"
  top: "pool3_pos"
  pooling_param {
    pool: MAX
    kernel_shape {
      dim: 2
      dim: 2
      dim: 2
    }
    stride_shape {
      dim: 2
      dim: 2
      dim: 2
    }
  }
}
layer {
  name: "conv4a_pos"
  type: "NdConvolution"
  bottom: "pool3_pos"
  top: "conv4a_pos"
  param {
    name: "conv4a_w"
    lr_mult: 1
    decay_mult: 1
  }
  param {
    name: "conv4a_b"
    lr_mult: 2
    decay_mult: 0
  }
  convolution_param {
    num_output: 256
    weight_filler {
      type: "gaussian"
      std: 0.01
    }
    bias_filler {
      type: "constant"
      value: 1
    }
    pad_shape {
      dim: 1
      dim: 1
      dim: 1
    }
    kernel_shape {
      dim: 3
      dim: 3
      dim: 3
    }
    stride_shape {
      dim: 1
      dim: 1
      dim: 1
    }
  }
}
layer {
  name: "relu4a_pos"
  type: "ReLU"
  bottom: "conv4a_pos"
  top: "conv4a_pos"
}
layer {
  name: "pool4_pos"
  type: "NdPooling"
  bottom: "conv4a_pos"
  top: "pool4_pos"
  pooling_param {
    pool: MAX
    kernel_shape {
      dim: 2
      dim: 2
      dim: 2
    }
    stride_shape {
      dim: 2
      dim: 2
      dim: 2
    }
  }
}
layer {
  name: "conv5a_pos"
  type: "NdConvolution"
  bottom: "pool4_pos"
  top: "conv5a_pos"
  param {
    name: "conv5a_w"
    lr_mult: 1
    decay_mult: 1
  }
  param {
    name: "conv5a_b"
    lr_mult: 2
    decay_mult: 0
  }
  convolution_param {
    num_output: 256
    weight_filler {
      type: "gaussian"
      std: 0.01
    }
    bias_filler {
      type: "constant"
      value: 1
    }
    pad_shape {
      dim: 1
      dim: 1
      dim: 1
    }
    kernel_shape {
      dim: 3
      dim: 3
      dim: 3
    }
    stride_shape {
      dim: 1
      dim: 1
      dim: 1
    }
  }
}
layer {
  name: "relu5a_pos"
  type: "ReLU"
  bottom: "conv5a_pos"
  top: "conv5a_pos"
}
layer {
  name: "pool5_pos"
  type: "NdPooling"
  bottom: "conv5a_pos"
  top: "pool5_pos"
  pooling_param {
    pool: MAX
    kernel_shape {
      dim: 2
      dim: 2
      dim: 2
    }
    stride_shape {
      dim: 2
      dim: 2
      dim: 2
    }
  }
}
layer {
  name: "fc6_pos"
  type: "InnerProduct"
  bottom: "pool5_pos"
  top: "fc6_pos"
  param {
    lr_mult: 1
    decay_mult: 1
  }
  param {
    lr_mult: 2
    decay_mult: 0
  }
  inner_product_param {
    num_output: 2048
    weight_filler {
      type: "gaussian"
      std: 0.005
    }
    bias_filler {
      type: "constant"
      value: 1
    }
  }
}
layer {
  name: "relu6_pos"
  type: "ReLU"
  bottom: "fc6_pos"
  top: "fc6_pos"
}
layer {
  name: "drop6_pos"
  type: "Dropout"
  bottom: "fc6_pos"
  top: "fc6_pos"
  dropout_param {
    dropout_ratio: 0.5
  }
}
layer {
  name: "fc7_pos"
  type: "InnerProduct"
  bottom: "fc6_pos"
  top: "fc7_pos"
  param {
    lr_mult: 1
    decay_mult: 1
  }
  param {
    lr_mult: 2
    decay_mult: 0
  }
  inner_product_param {
    num_output: 2048
    weight_filler {
      type: "gaussian"
      std: 0.005
    }
    bias_filler {
      type: "constant"
      value: 1
    }
  }
}
layer {
  name: "relu7_pos"
  type: "ReLU"
  bottom: "fc7_pos"
  top: "fc7_pos"
}
layer {
  name: "drop7_pos"
  type: "Dropout"
  bottom: "fc7_pos"
  top: "fc7_pos"
  dropout_param {
    dropout_ratio: 0.5
  }
}
layer {
  name: "conv1a_neg"
  type: "NdConvolution"
  bottom: "negative"
  top: "conv1a_neg"
  param {
    name: "conv1a_w"
    lr_mult: 1
    decay_mult: 1
  }
  param {
    name: "conv1a_b"
    lr_mult: 2
    decay_mult: 0
  }
  convolution_param {
    num_output: 64
    weight_filler {
      type: "gaussian"
      std: 0.01
    }
    bias_filler {
      type: "constant"
      value: 0
    }
    pad_shape {
      dim: 1
      dim: 1
      dim: 1
    }
    kernel_shape {
      dim: 3
      dim: 3
      dim: 3
    }
    stride_shape {
      dim: 1
      dim: 1
      dim: 1
    }
  }
}
layer {
  name: "relu1a_neg"
  type: "ReLU"
  bottom: "conv1a_neg"
  top: "conv1a_neg"
}
layer {
  name: "pool1_neg"
  type: "NdPooling"
  bottom: "conv1a_neg"
  top: "pool1_neg"
  pooling_param {
    pool: MAX
    kernel_shape {
      dim: 1
      dim: 2
      dim: 2
    }
    stride_shape {
      dim: 1
      dim: 2
      dim: 2
    }
  }
}
layer {
  name: "conv2a_neg"
  type: "NdConvolution"
  bottom: "pool1_neg"
  top: "conv2a_neg"
  param {
    name: "conv2a_w"
    lr_mult: 1
    decay_mult: 1
  }
  param {
    name: "conv2a_b"
    lr_mult: 2
    decay_mult: 0
  }
  convolution_param {
    num_output: 128
    weight_filler {
      type: "gaussian"
      std: 0.01
    }
    bias_filler {
      type: "constant"
      value: 1
    }
    pad_shape {
      dim: 1
      dim: 1
      dim: 1
    }
    kernel_shape {
      dim: 3
      dim: 3
      dim: 3
    }
    stride_shape {
      dim: 1
      dim: 1
      dim: 1
    }
  }
}
layer {
  name: "relu2a_neg"
  type: "ReLU"
  bottom: "conv2a_neg"
  top: "conv2a_neg"
}
layer {
  name: "pool2_neg"
  type: "NdPooling"
  bottom: "conv2a_neg"
  top: "pool2_neg"
  pooling_param {
    pool: MAX
    kernel_shape {
      dim: 2
      dim: 2
      dim: 2
    }
    stride_shape {
      dim: 2
      dim: 2
      dim: 2
    }
  }
}
layer {
  name: "conv3a_neg"
  type: "NdConvolution"
  bottom: "pool2_neg"
  top: "conv3a_neg"
  param {
    name: "conv3a_w"
    lr_mult: 1
    decay_mult: 1
  }
  param {
    name: "conv3a_b"
    lr_mult: 2
    decay_mult: 0
  }
  convolution_param {
    num_output: 256
    weight_filler {
      type: "gaussian"
      std: 0.01
    }
    bias_filler {
      type: "constant"
      value: 1
    }
    pad_shape {
      dim: 1
      dim: 1
      dim: 1
    }
    kernel_shape {
      dim: 3
      dim: 3
      dim: 3
    }
    stride_shape {
      dim: 1
      dim: 1
      dim: 1
    }
  }
}
layer {
  name: "relu3a_neg"
  type: "ReLU"
  bottom: "conv3a_neg"
  top: "conv3a_neg"
}
layer {
  name: "pool3_neg"
  type: "NdPooling"
  bottom: "conv3a_neg"
  top: "pool3_neg"
  pooling_param {
    pool: MAX
    kernel_shape {
      dim: 2
      dim: 2
      dim: 2
    }
    stride_shape {
      dim: 2
      dim: 2
      dim: 2
    }
  }
}
layer {
  name: "conv4a_neg"
  type: "NdConvolution"
  bottom: "pool3_neg"
  top: "conv4a_neg"
  param {
    name: "conv4a_w"
    lr_mult: 1
    decay_mult: 1
  }
  param {
    name: "conv4a_b"
    lr_mult: 2
    decay_mult: 0
  }
  convolution_param {
    num_output: 256
    weight_filler {
      type: "gaussian"
      std: 0.01
    }
    bias_filler {
      type: "constant"
      value: 1
    }
    pad_shape {
      dim: 1
      dim: 1
      dim: 1
    }
    kernel_shape {
      dim: 3
      dim: 3
      dim: 3
    }
    stride_shape {
      dim: 1
      dim: 1
      dim: 1
    }
  }
}
layer {
  name: "relu4a_neg"
  type: "ReLU"
  bottom: "conv4a_neg"
  top: "conv4a_neg"
}
layer {
  name: "pool4_neg"
  type: "NdPooling"
  bottom: "conv4a_neg"
  top: "pool4_neg"
  pooling_param {
    pool: MAX
    kernel_shape {
      dim: 2
      dim: 2
      dim: 2
    }
    stride_shape {
      dim: 2
      dim: 2
      dim: 2
    }
  }
}
layer {
  name: "conv5a_neg"
  type: "NdConvolution"
  bottom: "pool4_neg"
  top: "conv5a_neg"
  param {
    name: "conv5a_w"
    lr_mult: 1
    decay_mult: 1
  }
  param {
    name: "conv5a_b"
    lr_mult: 2
    decay_mult: 0
  }
  convolution_param {
    num_output: 256
    weight_filler {
      type: "gaussian"
      std: 0.01
    }
    bias_filler {
      type: "constant"
      value: 1
    }
    pad_shape {
      dim: 1
      dim: 1
      dim: 1
    }
    kernel_shape {
      dim: 3
      dim: 3
      dim: 3
    }
    stride_shape {
      dim: 1
      dim: 1
      dim: 1
    }
  }
}
layer {
  name: "relu5a_neg"
  type: "ReLU"
  bottom: "conv5a_neg"
  top: "conv5a_neg"
}
layer {
  name: "pool5_neg"
  type: "NdPooling"
  bottom: "conv5a_neg"
  top: "pool5_neg"
  pooling_param {
    pool: MAX
    kernel_shape {
      dim: 2
      dim: 2
      dim: 2
    }
    stride_shape {
      dim: 2
      dim: 2
      dim: 2
    }
  }
}
layer {
  name: "fc6_neg"
  type: "InnerProduct"
  bottom: "pool5_neg"
  top: "fc6_neg"
  param {
    lr_mult: 1
    decay_mult: 1
  }
  param {
    lr_mult: 2
    decay_mult: 0
  }
  inner_product_param {
    num_output: 2048
    weight_filler {
      type: "gaussian"
      std: 0.005
    }
    bias_filler {
      type: "constant"
      value: 1
    }
  }
}
layer {
  name: "relu6_neg"
  type: "ReLU"
  bottom: "fc6_neg"
  top: "fc6_neg"
}
layer {
  name: "drop6_neg"
  type: "Dropout"
  bottom: "fc6_neg"
  top: "fc6_neg"
  dropout_param {
    dropout_ratio: 0.5
  }
}
layer {
  name: "fc7_neg"
  type: "InnerProduct"
  bottom: "fc6_neg"
  top: "fc7_neg"
  param {
    lr_mult: 1
    decay_mult: 1
  }
  param {
    lr_mult: 2
    decay_mult: 0
  }
  inner_product_param {
    num_output: 2048
    weight_filler {
      type: "gaussian"
      std: 0.005
    }
    bias_filler {
      type: "constant"
      value: 1
    }
  }
}
layer {
  name: "relu7_neg"
  type: "ReLU"
  bottom: "fc7_neg"
  top: "fc7_neg"
}
layer {
  name: "drop7_neg"
  type: "Dropout"
  bottom: "fc7_neg"
  top: "fc7_neg"
  dropout_param {
    dropout_ratio: 0.5
  }
}
layer {
  name: "loss"
  type: "TripletLoss"
  bottom: "fc7"
  bottom: "fc7_pos"
  bottom: "fc7_neg"
  top: "loss"
  threshold_param {
    threshold: 1
  }
}
I0407 11:00:57.807476  6158 layer_factory.hpp:77] Creating layer data
I0407 11:00:57.808933  6158 net.cpp:100] Creating Layer data
I0407 11:00:57.808948  6158 net.cpp:408] data -> triplet
I0407 11:00:57.911578  6164 db_lmdb.cpp:35] Opened lmdb /data/leo-data/Synthetic/LMDB/train
I0407 11:00:58.075693  6158 data_layer.cpp:41] output data size: 18,144,112,112
I0407 11:00:58.352646  6158 net.cpp:150] Setting up data
I0407 11:00:58.352948  6158 net.cpp:157] Top shape: 18 144 112 112 (32514048)
I0407 11:00:58.352963  6158 net.cpp:165] Memory required for data: 130056192
I0407 11:00:58.352989  6158 layer_factory.hpp:77] Creating layer slicer
I0407 11:00:58.353098  6158 net.cpp:100] Creating Layer slicer
I0407 11:00:58.353107  6158 net.cpp:434] slicer <- triplet
I0407 11:00:58.353123  6158 net.cpp:408] slicer -> anchor_stacked
I0407 11:00:58.353137  6158 net.cpp:408] slicer -> positive_stacked
I0407 11:00:58.353152  6158 net.cpp:408] slicer -> negative_stacked
I0407 11:00:58.353369  6158 net.cpp:150] Setting up slicer
I0407 11:00:58.353379  6158 net.cpp:157] Top shape: 18 48 112 112 (10838016)
I0407 11:00:58.353384  6158 net.cpp:157] Top shape: 18 48 112 112 (10838016)
I0407 11:00:58.353387  6158 net.cpp:157] Top shape: 18 48 112 112 (10838016)
I0407 11:00:58.353390  6158 net.cpp:165] Memory required for data: 260112384
I0407 11:00:58.353394  6158 layer_factory.hpp:77] Creating layer reshape_anchor
I0407 11:00:58.364855  6158 net.cpp:100] Creating Layer reshape_anchor
I0407 11:00:58.364886  6158 net.cpp:434] reshape_anchor <- anchor_stacked
I0407 11:00:58.364903  6158 net.cpp:408] reshape_anchor -> anchor
I0407 11:00:58.385588  6158 net.cpp:150] Setting up reshape_anchor
I0407 11:00:58.385639  6158 net.cpp:157] Top shape: 18 3 16 112 112 (10838016)
I0407 11:00:58.385643  6158 net.cpp:165] Memory required for data: 303464448
I0407 11:00:58.385650  6158 layer_factory.hpp:77] Creating layer reshape_positive
I0407 11:00:58.385675  6158 net.cpp:100] Creating Layer reshape_positive
I0407 11:00:58.385691  6158 net.cpp:434] reshape_positive <- positive_stacked
I0407 11:00:58.385700  6158 net.cpp:408] reshape_positive -> positive
I0407 11:00:58.385745  6158 net.cpp:150] Setting up reshape_positive
I0407 11:00:58.385751  6158 net.cpp:157] Top shape: 18 3 16 112 112 (10838016)
I0407 11:00:58.385754  6158 net.cpp:165] Memory required for data: 346816512
I0407 11:00:58.385757  6158 layer_factory.hpp:77] Creating layer reshape_negative
I0407 11:00:58.385797  6158 net.cpp:100] Creating Layer reshape_negative
I0407 11:00:58.385802  6158 net.cpp:434] reshape_negative <- negative_stacked
I0407 11:00:58.385812  6158 net.cpp:408] reshape_negative -> negative
I0407 11:00:58.385844  6158 net.cpp:150] Setting up reshape_negative
I0407 11:00:58.385854  6158 net.cpp:157] Top shape: 18 3 16 112 112 (10838016)
I0407 11:00:58.385859  6158 net.cpp:165] Memory required for data: 390168576
I0407 11:00:58.385881  6158 layer_factory.hpp:77] Creating layer conv1a
I0407 11:00:58.385905  6158 net.cpp:100] Creating Layer conv1a
I0407 11:00:58.385913  6158 net.cpp:434] conv1a <- anchor
I0407 11:00:58.385926  6158 net.cpp:408] conv1a -> conv1a
I0407 11:00:58.433719  6165 blocking_queue.cpp:50] Waiting for data
I0407 11:00:59.096806  6158 net.cpp:150] Setting up conv1a
I0407 11:00:59.096858  6158 net.cpp:157] Top shape: 18 64 16 112 112 (231211008)
I0407 11:00:59.096864  6158 net.cpp:165] Memory required for data: 1315012608
I0407 11:00:59.096900  6158 layer_factory.hpp:77] Creating layer relu1a
I0407 11:00:59.096946  6158 net.cpp:100] Creating Layer relu1a
I0407 11:00:59.096956  6158 net.cpp:434] relu1a <- conv1a
I0407 11:00:59.096967  6158 net.cpp:395] relu1a -> conv1a (in-place)
I0407 11:00:59.102648  6158 net.cpp:150] Setting up relu1a
I0407 11:00:59.102674  6158 net.cpp:157] Top shape: 18 64 16 112 112 (231211008)
I0407 11:00:59.102679  6158 net.cpp:165] Memory required for data: 2239856640
I0407 11:00:59.102686  6158 layer_factory.hpp:77] Creating layer pool1
I0407 11:00:59.102716  6158 net.cpp:100] Creating Layer pool1
I0407 11:00:59.102722  6158 net.cpp:434] pool1 <- conv1a
I0407 11:00:59.102733  6158 net.cpp:408] pool1 -> pool1
I0407 11:00:59.103744  6158 net.cpp:150] Setting up pool1
I0407 11:00:59.103766  6158 net.cpp:157] Top shape: 18 64 16 56 56 (57802752)
I0407 11:00:59.103773  6158 net.cpp:165] Memory required for data: 2471067648
I0407 11:00:59.103780  6158 layer_factory.hpp:77] Creating layer conv2a
I0407 11:00:59.103814  6158 net.cpp:100] Creating Layer conv2a
I0407 11:00:59.103821  6158 net.cpp:434] conv2a <- pool1
I0407 11:00:59.103832  6158 net.cpp:408] conv2a -> conv2a
I0407 11:00:59.119005  6158 net.cpp:150] Setting up conv2a
I0407 11:00:59.119029  6158 net.cpp:157] Top shape: 18 128 16 56 56 (115605504)
I0407 11:00:59.119035  6158 net.cpp:165] Memory required for data: 2933489664
I0407 11:00:59.119052  6158 layer_factory.hpp:77] Creating layer relu2a
I0407 11:00:59.119063  6158 net.cpp:100] Creating Layer relu2a
I0407 11:00:59.119069  6158 net.cpp:434] relu2a <- conv2a
I0407 11:00:59.119077  6158 net.cpp:395] relu2a -> conv2a (in-place)
I0407 11:00:59.120270  6158 net.cpp:150] Setting up relu2a
I0407 11:00:59.120287  6158 net.cpp:157] Top shape: 18 128 16 56 56 (115605504)
I0407 11:00:59.120292  6158 net.cpp:165] Memory required for data: 3395911680
I0407 11:00:59.120298  6158 layer_factory.hpp:77] Creating layer pool2
I0407 11:00:59.120308  6158 net.cpp:100] Creating Layer pool2
I0407 11:00:59.120313  6158 net.cpp:434] pool2 <- conv2a
I0407 11:00:59.120322  6158 net.cpp:408] pool2 -> pool2
I0407 11:00:59.120630  6158 net.cpp:150] Setting up pool2
I0407 11:00:59.120645  6158 net.cpp:157] Top shape: 18 128 8 28 28 (14450688)
I0407 11:00:59.120648  6158 net.cpp:165] Memory required for data: 3453714432
I0407 11:00:59.120653  6158 layer_factory.hpp:77] Creating layer conv3a
I0407 11:00:59.120671  6158 net.cpp:100] Creating Layer conv3a
I0407 11:00:59.120676  6158 net.cpp:434] conv3a <- pool2
I0407 11:00:59.120687  6158 net.cpp:408] conv3a -> conv3a
I0407 11:00:59.160802  6158 net.cpp:150] Setting up conv3a
I0407 11:00:59.160851  6158 net.cpp:157] Top shape: 18 256 8 28 28 (28901376)
I0407 11:00:59.160857  6158 net.cpp:165] Memory required for data: 3569319936
I0407 11:00:59.160877  6158 layer_factory.hpp:77] Creating layer relu3a
I0407 11:00:59.160889  6158 net.cpp:100] Creating Layer relu3a
I0407 11:00:59.160895  6158 net.cpp:434] relu3a <- conv3a
I0407 11:00:59.160905  6158 net.cpp:395] relu3a -> conv3a (in-place)
I0407 11:00:59.161978  6158 net.cpp:150] Setting up relu3a
I0407 11:00:59.162015  6158 net.cpp:157] Top shape: 18 256 8 28 28 (28901376)
I0407 11:00:59.162020  6158 net.cpp:165] Memory required for data: 3684925440
I0407 11:00:59.162027  6158 layer_factory.hpp:77] Creating layer pool3
I0407 11:00:59.162039  6158 net.cpp:100] Creating Layer pool3
I0407 11:00:59.162044  6158 net.cpp:434] pool3 <- conv3a
I0407 11:00:59.162050  6158 net.cpp:408] pool3 -> pool3
I0407 11:00:59.162328  6158 net.cpp:150] Setting up pool3
I0407 11:00:59.162341  6158 net.cpp:157] Top shape: 18 256 4 14 14 (3612672)
I0407 11:00:59.162345  6158 net.cpp:165] Memory required for data: 3699376128
I0407 11:00:59.162349  6158 layer_factory.hpp:77] Creating layer conv4a
I0407 11:00:59.162365  6158 net.cpp:100] Creating Layer conv4a
I0407 11:00:59.162374  6158 net.cpp:434] conv4a <- pool3
I0407 11:00:59.162380  6158 net.cpp:408] conv4a -> conv4a
I0407 11:00:59.228222  6158 net.cpp:150] Setting up conv4a
I0407 11:00:59.228255  6158 net.cpp:157] Top shape: 18 256 4 14 14 (3612672)
I0407 11:00:59.228260  6158 net.cpp:165] Memory required for data: 3713826816
I0407 11:00:59.228271  6158 layer_factory.hpp:77] Creating layer relu4a
I0407 11:00:59.228283  6158 net.cpp:100] Creating Layer relu4a
I0407 11:00:59.228288  6158 net.cpp:434] relu4a <- conv4a
I0407 11:00:59.228296  6158 net.cpp:395] relu4a -> conv4a (in-place)
I0407 11:00:59.228507  6158 net.cpp:150] Setting up relu4a
I0407 11:00:59.228518  6158 net.cpp:157] Top shape: 18 256 4 14 14 (3612672)
I0407 11:00:59.228521  6158 net.cpp:165] Memory required for data: 3728277504
I0407 11:00:59.228526  6158 layer_factory.hpp:77] Creating layer pool4
I0407 11:00:59.228556  6158 net.cpp:100] Creating Layer pool4
I0407 11:00:59.228562  6158 net.cpp:434] pool4 <- conv4a
I0407 11:00:59.228569  6158 net.cpp:408] pool4 -> pool4
I0407 11:00:59.231806  6158 net.cpp:150] Setting up pool4
I0407 11:00:59.231824  6158 net.cpp:157] Top shape: 18 256 2 7 7 (451584)
I0407 11:00:59.231828  6158 net.cpp:165] Memory required for data: 3730083840
I0407 11:00:59.231833  6158 layer_factory.hpp:77] Creating layer conv5a
I0407 11:00:59.231844  6158 net.cpp:100] Creating Layer conv5a
I0407 11:00:59.231849  6158 net.cpp:434] conv5a <- pool4
I0407 11:00:59.231858  6158 net.cpp:408] conv5a -> conv5a
I0407 11:00:59.298511  6158 net.cpp:150] Setting up conv5a
I0407 11:00:59.298568  6158 net.cpp:157] Top shape: 18 256 2 7 7 (451584)
I0407 11:00:59.298585  6158 net.cpp:165] Memory required for data: 3731890176
I0407 11:00:59.298631  6158 layer_factory.hpp:77] Creating layer relu5a
I0407 11:00:59.298656  6158 net.cpp:100] Creating Layer relu5a
I0407 11:00:59.298671  6158 net.cpp:434] relu5a <- conv5a
I0407 11:00:59.298683  6158 net.cpp:395] relu5a -> conv5a (in-place)
I0407 11:00:59.299098  6158 net.cpp:150] Setting up relu5a
I0407 11:00:59.299116  6158 net.cpp:157] Top shape: 18 256 2 7 7 (451584)
I0407 11:00:59.299124  6158 net.cpp:165] Memory required for data: 3733696512
I0407 11:00:59.299131  6158 layer_factory.hpp:77] Creating layer pool5
I0407 11:00:59.299155  6158 net.cpp:100] Creating Layer pool5
I0407 11:00:59.299162  6158 net.cpp:434] pool5 <- conv5a
I0407 11:00:59.299175  6158 net.cpp:408] pool5 -> pool5
I0407 11:00:59.300981  6158 net.cpp:150] Setting up pool5
I0407 11:00:59.301010  6158 net.cpp:157] Top shape: 18 256 1 4 4 (73728)
I0407 11:00:59.301017  6158 net.cpp:165] Memory required for data: 3733991424
I0407 11:00:59.301024  6158 layer_factory.hpp:77] Creating layer fc6
I0407 11:00:59.312485  6158 net.cpp:100] Creating Layer fc6
I0407 11:00:59.312506  6158 net.cpp:434] fc6 <- pool5
I0407 11:00:59.312520  6158 net.cpp:408] fc6 -> fc6
I0407 11:00:59.654774  6158 net.cpp:150] Setting up fc6
I0407 11:00:59.654834  6158 net.cpp:157] Top shape: 18 2048 (36864)
I0407 11:00:59.654842  6158 net.cpp:165] Memory required for data: 3734138880
I0407 11:00:59.654860  6158 layer_factory.hpp:77] Creating layer relu6
I0407 11:00:59.654878  6158 net.cpp:100] Creating Layer relu6
I0407 11:00:59.654887  6158 net.cpp:434] relu6 <- fc6
I0407 11:00:59.654899  6158 net.cpp:395] relu6 -> fc6 (in-place)
I0407 11:00:59.655308  6158 net.cpp:150] Setting up relu6
I0407 11:00:59.655321  6158 net.cpp:157] Top shape: 18 2048 (36864)
I0407 11:00:59.655325  6158 net.cpp:165] Memory required for data: 3734286336
I0407 11:00:59.655329  6158 layer_factory.hpp:77] Creating layer drop6
I0407 11:00:59.655354  6158 net.cpp:100] Creating Layer drop6
I0407 11:00:59.655359  6158 net.cpp:434] drop6 <- fc6
I0407 11:00:59.655366  6158 net.cpp:395] drop6 -> fc6 (in-place)
I0407 11:00:59.655401  6158 net.cpp:150] Setting up drop6
I0407 11:00:59.655410  6158 net.cpp:157] Top shape: 18 2048 (36864)
I0407 11:00:59.655413  6158 net.cpp:165] Memory required for data: 3734433792
I0407 11:00:59.655416  6158 layer_factory.hpp:77] Creating layer fc7
I0407 11:00:59.655431  6158 net.cpp:100] Creating Layer fc7
I0407 11:00:59.655437  6158 net.cpp:434] fc7 <- fc6
I0407 11:00:59.655443  6158 net.cpp:408] fc7 -> fc7
I0407 11:00:59.826632  6158 net.cpp:150] Setting up fc7
I0407 11:00:59.826688  6158 net.cpp:157] Top shape: 18 2048 (36864)
I0407 11:00:59.826694  6158 net.cpp:165] Memory required for data: 3734581248
I0407 11:00:59.826711  6158 layer_factory.hpp:77] Creating layer relu7
I0407 11:00:59.826728  6158 net.cpp:100] Creating Layer relu7
I0407 11:00:59.826735  6158 net.cpp:434] relu7 <- fc7
I0407 11:00:59.826745  6158 net.cpp:395] relu7 -> fc7 (in-place)
I0407 11:00:59.828006  6158 net.cpp:150] Setting up relu7
I0407 11:00:59.828028  6158 net.cpp:157] Top shape: 18 2048 (36864)
I0407 11:00:59.828033  6158 net.cpp:165] Memory required for data: 3734728704
I0407 11:00:59.828039  6158 layer_factory.hpp:77] Creating layer drop7
I0407 11:00:59.828053  6158 net.cpp:100] Creating Layer drop7
I0407 11:00:59.828058  6158 net.cpp:434] drop7 <- fc7
I0407 11:00:59.828068  6158 net.cpp:395] drop7 -> fc7 (in-place)
I0407 11:00:59.828115  6158 net.cpp:150] Setting up drop7
I0407 11:00:59.828124  6158 net.cpp:157] Top shape: 18 2048 (36864)
I0407 11:00:59.828126  6158 net.cpp:165] Memory required for data: 3734876160
I0407 11:00:59.828130  6158 layer_factory.hpp:77] Creating layer conv1a_pos
I0407 11:00:59.828152  6158 net.cpp:100] Creating Layer conv1a_pos
I0407 11:00:59.828158  6158 net.cpp:434] conv1a_pos <- positive
I0407 11:00:59.828166  6158 net.cpp:408] conv1a_pos -> conv1a_pos
I0407 11:00:59.841378  6158 net.cpp:150] Setting up conv1a_pos
I0407 11:00:59.841425  6158 net.cpp:157] Top shape: 18 64 16 112 112 (231211008)
I0407 11:00:59.841431  6158 net.cpp:165] Memory required for data: 4659720192
I0407 11:00:59.841444  6158 net.cpp:493] Sharing parameters 'conv1a_w' owned by layer 'conv1a', param index 0
I0407 11:00:59.841454  6158 net.cpp:493] Sharing parameters 'conv1a_b' owned by layer 'conv1a', param index 1
I0407 11:00:59.841462  6158 layer_factory.hpp:77] Creating layer relu1a_pos
I0407 11:00:59.841478  6158 net.cpp:100] Creating Layer relu1a_pos
I0407 11:00:59.841487  6158 net.cpp:434] relu1a_pos <- conv1a_pos
I0407 11:00:59.841500  6158 net.cpp:395] relu1a_pos -> conv1a_pos (in-place)
I0407 11:00:59.841856  6158 net.cpp:150] Setting up relu1a_pos
I0407 11:00:59.841902  6158 net.cpp:157] Top shape: 18 64 16 112 112 (231211008)
I0407 11:00:59.841914  6158 net.cpp:165] Memory required for data: 5584564224
I0407 11:00:59.841919  6158 layer_factory.hpp:77] Creating layer pool1_pos
I0407 11:00:59.841933  6158 net.cpp:100] Creating Layer pool1_pos
I0407 11:00:59.841939  6158 net.cpp:434] pool1_pos <- conv1a_pos
I0407 11:00:59.841948  6158 net.cpp:408] pool1_pos -> pool1_pos
I0407 11:00:59.843300  6158 net.cpp:150] Setting up pool1_pos
I0407 11:00:59.843327  6158 net.cpp:157] Top shape: 18 64 16 56 56 (57802752)
I0407 11:00:59.843334  6158 net.cpp:165] Memory required for data: 5815775232
I0407 11:00:59.843343  6158 layer_factory.hpp:77] Creating layer conv2a_pos
I0407 11:00:59.843367  6158 net.cpp:100] Creating Layer conv2a_pos
I0407 11:00:59.843377  6158 net.cpp:434] conv2a_pos <- pool1_pos
I0407 11:00:59.843392  6158 net.cpp:408] conv2a_pos -> conv2a_pos
I0407 11:00:59.857626  6158 net.cpp:150] Setting up conv2a_pos
I0407 11:00:59.857666  6158 net.cpp:157] Top shape: 18 128 16 56 56 (115605504)
I0407 11:00:59.857707  6158 net.cpp:165] Memory required for data: 6278197248
I0407 11:00:59.857723  6158 net.cpp:493] Sharing parameters 'conv2a_w' owned by layer 'conv2a', param index 0
I0407 11:00:59.857733  6158 net.cpp:493] Sharing parameters 'conv2a_b' owned by layer 'conv2a', param index 1
I0407 11:00:59.857743  6158 layer_factory.hpp:77] Creating layer relu2a_pos
I0407 11:00:59.857758  6158 net.cpp:100] Creating Layer relu2a_pos
I0407 11:00:59.857764  6158 net.cpp:434] relu2a_pos <- conv2a_pos
I0407 11:00:59.857772  6158 net.cpp:395] relu2a_pos -> conv2a_pos (in-place)
I0407 11:00:59.858008  6158 net.cpp:150] Setting up relu2a_pos
I0407 11:00:59.858022  6158 net.cpp:157] Top shape: 18 128 16 56 56 (115605504)
I0407 11:00:59.858026  6158 net.cpp:165] Memory required for data: 6740619264
I0407 11:00:59.858031  6158 layer_factory.hpp:77] Creating layer pool2_pos
I0407 11:00:59.858042  6158 net.cpp:100] Creating Layer pool2_pos
I0407 11:00:59.858044  6158 net.cpp:434] pool2_pos <- conv2a_pos
I0407 11:00:59.858052  6158 net.cpp:408] pool2_pos -> pool2_pos
I0407 11:00:59.859092  6158 net.cpp:150] Setting up pool2_pos
I0407 11:00:59.859107  6158 net.cpp:157] Top shape: 18 128 8 28 28 (14450688)
I0407 11:00:59.859112  6158 net.cpp:165] Memory required for data: 6798422016
I0407 11:00:59.859117  6158 layer_factory.hpp:77] Creating layer conv3a_pos
I0407 11:00:59.859139  6158 net.cpp:100] Creating Layer conv3a_pos
I0407 11:00:59.859145  6158 net.cpp:434] conv3a_pos <- pool2_pos
I0407 11:00:59.859154  6158 net.cpp:408] conv3a_pos -> conv3a_pos
I0407 11:00:59.894263  6158 net.cpp:150] Setting up conv3a_pos
I0407 11:00:59.894309  6158 net.cpp:157] Top shape: 18 256 8 28 28 (28901376)
I0407 11:00:59.894317  6158 net.cpp:165] Memory required for data: 6914027520
I0407 11:00:59.894330  6158 net.cpp:493] Sharing parameters 'conv3a_w' owned by layer 'conv3a', param index 0
I0407 11:00:59.894340  6158 net.cpp:493] Sharing parameters 'conv3a_b' owned by layer 'conv3a', param index 1
I0407 11:00:59.894371  6158 layer_factory.hpp:77] Creating layer relu3a_pos
I0407 11:00:59.894393  6158 net.cpp:100] Creating Layer relu3a_pos
I0407 11:00:59.894404  6158 net.cpp:434] relu3a_pos <- conv3a_pos
I0407 11:00:59.894418  6158 net.cpp:395] relu3a_pos -> conv3a_pos (in-place)
I0407 11:00:59.896108  6158 net.cpp:150] Setting up relu3a_pos
I0407 11:00:59.896134  6158 net.cpp:157] Top shape: 18 256 8 28 28 (28901376)
I0407 11:00:59.896144  6158 net.cpp:165] Memory required for data: 7029633024
I0407 11:00:59.896153  6158 layer_factory.hpp:77] Creating layer pool3_pos
I0407 11:00:59.896184  6158 net.cpp:100] Creating Layer pool3_pos
I0407 11:00:59.896198  6158 net.cpp:434] pool3_pos <- conv3a_pos
I0407 11:00:59.896212  6158 net.cpp:408] pool3_pos -> pool3_pos
I0407 11:00:59.899660  6158 net.cpp:150] Setting up pool3_pos
I0407 11:00:59.899705  6158 net.cpp:157] Top shape: 18 256 4 14 14 (3612672)
I0407 11:00:59.899709  6158 net.cpp:165] Memory required for data: 7044083712
I0407 11:00:59.899716  6158 layer_factory.hpp:77] Creating layer conv4a_pos
I0407 11:00:59.899737  6158 net.cpp:100] Creating Layer conv4a_pos
I0407 11:00:59.899747  6158 net.cpp:434] conv4a_pos <- pool3_pos
I0407 11:00:59.899758  6158 net.cpp:408] conv4a_pos -> conv4a_pos
I0407 11:00:59.953719  6158 net.cpp:150] Setting up conv4a_pos
I0407 11:00:59.953764  6158 net.cpp:157] Top shape: 18 256 4 14 14 (3612672)
I0407 11:00:59.953769  6158 net.cpp:165] Memory required for data: 7058534400
I0407 11:00:59.953778  6158 net.cpp:493] Sharing parameters 'conv4a_w' owned by layer 'conv4a', param index 0
I0407 11:00:59.953783  6158 net.cpp:493] Sharing parameters 'conv4a_b' owned by layer 'conv4a', param index 1
I0407 11:00:59.953788  6158 layer_factory.hpp:77] Creating layer relu4a_pos
I0407 11:00:59.953814  6158 net.cpp:100] Creating Layer relu4a_pos
I0407 11:00:59.953820  6158 net.cpp:434] relu4a_pos <- conv4a_pos
I0407 11:00:59.953829  6158 net.cpp:395] relu4a_pos -> conv4a_pos (in-place)
I0407 11:00:59.954753  6158 net.cpp:150] Setting up relu4a_pos
I0407 11:00:59.954792  6158 net.cpp:157] Top shape: 18 256 4 14 14 (3612672)
I0407 11:00:59.954797  6158 net.cpp:165] Memory required for data: 7072985088
I0407 11:00:59.954800  6158 layer_factory.hpp:77] Creating layer pool4_pos
I0407 11:00:59.954812  6158 net.cpp:100] Creating Layer pool4_pos
I0407 11:00:59.954814  6158 net.cpp:434] pool4_pos <- conv4a_pos
I0407 11:00:59.954821  6158 net.cpp:408] pool4_pos -> pool4_pos
I0407 11:00:59.955056  6158 net.cpp:150] Setting up pool4_pos
I0407 11:00:59.955067  6158 net.cpp:157] Top shape: 18 256 2 7 7 (451584)
I0407 11:00:59.955070  6158 net.cpp:165] Memory required for data: 7074791424
I0407 11:00:59.955073  6158 layer_factory.hpp:77] Creating layer conv5a_pos
I0407 11:00:59.955085  6158 net.cpp:100] Creating Layer conv5a_pos
I0407 11:00:59.955087  6158 net.cpp:434] conv5a_pos <- pool4_pos
I0407 11:00:59.955096  6158 net.cpp:408] conv5a_pos -> conv5a_pos
I0407 11:01:00.011126  6158 net.cpp:150] Setting up conv5a_pos
I0407 11:01:00.011174  6158 net.cpp:157] Top shape: 18 256 2 7 7 (451584)
I0407 11:01:00.011179  6158 net.cpp:165] Memory required for data: 7076597760
I0407 11:01:00.011188  6158 net.cpp:493] Sharing parameters 'conv5a_w' owned by layer 'conv5a', param index 0
I0407 11:01:00.011194  6158 net.cpp:493] Sharing parameters 'conv5a_b' owned by layer 'conv5a', param index 1
I0407 11:01:00.011199  6158 layer_factory.hpp:77] Creating layer relu5a_pos
I0407 11:01:00.011216  6158 net.cpp:100] Creating Layer relu5a_pos
I0407 11:01:00.011222  6158 net.cpp:434] relu5a_pos <- conv5a_pos
I0407 11:01:00.011229  6158 net.cpp:395] relu5a_pos -> conv5a_pos (in-place)
I0407 11:01:00.012126  6158 net.cpp:150] Setting up relu5a_pos
I0407 11:01:00.012138  6158 net.cpp:157] Top shape: 18 256 2 7 7 (451584)
I0407 11:01:00.012152  6158 net.cpp:165] Memory required for data: 7078404096
I0407 11:01:00.012159  6158 layer_factory.hpp:77] Creating layer pool5_pos
I0407 11:01:00.012168  6158 net.cpp:100] Creating Layer pool5_pos
I0407 11:01:00.012172  6158 net.cpp:434] pool5_pos <- conv5a_pos
I0407 11:01:00.012181  6158 net.cpp:408] pool5_pos -> pool5_pos
I0407 11:01:00.012406  6158 net.cpp:150] Setting up pool5_pos
I0407 11:01:00.012418  6158 net.cpp:157] Top shape: 18 256 1 4 4 (73728)
I0407 11:01:00.012420  6158 net.cpp:165] Memory required for data: 7078699008
I0407 11:01:00.012423  6158 layer_factory.hpp:77] Creating layer fc6_pos
I0407 11:01:00.012434  6158 net.cpp:100] Creating Layer fc6_pos
I0407 11:01:00.012437  6158 net.cpp:434] fc6_pos <- pool5_pos
I0407 11:01:00.012444  6158 net.cpp:408] fc6_pos -> fc6_pos
I0407 11:01:00.328744  6158 net.cpp:150] Setting up fc6_pos
I0407 11:01:00.328778  6158 net.cpp:157] Top shape: 18 2048 (36864)
I0407 11:01:00.328783  6158 net.cpp:165] Memory required for data: 7078846464
I0407 11:01:00.328794  6158 layer_factory.hpp:77] Creating layer relu6_pos
I0407 11:01:00.328827  6158 net.cpp:100] Creating Layer relu6_pos
I0407 11:01:00.328836  6158 net.cpp:434] relu6_pos <- fc6_pos
I0407 11:01:00.328843  6158 net.cpp:395] relu6_pos -> fc6_pos (in-place)
I0407 11:01:00.329975  6158 net.cpp:150] Setting up relu6_pos
I0407 11:01:00.329990  6158 net.cpp:157] Top shape: 18 2048 (36864)
I0407 11:01:00.329994  6158 net.cpp:165] Memory required for data: 7078993920
I0407 11:01:00.329998  6158 layer_factory.hpp:77] Creating layer drop6_pos
I0407 11:01:00.330024  6158 net.cpp:100] Creating Layer drop6_pos
I0407 11:01:00.330029  6158 net.cpp:434] drop6_pos <- fc6_pos
I0407 11:01:00.330034  6158 net.cpp:395] drop6_pos -> fc6_pos (in-place)
I0407 11:01:00.330070  6158 net.cpp:150] Setting up drop6_pos
I0407 11:01:00.330077  6158 net.cpp:157] Top shape: 18 2048 (36864)
I0407 11:01:00.330080  6158 net.cpp:165] Memory required for data: 7079141376
I0407 11:01:00.330085  6158 layer_factory.hpp:77] Creating layer fc7_pos
I0407 11:01:00.330093  6158 net.cpp:100] Creating Layer fc7_pos
I0407 11:01:00.330096  6158 net.cpp:434] fc7_pos <- fc6_pos
I0407 11:01:00.330102  6158 net.cpp:408] fc7_pos -> fc7_pos
I0407 11:01:00.479984  6158 net.cpp:150] Setting up fc7_pos
I0407 11:01:00.480043  6158 net.cpp:157] Top shape: 18 2048 (36864)
I0407 11:01:00.480048  6158 net.cpp:165] Memory required for data: 7079288832
I0407 11:01:00.480062  6158 layer_factory.hpp:77] Creating layer relu7_pos
I0407 11:01:00.480089  6158 net.cpp:100] Creating Layer relu7_pos
I0407 11:01:00.480096  6158 net.cpp:434] relu7_pos <- fc7_pos
I0407 11:01:00.480104  6158 net.cpp:395] relu7_pos -> fc7_pos (in-place)
I0407 11:01:00.480375  6158 net.cpp:150] Setting up relu7_pos
I0407 11:01:00.480384  6158 net.cpp:157] Top shape: 18 2048 (36864)
I0407 11:01:00.480388  6158 net.cpp:165] Memory required for data: 7079436288
I0407 11:01:00.480391  6158 layer_factory.hpp:77] Creating layer drop7_pos
I0407 11:01:00.480401  6158 net.cpp:100] Creating Layer drop7_pos
I0407 11:01:00.480404  6158 net.cpp:434] drop7_pos <- fc7_pos
I0407 11:01:00.480410  6158 net.cpp:395] drop7_pos -> fc7_pos (in-place)
I0407 11:01:00.480444  6158 net.cpp:150] Setting up drop7_pos
I0407 11:01:00.480450  6158 net.cpp:157] Top shape: 18 2048 (36864)
I0407 11:01:00.480454  6158 net.cpp:165] Memory required for data: 7079583744
I0407 11:01:00.480458  6158 layer_factory.hpp:77] Creating layer conv1a_neg
I0407 11:01:00.480478  6158 net.cpp:100] Creating Layer conv1a_neg
I0407 11:01:00.480481  6158 net.cpp:434] conv1a_neg <- negative
I0407 11:01:00.480489  6158 net.cpp:408] conv1a_neg -> conv1a_neg
I0407 11:01:00.483805  6158 net.cpp:150] Setting up conv1a_neg
I0407 11:01:00.483821  6158 net.cpp:157] Top shape: 18 64 16 112 112 (231211008)
I0407 11:01:00.483825  6158 net.cpp:165] Memory required for data: 8004427776
I0407 11:01:00.483831  6158 net.cpp:493] Sharing parameters 'conv1a_w' owned by layer 'conv1a', param index 0
I0407 11:01:00.483837  6158 net.cpp:493] Sharing parameters 'conv1a_b' owned by layer 'conv1a', param index 1
I0407 11:01:00.483841  6158 layer_factory.hpp:77] Creating layer relu1a_neg
I0407 11:01:00.483860  6158 net.cpp:100] Creating Layer relu1a_neg
I0407 11:01:00.483865  6158 net.cpp:434] relu1a_neg <- conv1a_neg
I0407 11:01:00.483871  6158 net.cpp:395] relu1a_neg -> conv1a_neg (in-place)
I0407 11:01:00.484776  6158 net.cpp:150] Setting up relu1a_neg
I0407 11:01:00.484791  6158 net.cpp:157] Top shape: 18 64 16 112 112 (231211008)
I0407 11:01:00.484796  6158 net.cpp:165] Memory required for data: 8929271808
I0407 11:01:00.484799  6158 layer_factory.hpp:77] Creating layer pool1_neg
I0407 11:01:00.484807  6158 net.cpp:100] Creating Layer pool1_neg
I0407 11:01:00.484812  6158 net.cpp:434] pool1_neg <- conv1a_neg
I0407 11:01:00.484818  6158 net.cpp:408] pool1_neg -> pool1_neg
I0407 11:01:00.485056  6158 net.cpp:150] Setting up pool1_neg
I0407 11:01:00.485067  6158 net.cpp:157] Top shape: 18 64 16 56 56 (57802752)
I0407 11:01:00.485072  6158 net.cpp:165] Memory required for data: 9160482816
I0407 11:01:00.485075  6158 layer_factory.hpp:77] Creating layer conv2a_neg
I0407 11:01:00.485093  6158 net.cpp:100] Creating Layer conv2a_neg
I0407 11:01:00.485098  6158 net.cpp:434] conv2a_neg <- pool1_neg
I0407 11:01:00.485106  6158 net.cpp:408] conv2a_neg -> conv2a_neg
I0407 11:01:00.501109  6158 net.cpp:150] Setting up conv2a_neg
I0407 11:01:00.501148  6158 net.cpp:157] Top shape: 18 128 16 56 56 (115605504)
I0407 11:01:00.501154  6158 net.cpp:165] Memory required for data: 9622904832
I0407 11:01:00.501164  6158 net.cpp:493] Sharing parameters 'conv2a_w' owned by layer 'conv2a', param index 0
I0407 11:01:00.501173  6158 net.cpp:493] Sharing parameters 'conv2a_b' owned by layer 'conv2a', param index 1
I0407 11:01:00.501179  6158 layer_factory.hpp:77] Creating layer relu2a_neg
I0407 11:01:00.501199  6158 net.cpp:100] Creating Layer relu2a_neg
I0407 11:01:00.501209  6158 net.cpp:434] relu2a_neg <- conv2a_neg
I0407 11:01:00.501219  6158 net.cpp:395] relu2a_neg -> conv2a_neg (in-place)
I0407 11:01:00.502596  6158 net.cpp:150] Setting up relu2a_neg
I0407 11:01:00.502615  6158 net.cpp:157] Top shape: 18 128 16 56 56 (115605504)
I0407 11:01:00.502622  6158 net.cpp:165] Memory required for data: 10085326848
I0407 11:01:00.502629  6158 layer_factory.hpp:77] Creating layer pool2_neg
I0407 11:01:00.502673  6158 net.cpp:100] Creating Layer pool2_neg
I0407 11:01:00.502681  6158 net.cpp:434] pool2_neg <- conv2a_neg
I0407 11:01:00.502692  6158 net.cpp:408] pool2_neg -> pool2_neg
I0407 11:01:00.503027  6158 net.cpp:150] Setting up pool2_neg
I0407 11:01:00.503042  6158 net.cpp:157] Top shape: 18 128 8 28 28 (14450688)
I0407 11:01:00.503056  6158 net.cpp:165] Memory required for data: 10143129600
I0407 11:01:00.503060  6158 layer_factory.hpp:77] Creating layer conv3a_neg
I0407 11:01:00.503082  6158 net.cpp:100] Creating Layer conv3a_neg
I0407 11:01:00.503088  6158 net.cpp:434] conv3a_neg <- pool2_neg
I0407 11:01:00.503100  6158 net.cpp:408] conv3a_neg -> conv3a_neg
I0407 11:01:00.547031  6158 net.cpp:150] Setting up conv3a_neg
I0407 11:01:00.547065  6158 net.cpp:157] Top shape: 18 256 8 28 28 (28901376)
I0407 11:01:00.547068  6158 net.cpp:165] Memory required for data: 10258735104
I0407 11:01:00.547091  6158 net.cpp:493] Sharing parameters 'conv3a_w' owned by layer 'conv3a', param index 0
I0407 11:01:00.547114  6158 net.cpp:493] Sharing parameters 'conv3a_b' owned by layer 'conv3a', param index 1
I0407 11:01:00.547122  6158 layer_factory.hpp:77] Creating layer relu3a_neg
I0407 11:01:00.547134  6158 net.cpp:100] Creating Layer relu3a_neg
I0407 11:01:00.547142  6158 net.cpp:434] relu3a_neg <- conv3a_neg
I0407 11:01:00.547148  6158 net.cpp:395] relu3a_neg -> conv3a_neg (in-place)
I0407 11:01:00.547361  6158 net.cpp:150] Setting up relu3a_neg
I0407 11:01:00.547372  6158 net.cpp:157] Top shape: 18 256 8 28 28 (28901376)
I0407 11:01:00.547376  6158 net.cpp:165] Memory required for data: 10374340608
I0407 11:01:00.547380  6158 layer_factory.hpp:77] Creating layer pool3_neg
I0407 11:01:00.547389  6158 net.cpp:100] Creating Layer pool3_neg
I0407 11:01:00.547395  6158 net.cpp:434] pool3_neg <- conv3a_neg
I0407 11:01:00.547401  6158 net.cpp:408] pool3_neg -> pool3_neg
I0407 11:01:00.549064  6158 net.cpp:150] Setting up pool3_neg
I0407 11:01:00.549082  6158 net.cpp:157] Top shape: 18 256 4 14 14 (3612672)
I0407 11:01:00.549088  6158 net.cpp:165] Memory required for data: 10388791296
I0407 11:01:00.549093  6158 layer_factory.hpp:77] Creating layer conv4a_neg
I0407 11:01:00.549132  6158 net.cpp:100] Creating Layer conv4a_neg
I0407 11:01:00.549139  6158 net.cpp:434] conv4a_neg <- pool3_neg
I0407 11:01:00.549147  6158 net.cpp:408] conv4a_neg -> conv4a_neg
I0407 11:01:00.616055  6158 net.cpp:150] Setting up conv4a_neg
I0407 11:01:00.616091  6158 net.cpp:157] Top shape: 18 256 4 14 14 (3612672)
I0407 11:01:00.616096  6158 net.cpp:165] Memory required for data: 10403241984
I0407 11:01:00.616106  6158 net.cpp:493] Sharing parameters 'conv4a_w' owned by layer 'conv4a', param index 0
I0407 11:01:00.616114  6158 net.cpp:493] Sharing parameters 'conv4a_b' owned by layer 'conv4a', param index 1
I0407 11:01:00.616123  6158 layer_factory.hpp:77] Creating layer relu4a_neg
I0407 11:01:00.616137  6158 net.cpp:100] Creating Layer relu4a_neg
I0407 11:01:00.616143  6158 net.cpp:434] relu4a_neg <- conv4a_neg
I0407 11:01:00.616153  6158 net.cpp:395] relu4a_neg -> conv4a_neg (in-place)
I0407 11:01:00.616363  6158 net.cpp:150] Setting up relu4a_neg
I0407 11:01:00.616372  6158 net.cpp:157] Top shape: 18 256 4 14 14 (3612672)
I0407 11:01:00.616379  6158 net.cpp:165] Memory required for data: 10417692672
I0407 11:01:00.616384  6158 layer_factory.hpp:77] Creating layer pool4_neg
I0407 11:01:00.616394  6158 net.cpp:100] Creating Layer pool4_neg
I0407 11:01:00.616400  6158 net.cpp:434] pool4_neg <- conv4a_neg
I0407 11:01:00.616407  6158 net.cpp:408] pool4_neg -> pool4_neg
I0407 11:01:00.617460  6158 net.cpp:150] Setting up pool4_neg
I0407 11:01:00.617475  6158 net.cpp:157] Top shape: 18 256 2 7 7 (451584)
I0407 11:01:00.617478  6158 net.cpp:165] Memory required for data: 10419499008
I0407 11:01:00.617485  6158 layer_factory.hpp:77] Creating layer conv5a_neg
I0407 11:01:00.617512  6158 net.cpp:100] Creating Layer conv5a_neg
I0407 11:01:00.617518  6158 net.cpp:434] conv5a_neg <- pool4_neg
I0407 11:01:00.617527  6158 net.cpp:408] conv5a_neg -> conv5a_neg
I0407 11:01:00.680145  6158 net.cpp:150] Setting up conv5a_neg
I0407 11:01:00.680178  6158 net.cpp:157] Top shape: 18 256 2 7 7 (451584)
I0407 11:01:00.680182  6158 net.cpp:165] Memory required for data: 10421305344
I0407 11:01:00.680191  6158 net.cpp:493] Sharing parameters 'conv5a_w' owned by layer 'conv5a', param index 0
I0407 11:01:00.680198  6158 net.cpp:493] Sharing parameters 'conv5a_b' owned by layer 'conv5a', param index 1
I0407 11:01:00.680203  6158 layer_factory.hpp:77] Creating layer relu5a_neg
I0407 11:01:00.680214  6158 net.cpp:100] Creating Layer relu5a_neg
I0407 11:01:00.680220  6158 net.cpp:434] relu5a_neg <- conv5a_neg
I0407 11:01:00.680228  6158 net.cpp:395] relu5a_neg -> conv5a_neg (in-place)
I0407 11:01:00.680434  6158 net.cpp:150] Setting up relu5a_neg
I0407 11:01:00.680445  6158 net.cpp:157] Top shape: 18 256 2 7 7 (451584)
I0407 11:01:00.680449  6158 net.cpp:165] Memory required for data: 10423111680
I0407 11:01:00.680454  6158 layer_factory.hpp:77] Creating layer pool5_neg
I0407 11:01:00.680469  6158 net.cpp:100] Creating Layer pool5_neg
I0407 11:01:00.680472  6158 net.cpp:434] pool5_neg <- conv5a_neg
I0407 11:01:00.680480  6158 net.cpp:408] pool5_neg -> pool5_neg
I0407 11:01:00.681473  6158 net.cpp:150] Setting up pool5_neg
I0407 11:01:00.681486  6158 net.cpp:157] Top shape: 18 256 1 4 4 (73728)
I0407 11:01:00.681490  6158 net.cpp:165] Memory required for data: 10423406592
I0407 11:01:00.681494  6158 layer_factory.hpp:77] Creating layer fc6_neg
I0407 11:01:00.681504  6158 net.cpp:100] Creating Layer fc6_neg
I0407 11:01:00.681509  6158 net.cpp:434] fc6_neg <- pool5_neg
I0407 11:01:00.681516  6158 net.cpp:408] fc6_neg -> fc6_neg
I0407 11:01:00.996145  6158 net.cpp:150] Setting up fc6_neg
I0407 11:01:00.996177  6158 net.cpp:157] Top shape: 18 2048 (36864)
I0407 11:01:00.996182  6158 net.cpp:165] Memory required for data: 10423554048
I0407 11:01:00.996193  6158 layer_factory.hpp:77] Creating layer relu6_neg
I0407 11:01:00.996214  6158 net.cpp:100] Creating Layer relu6_neg
I0407 11:01:00.996222  6158 net.cpp:434] relu6_neg <- fc6_neg
I0407 11:01:00.996228  6158 net.cpp:395] relu6_neg -> fc6_neg (in-place)
I0407 11:01:00.996507  6158 net.cpp:150] Setting up relu6_neg
I0407 11:01:00.996518  6158 net.cpp:157] Top shape: 18 2048 (36864)
I0407 11:01:00.996522  6158 net.cpp:165] Memory required for data: 10423701504
I0407 11:01:00.996526  6158 layer_factory.hpp:77] Creating layer drop6_neg
I0407 11:01:00.996544  6158 net.cpp:100] Creating Layer drop6_neg
I0407 11:01:00.996551  6158 net.cpp:434] drop6_neg <- fc6_neg
I0407 11:01:00.996556  6158 net.cpp:395] drop6_neg -> fc6_neg (in-place)
I0407 11:01:00.996593  6158 net.cpp:150] Setting up drop6_neg
I0407 11:01:00.996601  6158 net.cpp:157] Top shape: 18 2048 (36864)
I0407 11:01:00.996604  6158 net.cpp:165] Memory required for data: 10423848960
I0407 11:01:00.996609  6158 layer_factory.hpp:77] Creating layer fc7_neg
I0407 11:01:00.996623  6158 net.cpp:100] Creating Layer fc7_neg
I0407 11:01:00.996628  6158 net.cpp:434] fc7_neg <- fc6_neg
I0407 11:01:00.996634  6158 net.cpp:408] fc7_neg -> fc7_neg
I0407 11:01:01.148486  6158 net.cpp:150] Setting up fc7_neg
I0407 11:01:01.148527  6158 net.cpp:157] Top shape: 18 2048 (36864)
I0407 11:01:01.148535  6158 net.cpp:165] Memory required for data: 10423996416
I0407 11:01:01.148552  6158 layer_factory.hpp:77] Creating layer relu7_neg
I0407 11:01:01.148567  6158 net.cpp:100] Creating Layer relu7_neg
I0407 11:01:01.148576  6158 net.cpp:434] relu7_neg <- fc7_neg
I0407 11:01:01.148587  6158 net.cpp:395] relu7_neg -> fc7_neg (in-place)
I0407 11:01:01.149940  6158 net.cpp:150] Setting up relu7_neg
I0407 11:01:01.149955  6158 net.cpp:157] Top shape: 18 2048 (36864)
I0407 11:01:01.149958  6158 net.cpp:165] Memory required for data: 10424143872
I0407 11:01:01.149963  6158 layer_factory.hpp:77] Creating layer drop7_neg
I0407 11:01:01.149986  6158 net.cpp:100] Creating Layer drop7_neg
I0407 11:01:01.149991  6158 net.cpp:434] drop7_neg <- fc7_neg
I0407 11:01:01.149996  6158 net.cpp:395] drop7_neg -> fc7_neg (in-place)
I0407 11:01:01.150063  6158 net.cpp:150] Setting up drop7_neg
I0407 11:01:01.150073  6158 net.cpp:157] Top shape: 18 2048 (36864)
I0407 11:01:01.150076  6158 net.cpp:165] Memory required for data: 10424291328
I0407 11:01:01.150079  6158 layer_factory.hpp:77] Creating layer loss
I0407 11:01:01.161432  6158 net.cpp:100] Creating Layer loss
I0407 11:01:01.161448  6158 net.cpp:434] loss <- fc7
I0407 11:01:01.161454  6158 net.cpp:434] loss <- fc7_pos
I0407 11:01:01.161458  6158 net.cpp:434] loss <- fc7_neg
I0407 11:01:01.161464  6158 net.cpp:408] loss -> loss
…
    mean_value: 65
    mean_value: 74
    mean_value: 92
    mean_value: 65
    mean_value: 74
    mean_value: 92
    mean_value: 65
    mean_value: 74
    mean_value: 92
    mean_value: 65
    mean_value: 74
    mean_value: 92
    mean_value: 65
    mean_value: 74
    mean_value: 92
    mean_value: 65
    mean_value: 74
    mean_value: 92
    mean_value: 65
    mean_value: 74
    mean_value: 92
    mean_value: 65
    mean_value: 74
    mean_value: 92
  }
  data_param {
    source: "/data/leo-data/Synthetic/LMDB/val"
    batch_size: 1
    backend: LMDB
  }
}
layer {
  name: "slicer"
  type: "Slice"
  bottom: "triplet"
  top: "anchor_stacked"
  top: "positive_stacked"
  top: "negative_stacked"
  slice_param {
    slice_dim: 1
    slice_point: 48
    slice_point: 96
  }
}
layer {
  name: "reshape_anchor"
  type: "Reshape"
  bottom: "anchor_stacked"
  top: "anchor"
  reshape_param {
    shape {
      dim: 0
      dim: 3
      dim: 16
      dim: 112
      dim: 112
    }
  }
}
layer {
  name: "reshape_positive"
  type: "Reshape"
  bottom: "positive_stacked"
  top: "positive"
  reshape_param {
    shape {
      dim: 0
      dim: 3
      dim: 16
      dim: 112
      dim: 112
    }
  }
}
layer {
  name: "reshape_negative"
  type: "Reshape"
  bottom: "negative_stacked"
  top: "negative"
  reshape_param {
    shape {
      dim: 0
      dim: 3
      dim: 16
      dim: 112
      dim: 112
    }
  }
}
layer {
  name: "conv1a"
  type: "NdConvolution"
  bottom: "anchor"
  top: "conv1a"
  param {
    name: "conv1a_w"
    lr_mult: 1
    decay_mult: 1
  }
  param {
    name: "conv1a_b"
    lr_mult: 2
    decay_mult: 0
  }
  convolution_param {
    num_output: 64
    weight_filler {
      type: "gaussian"
      std: 0.01
    }
    bias_filler {
      type: "constant"
      value: 0
    }
    pad_shape {
      dim: 1
      dim: 1
      dim: 1
    }
    kernel_shape {
      dim: 3
      dim: 3
      dim: 3
    }
    stride_shape {
      dim: 1
      dim: 1
      dim: 1
    }
  }
}
layer {
  name: "relu1a"
  type: "ReLU"
  bottom: "conv1a"
  top: "conv1a"
}
layer {
  name: "pool1"
  type: "NdPooling"
  bottom: "conv1a"
  top: "pool1"
  pooling_param {
    pool: MAX
    kernel_shape {
      dim: 1
      dim: 2
      dim: 2
    }
    stride_shape {
      dim: 1
      dim: 2
      dim: 2
    }
  }
}
layer {
  name: "conv2a"
  type: "NdConvolution"
  bottom: "pool1"
  top: "conv2a"
  param {
    name: "conv2a_w"
    lr_mult: 1
    decay_mult: 1
  }
  param {
    name: "conv2a_b"
    lr_mult: 2
    decay_mult: 0
  }
  convolution_param {
    num_output: 128
    weight_filler {
      type: "gaussian"
      std: 0.01
    }
    bias_filler {
      type: "constant"
      value: 1
    }
    pad_shape {
      dim: 1
      dim: 1
      dim: 1
    }
    kernel_shape {
      dim: 3
      dim: 3
      dim: 3
    }
    stride_shape {
      dim: 1
      dim: 1
      dim: 1
    }
  }
}
layer {
  name: "relu2a"
  type: "ReLU"
  bottom: "conv2a"
  top: "conv2a"
}
layer {
  name: "pool2"
  type: "NdPooling"
  bottom: "conv2a"
  top: "pool2"
  pooling_param {
    pool: MAX
    kernel_shape {
      dim: 2
      dim: 2
      dim: 2
    }
    stride_shape {
      dim: 2
      dim: 2
      dim: 2
    }
  }
}
layer {
  name: "conv3a"
  type: "NdConvolution"
  bottom: "pool2"
  top: "conv3a"
  param {
    name: "conv3a_w"
    lr_mult: 1
    decay_mult: 1
  }
  param {
    name: "conv3a_b"
    lr_mult: 2
    decay_mult: 0
  }
  convolution_param {
    num_output: 256
    weight_filler {
      type: "gaussian"
      std: 0.01
    }
    bias_filler {
      type: "constant"
      value: 1
    }
    pad_shape {
      dim: 1
      dim: 1
      dim: 1
    }
    kernel_shape {
      dim: 3
      dim: 3
      dim: 3
    }
    stride_shape {
      dim: 1
      dim: 1
      dim: 1
    }
  }
}
layer {
  name: "relu3a"
  type: "ReLU"
  bottom: "conv3a"
  top: "conv3a"
}
layer {
  name: "pool3"
  type: "NdPooling"
  bottom: "conv3a"
  top: "pool3"
  pooling_param {
    pool: MAX
    kernel_shape {
      dim: 2
      dim: 2
      dim: 2
    }
    stride_shape {
      dim: 2
      dim: 2
      dim: 2
    }
  }
}
layer {
  name: "conv4a"
  type: "NdConvolution"
  bottom: "pool3"
  top: "conv4a"
  param {
    name: "conv4a_w"
    lr_mult: 1
    decay_mult: 1
  }
  param {
    name: "conv4a_b"
    lr_mult: 2
    decay_mult: 0
  }
  convolution_param {
    num_output: 256
    weight_filler {
      type: "gaussian"
      std: 0.01
    }
    bias_filler {
      type: "constant"
      value: 1
    }
    pad_shape {
      dim: 1
      dim: 1
      dim: 1
    }
    kernel_shape {
      dim: 3
      dim: 3
      dim: 3
    }
    stride_shape {
      dim: 1
      dim: 1
      dim: 1
    }
  }
}
layer {
  name: "relu4a"
  type: "ReLU"
  bottom: "conv4a"
  top: "conv4a"
}
layer {
  name: "pool4"
  type: "NdPooling"
  bottom: "conv4a"
  top: "pool4"
  pooling_param {
    pool: MAX
    kernel_shape {
      dim: 2
      dim: 2
      dim: 2
    }
    stride_shape {
      dim: 2
      dim: 2
      dim: 2
    }
  }
}
layer {
  name: "conv5a"
  type: "NdConvolution"
  bottom: "pool4"
  top: "conv5a"
  param {
    name: "conv5a_w"
    lr_mult: 1
    decay_mult: 1
  }
  param {
    name: "conv5a_b"
    lr_mult: 2
    decay_mult: 0
  }
  convolution_param {
    num_output: 256
    weight_filler {
      type: "gaussian"
      std: 0.01
    }
    bias_filler {
      type: "constant"
      value: 1
    }
    pad_shape {
      dim: 1
      dim: 1
      dim: 1
    }
    kernel_shape {
      dim: 3
      dim: 3
      dim: 3
    }
    stride_shape {
      dim: 1
      dim: 1
      dim: 1
    }
  }
}
layer {
  name: "relu5a"
  type: "ReLU"
  bottom: "conv5a"
  top: "conv5a"
}
layer {
  name: "pool5"
  type: "NdPooling"
  bottom: "conv5a"
  top: "pool5"
  pooling_param {
    pool: MAX
    kernel_shape {
      dim: 2
      dim: 2
      dim: 2
    }
    stride_shape {
      dim: 2
      dim: 2
      dim: 2
    }
  }
}
layer {
  name: "fc6"
  type: "InnerProduct"
  bottom: "pool5"
  top: "fc6"
  param {
    lr_mult: 1
    decay_mult: 1
  }
  param {
    lr_mult: 2
    decay_mult: 0
  }
  inner_product_param {
    num_output: 2048
    weight_filler {
      type: "gaussian"
      std: 0.005
    }
    bias_filler {
      type: "constant"
      value: 1
    }
  }
}
layer {
  name: "relu6"
  type: "ReLU"
  bottom: "fc6"
  top: "fc6"
}
layer {
  name: "drop6"
  type: "Dropout"
  bottom: "fc6"
  top: "fc6"
  dropout_param {
    dropout_ratio: 0.5
  }
}
layer {
  name: "fc7"
  type: "InnerProduct"
  bottom: "fc6"
  top: "fc7"
  param {
    lr_mult: 1
    decay_mult: 1
  }
  param {
    lr_mult: 2
    decay_mult: 0
  }
  inner_product_param {
    num_output: 2048
    weight_filler {
      type: "gaussian"
      std: 0.005
    }
    bias_filler {
      type: "constant"
      value: 1
    }
  }
}
layer {
  name: "relu7"
  type: "ReLU"
  bottom: "fc7"
  top: "fc7"
}
layer {
  name: "drop7"
  type: "Dropout"
  bottom: "fc7"
  top: "fc7"
  dropout_param {
    dropout_ratio: 0.5
  }
}
layer {
  name: "conv1a_pos"
  type: "NdConvolution"
  bottom: "positive"
  top: "conv1a_pos"
  param {
    name: "conv1a_w"
    lr_mult: 1
    decay_mult: 1
  }
  param {
    name: "conv1a_b"
    lr_mult: 2
    decay_mult: 0
  }
  convolution_param {
    num_output: 64
    weight_filler {
      type: "gaussian"
      std: 0.01
    }
    bias_filler {
      type: "constant"
      value: 0
    }
    pad_shape {
      dim: 1
      dim: 1
      dim: 1
    }
    kernel_shape {
      dim: 3
      dim: 3
      dim: 3
    }
    stride_shape {
      dim: 1
      dim: 1
      dim: 1
    }
  }
}
layer {
  name: "relu1a_pos"
  type: "ReLU"
  bottom: "conv1a_pos"
  top: "conv1a_pos"
}
layer {
  name: "pool1_pos"
  type: "NdPooling"
  bottom: "conv1a_pos"
  top: "pool1_pos"
  pooling_param {
    pool: MAX
    kernel_shape {
      dim: 1
      dim: 2
      dim: 2
    }
    stride_shape {
      dim: 1
      dim: 2
      dim: 2
    }
  }
}
layer {
  name: "conv2a_pos"
  type: "NdConvolution"
  bottom: "pool1_pos"
  top: "conv2a_pos"
  param {
    name: "conv2a_w"
    lr_mult: 1
    decay_mult: 1
  }
  param {
    name: "conv2a_b"
    lr_mult: 2
    decay_mult: 0
  }
  convolution_param {
    num_output: 128
    weight_filler {
      type: "gaussian"
      std: 0.01
    }
    bias_filler {
      type: "constant"
      value: 1
    }
    pad_shape {
      dim: 1
      dim: 1
      dim: 1
    }
    kernel_shape {
      dim: 3
      dim: 3
      dim: 3
    }
    stride_shape {
      dim: 1
      dim: 1
      dim: 1
    }
  }
}
layer {
  name: "relu2a_pos"
  type: "ReLU"
  bottom: "conv2a_pos"
  top: "conv2a_pos"
}
layer {
  name: "pool2_pos"
  type: "NdPooling"
  bottom: "conv2a_pos"
  top: "pool2_pos"
  pooling_param {
    pool: MAX
    kernel_shape {
      dim: 2
      dim: 2
      dim: 2
    }
    stride_shape {
      dim: 2
      dim: 2
      dim: 2
    }
  }
}
layer {
  name: "conv3a_pos"
  type: "NdConvolution"
  bottom: "pool2_pos"
  top: "conv3a_pos"
  param {
    name: "conv3a_w"
    lr_mult: 1
    decay_mult: 1
  }
  param {
    name: "conv3a_b"
    lr_mult: 2
    decay_mult: 0
  }
  convolution_param {
    num_output: 256
    weight_filler {
      type: "gaussian"
      std: 0.01
    }
    bias_filler {
      type: "constant"
      value: 1
    }
    pad_shape {
      dim: 1
      dim: 1
      dim: 1
    }
    kernel_shape {
      dim: 3
      dim: 3
      dim: 3
    }
    stride_shape {
      dim: 1
      dim: 1
      dim: 1
    }
  }
}
layer {
  name: "relu3a_pos"
  type: "ReLU"
  bottom: "conv3a_pos"
  top: "conv3a_pos"
}
layer {
  name: "pool3_pos"
  type: "NdPooling"
  bottom: "conv3a_pos"
  top: "pool3_pos"
  pooling_param {
    pool: MAX
    kernel_shape {
      dim: 2
      dim: 2
      dim: 2
    }
    stride_shape {
      dim: 2
      dim: 2
      dim: 2
    }
  }
}
layer {
  name: "conv4a_pos"
  type: "NdConvolution"
  bottom: "pool3_pos"
  top: "conv4a_pos"
  param {
    name: "conv4a_w"
    lr_mult: 1
    decay_mult: 1
  }
  param {
    name: "conv4a_b"
    lr_mult: 2
    decay_mult: 0
  }
  convolution_param {
    num_output: 256
    weight_filler {
      type: "gaussian"
      std: 0.01
    }
    bias_filler {
      type: "constant"
      value: 1
    }
    pad_shape {
      dim: 1
      dim: 1
      dim: 1
    }
    kernel_shape {
      dim: 3
      dim: 3
      dim: 3
    }
    stride_shape {
      dim: 1
      dim: 1
      dim: 1
    }
  }
}
layer {
  name: "relu4a_pos"
  type: "ReLU"
  bottom: "conv4a_pos"
  top: "conv4a_pos"
}
layer {
  name: "pool4_pos"
  type: "NdPooling"
  bottom: "conv4a_pos"
  top: "pool4_pos"
  pooling_param {
    pool: MAX
    kernel_shape {
      dim: 2
      dim: 2
      dim: 2
    }
    stride_shape {
      dim: 2
      dim: 2
      dim: 2
    }
  }
}
layer {
  name: "conv5a_pos"
  type: "NdConvolution"
  bottom: "pool4_pos"
  top: "conv5a_pos"
  param {
    name: "conv5a_w"
    lr_mult: 1
    decay_mult: 1
  }
  param {
    name: "conv5a_b"
    lr_mult: 2
    decay_mult: 0
  }
  convolution_param {
    num_output: 256
    weight_filler {
      type: "gaussian"
      std: 0.01
    }
    bias_filler {
      type: "constant"
      value: 1
    }
    pad_shape {
      dim: 1
      dim: 1
      dim: 1
    }
    kernel_shape {
      dim: 3
      dim: 3
      dim: 3
    }
    stride_shape {
      dim: 1
      dim: 1
      dim: 1
    }
  }
}
layer {
  name: "relu5a_pos"
  type: "ReLU"
  bottom: "conv5a_pos"
  top: "conv5a_pos"
}
layer {
  name: "pool5_pos"
  type: "NdPooling"
  bottom: "conv5a_pos"
  top: "pool5_pos"
  pooling_param {
    pool: MAX
    kernel_shape {
      dim: 2
      dim: 2
      dim: 2
    }
    stride_shape {
      dim: 2
      dim: 2
      dim: 2
    }
  }
}
layer {
  name: "fc6_pos"
  type: "InnerProduct"
  bottom: "pool5_pos"
  top: "fc6_pos"
  param {
    lr_mult: 1
    decay_mult: 1
  }
  param {
    lr_mult: 2
    decay_mult: 0
  }
  inner_product_param {
    num_output: 2048
    weight_filler {
      type: "gaussian"
      std: 0.005
    }
    bias_filler {
      type: "constant"
      value: 1
    }
  }
}
layer {
  name: "relu6_pos"
  type: "ReLU"
  bottom: "fc6_pos"
  top: "fc6_pos"
}
layer {
  name: "drop6_pos"
  type: "Dropout"
  bottom: "fc6_pos"
  top: "fc6_pos"
  dropout_param {
    dropout_ratio: 0.5
  }
}
layer {
  name: "fc7_pos"
  type: "InnerProduct"
  bottom: "fc6_pos"
  top: "fc7_pos"
  param {
    lr_mult: 1
    decay_mult: 1
  }
  param {
    lr_mult: 2
    decay_mult: 0
  }
  inner_product_param {
    num_output: 2048
    weight_filler {
      type: "gaussian"
      std: 0.005
    }
    bias_filler {
      type: "constant"
      value: 1
    }
  }
}
layer {
  name: "relu7_pos"
  type: "ReLU"
  bottom: "fc7_pos"
  top: "fc7_pos"
}
layer {
  name: "drop7_pos"
  type: "Dropout"
  bottom: "fc7_pos"
  top: "fc7_pos"
  dropout_param {
    dropout_ratio: 0.5
  }
}
layer {
  name: "conv1a_neg"
  type: "NdConvolution"
  bottom: "negative"
  top: "conv1a_neg"
  param {
    name: "conv1a_w"
    lr_mult: 1
    decay_mult: 1
  }
  param {
    name: "conv1a_b"
    lr_mult: 2
    decay_mult: 0
  }
  convolution_param {
    num_output: 64
    weight_filler {
      type: "gaussian"
      std: 0.01
    }
    bias_filler {
      type: "constant"
      value: 0
    }
    pad_shape {
      dim: 1
      dim: 1
      dim: 1
    }
    kernel_shape {
      dim: 3
      dim: 3
      dim: 3
    }
    stride_shape {
      dim: 1
      dim: 1
      dim: 1
    }
  }
}
layer {
  name: "relu1a_neg"
  type: "ReLU"
  bottom: "conv1a_neg"
  top: "conv1a_neg"
}
layer {
  name: "pool1_neg"
  type: "NdPooling"
  bottom: "conv1a_neg"
  top: "pool1_neg"
  pooling_param {
    pool: MAX
    kernel_shape {
      dim: 1
      dim: 2
      dim: 2
    }
    stride_shape {
      dim: 1
      dim: 2
      dim: 2
    }
  }
}
layer {
  name: "conv2a_neg"
  type: "NdConvolution"
  bottom: "pool1_neg"
  top: "conv2a_neg"
  param {
    name: "conv2a_w"
    lr_mult: 1
    decay_mult: 1
  }
  param {
    name: "conv2a_b"
    lr_mult: 2
    decay_mult: 0
  }
  convolution_param {
    num_output: 128
    weight_filler {
      type: "gaussian"
      std: 0.01
    }
    bias_filler {
      type: "constant"
      value: 1
    }
    pad_shape {
      dim: 1
      dim: 1
      dim: 1
    }
    kernel_shape {
      dim: 3
      dim: 3
      dim: 3
    }
    stride_shape {
      dim: 1
      dim: 1
      dim: 1
    }
  }
}
layer {
  name: "relu2a_neg"
  type: "ReLU"
  bottom: "conv2a_neg"
  top: "conv2a_neg"
}
layer {
  name: "pool2_neg"
  type: "NdPooling"
  bottom: "conv2a_neg"
  top: "pool2_neg"
  pooling_param {
    pool: MAX
    kernel_shape {
      dim: 2
      dim: 2
      dim: 2
    }
    stride_shape {
      dim: 2
      dim: 2
      dim: 2
    }
  }
}
layer {
  name: "conv3a_neg"
  type: "NdConvolution"
  bottom: "pool2_neg"
  top: "conv3a_neg"
  param {
    name: "conv3a_w"
    lr_mult: 1
    decay_mult: 1
  }
  param {
    name: "conv3a_b"
    lr_mult: 2
    decay_mult: 0
  }
  convolution_param {
    num_output: 256
    weight_filler {
      type: "gaussian"
      std: 0.01
    }
    bias_filler {
      type: "constant"
      value: 1
    }
    pad_shape {
      dim: 1
      dim: 1
      dim: 1
    }
    kernel_shape {
      dim: 3
      dim: 3
      dim: 3
    }
    stride_shape {
      dim: 1
      dim: 1
      dim: 1
    }
  }
}
layer {
  name: "relu3a_neg"
  type: "ReLU"
  bottom: "conv3a_neg"
  top: "conv3a_neg"
}
layer {
  name: "pool3_neg"
  type: "NdPooling"
  bottom: "conv3a_neg"
  top: "pool3_neg"
  pooling_param {
    pool: MAX
    kernel_shape {
      dim: 2
      dim: 2
      dim: 2
    }
    stride_shape {
      dim: 2
      dim: 2
      dim: 2
    }
  }
}
layer {
  name: "conv4a_neg"
  type: "NdConvolution"
  bottom: "pool3_neg"
  top: "conv4a_neg"
  param {
    name: "conv4a_w"
    lr_mult: 1
    decay_mult: 1
  }
  param {
    name: "conv4a_b"
    lr_mult: 2
    decay_mult: 0
  }
  convolution_param {
    num_output: 256
    weight_filler {
      type: "gaussian"
      std: 0.01
    }
    bias_filler {
      type: "constant"
      value: 1
    }
    pad_shape {
      dim: 1
      dim: 1
      dim: 1
    }
    kernel_shape {
      dim: 3
      dim: 3
      dim: 3
    }
    stride_shape {
      dim: 1
      dim: 1
      dim: 1
    }
  }
}
layer {
  name: "relu4a_neg"
  type: "ReLU"
  bottom: "conv4a_neg"
  top: "conv4a_neg"
}
layer {
  name: "pool4_neg"
  type: "NdPooling"
  bottom: "conv4a_neg"
  top: "pool4_neg"
  pooling_param {
    pool: MAX
    kernel_shape {
      dim: 2
      dim: 2
      dim: 2
    }
    stride_shape {
      dim: 2
      dim: 2
      dim: 2
    }
  }
}
layer {
  name: "conv5a_neg"
  type: "NdConvolution"
  bottom: "pool4_neg"
  top: "conv5a_neg"
  param {
    name: "conv5a_w"
    lr_mult: 1
    decay_mult: 1
  }
  param {
    name: "conv5a_b"
    lr_mult: 2
    decay_mult: 0
  }
  convolution_param {
    num_output: 256
    weight_filler {
      type: "gaussian"
      std: 0.01
    }
    bias_filler {
      type: "constant"
      value: 1
    }
    pad_shape {
      dim: 1
      dim: 1
      dim: 1
    }
    kernel_shape {
      dim: 3
      dim: 3
      dim: 3
    }
    stride_shape {
      dim: 1
      dim: 1
      dim: 1
    }
  }
}
layer {
  name: "relu5a_neg"
  type: "ReLU"
  bottom: "conv5a_neg"
  top: "conv5a_neg"
}
layer {
  name: "pool5_neg"
  type: "NdPooling"
  bottom: "conv5a_neg"
  top: "pool5_neg"
  pooling_param {
    pool: MAX
    kernel_shape {
      dim: 2
      dim: 2
      dim: 2
    }
    stride_shape {
      dim: 2
      dim: 2
      dim: 2
    }
  }
}
layer {
  name: "fc6_neg"
  type: "InnerProduct"
  bottom: "pool5_neg"
  top: "fc6_neg"
  param {
    lr_mult: 1
    decay_mult: 1
  }
  param {
    lr_mult: 2
    decay_mult: 0
  }
  inner_product_param {
    num_output: 2048
    weight_filler {
      type: "gaussian"
      std: 0.005
    }
    bias_filler {
      type: "constant"
      value: 1
    }
  }
}
layer {
  name: "relu6_neg"
  type: "ReLU"
  bottom: "fc6_neg"
  top: "fc6_neg"
}
layer {
  name: "drop6_neg"
  type: "Dropout"
  bottom: "fc6_neg"
  top: "fc6_neg"
  dropout_param {
    dropout_ratio: 0.5
  }
}
layer {
  name: "fc7_neg"
  type: "InnerProduct"
  bottom: "fc6_neg"
  top: "fc7_neg"
  param {
    lr_mult: 1
    decay_mult: 1
  }
  param {
    lr_mult: 2
    decay_mult: 0
  }
  inner_product_param {
    num_output: 2048
    weight_filler {
      type: "gaussian"
      std: 0.005
    }
    bias_filler {
      type: "constant"
      value: 1
    }
  }
}
layer {
  name: "relu7_neg"
  type: "ReLU"
  bottom: "fc7_neg"
  top: "fc7_neg"
}
layer {
  name: "drop7_neg"
  type: "Dropout"
  bottom: "fc7_neg"
  top: "fc7_neg"
  dropout_param {
    dropout_ratio: 0.5
  }
}
layer {
  name: "loss"
  type: "TripletLoss"
  bottom: "fc7"
  bottom: "fc7_pos"
  bottom: "fc7_neg"
  top: "loss"
  threshold_param {
    threshold: 1
  }
}
I0407 11:01:01.180804  6158 layer_factory.hpp:77] Creating layer data
I0407 11:01:01.180878  6158 net.cpp:100] Creating Layer data
I0407 11:01:01.180886  6158 net.cpp:408] data -> triplet
I0407 11:01:01.213165  6166 db_lmdb.cpp:35] Opened lmdb /data/leo-data/Synthetic/LMDB/val
I0407 11:01:01.334048  6158 data_layer.cpp:41] output data size: 1,144,112,112
I0407 11:01:01.351596  6158 net.cpp:150] Setting up data
I0407 11:01:01.351634  6158 net.cpp:157] Top shape: 1 144 112 112 (1806336)
I0407 11:01:01.351639  6158 net.cpp:165] Memory required for data: 7225344
I0407 11:01:01.351645  6158 layer_factory.hpp:77] Creating layer slicer
I0407 11:01:01.351696  6158 net.cpp:100] Creating Layer slicer
I0407 11:01:01.351708  6158 net.cpp:434] slicer <- triplet
I0407 11:01:01.351722  6158 net.cpp:408] slicer -> anchor_stacked
I0407 11:01:01.351738  6158 net.cpp:408] slicer -> positive_stacked
I0407 11:01:01.351752  6158 net.cpp:408] slicer -> negative_stacked
I0407 11:01:01.351907  6158 net.cpp:150] Setting up slicer
I0407 11:01:01.351918  6158 net.cpp:157] Top shape: 1 48 112 112 (602112)
I0407 11:01:01.351923  6158 net.cpp:157] Top shape: 1 48 112 112 (602112)
I0407 11:01:01.351927  6158 net.cpp:157] Top shape: 1 48 112 112 (602112)
I0407 11:01:01.351932  6158 net.cpp:165] Memory required for data: 14450688
I0407 11:01:01.351938  6158 layer_factory.hpp:77] Creating layer reshape_anchor
I0407 11:01:01.351951  6158 net.cpp:100] Creating Layer reshape_anchor
I0407 11:01:01.351958  6158 net.cpp:434] reshape_anchor <- anchor_stacked
I0407 11:01:01.351968  6158 net.cpp:408] reshape_anchor -> anchor
I0407 11:01:01.352022  6158 net.cpp:150] Setting up reshape_anchor
I0407 11:01:01.352035  6158 net.cpp:157] Top shape: 1 3 16 112 112 (602112)
I0407 11:01:01.352043  6158 net.cpp:165] Memory required for data: 16859136
I0407 11:01:01.352049  6158 layer_factory.hpp:77] Creating layer reshape_positive
I0407 11:01:01.352061  6158 net.cpp:100] Creating Layer reshape_positive
I0407 11:01:01.352093  6158 net.cpp:434] reshape_positive <- positive_stacked
I0407 11:01:01.352108  6158 net.cpp:408] reshape_positive -> positive
I0407 11:01:01.352162  6158 net.cpp:150] Setting up reshape_positive
I0407 11:01:01.352176  6158 net.cpp:157] Top shape: 1 3 16 112 112 (602112)
I0407 11:01:01.352183  6158 net.cpp:165] Memory required for data: 19267584
I0407 11:01:01.352190  6158 layer_factory.hpp:77] Creating layer reshape_negative
I0407 11:01:01.352200  6158 net.cpp:100] Creating Layer reshape_negative
I0407 11:01:01.352208  6158 net.cpp:434] reshape_negative <- negative_stacked
I0407 11:01:01.352218  6158 net.cpp:408] reshape_negative -> negative
I0407 11:01:01.352268  6158 net.cpp:150] Setting up reshape_negative
I0407 11:01:01.352298  6158 net.cpp:157] Top shape: 1 3 16 112 112 (602112)
I0407 11:01:01.352308  6158 net.cpp:165] Memory required for data: 21676032
I0407 11:01:01.352313  6158 layer_factory.hpp:77] Creating layer conv1a
I0407 11:01:01.352330  6158 net.cpp:100] Creating Layer conv1a
I0407 11:01:01.352336  6158 net.cpp:434] conv1a <- anchor
I0407 11:01:01.352347  6158 net.cpp:408] conv1a -> conv1a
I0407 11:01:01.358211  6158 net.cpp:150] Setting up conv1a
I0407 11:01:01.358245  6158 net.cpp:157] Top shape: 1 64 16 112 112 (12845056)
I0407 11:01:01.358252  6158 net.cpp:165] Memory required for data: 73056256
I0407 11:01:01.358270  6158 layer_factory.hpp:77] Creating layer relu1a
I0407 11:01:01.358286  6158 net.cpp:100] Creating Layer relu1a
I0407 11:01:01.358294  6158 net.cpp:434] relu1a <- conv1a
I0407 11:01:01.358302  6158 net.cpp:395] relu1a -> conv1a (in-place)
I0407 11:01:01.358588  6158 net.cpp:150] Setting up relu1a
I0407 11:01:01.358602  6158 net.cpp:157] Top shape: 1 64 16 112 112 (12845056)
I0407 11:01:01.358608  6158 net.cpp:165] Memory required for data: 124436480
I0407 11:01:01.358613  6158 layer_factory.hpp:77] Creating layer pool1
I0407 11:01:01.358625  6158 net.cpp:100] Creating Layer pool1
I0407 11:01:01.358633  6158 net.cpp:434] pool1 <- conv1a
I0407 11:01:01.358641  6158 net.cpp:408] pool1 -> pool1
I0407 11:01:01.359817  6158 net.cpp:150] Setting up pool1
I0407 11:01:01.359835  6158 net.cpp:157] Top shape: 1 64 16 56 56 (3211264)
I0407 11:01:01.359841  6158 net.cpp:165] Memory required for data: 137281536
I0407 11:01:01.359848  6158 layer_factory.hpp:77] Creating layer conv2a
I0407 11:01:01.359865  6158 net.cpp:100] Creating Layer conv2a
I0407 11:01:01.359874  6158 net.cpp:434] conv2a <- pool1
I0407 11:01:01.359884  6158 net.cpp:408] conv2a -> conv2a
I0407 11:01:01.371840  6158 net.cpp:150] Setting up conv2a
I0407 11:01:01.371870  6158 net.cpp:157] Top shape: 1 128 16 56 56 (6422528)
I0407 11:01:01.371875  6158 net.cpp:165] Memory required for data: 162971648
I0407 11:01:01.371908  6158 layer_factory.hpp:77] Creating layer relu2a
I0407 11:01:01.371922  6158 net.cpp:100] Creating Layer relu2a
I0407 11:01:01.371927  6158 net.cpp:434] relu2a <- conv2a
I0407 11:01:01.371934  6158 net.cpp:395] relu2a -> conv2a (in-place)
I0407 11:01:01.378448  6158 net.cpp:150] Setting up relu2a
I0407 11:01:01.378469  6158 net.cpp:157] Top shape: 1 128 16 56 56 (6422528)
I0407 11:01:01.378474  6158 net.cpp:165] Memory required for data: 188661760
I0407 11:01:01.378480  6158 layer_factory.hpp:77] Creating layer pool2
I0407 11:01:01.378494  6158 net.cpp:100] Creating Layer pool2
I0407 11:01:01.378499  6158 net.cpp:434] pool2 <- conv2a
I0407 11:01:01.378507  6158 net.cpp:408] pool2 -> pool2
I0407 11:01:01.381750  6158 net.cpp:150] Setting up pool2
I0407 11:01:01.381768  6158 net.cpp:157] Top shape: 1 128 8 28 28 (802816)
I0407 11:01:01.381774  6158 net.cpp:165] Memory required for data: 191873024
I0407 11:01:01.381778  6158 layer_factory.hpp:77] Creating layer conv3a
I0407 11:01:01.381793  6158 net.cpp:100] Creating Layer conv3a
I0407 11:01:01.381798  6158 net.cpp:434] conv3a <- pool2
I0407 11:01:01.381805  6158 net.cpp:408] conv3a -> conv3a
I0407 11:01:01.416725  6158 net.cpp:150] Setting up conv3a
I0407 11:01:01.416759  6158 net.cpp:157] Top shape: 1 256 8 28 28 (1605632)
I0407 11:01:01.416764  6158 net.cpp:165] Memory required for data: 198295552
I0407 11:01:01.416779  6158 layer_factory.hpp:77] Creating layer relu3a
I0407 11:01:01.416791  6158 net.cpp:100] Creating Layer relu3a
I0407 11:01:01.416797  6158 net.cpp:434] relu3a <- conv3a
I0407 11:01:01.416805  6158 net.cpp:395] relu3a -> conv3a (in-place)
I0407 11:01:01.417742  6158 net.cpp:150] Setting up relu3a
I0407 11:01:01.417755  6158 net.cpp:157] Top shape: 1 256 8 28 28 (1605632)
I0407 11:01:01.417759  6158 net.cpp:165] Memory required for data: 204718080
I0407 11:01:01.417764  6158 layer_factory.hpp:77] Creating layer pool3
I0407 11:01:01.417775  6158 net.cpp:100] Creating Layer pool3
I0407 11:01:01.417780  6158 net.cpp:434] pool3 <- conv3a
I0407 11:01:01.417788  6158 net.cpp:408] pool3 -> pool3
I0407 11:01:01.418045  6158 net.cpp:150] Setting up pool3
I0407 11:01:01.418056  6158 net.cpp:157] Top shape: 1 256 4 14 14 (200704)
I0407 11:01:01.418059  6158 net.cpp:165] Memory required for data: 205520896
I0407 11:01:01.418063  6158 layer_factory.hpp:77] Creating layer conv4a
I0407 11:01:01.418073  6158 net.cpp:100] Creating Layer conv4a
I0407 11:01:01.418078  6158 net.cpp:434] conv4a <- pool3
I0407 11:01:01.418087  6158 net.cpp:408] conv4a -> conv4a
I0407 11:01:01.485337  6158 net.cpp:150] Setting up conv4a
I0407 11:01:01.485386  6158 net.cpp:157] Top shape: 1 256 4 14 14 (200704)
I0407 11:01:01.485391  6158 net.cpp:165] Memory required for data: 206323712
I0407 11:01:01.485406  6158 layer_factory.hpp:77] Creating layer relu4a
I0407 11:01:01.485421  6158 net.cpp:100] Creating Layer relu4a
I0407 11:01:01.485429  6158 net.cpp:434] relu4a <- conv4a
I0407 11:01:01.485436  6158 net.cpp:395] relu4a -> conv4a (in-place)
I0407 11:01:01.486634  6158 net.cpp:150] Setting up relu4a
I0407 11:01:01.486654  6158 net.cpp:157] Top shape: 1 256 4 14 14 (200704)
I0407 11:01:01.486660  6158 net.cpp:165] Memory required for data: 207126528
I0407 11:01:01.486665  6158 layer_factory.hpp:77] Creating layer pool4
I0407 11:01:01.486683  6158 net.cpp:100] Creating Layer pool4
I0407 11:01:01.486687  6158 net.cpp:434] pool4 <- conv4a
I0407 11:01:01.486696  6158 net.cpp:408] pool4 -> pool4
I0407 11:01:01.486948  6158 net.cpp:150] Setting up pool4
I0407 11:01:01.486956  6158 net.cpp:157] Top shape: 1 256 2 7 7 (25088)
I0407 11:01:01.486960  6158 net.cpp:165] Memory required for data: 207226880
I0407 11:01:01.486964  6158 layer_factory.hpp:77] Creating layer conv5a
I0407 11:01:01.486975  6158 net.cpp:100] Creating Layer conv5a
I0407 11:01:01.486979  6158 net.cpp:434] conv5a <- pool4
I0407 11:01:01.486986  6158 net.cpp:408] conv5a -> conv5a
I0407 11:01:01.564573  6158 net.cpp:150] Setting up conv5a
I0407 11:01:01.564604  6158 net.cpp:157] Top shape: 1 256 2 7 7 (25088)
I0407 11:01:01.564638  6158 net.cpp:165] Memory required for data: 207327232
I0407 11:01:01.564669  6158 layer_factory.hpp:77] Creating layer relu5a
I0407 11:01:01.564687  6158 net.cpp:100] Creating Layer relu5a
I0407 11:01:01.564694  6158 net.cpp:434] relu5a <- conv5a
I0407 11:01:01.564703  6158 net.cpp:395] relu5a -> conv5a (in-place)
I0407 11:01:01.565762  6158 net.cpp:150] Setting up relu5a
I0407 11:01:01.565781  6158 net.cpp:157] Top shape: 1 256 2 7 7 (25088)
I0407 11:01:01.565791  6158 net.cpp:165] Memory required for data: 207427584
I0407 11:01:01.565798  6158 layer_factory.hpp:77] Creating layer pool5
I0407 11:01:01.565814  6158 net.cpp:100] Creating Layer pool5
I0407 11:01:01.565822  6158 net.cpp:434] pool5 <- conv5a
I0407 11:01:01.565835  6158 net.cpp:408] pool5 -> pool5
I0407 11:01:01.566217  6158 net.cpp:150] Setting up pool5
I0407 11:01:01.566236  6158 net.cpp:157] Top shape: 1 256 1 4 4 (4096)
I0407 11:01:01.566242  6158 net.cpp:165] Memory required for data: 207443968
I0407 11:01:01.566251  6158 layer_factory.hpp:77] Creating layer fc6
I0407 11:01:01.566268  6158 net.cpp:100] Creating Layer fc6
I0407 11:01:01.566277  6158 net.cpp:434] fc6 <- pool5
I0407 11:01:01.566287  6158 net.cpp:408] fc6 -> fc6
I0407 11:01:01.870568  6158 net.cpp:150] Setting up fc6
I0407 11:01:01.870602  6158 net.cpp:157] Top shape: 1 2048 (2048)
I0407 11:01:01.870607  6158 net.cpp:165] Memory required for data: 207452160
I0407 11:01:01.870618  6158 layer_factory.hpp:77] Creating layer relu6
I0407 11:01:01.870630  6158 net.cpp:100] Creating Layer relu6
I0407 11:01:01.870635  6158 net.cpp:434] relu6 <- fc6
I0407 11:01:01.870643  6158 net.cpp:395] relu6 -> fc6 (in-place)
I0407 11:01:01.871855  6158 net.cpp:150] Setting up relu6
I0407 11:01:01.871871  6158 net.cpp:157] Top shape: 1 2048 (2048)
I0407 11:01:01.871876  6158 net.cpp:165] Memory required for data: 207460352
I0407 11:01:01.871881  6158 layer_factory.hpp:77] Creating layer drop6
I0407 11:01:01.871889  6158 net.cpp:100] Creating Layer drop6
I0407 11:01:01.871893  6158 net.cpp:434] drop6 <- fc6
I0407 11:01:01.871899  6158 net.cpp:395] drop6 -> fc6 (in-place)
I0407 11:01:01.871948  6158 net.cpp:150] Setting up drop6
I0407 11:01:01.871955  6158 net.cpp:157] Top shape: 1 2048 (2048)
I0407 11:01:01.871959  6158 net.cpp:165] Memory required for data: 207468544
I0407 11:01:01.871963  6158 layer_factory.hpp:77] Creating layer fc7
I0407 11:01:01.871978  6158 net.cpp:100] Creating Layer fc7
I0407 11:01:01.871984  6158 net.cpp:434] fc7 <- fc6
I0407 11:01:01.871991  6158 net.cpp:408] fc7 -> fc7
I0407 11:01:02.026332  6158 net.cpp:150] Setting up fc7
I0407 11:01:02.026367  6158 net.cpp:157] Top shape: 1 2048 (2048)
I0407 11:01:02.026372  6158 net.cpp:165] Memory required for data: 207476736
I0407 11:01:02.026384  6158 layer_factory.hpp:77] Creating layer relu7
I0407 11:01:02.026396  6158 net.cpp:100] Creating Layer relu7
I0407 11:01:02.026401  6158 net.cpp:434] relu7 <- fc7
I0407 11:01:02.026408  6158 net.cpp:395] relu7 -> fc7 (in-place)
I0407 11:01:02.026726  6158 net.cpp:150] Setting up relu7
I0407 11:01:02.026739  6158 net.cpp:157] Top shape: 1 2048 (2048)
I0407 11:01:02.026743  6158 net.cpp:165] Memory required for data: 207484928
I0407 11:01:02.026748  6158 layer_factory.hpp:77] Creating layer drop7
I0407 11:01:02.026762  6158 net.cpp:100] Creating Layer drop7
I0407 11:01:02.026767  6158 net.cpp:434] drop7 <- fc7
I0407 11:01:02.026772  6158 net.cpp:395] drop7 -> fc7 (in-place)
I0407 11:01:02.026813  6158 net.cpp:150] Setting up drop7
I0407 11:01:02.026821  6158 net.cpp:157] Top shape: 1 2048 (2048)
I0407 11:01:02.026824  6158 net.cpp:165] Memory required for data: 207493120
I0407 11:01:02.026829  6158 layer_factory.hpp:77] Creating layer conv1a_pos
I0407 11:01:02.026839  6158 net.cpp:100] Creating Layer conv1a_pos
I0407 11:01:02.026845  6158 net.cpp:434] conv1a_pos <- positive
I0407 11:01:02.026854  6158 net.cpp:408] conv1a_pos -> conv1a_pos
I0407 11:01:02.030349  6158 net.cpp:150] Setting up conv1a_pos
I0407 11:01:02.030370  6158 net.cpp:157] Top shape: 1 64 16 112 112 (12845056)
I0407 11:01:02.030397  6158 net.cpp:165] Memory required for data: 258873344
I0407 11:01:02.030405  6158 net.cpp:493] Sharing parameters 'conv1a_w' owned by layer 'conv1a', param index 0
I0407 11:01:02.030411  6158 net.cpp:493] Sharing parameters 'conv1a_b' owned by layer 'conv1a', param index 1
I0407 11:01:02.030414  6158 layer_factory.hpp:77] Creating layer relu1a_pos
I0407 11:01:02.030426  6158 net.cpp:100] Creating Layer relu1a_pos
I0407 11:01:02.030431  6158 net.cpp:434] relu1a_pos <- conv1a_pos
I0407 11:01:02.030437  6158 net.cpp:395] relu1a_pos -> conv1a_pos (in-place)
I0407 11:01:02.032039  6158 net.cpp:150] Setting up relu1a_pos
I0407 11:01:02.032057  6158 net.cpp:157] Top shape: 1 64 16 112 112 (12845056)
I0407 11:01:02.032060  6158 net.cpp:165] Memory required for data: 310253568
I0407 11:01:02.032064  6158 layer_factory.hpp:77] Creating layer pool1_pos
I0407 11:01:02.032074  6158 net.cpp:100] Creating Layer pool1_pos
I0407 11:01:02.032078  6158 net.cpp:434] pool1_pos <- conv1a_pos
I0407 11:01:02.032085  6158 net.cpp:408] pool1_pos -> pool1_pos
I0407 11:01:02.032341  6158 net.cpp:150] Setting up pool1_pos
I0407 11:01:02.032352  6158 net.cpp:157] Top shape: 1 64 16 56 56 (3211264)
I0407 11:01:02.032356  6158 net.cpp:165] Memory required for data: 323098624
I0407 11:01:02.032359  6158 layer_factory.hpp:77] Creating layer conv2a_pos
I0407 11:01:02.032371  6158 net.cpp:100] Creating Layer conv2a_pos
I0407 11:01:02.032374  6158 net.cpp:434] conv2a_pos <- pool1_pos
I0407 11:01:02.032382  6158 net.cpp:408] conv2a_pos -> conv2a_pos
I0407 11:01:02.047170  6158 net.cpp:150] Setting up conv2a_pos
I0407 11:01:02.047197  6158 net.cpp:157] Top shape: 1 128 16 56 56 (6422528)
I0407 11:01:02.047202  6158 net.cpp:165] Memory required for data: 348788736
I0407 11:01:02.047214  6158 net.cpp:493] Sharing parameters 'conv2a_w' owned by layer 'conv2a', param index 0
I0407 11:01:02.047220  6158 net.cpp:493] Sharing parameters 'conv2a_b' owned by layer 'conv2a', param index 1
I0407 11:01:02.047225  6158 layer_factory.hpp:77] Creating layer relu2a_pos
I0407 11:01:02.047245  6158 net.cpp:100] Creating Layer relu2a_pos
I0407 11:01:02.047251  6158 net.cpp:434] relu2a_pos <- conv2a_pos
I0407 11:01:02.047260  6158 net.cpp:395] relu2a_pos -> conv2a_pos (in-place)
I0407 11:01:02.047472  6158 net.cpp:150] Setting up relu2a_pos
I0407 11:01:02.047484  6158 net.cpp:157] Top shape: 1 128 16 56 56 (6422528)
I0407 11:01:02.047488  6158 net.cpp:165] Memory required for data: 374478848
I0407 11:01:02.047494  6158 layer_factory.hpp:77] Creating layer pool2_pos
I0407 11:01:02.047504  6158 net.cpp:100] Creating Layer pool2_pos
I0407 11:01:02.047508  6158 net.cpp:434] pool2_pos <- conv2a_pos
I0407 11:01:02.047514  6158 net.cpp:408] pool2_pos -> pool2_pos
I0407 11:01:02.050745  6158 net.cpp:150] Setting up pool2_pos
I0407 11:01:02.050762  6158 net.cpp:157] Top shape: 1 128 8 28 28 (802816)
I0407 11:01:02.050767  6158 net.cpp:165] Memory required for data: 377690112
I0407 11:01:02.050771  6158 layer_factory.hpp:77] Creating layer conv3a_pos
I0407 11:01:02.050794  6158 net.cpp:100] Creating Layer conv3a_pos
I0407 11:01:02.050801  6158 net.cpp:434] conv3a_pos <- pool2_pos
I0407 11:01:02.050809  6158 net.cpp:408] conv3a_pos -> conv3a_pos
I0407 11:01:02.084033  6158 net.cpp:150] Setting up conv3a_pos
I0407 11:01:02.084054  6158 net.cpp:157] Top shape: 1 256 8 28 28 (1605632)
I0407 11:01:02.084059  6158 net.cpp:165] Memory required for data: 384112640
I0407 11:01:02.084064  6158 net.cpp:493] Sharing parameters 'conv3a_w' owned by layer 'conv3a', param index 0
I0407 11:01:02.084070  6158 net.cpp:493] Sharing parameters 'conv3a_b' owned by layer 'conv3a', param index 1
I0407 11:01:02.084074  6158 layer_factory.hpp:77] Creating layer relu3a_pos
I0407 11:01:02.084085  6158 net.cpp:100] Creating Layer relu3a_pos
I0407 11:01:02.084094  6158 net.cpp:434] relu3a_pos <- conv3a_pos
I0407 11:01:02.084102  6158 net.cpp:395] relu3a_pos -> conv3a_pos (in-place)
I0407 11:01:02.084317  6158 net.cpp:150] Setting up relu3a_pos
I0407 11:01:02.084347  6158 net.cpp:157] Top shape: 1 256 8 28 28 (1605632)
I0407 11:01:02.084350  6158 net.cpp:165] Memory required for data: 390535168
I0407 11:01:02.084354  6158 layer_factory.hpp:77] Creating layer pool3_pos
I0407 11:01:02.084365  6158 net.cpp:100] Creating Layer pool3_pos
I0407 11:01:02.084370  6158 net.cpp:434] pool3_pos <- conv3a_pos
I0407 11:01:02.084378  6158 net.cpp:408] pool3_pos -> pool3_pos
I0407 11:01:02.085374  6158 net.cpp:150] Setting up pool3_pos
I0407 11:01:02.085388  6158 net.cpp:157] Top shape: 1 256 4 14 14 (200704)
I0407 11:01:02.085392  6158 net.cpp:165] Memory required for data: 391337984
I0407 11:01:02.085397  6158 layer_factory.hpp:77] Creating layer conv4a_pos
I0407 11:01:02.085407  6158 net.cpp:100] Creating Layer conv4a_pos
I0407 11:01:02.085412  6158 net.cpp:434] conv4a_pos <- pool3_pos
I0407 11:01:02.085420  6158 net.cpp:408] conv4a_pos -> conv4a_pos
I0407 11:01:02.152030  6158 net.cpp:150] Setting up conv4a_pos
I0407 11:01:02.152060  6158 net.cpp:157] Top shape: 1 256 4 14 14 (200704)
I0407 11:01:02.152065  6158 net.cpp:165] Memory required for data: 392140800
I0407 11:01:02.152072  6158 net.cpp:493] Sharing parameters 'conv4a_w' owned by layer 'conv4a', param index 0
I0407 11:01:02.152078  6158 net.cpp:493] Sharing parameters 'conv4a_b' owned by layer 'conv4a', param index 1
I0407 11:01:02.152082  6158 layer_factory.hpp:77] Creating layer relu4a_pos
I0407 11:01:02.152093  6158 net.cpp:100] Creating Layer relu4a_pos
I0407 11:01:02.152098  6158 net.cpp:434] relu4a_pos <- conv4a_pos
I0407 11:01:02.152106  6158 net.cpp:395] relu4a_pos -> conv4a_pos (in-place)
I0407 11:01:02.152313  6158 net.cpp:150] Setting up relu4a_pos
I0407 11:01:02.152328  6158 net.cpp:157] Top shape: 1 256 4 14 14 (200704)
I0407 11:01:02.152333  6158 net.cpp:165] Memory required for data: 392943616
I0407 11:01:02.152339  6158 layer_factory.hpp:77] Creating layer pool4_pos
I0407 11:01:02.152360  6158 net.cpp:100] Creating Layer pool4_pos
I0407 11:01:02.152365  6158 net.cpp:434] pool4_pos <- conv4a_pos
I0407 11:01:02.152374  6158 net.cpp:408] pool4_pos -> pool4_pos
I0407 11:01:02.153450  6158 net.cpp:150] Setting up pool4_pos
I0407 11:01:02.153478  6158 net.cpp:157] Top shape: 1 256 2 7 7 (25088)
I0407 11:01:02.153486  6158 net.cpp:165] Memory required for data: 393043968
I0407 11:01:02.153496  6158 layer_factory.hpp:77] Creating layer conv5a_pos
I0407 11:01:02.153522  6158 net.cpp:100] Creating Layer conv5a_pos
I0407 11:01:02.153530  6158 net.cpp:434] conv5a_pos <- pool4_pos
I0407 11:01:02.153548  6158 net.cpp:408] conv5a_pos -> conv5a_pos
I0407 11:01:02.233446  6158 net.cpp:150] Setting up conv5a_pos
I0407 11:01:02.233479  6158 net.cpp:157] Top shape: 1 256 2 7 7 (25088)
I0407 11:01:02.233484  6158 net.cpp:165] Memory required for data: 393144320
I0407 11:01:02.233496  6158 net.cpp:493] Sharing parameters 'conv5a_w' owned by layer 'conv5a', param index 0
I0407 11:01:02.233505  6158 net.cpp:493] Sharing parameters 'conv5a_b' owned by layer 'conv5a', param index 1
I0407 11:01:02.233508  6158 layer_factory.hpp:77] Creating layer relu5a_pos
I0407 11:01:02.233522  6158 net.cpp:100] Creating Layer relu5a_pos
I0407 11:01:02.233531  6158 net.cpp:434] relu5a_pos <- conv5a_pos
I0407 11:01:02.233541  6158 net.cpp:395] relu5a_pos -> conv5a_pos (in-place)
I0407 11:01:02.234504  6158 net.cpp:150] Setting up relu5a_pos
I0407 11:01:02.234519  6158 net.cpp:157] Top shape: 1 256 2 7 7 (25088)
I0407 11:01:02.234524  6158 net.cpp:165] Memory required for data: 393244672
I0407 11:01:02.234527  6158 layer_factory.hpp:77] Creating layer pool5_pos
I0407 11:01:02.234539  6158 net.cpp:100] Creating Layer pool5_pos
I0407 11:01:02.234542  6158 net.cpp:434] pool5_pos <- conv5a_pos
I0407 11:01:02.234552  6158 net.cpp:408] pool5_pos -> pool5_pos
I0407 11:01:02.235565  6158 net.cpp:150] Setting up pool5_pos
I0407 11:01:02.235580  6158 net.cpp:157] Top shape: 1 256 1 4 4 (4096)
I0407 11:01:02.235584  6158 net.cpp:165] Memory required for data: 393261056
I0407 11:01:02.235589  6158 layer_factory.hpp:77] Creating layer fc6_pos
I0407 11:01:02.235627  6158 net.cpp:100] Creating Layer fc6_pos
I0407 11:01:02.235632  6158 net.cpp:434] fc6_pos <- pool5_pos
I0407 11:01:02.235643  6158 net.cpp:408] fc6_pos -> fc6_pos
I0407 11:01:02.521180  6158 net.cpp:150] Setting up fc6_pos
I0407 11:01:02.521212  6158 net.cpp:157] Top shape: 1 2048 (2048)
I0407 11:01:02.521219  6158 net.cpp:165] Memory required for data: 393269248
I0407 11:01:02.521229  6158 layer_factory.hpp:77] Creating layer relu6_pos
I0407 11:01:02.521240  6158 net.cpp:100] Creating Layer relu6_pos
I0407 11:01:02.521246  6158 net.cpp:434] relu6_pos <- fc6_pos
I0407 11:01:02.521252  6158 net.cpp:395] relu6_pos -> fc6_pos (in-place)
I0407 11:01:02.521534  6158 net.cpp:150] Setting up relu6_pos
I0407 11:01:02.521546  6158 net.cpp:157] Top shape: 1 2048 (2048)
I0407 11:01:02.521549  6158 net.cpp:165] Memory required for data: 393277440
I0407 11:01:02.521553  6158 layer_factory.hpp:77] Creating layer drop6_pos
I0407 11:01:02.521562  6158 net.cpp:100] Creating Layer drop6_pos
I0407 11:01:02.521567  6158 net.cpp:434] drop6_pos <- fc6_pos
I0407 11:01:02.521574  6158 net.cpp:395] drop6_pos -> fc6_pos (in-place)
I0407 11:01:02.521615  6158 net.cpp:150] Setting up drop6_pos
I0407 11:01:02.521623  6158 net.cpp:157] Top shape: 1 2048 (2048)
I0407 11:01:02.521626  6158 net.cpp:165] Memory required for data: 393285632
I0407 11:01:02.521630  6158 layer_factory.hpp:77] Creating layer fc7_pos
I0407 11:01:02.521641  6158 net.cpp:100] Creating Layer fc7_pos
I0407 11:01:02.521646  6158 net.cpp:434] fc7_pos <- fc6_pos
I0407 11:01:02.521652  6158 net.cpp:408] fc7_pos -> fc7_pos
I0407 11:01:02.695389  6158 net.cpp:150] Setting up fc7_pos
I0407 11:01:02.695479  6158 net.cpp:157] Top shape: 1 2048 (2048)
I0407 11:01:02.695488  6158 net.cpp:165] Memory required for data: 393293824
I0407 11:01:02.695528  6158 layer_factory.hpp:77] Creating layer relu7_pos
I0407 11:01:02.695565  6158 net.cpp:100] Creating Layer relu7_pos
I0407 11:01:02.695587  6158 net.cpp:434] relu7_pos <- fc7_pos
I0407 11:01:02.695618  6158 net.cpp:395] relu7_pos -> fc7_pos (in-place)
I0407 11:01:02.697638  6158 net.cpp:150] Setting up relu7_pos
I0407 11:01:02.697702  6158 net.cpp:157] Top shape: 1 2048 (2048)
I0407 11:01:02.697710  6158 net.cpp:165] Memory required for data: 393302016
I0407 11:01:02.697726  6158 layer_factory.hpp:77] Creating layer drop7_pos
I0407 11:01:02.697758  6158 net.cpp:100] Creating Layer drop7_pos
I0407 11:01:02.697770  6158 net.cpp:434] drop7_pos <- fc7_pos
I0407 11:01:02.697790  6158 net.cpp:395] drop7_pos -> fc7_pos (in-place)
I0407 11:01:02.697953  6158 net.cpp:150] Setting up drop7_pos
I0407 11:01:02.697971  6158 net.cpp:157] Top shape: 1 2048 (2048)
I0407 11:01:02.697980  6158 net.cpp:165] Memory required for data: 393310208
I0407 11:01:02.697989  6158 layer_factory.hpp:77] Creating layer conv1a_neg
I0407 11:01:02.698022  6158 net.cpp:100] Creating Layer conv1a_neg
I0407 11:01:02.698031  6158 net.cpp:434] conv1a_neg <- negative
I0407 11:01:02.698051  6158 net.cpp:408] conv1a_neg -> conv1a_neg
I0407 11:01:02.701751  6158 net.cpp:150] Setting up conv1a_neg
I0407 11:01:02.701788  6158 net.cpp:157] Top shape: 1 64 16 112 112 (12845056)
I0407 11:01:02.701792  6158 net.cpp:165] Memory required for data: 444690432
I0407 11:01:02.701802  6158 net.cpp:493] Sharing parameters 'conv1a_w' owned by layer 'conv1a', param index 0
I0407 11:01:02.701807  6158 net.cpp:493] Sharing parameters 'conv1a_b' owned by layer 'conv1a', param index 1
I0407 11:01:02.701812  6158 layer_factory.hpp:77] Creating layer relu1a_neg
I0407 11:01:02.701825  6158 net.cpp:100] Creating Layer relu1a_neg
I0407 11:01:02.701829  6158 net.cpp:434] relu1a_neg <- conv1a_neg
I0407 11:01:02.701836  6158 net.cpp:395] relu1a_neg -> conv1a_neg (in-place)
I0407 11:01:02.702844  6158 net.cpp:150] Setting up relu1a_neg
I0407 11:01:02.702858  6158 net.cpp:157] Top shape: 1 64 16 112 112 (12845056)
I0407 11:01:02.702869  6158 net.cpp:165] Memory required for data: 496070656
I0407 11:01:02.702873  6158 layer_factory.hpp:77] Creating layer pool1_neg
I0407 11:01:02.702885  6158 net.cpp:100] Creating Layer pool1_neg
I0407 11:01:02.702920  6158 net.cpp:434] pool1_neg <- conv1a_neg
I0407 11:01:02.702930  6158 net.cpp:408] pool1_neg -> pool1_neg
I0407 11:01:02.703207  6158 net.cpp:150] Setting up pool1_neg
I0407 11:01:02.703219  6158 net.cpp:157] Top shape: 1 64 16 56 56 (3211264)
I0407 11:01:02.703223  6158 net.cpp:165] Memory required for data: 508915712
I0407 11:01:02.703227  6158 layer_factory.hpp:77] Creating layer conv2a_neg
I0407 11:01:02.703238  6158 net.cpp:100] Creating Layer conv2a_neg
I0407 11:01:02.703244  6158 net.cpp:434] conv2a_neg <- pool1_neg
I0407 11:01:02.703253  6158 net.cpp:408] conv2a_neg -> conv2a_neg
I0407 11:01:02.720367  6158 net.cpp:150] Setting up conv2a_neg
I0407 11:01:02.720438  6158 net.cpp:157] Top shape: 1 128 16 56 56 (6422528)
I0407 11:01:02.720446  6158 net.cpp:165] Memory required for data: 534605824
I0407 11:01:02.720461  6158 net.cpp:493] Sharing parameters 'conv2a_w' owned by layer 'conv2a', param index 0
I0407 11:01:02.720474  6158 net.cpp:493] Sharing parameters 'conv2a_b' owned by layer 'conv2a', param index 1
I0407 11:01:02.720481  6158 layer_factory.hpp:77] Creating layer relu2a_neg
I0407 11:01:02.720504  6158 net.cpp:100] Creating Layer relu2a_neg
I0407 11:01:02.720513  6158 net.cpp:434] relu2a_neg <- conv2a_neg
I0407 11:01:02.720527  6158 net.cpp:395] relu2a_neg -> conv2a_neg (in-place)
I0407 11:01:02.722481  6158 net.cpp:150] Setting up relu2a_neg
I0407 11:01:02.722509  6158 net.cpp:157] Top shape: 1 128 16 56 56 (6422528)
I0407 11:01:02.722518  6158 net.cpp:165] Memory required for data: 560295936
I0407 11:01:02.722528  6158 layer_factory.hpp:77] Creating layer pool2_neg
I0407 11:01:02.722563  6158 net.cpp:100] Creating Layer pool2_neg
I0407 11:01:02.722576  6158 net.cpp:434] pool2_neg <- conv2a_neg
I0407 11:01:02.722600  6158 net.cpp:408] pool2_neg -> pool2_neg
I0407 11:01:02.723006  6158 net.cpp:150] Setting up pool2_neg
I0407 11:01:02.723026  6158 net.cpp:157] Top shape: 1 128 8 28 28 (802816)
I0407 11:01:02.723033  6158 net.cpp:165] Memory required for data: 563507200
I0407 11:01:02.723044  6158 layer_factory.hpp:77] Creating layer conv3a_neg
I0407 11:01:02.723073  6158 net.cpp:100] Creating Layer conv3a_neg
I0407 11:01:02.723081  6158 net.cpp:434] conv3a_neg <- pool2_neg
I0407 11:01:02.723101  6158 net.cpp:408] conv3a_neg -> conv3a_neg
I0407 11:01:02.759171  6158 net.cpp:150] Setting up conv3a_neg
I0407 11:01:02.759225  6158 net.cpp:157] Top shape: 1 256 8 28 28 (1605632)
I0407 11:01:02.759232  6158 net.cpp:165] Memory required for data: 569929728
I0407 11:01:02.759263  6158 net.cpp:493] Sharing parameters 'conv3a_w' owned by layer 'conv3a', param index 0
I0407 11:01:02.759277  6158 net.cpp:493] Sharing parameters 'conv3a_b' owned by layer 'conv3a', param index 1
I0407 11:01:02.759289  6158 layer_factory.hpp:77] Creating layer relu3a_neg
I0407 11:01:02.759322  6158 net.cpp:100] Creating Layer relu3a_neg
I0407 11:01:02.759335  6158 net.cpp:434] relu3a_neg <- conv3a_neg
I0407 11:01:02.759352  6158 net.cpp:395] relu3a_neg -> conv3a_neg (in-place)
I0407 11:01:02.761427  6158 net.cpp:150] Setting up relu3a_neg
I0407 11:01:02.761452  6158 net.cpp:157] Top shape: 1 256 8 28 28 (1605632)
I0407 11:01:02.761461  6158 net.cpp:165] Memory required for data: 576352256
I0407 11:01:02.761468  6158 layer_factory.hpp:77] Creating layer pool3_neg
I0407 11:01:02.761489  6158 net.cpp:100] Creating Layer pool3_neg
I0407 11:01:02.761497  6158 net.cpp:434] pool3_neg <- conv3a_neg
I0407 11:01:02.761513  6158 net.cpp:408] pool3_neg -> pool3_neg
I0407 11:01:02.761943  6158 net.cpp:150] Setting up pool3_neg
I0407 11:01:02.761967  6158 net.cpp:157] Top shape: 1 256 4 14 14 (200704)
I0407 11:01:02.761975  6158 net.cpp:165] Memory required for data: 577155072
I0407 11:01:02.761981  6158 layer_factory.hpp:77] Creating layer conv4a_neg
I0407 11:01:02.762003  6158 net.cpp:100] Creating Layer conv4a_neg
I0407 11:01:02.762011  6158 net.cpp:434] conv4a_neg <- pool3_neg
I0407 11:01:02.762027  6158 net.cpp:408] conv4a_neg -> conv4a_neg
I0407 11:01:02.829111  6158 net.cpp:150] Setting up conv4a_neg
I0407 11:01:02.829191  6158 net.cpp:157] Top shape: 1 256 4 14 14 (200704)
I0407 11:01:02.829197  6158 net.cpp:165] Memory required for data: 577957888
I0407 11:01:02.829210  6158 net.cpp:493] Sharing parameters 'conv4a_w' owned by layer 'conv4a', param index 0
I0407 11:01:02.829218  6158 net.cpp:493] Sharing parameters 'conv4a_b' owned by layer 'conv4a', param index 1
I0407 11:01:02.829229  6158 layer_factory.hpp:77] Creating layer relu4a_neg
I0407 11:01:02.829242  6158 net.cpp:100] Creating Layer relu4a_neg
I0407 11:01:02.829258  6158 net.cpp:434] relu4a_neg <- conv4a_neg
I0407 11:01:02.829267  6158 net.cpp:395] relu4a_neg -> conv4a_neg (in-place)
I0407 11:01:02.830286  6158 net.cpp:150] Setting up relu4a_neg
I0407 11:01:02.830302  6158 net.cpp:157] Top shape: 1 256 4 14 14 (200704)
I0407 11:01:02.830312  6158 net.cpp:165] Memory required for data: 578760704
I0407 11:01:02.830315  6158 layer_factory.hpp:77] Creating layer pool4_neg
I0407 11:01:02.830328  6158 net.cpp:100] Creating Layer pool4_neg
I0407 11:01:02.830332  6158 net.cpp:434] pool4_neg <- conv4a_neg
I0407 11:01:02.830348  6158 net.cpp:408] pool4_neg -> pool4_neg
I0407 11:01:02.830642  6158 net.cpp:150] Setting up pool4_neg
I0407 11:01:02.830654  6158 net.cpp:157] Top shape: 1 256 2 7 7 (25088)
I0407 11:01:02.830658  6158 net.cpp:165] Memory required for data: 578861056
I0407 11:01:02.830664  6158 layer_factory.hpp:77] Creating layer conv5a_neg
I0407 11:01:02.830683  6158 net.cpp:100] Creating Layer conv5a_neg
I0407 11:01:02.830688  6158 net.cpp:434] conv5a_neg <- pool4_neg
I0407 11:01:02.830699  6158 net.cpp:408] conv5a_neg -> conv5a_neg
I0407 11:01:02.945199  6158 net.cpp:150] Setting up conv5a_neg
I0407 11:01:02.945258  6158 net.cpp:157] Top shape: 1 256 2 7 7 (25088)
I0407 11:01:02.945266  6158 net.cpp:165] Memory required for data: 578961408
I0407 11:01:02.945291  6158 net.cpp:493] Sharing parameters 'conv5a_w' owned by layer 'conv5a', param index 0
I0407 11:01:02.945300  6158 net.cpp:493] Sharing parameters 'conv5a_b' owned by layer 'conv5a', param index 1
I0407 11:01:02.945315  6158 layer_factory.hpp:77] Creating layer relu5a_neg
I0407 11:01:02.945338  6158 net.cpp:100] Creating Layer relu5a_neg
I0407 11:01:02.945350  6158 net.cpp:434] relu5a_neg <- conv5a_neg
I0407 11:01:02.945365  6158 net.cpp:395] relu5a_neg -> conv5a_neg (in-place)
I0407 11:01:02.945694  6158 net.cpp:150] Setting up relu5a_neg
I0407 11:01:02.945710  6158 net.cpp:157] Top shape: 1 256 2 7 7 (25088)
I0407 11:01:02.945715  6158 net.cpp:165] Memory required for data: 579061760
I0407 11:01:02.945721  6158 layer_factory.hpp:77] Creating layer pool5_neg
I0407 11:01:02.945736  6158 net.cpp:100] Creating Layer pool5_neg
I0407 11:01:02.945745  6158 net.cpp:434] pool5_neg <- conv5a_neg
I0407 11:01:02.945757  6158 net.cpp:408] pool5_neg -> pool5_neg
I0407 11:01:02.947182  6158 net.cpp:150] Setting up pool5_neg
I0407 11:01:02.947203  6158 net.cpp:157] Top shape: 1 256 1 4 4 (4096)
I0407 11:01:02.947208  6158 net.cpp:165] Memory required for data: 579078144
I0407 11:01:02.947216  6158 layer_factory.hpp:77] Creating layer fc6_neg
I0407 11:01:02.947239  6158 net.cpp:100] Creating Layer fc6_neg
I0407 11:01:02.947247  6158 net.cpp:434] fc6_neg <- pool5_neg
I0407 11:01:02.947259  6158 net.cpp:408] fc6_neg -> fc6_neg
I0407 11:01:03.271085  6158 net.cpp:150] Setting up fc6_neg
I0407 11:01:03.271140  6158 net.cpp:157] Top shape: 1 2048 (2048)
I0407 11:01:03.271147  6158 net.cpp:165] Memory required for data: 579086336
I0407 11:01:03.271162  6158 layer_factory.hpp:77] Creating layer relu6_neg
I0407 11:01:03.271176  6158 net.cpp:100] Creating Layer relu6_neg
I0407 11:01:03.271184  6158 net.cpp:434] relu6_neg <- fc6_neg
I0407 11:01:03.271193  6158 net.cpp:395] relu6_neg -> fc6_neg (in-place)
I0407 11:01:03.271524  6158 net.cpp:150] Setting up relu6_neg
I0407 11:01:03.271536  6158 net.cpp:157] Top shape: 1 2048 (2048)
I0407 11:01:03.271540  6158 net.cpp:165] Memory required for data: 579094528
I0407 11:01:03.271545  6158 layer_factory.hpp:77] Creating layer drop6_neg
I0407 11:01:03.271580  6158 net.cpp:100] Creating Layer drop6_neg
I0407 11:01:03.271610  6158 net.cpp:434] drop6_neg <- fc6_neg
I0407 11:01:03.271617  6158 net.cpp:395] drop6_neg -> fc6_neg (in-place)
I0407 11:01:03.271661  6158 net.cpp:150] Setting up drop6_neg
I0407 11:01:03.271668  6158 net.cpp:157] Top shape: 1 2048 (2048)
I0407 11:01:03.271672  6158 net.cpp:165] Memory required for data: 579102720
I0407 11:01:03.271677  6158 layer_factory.hpp:77] Creating layer fc7_neg
I0407 11:01:03.271688  6158 net.cpp:100] Creating Layer fc7_neg
I0407 11:01:03.271694  6158 net.cpp:434] fc7_neg <- fc6_neg
I0407 11:01:03.271703  6158 net.cpp:408] fc7_neg -> fc7_neg
I0407 11:01:03.431135  6158 net.cpp:150] Setting up fc7_neg
I0407 11:01:03.431182  6158 net.cpp:157] Top shape: 1 2048 (2048)
I0407 11:01:03.431188  6158 net.cpp:165] Memory required for data: 579110912
I0407 11:01:03.431201  6158 layer_factory.hpp:77] Creating layer relu7_neg
I0407 11:01:03.431221  6158 net.cpp:100] Creating Layer relu7_neg
I0407 11:01:03.431234  6158 net.cpp:434] relu7_neg <- fc7_neg
I0407 11:01:03.431243  6158 net.cpp:395] relu7_neg -> fc7_neg (in-place)
I0407 11:01:03.432446  6158 net.cpp:150] Setting up relu7_neg
I0407 11:01:03.432461  6158 net.cpp:157] Top shape: 1 2048 (2048)
I0407 11:01:03.432472  6158 net.cpp:165] Memory required for data: 579119104
I0407 11:01:03.432476  6158 layer_factory.hpp:77] Creating layer drop7_neg
I0407 11:01:03.432485  6158 net.cpp:100] Creating Layer drop7_neg
I0407 11:01:03.432490  6158 net.cpp:434] drop7_neg <- fc7_neg
I0407 11:01:03.432497  6158 net.cpp:395] drop7_neg -> fc7_neg (in-place)
I0407 11:01:03.432540  6158 net.cpp:150] Setting up drop7_neg
I0407 11:01:03.432549  6158 net.cpp:157] Top shape: 1 2048 (2048)
I0407 11:01:03.432554  6158 net.cpp:165] Memory required for data: 579127296
I0407 11:01:03.432557  6158 layer_factory.hpp:77] Creating layer loss
I0407 11:01:03.432567  6158 net.cpp:100] Creating Layer loss
I0407 11:01:03.432576  6158 net.cpp:434] loss <- fc7
I0407 11:01:03.432581  6158 net.cpp:434] loss <- fc7_pos
I0407 11:01:03.432586  6158 net.cpp:434] loss <- fc7_neg
I0407 11:01:03.432593  6158 net.cpp:408] loss -> loss
…
