…
    mean_value: 65
    mean_value: 74
    mean_value: 92
    mean_value: 65
    mean_value: 74
    mean_value: 92
    mean_value: 65
    mean_value: 74
    mean_value: 92
    mean_value: 65
    mean_value: 74
    mean_value: 92
    mean_value: 65
    mean_value: 74
    mean_value: 92
    mean_value: 65
    mean_value: 74
    mean_value: 92
    mean_value: 65
    mean_value: 74
    mean_value: 92
    mean_value: 65
    mean_value: 74
    mean_value: 92
  }
  data_param {
    source: "/data/leo-data/Synthetic/LMDB/Triplets/train"
    batch_size: 10
    backend: LMDB
  }
}
layer {
  name: "slicer"
  type: "Slice"
  bottom: "triplet"
  top: "anchor_stacked"
  top: "positive_stacked"
  top: "negative_stacked"
  slice_param {
    slice_dim: 1
    slice_point: 48
    slice_point: 96
  }
}
layer {
  name: "reshape_anchor"
  type: "Reshape"
  bottom: "anchor_stacked"
  top: "anchor"
  reshape_param {
    shape {
      dim: 0
      dim: 3
      dim: 16
      dim: 112
      dim: 112
    }
  }
}
layer {
  name: "reshape_positive"
  type: "Reshape"
  bottom: "positive_stacked"
  top: "positive"
  reshape_param {
    shape {
      dim: 0
      dim: 3
      dim: 16
      dim: 112
      dim: 112
    }
  }
}
layer {
  name: "reshape_negative"
  type: "Reshape"
  bottom: "negative_stacked"
  top: "negative"
  reshape_param {
    shape {
      dim: 0
      dim: 3
      dim: 16
      dim: 112
      dim: 112
    }
  }
}
layer {
  name: "conv1a"
  type: "NdConvolution"
  bottom: "anchor"
  top: "conv1a"
  param {
    name: "conv1a_w"
    lr_mult: 1
    decay_mult: 1
  }
  param {
    name: "conv1a_b"
    lr_mult: 2
    decay_mult: 0
  }
  convolution_param {
    num_output: 64
    weight_filler {
      type: "gaussian"
      std: 0.01
    }
    bias_filler {
      type: "constant"
      value: 0
    }
    pad_shape {
      dim: 1
      dim: 1
      dim: 1
    }
    kernel_shape {
      dim: 3
      dim: 3
      dim: 3
    }
    stride_shape {
      dim: 1
      dim: 1
      dim: 1
    }
  }
}
layer {
  name: "relu1a"
  type: "ReLU"
  bottom: "conv1a"
  top: "conv1a"
}
layer {
  name: "pool1"
  type: "NdPooling"
  bottom: "conv1a"
  top: "pool1"
  pooling_param {
    pool: MAX
    kernel_shape {
      dim: 1
      dim: 2
      dim: 2
    }
    stride_shape {
      dim: 1
      dim: 2
      dim: 2
    }
  }
}
layer {
  name: "conv2a"
  type: "NdConvolution"
  bottom: "pool1"
  top: "conv2a"
  param {
    name: "conv2a_w"
    lr_mult: 1
    decay_mult: 1
  }
  param {
    name: "conv2a_b"
    lr_mult: 2
    decay_mult: 0
  }
  convolution_param {
    num_output: 128
    weight_filler {
      type: "gaussian"
      std: 0.01
    }
    bias_filler {
      type: "constant"
      value: 1
    }
    pad_shape {
      dim: 1
      dim: 1
      dim: 1
    }
    kernel_shape {
      dim: 3
      dim: 3
      dim: 3
    }
    stride_shape {
      dim: 1
      dim: 1
      dim: 1
    }
  }
}
layer {
  name: "relu2a"
  type: "ReLU"
  bottom: "conv2a"
  top: "conv2a"
}
layer {
  name: "pool2"
  type: "NdPooling"
  bottom: "conv2a"
  top: "pool2"
  pooling_param {
    pool: MAX
    kernel_shape {
      dim: 2
      dim: 2
      dim: 2
    }
    stride_shape {
      dim: 2
      dim: 2
      dim: 2
    }
  }
}
layer {
  name: "conv3a"
  type: "NdConvolution"
  bottom: "pool2"
  top: "conv3a"
  param {
    name: "conv3a_w"
    lr_mult: 1
    decay_mult: 1
  }
  param {
    name: "conv3a_b"
    lr_mult: 2
    decay_mult: 0
  }
  convolution_param {
    num_output: 256
    weight_filler {
      type: "gaussian"
      std: 0.01
    }
    bias_filler {
      type: "constant"
      value: 1
    }
    pad_shape {
      dim: 1
      dim: 1
      dim: 1
    }
    kernel_shape {
      dim: 3
      dim: 3
      dim: 3
    }
    stride_shape {
      dim: 1
      dim: 1
      dim: 1
    }
  }
}
layer {
  name: "relu3a"
  type: "ReLU"
  bottom: "conv3a"
  top: "conv3a"
}
layer {
  name: "pool3"
  type: "NdPooling"
  bottom: "conv3a"
  top: "pool3"
  pooling_param {
    pool: MAX
    kernel_shape {
      dim: 2
      dim: 2
      dim: 2
    }
    stride_shape {
      dim: 2
      dim: 2
      dim: 2
    }
  }
}
layer {
  name: "conv4a"
  type: "NdConvolution"
  bottom: "pool3"
  top: "conv4a"
  param {
    name: "conv4a_w"
    lr_mult: 1
    decay_mult: 1
  }
  param {
    name: "conv4a_b"
    lr_mult: 2
    decay_mult: 0
  }
  convolution_param {
    num_output: 256
    weight_filler {
      type: "gaussian"
      std: 0.01
    }
    bias_filler {
      type: "constant"
      value: 1
    }
    pad_shape {
      dim: 1
      dim: 1
      dim: 1
    }
    kernel_shape {
      dim: 3
      dim: 3
      dim: 3
    }
    stride_shape {
      dim: 1
      dim: 1
      dim: 1
    }
  }
}
layer {
  name: "relu4a"
  type: "ReLU"
  bottom: "conv4a"
  top: "conv4a"
}
layer {
  name: "pool4"
  type: "NdPooling"
  bottom: "conv4a"
  top: "pool4"
  pooling_param {
    pool: MAX
    kernel_shape {
      dim: 2
      dim: 2
      dim: 2
    }
    stride_shape {
      dim: 2
      dim: 2
      dim: 2
    }
  }
}
layer {
  name: "conv5a"
  type: "NdConvolution"
  bottom: "pool4"
  top: "conv5a"
  param {
    name: "conv5a_w"
    lr_mult: 1
    decay_mult: 1
  }
  param {
    name: "conv5a_b"
    lr_mult: 2
    decay_mult: 0
  }
  convolution_param {
    num_output: 256
    weight_filler {
      type: "gaussian"
      std: 0.01
    }
    bias_filler {
      type: "constant"
      value: 1
    }
    pad_shape {
      dim: 1
      dim: 1
      dim: 1
    }
    kernel_shape {
      dim: 3
      dim: 3
      dim: 3
    }
    stride_shape {
      dim: 1
      dim: 1
      dim: 1
    }
  }
}
layer {
  name: "relu5a"
  type: "ReLU"
  bottom: "conv5a"
  top: "conv5a"
}
layer {
  name: "pool5"
  type: "NdPooling"
  bottom: "conv5a"
  top: "pool5"
  pooling_param {
    pool: MAX
    kernel_shape {
      dim: 2
      dim: 2
      dim: 2
    }
    stride_shape {
      dim: 2
      dim: 2
      dim: 2
    }
  }
}
layer {
  name: "fc6"
  type: "InnerProduct"
  bottom: "pool5"
  top: "fc6"
  param {
    name: "fc6_w"
    lr_mult: 1
    decay_mult: 1
  }
  param {
    name: "fc6_b"
    lr_mult: 2
    decay_mult: 0
  }
  inner_product_param {
    num_output: 2048
    weight_filler {
      type: "gaussian"
      std: 0.005
    }
    bias_filler {
      type: "constant"
      value: 1
    }
  }
}
layer {
  name: "relu6"
  type: "ReLU"
  bottom: "fc6"
  top: "fc6"
}
layer {
  name: "drop6"
  type: "Dropout"
  bottom: "fc6"
  top: "fc6"
  dropout_param {
    dropout_ratio: 0.5
  }
}
layer {
  name: "fc7"
  type: "InnerProduct"
  bottom: "fc6"
  top: "fc7"
  param {
    name: "fc7_w"
    lr_mult: 1
    decay_mult: 1
  }
  param {
    name: "fc7_b"
    lr_mult: 2
    decay_mult: 0
  }
  inner_product_param {
    num_output: 2048
    weight_filler {
      type: "gaussian"
      std: 0.005
    }
    bias_filler {
      type: "constant"
      value: 1
    }
  }
}
layer {
  name: "relu7"
  type: "ReLU"
  bottom: "fc7"
  top: "fc7"
}
layer {
  name: "drop7"
  type: "Dropout"
  bottom: "fc7"
  top: "fc7"
  dropout_param {
    dropout_ratio: 0.5
  }
}
layer {
  name: "mvn"
  type: "Python"
  bottom: "fc7"
  top: "fc7_norm"
  python_param {
    module: "mvn"
    layer: "MVNLayer"
  }
}
layer {
  name: "conv1a_pos"
  type: "NdConvolution"
  bottom: "positive"
  top: "conv1a_pos"
  param {
    name: "conv1a_w"
    lr_mult: 1
    decay_mult: 1
  }
  param {
    name: "conv1a_b"
    lr_mult: 2
    decay_mult: 0
  }
  convolution_param {
    num_output: 64
    weight_filler {
      type: "gaussian"
      std: 0.01
    }
    bias_filler {
      type: "constant"
      value: 0
    }
    pad_shape {
      dim: 1
      dim: 1
      dim: 1
    }
    kernel_shape {
      dim: 3
      dim: 3
      dim: 3
    }
    stride_shape {
      dim: 1
      dim: 1
      dim: 1
    }
  }
}
layer {
  name: "relu1a_pos"
  type: "ReLU"
  bottom: "conv1a_pos"
  top: "conv1a_pos"
}
layer {
  name: "pool1_pos"
  type: "NdPooling"
  bottom: "conv1a_pos"
  top: "pool1_pos"
  pooling_param {
    pool: MAX
    kernel_shape {
      dim: 1
      dim: 2
      dim: 2
    }
    stride_shape {
      dim: 1
      dim: 2
      dim: 2
    }
  }
}
layer {
  name: "conv2a_pos"
  type: "NdConvolution"
  bottom: "pool1_pos"
  top: "conv2a_pos"
  param {
    name: "conv2a_w"
    lr_mult: 1
    decay_mult: 1
  }
  param {
    name: "conv2a_b"
    lr_mult: 2
    decay_mult: 0
  }
  convolution_param {
    num_output: 128
    weight_filler {
      type: "gaussian"
      std: 0.01
    }
    bias_filler {
      type: "constant"
      value: 1
    }
    pad_shape {
      dim: 1
      dim: 1
      dim: 1
    }
    kernel_shape {
      dim: 3
      dim: 3
      dim: 3
    }
    stride_shape {
      dim: 1
      dim: 1
      dim: 1
    }
  }
}
layer {
  name: "relu2a_pos"
  type: "ReLU"
  bottom: "conv2a_pos"
  top: "conv2a_pos"
}
layer {
  name: "pool2_pos"
  type: "NdPooling"
  bottom: "conv2a_pos"
  top: "pool2_pos"
  pooling_param {
    pool: MAX
    kernel_shape {
      dim: 2
      dim: 2
      dim: 2
    }
    stride_shape {
      dim: 2
      dim: 2
      dim: 2
    }
  }
}
layer {
  name: "conv3a_pos"
  type: "NdConvolution"
  bottom: "pool2_pos"
  top: "conv3a_pos"
  param {
    name: "conv3a_w"
    lr_mult: 1
    decay_mult: 1
  }
  param {
    name: "conv3a_b"
    lr_mult: 2
    decay_mult: 0
  }
  convolution_param {
    num_output: 256
    weight_filler {
      type: "gaussian"
      std: 0.01
    }
    bias_filler {
      type: "constant"
      value: 1
    }
    pad_shape {
      dim: 1
      dim: 1
      dim: 1
    }
    kernel_shape {
      dim: 3
      dim: 3
      dim: 3
    }
    stride_shape {
      dim: 1
      dim: 1
      dim: 1
    }
  }
}
layer {
  name: "relu3a_pos"
  type: "ReLU"
  bottom: "conv3a_pos"
  top: "conv3a_pos"
}
layer {
  name: "pool3_pos"
  type: "NdPooling"
  bottom: "conv3a_pos"
  top: "pool3_pos"
  pooling_param {
    pool: MAX
    kernel_shape {
      dim: 2
      dim: 2
      dim: 2
    }
    stride_shape {
      dim: 2
      dim: 2
      dim: 2
    }
  }
}
layer {
  name: "conv4a_pos"
  type: "NdConvolution"
  bottom: "pool3_pos"
  top: "conv4a_pos"
  param {
    name: "conv4a_w"
    lr_mult: 1
    decay_mult: 1
  }
  param {
    name: "conv4a_b"
    lr_mult: 2
    decay_mult: 0
  }
  convolution_param {
    num_output: 256
    weight_filler {
      type: "gaussian"
      std: 0.01
    }
    bias_filler {
      type: "constant"
      value: 1
    }
    pad_shape {
      dim: 1
      dim: 1
      dim: 1
    }
    kernel_shape {
      dim: 3
      dim: 3
      dim: 3
    }
    stride_shape {
      dim: 1
      dim: 1
      dim: 1
    }
  }
}
layer {
  name: "relu4a_pos"
  type: "ReLU"
  bottom: "conv4a_pos"
  top: "conv4a_pos"
}
layer {
  name: "pool4_pos"
  type: "NdPooling"
  bottom: "conv4a_pos"
  top: "pool4_pos"
  pooling_param {
    pool: MAX
    kernel_shape {
      dim: 2
      dim: 2
      dim: 2
    }
    stride_shape {
      dim: 2
      dim: 2
      dim: 2
    }
  }
}
layer {
  name: "conv5a_pos"
  type: "NdConvolution"
  bottom: "pool4_pos"
  top: "conv5a_pos"
  param {
    name: "conv5a_w"
    lr_mult: 1
    decay_mult: 1
  }
  param {
    name: "conv5a_b"
    lr_mult: 2
    decay_mult: 0
  }
  convolution_param {
    num_output: 256
    weight_filler {
      type: "gaussian"
      std: 0.01
    }
    bias_filler {
      type: "constant"
      value: 1
    }
    pad_shape {
      dim: 1
      dim: 1
      dim: 1
    }
    kernel_shape {
      dim: 3
      dim: 3
      dim: 3
    }
    stride_shape {
      dim: 1
      dim: 1
      dim: 1
    }
  }
}
layer {
  name: "relu5a_pos"
  type: "ReLU"
  bottom: "conv5a_pos"
  top: "conv5a_pos"
}
layer {
  name: "pool5_pos"
  type: "NdPooling"
  bottom: "conv5a_pos"
  top: "pool5_pos"
  pooling_param {
    pool: MAX
    kernel_shape {
      dim: 2
      dim: 2
      dim: 2
    }
    stride_shape {
      dim: 2
      dim: 2
      dim: 2
    }
  }
}
layer {
  name: "fc6_pos"
  type: "InnerProduct"
  bottom: "pool5_pos"
  top: "fc6_pos"
  param {
    name: "fc6_w"
    lr_mult: 1
    decay_mult: 1
  }
  param {
    name: "fc6_b"
    lr_mult: 2
    decay_mult: 0
  }
  inner_product_param {
    num_output: 2048
    weight_filler {
      type: "gaussian"
      std: 0.005
    }
    bias_filler {
      type: "constant"
      value: 1
    }
  }
}
layer {
  name: "relu6_pos"
  type: "ReLU"
  bottom: "fc6_pos"
  top: "fc6_pos"
}
layer {
  name: "drop6_pos"
  type: "Dropout"
  bottom: "fc6_pos"
  top: "fc6_pos"
  dropout_param {
    dropout_ratio: 0.5
  }
}
layer {
  name: "fc7_pos"
  type: "InnerProduct"
  bottom: "fc6_pos"
  top: "fc7_pos"
  param {
    name: "fc7_w"
    lr_mult: 1
    decay_mult: 1
  }
  param {
    name: "fc7_b"
    lr_mult: 2
    decay_mult: 0
  }
  inner_product_param {
    num_output: 2048
    weight_filler {
      type: "gaussian"
      std: 0.005
    }
    bias_filler {
      type: "constant"
      value: 1
    }
  }
}
layer {
  name: "relu7_pos"
  type: "ReLU"
  bottom: "fc7_pos"
  top: "fc7_pos"
}
layer {
  name: "drop7_pos"
  type: "Dropout"
  bottom: "fc7_pos"
  top: "fc7_pos"
  dropout_param {
    dropout_ratio: 0.5
  }
}
layer {
  name: "mvn_pos"
  type: "Python"
  bottom: "fc7_pos"
  top: "fc7_pos_norm"
  python_param {
    module: "mvn"
    layer: "MVNLayer"
  }
}
layer {
  name: "conv1a_neg"
  type: "NdConvolution"
  bottom: "negative"
  top: "conv1a_neg"
  param {
    name: "conv1a_w"
    lr_mult: 1
    decay_mult: 1
  }
  param {
    name: "conv1a_b"
    lr_mult: 2
    decay_mult: 0
  }
  convolution_param {
    num_output: 64
    weight_filler {
      type: "gaussian"
      std: 0.01
    }
    bias_filler {
      type: "constant"
      value: 0
    }
    pad_shape {
      dim: 1
      dim: 1
      dim: 1
    }
    kernel_shape {
      dim: 3
      dim: 3
      dim: 3
    }
    stride_shape {
      dim: 1
      dim: 1
      dim: 1
    }
  }
}
layer {
  name: "relu1a_neg"
  type: "ReLU"
  bottom: "conv1a_neg"
  top: "conv1a_neg"
}
layer {
  name: "pool1_neg"
  type: "NdPooling"
  bottom: "conv1a_neg"
  top: "pool1_neg"
  pooling_param {
    pool: MAX
    kernel_shape {
      dim: 1
      dim: 2
      dim: 2
    }
    stride_shape {
      dim: 1
      dim: 2
      dim: 2
    }
  }
}
layer {
  name: "conv2a_neg"
  type: "NdConvolution"
  bottom: "pool1_neg"
  top: "conv2a_neg"
  param {
    name: "conv2a_w"
    lr_mult: 1
    decay_mult: 1
  }
  param {
    name: "conv2a_b"
    lr_mult: 2
    decay_mult: 0
  }
  convolution_param {
    num_output: 128
    weight_filler {
      type: "gaussian"
      std: 0.01
    }
    bias_filler {
      type: "constant"
      value: 1
    }
    pad_shape {
      dim: 1
      dim: 1
      dim: 1
    }
    kernel_shape {
      dim: 3
      dim: 3
      dim: 3
    }
    stride_shape {
      dim: 1
      dim: 1
      dim: 1
    }
  }
}
layer {
  name: "relu2a_neg"
  type: "ReLU"
  bottom: "conv2a_neg"
  top: "conv2a_neg"
}
layer {
  name: "pool2_neg"
  type: "NdPooling"
  bottom: "conv2a_neg"
  top: "pool2_neg"
  pooling_param {
    pool: MAX
    kernel_shape {
      dim: 2
      dim: 2
      dim: 2
    }
    stride_shape {
      dim: 2
      dim: 2
      dim: 2
    }
  }
}
layer {
  name: "conv3a_neg"
  type: "NdConvolution"
  bottom: "pool2_neg"
  top: "conv3a_neg"
  param {
    name: "conv3a_w"
    lr_mult: 1
    decay_mult: 1
  }
  param {
    name: "conv3a_b"
    lr_mult: 2
    decay_mult: 0
  }
  convolution_param {
    num_output: 256
    weight_filler {
      type: "gaussian"
      std: 0.01
    }
    bias_filler {
      type: "constant"
      value: 1
    }
    pad_shape {
      dim: 1
      dim: 1
      dim: 1
    }
    kernel_shape {
      dim: 3
      dim: 3
      dim: 3
    }
    stride_shape {
      dim: 1
      dim: 1
      dim: 1
    }
  }
}
layer {
  name: "relu3a_neg"
  type: "ReLU"
  bottom: "conv3a_neg"
  top: "conv3a_neg"
}
layer {
  name: "pool3_neg"
  type: "NdPooling"
  bottom: "conv3a_neg"
  top: "pool3_neg"
  pooling_param {
    pool: MAX
    kernel_shape {
      dim: 2
      dim: 2
      dim: 2
    }
    stride_shape {
      dim: 2
      dim: 2
      dim: 2
    }
  }
}
layer {
  name: "conv4a_neg"
  type: "NdConvolution"
  bottom: "pool3_neg"
  top: "conv4a_neg"
  param {
    name: "conv4a_w"
    lr_mult: 1
    decay_mult: 1
  }
  param {
    name: "conv4a_b"
    lr_mult: 2
    decay_mult: 0
  }
  convolution_param {
    num_output: 256
    weight_filler {
      type: "gaussian"
      std: 0.01
    }
    bias_filler {
      type: "constant"
      value: 1
    }
    pad_shape {
      dim: 1
      dim: 1
      dim: 1
    }
    kernel_shape {
      dim: 3
      dim: 3
      dim: 3
    }
    stride_shape {
      dim: 1
      dim: 1
      dim: 1
    }
  }
}
layer {
  name: "relu4a_neg"
  type: "ReLU"
  bottom: "conv4a_neg"
  top: "conv4a_neg"
}
layer {
  name: "pool4_neg"
  type: "NdPooling"
  bottom: "conv4a_neg"
  top: "pool4_neg"
  pooling_param {
    pool: MAX
    kernel_shape {
      dim: 2
      dim: 2
      dim: 2
    }
    stride_shape {
      dim: 2
      dim: 2
      dim: 2
    }
  }
}
layer {
  name: "conv5a_neg"
  type: "NdConvolution"
  bottom: "pool4_neg"
  top: "conv5a_neg"
  param {
    name: "conv5a_w"
    lr_mult: 1
    decay_mult: 1
  }
  param {
    name: "conv5a_b"
    lr_mult: 2
    decay_mult: 0
  }
  convolution_param {
    num_output: 256
    weight_filler {
      type: "gaussian"
      std: 0.01
    }
    bias_filler {
      type: "constant"
      value: 1
    }
    pad_shape {
      dim: 1
      dim: 1
      dim: 1
    }
    kernel_shape {
      dim: 3
      dim: 3
      dim: 3
    }
    stride_shape {
      dim: 1
      dim: 1
      dim: 1
    }
  }
}
layer {
  name: "relu5a_neg"
  type: "ReLU"
  bottom: "conv5a_neg"
  top: "conv5a_neg"
}
layer {
  name: "pool5_neg"
  type: "NdPooling"
  bottom: "conv5a_neg"
  top: "pool5_neg"
  pooling_param {
    pool: MAX
    kernel_shape {
      dim: 2
      dim: 2
      dim: 2
    }
    stride_shape {
      dim: 2
      dim: 2
      dim: 2
    }
  }
}
layer {
  name: "fc6_neg"
  type: "InnerProduct"
  bottom: "pool5_neg"
  top: "fc6_neg"
  param {
    name: "fc6_w"
    lr_mult: 1
    decay_mult: 1
  }
  param {
    name: "fc6_b"
    lr_mult: 2
    decay_mult: 0
  }
  inner_product_param {
    num_output: 2048
    weight_filler {
      type: "gaussian"
      std: 0.005
    }
    bias_filler {
      type: "constant"
      value: 1
    }
  }
}
layer {
  name: "relu6_neg"
  type: "ReLU"
  bottom: "fc6_neg"
  top: "fc6_neg"
}
layer {
  name: "drop6_neg"
  type: "Dropout"
  bottom: "fc6_neg"
  top: "fc6_neg"
  dropout_param {
    dropout_ratio: 0.5
  }
}
layer {
  name: "fc7_neg"
  type: "InnerProduct"
  bottom: "fc6_neg"
  top: "fc7_neg"
  param {
    name: "fc7_w"
    lr_mult: 1
    decay_mult: 1
  }
  param {
    name: "fc7_b"
    lr_mult: 2
    decay_mult: 0
  }
  inner_product_param {
    num_output: 2048
    weight_filler {
      type: "gaussian"
      std: 0.005
    }
    bias_filler {
      type: "constant"
      value: 1
    }
  }
}
layer {
  name: "relu7_neg"
  type: "ReLU"
  bottom: "fc7_neg"
  top: "fc7_neg"
}
layer {
  name: "drop7_neg"
  type: "Dropout"
  bottom: "fc7_neg"
  top: "fc7_neg"
  dropout_param {
    dropout_ratio: 0.5
  }
}
layer {
  name: "mvn_neg"
  type: "Python"
  bottom: "fc7_neg"
  top: "fc7_neg_norm"
  python_param {
    module: "mvn"
    layer: "MVNLayer"
  }
}
layer {
  name: "save"
  type: "Python"
  bottom: "fc7_norm"
  bottom: "fc7_pos_norm"
  bottom: "fc7_neg_norm"
  python_param {
    module: "save_features"
    layer: "SaveFeaturesLayer"
    param_str: "{\"n_samples\":\"35000\", \"filename\":\"../../features/features_baseline_train.npz\"}"
  }
}
I0523 08:58:25.450614  9444 layer_factory.hpp:77] Creating layer data
I0523 08:58:25.467795  9444 net.cpp:100] Creating Layer data
I0523 08:58:25.467829  9444 net.cpp:408] data -> triplet
I0523 08:58:25.495375  9472 db_lmdb.cpp:35] Opened lmdb /data/leo-data/Synthetic/LMDB/Triplets/train
I0523 08:58:25.603512  9444 data_layer.cpp:41] output data size: 10,144,112,112
I0523 08:58:25.926153  9444 net.cpp:150] Setting up data
I0523 08:58:25.926215  9444 net.cpp:157] Top shape: 10 144 112 112 (18063360)
I0523 08:58:25.926220  9444 net.cpp:165] Memory required for data: 72253440
I0523 08:58:25.926231  9444 layer_factory.hpp:77] Creating layer slicer
I0523 08:58:25.926250  9444 net.cpp:100] Creating Layer slicer
I0523 08:58:25.926256  9444 net.cpp:434] slicer <- triplet
I0523 08:58:25.926265  9444 net.cpp:408] slicer -> anchor_stacked
I0523 08:58:25.926301  9444 net.cpp:408] slicer -> positive_stacked
I0523 08:58:25.926308  9444 net.cpp:408] slicer -> negative_stacked
I0523 08:58:25.926544  9444 net.cpp:150] Setting up slicer
I0523 08:58:25.926556  9444 net.cpp:157] Top shape: 10 48 112 112 (6021120)
I0523 08:58:25.926561  9444 net.cpp:157] Top shape: 10 48 112 112 (6021120)
I0523 08:58:25.926564  9444 net.cpp:157] Top shape: 10 48 112 112 (6021120)
I0523 08:58:25.926568  9444 net.cpp:165] Memory required for data: 144506880
I0523 08:58:25.926570  9444 layer_factory.hpp:77] Creating layer reshape_anchor
I0523 08:58:25.926585  9444 net.cpp:100] Creating Layer reshape_anchor
I0523 08:58:25.926590  9444 net.cpp:434] reshape_anchor <- anchor_stacked
I0523 08:58:25.926600  9444 net.cpp:408] reshape_anchor -> anchor
I0523 08:58:25.926636  9444 net.cpp:150] Setting up reshape_anchor
I0523 08:58:25.926643  9444 net.cpp:157] Top shape: 10 3 16 112 112 (6021120)
I0523 08:58:25.926647  9444 net.cpp:165] Memory required for data: 168591360
I0523 08:58:25.926651  9444 layer_factory.hpp:77] Creating layer reshape_positive
I0523 08:58:25.926656  9444 net.cpp:100] Creating Layer reshape_positive
I0523 08:58:25.926661  9444 net.cpp:434] reshape_positive <- positive_stacked
I0523 08:58:25.926666  9444 net.cpp:408] reshape_positive -> positive
I0523 08:58:25.926700  9444 net.cpp:150] Setting up reshape_positive
I0523 08:58:25.926709  9444 net.cpp:157] Top shape: 10 3 16 112 112 (6021120)
I0523 08:58:25.926717  9444 net.cpp:165] Memory required for data: 192675840
I0523 08:58:25.926739  9444 layer_factory.hpp:77] Creating layer reshape_negative
I0523 08:58:25.926745  9444 net.cpp:100] Creating Layer reshape_negative
I0523 08:58:25.926750  9444 net.cpp:434] reshape_negative <- negative_stacked
I0523 08:58:25.926754  9444 net.cpp:408] reshape_negative -> negative
I0523 08:58:25.926779  9444 net.cpp:150] Setting up reshape_negative
I0523 08:58:25.926785  9444 net.cpp:157] Top shape: 10 3 16 112 112 (6021120)
I0523 08:58:25.926789  9444 net.cpp:165] Memory required for data: 216760320
I0523 08:58:25.926791  9444 layer_factory.hpp:77] Creating layer conv1a
I0523 08:58:25.926806  9444 net.cpp:100] Creating Layer conv1a
I0523 08:58:25.926813  9444 net.cpp:434] conv1a <- anchor
I0523 08:58:25.926825  9444 net.cpp:408] conv1a -> conv1a
I0523 08:58:26.863108  9444 net.cpp:150] Setting up conv1a
I0523 08:58:26.863152  9444 net.cpp:157] Top shape: 10 64 16 112 112 (128450560)
I0523 08:58:26.863157  9444 net.cpp:165] Memory required for data: 730562560
I0523 08:58:26.863178  9444 layer_factory.hpp:77] Creating layer relu1a
I0523 08:58:26.863193  9444 net.cpp:100] Creating Layer relu1a
I0523 08:58:26.863198  9444 net.cpp:434] relu1a <- conv1a
I0523 08:58:26.863205  9444 net.cpp:395] relu1a -> conv1a (in-place)
I0523 08:58:26.863493  9444 net.cpp:150] Setting up relu1a
I0523 08:58:26.863504  9444 net.cpp:157] Top shape: 10 64 16 112 112 (128450560)
I0523 08:58:26.863508  9444 net.cpp:165] Memory required for data: 1244364800
I0523 08:58:26.863512  9444 layer_factory.hpp:77] Creating layer pool1
I0523 08:58:26.863524  9444 net.cpp:100] Creating Layer pool1
I0523 08:58:26.863528  9444 net.cpp:434] pool1 <- conv1a
I0523 08:58:26.863534  9444 net.cpp:408] pool1 -> pool1
I0523 08:58:26.871336  9444 net.cpp:150] Setting up pool1
I0523 08:58:26.871381  9444 net.cpp:157] Top shape: 10 64 16 56 56 (32112640)
I0523 08:58:26.871386  9444 net.cpp:165] Memory required for data: 1372815360
I0523 08:58:26.871392  9444 layer_factory.hpp:77] Creating layer conv2a
I0523 08:58:26.871415  9444 net.cpp:100] Creating Layer conv2a
I0523 08:58:26.871420  9444 net.cpp:434] conv2a <- pool1
I0523 08:58:26.871433  9444 net.cpp:408] conv2a -> conv2a
I0523 08:58:26.882539  9444 net.cpp:150] Setting up conv2a
I0523 08:58:26.882586  9444 net.cpp:157] Top shape: 10 128 16 56 56 (64225280)
I0523 08:58:26.882592  9444 net.cpp:165] Memory required for data: 1629716480
I0523 08:58:26.882622  9444 layer_factory.hpp:77] Creating layer relu2a
I0523 08:58:26.882665  9444 net.cpp:100] Creating Layer relu2a
I0523 08:58:26.882674  9444 net.cpp:434] relu2a <- conv2a
I0523 08:58:26.882685  9444 net.cpp:395] relu2a -> conv2a (in-place)
I0523 08:58:26.882956  9444 net.cpp:150] Setting up relu2a
I0523 08:58:26.882971  9444 net.cpp:157] Top shape: 10 128 16 56 56 (64225280)
I0523 08:58:26.882977  9444 net.cpp:165] Memory required for data: 1886617600
I0523 08:58:26.882983  9444 layer_factory.hpp:77] Creating layer pool2
I0523 08:58:26.883002  9444 net.cpp:100] Creating Layer pool2
I0523 08:58:26.883008  9444 net.cpp:434] pool2 <- conv2a
I0523 08:58:26.883023  9444 net.cpp:408] pool2 -> pool2
I0523 08:58:26.883291  9444 net.cpp:150] Setting up pool2
I0523 08:58:26.883306  9444 net.cpp:157] Top shape: 10 128 8 28 28 (8028160)
I0523 08:58:26.883311  9444 net.cpp:165] Memory required for data: 1918730240
I0523 08:58:26.883316  9444 layer_factory.hpp:77] Creating layer conv3a
I0523 08:58:26.883339  9444 net.cpp:100] Creating Layer conv3a
I0523 08:58:26.883347  9444 net.cpp:434] conv3a <- pool2
I0523 08:58:26.883359  9444 net.cpp:408] conv3a -> conv3a
I0523 08:58:26.914645  9444 net.cpp:150] Setting up conv3a
I0523 08:58:26.914670  9444 net.cpp:157] Top shape: 10 256 8 28 28 (16056320)
I0523 08:58:26.914676  9444 net.cpp:165] Memory required for data: 1982955520
I0523 08:58:26.914710  9444 layer_factory.hpp:77] Creating layer relu3a
I0523 08:58:26.914726  9444 net.cpp:100] Creating Layer relu3a
I0523 08:58:26.914736  9444 net.cpp:434] relu3a <- conv3a
I0523 08:58:26.914747  9444 net.cpp:395] relu3a -> conv3a (in-place)
I0523 08:58:26.914990  9444 net.cpp:150] Setting up relu3a
I0523 08:58:26.915004  9444 net.cpp:157] Top shape: 10 256 8 28 28 (16056320)
I0523 08:58:26.915010  9444 net.cpp:165] Memory required for data: 2047180800
I0523 08:58:26.915016  9444 layer_factory.hpp:77] Creating layer pool3
I0523 08:58:26.915030  9444 net.cpp:100] Creating Layer pool3
I0523 08:58:26.915035  9444 net.cpp:434] pool3 <- conv3a
I0523 08:58:26.915048  9444 net.cpp:408] pool3 -> pool3
I0523 08:58:26.915290  9444 net.cpp:150] Setting up pool3
I0523 08:58:26.915302  9444 net.cpp:157] Top shape: 10 256 4 14 14 (2007040)
I0523 08:58:26.915305  9444 net.cpp:165] Memory required for data: 2055208960
I0523 08:58:26.915308  9444 layer_factory.hpp:77] Creating layer conv4a
I0523 08:58:26.915320  9444 net.cpp:100] Creating Layer conv4a
I0523 08:58:26.915325  9444 net.cpp:434] conv4a <- pool3
I0523 08:58:26.915331  9444 net.cpp:408] conv4a -> conv4a
I0523 08:58:26.983361  9444 net.cpp:150] Setting up conv4a
I0523 08:58:26.983391  9444 net.cpp:157] Top shape: 10 256 4 14 14 (2007040)
I0523 08:58:26.983394  9444 net.cpp:165] Memory required for data: 2063237120
I0523 08:58:26.983405  9444 layer_factory.hpp:77] Creating layer relu4a
I0523 08:58:26.983417  9444 net.cpp:100] Creating Layer relu4a
I0523 08:58:26.983422  9444 net.cpp:434] relu4a <- conv4a
I0523 08:58:26.983429  9444 net.cpp:395] relu4a -> conv4a (in-place)
I0523 08:58:26.984342  9444 net.cpp:150] Setting up relu4a
I0523 08:58:26.984356  9444 net.cpp:157] Top shape: 10 256 4 14 14 (2007040)
I0523 08:58:26.984360  9444 net.cpp:165] Memory required for data: 2071265280
I0523 08:58:26.984364  9444 layer_factory.hpp:77] Creating layer pool4
I0523 08:58:26.984377  9444 net.cpp:100] Creating Layer pool4
I0523 08:58:26.984381  9444 net.cpp:434] pool4 <- conv4a
I0523 08:58:26.984390  9444 net.cpp:408] pool4 -> pool4
I0523 08:58:26.984616  9444 net.cpp:150] Setting up pool4
I0523 08:58:26.984629  9444 net.cpp:157] Top shape: 10 256 2 7 7 (250880)
I0523 08:58:26.984633  9444 net.cpp:165] Memory required for data: 2072268800
I0523 08:58:26.984637  9444 layer_factory.hpp:77] Creating layer conv5a
I0523 08:58:26.984648  9444 net.cpp:100] Creating Layer conv5a
I0523 08:58:26.984653  9444 net.cpp:434] conv5a <- pool4
I0523 08:58:26.984663  9444 net.cpp:408] conv5a -> conv5a
I0523 08:58:27.045001  9444 net.cpp:150] Setting up conv5a
I0523 08:58:27.045017  9444 net.cpp:157] Top shape: 10 256 2 7 7 (250880)
I0523 08:58:27.045022  9444 net.cpp:165] Memory required for data: 2073272320
I0523 08:58:27.045033  9444 layer_factory.hpp:77] Creating layer relu5a
I0523 08:58:27.045042  9444 net.cpp:100] Creating Layer relu5a
I0523 08:58:27.045047  9444 net.cpp:434] relu5a <- conv5a
I0523 08:58:27.045051  9444 net.cpp:395] relu5a -> conv5a (in-place)
I0523 08:58:27.045245  9444 net.cpp:150] Setting up relu5a
I0523 08:58:27.045256  9444 net.cpp:157] Top shape: 10 256 2 7 7 (250880)
I0523 08:58:27.045260  9444 net.cpp:165] Memory required for data: 2074275840
I0523 08:58:27.045264  9444 layer_factory.hpp:77] Creating layer pool5
I0523 08:58:27.045271  9444 net.cpp:100] Creating Layer pool5
I0523 08:58:27.045279  9444 net.cpp:434] pool5 <- conv5a
I0523 08:58:27.045284  9444 net.cpp:408] pool5 -> pool5
I0523 08:58:27.045516  9444 net.cpp:150] Setting up pool5
I0523 08:58:27.045527  9444 net.cpp:157] Top shape: 10 256 1 4 4 (40960)
I0523 08:58:27.045531  9444 net.cpp:165] Memory required for data: 2074439680
I0523 08:58:27.045536  9444 layer_factory.hpp:77] Creating layer fc6
I0523 08:58:27.045562  9444 net.cpp:100] Creating Layer fc6
I0523 08:58:27.045568  9444 net.cpp:434] fc6 <- pool5
I0523 08:58:27.045575  9444 net.cpp:408] fc6 -> fc6
I0523 08:58:27.341907  9444 net.cpp:150] Setting up fc6
I0523 08:58:27.341951  9444 net.cpp:157] Top shape: 10 2048 (20480)
I0523 08:58:27.341958  9444 net.cpp:165] Memory required for data: 2074521600
I0523 08:58:27.341989  9444 layer_factory.hpp:77] Creating layer relu6
I0523 08:58:27.342016  9444 net.cpp:100] Creating Layer relu6
I0523 08:58:27.342030  9444 net.cpp:434] relu6 <- fc6
I0523 08:58:27.342075  9444 net.cpp:395] relu6 -> fc6 (in-place)
I0523 08:58:27.347111  9444 net.cpp:150] Setting up relu6
I0523 08:58:27.347143  9444 net.cpp:157] Top shape: 10 2048 (20480)
I0523 08:58:27.347151  9444 net.cpp:165] Memory required for data: 2074603520
I0523 08:58:27.347158  9444 layer_factory.hpp:77] Creating layer drop6
I0523 08:58:27.347178  9444 net.cpp:100] Creating Layer drop6
I0523 08:58:27.347185  9444 net.cpp:434] drop6 <- fc6
I0523 08:58:27.347195  9444 net.cpp:395] drop6 -> fc6 (in-place)
I0523 08:58:27.347281  9444 net.cpp:150] Setting up drop6
I0523 08:58:27.347299  9444 net.cpp:157] Top shape: 10 2048 (20480)
I0523 08:58:27.347309  9444 net.cpp:165] Memory required for data: 2074685440
I0523 08:58:27.347321  9444 layer_factory.hpp:77] Creating layer fc7
I0523 08:58:27.347352  9444 net.cpp:100] Creating Layer fc7
I0523 08:58:27.347364  9444 net.cpp:434] fc7 <- fc6
I0523 08:58:27.347383  9444 net.cpp:408] fc7 -> fc7
I0523 08:58:27.531834  9444 net.cpp:150] Setting up fc7
I0523 08:58:27.531883  9444 net.cpp:157] Top shape: 10 2048 (20480)
I0523 08:58:27.531886  9444 net.cpp:165] Memory required for data: 2074767360
I0523 08:58:27.531901  9444 layer_factory.hpp:77] Creating layer relu7
I0523 08:58:27.531916  9444 net.cpp:100] Creating Layer relu7
I0523 08:58:27.531924  9444 net.cpp:434] relu7 <- fc7
I0523 08:58:27.531930  9444 net.cpp:395] relu7 -> fc7 (in-place)
I0523 08:58:27.532228  9444 net.cpp:150] Setting up relu7
I0523 08:58:27.532240  9444 net.cpp:157] Top shape: 10 2048 (20480)
I0523 08:58:27.532243  9444 net.cpp:165] Memory required for data: 2074849280
I0523 08:58:27.532248  9444 layer_factory.hpp:77] Creating layer drop7
I0523 08:58:27.532265  9444 net.cpp:100] Creating Layer drop7
I0523 08:58:27.532271  9444 net.cpp:434] drop7 <- fc7
I0523 08:58:27.532275  9444 net.cpp:395] drop7 -> fc7 (in-place)
I0523 08:58:27.532307  9444 net.cpp:150] Setting up drop7
I0523 08:58:27.532313  9444 net.cpp:157] Top shape: 10 2048 (20480)
I0523 08:58:27.532316  9444 net.cpp:165] Memory required for data: 2074931200
I0523 08:58:27.532320  9444 layer_factory.hpp:77] Creating layer mvn
I0523 08:58:28.448365  9444 net.cpp:100] Creating Layer mvn
I0523 08:58:28.448388  9444 net.cpp:434] mvn <- fc7
I0523 08:58:28.448398  9444 net.cpp:408] mvn -> fc7_norm
I0523 08:58:29.486135  9444 net.cpp:150] Setting up mvn
I0523 08:58:29.486174  9444 net.cpp:157] Top shape: 10 2048 (20480)
I0523 08:58:29.486178  9444 net.cpp:165] Memory required for data: 2075013120
I0523 08:58:29.486191  9444 layer_factory.hpp:77] Creating layer conv1a_pos
I0523 08:58:29.486219  9444 net.cpp:100] Creating Layer conv1a_pos
I0523 08:58:29.486225  9444 net.cpp:434] conv1a_pos <- positive
I0523 08:58:29.486238  9444 net.cpp:408] conv1a_pos -> conv1a_pos
I0523 08:58:29.489454  9444 net.cpp:150] Setting up conv1a_pos
I0523 08:58:29.489469  9444 net.cpp:157] Top shape: 10 64 16 112 112 (128450560)
I0523 08:58:29.489472  9444 net.cpp:165] Memory required for data: 2588815360
I0523 08:58:29.489480  9444 net.cpp:493] Sharing parameters 'conv1a_w' owned by layer 'conv1a', param index 0
I0523 08:58:29.489487  9444 net.cpp:493] Sharing parameters 'conv1a_b' owned by layer 'conv1a', param index 1
I0523 08:58:29.489490  9444 layer_factory.hpp:77] Creating layer relu1a_pos
I0523 08:58:29.489501  9444 net.cpp:100] Creating Layer relu1a_pos
I0523 08:58:29.489506  9444 net.cpp:434] relu1a_pos <- conv1a_pos
I0523 08:58:29.489517  9444 net.cpp:395] relu1a_pos -> conv1a_pos (in-place)
I0523 08:58:29.489717  9444 net.cpp:150] Setting up relu1a_pos
I0523 08:58:29.489727  9444 net.cpp:157] Top shape: 10 64 16 112 112 (128450560)
I0523 08:58:29.489729  9444 net.cpp:165] Memory required for data: 3102617600
I0523 08:58:29.489734  9444 layer_factory.hpp:77] Creating layer pool1_pos
I0523 08:58:29.489744  9444 net.cpp:100] Creating Layer pool1_pos
I0523 08:58:29.489748  9444 net.cpp:434] pool1_pos <- conv1a_pos
I0523 08:58:29.489754  9444 net.cpp:408] pool1_pos -> pool1_pos
I0523 08:58:29.490619  9444 net.cpp:150] Setting up pool1_pos
I0523 08:58:29.490633  9444 net.cpp:157] Top shape: 10 64 16 56 56 (32112640)
I0523 08:58:29.490658  9444 net.cpp:165] Memory required for data: 3231068160
I0523 08:58:29.490664  9444 layer_factory.hpp:77] Creating layer conv2a_pos
I0523 08:58:29.490677  9444 net.cpp:100] Creating Layer conv2a_pos
I0523 08:58:29.490682  9444 net.cpp:434] conv2a_pos <- pool1_pos
I0523 08:58:29.490694  9444 net.cpp:408] conv2a_pos -> conv2a_pos
I0523 08:58:29.497910  9444 net.cpp:150] Setting up conv2a_pos
I0523 08:58:29.497928  9444 net.cpp:157] Top shape: 10 128 16 56 56 (64225280)
I0523 08:58:29.497943  9444 net.cpp:165] Memory required for data: 3487969280
I0523 08:58:29.497961  9444 net.cpp:493] Sharing parameters 'conv2a_w' owned by layer 'conv2a', param index 0
I0523 08:58:29.497967  9444 net.cpp:493] Sharing parameters 'conv2a_b' owned by layer 'conv2a', param index 1
I0523 08:58:29.497970  9444 layer_factory.hpp:77] Creating layer relu2a_pos
I0523 08:58:29.497987  9444 net.cpp:100] Creating Layer relu2a_pos
I0523 08:58:29.497993  9444 net.cpp:434] relu2a_pos <- conv2a_pos
I0523 08:58:29.497998  9444 net.cpp:395] relu2a_pos -> conv2a_pos (in-place)
I0523 08:58:29.499897  9444 net.cpp:150] Setting up relu2a_pos
I0523 08:58:29.499912  9444 net.cpp:157] Top shape: 10 128 16 56 56 (64225280)
I0523 08:58:29.499927  9444 net.cpp:165] Memory required for data: 3744870400
I0523 08:58:29.499932  9444 layer_factory.hpp:77] Creating layer pool2_pos
I0523 08:58:29.499958  9444 net.cpp:100] Creating Layer pool2_pos
I0523 08:58:29.499963  9444 net.cpp:434] pool2_pos <- conv2a_pos
I0523 08:58:29.499969  9444 net.cpp:408] pool2_pos -> pool2_pos
I0523 08:58:29.500198  9444 net.cpp:150] Setting up pool2_pos
I0523 08:58:29.500207  9444 net.cpp:157] Top shape: 10 128 8 28 28 (8028160)
I0523 08:58:29.500211  9444 net.cpp:165] Memory required for data: 3776983040
I0523 08:58:29.500214  9444 layer_factory.hpp:77] Creating layer conv3a_pos
I0523 08:58:29.500232  9444 net.cpp:100] Creating Layer conv3a_pos
I0523 08:58:29.500237  9444 net.cpp:434] conv3a_pos <- pool2_pos
I0523 08:58:29.500246  9444 net.cpp:408] conv3a_pos -> conv3a_pos
I0523 08:58:29.528887  9444 net.cpp:150] Setting up conv3a_pos
I0523 08:58:29.528928  9444 net.cpp:157] Top shape: 10 256 8 28 28 (16056320)
I0523 08:58:29.528933  9444 net.cpp:165] Memory required for data: 3841208320
I0523 08:58:29.528939  9444 net.cpp:493] Sharing parameters 'conv3a_w' owned by layer 'conv3a', param index 0
I0523 08:58:29.528945  9444 net.cpp:493] Sharing parameters 'conv3a_b' owned by layer 'conv3a', param index 1
I0523 08:58:29.528950  9444 layer_factory.hpp:77] Creating layer relu3a_pos
I0523 08:58:29.528964  9444 net.cpp:100] Creating Layer relu3a_pos
I0523 08:58:29.528970  9444 net.cpp:434] relu3a_pos <- conv3a_pos
I0523 08:58:29.528976  9444 net.cpp:395] relu3a_pos -> conv3a_pos (in-place)
I0523 08:58:29.529176  9444 net.cpp:150] Setting up relu3a_pos
I0523 08:58:29.529188  9444 net.cpp:157] Top shape: 10 256 8 28 28 (16056320)
I0523 08:58:29.529191  9444 net.cpp:165] Memory required for data: 3905433600
I0523 08:58:29.529196  9444 layer_factory.hpp:77] Creating layer pool3_pos
I0523 08:58:29.529203  9444 net.cpp:100] Creating Layer pool3_pos
I0523 08:58:29.529211  9444 net.cpp:434] pool3_pos <- conv3a_pos
I0523 08:58:29.529218  9444 net.cpp:408] pool3_pos -> pool3_pos
I0523 08:58:29.529450  9444 net.cpp:150] Setting up pool3_pos
I0523 08:58:29.529459  9444 net.cpp:157] Top shape: 10 256 4 14 14 (2007040)
I0523 08:58:29.529462  9444 net.cpp:165] Memory required for data: 3913461760
I0523 08:58:29.529466  9444 layer_factory.hpp:77] Creating layer conv4a_pos
I0523 08:58:29.529480  9444 net.cpp:100] Creating Layer conv4a_pos
I0523 08:58:29.529485  9444 net.cpp:434] conv4a_pos <- pool3_pos
I0523 08:58:29.529494  9444 net.cpp:408] conv4a_pos -> conv4a_pos
I0523 08:58:29.584552  9444 net.cpp:150] Setting up conv4a_pos
I0523 08:58:29.584595  9444 net.cpp:157] Top shape: 10 256 4 14 14 (2007040)
I0523 08:58:29.584599  9444 net.cpp:165] Memory required for data: 3921489920
I0523 08:58:29.584607  9444 net.cpp:493] Sharing parameters 'conv4a_w' owned by layer 'conv4a', param index 0
I0523 08:58:29.584635  9444 net.cpp:493] Sharing parameters 'conv4a_b' owned by layer 'conv4a', param index 1
I0523 08:58:29.584650  9444 layer_factory.hpp:77] Creating layer relu4a_pos
I0523 08:58:29.584661  9444 net.cpp:100] Creating Layer relu4a_pos
I0523 08:58:29.584667  9444 net.cpp:434] relu4a_pos <- conv4a_pos
I0523 08:58:29.584673  9444 net.cpp:395] relu4a_pos -> conv4a_pos (in-place)
I0523 08:58:29.585546  9444 net.cpp:150] Setting up relu4a_pos
I0523 08:58:29.585559  9444 net.cpp:157] Top shape: 10 256 4 14 14 (2007040)
I0523 08:58:29.585574  9444 net.cpp:165] Memory required for data: 3929518080
I0523 08:58:29.585578  9444 layer_factory.hpp:77] Creating layer pool4_pos
I0523 08:58:29.585588  9444 net.cpp:100] Creating Layer pool4_pos
I0523 08:58:29.585592  9444 net.cpp:434] pool4_pos <- conv4a_pos
I0523 08:58:29.585599  9444 net.cpp:408] pool4_pos -> pool4_pos
I0523 08:58:29.585842  9444 net.cpp:150] Setting up pool4_pos
I0523 08:58:29.585852  9444 net.cpp:157] Top shape: 10 256 2 7 7 (250880)
I0523 08:58:29.585855  9444 net.cpp:165] Memory required for data: 3930521600
I0523 08:58:29.585857  9444 layer_factory.hpp:77] Creating layer conv5a_pos
I0523 08:58:29.585873  9444 net.cpp:100] Creating Layer conv5a_pos
I0523 08:58:29.585877  9444 net.cpp:434] conv5a_pos <- pool4_pos
I0523 08:58:29.585885  9444 net.cpp:408] conv5a_pos -> conv5a_pos
I0523 08:58:29.645087  9444 net.cpp:150] Setting up conv5a_pos
I0523 08:58:29.645133  9444 net.cpp:157] Top shape: 10 256 2 7 7 (250880)
I0523 08:58:29.645136  9444 net.cpp:165] Memory required for data: 3931525120
I0523 08:58:29.645143  9444 net.cpp:493] Sharing parameters 'conv5a_w' owned by layer 'conv5a', param index 0
I0523 08:58:29.645150  9444 net.cpp:493] Sharing parameters 'conv5a_b' owned by layer 'conv5a', param index 1
I0523 08:58:29.645155  9444 layer_factory.hpp:77] Creating layer relu5a_pos
I0523 08:58:29.645167  9444 net.cpp:100] Creating Layer relu5a_pos
I0523 08:58:29.645185  9444 net.cpp:434] relu5a_pos <- conv5a_pos
I0523 08:58:29.645195  9444 net.cpp:395] relu5a_pos -> conv5a_pos (in-place)
I0523 08:58:29.645407  9444 net.cpp:150] Setting up relu5a_pos
I0523 08:58:29.645417  9444 net.cpp:157] Top shape: 10 256 2 7 7 (250880)
I0523 08:58:29.645421  9444 net.cpp:165] Memory required for data: 3932528640
I0523 08:58:29.645424  9444 layer_factory.hpp:77] Creating layer pool5_pos
I0523 08:58:29.645434  9444 net.cpp:100] Creating Layer pool5_pos
I0523 08:58:29.645438  9444 net.cpp:434] pool5_pos <- conv5a_pos
I0523 08:58:29.645445  9444 net.cpp:408] pool5_pos -> pool5_pos
I0523 08:58:29.645690  9444 net.cpp:150] Setting up pool5_pos
I0523 08:58:29.645705  9444 net.cpp:157] Top shape: 10 256 1 4 4 (40960)
I0523 08:58:29.645720  9444 net.cpp:165] Memory required for data: 3932692480
I0523 08:58:29.645722  9444 layer_factory.hpp:77] Creating layer fc6_pos
I0523 08:58:29.645732  9444 net.cpp:100] Creating Layer fc6_pos
I0523 08:58:29.645736  9444 net.cpp:434] fc6_pos <- pool5_pos
I0523 08:58:29.645759  9444 net.cpp:408] fc6_pos -> fc6_pos
I0523 08:58:29.914422  9444 net.cpp:150] Setting up fc6_pos
I0523 08:58:29.914474  9444 net.cpp:157] Top shape: 10 2048 (20480)
I0523 08:58:29.914479  9444 net.cpp:165] Memory required for data: 3932774400
I0523 08:58:29.914491  9444 net.cpp:493] Sharing parameters 'fc6_w' owned by layer 'fc6', param index 0
I0523 08:58:29.914499  9444 net.cpp:493] Sharing parameters 'fc6_b' owned by layer 'fc6', param index 1
I0523 08:58:29.914508  9444 layer_factory.hpp:77] Creating layer relu6_pos
I0523 08:58:29.914527  9444 net.cpp:100] Creating Layer relu6_pos
I0523 08:58:29.914535  9444 net.cpp:434] relu6_pos <- fc6_pos
I0523 08:58:29.914544  9444 net.cpp:395] relu6_pos -> fc6_pos (in-place)
I0523 08:58:29.918046  9444 net.cpp:150] Setting up relu6_pos
I0523 08:58:29.918063  9444 net.cpp:157] Top shape: 10 2048 (20480)
I0523 08:58:29.918067  9444 net.cpp:165] Memory required for data: 3932856320
I0523 08:58:29.918071  9444 layer_factory.hpp:77] Creating layer drop6_pos
I0523 08:58:29.918081  9444 net.cpp:100] Creating Layer drop6_pos
I0523 08:58:29.918102  9444 net.cpp:434] drop6_pos <- fc6_pos
I0523 08:58:29.918108  9444 net.cpp:395] drop6_pos -> fc6_pos (in-place)
I0523 08:58:29.918151  9444 net.cpp:150] Setting up drop6_pos
I0523 08:58:29.918159  9444 net.cpp:157] Top shape: 10 2048 (20480)
I0523 08:58:29.918162  9444 net.cpp:165] Memory required for data: 3932938240
I0523 08:58:29.918165  9444 layer_factory.hpp:77] Creating layer fc7_pos
I0523 08:58:29.918176  9444 net.cpp:100] Creating Layer fc7_pos
I0523 08:58:29.918180  9444 net.cpp:434] fc7_pos <- fc6_pos
I0523 08:58:29.918185  9444 net.cpp:408] fc7_pos -> fc7_pos
I0523 08:58:30.054626  9444 net.cpp:150] Setting up fc7_pos
I0523 08:58:30.054664  9444 net.cpp:157] Top shape: 10 2048 (20480)
I0523 08:58:30.054669  9444 net.cpp:165] Memory required for data: 3933020160
I0523 08:58:30.054679  9444 net.cpp:493] Sharing parameters 'fc7_w' owned by layer 'fc7', param index 0
I0523 08:58:30.054687  9444 net.cpp:493] Sharing parameters 'fc7_b' owned by layer 'fc7', param index 1
I0523 08:58:30.054692  9444 layer_factory.hpp:77] Creating layer relu7_pos
I0523 08:58:30.054703  9444 net.cpp:100] Creating Layer relu7_pos
I0523 08:58:30.054709  9444 net.cpp:434] relu7_pos <- fc7_pos
I0523 08:58:30.054716  9444 net.cpp:395] relu7_pos -> fc7_pos (in-place)
I0523 08:58:30.055054  9444 net.cpp:150] Setting up relu7_pos
I0523 08:58:30.055065  9444 net.cpp:157] Top shape: 10 2048 (20480)
I0523 08:58:30.055069  9444 net.cpp:165] Memory required for data: 3933102080
I0523 08:58:30.055078  9444 layer_factory.hpp:77] Creating layer drop7_pos
I0523 08:58:30.055099  9444 net.cpp:100] Creating Layer drop7_pos
I0523 08:58:30.055106  9444 net.cpp:434] drop7_pos <- fc7_pos
I0523 08:58:30.055114  9444 net.cpp:395] drop7_pos -> fc7_pos (in-place)
I0523 08:58:30.055160  9444 net.cpp:150] Setting up drop7_pos
I0523 08:58:30.055171  9444 net.cpp:157] Top shape: 10 2048 (20480)
I0523 08:58:30.055176  9444 net.cpp:165] Memory required for data: 3933184000
I0523 08:58:30.055181  9444 layer_factory.hpp:77] Creating layer mvn_pos
I0523 08:58:30.055292  9444 net.cpp:100] Creating Layer mvn_pos
I0523 08:58:30.055301  9444 net.cpp:434] mvn_pos <- fc7_pos
I0523 08:58:30.055310  9444 net.cpp:408] mvn_pos -> fc7_pos_norm
I0523 08:58:30.055565  9444 net.cpp:150] Setting up mvn_pos
I0523 08:58:30.055580  9444 net.cpp:157] Top shape: 10 2048 (20480)
I0523 08:58:30.055585  9444 net.cpp:165] Memory required for data: 3933265920
I0523 08:58:30.055591  9444 layer_factory.hpp:77] Creating layer conv1a_neg
I0523 08:58:30.055611  9444 net.cpp:100] Creating Layer conv1a_neg
I0523 08:58:30.055621  9444 net.cpp:434] conv1a_neg <- negative
I0523 08:58:30.055636  9444 net.cpp:408] conv1a_neg -> conv1a_neg
I0523 08:58:30.069346  9444 net.cpp:150] Setting up conv1a_neg
I0523 08:58:30.069382  9444 net.cpp:157] Top shape: 10 64 16 112 112 (128450560)
I0523 08:58:30.069387  9444 net.cpp:165] Memory required for data: 4447068160
I0523 08:58:30.069397  9444 net.cpp:493] Sharing parameters 'conv1a_w' owned by layer 'conv1a', param index 0
I0523 08:58:30.069406  9444 net.cpp:493] Sharing parameters 'conv1a_b' owned by layer 'conv1a', param index 1
I0523 08:58:30.069422  9444 layer_factory.hpp:77] Creating layer relu1a_neg
I0523 08:58:30.069439  9444 net.cpp:100] Creating Layer relu1a_neg
I0523 08:58:30.069456  9444 net.cpp:434] relu1a_neg <- conv1a_neg
I0523 08:58:30.069464  9444 net.cpp:395] relu1a_neg -> conv1a_neg (in-place)
I0523 08:58:30.069820  9444 net.cpp:150] Setting up relu1a_neg
I0523 08:58:30.069836  9444 net.cpp:157] Top shape: 10 64 16 112 112 (128450560)
I0523 08:58:30.069841  9444 net.cpp:165] Memory required for data: 4960870400
I0523 08:58:30.069846  9444 layer_factory.hpp:77] Creating layer pool1_neg
I0523 08:58:30.069856  9444 net.cpp:100] Creating Layer pool1_neg
I0523 08:58:30.069861  9444 net.cpp:434] pool1_neg <- conv1a_neg
I0523 08:58:30.069870  9444 net.cpp:408] pool1_neg -> pool1_neg
I0523 08:58:30.070232  9444 net.cpp:150] Setting up pool1_neg
I0523 08:58:30.070253  9444 net.cpp:157] Top shape: 10 64 16 56 56 (32112640)
I0523 08:58:30.070310  9444 net.cpp:165] Memory required for data: 5089320960
I0523 08:58:30.070317  9444 layer_factory.hpp:77] Creating layer conv2a_neg
I0523 08:58:30.070333  9444 net.cpp:100] Creating Layer conv2a_neg
I0523 08:58:30.070340  9444 net.cpp:434] conv2a_neg <- pool1_neg
I0523 08:58:30.070350  9444 net.cpp:408] conv2a_neg -> conv2a_neg
I0523 08:58:30.089483  9444 net.cpp:150] Setting up conv2a_neg
I0523 08:58:30.089499  9444 net.cpp:157] Top shape: 10 128 16 56 56 (64225280)
I0523 08:58:30.089503  9444 net.cpp:165] Memory required for data: 5346222080
I0523 08:58:30.089506  9444 net.cpp:493] Sharing parameters 'conv2a_w' owned by layer 'conv2a', param index 0
I0523 08:58:30.089511  9444 net.cpp:493] Sharing parameters 'conv2a_b' owned by layer 'conv2a', param index 1
I0523 08:58:30.089514  9444 layer_factory.hpp:77] Creating layer relu2a_neg
I0523 08:58:30.089521  9444 net.cpp:100] Creating Layer relu2a_neg
I0523 08:58:30.089525  9444 net.cpp:434] relu2a_neg <- conv2a_neg
I0523 08:58:30.089530  9444 net.cpp:395] relu2a_neg -> conv2a_neg (in-place)
I0523 08:58:30.089715  9444 net.cpp:150] Setting up relu2a_neg
I0523 08:58:30.089725  9444 net.cpp:157] Top shape: 10 128 16 56 56 (64225280)
I0523 08:58:30.089728  9444 net.cpp:165] Memory required for data: 5603123200
I0523 08:58:30.089731  9444 layer_factory.hpp:77] Creating layer pool2_neg
I0523 08:58:30.089753  9444 net.cpp:100] Creating Layer pool2_neg
I0523 08:58:30.089758  9444 net.cpp:434] pool2_neg <- conv2a_neg
I0523 08:58:30.089766  9444 net.cpp:408] pool2_neg -> pool2_neg
I0523 08:58:30.090648  9444 net.cpp:150] Setting up pool2_neg
I0523 08:58:30.090661  9444 net.cpp:157] Top shape: 10 128 8 28 28 (8028160)
I0523 08:58:30.090663  9444 net.cpp:165] Memory required for data: 5635235840
I0523 08:58:30.090667  9444 layer_factory.hpp:77] Creating layer conv3a_neg
I0523 08:58:30.090677  9444 net.cpp:100] Creating Layer conv3a_neg
I0523 08:58:30.090682  9444 net.cpp:434] conv3a_neg <- pool2_neg
I0523 08:58:30.090688  9444 net.cpp:408] conv3a_neg -> conv3a_neg
I0523 08:58:30.119248  9444 net.cpp:150] Setting up conv3a_neg
I0523 08:58:30.119266  9444 net.cpp:157] Top shape: 10 256 8 28 28 (16056320)
I0523 08:58:30.119280  9444 net.cpp:165] Memory required for data: 5699461120
I0523 08:58:30.119294  9444 net.cpp:493] Sharing parameters 'conv3a_w' owned by layer 'conv3a', param index 0
I0523 08:58:30.119299  9444 net.cpp:493] Sharing parameters 'conv3a_b' owned by layer 'conv3a', param index 1
I0523 08:58:30.119302  9444 layer_factory.hpp:77] Creating layer relu3a_neg
I0523 08:58:30.119310  9444 net.cpp:100] Creating Layer relu3a_neg
I0523 08:58:30.119313  9444 net.cpp:434] relu3a_neg <- conv3a_neg
I0523 08:58:30.119318  9444 net.cpp:395] relu3a_neg -> conv3a_neg (in-place)
I0523 08:58:30.119513  9444 net.cpp:150] Setting up relu3a_neg
I0523 08:58:30.119524  9444 net.cpp:157] Top shape: 10 256 8 28 28 (16056320)
I0523 08:58:30.119526  9444 net.cpp:165] Memory required for data: 5763686400
I0523 08:58:30.119530  9444 layer_factory.hpp:77] Creating layer pool3_neg
I0523 08:58:30.119539  9444 net.cpp:100] Creating Layer pool3_neg
I0523 08:58:30.119542  9444 net.cpp:434] pool3_neg <- conv3a_neg
I0523 08:58:30.119549  9444 net.cpp:408] pool3_neg -> pool3_neg
I0523 08:58:30.119771  9444 net.cpp:150] Setting up pool3_neg
I0523 08:58:30.119781  9444 net.cpp:157] Top shape: 10 256 4 14 14 (2007040)
I0523 08:58:30.119784  9444 net.cpp:165] Memory required for data: 5771714560
I0523 08:58:30.119787  9444 layer_factory.hpp:77] Creating layer conv4a_neg
I0523 08:58:30.119796  9444 net.cpp:100] Creating Layer conv4a_neg
I0523 08:58:30.119801  9444 net.cpp:434] conv4a_neg <- pool3_neg
I0523 08:58:30.119809  9444 net.cpp:408] conv4a_neg -> conv4a_neg
I0523 08:58:30.176769  9444 net.cpp:150] Setting up conv4a_neg
I0523 08:58:30.176791  9444 net.cpp:157] Top shape: 10 256 4 14 14 (2007040)
I0523 08:58:30.176795  9444 net.cpp:165] Memory required for data: 5779742720
I0523 08:58:30.176800  9444 net.cpp:493] Sharing parameters 'conv4a_w' owned by layer 'conv4a', param index 0
I0523 08:58:30.176829  9444 net.cpp:493] Sharing parameters 'conv4a_b' owned by layer 'conv4a', param index 1
I0523 08:58:30.176833  9444 layer_factory.hpp:77] Creating layer relu4a_neg
I0523 08:58:30.176842  9444 net.cpp:100] Creating Layer relu4a_neg
I0523 08:58:30.176846  9444 net.cpp:434] relu4a_neg <- conv4a_neg
I0523 08:58:30.176851  9444 net.cpp:395] relu4a_neg -> conv4a_neg (in-place)
I0523 08:58:30.177045  9444 net.cpp:150] Setting up relu4a_neg
I0523 08:58:30.177055  9444 net.cpp:157] Top shape: 10 256 4 14 14 (2007040)
I0523 08:58:30.177059  9444 net.cpp:165] Memory required for data: 5787770880
I0523 08:58:30.177063  9444 layer_factory.hpp:77] Creating layer pool4_neg
I0523 08:58:30.177073  9444 net.cpp:100] Creating Layer pool4_neg
I0523 08:58:30.177075  9444 net.cpp:434] pool4_neg <- conv4a_neg
I0523 08:58:30.177083  9444 net.cpp:408] pool4_neg -> pool4_neg
I0523 08:58:30.178984  9444 net.cpp:150] Setting up pool4_neg
I0523 08:58:30.179011  9444 net.cpp:157] Top shape: 10 256 2 7 7 (250880)
I0523 08:58:30.179014  9444 net.cpp:165] Memory required for data: 5788774400
I0523 08:58:30.179018  9444 layer_factory.hpp:77] Creating layer conv5a_neg
I0523 08:58:30.179028  9444 net.cpp:100] Creating Layer conv5a_neg
I0523 08:58:30.179033  9444 net.cpp:434] conv5a_neg <- pool4_neg
I0523 08:58:30.179039  9444 net.cpp:408] conv5a_neg -> conv5a_neg
I0523 08:58:30.231281  9444 net.cpp:150] Setting up conv5a_neg
I0523 08:58:30.231309  9444 net.cpp:157] Top shape: 10 256 2 7 7 (250880)
I0523 08:58:30.231313  9444 net.cpp:165] Memory required for data: 5789777920
I0523 08:58:30.231318  9444 net.cpp:493] Sharing parameters 'conv5a_w' owned by layer 'conv5a', param index 0
I0523 08:58:30.231323  9444 net.cpp:493] Sharing parameters 'conv5a_b' owned by layer 'conv5a', param index 1
I0523 08:58:30.231326  9444 layer_factory.hpp:77] Creating layer relu5a_neg
I0523 08:58:30.231333  9444 net.cpp:100] Creating Layer relu5a_neg
I0523 08:58:30.231335  9444 net.cpp:434] relu5a_neg <- conv5a_neg
I0523 08:58:30.231343  9444 net.cpp:395] relu5a_neg -> conv5a_neg (in-place)
I0523 08:58:30.232241  9444 net.cpp:150] Setting up relu5a_neg
I0523 08:58:30.232254  9444 net.cpp:157] Top shape: 10 256 2 7 7 (250880)
I0523 08:58:30.232270  9444 net.cpp:165] Memory required for data: 5790781440
I0523 08:58:30.232275  9444 layer_factory.hpp:77] Creating layer pool5_neg
I0523 08:58:30.232282  9444 net.cpp:100] Creating Layer pool5_neg
I0523 08:58:30.232285  9444 net.cpp:434] pool5_neg <- conv5a_neg
I0523 08:58:30.232292  9444 net.cpp:408] pool5_neg -> pool5_neg
I0523 08:58:30.232533  9444 net.cpp:150] Setting up pool5_neg
I0523 08:58:30.232543  9444 net.cpp:157] Top shape: 10 256 1 4 4 (40960)
I0523 08:58:30.232547  9444 net.cpp:165] Memory required for data: 5790945280
I0523 08:58:30.232549  9444 layer_factory.hpp:77] Creating layer fc6_neg
I0523 08:58:30.232578  9444 net.cpp:100] Creating Layer fc6_neg
I0523 08:58:30.232583  9444 net.cpp:434] fc6_neg <- pool5_neg
I0523 08:58:30.232589  9444 net.cpp:408] fc6_neg -> fc6_neg
I0523 08:58:30.480808  9444 net.cpp:150] Setting up fc6_neg
I0523 08:58:30.480846  9444 net.cpp:157] Top shape: 10 2048 (20480)
I0523 08:58:30.480850  9444 net.cpp:165] Memory required for data: 5791027200
I0523 08:58:30.480857  9444 net.cpp:493] Sharing parameters 'fc6_w' owned by layer 'fc6', param index 0
I0523 08:58:30.480865  9444 net.cpp:493] Sharing parameters 'fc6_b' owned by layer 'fc6', param index 1
I0523 08:58:30.480870  9444 layer_factory.hpp:77] Creating layer relu6_neg
I0523 08:58:30.480880  9444 net.cpp:100] Creating Layer relu6_neg
I0523 08:58:30.480885  9444 net.cpp:434] relu6_neg <- fc6_neg
I0523 08:58:30.480892  9444 net.cpp:395] relu6_neg -> fc6_neg (in-place)
I0523 08:58:30.481163  9444 net.cpp:150] Setting up relu6_neg
I0523 08:58:30.481173  9444 net.cpp:157] Top shape: 10 2048 (20480)
I0523 08:58:30.481175  9444 net.cpp:165] Memory required for data: 5791109120
I0523 08:58:30.481179  9444 layer_factory.hpp:77] Creating layer drop6_neg
I0523 08:58:30.481187  9444 net.cpp:100] Creating Layer drop6_neg
I0523 08:58:30.481210  9444 net.cpp:434] drop6_neg <- fc6_neg
I0523 08:58:30.481215  9444 net.cpp:395] drop6_neg -> fc6_neg (in-place)
I0523 08:58:30.481248  9444 net.cpp:150] Setting up drop6_neg
I0523 08:58:30.481256  9444 net.cpp:157] Top shape: 10 2048 (20480)
I0523 08:58:30.481259  9444 net.cpp:165] Memory required for data: 5791191040
I0523 08:58:30.481263  9444 layer_factory.hpp:77] Creating layer fc7_neg
I0523 08:58:30.481274  9444 net.cpp:100] Creating Layer fc7_neg
I0523 08:58:30.481277  9444 net.cpp:434] fc7_neg <- fc6_neg
I0523 08:58:30.481283  9444 net.cpp:408] fc7_neg -> fc7_neg
I0523 08:58:30.609016  9444 net.cpp:150] Setting up fc7_neg
I0523 08:58:30.609053  9444 net.cpp:157] Top shape: 10 2048 (20480)
I0523 08:58:30.609057  9444 net.cpp:165] Memory required for data: 5791272960
I0523 08:58:30.609064  9444 net.cpp:493] Sharing parameters 'fc7_w' owned by layer 'fc7', param index 0
I0523 08:58:30.609071  9444 net.cpp:493] Sharing parameters 'fc7_b' owned by layer 'fc7', param index 1
I0523 08:58:30.609073  9444 layer_factory.hpp:77] Creating layer relu7_neg
I0523 08:58:30.609082  9444 net.cpp:100] Creating Layer relu7_neg
I0523 08:58:30.609086  9444 net.cpp:434] relu7_neg <- fc7_neg
I0523 08:58:30.609094  9444 net.cpp:395] relu7_neg -> fc7_neg (in-place)
I0523 08:58:30.609369  9444 net.cpp:150] Setting up relu7_neg
I0523 08:58:30.609377  9444 net.cpp:157] Top shape: 10 2048 (20480)
I0523 08:58:30.609380  9444 net.cpp:165] Memory required for data: 5791354880
I0523 08:58:30.609385  9444 layer_factory.hpp:77] Creating layer drop7_neg
I0523 08:58:30.609395  9444 net.cpp:100] Creating Layer drop7_neg
I0523 08:58:30.609397  9444 net.cpp:434] drop7_neg <- fc7_neg
I0523 08:58:30.609402  9444 net.cpp:395] drop7_neg -> fc7_neg (in-place)
I0523 08:58:30.609436  9444 net.cpp:150] Setting up drop7_neg
I0523 08:58:30.609442  9444 net.cpp:157] Top shape: 10 2048 (20480)
I0523 08:58:30.609446  9444 net.cpp:165] Memory required for data: 5791436800
I0523 08:58:30.609447  9444 layer_factory.hpp:77] Creating layer mvn_neg
I0523 08:58:30.609501  9444 net.cpp:100] Creating Layer mvn_neg
I0523 08:58:30.609508  9444 net.cpp:434] mvn_neg <- fc7_neg
I0523 08:58:30.609513  9444 net.cpp:408] mvn_neg -> fc7_neg_norm
I0523 08:58:30.609654  9444 net.cpp:150] Setting up mvn_neg
I0523 08:58:30.609665  9444 net.cpp:157] Top shape: 10 2048 (20480)
I0523 08:58:30.609668  9444 net.cpp:165] Memory required for data: 5791518720
I0523 08:58:30.609671  9444 layer_factory.hpp:77] Creating layer save
I0523 08:58:30.626619  9444 net.cpp:100] Creating Layer save
I0523 08:58:30.626641  9444 net.cpp:434] save <- fc7_norm
I0523 08:58:30.626652  9444 net.cpp:434] save <- fc7_pos_norm
I0523 08:58:30.626657  9444 net.cpp:434] save <- fc7_neg_norm
…
