…
    mean_value: 65
    mean_value: 74
    mean_value: 92
    mean_value: 65
    mean_value: 74
    mean_value: 92
    mean_value: 65
    mean_value: 74
    mean_value: 92
    mean_value: 65
    mean_value: 74
    mean_value: 92
    mean_value: 65
    mean_value: 74
    mean_value: 92
    mean_value: 65
    mean_value: 74
    mean_value: 92
    mean_value: 65
    mean_value: 74
    mean_value: 92
    mean_value: 65
    mean_value: 74
    mean_value: 92
  }
  data_param {
    source: "/data/leo-data/Synthetic/LMDB/Triplets/test"
    batch_size: 10
    backend: LMDB
  }
}
layer {
  name: "slicer"
  type: "Slice"
  bottom: "triplet"
  top: "anchor_stacked"
  top: "positive_stacked"
  top: "negative_stacked"
  slice_param {
    slice_dim: 1
    slice_point: 48
    slice_point: 96
  }
}
layer {
  name: "reshape_anchor"
  type: "Reshape"
  bottom: "anchor_stacked"
  top: "anchor"
  reshape_param {
    shape {
      dim: 0
      dim: 3
      dim: 16
      dim: 112
      dim: 112
    }
  }
}
layer {
  name: "reshape_positive"
  type: "Reshape"
  bottom: "positive_stacked"
  top: "positive"
  reshape_param {
    shape {
      dim: 0
      dim: 3
      dim: 16
      dim: 112
      dim: 112
    }
  }
}
layer {
  name: "reshape_negative"
  type: "Reshape"
  bottom: "negative_stacked"
  top: "negative"
  reshape_param {
    shape {
      dim: 0
      dim: 3
      dim: 16
      dim: 112
      dim: 112
    }
  }
}
layer {
  name: "conv1a"
  type: "NdConvolution"
  bottom: "anchor"
  top: "conv1a"
  param {
    name: "conv1a_w"
    lr_mult: 1
    decay_mult: 1
  }
  param {
    name: "conv1a_b"
    lr_mult: 2
    decay_mult: 0
  }
  convolution_param {
    num_output: 64
    weight_filler {
      type: "gaussian"
      std: 0.01
    }
    bias_filler {
      type: "constant"
      value: 0
    }
    pad_shape {
      dim: 1
      dim: 1
      dim: 1
    }
    kernel_shape {
      dim: 3
      dim: 3
      dim: 3
    }
    stride_shape {
      dim: 1
      dim: 1
      dim: 1
    }
  }
}
layer {
  name: "relu1a"
  type: "ReLU"
  bottom: "conv1a"
  top: "conv1a"
}
layer {
  name: "pool1"
  type: "NdPooling"
  bottom: "conv1a"
  top: "pool1"
  pooling_param {
    pool: MAX
    kernel_shape {
      dim: 1
      dim: 2
      dim: 2
    }
    stride_shape {
      dim: 1
      dim: 2
      dim: 2
    }
  }
}
layer {
  name: "conv2a"
  type: "NdConvolution"
  bottom: "pool1"
  top: "conv2a"
  param {
    name: "conv2a_w"
    lr_mult: 1
    decay_mult: 1
  }
  param {
    name: "conv2a_b"
    lr_mult: 2
    decay_mult: 0
  }
  convolution_param {
    num_output: 128
    weight_filler {
      type: "gaussian"
      std: 0.01
    }
    bias_filler {
      type: "constant"
      value: 1
    }
    pad_shape {
      dim: 1
      dim: 1
      dim: 1
    }
    kernel_shape {
      dim: 3
      dim: 3
      dim: 3
    }
    stride_shape {
      dim: 1
      dim: 1
      dim: 1
    }
  }
}
layer {
  name: "relu2a"
  type: "ReLU"
  bottom: "conv2a"
  top: "conv2a"
}
layer {
  name: "pool2"
  type: "NdPooling"
  bottom: "conv2a"
  top: "pool2"
  pooling_param {
    pool: MAX
    kernel_shape {
      dim: 2
      dim: 2
      dim: 2
    }
    stride_shape {
      dim: 2
      dim: 2
      dim: 2
    }
  }
}
layer {
  name: "conv3a"
  type: "NdConvolution"
  bottom: "pool2"
  top: "conv3a"
  param {
    name: "conv3a_w"
    lr_mult: 1
    decay_mult: 1
  }
  param {
    name: "conv3a_b"
    lr_mult: 2
    decay_mult: 0
  }
  convolution_param {
    num_output: 256
    weight_filler {
      type: "gaussian"
      std: 0.01
    }
    bias_filler {
      type: "constant"
      value: 1
    }
    pad_shape {
      dim: 1
      dim: 1
      dim: 1
    }
    kernel_shape {
      dim: 3
      dim: 3
      dim: 3
    }
    stride_shape {
      dim: 1
      dim: 1
      dim: 1
    }
  }
}
layer {
  name: "relu3a"
  type: "ReLU"
  bottom: "conv3a"
  top: "conv3a"
}
layer {
  name: "pool3"
  type: "NdPooling"
  bottom: "conv3a"
  top: "pool3"
  pooling_param {
    pool: MAX
    kernel_shape {
      dim: 2
      dim: 2
      dim: 2
    }
    stride_shape {
      dim: 2
      dim: 2
      dim: 2
    }
  }
}
layer {
  name: "conv4a"
  type: "NdConvolution"
  bottom: "pool3"
  top: "conv4a"
  param {
    name: "conv4a_w"
    lr_mult: 1
    decay_mult: 1
  }
  param {
    name: "conv4a_b"
    lr_mult: 2
    decay_mult: 0
  }
  convolution_param {
    num_output: 256
    weight_filler {
      type: "gaussian"
      std: 0.01
    }
    bias_filler {
      type: "constant"
      value: 1
    }
    pad_shape {
      dim: 1
      dim: 1
      dim: 1
    }
    kernel_shape {
      dim: 3
      dim: 3
      dim: 3
    }
    stride_shape {
      dim: 1
      dim: 1
      dim: 1
    }
  }
}
layer {
  name: "relu4a"
  type: "ReLU"
  bottom: "conv4a"
  top: "conv4a"
}
layer {
  name: "pool4"
  type: "NdPooling"
  bottom: "conv4a"
  top: "pool4"
  pooling_param {
    pool: MAX
    kernel_shape {
      dim: 2
      dim: 2
      dim: 2
    }
    stride_shape {
      dim: 2
      dim: 2
      dim: 2
    }
  }
}
layer {
  name: "conv5a"
  type: "NdConvolution"
  bottom: "pool4"
  top: "conv5a"
  param {
    name: "conv5a_w"
    lr_mult: 1
    decay_mult: 1
  }
  param {
    name: "conv5a_b"
    lr_mult: 2
    decay_mult: 0
  }
  convolution_param {
    num_output: 256
    weight_filler {
      type: "gaussian"
      std: 0.01
    }
    bias_filler {
      type: "constant"
      value: 1
    }
    pad_shape {
      dim: 1
      dim: 1
      dim: 1
    }
    kernel_shape {
      dim: 3
      dim: 3
      dim: 3
    }
    stride_shape {
      dim: 1
      dim: 1
      dim: 1
    }
  }
}
layer {
  name: "relu5a"
  type: "ReLU"
  bottom: "conv5a"
  top: "conv5a"
}
layer {
  name: "pool5"
  type: "NdPooling"
  bottom: "conv5a"
  top: "pool5"
  pooling_param {
    pool: MAX
    kernel_shape {
      dim: 2
      dim: 2
      dim: 2
    }
    stride_shape {
      dim: 2
      dim: 2
      dim: 2
    }
  }
}
layer {
  name: "fc6"
  type: "InnerProduct"
  bottom: "pool5"
  top: "fc6"
  param {
    name: "fc6_w"
    lr_mult: 1
    decay_mult: 1
  }
  param {
    name: "fc6_b"
    lr_mult: 2
    decay_mult: 0
  }
  inner_product_param {
    num_output: 2048
    weight_filler {
      type: "gaussian"
      std: 0.005
    }
    bias_filler {
      type: "constant"
      value: 1
    }
  }
}
layer {
  name: "relu6"
  type: "ReLU"
  bottom: "fc6"
  top: "fc6"
}
layer {
  name: "drop6"
  type: "Dropout"
  bottom: "fc6"
  top: "fc6"
  dropout_param {
    dropout_ratio: 0.5
  }
}
layer {
  name: "fc7"
  type: "InnerProduct"
  bottom: "fc6"
  top: "fc7"
  param {
    name: "fc7_w"
    lr_mult: 1
    decay_mult: 1
  }
  param {
    name: "fc7_b"
    lr_mult: 2
    decay_mult: 0
  }
  inner_product_param {
    num_output: 2048
    weight_filler {
      type: "gaussian"
      std: 0.005
    }
    bias_filler {
      type: "constant"
      value: 1
    }
  }
}
layer {
  name: "relu7"
  type: "ReLU"
  bottom: "fc7"
  top: "fc7"
}
layer {
  name: "drop7"
  type: "Dropout"
  bottom: "fc7"
  top: "fc7"
  dropout_param {
    dropout_ratio: 0.5
  }
}
layer {
  name: "mvn"
  type: "Python"
  bottom: "fc7"
  top: "fc7_norm"
  python_param {
    module: "mvn"
    layer: "MVNLayer"
  }
}
layer {
  name: "conv1a_pos"
  type: "NdConvolution"
  bottom: "positive"
  top: "conv1a_pos"
  param {
    name: "conv1a_w"
    lr_mult: 1
    decay_mult: 1
  }
  param {
    name: "conv1a_b"
    lr_mult: 2
    decay_mult: 0
  }
  convolution_param {
    num_output: 64
    weight_filler {
      type: "gaussian"
      std: 0.01
    }
    bias_filler {
      type: "constant"
      value: 0
    }
    pad_shape {
      dim: 1
      dim: 1
      dim: 1
    }
    kernel_shape {
      dim: 3
      dim: 3
      dim: 3
    }
    stride_shape {
      dim: 1
      dim: 1
      dim: 1
    }
  }
}
layer {
  name: "relu1a_pos"
  type: "ReLU"
  bottom: "conv1a_pos"
  top: "conv1a_pos"
}
layer {
  name: "pool1_pos"
  type: "NdPooling"
  bottom: "conv1a_pos"
  top: "pool1_pos"
  pooling_param {
    pool: MAX
    kernel_shape {
      dim: 1
      dim: 2
      dim: 2
    }
    stride_shape {
      dim: 1
      dim: 2
      dim: 2
    }
  }
}
layer {
  name: "conv2a_pos"
  type: "NdConvolution"
  bottom: "pool1_pos"
  top: "conv2a_pos"
  param {
    name: "conv2a_w"
    lr_mult: 1
    decay_mult: 1
  }
  param {
    name: "conv2a_b"
    lr_mult: 2
    decay_mult: 0
  }
  convolution_param {
    num_output: 128
    weight_filler {
      type: "gaussian"
      std: 0.01
    }
    bias_filler {
      type: "constant"
      value: 1
    }
    pad_shape {
      dim: 1
      dim: 1
      dim: 1
    }
    kernel_shape {
      dim: 3
      dim: 3
      dim: 3
    }
    stride_shape {
      dim: 1
      dim: 1
      dim: 1
    }
  }
}
layer {
  name: "relu2a_pos"
  type: "ReLU"
  bottom: "conv2a_pos"
  top: "conv2a_pos"
}
layer {
  name: "pool2_pos"
  type: "NdPooling"
  bottom: "conv2a_pos"
  top: "pool2_pos"
  pooling_param {
    pool: MAX
    kernel_shape {
      dim: 2
      dim: 2
      dim: 2
    }
    stride_shape {
      dim: 2
      dim: 2
      dim: 2
    }
  }
}
layer {
  name: "conv3a_pos"
  type: "NdConvolution"
  bottom: "pool2_pos"
  top: "conv3a_pos"
  param {
    name: "conv3a_w"
    lr_mult: 1
    decay_mult: 1
  }
  param {
    name: "conv3a_b"
    lr_mult: 2
    decay_mult: 0
  }
  convolution_param {
    num_output: 256
    weight_filler {
      type: "gaussian"
      std: 0.01
    }
    bias_filler {
      type: "constant"
      value: 1
    }
    pad_shape {
      dim: 1
      dim: 1
      dim: 1
    }
    kernel_shape {
      dim: 3
      dim: 3
      dim: 3
    }
    stride_shape {
      dim: 1
      dim: 1
      dim: 1
    }
  }
}
layer {
  name: "relu3a_pos"
  type: "ReLU"
  bottom: "conv3a_pos"
  top: "conv3a_pos"
}
layer {
  name: "pool3_pos"
  type: "NdPooling"
  bottom: "conv3a_pos"
  top: "pool3_pos"
  pooling_param {
    pool: MAX
    kernel_shape {
      dim: 2
      dim: 2
      dim: 2
    }
    stride_shape {
      dim: 2
      dim: 2
      dim: 2
    }
  }
}
layer {
  name: "conv4a_pos"
  type: "NdConvolution"
  bottom: "pool3_pos"
  top: "conv4a_pos"
  param {
    name: "conv4a_w"
    lr_mult: 1
    decay_mult: 1
  }
  param {
    name: "conv4a_b"
    lr_mult: 2
    decay_mult: 0
  }
  convolution_param {
    num_output: 256
    weight_filler {
      type: "gaussian"
      std: 0.01
    }
    bias_filler {
      type: "constant"
      value: 1
    }
    pad_shape {
      dim: 1
      dim: 1
      dim: 1
    }
    kernel_shape {
      dim: 3
      dim: 3
      dim: 3
    }
    stride_shape {
      dim: 1
      dim: 1
      dim: 1
    }
  }
}
layer {
  name: "relu4a_pos"
  type: "ReLU"
  bottom: "conv4a_pos"
  top: "conv4a_pos"
}
layer {
  name: "pool4_pos"
  type: "NdPooling"
  bottom: "conv4a_pos"
  top: "pool4_pos"
  pooling_param {
    pool: MAX
    kernel_shape {
      dim: 2
      dim: 2
      dim: 2
    }
    stride_shape {
      dim: 2
      dim: 2
      dim: 2
    }
  }
}
layer {
  name: "conv5a_pos"
  type: "NdConvolution"
  bottom: "pool4_pos"
  top: "conv5a_pos"
  param {
    name: "conv5a_w"
    lr_mult: 1
    decay_mult: 1
  }
  param {
    name: "conv5a_b"
    lr_mult: 2
    decay_mult: 0
  }
  convolution_param {
    num_output: 256
    weight_filler {
      type: "gaussian"
      std: 0.01
    }
    bias_filler {
      type: "constant"
      value: 1
    }
    pad_shape {
      dim: 1
      dim: 1
      dim: 1
    }
    kernel_shape {
      dim: 3
      dim: 3
      dim: 3
    }
    stride_shape {
      dim: 1
      dim: 1
      dim: 1
    }
  }
}
layer {
  name: "relu5a_pos"
  type: "ReLU"
  bottom: "conv5a_pos"
  top: "conv5a_pos"
}
layer {
  name: "pool5_pos"
  type: "NdPooling"
  bottom: "conv5a_pos"
  top: "pool5_pos"
  pooling_param {
    pool: MAX
    kernel_shape {
      dim: 2
      dim: 2
      dim: 2
    }
    stride_shape {
      dim: 2
      dim: 2
      dim: 2
    }
  }
}
layer {
  name: "fc6_pos"
  type: "InnerProduct"
  bottom: "pool5_pos"
  top: "fc6_pos"
  param {
    name: "fc6_w"
    lr_mult: 1
    decay_mult: 1
  }
  param {
    name: "fc6_b"
    lr_mult: 2
    decay_mult: 0
  }
  inner_product_param {
    num_output: 2048
    weight_filler {
      type: "gaussian"
      std: 0.005
    }
    bias_filler {
      type: "constant"
      value: 1
    }
  }
}
layer {
  name: "relu6_pos"
  type: "ReLU"
  bottom: "fc6_pos"
  top: "fc6_pos"
}
layer {
  name: "drop6_pos"
  type: "Dropout"
  bottom: "fc6_pos"
  top: "fc6_pos"
  dropout_param {
    dropout_ratio: 0.5
  }
}
layer {
  name: "fc7_pos"
  type: "InnerProduct"
  bottom: "fc6_pos"
  top: "fc7_pos"
  param {
    name: "fc7_w"
    lr_mult: 1
    decay_mult: 1
  }
  param {
    name: "fc7_b"
    lr_mult: 2
    decay_mult: 0
  }
  inner_product_param {
    num_output: 2048
    weight_filler {
      type: "gaussian"
      std: 0.005
    }
    bias_filler {
      type: "constant"
      value: 1
    }
  }
}
layer {
  name: "relu7_pos"
  type: "ReLU"
  bottom: "fc7_pos"
  top: "fc7_pos"
}
layer {
  name: "drop7_pos"
  type: "Dropout"
  bottom: "fc7_pos"
  top: "fc7_pos"
  dropout_param {
    dropout_ratio: 0.5
  }
}
layer {
  name: "mvn_pos"
  type: "Python"
  bottom: "fc7_pos"
  top: "fc7_pos_norm"
  python_param {
    module: "mvn"
    layer: "MVNLayer"
  }
}
layer {
  name: "conv1a_neg"
  type: "NdConvolution"
  bottom: "negative"
  top: "conv1a_neg"
  param {
    name: "conv1a_w"
    lr_mult: 1
    decay_mult: 1
  }
  param {
    name: "conv1a_b"
    lr_mult: 2
    decay_mult: 0
  }
  convolution_param {
    num_output: 64
    weight_filler {
      type: "gaussian"
      std: 0.01
    }
    bias_filler {
      type: "constant"
      value: 0
    }
    pad_shape {
      dim: 1
      dim: 1
      dim: 1
    }
    kernel_shape {
      dim: 3
      dim: 3
      dim: 3
    }
    stride_shape {
      dim: 1
      dim: 1
      dim: 1
    }
  }
}
layer {
  name: "relu1a_neg"
  type: "ReLU"
  bottom: "conv1a_neg"
  top: "conv1a_neg"
}
layer {
  name: "pool1_neg"
  type: "NdPooling"
  bottom: "conv1a_neg"
  top: "pool1_neg"
  pooling_param {
    pool: MAX
    kernel_shape {
      dim: 1
      dim: 2
      dim: 2
    }
    stride_shape {
      dim: 1
      dim: 2
      dim: 2
    }
  }
}
layer {
  name: "conv2a_neg"
  type: "NdConvolution"
  bottom: "pool1_neg"
  top: "conv2a_neg"
  param {
    name: "conv2a_w"
    lr_mult: 1
    decay_mult: 1
  }
  param {
    name: "conv2a_b"
    lr_mult: 2
    decay_mult: 0
  }
  convolution_param {
    num_output: 128
    weight_filler {
      type: "gaussian"
      std: 0.01
    }
    bias_filler {
      type: "constant"
      value: 1
    }
    pad_shape {
      dim: 1
      dim: 1
      dim: 1
    }
    kernel_shape {
      dim: 3
      dim: 3
      dim: 3
    }
    stride_shape {
      dim: 1
      dim: 1
      dim: 1
    }
  }
}
layer {
  name: "relu2a_neg"
  type: "ReLU"
  bottom: "conv2a_neg"
  top: "conv2a_neg"
}
layer {
  name: "pool2_neg"
  type: "NdPooling"
  bottom: "conv2a_neg"
  top: "pool2_neg"
  pooling_param {
    pool: MAX
    kernel_shape {
      dim: 2
      dim: 2
      dim: 2
    }
    stride_shape {
      dim: 2
      dim: 2
      dim: 2
    }
  }
}
layer {
  name: "conv3a_neg"
  type: "NdConvolution"
  bottom: "pool2_neg"
  top: "conv3a_neg"
  param {
    name: "conv3a_w"
    lr_mult: 1
    decay_mult: 1
  }
  param {
    name: "conv3a_b"
    lr_mult: 2
    decay_mult: 0
  }
  convolution_param {
    num_output: 256
    weight_filler {
      type: "gaussian"
      std: 0.01
    }
    bias_filler {
      type: "constant"
      value: 1
    }
    pad_shape {
      dim: 1
      dim: 1
      dim: 1
    }
    kernel_shape {
      dim: 3
      dim: 3
      dim: 3
    }
    stride_shape {
      dim: 1
      dim: 1
      dim: 1
    }
  }
}
layer {
  name: "relu3a_neg"
  type: "ReLU"
  bottom: "conv3a_neg"
  top: "conv3a_neg"
}
layer {
  name: "pool3_neg"
  type: "NdPooling"
  bottom: "conv3a_neg"
  top: "pool3_neg"
  pooling_param {
    pool: MAX
    kernel_shape {
      dim: 2
      dim: 2
      dim: 2
    }
    stride_shape {
      dim: 2
      dim: 2
      dim: 2
    }
  }
}
layer {
  name: "conv4a_neg"
  type: "NdConvolution"
  bottom: "pool3_neg"
  top: "conv4a_neg"
  param {
    name: "conv4a_w"
    lr_mult: 1
    decay_mult: 1
  }
  param {
    name: "conv4a_b"
    lr_mult: 2
    decay_mult: 0
  }
  convolution_param {
    num_output: 256
    weight_filler {
      type: "gaussian"
      std: 0.01
    }
    bias_filler {
      type: "constant"
      value: 1
    }
    pad_shape {
      dim: 1
      dim: 1
      dim: 1
    }
    kernel_shape {
      dim: 3
      dim: 3
      dim: 3
    }
    stride_shape {
      dim: 1
      dim: 1
      dim: 1
    }
  }
}
layer {
  name: "relu4a_neg"
  type: "ReLU"
  bottom: "conv4a_neg"
  top: "conv4a_neg"
}
layer {
  name: "pool4_neg"
  type: "NdPooling"
  bottom: "conv4a_neg"
  top: "pool4_neg"
  pooling_param {
    pool: MAX
    kernel_shape {
      dim: 2
      dim: 2
      dim: 2
    }
    stride_shape {
      dim: 2
      dim: 2
      dim: 2
    }
  }
}
layer {
  name: "conv5a_neg"
  type: "NdConvolution"
  bottom: "pool4_neg"
  top: "conv5a_neg"
  param {
    name: "conv5a_w"
    lr_mult: 1
    decay_mult: 1
  }
  param {
    name: "conv5a_b"
    lr_mult: 2
    decay_mult: 0
  }
  convolution_param {
    num_output: 256
    weight_filler {
      type: "gaussian"
      std: 0.01
    }
    bias_filler {
      type: "constant"
      value: 1
    }
    pad_shape {
      dim: 1
      dim: 1
      dim: 1
    }
    kernel_shape {
      dim: 3
      dim: 3
      dim: 3
    }
    stride_shape {
      dim: 1
      dim: 1
      dim: 1
    }
  }
}
layer {
  name: "relu5a_neg"
  type: "ReLU"
  bottom: "conv5a_neg"
  top: "conv5a_neg"
}
layer {
  name: "pool5_neg"
  type: "NdPooling"
  bottom: "conv5a_neg"
  top: "pool5_neg"
  pooling_param {
    pool: MAX
    kernel_shape {
      dim: 2
      dim: 2
      dim: 2
    }
    stride_shape {
      dim: 2
      dim: 2
      dim: 2
    }
  }
}
layer {
  name: "fc6_neg"
  type: "InnerProduct"
  bottom: "pool5_neg"
  top: "fc6_neg"
  param {
    name: "fc6_w"
    lr_mult: 1
    decay_mult: 1
  }
  param {
    name: "fc6_b"
    lr_mult: 2
    decay_mult: 0
  }
  inner_product_param {
    num_output: 2048
    weight_filler {
      type: "gaussian"
      std: 0.005
    }
    bias_filler {
      type: "constant"
      value: 1
    }
  }
}
layer {
  name: "relu6_neg"
  type: "ReLU"
  bottom: "fc6_neg"
  top: "fc6_neg"
}
layer {
  name: "drop6_neg"
  type: "Dropout"
  bottom: "fc6_neg"
  top: "fc6_neg"
  dropout_param {
    dropout_ratio: 0.5
  }
}
layer {
  name: "fc7_neg"
  type: "InnerProduct"
  bottom: "fc6_neg"
  top: "fc7_neg"
  param {
    name: "fc7_w"
    lr_mult: 1
    decay_mult: 1
  }
  param {
    name: "fc7_b"
    lr_mult: 2
    decay_mult: 0
  }
  inner_product_param {
    num_output: 2048
    weight_filler {
      type: "gaussian"
      std: 0.005
    }
    bias_filler {
      type: "constant"
      value: 1
    }
  }
}
layer {
  name: "relu7_neg"
  type: "ReLU"
  bottom: "fc7_neg"
  top: "fc7_neg"
}
layer {
  name: "drop7_neg"
  type: "Dropout"
  bottom: "fc7_neg"
  top: "fc7_neg"
  dropout_param {
    dropout_ratio: 0.5
  }
}
layer {
  name: "mvn_neg"
  type: "Python"
  bottom: "fc7_neg"
  top: "fc7_neg_norm"
  python_param {
    module: "mvn"
    layer: "MVNLayer"
  }
}
layer {
  name: "save"
  type: "Python"
  bottom: "fc7_norm"
  bottom: "fc7_pos_norm"
  bottom: "fc7_neg_norm"
  python_param {
    module: "save_features"
    layer: "SaveFeaturesLayer"
    param_str: "{\"n_samples\":\"10000\", \"filename\":\"../../features/features_baseline_test.npz\"}"
  }
}
I0523 08:10:09.110797 27475 layer_factory.hpp:77] Creating layer data
I0523 08:10:09.112192 27475 net.cpp:100] Creating Layer data
I0523 08:10:09.112205 27475 net.cpp:408] data -> triplet
I0523 08:10:09.156894 27483 db_lmdb.cpp:35] Opened lmdb /data/leo-data/Synthetic/LMDB/Triplets/test
I0523 08:10:09.392451 27475 data_layer.cpp:41] output data size: 10,144,112,112
I0523 08:10:09.642372 27475 net.cpp:150] Setting up data
I0523 08:10:09.642432 27475 net.cpp:157] Top shape: 10 144 112 112 (18063360)
I0523 08:10:09.642437 27475 net.cpp:165] Memory required for data: 72253440
I0523 08:10:09.642447 27475 layer_factory.hpp:77] Creating layer slicer
I0523 08:10:09.642485 27475 net.cpp:100] Creating Layer slicer
I0523 08:10:09.642493 27475 net.cpp:434] slicer <- triplet
I0523 08:10:09.642503 27475 net.cpp:408] slicer -> anchor_stacked
I0523 08:10:09.642515 27475 net.cpp:408] slicer -> positive_stacked
I0523 08:10:09.642524 27475 net.cpp:408] slicer -> negative_stacked
I0523 08:10:09.642665 27475 net.cpp:150] Setting up slicer
I0523 08:10:09.642674 27475 net.cpp:157] Top shape: 10 48 112 112 (6021120)
I0523 08:10:09.642678 27475 net.cpp:157] Top shape: 10 48 112 112 (6021120)
I0523 08:10:09.642683 27475 net.cpp:157] Top shape: 10 48 112 112 (6021120)
I0523 08:10:09.642685 27475 net.cpp:165] Memory required for data: 144506880
I0523 08:10:09.642688 27475 layer_factory.hpp:77] Creating layer reshape_anchor
I0523 08:10:09.643164 27475 net.cpp:100] Creating Layer reshape_anchor
I0523 08:10:09.643173 27475 net.cpp:434] reshape_anchor <- anchor_stacked
I0523 08:10:09.643184 27475 net.cpp:408] reshape_anchor -> anchor
I0523 08:10:09.643229 27475 net.cpp:150] Setting up reshape_anchor
I0523 08:10:09.643237 27475 net.cpp:157] Top shape: 10 3 16 112 112 (6021120)
I0523 08:10:09.643240 27475 net.cpp:165] Memory required for data: 168591360
I0523 08:10:09.643244 27475 layer_factory.hpp:77] Creating layer reshape_positive
I0523 08:10:09.643252 27475 net.cpp:100] Creating Layer reshape_positive
I0523 08:10:09.643257 27475 net.cpp:434] reshape_positive <- positive_stacked
I0523 08:10:09.643262 27475 net.cpp:408] reshape_positive -> positive
I0523 08:10:09.643285 27475 net.cpp:150] Setting up reshape_positive
I0523 08:10:09.643291 27475 net.cpp:157] Top shape: 10 3 16 112 112 (6021120)
I0523 08:10:09.643295 27475 net.cpp:165] Memory required for data: 192675840
I0523 08:10:09.643321 27475 layer_factory.hpp:77] Creating layer reshape_negative
I0523 08:10:09.643326 27475 net.cpp:100] Creating Layer reshape_negative
I0523 08:10:09.643329 27475 net.cpp:434] reshape_negative <- negative_stacked
I0523 08:10:09.643335 27475 net.cpp:408] reshape_negative -> negative
I0523 08:10:09.643357 27475 net.cpp:150] Setting up reshape_negative
I0523 08:10:09.643363 27475 net.cpp:157] Top shape: 10 3 16 112 112 (6021120)
I0523 08:10:09.643366 27475 net.cpp:165] Memory required for data: 216760320
I0523 08:10:09.643369 27475 layer_factory.hpp:77] Creating layer conv1a
I0523 08:10:09.643383 27475 net.cpp:100] Creating Layer conv1a
I0523 08:10:09.643389 27475 net.cpp:434] conv1a <- anchor
I0523 08:10:09.643401 27475 net.cpp:408] conv1a -> conv1a
I0523 08:10:09.703188 27484 blocking_queue.cpp:50] Waiting for data
I0523 08:10:10.534765 27475 net.cpp:150] Setting up conv1a
I0523 08:10:10.534803 27475 net.cpp:157] Top shape: 10 64 16 112 112 (128450560)
I0523 08:10:10.534811 27475 net.cpp:165] Memory required for data: 730562560
I0523 08:10:10.534989 27475 layer_factory.hpp:77] Creating layer relu1a
I0523 08:10:10.535012 27475 net.cpp:100] Creating Layer relu1a
I0523 08:10:10.535023 27475 net.cpp:434] relu1a <- conv1a
I0523 08:10:10.535037 27475 net.cpp:395] relu1a -> conv1a (in-place)
I0523 08:10:10.535462 27475 net.cpp:150] Setting up relu1a
I0523 08:10:10.535490 27475 net.cpp:157] Top shape: 10 64 16 112 112 (128450560)
I0523 08:10:10.535503 27475 net.cpp:165] Memory required for data: 1244364800
I0523 08:10:10.535516 27475 layer_factory.hpp:77] Creating layer pool1
I0523 08:10:10.535538 27475 net.cpp:100] Creating Layer pool1
I0523 08:10:10.535552 27475 net.cpp:434] pool1 <- conv1a
I0523 08:10:10.535570 27475 net.cpp:408] pool1 -> pool1
I0523 08:10:10.539016 27475 net.cpp:150] Setting up pool1
I0523 08:10:10.539046 27475 net.cpp:157] Top shape: 10 64 16 56 56 (32112640)
I0523 08:10:10.539049 27475 net.cpp:165] Memory required for data: 1372815360
I0523 08:10:10.539055 27475 layer_factory.hpp:77] Creating layer conv2a
I0523 08:10:10.539082 27475 net.cpp:100] Creating Layer conv2a
I0523 08:10:10.539086 27475 net.cpp:434] conv2a <- pool1
I0523 08:10:10.539095 27475 net.cpp:408] conv2a -> conv2a
I0523 08:10:10.552651 27475 net.cpp:150] Setting up conv2a
I0523 08:10:10.552682 27475 net.cpp:157] Top shape: 10 128 16 56 56 (64225280)
I0523 08:10:10.552693 27475 net.cpp:165] Memory required for data: 1629716480
I0523 08:10:10.552726 27475 layer_factory.hpp:77] Creating layer relu2a
I0523 08:10:10.552745 27475 net.cpp:100] Creating Layer relu2a
I0523 08:10:10.552760 27475 net.cpp:434] relu2a <- conv2a
I0523 08:10:10.552778 27475 net.cpp:395] relu2a -> conv2a (in-place)
I0523 08:10:10.553189 27475 net.cpp:150] Setting up relu2a
I0523 08:10:10.553211 27475 net.cpp:157] Top shape: 10 128 16 56 56 (64225280)
I0523 08:10:10.553222 27475 net.cpp:165] Memory required for data: 1886617600
I0523 08:10:10.553237 27475 layer_factory.hpp:77] Creating layer pool2
I0523 08:10:10.553256 27475 net.cpp:100] Creating Layer pool2
I0523 08:10:10.553270 27475 net.cpp:434] pool2 <- conv2a
I0523 08:10:10.553288 27475 net.cpp:408] pool2 -> pool2
I0523 08:10:10.554147 27475 net.cpp:150] Setting up pool2
I0523 08:10:10.554172 27475 net.cpp:157] Top shape: 10 128 8 28 28 (8028160)
I0523 08:10:10.554181 27475 net.cpp:165] Memory required for data: 1918730240
I0523 08:10:10.554195 27475 layer_factory.hpp:77] Creating layer conv3a
I0523 08:10:10.554219 27475 net.cpp:100] Creating Layer conv3a
I0523 08:10:10.554247 27475 net.cpp:434] conv3a <- pool2
I0523 08:10:10.554268 27475 net.cpp:408] conv3a -> conv3a
I0523 08:10:10.604799 27475 net.cpp:150] Setting up conv3a
I0523 08:10:10.604830 27475 net.cpp:157] Top shape: 10 256 8 28 28 (16056320)
I0523 08:10:10.604840 27475 net.cpp:165] Memory required for data: 1982955520
I0523 08:10:10.604869 27475 layer_factory.hpp:77] Creating layer relu3a
I0523 08:10:10.604887 27475 net.cpp:100] Creating Layer relu3a
I0523 08:10:10.604899 27475 net.cpp:434] relu3a <- conv3a
I0523 08:10:10.604943 27475 net.cpp:395] relu3a -> conv3a (in-place)
I0523 08:10:10.612274 27475 net.cpp:150] Setting up relu3a
I0523 08:10:10.612311 27475 net.cpp:157] Top shape: 10 256 8 28 28 (16056320)
I0523 08:10:10.612331 27475 net.cpp:165] Memory required for data: 2047180800
I0523 08:10:10.612342 27475 layer_factory.hpp:77] Creating layer pool3
I0523 08:10:10.612371 27475 net.cpp:100] Creating Layer pool3
I0523 08:10:10.612387 27475 net.cpp:434] pool3 <- conv3a
I0523 08:10:10.612411 27475 net.cpp:408] pool3 -> pool3
I0523 08:10:10.612828 27475 net.cpp:150] Setting up pool3
I0523 08:10:10.612845 27475 net.cpp:157] Top shape: 10 256 4 14 14 (2007040)
I0523 08:10:10.612854 27475 net.cpp:165] Memory required for data: 2055208960
I0523 08:10:10.612860 27475 layer_factory.hpp:77] Creating layer conv4a
I0523 08:10:10.612880 27475 net.cpp:100] Creating Layer conv4a
I0523 08:10:10.612890 27475 net.cpp:434] conv4a <- pool3
I0523 08:10:10.612906 27475 net.cpp:408] conv4a -> conv4a
I0523 08:10:10.693295 27475 net.cpp:150] Setting up conv4a
I0523 08:10:10.693354 27475 net.cpp:157] Top shape: 10 256 4 14 14 (2007040)
I0523 08:10:10.693362 27475 net.cpp:165] Memory required for data: 2063237120
I0523 08:10:10.693382 27475 layer_factory.hpp:77] Creating layer relu4a
I0523 08:10:10.693405 27475 net.cpp:100] Creating Layer relu4a
I0523 08:10:10.693413 27475 net.cpp:434] relu4a <- conv4a
I0523 08:10:10.693423 27475 net.cpp:395] relu4a -> conv4a (in-place)
I0523 08:10:10.697688 27475 net.cpp:150] Setting up relu4a
I0523 08:10:10.697715 27475 net.cpp:157] Top shape: 10 256 4 14 14 (2007040)
I0523 08:10:10.697722 27475 net.cpp:165] Memory required for data: 2071265280
I0523 08:10:10.697738 27475 layer_factory.hpp:77] Creating layer pool4
I0523 08:10:10.697769 27475 net.cpp:100] Creating Layer pool4
I0523 08:10:10.697779 27475 net.cpp:434] pool4 <- conv4a
I0523 08:10:10.697793 27475 net.cpp:408] pool4 -> pool4
I0523 08:10:10.698117 27475 net.cpp:150] Setting up pool4
I0523 08:10:10.698137 27475 net.cpp:157] Top shape: 10 256 2 7 7 (250880)
I0523 08:10:10.698143 27475 net.cpp:165] Memory required for data: 2072268800
I0523 08:10:10.698150 27475 layer_factory.hpp:77] Creating layer conv5a
I0523 08:10:10.698175 27475 net.cpp:100] Creating Layer conv5a
I0523 08:10:10.698184 27475 net.cpp:434] conv5a <- pool4
I0523 08:10:10.698200 27475 net.cpp:408] conv5a -> conv5a
I0523 08:10:10.792855 27475 net.cpp:150] Setting up conv5a
I0523 08:10:10.792889 27475 net.cpp:157] Top shape: 10 256 2 7 7 (250880)
I0523 08:10:10.792897 27475 net.cpp:165] Memory required for data: 2073272320
I0523 08:10:10.792922 27475 layer_factory.hpp:77] Creating layer relu5a
I0523 08:10:10.792943 27475 net.cpp:100] Creating Layer relu5a
I0523 08:10:10.792955 27475 net.cpp:434] relu5a <- conv5a
I0523 08:10:10.792968 27475 net.cpp:395] relu5a -> conv5a (in-place)
I0523 08:10:10.793223 27475 net.cpp:150] Setting up relu5a
I0523 08:10:10.793241 27475 net.cpp:157] Top shape: 10 256 2 7 7 (250880)
I0523 08:10:10.793247 27475 net.cpp:165] Memory required for data: 2074275840
I0523 08:10:10.793256 27475 layer_factory.hpp:77] Creating layer pool5
I0523 08:10:10.793272 27475 net.cpp:100] Creating Layer pool5
I0523 08:10:10.793280 27475 net.cpp:434] pool5 <- conv5a
I0523 08:10:10.793295 27475 net.cpp:408] pool5 -> pool5
I0523 08:10:10.793599 27475 net.cpp:150] Setting up pool5
I0523 08:10:10.793617 27475 net.cpp:157] Top shape: 10 256 1 4 4 (40960)
I0523 08:10:10.793624 27475 net.cpp:165] Memory required for data: 2074439680
I0523 08:10:10.793632 27475 layer_factory.hpp:77] Creating layer fc6
I0523 08:10:10.805064 27475 net.cpp:100] Creating Layer fc6
I0523 08:10:10.805083 27475 net.cpp:434] fc6 <- pool5
I0523 08:10:10.805095 27475 net.cpp:408] fc6 -> fc6
I0523 08:10:11.097021 27475 net.cpp:150] Setting up fc6
I0523 08:10:11.097059 27475 net.cpp:157] Top shape: 10 2048 (20480)
I0523 08:10:11.097064 27475 net.cpp:165] Memory required for data: 2074521600
I0523 08:10:11.097077 27475 layer_factory.hpp:77] Creating layer relu6
I0523 08:10:11.097091 27475 net.cpp:100] Creating Layer relu6
I0523 08:10:11.097139 27475 net.cpp:434] relu6 <- fc6
I0523 08:10:11.097146 27475 net.cpp:395] relu6 -> fc6 (in-place)
I0523 08:10:11.098188 27475 net.cpp:150] Setting up relu6
I0523 08:10:11.098201 27475 net.cpp:157] Top shape: 10 2048 (20480)
I0523 08:10:11.098204 27475 net.cpp:165] Memory required for data: 2074603520
I0523 08:10:11.098207 27475 layer_factory.hpp:77] Creating layer drop6
I0523 08:10:11.098218 27475 net.cpp:100] Creating Layer drop6
I0523 08:10:11.098222 27475 net.cpp:434] drop6 <- fc6
I0523 08:10:11.098228 27475 net.cpp:395] drop6 -> fc6 (in-place)
I0523 08:10:11.098270 27475 net.cpp:150] Setting up drop6
I0523 08:10:11.098278 27475 net.cpp:157] Top shape: 10 2048 (20480)
I0523 08:10:11.098280 27475 net.cpp:165] Memory required for data: 2074685440
I0523 08:10:11.098284 27475 layer_factory.hpp:77] Creating layer fc7
I0523 08:10:11.098295 27475 net.cpp:100] Creating Layer fc7
I0523 08:10:11.098299 27475 net.cpp:434] fc7 <- fc6
I0523 08:10:11.098306 27475 net.cpp:408] fc7 -> fc7
I0523 08:10:11.240097 27475 net.cpp:150] Setting up fc7
I0523 08:10:11.240154 27475 net.cpp:157] Top shape: 10 2048 (20480)
I0523 08:10:11.240159 27475 net.cpp:165] Memory required for data: 2074767360
I0523 08:10:11.240193 27475 layer_factory.hpp:77] Creating layer relu7
I0523 08:10:11.240208 27475 net.cpp:100] Creating Layer relu7
I0523 08:10:11.240217 27475 net.cpp:434] relu7 <- fc7
I0523 08:10:11.240224 27475 net.cpp:395] relu7 -> fc7 (in-place)
I0523 08:10:11.240612 27475 net.cpp:150] Setting up relu7
I0523 08:10:11.240624 27475 net.cpp:157] Top shape: 10 2048 (20480)
I0523 08:10:11.240628 27475 net.cpp:165] Memory required for data: 2074849280
I0523 08:10:11.240631 27475 layer_factory.hpp:77] Creating layer drop7
I0523 08:10:11.240644 27475 net.cpp:100] Creating Layer drop7
I0523 08:10:11.240650 27475 net.cpp:434] drop7 <- fc7
I0523 08:10:11.240656 27475 net.cpp:395] drop7 -> fc7 (in-place)
I0523 08:10:11.240684 27475 net.cpp:150] Setting up drop7
I0523 08:10:11.240690 27475 net.cpp:157] Top shape: 10 2048 (20480)
I0523 08:10:11.240695 27475 net.cpp:165] Memory required for data: 2074931200
I0523 08:10:11.240705 27475 layer_factory.hpp:77] Creating layer mvn
I0523 08:10:12.690143 27475 net.cpp:100] Creating Layer mvn
I0523 08:10:12.690184 27475 net.cpp:434] mvn <- fc7
I0523 08:10:12.690198 27475 net.cpp:408] mvn -> fc7_norm
I0523 08:10:14.029220 27475 net.cpp:150] Setting up mvn
I0523 08:10:14.029270 27475 net.cpp:157] Top shape: 10 2048 (20480)
I0523 08:10:14.029278 27475 net.cpp:165] Memory required for data: 2075013120
I0523 08:10:14.029287 27475 layer_factory.hpp:77] Creating layer conv1a_pos
I0523 08:10:14.029314 27475 net.cpp:100] Creating Layer conv1a_pos
I0523 08:10:14.029335 27475 net.cpp:434] conv1a_pos <- positive
I0523 08:10:14.029352 27475 net.cpp:408] conv1a_pos -> conv1a_pos
I0523 08:10:14.039779 27475 net.cpp:150] Setting up conv1a_pos
I0523 08:10:14.039824 27475 net.cpp:157] Top shape: 10 64 16 112 112 (128450560)
I0523 08:10:14.039829 27475 net.cpp:165] Memory required for data: 2588815360
I0523 08:10:14.039841 27475 net.cpp:493] Sharing parameters 'conv1a_w' owned by layer 'conv1a', param index 0
I0523 08:10:14.039850 27475 net.cpp:493] Sharing parameters 'conv1a_b' owned by layer 'conv1a', param index 1
I0523 08:10:14.039856 27475 layer_factory.hpp:77] Creating layer relu1a_pos
I0523 08:10:14.039870 27475 net.cpp:100] Creating Layer relu1a_pos
I0523 08:10:14.039880 27475 net.cpp:434] relu1a_pos <- conv1a_pos
I0523 08:10:14.039888 27475 net.cpp:395] relu1a_pos -> conv1a_pos (in-place)
I0523 08:10:14.040217 27475 net.cpp:150] Setting up relu1a_pos
I0523 08:10:14.040232 27475 net.cpp:157] Top shape: 10 64 16 112 112 (128450560)
I0523 08:10:14.040237 27475 net.cpp:165] Memory required for data: 3102617600
I0523 08:10:14.040243 27475 layer_factory.hpp:77] Creating layer pool1_pos
I0523 08:10:14.040256 27475 net.cpp:100] Creating Layer pool1_pos
I0523 08:10:14.040261 27475 net.cpp:434] pool1_pos <- conv1a_pos
I0523 08:10:14.040271 27475 net.cpp:408] pool1_pos -> pool1_pos
I0523 08:10:14.045747 27475 net.cpp:150] Setting up pool1_pos
I0523 08:10:14.045804 27475 net.cpp:157] Top shape: 10 64 16 56 56 (32112640)
I0523 08:10:14.045814 27475 net.cpp:165] Memory required for data: 3231068160
I0523 08:10:14.045831 27475 layer_factory.hpp:77] Creating layer conv2a_pos
I0523 08:10:14.045881 27475 net.cpp:100] Creating Layer conv2a_pos
I0523 08:10:14.045902 27475 net.cpp:434] conv2a_pos <- pool1_pos
I0523 08:10:14.045923 27475 net.cpp:408] conv2a_pos -> conv2a_pos
I0523 08:10:14.059581 27475 net.cpp:150] Setting up conv2a_pos
I0523 08:10:14.059612 27475 net.cpp:157] Top shape: 10 128 16 56 56 (64225280)
I0523 08:10:14.059618 27475 net.cpp:165] Memory required for data: 3487969280
I0523 08:10:14.059638 27475 net.cpp:493] Sharing parameters 'conv2a_w' owned by layer 'conv2a', param index 0
I0523 08:10:14.059653 27475 net.cpp:493] Sharing parameters 'conv2a_b' owned by layer 'conv2a', param index 1
I0523 08:10:14.059659 27475 layer_factory.hpp:77] Creating layer relu2a_pos
I0523 08:10:14.059669 27475 net.cpp:100] Creating Layer relu2a_pos
I0523 08:10:14.059700 27475 net.cpp:434] relu2a_pos <- conv2a_pos
I0523 08:10:14.059710 27475 net.cpp:395] relu2a_pos -> conv2a_pos (in-place)
I0523 08:10:14.063560 27475 net.cpp:150] Setting up relu2a_pos
I0523 08:10:14.063583 27475 net.cpp:157] Top shape: 10 128 16 56 56 (64225280)
I0523 08:10:14.063590 27475 net.cpp:165] Memory required for data: 3744870400
I0523 08:10:14.063594 27475 layer_factory.hpp:77] Creating layer pool2_pos
I0523 08:10:14.063617 27475 net.cpp:100] Creating Layer pool2_pos
I0523 08:10:14.063647 27475 net.cpp:434] pool2_pos <- conv2a_pos
I0523 08:10:14.063657 27475 net.cpp:408] pool2_pos -> pool2_pos
I0523 08:10:14.064018 27475 net.cpp:150] Setting up pool2_pos
I0523 08:10:14.064033 27475 net.cpp:157] Top shape: 10 128 8 28 28 (8028160)
I0523 08:10:14.064039 27475 net.cpp:165] Memory required for data: 3776983040
I0523 08:10:14.064044 27475 layer_factory.hpp:77] Creating layer conv3a_pos
I0523 08:10:14.064074 27475 net.cpp:100] Creating Layer conv3a_pos
I0523 08:10:14.064080 27475 net.cpp:434] conv3a_pos <- pool2_pos
I0523 08:10:14.064092 27475 net.cpp:408] conv3a_pos -> conv3a_pos
I0523 08:10:14.111618 27475 net.cpp:150] Setting up conv3a_pos
I0523 08:10:14.111660 27475 net.cpp:157] Top shape: 10 256 8 28 28 (16056320)
I0523 08:10:14.111665 27475 net.cpp:165] Memory required for data: 3841208320
I0523 08:10:14.111675 27475 net.cpp:493] Sharing parameters 'conv3a_w' owned by layer 'conv3a', param index 0
I0523 08:10:14.111682 27475 net.cpp:493] Sharing parameters 'conv3a_b' owned by layer 'conv3a', param index 1
I0523 08:10:14.111687 27475 layer_factory.hpp:77] Creating layer relu3a_pos
I0523 08:10:14.111698 27475 net.cpp:100] Creating Layer relu3a_pos
I0523 08:10:14.111711 27475 net.cpp:434] relu3a_pos <- conv3a_pos
I0523 08:10:14.111718 27475 net.cpp:395] relu3a_pos -> conv3a_pos (in-place)
I0523 08:10:14.111971 27475 net.cpp:150] Setting up relu3a_pos
I0523 08:10:14.111984 27475 net.cpp:157] Top shape: 10 256 8 28 28 (16056320)
I0523 08:10:14.111989 27475 net.cpp:165] Memory required for data: 3905433600
I0523 08:10:14.111994 27475 layer_factory.hpp:77] Creating layer pool3_pos
I0523 08:10:14.112011 27475 net.cpp:100] Creating Layer pool3_pos
I0523 08:10:14.112017 27475 net.cpp:434] pool3_pos <- conv3a_pos
I0523 08:10:14.112027 27475 net.cpp:408] pool3_pos -> pool3_pos
I0523 08:10:14.112329 27475 net.cpp:150] Setting up pool3_pos
I0523 08:10:14.112342 27475 net.cpp:157] Top shape: 10 256 4 14 14 (2007040)
I0523 08:10:14.112357 27475 net.cpp:165] Memory required for data: 3913461760
I0523 08:10:14.112365 27475 layer_factory.hpp:77] Creating layer conv4a_pos
I0523 08:10:14.112390 27475 net.cpp:100] Creating Layer conv4a_pos
I0523 08:10:14.112396 27475 net.cpp:434] conv4a_pos <- pool3_pos
I0523 08:10:14.112411 27475 net.cpp:408] conv4a_pos -> conv4a_pos
I0523 08:10:14.187743 27475 net.cpp:150] Setting up conv4a_pos
I0523 08:10:14.187773 27475 net.cpp:157] Top shape: 10 256 4 14 14 (2007040)
I0523 08:10:14.187778 27475 net.cpp:165] Memory required for data: 3921489920
I0523 08:10:14.187840 27475 net.cpp:493] Sharing parameters 'conv4a_w' owned by layer 'conv4a', param index 0
I0523 08:10:14.187851 27475 net.cpp:493] Sharing parameters 'conv4a_b' owned by layer 'conv4a', param index 1
I0523 08:10:14.187857 27475 layer_factory.hpp:77] Creating layer relu4a_pos
I0523 08:10:14.187871 27475 net.cpp:100] Creating Layer relu4a_pos
I0523 08:10:14.187880 27475 net.cpp:434] relu4a_pos <- conv4a_pos
I0523 08:10:14.187891 27475 net.cpp:395] relu4a_pos -> conv4a_pos (in-place)
I0523 08:10:14.189939 27475 net.cpp:150] Setting up relu4a_pos
I0523 08:10:14.189954 27475 net.cpp:157] Top shape: 10 256 4 14 14 (2007040)
I0523 08:10:14.189960 27475 net.cpp:165] Memory required for data: 3929518080
I0523 08:10:14.189965 27475 layer_factory.hpp:77] Creating layer pool4_pos
I0523 08:10:14.189991 27475 net.cpp:100] Creating Layer pool4_pos
I0523 08:10:14.189998 27475 net.cpp:434] pool4_pos <- conv4a_pos
I0523 08:10:14.190009 27475 net.cpp:408] pool4_pos -> pool4_pos
I0523 08:10:14.192234 27475 net.cpp:150] Setting up pool4_pos
I0523 08:10:14.192247 27475 net.cpp:157] Top shape: 10 256 2 7 7 (250880)
I0523 08:10:14.192252 27475 net.cpp:165] Memory required for data: 3930521600
I0523 08:10:14.192258 27475 layer_factory.hpp:77] Creating layer conv5a_pos
I0523 08:10:14.192287 27475 net.cpp:100] Creating Layer conv5a_pos
I0523 08:10:14.192294 27475 net.cpp:434] conv5a_pos <- pool4_pos
I0523 08:10:14.192306 27475 net.cpp:408] conv5a_pos -> conv5a_pos
I0523 08:10:14.255735 27475 net.cpp:150] Setting up conv5a_pos
I0523 08:10:14.255774 27475 net.cpp:157] Top shape: 10 256 2 7 7 (250880)
I0523 08:10:14.255779 27475 net.cpp:165] Memory required for data: 3931525120
I0523 08:10:14.255789 27475 net.cpp:493] Sharing parameters 'conv5a_w' owned by layer 'conv5a', param index 0
I0523 08:10:14.255800 27475 net.cpp:493] Sharing parameters 'conv5a_b' owned by layer 'conv5a', param index 1
I0523 08:10:14.255830 27475 layer_factory.hpp:77] Creating layer relu5a_pos
I0523 08:10:14.255843 27475 net.cpp:100] Creating Layer relu5a_pos
I0523 08:10:14.255851 27475 net.cpp:434] relu5a_pos <- conv5a_pos
I0523 08:10:14.255869 27475 net.cpp:395] relu5a_pos -> conv5a_pos (in-place)
I0523 08:10:14.256222 27475 net.cpp:150] Setting up relu5a_pos
I0523 08:10:14.256237 27475 net.cpp:157] Top shape: 10 256 2 7 7 (250880)
I0523 08:10:14.256248 27475 net.cpp:165] Memory required for data: 3932528640
I0523 08:10:14.256253 27475 layer_factory.hpp:77] Creating layer pool5_pos
I0523 08:10:14.256271 27475 net.cpp:100] Creating Layer pool5_pos
I0523 08:10:14.256283 27475 net.cpp:434] pool5_pos <- conv5a_pos
I0523 08:10:14.256294 27475 net.cpp:408] pool5_pos -> pool5_pos
I0523 08:10:14.256682 27475 net.cpp:150] Setting up pool5_pos
I0523 08:10:14.256697 27475 net.cpp:157] Top shape: 10 256 1 4 4 (40960)
I0523 08:10:14.256705 27475 net.cpp:165] Memory required for data: 3932692480
I0523 08:10:14.256711 27475 layer_factory.hpp:77] Creating layer fc6_pos
I0523 08:10:14.256729 27475 net.cpp:100] Creating Layer fc6_pos
I0523 08:10:14.256742 27475 net.cpp:434] fc6_pos <- pool5_pos
I0523 08:10:14.256757 27475 net.cpp:408] fc6_pos -> fc6_pos
I0523 08:10:14.616117 27475 net.cpp:150] Setting up fc6_pos
I0523 08:10:14.616148 27475 net.cpp:157] Top shape: 10 2048 (20480)
I0523 08:10:14.616153 27475 net.cpp:165] Memory required for data: 3932774400
I0523 08:10:14.616173 27475 net.cpp:493] Sharing parameters 'fc6_w' owned by layer 'fc6', param index 0
I0523 08:10:14.616179 27475 net.cpp:493] Sharing parameters 'fc6_b' owned by layer 'fc6', param index 1
I0523 08:10:14.616183 27475 layer_factory.hpp:77] Creating layer relu6_pos
I0523 08:10:14.616196 27475 net.cpp:100] Creating Layer relu6_pos
I0523 08:10:14.616207 27475 net.cpp:434] relu6_pos <- fc6_pos
I0523 08:10:14.616215 27475 net.cpp:395] relu6_pos -> fc6_pos (in-place)
I0523 08:10:14.617426 27475 net.cpp:150] Setting up relu6_pos
I0523 08:10:14.617441 27475 net.cpp:157] Top shape: 10 2048 (20480)
I0523 08:10:14.617447 27475 net.cpp:165] Memory required for data: 3932856320
I0523 08:10:14.617453 27475 layer_factory.hpp:77] Creating layer drop6_pos
I0523 08:10:14.617494 27475 net.cpp:100] Creating Layer drop6_pos
I0523 08:10:14.617501 27475 net.cpp:434] drop6_pos <- fc6_pos
I0523 08:10:14.617506 27475 net.cpp:395] drop6_pos -> fc6_pos (in-place)
I0523 08:10:14.617548 27475 net.cpp:150] Setting up drop6_pos
I0523 08:10:14.617555 27475 net.cpp:157] Top shape: 10 2048 (20480)
I0523 08:10:14.617558 27475 net.cpp:165] Memory required for data: 3932938240
I0523 08:10:14.617563 27475 layer_factory.hpp:77] Creating layer fc7_pos
I0523 08:10:14.617571 27475 net.cpp:100] Creating Layer fc7_pos
I0523 08:10:14.617575 27475 net.cpp:434] fc7_pos <- fc6_pos
I0523 08:10:14.617583 27475 net.cpp:408] fc7_pos -> fc7_pos
I0523 08:10:14.761175 27475 net.cpp:150] Setting up fc7_pos
I0523 08:10:14.761214 27475 net.cpp:157] Top shape: 10 2048 (20480)
I0523 08:10:14.761219 27475 net.cpp:165] Memory required for data: 3933020160
I0523 08:10:14.761226 27475 net.cpp:493] Sharing parameters 'fc7_w' owned by layer 'fc7', param index 0
I0523 08:10:14.761240 27475 net.cpp:493] Sharing parameters 'fc7_b' owned by layer 'fc7', param index 1
I0523 08:10:14.761243 27475 layer_factory.hpp:77] Creating layer relu7_pos
I0523 08:10:14.761252 27475 net.cpp:100] Creating Layer relu7_pos
I0523 08:10:14.761258 27475 net.cpp:434] relu7_pos <- fc7_pos
I0523 08:10:14.761268 27475 net.cpp:395] relu7_pos -> fc7_pos (in-place)
I0523 08:10:14.761557 27475 net.cpp:150] Setting up relu7_pos
I0523 08:10:14.761569 27475 net.cpp:157] Top shape: 10 2048 (20480)
I0523 08:10:14.761572 27475 net.cpp:165] Memory required for data: 3933102080
I0523 08:10:14.761575 27475 layer_factory.hpp:77] Creating layer drop7_pos
I0523 08:10:14.761584 27475 net.cpp:100] Creating Layer drop7_pos
I0523 08:10:14.761586 27475 net.cpp:434] drop7_pos <- fc7_pos
I0523 08:10:14.761591 27475 net.cpp:395] drop7_pos -> fc7_pos (in-place)
I0523 08:10:14.761634 27475 net.cpp:150] Setting up drop7_pos
I0523 08:10:14.761641 27475 net.cpp:157] Top shape: 10 2048 (20480)
I0523 08:10:14.761646 27475 net.cpp:165] Memory required for data: 3933184000
I0523 08:10:14.761651 27475 layer_factory.hpp:77] Creating layer mvn_pos
I0523 08:10:14.761801 27475 net.cpp:100] Creating Layer mvn_pos
I0523 08:10:14.761811 27475 net.cpp:434] mvn_pos <- fc7_pos
I0523 08:10:14.761816 27475 net.cpp:408] mvn_pos -> fc7_pos_norm
I0523 08:10:14.762090 27475 net.cpp:150] Setting up mvn_pos
I0523 08:10:14.762104 27475 net.cpp:157] Top shape: 10 2048 (20480)
I0523 08:10:14.762107 27475 net.cpp:165] Memory required for data: 3933265920
I0523 08:10:14.762110 27475 layer_factory.hpp:77] Creating layer conv1a_neg
I0523 08:10:14.762123 27475 net.cpp:100] Creating Layer conv1a_neg
I0523 08:10:14.762128 27475 net.cpp:434] conv1a_neg <- negative
I0523 08:10:14.762137 27475 net.cpp:408] conv1a_neg -> conv1a_neg
I0523 08:10:14.769605 27475 net.cpp:150] Setting up conv1a_neg
I0523 08:10:14.769629 27475 net.cpp:157] Top shape: 10 64 16 112 112 (128450560)
I0523 08:10:14.769632 27475 net.cpp:165] Memory required for data: 4447068160
I0523 08:10:14.769646 27475 net.cpp:493] Sharing parameters 'conv1a_w' owned by layer 'conv1a', param index 0
I0523 08:10:14.769654 27475 net.cpp:493] Sharing parameters 'conv1a_b' owned by layer 'conv1a', param index 1
I0523 08:10:14.769659 27475 layer_factory.hpp:77] Creating layer relu1a_neg
I0523 08:10:14.769671 27475 net.cpp:100] Creating Layer relu1a_neg
I0523 08:10:14.769678 27475 net.cpp:434] relu1a_neg <- conv1a_neg
I0523 08:10:14.769686 27475 net.cpp:395] relu1a_neg -> conv1a_neg (in-place)
I0523 08:10:14.769937 27475 net.cpp:150] Setting up relu1a_neg
I0523 08:10:14.769949 27475 net.cpp:157] Top shape: 10 64 16 112 112 (128450560)
I0523 08:10:14.769954 27475 net.cpp:165] Memory required for data: 4960870400
I0523 08:10:14.769960 27475 layer_factory.hpp:77] Creating layer pool1_neg
I0523 08:10:14.769973 27475 net.cpp:100] Creating Layer pool1_neg
I0523 08:10:14.769978 27475 net.cpp:434] pool1_neg <- conv1a_neg
I0523 08:10:14.769984 27475 net.cpp:408] pool1_neg -> pool1_neg
I0523 08:10:14.770995 27475 net.cpp:150] Setting up pool1_neg
I0523 08:10:14.771026 27475 net.cpp:157] Top shape: 10 64 16 56 56 (32112640)
I0523 08:10:14.771029 27475 net.cpp:165] Memory required for data: 5089320960
I0523 08:10:14.771034 27475 layer_factory.hpp:77] Creating layer conv2a_neg
I0523 08:10:14.771049 27475 net.cpp:100] Creating Layer conv2a_neg
I0523 08:10:14.771061 27475 net.cpp:434] conv2a_neg <- pool1_neg
I0523 08:10:14.771070 27475 net.cpp:408] conv2a_neg -> conv2a_neg
I0523 08:10:14.785405 27475 net.cpp:150] Setting up conv2a_neg
I0523 08:10:14.785440 27475 net.cpp:157] Top shape: 10 128 16 56 56 (64225280)
I0523 08:10:14.785451 27475 net.cpp:165] Memory required for data: 5346222080
I0523 08:10:14.785460 27475 net.cpp:493] Sharing parameters 'conv2a_w' owned by layer 'conv2a', param index 0
I0523 08:10:14.785470 27475 net.cpp:493] Sharing parameters 'conv2a_b' owned by layer 'conv2a', param index 1
I0523 08:10:14.785481 27475 layer_factory.hpp:77] Creating layer relu2a_neg
I0523 08:10:14.785502 27475 net.cpp:100] Creating Layer relu2a_neg
I0523 08:10:14.785511 27475 net.cpp:434] relu2a_neg <- conv2a_neg
I0523 08:10:14.785519 27475 net.cpp:395] relu2a_neg -> conv2a_neg (in-place)
I0523 08:10:14.785775 27475 net.cpp:150] Setting up relu2a_neg
I0523 08:10:14.785792 27475 net.cpp:157] Top shape: 10 128 16 56 56 (64225280)
I0523 08:10:14.785802 27475 net.cpp:165] Memory required for data: 5603123200
I0523 08:10:14.785812 27475 layer_factory.hpp:77] Creating layer pool2_neg
I0523 08:10:14.785830 27475 net.cpp:100] Creating Layer pool2_neg
I0523 08:10:14.785835 27475 net.cpp:434] pool2_neg <- conv2a_neg
I0523 08:10:14.785846 27475 net.cpp:408] pool2_neg -> pool2_neg
I0523 08:10:14.786993 27475 net.cpp:150] Setting up pool2_neg
I0523 08:10:14.787009 27475 net.cpp:157] Top shape: 10 128 8 28 28 (8028160)
I0523 08:10:14.787014 27475 net.cpp:165] Memory required for data: 5635235840
I0523 08:10:14.787021 27475 layer_factory.hpp:77] Creating layer conv3a_neg
I0523 08:10:14.787039 27475 net.cpp:100] Creating Layer conv3a_neg
I0523 08:10:14.787046 27475 net.cpp:434] conv3a_neg <- pool2_neg
I0523 08:10:14.787060 27475 net.cpp:408] conv3a_neg -> conv3a_neg
I0523 08:10:14.820792 27475 net.cpp:150] Setting up conv3a_neg
I0523 08:10:14.820813 27475 net.cpp:157] Top shape: 10 256 8 28 28 (16056320)
I0523 08:10:14.820822 27475 net.cpp:165] Memory required for data: 5699461120
I0523 08:10:14.820863 27475 net.cpp:493] Sharing parameters 'conv3a_w' owned by layer 'conv3a', param index 0
I0523 08:10:14.820873 27475 net.cpp:493] Sharing parameters 'conv3a_b' owned by layer 'conv3a', param index 1
I0523 08:10:14.820879 27475 layer_factory.hpp:77] Creating layer relu3a_neg
I0523 08:10:14.820894 27475 net.cpp:100] Creating Layer relu3a_neg
I0523 08:10:14.820904 27475 net.cpp:434] relu3a_neg <- conv3a_neg
I0523 08:10:14.820914 27475 net.cpp:395] relu3a_neg -> conv3a_neg (in-place)
I0523 08:10:14.822973 27475 net.cpp:150] Setting up relu3a_neg
I0523 08:10:14.822988 27475 net.cpp:157] Top shape: 10 256 8 28 28 (16056320)
I0523 08:10:14.822994 27475 net.cpp:165] Memory required for data: 5763686400
I0523 08:10:14.823000 27475 layer_factory.hpp:77] Creating layer pool3_neg
I0523 08:10:14.823014 27475 net.cpp:100] Creating Layer pool3_neg
I0523 08:10:14.823021 27475 net.cpp:434] pool3_neg <- conv3a_neg
I0523 08:10:14.823035 27475 net.cpp:408] pool3_neg -> pool3_neg
I0523 08:10:14.825281 27475 net.cpp:150] Setting up pool3_neg
I0523 08:10:14.825295 27475 net.cpp:157] Top shape: 10 256 4 14 14 (2007040)
I0523 08:10:14.825300 27475 net.cpp:165] Memory required for data: 5771714560
I0523 08:10:14.825306 27475 layer_factory.hpp:77] Creating layer conv4a_neg
I0523 08:10:14.825330 27475 net.cpp:100] Creating Layer conv4a_neg
I0523 08:10:14.825336 27475 net.cpp:434] conv4a_neg <- pool3_neg
I0523 08:10:14.825352 27475 net.cpp:408] conv4a_neg -> conv4a_neg
I0523 08:10:14.890696 27475 net.cpp:150] Setting up conv4a_neg
I0523 08:10:14.890724 27475 net.cpp:157] Top shape: 10 256 4 14 14 (2007040)
I0523 08:10:14.890730 27475 net.cpp:165] Memory required for data: 5779742720
I0523 08:10:14.890780 27475 net.cpp:493] Sharing parameters 'conv4a_w' owned by layer 'conv4a', param index 0
I0523 08:10:14.890790 27475 net.cpp:493] Sharing parameters 'conv4a_b' owned by layer 'conv4a', param index 1
I0523 08:10:14.890796 27475 layer_factory.hpp:77] Creating layer relu4a_neg
I0523 08:10:14.890808 27475 net.cpp:100] Creating Layer relu4a_neg
I0523 08:10:14.890818 27475 net.cpp:434] relu4a_neg <- conv4a_neg
I0523 08:10:14.890831 27475 net.cpp:395] relu4a_neg -> conv4a_neg (in-place)
I0523 08:10:14.892876 27475 net.cpp:150] Setting up relu4a_neg
I0523 08:10:14.892890 27475 net.cpp:157] Top shape: 10 256 4 14 14 (2007040)
I0523 08:10:14.892896 27475 net.cpp:165] Memory required for data: 5787770880
I0523 08:10:14.892902 27475 layer_factory.hpp:77] Creating layer pool4_neg
I0523 08:10:14.892916 27475 net.cpp:100] Creating Layer pool4_neg
I0523 08:10:14.892922 27475 net.cpp:434] pool4_neg <- conv4a_neg
I0523 08:10:14.892940 27475 net.cpp:408] pool4_neg -> pool4_neg
I0523 08:10:14.895184 27475 net.cpp:150] Setting up pool4_neg
I0523 08:10:14.895207 27475 net.cpp:157] Top shape: 10 256 2 7 7 (250880)
I0523 08:10:14.895213 27475 net.cpp:165] Memory required for data: 5788774400
I0523 08:10:14.895220 27475 layer_factory.hpp:77] Creating layer conv5a_neg
I0523 08:10:14.895238 27475 net.cpp:100] Creating Layer conv5a_neg
I0523 08:10:14.895257 27475 net.cpp:434] conv5a_neg <- pool4_neg
I0523 08:10:14.895269 27475 net.cpp:408] conv5a_neg -> conv5a_neg
I0523 08:10:14.959911 27475 net.cpp:150] Setting up conv5a_neg
I0523 08:10:14.959944 27475 net.cpp:157] Top shape: 10 256 2 7 7 (250880)
I0523 08:10:14.959951 27475 net.cpp:165] Memory required for data: 5789777920
I0523 08:10:14.959967 27475 net.cpp:493] Sharing parameters 'conv5a_w' owned by layer 'conv5a', param index 0
I0523 08:10:14.959975 27475 net.cpp:493] Sharing parameters 'conv5a_b' owned by layer 'conv5a', param index 1
I0523 08:10:14.959985 27475 layer_factory.hpp:77] Creating layer relu5a_neg
I0523 08:10:14.960005 27475 net.cpp:100] Creating Layer relu5a_neg
I0523 08:10:14.960014 27475 net.cpp:434] relu5a_neg <- conv5a_neg
I0523 08:10:14.960024 27475 net.cpp:395] relu5a_neg -> conv5a_neg (in-place)
I0523 08:10:14.961261 27475 net.cpp:150] Setting up relu5a_neg
I0523 08:10:14.961277 27475 net.cpp:157] Top shape: 10 256 2 7 7 (250880)
I0523 08:10:14.961282 27475 net.cpp:165] Memory required for data: 5790781440
I0523 08:10:14.961288 27475 layer_factory.hpp:77] Creating layer pool5_neg
I0523 08:10:14.961304 27475 net.cpp:100] Creating Layer pool5_neg
I0523 08:10:14.961313 27475 net.cpp:434] pool5_neg <- conv5a_neg
I0523 08:10:14.961333 27475 net.cpp:408] pool5_neg -> pool5_neg
I0523 08:10:14.961603 27475 net.cpp:150] Setting up pool5_neg
I0523 08:10:14.961617 27475 net.cpp:157] Top shape: 10 256 1 4 4 (40960)
I0523 08:10:14.961622 27475 net.cpp:165] Memory required for data: 5790945280
I0523 08:10:14.961628 27475 layer_factory.hpp:77] Creating layer fc6_neg
I0523 08:10:14.961665 27475 net.cpp:100] Creating Layer fc6_neg
I0523 08:10:14.961673 27475 net.cpp:434] fc6_neg <- pool5_neg
I0523 08:10:14.961684 27475 net.cpp:408] fc6_neg -> fc6_neg
I0523 08:10:15.365226 27475 net.cpp:150] Setting up fc6_neg
I0523 08:10:15.365268 27475 net.cpp:157] Top shape: 10 2048 (20480)
I0523 08:10:15.365273 27475 net.cpp:165] Memory required for data: 5791027200
I0523 08:10:15.365283 27475 net.cpp:493] Sharing parameters 'fc6_w' owned by layer 'fc6', param index 0
I0523 08:10:15.365291 27475 net.cpp:493] Sharing parameters 'fc6_b' owned by layer 'fc6', param index 1
I0523 08:10:15.365298 27475 layer_factory.hpp:77] Creating layer relu6_neg
I0523 08:10:15.365309 27475 net.cpp:100] Creating Layer relu6_neg
I0523 08:10:15.365315 27475 net.cpp:434] relu6_neg <- fc6_neg
I0523 08:10:15.365326 27475 net.cpp:395] relu6_neg -> fc6_neg (in-place)
I0523 08:10:15.365684 27475 net.cpp:150] Setting up relu6_neg
I0523 08:10:15.365698 27475 net.cpp:157] Top shape: 10 2048 (20480)
I0523 08:10:15.365703 27475 net.cpp:165] Memory required for data: 5791109120
I0523 08:10:15.365710 27475 layer_factory.hpp:77] Creating layer drop6_neg
I0523 08:10:15.365748 27475 net.cpp:100] Creating Layer drop6_neg
I0523 08:10:15.365753 27475 net.cpp:434] drop6_neg <- fc6_neg
I0523 08:10:15.365762 27475 net.cpp:395] drop6_neg -> fc6_neg (in-place)
I0523 08:10:15.365813 27475 net.cpp:150] Setting up drop6_neg
I0523 08:10:15.365821 27475 net.cpp:157] Top shape: 10 2048 (20480)
I0523 08:10:15.365825 27475 net.cpp:165] Memory required for data: 5791191040
I0523 08:10:15.365829 27475 layer_factory.hpp:77] Creating layer fc7_neg
I0523 08:10:15.365844 27475 net.cpp:100] Creating Layer fc7_neg
I0523 08:10:15.365857 27475 net.cpp:434] fc7_neg <- fc6_neg
I0523 08:10:15.365869 27475 net.cpp:408] fc7_neg -> fc7_neg
I0523 08:10:15.620031 27475 net.cpp:150] Setting up fc7_neg
I0523 08:10:15.620076 27475 net.cpp:157] Top shape: 10 2048 (20480)
I0523 08:10:15.620084 27475 net.cpp:165] Memory required for data: 5791272960
I0523 08:10:15.620095 27475 net.cpp:493] Sharing parameters 'fc7_w' owned by layer 'fc7', param index 0
I0523 08:10:15.620107 27475 net.cpp:493] Sharing parameters 'fc7_b' owned by layer 'fc7', param index 1
I0523 08:10:15.620132 27475 layer_factory.hpp:77] Creating layer relu7_neg
I0523 08:10:15.620156 27475 net.cpp:100] Creating Layer relu7_neg
I0523 08:10:15.620164 27475 net.cpp:434] relu7_neg <- fc7_neg
I0523 08:10:15.620182 27475 net.cpp:395] relu7_neg -> fc7_neg (in-place)
I0523 08:10:15.620563 27475 net.cpp:150] Setting up relu7_neg
I0523 08:10:15.620579 27475 net.cpp:157] Top shape: 10 2048 (20480)
I0523 08:10:15.620584 27475 net.cpp:165] Memory required for data: 5791354880
I0523 08:10:15.620590 27475 layer_factory.hpp:77] Creating layer drop7_neg
I0523 08:10:15.620625 27475 net.cpp:100] Creating Layer drop7_neg
I0523 08:10:15.620631 27475 net.cpp:434] drop7_neg <- fc7_neg
I0523 08:10:15.620640 27475 net.cpp:395] drop7_neg -> fc7_neg (in-place)
I0523 08:10:15.620689 27475 net.cpp:150] Setting up drop7_neg
I0523 08:10:15.620700 27475 net.cpp:157] Top shape: 10 2048 (20480)
I0523 08:10:15.620705 27475 net.cpp:165] Memory required for data: 5791436800
I0523 08:10:15.620712 27475 layer_factory.hpp:77] Creating layer mvn_neg
I0523 08:10:15.620797 27475 net.cpp:100] Creating Layer mvn_neg
I0523 08:10:15.620806 27475 net.cpp:434] mvn_neg <- fc7_neg
I0523 08:10:15.620818 27475 net.cpp:408] mvn_neg -> fc7_neg_norm
I0523 08:10:15.621023 27475 net.cpp:150] Setting up mvn_neg
I0523 08:10:15.621037 27475 net.cpp:157] Top shape: 10 2048 (20480)
I0523 08:10:15.621044 27475 net.cpp:165] Memory required for data: 5791518720
I0523 08:10:15.621052 27475 layer_factory.hpp:77] Creating layer save
I0523 08:10:15.655702 27475 net.cpp:100] Creating Layer save
I0523 08:10:15.655789 27475 net.cpp:434] save <- fc7_norm
I0523 08:10:15.655827 27475 net.cpp:434] save <- fc7_pos_norm
I0523 08:10:15.655839 27475 net.cpp:434] save <- fc7_neg_norm
…
