…
    mean_value: 65
    mean_value: 74
    mean_value: 92
    mean_value: 65
    mean_value: 74
    mean_value: 92
    mean_value: 65
    mean_value: 74
    mean_value: 92
    mean_value: 65
    mean_value: 74
    mean_value: 92
    mean_value: 65
    mean_value: 74
    mean_value: 92
    mean_value: 65
    mean_value: 74
    mean_value: 92
    mean_value: 65
    mean_value: 74
    mean_value: 92
    mean_value: 65
    mean_value: 74
    mean_value: 92
  }
  data_param {
    source: "/data/leo-data/Synthetic/LMDB/Triplets/test"
    batch_size: 10
    backend: LMDB
  }
}
layer {
  name: "slicer"
  type: "Slice"
  bottom: "triplet"
  top: "anchor_stacked"
  top: "positive_stacked"
  top: "negative_stacked"
  slice_param {
    slice_dim: 1
    slice_point: 48
    slice_point: 96
  }
}
layer {
  name: "reshape_anchor"
  type: "Reshape"
  bottom: "anchor_stacked"
  top: "anchor"
  reshape_param {
    shape {
      dim: 0
      dim: 3
      dim: 16
      dim: 112
      dim: 112
    }
  }
}
layer {
  name: "reshape_positive"
  type: "Reshape"
  bottom: "positive_stacked"
  top: "positive"
  reshape_param {
    shape {
      dim: 0
      dim: 3
      dim: 16
      dim: 112
      dim: 112
    }
  }
}
layer {
  name: "silence_negative"
  type: "Silence"
  bottom: "negative_stacked"
}
layer {
  name: "data_switch"
  type: "Python"
  bottom: "anchor"
  bottom: "positive"
  top: "first_person"
  top: "third_person"
  python_param {
    module: "data_switch"
    layer: "DataSwitchLayer"
  }
}
layer {
  name: "label_split"
  type: "Python"
  bottom: "raw_label"
  top: "fp_label"
  top: "tp_label"
  python_param {
    module: "label_split"
    layer: "LabelSplitLayer"
  }
}
layer {
  name: "label_parse"
  type: "Python"
  bottom: "fp_label"
  top: "label"
  python_param {
    module: "label_parse"
    layer: "LabelParseLayer"
    param_str: "Scene"
  }
}
layer {
  name: "silence_third_person"
  type: "Silence"
  bottom: "third_person"
  bottom: "tp_label"
}
layer {
  name: "conv1a"
  type: "NdConvolution"
  bottom: "first_person"
  top: "conv1a"
  param {
    lr_mult: 0
    decay_mult: 0
  }
  param {
    lr_mult: 0
    decay_mult: 0
  }
  convolution_param {
    num_output: 64
    weight_filler {
      type: "gaussian"
      std: 0.01
    }
    bias_filler {
      type: "constant"
      value: 0
    }
    pad_shape {
      dim: 1
      dim: 1
      dim: 1
    }
    kernel_shape {
      dim: 3
      dim: 3
      dim: 3
    }
    stride_shape {
      dim: 1
      dim: 1
      dim: 1
    }
  }
}
layer {
  name: "relu1a"
  type: "ReLU"
  bottom: "conv1a"
  top: "conv1a"
}
layer {
  name: "pool1"
  type: "NdPooling"
  bottom: "conv1a"
  top: "pool1"
  pooling_param {
    pool: MAX
    kernel_shape {
      dim: 1
      dim: 2
      dim: 2
    }
    stride_shape {
      dim: 1
      dim: 2
      dim: 2
    }
  }
}
layer {
  name: "conv2a"
  type: "NdConvolution"
  bottom: "pool1"
  top: "conv2a"
  param {
    lr_mult: 0
    decay_mult: 0
  }
  param {
    lr_mult: 0
    decay_mult: 0
  }
  convolution_param {
    num_output: 128
    weight_filler {
      type: "gaussian"
      std: 0.01
    }
    bias_filler {
      type: "constant"
      value: 1
    }
    pad_shape {
      dim: 1
      dim: 1
      dim: 1
    }
    kernel_shape {
      dim: 3
      dim: 3
      dim: 3
    }
    stride_shape {
      dim: 1
      dim: 1
      dim: 1
    }
  }
}
layer {
  name: "relu2a"
  type: "ReLU"
  bottom: "conv2a"
  top: "conv2a"
}
layer {
  name: "pool2"
  type: "NdPooling"
  bottom: "conv2a"
  top: "pool2"
  pooling_param {
    pool: MAX
    kernel_shape {
      dim: 2
      dim: 2
      dim: 2
    }
    stride_shape {
      dim: 2
      dim: 2
      dim: 2
    }
  }
}
layer {
  name: "conv3a"
  type: "NdConvolution"
  bottom: "pool2"
  top: "conv3a"
  param {
    lr_mult: 0
    decay_mult: 0
  }
  param {
    lr_mult: 0
    decay_mult: 0
  }
  convolution_param {
    num_output: 256
    weight_filler {
      type: "gaussian"
      std: 0.01
    }
    bias_filler {
      type: "constant"
      value: 1
    }
    pad_shape {
      dim: 1
      dim: 1
      dim: 1
    }
    kernel_shape {
      dim: 3
      dim: 3
      dim: 3
    }
    stride_shape {
      dim: 1
      dim: 1
      dim: 1
    }
  }
}
layer {
  name: "relu3a"
  type: "ReLU"
  bottom: "conv3a"
  top: "conv3a"
}
layer {
  name: "pool3"
  type: "NdPooling"
  bottom: "conv3a"
  top: "pool3"
  pooling_param {
    pool: MAX
    kernel_shape {
      dim: 2
      dim: 2
      dim: 2
    }
    stride_shape {
      dim: 2
      dim: 2
      dim: 2
    }
  }
}
layer {
  name: "conv4a"
  type: "NdConvolution"
  bottom: "pool3"
  top: "conv4a"
  param {
    lr_mult: 0
    decay_mult: 0
  }
  param {
    lr_mult: 0
    decay_mult: 0
  }
  convolution_param {
    num_output: 256
    weight_filler {
      type: "gaussian"
      std: 0.01
    }
    bias_filler {
      type: "constant"
      value: 1
    }
    pad_shape {
      dim: 1
      dim: 1
      dim: 1
    }
    kernel_shape {
      dim: 3
      dim: 3
      dim: 3
    }
    stride_shape {
      dim: 1
      dim: 1
      dim: 1
    }
  }
}
layer {
  name: "relu4a"
  type: "ReLU"
  bottom: "conv4a"
  top: "conv4a"
}
layer {
  name: "pool4"
  type: "NdPooling"
  bottom: "conv4a"
  top: "pool4"
  pooling_param {
    pool: MAX
    kernel_shape {
      dim: 2
      dim: 2
      dim: 2
    }
    stride_shape {
      dim: 2
      dim: 2
      dim: 2
    }
  }
}
layer {
  name: "conv5a"
  type: "NdConvolution"
  bottom: "pool4"
  top: "conv5a"
  param {
    lr_mult: 0
    decay_mult: 0
  }
  param {
    lr_mult: 0
    decay_mult: 0
  }
  convolution_param {
    num_output: 256
    weight_filler {
      type: "gaussian"
      std: 0.01
    }
    bias_filler {
      type: "constant"
      value: 1
    }
    pad_shape {
      dim: 1
      dim: 1
      dim: 1
    }
    kernel_shape {
      dim: 3
      dim: 3
      dim: 3
    }
    stride_shape {
      dim: 1
      dim: 1
      dim: 1
    }
  }
}
layer {
  name: "relu5a"
  type: "ReLU"
  bottom: "conv5a"
  top: "conv5a"
}
layer {
  name: "pool5"
  type: "NdPooling"
  bottom: "conv5a"
  top: "pool5"
  pooling_param {
    pool: MAX
    kernel_shape {
      dim: 2
      dim: 2
      dim: 2
    }
    stride_shape {
      dim: 2
      dim: 2
      dim: 2
    }
  }
}
layer {
  name: "fc6"
  type: "InnerProduct"
  bottom: "pool5"
  top: "fc6"
  param {
    lr_mult: 0
    decay_mult: 0
  }
  param {
    lr_mult: 0
    decay_mult: 0
  }
  inner_product_param {
    num_output: 2048
    weight_filler {
      type: "gaussian"
      std: 0.005
    }
    bias_filler {
      type: "constant"
      value: 1
    }
  }
}
layer {
  name: "relu6"
  type: "ReLU"
  bottom: "fc6"
  top: "fc6"
}
layer {
  name: "drop6"
  type: "Dropout"
  bottom: "fc6"
  top: "fc6"
  dropout_param {
    dropout_ratio: 0.5
  }
}
layer {
  name: "fc7"
  type: "InnerProduct"
  bottom: "fc6"
  top: "fc7"
  param {
    lr_mult: 0
    decay_mult: 0
  }
  param {
    lr_mult: 0
    decay_mult: 0
  }
  inner_product_param {
    num_output: 2048
    weight_filler {
      type: "gaussian"
      std: 0.005
    }
    bias_filler {
      type: "constant"
      value: 1
    }
  }
}
layer {
  name: "relu7"
  type: "ReLU"
  bottom: "fc7"
  top: "fc7"
}
layer {
  name: "drop7"
  type: "Dropout"
  bottom: "fc7"
  top: "fc7"
  dropout_param {
    dropout_ratio: 0.5
  }
}
layer {
  name: "fc8"
  type: "InnerProduct"
  bottom: "fc7"
  top: "fc8"
  param {
    lr_mult: 1
    decay_mult: 1
  }
  param {
    lr_mult: 2
    decay_mult: 0
  }
  inner_product_param {
    num_output: 10
    weight_filler {
      type: "gaussian"
      std: 0.01
    }
    bias_filler {
      type: "constant"
      value: 0
    }
  }
}
layer {
  name: "prob"
  type: "Softmax"
  bottom: "fc8"
  top: "prob"
}
layer {
  name: "accuracy"
  type: "Accuracy"
  bottom: "prob"
  bottom: "label"
  top: "accuracy/top-1"
}
layer {
  name: "accuracy"
  type: "Accuracy"
  bottom: "prob"
  bottom: "label"
  top: "accuracy/top-5"
  accuracy_param {
    top_k: 5
  }
}
I0531 12:39:44.027043 24498 layer_factory.hpp:77] Creating layer data
I0531 12:39:44.027555 24498 net.cpp:100] Creating Layer data
I0531 12:39:44.027570 24498 net.cpp:408] data -> triplet
I0531 12:39:44.027591 24498 net.cpp:408] data -> raw_label
I0531 12:39:44.029572 24507 db_lmdb.cpp:35] Opened lmdb /data/leo-data/Synthetic/LMDB/Triplets/test
I0531 12:39:44.747649 24498 data_layer.cpp:41] output data size: 10,144,112,112
I0531 12:39:45.201861 24498 net.cpp:150] Setting up data
I0531 12:39:45.201912 24498 net.cpp:157] Top shape: 10 144 112 112 (18063360)
I0531 12:39:45.201920 24498 net.cpp:157] Top shape: 10 (10)
I0531 12:39:45.201922 24498 net.cpp:165] Memory required for data: 72253480
I0531 12:39:45.201959 24498 layer_factory.hpp:77] Creating layer slicer
I0531 12:39:45.202011 24498 net.cpp:100] Creating Layer slicer
I0531 12:39:45.202019 24498 net.cpp:434] slicer <- triplet
I0531 12:39:45.202042 24498 net.cpp:408] slicer -> anchor_stacked
I0531 12:39:45.202055 24498 net.cpp:408] slicer -> positive_stacked
I0531 12:39:45.202062 24498 net.cpp:408] slicer -> negative_stacked
I0531 12:39:45.202133 24498 net.cpp:150] Setting up slicer
I0531 12:39:45.202141 24498 net.cpp:157] Top shape: 10 48 112 112 (6021120)
I0531 12:39:45.202144 24498 net.cpp:157] Top shape: 10 48 112 112 (6021120)
I0531 12:39:45.202148 24498 net.cpp:157] Top shape: 10 48 112 112 (6021120)
I0531 12:39:45.202150 24498 net.cpp:165] Memory required for data: 144506920
I0531 12:39:45.202154 24498 layer_factory.hpp:77] Creating layer reshape_anchor
I0531 12:39:45.202172 24498 net.cpp:100] Creating Layer reshape_anchor
I0531 12:39:45.202175 24498 net.cpp:434] reshape_anchor <- anchor_stacked
I0531 12:39:45.202206 24498 net.cpp:408] reshape_anchor -> anchor
I0531 12:39:45.202240 24498 net.cpp:150] Setting up reshape_anchor
I0531 12:39:45.202246 24498 net.cpp:157] Top shape: 10 3 16 112 112 (6021120)
I0531 12:39:45.202250 24498 net.cpp:165] Memory required for data: 168591400
I0531 12:39:45.202252 24498 layer_factory.hpp:77] Creating layer reshape_positive
I0531 12:39:45.202303 24498 net.cpp:100] Creating Layer reshape_positive
I0531 12:39:45.202308 24498 net.cpp:434] reshape_positive <- positive_stacked
I0531 12:39:45.202313 24498 net.cpp:408] reshape_positive -> positive
I0531 12:39:45.202337 24498 net.cpp:150] Setting up reshape_positive
I0531 12:39:45.202342 24498 net.cpp:157] Top shape: 10 3 16 112 112 (6021120)
I0531 12:39:45.202344 24498 net.cpp:165] Memory required for data: 192675880
I0531 12:39:45.202373 24498 layer_factory.hpp:77] Creating layer silence_negative
I0531 12:39:45.202380 24498 net.cpp:100] Creating Layer silence_negative
I0531 12:39:45.202385 24498 net.cpp:434] silence_negative <- negative_stacked
I0531 12:39:45.202389 24498 net.cpp:150] Setting up silence_negative
I0531 12:39:45.202392 24498 net.cpp:165] Memory required for data: 192675880
I0531 12:39:45.202394 24498 layer_factory.hpp:77] Creating layer data_switch
I0531 12:39:46.208124 24498 net.cpp:100] Creating Layer data_switch
I0531 12:39:46.208156 24498 net.cpp:434] data_switch <- anchor
I0531 12:39:46.208202 24498 net.cpp:434] data_switch <- positive
I0531 12:39:46.208212 24498 net.cpp:408] data_switch -> first_person
I0531 12:39:46.208226 24498 net.cpp:408] data_switch -> third_person
I0531 12:39:46.482740 24498 net.cpp:150] Setting up data_switch
I0531 12:39:46.482784 24498 net.cpp:157] Top shape: 10 3 16 112 112 (6021120)
I0531 12:39:46.482792 24498 net.cpp:157] Top shape: 10 3 16 112 112 (6021120)
I0531 12:39:46.482797 24498 net.cpp:165] Memory required for data: 240844840
I0531 12:39:46.482806 24498 layer_factory.hpp:77] Creating layer label_split
I0531 12:39:46.483243 24498 net.cpp:100] Creating Layer label_split
I0531 12:39:46.483271 24498 net.cpp:434] label_split <- raw_label
I0531 12:39:46.483296 24498 net.cpp:408] label_split -> fp_label
I0531 12:39:46.483314 24498 net.cpp:408] label_split -> tp_label
I0531 12:39:46.483515 24498 net.cpp:150] Setting up label_split
I0531 12:39:46.483532 24498 net.cpp:157] Top shape: 10 1 (10)
I0531 12:39:46.483541 24498 net.cpp:157] Top shape: 10 1 (10)
I0531 12:39:46.483546 24498 net.cpp:165] Memory required for data: 240844920
I0531 12:39:46.483553 24498 layer_factory.hpp:77] Creating layer label_parse
I0531 12:39:46.483783 24498 net.cpp:100] Creating Layer label_parse
I0531 12:39:46.483796 24498 net.cpp:434] label_parse <- fp_label
I0531 12:39:46.483808 24498 net.cpp:408] label_parse -> label
I0531 12:39:46.483928 24498 net.cpp:150] Setting up label_parse
I0531 12:39:46.483943 24498 net.cpp:157] Top shape: 10 1 (10)
I0531 12:39:46.483958 24498 net.cpp:165] Memory required for data: 240844960
I0531 12:39:46.483980 24498 layer_factory.hpp:77] Creating layer label_label_parse_0_split
I0531 12:39:46.484019 24498 net.cpp:100] Creating Layer label_label_parse_0_split
I0531 12:39:46.484027 24498 net.cpp:434] label_label_parse_0_split <- label
I0531 12:39:46.484036 24498 net.cpp:408] label_label_parse_0_split -> label_label_parse_0_split_0
I0531 12:39:46.484046 24498 net.cpp:408] label_label_parse_0_split -> label_label_parse_0_split_1
I0531 12:39:46.484138 24498 net.cpp:150] Setting up label_label_parse_0_split
I0531 12:39:46.484149 24498 net.cpp:157] Top shape: 10 1 (10)
I0531 12:39:46.484156 24498 net.cpp:157] Top shape: 10 1 (10)
I0531 12:39:46.484161 24498 net.cpp:165] Memory required for data: 240845040
I0531 12:39:46.484166 24498 layer_factory.hpp:77] Creating layer silence_third_person
I0531 12:39:46.484176 24498 net.cpp:100] Creating Layer silence_third_person
I0531 12:39:46.484182 24498 net.cpp:434] silence_third_person <- third_person
I0531 12:39:46.484189 24498 net.cpp:434] silence_third_person <- tp_label
I0531 12:39:46.484195 24498 net.cpp:150] Setting up silence_third_person
I0531 12:39:46.484220 24498 net.cpp:165] Memory required for data: 240845040
I0531 12:39:46.484226 24498 layer_factory.hpp:77] Creating layer conv1a
I0531 12:39:46.484243 24498 net.cpp:100] Creating Layer conv1a
I0531 12:39:46.484251 24498 net.cpp:434] conv1a <- first_person
I0531 12:39:46.484262 24498 net.cpp:408] conv1a -> conv1a
I0531 12:39:48.825178 24498 net.cpp:150] Setting up conv1a
I0531 12:39:48.825213 24498 net.cpp:157] Top shape: 10 64 16 112 112 (128450560)
I0531 12:39:48.825218 24498 net.cpp:165] Memory required for data: 754647280
I0531 12:39:48.825244 24498 layer_factory.hpp:77] Creating layer relu1a
I0531 12:39:48.825263 24498 net.cpp:100] Creating Layer relu1a
I0531 12:39:48.825271 24498 net.cpp:434] relu1a <- conv1a
I0531 12:39:48.825278 24498 net.cpp:395] relu1a -> conv1a (in-place)
I0531 12:39:48.826190 24498 net.cpp:150] Setting up relu1a
I0531 12:39:48.826205 24498 net.cpp:157] Top shape: 10 64 16 112 112 (128450560)
I0531 12:39:48.826210 24498 net.cpp:165] Memory required for data: 1268449520
I0531 12:39:48.826215 24498 layer_factory.hpp:77] Creating layer pool1
I0531 12:39:48.826233 24498 net.cpp:100] Creating Layer pool1
I0531 12:39:48.826239 24498 net.cpp:434] pool1 <- conv1a
I0531 12:39:48.826247 24498 net.cpp:408] pool1 -> pool1
I0531 12:39:48.827394 24498 net.cpp:150] Setting up pool1
I0531 12:39:48.827426 24498 net.cpp:157] Top shape: 10 64 16 56 56 (32112640)
I0531 12:39:48.827442 24498 net.cpp:165] Memory required for data: 1396900080
I0531 12:39:48.827450 24498 layer_factory.hpp:77] Creating layer conv2a
I0531 12:39:48.827487 24498 net.cpp:100] Creating Layer conv2a
I0531 12:39:48.827495 24498 net.cpp:434] conv2a <- pool1
I0531 12:39:48.827508 24498 net.cpp:408] conv2a -> conv2a
I0531 12:39:48.843618 24498 net.cpp:150] Setting up conv2a
I0531 12:39:48.843646 24498 net.cpp:157] Top shape: 10 128 16 56 56 (64225280)
I0531 12:39:48.843649 24498 net.cpp:165] Memory required for data: 1653801200
I0531 12:39:48.843673 24498 layer_factory.hpp:77] Creating layer relu2a
I0531 12:39:48.843694 24498 net.cpp:100] Creating Layer relu2a
I0531 12:39:48.843701 24498 net.cpp:434] relu2a <- conv2a
I0531 12:39:48.843708 24498 net.cpp:395] relu2a -> conv2a (in-place)
I0531 12:39:48.843945 24498 net.cpp:150] Setting up relu2a
I0531 12:39:48.843955 24498 net.cpp:157] Top shape: 10 128 16 56 56 (64225280)
I0531 12:39:48.843958 24498 net.cpp:165] Memory required for data: 1910702320
I0531 12:39:48.843968 24498 layer_factory.hpp:77] Creating layer pool2
I0531 12:39:48.843978 24498 net.cpp:100] Creating Layer pool2
I0531 12:39:48.843983 24498 net.cpp:434] pool2 <- conv2a
I0531 12:39:48.843989 24498 net.cpp:408] pool2 -> pool2
I0531 12:39:48.845248 24498 net.cpp:150] Setting up pool2
I0531 12:39:48.845258 24498 net.cpp:157] Top shape: 10 128 8 28 28 (8028160)
I0531 12:39:48.845262 24498 net.cpp:165] Memory required for data: 1942814960
I0531 12:39:48.845264 24498 layer_factory.hpp:77] Creating layer conv3a
I0531 12:39:48.845288 24498 net.cpp:100] Creating Layer conv3a
I0531 12:39:48.845293 24498 net.cpp:434] conv3a <- pool2
I0531 12:39:48.845301 24498 net.cpp:408] conv3a -> conv3a
I0531 12:39:48.880339 24498 net.cpp:150] Setting up conv3a
I0531 12:39:48.880370 24498 net.cpp:157] Top shape: 10 256 8 28 28 (16056320)
I0531 12:39:48.880374 24498 net.cpp:165] Memory required for data: 2007040240
I0531 12:39:48.880389 24498 layer_factory.hpp:77] Creating layer relu3a
I0531 12:39:48.880419 24498 net.cpp:100] Creating Layer relu3a
I0531 12:39:48.880426 24498 net.cpp:434] relu3a <- conv3a
I0531 12:39:48.880434 24498 net.cpp:395] relu3a -> conv3a (in-place)
I0531 12:39:48.882599 24498 net.cpp:150] Setting up relu3a
I0531 12:39:48.882613 24498 net.cpp:157] Top shape: 10 256 8 28 28 (16056320)
I0531 12:39:48.882618 24498 net.cpp:165] Memory required for data: 2071265520
I0531 12:39:48.882632 24498 layer_factory.hpp:77] Creating layer pool3
I0531 12:39:48.882647 24498 net.cpp:100] Creating Layer pool3
I0531 12:39:48.882653 24498 net.cpp:434] pool3 <- conv3a
I0531 12:39:48.882664 24498 net.cpp:408] pool3 -> pool3
I0531 12:39:48.885241 24498 net.cpp:150] Setting up pool3
I0531 12:39:48.885264 24498 net.cpp:157] Top shape: 10 256 4 14 14 (2007040)
I0531 12:39:48.885270 24498 net.cpp:165] Memory required for data: 2079293680
I0531 12:39:48.885275 24498 layer_factory.hpp:77] Creating layer conv4a
I0531 12:39:48.885298 24498 net.cpp:100] Creating Layer conv4a
I0531 12:39:48.885305 24498 net.cpp:434] conv4a <- pool3
I0531 12:39:48.885318 24498 net.cpp:408] conv4a -> conv4a
I0531 12:39:48.957255 24498 net.cpp:150] Setting up conv4a
I0531 12:39:48.957293 24498 net.cpp:157] Top shape: 10 256 4 14 14 (2007040)
I0531 12:39:48.957298 24498 net.cpp:165] Memory required for data: 2087321840
I0531 12:39:48.957312 24498 layer_factory.hpp:77] Creating layer relu4a
I0531 12:39:48.957347 24498 net.cpp:100] Creating Layer relu4a
I0531 12:39:48.957356 24498 net.cpp:434] relu4a <- conv4a
I0531 12:39:48.957370 24498 net.cpp:395] relu4a -> conv4a (in-place)
I0531 12:39:48.957586 24498 net.cpp:150] Setting up relu4a
I0531 12:39:48.957598 24498 net.cpp:157] Top shape: 10 256 4 14 14 (2007040)
I0531 12:39:48.957603 24498 net.cpp:165] Memory required for data: 2095350000
I0531 12:39:48.957617 24498 layer_factory.hpp:77] Creating layer pool4
I0531 12:39:48.957633 24498 net.cpp:100] Creating Layer pool4
I0531 12:39:48.957639 24498 net.cpp:434] pool4 <- conv4a
I0531 12:39:48.957649 24498 net.cpp:408] pool4 -> pool4
I0531 12:39:48.958043 24498 net.cpp:150] Setting up pool4
I0531 12:39:48.958057 24498 net.cpp:157] Top shape: 10 256 2 7 7 (250880)
I0531 12:39:48.958062 24498 net.cpp:165] Memory required for data: 2096353520
I0531 12:39:48.958068 24498 layer_factory.hpp:77] Creating layer conv5a
I0531 12:39:48.958091 24498 net.cpp:100] Creating Layer conv5a
I0531 12:39:48.958097 24498 net.cpp:434] conv5a <- pool4
I0531 12:39:48.958107 24498 net.cpp:408] conv5a -> conv5a
I0531 12:39:49.019956 24498 net.cpp:150] Setting up conv5a
I0531 12:39:49.019996 24498 net.cpp:157] Top shape: 10 256 2 7 7 (250880)
I0531 12:39:49.020002 24498 net.cpp:165] Memory required for data: 2097357040
I0531 12:39:49.020021 24498 layer_factory.hpp:77] Creating layer relu5a
I0531 12:39:49.020058 24498 net.cpp:100] Creating Layer relu5a
I0531 12:39:49.020077 24498 net.cpp:434] relu5a <- conv5a
I0531 12:39:49.020097 24498 net.cpp:395] relu5a -> conv5a (in-place)
I0531 12:39:49.022172 24498 net.cpp:150] Setting up relu5a
I0531 12:39:49.022205 24498 net.cpp:157] Top shape: 10 256 2 7 7 (250880)
I0531 12:39:49.022220 24498 net.cpp:165] Memory required for data: 2098360560
I0531 12:39:49.022233 24498 layer_factory.hpp:77] Creating layer pool5
I0531 12:39:49.022271 24498 net.cpp:100] Creating Layer pool5
I0531 12:39:49.022320 24498 net.cpp:434] pool5 <- conv5a
I0531 12:39:49.022338 24498 net.cpp:408] pool5 -> pool5
I0531 12:39:49.024525 24498 net.cpp:150] Setting up pool5
I0531 12:39:49.024544 24498 net.cpp:157] Top shape: 10 256 1 4 4 (40960)
I0531 12:39:49.024549 24498 net.cpp:165] Memory required for data: 2098524400
I0531 12:39:49.024554 24498 layer_factory.hpp:77] Creating layer fc6
I0531 12:39:49.024608 24498 net.cpp:100] Creating Layer fc6
I0531 12:39:49.024616 24498 net.cpp:434] fc6 <- pool5
I0531 12:39:49.024628 24498 net.cpp:408] fc6 -> fc6
I0531 12:39:49.327805 24498 net.cpp:150] Setting up fc6
I0531 12:39:49.327847 24498 net.cpp:157] Top shape: 10 2048 (20480)
I0531 12:39:49.327853 24498 net.cpp:165] Memory required for data: 2098606320
I0531 12:39:49.327870 24498 layer_factory.hpp:77] Creating layer relu6
I0531 12:39:49.327903 24498 net.cpp:100] Creating Layer relu6
I0531 12:39:49.327916 24498 net.cpp:434] relu6 <- fc6
I0531 12:39:49.327930 24498 net.cpp:395] relu6 -> fc6 (in-place)
I0531 12:39:49.328402 24498 net.cpp:150] Setting up relu6
I0531 12:39:49.328418 24498 net.cpp:157] Top shape: 10 2048 (20480)
I0531 12:39:49.328423 24498 net.cpp:165] Memory required for data: 2098688240
I0531 12:39:49.328428 24498 layer_factory.hpp:77] Creating layer drop6
I0531 12:39:49.328445 24498 net.cpp:100] Creating Layer drop6
I0531 12:39:49.328455 24498 net.cpp:434] drop6 <- fc6
I0531 12:39:49.328483 24498 net.cpp:395] drop6 -> fc6 (in-place)
I0531 12:39:49.328557 24498 net.cpp:150] Setting up drop6
I0531 12:39:49.328569 24498 net.cpp:157] Top shape: 10 2048 (20480)
I0531 12:39:49.328577 24498 net.cpp:165] Memory required for data: 2098770160
I0531 12:39:49.328594 24498 layer_factory.hpp:77] Creating layer fc7
I0531 12:39:49.328632 24498 net.cpp:100] Creating Layer fc7
I0531 12:39:49.328640 24498 net.cpp:434] fc7 <- fc6
I0531 12:39:49.328656 24498 net.cpp:408] fc7 -> fc7
I0531 12:39:49.466750 24498 net.cpp:150] Setting up fc7
I0531 12:39:49.466791 24498 net.cpp:157] Top shape: 10 2048 (20480)
I0531 12:39:49.466797 24498 net.cpp:165] Memory required for data: 2098852080
I0531 12:39:49.466809 24498 layer_factory.hpp:77] Creating layer relu7
I0531 12:39:49.466836 24498 net.cpp:100] Creating Layer relu7
I0531 12:39:49.466843 24498 net.cpp:434] relu7 <- fc7
I0531 12:39:49.466853 24498 net.cpp:395] relu7 -> fc7 (in-place)
I0531 12:39:49.467212 24498 net.cpp:150] Setting up relu7
I0531 12:39:49.467228 24498 net.cpp:157] Top shape: 10 2048 (20480)
I0531 12:39:49.467233 24498 net.cpp:165] Memory required for data: 2098934000
I0531 12:39:49.467239 24498 layer_factory.hpp:77] Creating layer drop7
I0531 12:39:49.467252 24498 net.cpp:100] Creating Layer drop7
I0531 12:39:49.467259 24498 net.cpp:434] drop7 <- fc7
I0531 12:39:49.467269 24498 net.cpp:395] drop7 -> fc7 (in-place)
I0531 12:39:49.467319 24498 net.cpp:150] Setting up drop7
I0531 12:39:49.467327 24498 net.cpp:157] Top shape: 10 2048 (20480)
I0531 12:39:49.467332 24498 net.cpp:165] Memory required for data: 2099015920
I0531 12:39:49.467337 24498 layer_factory.hpp:77] Creating layer fc8
I0531 12:39:49.467360 24498 net.cpp:100] Creating Layer fc8
I0531 12:39:49.467368 24498 net.cpp:434] fc8 <- fc7
I0531 12:39:49.467381 24498 net.cpp:408] fc8 -> fc8
I0531 12:39:49.468148 24498 net.cpp:150] Setting up fc8
I0531 12:39:49.468160 24498 net.cpp:157] Top shape: 10 10 (100)
I0531 12:39:49.468165 24498 net.cpp:165] Memory required for data: 2099016320
I0531 12:39:49.468176 24498 layer_factory.hpp:77] Creating layer prob
I0531 12:39:49.468207 24498 net.cpp:100] Creating Layer prob
I0531 12:39:49.468214 24498 net.cpp:434] prob <- fc8
I0531 12:39:49.468225 24498 net.cpp:408] prob -> prob
I0531 12:39:49.468562 24498 net.cpp:150] Setting up prob
I0531 12:39:49.468575 24498 net.cpp:157] Top shape: 10 10 (100)
I0531 12:39:49.468580 24498 net.cpp:165] Memory required for data: 2099016720
I0531 12:39:49.468586 24498 layer_factory.hpp:77] Creating layer prob_prob_0_split
I0531 12:39:49.468597 24498 net.cpp:100] Creating Layer prob_prob_0_split
I0531 12:39:49.468605 24498 net.cpp:434] prob_prob_0_split <- prob
I0531 12:39:49.468612 24498 net.cpp:408] prob_prob_0_split -> prob_prob_0_split_0
I0531 12:39:49.468623 24498 net.cpp:408] prob_prob_0_split -> prob_prob_0_split_1
I0531 12:39:49.468673 24498 net.cpp:150] Setting up prob_prob_0_split
I0531 12:39:49.468683 24498 net.cpp:157] Top shape: 10 10 (100)
I0531 12:39:49.468689 24498 net.cpp:157] Top shape: 10 10 (100)
I0531 12:39:49.468696 24498 net.cpp:165] Memory required for data: 2099017520
I0531 12:39:49.468701 24498 layer_factory.hpp:77] Creating layer accuracy
I0531 12:39:49.468713 24498 net.cpp:100] Creating Layer accuracy
I0531 12:39:49.468720 24498 net.cpp:434] accuracy <- prob_prob_0_split_0
I0531 12:39:49.468729 24498 net.cpp:434] accuracy <- label_label_parse_0_split_0
I0531 12:39:49.468741 24498 net.cpp:408] accuracy -> accuracy/top-1
…
