…
    mean_value: 65
    mean_value: 74
    mean_value: 92
    mean_value: 65
    mean_value: 74
    mean_value: 92
    mean_value: 65
    mean_value: 74
    mean_value: 92
    mean_value: 65
    mean_value: 74
    mean_value: 92
    mean_value: 65
    mean_value: 74
    mean_value: 92
    mean_value: 65
    mean_value: 74
    mean_value: 92
    mean_value: 65
    mean_value: 74
    mean_value: 92
    mean_value: 65
    mean_value: 74
    mean_value: 92
  }
  data_param {
    source: "/data/leo-data/Synthetic/LMDB/Triplets/test"
    batch_size: 10
    backend: LMDB
  }
}
layer {
  name: "slicer"
  type: "Slice"
  bottom: "triplet"
  top: "anchor_stacked"
  top: "positive_stacked"
  top: "negative_stacked"
  slice_param {
    slice_dim: 1
    slice_point: 48
    slice_point: 96
  }
}
layer {
  name: "reshape_anchor"
  type: "Reshape"
  bottom: "anchor_stacked"
  top: "anchor"
  reshape_param {
    shape {
      dim: 0
      dim: 3
      dim: 16
      dim: 112
      dim: 112
    }
  }
}
layer {
  name: "reshape_positive"
  type: "Reshape"
  bottom: "positive_stacked"
  top: "positive"
  reshape_param {
    shape {
      dim: 0
      dim: 3
      dim: 16
      dim: 112
      dim: 112
    }
  }
}
layer {
  name: "silence_negative"
  type: "Silence"
  bottom: "negative_stacked"
}
layer {
  name: "data_switch"
  type: "Python"
  bottom: "anchor"
  bottom: "positive"
  top: "first_person"
  top: "third_person"
  python_param {
    module: "data_switch"
    layer: "DataSwitchLayer"
  }
}
layer {
  name: "label_split"
  type: "Python"
  bottom: "raw_label"
  top: "fp_label"
  top: "tp_label"
  python_param {
    module: "label_split"
    layer: "LabelSplitLayer"
  }
}
layer {
  name: "label_parse"
  type: "Python"
  bottom: "fp_label"
  top: "label"
  python_param {
    module: "label_parse"
    layer: "LabelParseLayer"
    param_str: "Scene"
  }
}
layer {
  name: "silence_third_person"
  type: "Silence"
  bottom: "third_person"
  bottom: "tp_label"
}
layer {
  name: "conv1a"
  type: "NdConvolution"
  bottom: "first_person"
  top: "conv1a"
  param {
    lr_mult: 0
    decay_mult: 0
  }
  param {
    lr_mult: 0
    decay_mult: 0
  }
  convolution_param {
    num_output: 64
    weight_filler {
      type: "gaussian"
      std: 0.01
    }
    bias_filler {
      type: "constant"
      value: 0
    }
    pad_shape {
      dim: 1
      dim: 1
      dim: 1
    }
    kernel_shape {
      dim: 3
      dim: 3
      dim: 3
    }
    stride_shape {
      dim: 1
      dim: 1
      dim: 1
    }
  }
}
layer {
  name: "relu1a"
  type: "ReLU"
  bottom: "conv1a"
  top: "conv1a"
}
layer {
  name: "pool1"
  type: "NdPooling"
  bottom: "conv1a"
  top: "pool1"
  pooling_param {
    pool: MAX
    kernel_shape {
      dim: 1
      dim: 2
      dim: 2
    }
    stride_shape {
      dim: 1
      dim: 2
      dim: 2
    }
  }
}
layer {
  name: "conv2a"
  type: "NdConvolution"
  bottom: "pool1"
  top: "conv2a"
  param {
    lr_mult: 0
    decay_mult: 0
  }
  param {
    lr_mult: 0
    decay_mult: 0
  }
  convolution_param {
    num_output: 128
    weight_filler {
      type: "gaussian"
      std: 0.01
    }
    bias_filler {
      type: "constant"
      value: 1
    }
    pad_shape {
      dim: 1
      dim: 1
      dim: 1
    }
    kernel_shape {
      dim: 3
      dim: 3
      dim: 3
    }
    stride_shape {
      dim: 1
      dim: 1
      dim: 1
    }
  }
}
layer {
  name: "relu2a"
  type: "ReLU"
  bottom: "conv2a"
  top: "conv2a"
}
layer {
  name: "pool2"
  type: "NdPooling"
  bottom: "conv2a"
  top: "pool2"
  pooling_param {
    pool: MAX
    kernel_shape {
      dim: 2
      dim: 2
      dim: 2
    }
    stride_shape {
      dim: 2
      dim: 2
      dim: 2
    }
  }
}
layer {
  name: "conv3a"
  type: "NdConvolution"
  bottom: "pool2"
  top: "conv3a"
  param {
    lr_mult: 0
    decay_mult: 0
  }
  param {
    lr_mult: 0
    decay_mult: 0
  }
  convolution_param {
    num_output: 256
    weight_filler {
      type: "gaussian"
      std: 0.01
    }
    bias_filler {
      type: "constant"
      value: 1
    }
    pad_shape {
      dim: 1
      dim: 1
      dim: 1
    }
    kernel_shape {
      dim: 3
      dim: 3
      dim: 3
    }
    stride_shape {
      dim: 1
      dim: 1
      dim: 1
    }
  }
}
layer {
  name: "relu3a"
  type: "ReLU"
  bottom: "conv3a"
  top: "conv3a"
}
layer {
  name: "pool3"
  type: "NdPooling"
  bottom: "conv3a"
  top: "pool3"
  pooling_param {
    pool: MAX
    kernel_shape {
      dim: 2
      dim: 2
      dim: 2
    }
    stride_shape {
      dim: 2
      dim: 2
      dim: 2
    }
  }
}
layer {
  name: "conv4a"
  type: "NdConvolution"
  bottom: "pool3"
  top: "conv4a"
  param {
    lr_mult: 0
    decay_mult: 0
  }
  param {
    lr_mult: 0
    decay_mult: 0
  }
  convolution_param {
    num_output: 256
    weight_filler {
      type: "gaussian"
      std: 0.01
    }
    bias_filler {
      type: "constant"
      value: 1
    }
    pad_shape {
      dim: 1
      dim: 1
      dim: 1
    }
    kernel_shape {
      dim: 3
      dim: 3
      dim: 3
    }
    stride_shape {
      dim: 1
      dim: 1
      dim: 1
    }
  }
}
layer {
  name: "relu4a"
  type: "ReLU"
  bottom: "conv4a"
  top: "conv4a"
}
layer {
  name: "pool4"
  type: "NdPooling"
  bottom: "conv4a"
  top: "pool4"
  pooling_param {
    pool: MAX
    kernel_shape {
      dim: 2
      dim: 2
      dim: 2
    }
    stride_shape {
      dim: 2
      dim: 2
      dim: 2
    }
  }
}
layer {
  name: "conv5a"
  type: "NdConvolution"
  bottom: "pool4"
  top: "conv5a"
  param {
    lr_mult: 0
    decay_mult: 0
  }
  param {
    lr_mult: 0
    decay_mult: 0
  }
  convolution_param {
    num_output: 256
    weight_filler {
      type: "gaussian"
      std: 0.01
    }
    bias_filler {
      type: "constant"
      value: 1
    }
    pad_shape {
      dim: 1
      dim: 1
      dim: 1
    }
    kernel_shape {
      dim: 3
      dim: 3
      dim: 3
    }
    stride_shape {
      dim: 1
      dim: 1
      dim: 1
    }
  }
}
layer {
  name: "relu5a"
  type: "ReLU"
  bottom: "conv5a"
  top: "conv5a"
}
layer {
  name: "pool5"
  type: "NdPooling"
  bottom: "conv5a"
  top: "pool5"
  pooling_param {
    pool: MAX
    kernel_shape {
      dim: 2
      dim: 2
      dim: 2
    }
    stride_shape {
      dim: 2
      dim: 2
      dim: 2
    }
  }
}
layer {
  name: "fc6"
  type: "InnerProduct"
  bottom: "pool5"
  top: "fc6"
  param {
    lr_mult: 0
    decay_mult: 0
  }
  param {
    lr_mult: 0
    decay_mult: 0
  }
  inner_product_param {
    num_output: 2048
    weight_filler {
      type: "gaussian"
      std: 0.005
    }
    bias_filler {
      type: "constant"
      value: 1
    }
  }
}
layer {
  name: "relu6"
  type: "ReLU"
  bottom: "fc6"
  top: "fc6"
}
layer {
  name: "drop6"
  type: "Dropout"
  bottom: "fc6"
  top: "fc6"
  dropout_param {
    dropout_ratio: 0.5
  }
}
layer {
  name: "fc7"
  type: "InnerProduct"
  bottom: "fc6"
  top: "fc7"
  param {
    lr_mult: 0
    decay_mult: 0
  }
  param {
    lr_mult: 0
    decay_mult: 0
  }
  inner_product_param {
    num_output: 2048
    weight_filler {
      type: "gaussian"
      std: 0.005
    }
    bias_filler {
      type: "constant"
      value: 1
    }
  }
}
layer {
  name: "relu7"
  type: "ReLU"
  bottom: "fc7"
  top: "fc7"
}
layer {
  name: "drop7"
  type: "Dropout"
  bottom: "fc7"
  top: "fc7"
  dropout_param {
    dropout_ratio: 0.5
  }
}
layer {
  name: "fc8"
  type: "InnerProduct"
  bottom: "fc7"
  top: "fc8"
  param {
    lr_mult: 1
    decay_mult: 1
  }
  param {
    lr_mult: 2
    decay_mult: 0
  }
  inner_product_param {
    num_output: 10
    weight_filler {
      type: "gaussian"
      std: 0.01
    }
    bias_filler {
      type: "constant"
      value: 0
    }
  }
}
layer {
  name: "prob"
  type: "Softmax"
  bottom: "fc8"
  top: "prob"
}
layer {
  name: "accuracy"
  type: "Accuracy"
  bottom: "prob"
  bottom: "label"
  top: "accuracy/top-1"
}
layer {
  name: "accuracy"
  type: "Accuracy"
  bottom: "prob"
  bottom: "label"
  top: "accuracy/top-5"
  accuracy_param {
    top_k: 5
  }
}
I0531 12:39:17.193812 24336 layer_factory.hpp:77] Creating layer data
I0531 12:39:17.210600 24336 net.cpp:100] Creating Layer data
I0531 12:39:17.210641 24336 net.cpp:408] data -> triplet
I0531 12:39:17.210672 24336 net.cpp:408] data -> raw_label
I0531 12:39:17.213376 24348 db_lmdb.cpp:35] Opened lmdb /data/leo-data/Synthetic/LMDB/Triplets/test
I0531 12:39:18.080013 24336 data_layer.cpp:41] output data size: 10,144,112,112
I0531 12:39:18.435258 24336 net.cpp:150] Setting up data
I0531 12:39:18.435328 24336 net.cpp:157] Top shape: 10 144 112 112 (18063360)
I0531 12:39:18.435343 24336 net.cpp:157] Top shape: 10 (10)
I0531 12:39:18.435351 24336 net.cpp:165] Memory required for data: 72253480
I0531 12:39:18.435377 24336 layer_factory.hpp:77] Creating layer slicer
I0531 12:39:18.435421 24336 net.cpp:100] Creating Layer slicer
I0531 12:39:18.435436 24336 net.cpp:434] slicer <- triplet
I0531 12:39:18.435477 24336 net.cpp:408] slicer -> anchor_stacked
I0531 12:39:18.435534 24336 net.cpp:408] slicer -> positive_stacked
I0531 12:39:18.435556 24336 net.cpp:408] slicer -> negative_stacked
I0531 12:39:18.435701 24336 net.cpp:150] Setting up slicer
I0531 12:39:18.435716 24336 net.cpp:157] Top shape: 10 48 112 112 (6021120)
I0531 12:39:18.435724 24336 net.cpp:157] Top shape: 10 48 112 112 (6021120)
I0531 12:39:18.435734 24336 net.cpp:157] Top shape: 10 48 112 112 (6021120)
I0531 12:39:18.435740 24336 net.cpp:165] Memory required for data: 144506920
I0531 12:39:18.435746 24336 layer_factory.hpp:77] Creating layer reshape_anchor
I0531 12:39:18.435770 24336 net.cpp:100] Creating Layer reshape_anchor
I0531 12:39:18.435778 24336 net.cpp:434] reshape_anchor <- anchor_stacked
I0531 12:39:18.435835 24336 net.cpp:408] reshape_anchor -> anchor
I0531 12:39:18.435917 24336 net.cpp:150] Setting up reshape_anchor
I0531 12:39:18.435935 24336 net.cpp:157] Top shape: 10 3 16 112 112 (6021120)
I0531 12:39:18.435940 24336 net.cpp:165] Memory required for data: 168591400
I0531 12:39:18.435947 24336 layer_factory.hpp:77] Creating layer reshape_positive
I0531 12:39:18.435958 24336 net.cpp:100] Creating Layer reshape_positive
I0531 12:39:18.435969 24336 net.cpp:434] reshape_positive <- positive_stacked
I0531 12:39:18.435977 24336 net.cpp:408] reshape_positive -> positive
I0531 12:39:18.436028 24336 net.cpp:150] Setting up reshape_positive
I0531 12:39:18.436041 24336 net.cpp:157] Top shape: 10 3 16 112 112 (6021120)
I0531 12:39:18.436048 24336 net.cpp:165] Memory required for data: 192675880
I0531 12:39:18.436056 24336 layer_factory.hpp:77] Creating layer silence_negative
I0531 12:39:18.436070 24336 net.cpp:100] Creating Layer silence_negative
I0531 12:39:18.436077 24336 net.cpp:434] silence_negative <- negative_stacked
I0531 12:39:18.436084 24336 net.cpp:150] Setting up silence_negative
I0531 12:39:18.436097 24336 net.cpp:165] Memory required for data: 192675880
I0531 12:39:18.436102 24336 layer_factory.hpp:77] Creating layer data_switch
I0531 12:39:20.070205 24336 net.cpp:100] Creating Layer data_switch
I0531 12:39:20.070264 24336 net.cpp:434] data_switch <- anchor
I0531 12:39:20.070277 24336 net.cpp:434] data_switch <- positive
I0531 12:39:20.070284 24336 net.cpp:408] data_switch -> first_person
I0531 12:39:20.070293 24336 net.cpp:408] data_switch -> third_person
I0531 12:39:20.293644 24336 net.cpp:150] Setting up data_switch
I0531 12:39:20.293697 24336 net.cpp:157] Top shape: 10 3 16 112 112 (6021120)
I0531 12:39:20.293710 24336 net.cpp:157] Top shape: 10 3 16 112 112 (6021120)
I0531 12:39:20.293717 24336 net.cpp:165] Memory required for data: 240844840
I0531 12:39:20.293737 24336 layer_factory.hpp:77] Creating layer label_split
I0531 12:39:20.294049 24336 net.cpp:100] Creating Layer label_split
I0531 12:39:20.294064 24336 net.cpp:434] label_split <- raw_label
I0531 12:39:20.294081 24336 net.cpp:408] label_split -> fp_label
I0531 12:39:20.294098 24336 net.cpp:408] label_split -> tp_label
I0531 12:39:20.294266 24336 net.cpp:150] Setting up label_split
I0531 12:39:20.294281 24336 net.cpp:157] Top shape: 10 1 (10)
I0531 12:39:20.294289 24336 net.cpp:157] Top shape: 10 1 (10)
I0531 12:39:20.294297 24336 net.cpp:165] Memory required for data: 240844920
I0531 12:39:20.294303 24336 layer_factory.hpp:77] Creating layer label_parse
I0531 12:39:20.294490 24336 net.cpp:100] Creating Layer label_parse
I0531 12:39:20.294503 24336 net.cpp:434] label_parse <- fp_label
I0531 12:39:20.294525 24336 net.cpp:408] label_parse -> label
I0531 12:39:20.294641 24336 net.cpp:150] Setting up label_parse
I0531 12:39:20.294658 24336 net.cpp:157] Top shape: 10 1 (10)
I0531 12:39:20.294667 24336 net.cpp:165] Memory required for data: 240844960
I0531 12:39:20.294674 24336 layer_factory.hpp:77] Creating layer label_label_parse_0_split
I0531 12:39:20.294713 24336 net.cpp:100] Creating Layer label_label_parse_0_split
I0531 12:39:20.294723 24336 net.cpp:434] label_label_parse_0_split <- label
I0531 12:39:20.294735 24336 net.cpp:408] label_label_parse_0_split -> label_label_parse_0_split_0
I0531 12:39:20.294746 24336 net.cpp:408] label_label_parse_0_split -> label_label_parse_0_split_1
I0531 12:39:20.294828 24336 net.cpp:150] Setting up label_label_parse_0_split
I0531 12:39:20.294843 24336 net.cpp:157] Top shape: 10 1 (10)
I0531 12:39:20.294852 24336 net.cpp:157] Top shape: 10 1 (10)
I0531 12:39:20.294857 24336 net.cpp:165] Memory required for data: 240845040
I0531 12:39:20.294872 24336 layer_factory.hpp:77] Creating layer silence_third_person
I0531 12:39:20.294883 24336 net.cpp:100] Creating Layer silence_third_person
I0531 12:39:20.294889 24336 net.cpp:434] silence_third_person <- third_person
I0531 12:39:20.294899 24336 net.cpp:434] silence_third_person <- tp_label
I0531 12:39:20.294929 24336 net.cpp:150] Setting up silence_third_person
I0531 12:39:20.294965 24336 net.cpp:165] Memory required for data: 240845040
I0531 12:39:20.294970 24336 layer_factory.hpp:77] Creating layer conv1a
I0531 12:39:20.295001 24336 net.cpp:100] Creating Layer conv1a
I0531 12:39:20.295007 24336 net.cpp:434] conv1a <- first_person
I0531 12:39:20.295019 24336 net.cpp:408] conv1a -> conv1a
I0531 12:39:21.600647 24336 net.cpp:150] Setting up conv1a
I0531 12:39:21.600687 24336 net.cpp:157] Top shape: 10 64 16 112 112 (128450560)
I0531 12:39:21.600690 24336 net.cpp:165] Memory required for data: 754647280
I0531 12:39:21.600708 24336 layer_factory.hpp:77] Creating layer relu1a
I0531 12:39:21.600730 24336 net.cpp:100] Creating Layer relu1a
I0531 12:39:21.600738 24336 net.cpp:434] relu1a <- conv1a
I0531 12:39:21.600744 24336 net.cpp:395] relu1a -> conv1a (in-place)
I0531 12:39:21.601781 24336 net.cpp:150] Setting up relu1a
I0531 12:39:21.601806 24336 net.cpp:157] Top shape: 10 64 16 112 112 (128450560)
I0531 12:39:21.601811 24336 net.cpp:165] Memory required for data: 1268449520
I0531 12:39:21.601816 24336 layer_factory.hpp:77] Creating layer pool1
I0531 12:39:21.601837 24336 net.cpp:100] Creating Layer pool1
I0531 12:39:21.601845 24336 net.cpp:434] pool1 <- conv1a
I0531 12:39:21.601853 24336 net.cpp:408] pool1 -> pool1
I0531 12:39:21.603701 24336 net.cpp:150] Setting up pool1
I0531 12:39:21.603734 24336 net.cpp:157] Top shape: 10 64 16 56 56 (32112640)
I0531 12:39:21.603736 24336 net.cpp:165] Memory required for data: 1396900080
I0531 12:39:21.603741 24336 layer_factory.hpp:77] Creating layer conv2a
I0531 12:39:21.603755 24336 net.cpp:100] Creating Layer conv2a
I0531 12:39:21.603760 24336 net.cpp:434] conv2a <- pool1
I0531 12:39:21.603770 24336 net.cpp:408] conv2a -> conv2a
I0531 12:39:21.616044 24336 net.cpp:150] Setting up conv2a
I0531 12:39:21.616081 24336 net.cpp:157] Top shape: 10 128 16 56 56 (64225280)
I0531 12:39:21.616086 24336 net.cpp:165] Memory required for data: 1653801200
I0531 12:39:21.616101 24336 layer_factory.hpp:77] Creating layer relu2a
I0531 12:39:21.616112 24336 net.cpp:100] Creating Layer relu2a
I0531 12:39:21.616119 24336 net.cpp:434] relu2a <- conv2a
I0531 12:39:21.616127 24336 net.cpp:395] relu2a -> conv2a (in-place)
I0531 12:39:21.616787 24336 net.cpp:150] Setting up relu2a
I0531 12:39:21.616797 24336 net.cpp:157] Top shape: 10 128 16 56 56 (64225280)
I0531 12:39:21.616801 24336 net.cpp:165] Memory required for data: 1910702320
I0531 12:39:21.616804 24336 layer_factory.hpp:77] Creating layer pool2
I0531 12:39:21.616822 24336 net.cpp:100] Creating Layer pool2
I0531 12:39:21.616825 24336 net.cpp:434] pool2 <- conv2a
I0531 12:39:21.616832 24336 net.cpp:408] pool2 -> pool2
I0531 12:39:21.619156 24336 net.cpp:150] Setting up pool2
I0531 12:39:21.619184 24336 net.cpp:157] Top shape: 10 128 8 28 28 (8028160)
I0531 12:39:21.619189 24336 net.cpp:165] Memory required for data: 1942814960
I0531 12:39:21.619192 24336 layer_factory.hpp:77] Creating layer conv3a
I0531 12:39:21.619210 24336 net.cpp:100] Creating Layer conv3a
I0531 12:39:21.619215 24336 net.cpp:434] conv3a <- pool2
I0531 12:39:21.619232 24336 net.cpp:408] conv3a -> conv3a
I0531 12:39:21.657749 24336 net.cpp:150] Setting up conv3a
I0531 12:39:21.657785 24336 net.cpp:157] Top shape: 10 256 8 28 28 (16056320)
I0531 12:39:21.657804 24336 net.cpp:165] Memory required for data: 2007040240
I0531 12:39:21.657831 24336 layer_factory.hpp:77] Creating layer relu3a
I0531 12:39:21.657850 24336 net.cpp:100] Creating Layer relu3a
I0531 12:39:21.657861 24336 net.cpp:434] relu3a <- conv3a
I0531 12:39:21.657874 24336 net.cpp:395] relu3a -> conv3a (in-place)
I0531 12:39:21.660104 24336 net.cpp:150] Setting up relu3a
I0531 12:39:21.660122 24336 net.cpp:157] Top shape: 10 256 8 28 28 (16056320)
I0531 12:39:21.660128 24336 net.cpp:165] Memory required for data: 2071265520
I0531 12:39:21.660133 24336 layer_factory.hpp:77] Creating layer pool3
I0531 12:39:21.660223 24336 net.cpp:100] Creating Layer pool3
I0531 12:39:21.660261 24336 net.cpp:434] pool3 <- conv3a
I0531 12:39:21.660310 24336 net.cpp:408] pool3 -> pool3
I0531 12:39:21.664906 24336 net.cpp:150] Setting up pool3
I0531 12:39:21.664953 24336 net.cpp:157] Top shape: 10 256 4 14 14 (2007040)
I0531 12:39:21.664973 24336 net.cpp:165] Memory required for data: 2079293680
I0531 12:39:21.664984 24336 layer_factory.hpp:77] Creating layer conv4a
I0531 12:39:21.665029 24336 net.cpp:100] Creating Layer conv4a
I0531 12:39:21.665040 24336 net.cpp:434] conv4a <- pool3
I0531 12:39:21.665057 24336 net.cpp:408] conv4a -> conv4a
I0531 12:39:21.753228 24336 net.cpp:150] Setting up conv4a
I0531 12:39:21.753268 24336 net.cpp:157] Top shape: 10 256 4 14 14 (2007040)
I0531 12:39:21.753273 24336 net.cpp:165] Memory required for data: 2087321840
I0531 12:39:21.753283 24336 layer_factory.hpp:77] Creating layer relu4a
I0531 12:39:21.753294 24336 net.cpp:100] Creating Layer relu4a
I0531 12:39:21.753299 24336 net.cpp:434] relu4a <- conv4a
I0531 12:39:21.753309 24336 net.cpp:395] relu4a -> conv4a (in-place)
I0531 12:39:21.754051 24336 net.cpp:150] Setting up relu4a
I0531 12:39:21.754065 24336 net.cpp:157] Top shape: 10 256 4 14 14 (2007040)
I0531 12:39:21.754081 24336 net.cpp:165] Memory required for data: 2095350000
I0531 12:39:21.754086 24336 layer_factory.hpp:77] Creating layer pool4
I0531 12:39:21.754101 24336 net.cpp:100] Creating Layer pool4
I0531 12:39:21.754106 24336 net.cpp:434] pool4 <- conv4a
I0531 12:39:21.754115 24336 net.cpp:408] pool4 -> pool4
I0531 12:39:21.756420 24336 net.cpp:150] Setting up pool4
I0531 12:39:21.756455 24336 net.cpp:157] Top shape: 10 256 2 7 7 (250880)
I0531 12:39:21.756459 24336 net.cpp:165] Memory required for data: 2096353520
I0531 12:39:21.756466 24336 layer_factory.hpp:77] Creating layer conv5a
I0531 12:39:21.756479 24336 net.cpp:100] Creating Layer conv5a
I0531 12:39:21.756484 24336 net.cpp:434] conv5a <- pool4
I0531 12:39:21.756495 24336 net.cpp:408] conv5a -> conv5a
I0531 12:39:21.818550 24336 net.cpp:150] Setting up conv5a
I0531 12:39:21.818598 24336 net.cpp:157] Top shape: 10 256 2 7 7 (250880)
I0531 12:39:21.818603 24336 net.cpp:165] Memory required for data: 2097357040
I0531 12:39:21.818617 24336 layer_factory.hpp:77] Creating layer relu5a
I0531 12:39:21.818642 24336 net.cpp:100] Creating Layer relu5a
I0531 12:39:21.818650 24336 net.cpp:434] relu5a <- conv5a
I0531 12:39:21.818660 24336 net.cpp:395] relu5a -> conv5a (in-place)
I0531 12:39:21.818867 24336 net.cpp:150] Setting up relu5a
I0531 12:39:21.818878 24336 net.cpp:157] Top shape: 10 256 2 7 7 (250880)
I0531 12:39:21.818884 24336 net.cpp:165] Memory required for data: 2098360560
I0531 12:39:21.818891 24336 layer_factory.hpp:77] Creating layer pool5
I0531 12:39:21.818928 24336 net.cpp:100] Creating Layer pool5
I0531 12:39:21.818936 24336 net.cpp:434] pool5 <- conv5a
I0531 12:39:21.818948 24336 net.cpp:408] pool5 -> pool5
I0531 12:39:21.819846 24336 net.cpp:150] Setting up pool5
I0531 12:39:21.819860 24336 net.cpp:157] Top shape: 10 256 1 4 4 (40960)
I0531 12:39:21.819876 24336 net.cpp:165] Memory required for data: 2098524400
I0531 12:39:21.819882 24336 layer_factory.hpp:77] Creating layer fc6
I0531 12:39:21.819912 24336 net.cpp:100] Creating Layer fc6
I0531 12:39:21.819917 24336 net.cpp:434] fc6 <- pool5
I0531 12:39:21.819927 24336 net.cpp:408] fc6 -> fc6
I0531 12:39:22.098634 24336 net.cpp:150] Setting up fc6
I0531 12:39:22.098673 24336 net.cpp:157] Top shape: 10 2048 (20480)
I0531 12:39:22.098678 24336 net.cpp:165] Memory required for data: 2098606320
I0531 12:39:22.098692 24336 layer_factory.hpp:77] Creating layer relu6
I0531 12:39:22.098706 24336 net.cpp:100] Creating Layer relu6
I0531 12:39:22.098712 24336 net.cpp:434] relu6 <- fc6
I0531 12:39:22.098721 24336 net.cpp:395] relu6 -> fc6 (in-place)
I0531 12:39:22.099071 24336 net.cpp:150] Setting up relu6
I0531 12:39:22.099083 24336 net.cpp:157] Top shape: 10 2048 (20480)
I0531 12:39:22.099089 24336 net.cpp:165] Memory required for data: 2098688240
I0531 12:39:22.099094 24336 layer_factory.hpp:77] Creating layer drop6
I0531 12:39:22.099171 24336 net.cpp:100] Creating Layer drop6
I0531 12:39:22.099205 24336 net.cpp:434] drop6 <- fc6
I0531 12:39:22.099283 24336 net.cpp:395] drop6 -> fc6 (in-place)
I0531 12:39:22.099406 24336 net.cpp:150] Setting up drop6
I0531 12:39:22.099426 24336 net.cpp:157] Top shape: 10 2048 (20480)
I0531 12:39:22.099434 24336 net.cpp:165] Memory required for data: 2098770160
I0531 12:39:22.099441 24336 layer_factory.hpp:77] Creating layer fc7
I0531 12:39:22.099455 24336 net.cpp:100] Creating Layer fc7
I0531 12:39:22.099462 24336 net.cpp:434] fc7 <- fc6
I0531 12:39:22.099474 24336 net.cpp:408] fc7 -> fc7
I0531 12:39:22.254591 24336 net.cpp:150] Setting up fc7
I0531 12:39:22.254626 24336 net.cpp:157] Top shape: 10 2048 (20480)
I0531 12:39:22.254629 24336 net.cpp:165] Memory required for data: 2098852080
I0531 12:39:22.254639 24336 layer_factory.hpp:77] Creating layer relu7
I0531 12:39:22.254652 24336 net.cpp:100] Creating Layer relu7
I0531 12:39:22.254660 24336 net.cpp:434] relu7 <- fc7
I0531 12:39:22.254667 24336 net.cpp:395] relu7 -> fc7 (in-place)
I0531 12:39:22.254974 24336 net.cpp:150] Setting up relu7
I0531 12:39:22.254988 24336 net.cpp:157] Top shape: 10 2048 (20480)
I0531 12:39:22.254992 24336 net.cpp:165] Memory required for data: 2098934000
I0531 12:39:22.254995 24336 layer_factory.hpp:77] Creating layer drop7
I0531 12:39:22.255003 24336 net.cpp:100] Creating Layer drop7
I0531 12:39:22.255010 24336 net.cpp:434] drop7 <- fc7
I0531 12:39:22.255015 24336 net.cpp:395] drop7 -> fc7 (in-place)
I0531 12:39:22.255050 24336 net.cpp:150] Setting up drop7
I0531 12:39:22.255059 24336 net.cpp:157] Top shape: 10 2048 (20480)
I0531 12:39:22.255062 24336 net.cpp:165] Memory required for data: 2099015920
I0531 12:39:22.255067 24336 layer_factory.hpp:77] Creating layer fc8
I0531 12:39:22.255085 24336 net.cpp:100] Creating Layer fc8
I0531 12:39:22.255095 24336 net.cpp:434] fc8 <- fc7
I0531 12:39:22.255102 24336 net.cpp:408] fc8 -> fc8
I0531 12:39:22.255866 24336 net.cpp:150] Setting up fc8
I0531 12:39:22.255877 24336 net.cpp:157] Top shape: 10 10 (100)
I0531 12:39:22.255880 24336 net.cpp:165] Memory required for data: 2099016320
I0531 12:39:22.255887 24336 layer_factory.hpp:77] Creating layer prob
I0531 12:39:22.255900 24336 net.cpp:100] Creating Layer prob
I0531 12:39:22.255905 24336 net.cpp:434] prob <- fc8
I0531 12:39:22.255910 24336 net.cpp:408] prob -> prob
I0531 12:39:22.256219 24336 net.cpp:150] Setting up prob
I0531 12:39:22.256232 24336 net.cpp:157] Top shape: 10 10 (100)
I0531 12:39:22.256234 24336 net.cpp:165] Memory required for data: 2099016720
I0531 12:39:22.256237 24336 layer_factory.hpp:77] Creating layer prob_prob_0_split
I0531 12:39:22.256243 24336 net.cpp:100] Creating Layer prob_prob_0_split
I0531 12:39:22.256248 24336 net.cpp:434] prob_prob_0_split <- prob
I0531 12:39:22.256255 24336 net.cpp:408] prob_prob_0_split -> prob_prob_0_split_0
I0531 12:39:22.256263 24336 net.cpp:408] prob_prob_0_split -> prob_prob_0_split_1
I0531 12:39:22.256302 24336 net.cpp:150] Setting up prob_prob_0_split
I0531 12:39:22.256309 24336 net.cpp:157] Top shape: 10 10 (100)
I0531 12:39:22.256315 24336 net.cpp:157] Top shape: 10 10 (100)
I0531 12:39:22.256322 24336 net.cpp:165] Memory required for data: 2099017520
I0531 12:39:22.256327 24336 layer_factory.hpp:77] Creating layer accuracy
I0531 12:39:22.256340 24336 net.cpp:100] Creating Layer accuracy
I0531 12:39:22.256345 24336 net.cpp:434] accuracy <- prob_prob_0_split_0
I0531 12:39:22.256350 24336 net.cpp:434] accuracy <- label_label_parse_0_split_0
I0531 12:39:22.256357 24336 net.cpp:408] accuracy -> accuracy/top-1
…
