…
    mean_value: 65
    mean_value: 74
    mean_value: 92
    mean_value: 65
    mean_value: 74
    mean_value: 92
    mean_value: 65
    mean_value: 74
    mean_value: 92
    mean_value: 65
    mean_value: 74
    mean_value: 92
    mean_value: 65
    mean_value: 74
    mean_value: 92
    mean_value: 65
    mean_value: 74
    mean_value: 92
    mean_value: 65
    mean_value: 74
    mean_value: 92
    mean_value: 65
    mean_value: 74
    mean_value: 92
  }
  data_param {
    source: "/data/leo-data/Synthetic/LMDB/Triplets/train"
    batch_size: 24
    backend: LMDB
  }
}
layer {
  name: "slicer"
  type: "Slice"
  bottom: "triplet"
  top: "anchor_stacked"
  top: "positive_stacked"
  top: "negative_stacked"
  slice_param {
    slice_dim: 1
    slice_point: 48
    slice_point: 96
  }
}
layer {
  name: "reshape_anchor"
  type: "Reshape"
  bottom: "anchor_stacked"
  top: "anchor"
  reshape_param {
    shape {
      dim: 0
      dim: 3
      dim: 16
      dim: 112
      dim: 112
    }
  }
}
layer {
  name: "reshape_positive"
  type: "Reshape"
  bottom: "positive_stacked"
  top: "positive"
  reshape_param {
    shape {
      dim: 0
      dim: 3
      dim: 16
      dim: 112
      dim: 112
    }
  }
}
layer {
  name: "silence_negative"
  type: "Silence"
  bottom: "negative_stacked"
}
layer {
  name: "data_switch"
  type: "Python"
  bottom: "anchor"
  bottom: "positive"
  top: "first_person"
  top: "third_person"
  python_param {
    module: "data_switch"
    layer: "DataSwitchLayer"
  }
}
layer {
  name: "label_split"
  type: "Python"
  bottom: "raw_label"
  top: "fp_label"
  top: "tp_label"
  python_param {
    module: "label_split"
    layer: "LabelSplitLayer"
  }
}
layer {
  name: "label_parse"
  type: "Python"
  bottom: "tp_label"
  top: "label"
  python_param {
    module: "label_parse"
    layer: "LabelParseLayer"
    param_str: "Scene"
  }
}
layer {
  name: "silence_first_person"
  type: "Silence"
  bottom: "first_person"
  bottom: "fp_label"
}
layer {
  name: "conv1a"
  type: "NdConvolution"
  bottom: "third_person"
  top: "conv1a"
  param {
    lr_mult: 0
    decay_mult: 0
  }
  param {
    lr_mult: 0
    decay_mult: 0
  }
  convolution_param {
    num_output: 64
    weight_filler {
      type: "gaussian"
      std: 0.01
    }
    bias_filler {
      type: "constant"
      value: 0
    }
    pad_shape {
      dim: 1
      dim: 1
      dim: 1
    }
    kernel_shape {
      dim: 3
      dim: 3
      dim: 3
    }
    stride_shape {
      dim: 1
      dim: 1
      dim: 1
    }
  }
}
layer {
  name: "relu1a"
  type: "ReLU"
  bottom: "conv1a"
  top: "conv1a"
}
layer {
  name: "pool1"
  type: "NdPooling"
  bottom: "conv1a"
  top: "pool1"
  pooling_param {
    pool: MAX
    kernel_shape {
      dim: 1
      dim: 2
      dim: 2
    }
    stride_shape {
      dim: 1
      dim: 2
      dim: 2
    }
  }
}
layer {
  name: "conv2a"
  type: "NdConvolution"
  bottom: "pool1"
  top: "conv2a"
  param {
    lr_mult: 0
    decay_mult: 0
  }
  param {
    lr_mult: 0
    decay_mult: 0
  }
  convolution_param {
    num_output: 128
    weight_filler {
      type: "gaussian"
      std: 0.01
    }
    bias_filler {
      type: "constant"
      value: 1
    }
    pad_shape {
      dim: 1
      dim: 1
      dim: 1
    }
    kernel_shape {
      dim: 3
      dim: 3
      dim: 3
    }
    stride_shape {
      dim: 1
      dim: 1
      dim: 1
    }
  }
}
layer {
  name: "relu2a"
  type: "ReLU"
  bottom: "conv2a"
  top: "conv2a"
}
layer {
  name: "pool2"
  type: "NdPooling"
  bottom: "conv2a"
  top: "pool2"
  pooling_param {
    pool: MAX
    kernel_shape {
      dim: 2
      dim: 2
      dim: 2
    }
    stride_shape {
      dim: 2
      dim: 2
      dim: 2
    }
  }
}
layer {
  name: "conv3a"
  type: "NdConvolution"
  bottom: "pool2"
  top: "conv3a"
  param {
    lr_mult: 0
    decay_mult: 0
  }
  param {
    lr_mult: 0
    decay_mult: 0
  }
  convolution_param {
    num_output: 256
    weight_filler {
      type: "gaussian"
      std: 0.01
    }
    bias_filler {
      type: "constant"
      value: 1
    }
    pad_shape {
      dim: 1
      dim: 1
      dim: 1
    }
    kernel_shape {
      dim: 3
      dim: 3
      dim: 3
    }
    stride_shape {
      dim: 1
      dim: 1
      dim: 1
    }
  }
}
layer {
  name: "relu3a"
  type: "ReLU"
  bottom: "conv3a"
  top: "conv3a"
}
layer {
  name: "pool3"
  type: "NdPooling"
  bottom: "conv3a"
  top: "pool3"
  pooling_param {
    pool: MAX
    kernel_shape {
      dim: 2
      dim: 2
      dim: 2
    }
    stride_shape {
      dim: 2
      dim: 2
      dim: 2
    }
  }
}
layer {
  name: "conv4a"
  type: "NdConvolution"
  bottom: "pool3"
  top: "conv4a"
  param {
    lr_mult: 0
    decay_mult: 0
  }
  param {
    lr_mult: 0
    decay_mult: 0
  }
  convolution_param {
    num_output: 256
    weight_filler {
      type: "gaussian"
      std: 0.01
    }
    bias_filler {
      type: "constant"
      value: 1
    }
    pad_shape {
      dim: 1
      dim: 1
      dim: 1
    }
    kernel_shape {
      dim: 3
      dim: 3
      dim: 3
    }
    stride_shape {
      dim: 1
      dim: 1
      dim: 1
    }
  }
}
layer {
  name: "relu4a"
  type: "ReLU"
  bottom: "conv4a"
  top: "conv4a"
}
layer {
  name: "pool4"
  type: "NdPooling"
  bottom: "conv4a"
  top: "pool4"
  pooling_param {
    pool: MAX
    kernel_shape {
      dim: 2
      dim: 2
      dim: 2
    }
    stride_shape {
      dim: 2
      dim: 2
      dim: 2
    }
  }
}
layer {
  name: "conv5a"
  type: "NdConvolution"
  bottom: "pool4"
  top: "conv5a"
  param {
    lr_mult: 0
    decay_mult: 0
  }
  param {
    lr_mult: 0
    decay_mult: 0
  }
  convolution_param {
    num_output: 256
    weight_filler {
      type: "gaussian"
      std: 0.01
    }
    bias_filler {
      type: "constant"
      value: 1
    }
    pad_shape {
      dim: 1
      dim: 1
      dim: 1
    }
    kernel_shape {
      dim: 3
      dim: 3
      dim: 3
    }
    stride_shape {
      dim: 1
      dim: 1
      dim: 1
    }
  }
}
layer {
  name: "relu5a"
  type: "ReLU"
  bottom: "conv5a"
  top: "conv5a"
}
layer {
  name: "pool5"
  type: "NdPooling"
  bottom: "conv5a"
  top: "pool5"
  pooling_param {
    pool: MAX
    kernel_shape {
      dim: 2
      dim: 2
      dim: 2
    }
    stride_shape {
      dim: 2
      dim: 2
      dim: 2
    }
  }
}
layer {
  name: "fc6"
  type: "InnerProduct"
  bottom: "pool5"
  top: "fc6"
  param {
    lr_mult: 0
    decay_mult: 0
  }
  param {
    lr_mult: 0
    decay_mult: 0
  }
  inner_product_param {
    num_output: 2048
    weight_filler {
      type: "gaussian"
      std: 0.005
    }
    bias_filler {
      type: "constant"
      value: 1
    }
  }
}
layer {
  name: "relu6"
  type: "ReLU"
  bottom: "fc6"
  top: "fc6"
}
layer {
  name: "drop6"
  type: "Dropout"
  bottom: "fc6"
  top: "fc6"
  dropout_param {
    dropout_ratio: 0.5
  }
}
layer {
  name: "fc7"
  type: "InnerProduct"
  bottom: "fc6"
  top: "fc7"
  param {
    lr_mult: 0
    decay_mult: 0
  }
  param {
    lr_mult: 0
    decay_mult: 0
  }
  inner_product_param {
    num_output: 2048
    weight_filler {
      type: "gaussian"
      std: 0.005
    }
    bias_filler {
      type: "constant"
      value: 1
    }
  }
}
layer {
  name: "relu7"
  type: "ReLU"
  bottom: "fc7"
  top: "fc7"
}
layer {
  name: "drop7"
  type: "Dropout"
  bottom: "fc7"
  top: "fc7"
  dropout_param {
    dropout_ratio: 0.5
  }
}
layer {
  name: "fc8"
  type: "InnerProduct"
  bottom: "fc7"
  top: "fc8"
  param {
    lr_mult: 1
    decay_mult: 1
  }
  param {
    lr_mult: 2
    decay_mult: 0
  }
  inner_product_param {
    num_output: 10
    weight_filler {
      type: "gaussian"
      std: 0.01
    }
    bias_filler {
      type: "constant"
      value: 0
    }
  }
}
layer {
  name: "loss"
  type: "SoftmaxWithLoss"
  bottom: "fc8"
  bottom: "label"
  top: "loss"
}
I0524 09:18:36.873221   849 layer_factory.hpp:77] Creating layer data
I0524 09:18:36.874080   849 net.cpp:100] Creating Layer data
I0524 09:18:36.874100   849 net.cpp:408] data -> triplet
I0524 09:18:36.874128   849 net.cpp:408] data -> raw_label
I0524 09:18:36.876282   856 db_lmdb.cpp:35] Opened lmdb /data/leo-data/Synthetic/LMDB/Triplets/train
I0524 09:18:36.940888   849 data_layer.cpp:41] output data size: 24,144,112,112
I0524 09:18:37.401365   849 net.cpp:150] Setting up data
I0524 09:18:37.401484   849 net.cpp:157] Top shape: 24 144 112 112 (43352064)
I0524 09:18:37.401506   849 net.cpp:157] Top shape: 24 (24)
I0524 09:18:37.401515   849 net.cpp:165] Memory required for data: 173408352
I0524 09:18:37.401571   849 layer_factory.hpp:77] Creating layer slicer
I0524 09:18:37.414767   849 net.cpp:100] Creating Layer slicer
I0524 09:18:37.414813   849 net.cpp:434] slicer <- triplet
I0524 09:18:37.414872   849 net.cpp:408] slicer -> anchor_stacked
I0524 09:18:37.414922   849 net.cpp:408] slicer -> positive_stacked
I0524 09:18:37.414937   849 net.cpp:408] slicer -> negative_stacked
I0524 09:18:37.457221   849 net.cpp:150] Setting up slicer
I0524 09:18:37.457262   849 net.cpp:157] Top shape: 24 48 112 112 (14450688)
I0524 09:18:37.457267   849 net.cpp:157] Top shape: 24 48 112 112 (14450688)
I0524 09:18:37.457271   849 net.cpp:157] Top shape: 24 48 112 112 (14450688)
I0524 09:18:37.457274   849 net.cpp:165] Memory required for data: 346816608
I0524 09:18:37.457286   849 layer_factory.hpp:77] Creating layer reshape_anchor
I0524 09:18:37.457317   849 net.cpp:100] Creating Layer reshape_anchor
I0524 09:18:37.457324   849 net.cpp:434] reshape_anchor <- anchor_stacked
I0524 09:18:37.457332   849 net.cpp:408] reshape_anchor -> anchor
I0524 09:18:37.457388   849 net.cpp:150] Setting up reshape_anchor
I0524 09:18:37.457397   849 net.cpp:157] Top shape: 24 3 16 112 112 (14450688)
I0524 09:18:37.457401   849 net.cpp:165] Memory required for data: 404619360
I0524 09:18:37.457403   849 layer_factory.hpp:77] Creating layer reshape_positive
I0524 09:18:37.457412   849 net.cpp:100] Creating Layer reshape_positive
I0524 09:18:37.457414   849 net.cpp:434] reshape_positive <- positive_stacked
I0524 09:18:37.457422   849 net.cpp:408] reshape_positive -> positive
I0524 09:18:37.457450   849 net.cpp:150] Setting up reshape_positive
I0524 09:18:37.457458   849 net.cpp:157] Top shape: 24 3 16 112 112 (14450688)
I0524 09:18:37.457460   849 net.cpp:165] Memory required for data: 462422112
I0524 09:18:37.457464   849 layer_factory.hpp:77] Creating layer silence_negative
I0524 09:18:37.457473   849 net.cpp:100] Creating Layer silence_negative
I0524 09:18:37.457476   849 net.cpp:434] silence_negative <- negative_stacked
I0524 09:18:37.457481   849 net.cpp:150] Setting up silence_negative
I0524 09:18:37.457484   849 net.cpp:165] Memory required for data: 462422112
I0524 09:18:37.457487   849 layer_factory.hpp:77] Creating layer data_switch
I0524 09:18:38.422475   849 net.cpp:100] Creating Layer data_switch
I0524 09:18:38.422519   849 net.cpp:434] data_switch <- anchor
I0524 09:18:38.422528   849 net.cpp:434] data_switch <- positive
I0524 09:18:38.422534   849 net.cpp:408] data_switch -> first_person
I0524 09:18:38.422543   849 net.cpp:408] data_switch -> third_person
I0524 09:18:38.581482   849 net.cpp:150] Setting up data_switch
I0524 09:18:38.581539   849 net.cpp:157] Top shape: 24 3 16 112 112 (14450688)
I0524 09:18:38.581547   849 net.cpp:157] Top shape: 24 3 16 112 112 (14450688)
I0524 09:18:38.581552   849 net.cpp:165] Memory required for data: 578027616
I0524 09:18:38.581573   849 layer_factory.hpp:77] Creating layer label_split
I0524 09:18:38.581826   849 net.cpp:100] Creating Layer label_split
I0524 09:18:38.581840   849 net.cpp:434] label_split <- raw_label
I0524 09:18:38.581848   849 net.cpp:408] label_split -> fp_label
I0524 09:18:38.581857   849 net.cpp:408] label_split -> tp_label
I0524 09:18:38.581959   849 net.cpp:150] Setting up label_split
I0524 09:18:38.581969   849 net.cpp:157] Top shape: 24 1 (24)
I0524 09:18:38.581974   849 net.cpp:157] Top shape: 24 1 (24)
I0524 09:18:38.581977   849 net.cpp:165] Memory required for data: 578027808
I0524 09:18:38.581985   849 layer_factory.hpp:77] Creating layer label_parse
I0524 09:18:38.582129   849 net.cpp:100] Creating Layer label_parse
I0524 09:18:38.582139   849 net.cpp:434] label_parse <- tp_label
I0524 09:18:38.582144   849 net.cpp:408] label_parse -> label
I0524 09:18:38.582221   849 net.cpp:150] Setting up label_parse
I0524 09:18:38.582231   849 net.cpp:157] Top shape: 24 1 (24)
I0524 09:18:38.582234   849 net.cpp:165] Memory required for data: 578027904
I0524 09:18:38.582237   849 layer_factory.hpp:77] Creating layer silence_first_person
I0524 09:18:38.582247   849 net.cpp:100] Creating Layer silence_first_person
I0524 09:18:38.582270   849 net.cpp:434] silence_first_person <- first_person
I0524 09:18:38.582275   849 net.cpp:434] silence_first_person <- fp_label
I0524 09:18:38.582279   849 net.cpp:150] Setting up silence_first_person
I0524 09:18:38.582283   849 net.cpp:165] Memory required for data: 578027904
I0524 09:18:38.582285   849 layer_factory.hpp:77] Creating layer conv1a
I0524 09:18:38.582310   849 net.cpp:100] Creating Layer conv1a
I0524 09:18:38.582316   849 net.cpp:434] conv1a <- third_person
I0524 09:18:38.582322   849 net.cpp:408] conv1a -> conv1a
I0524 09:18:39.230020   849 net.cpp:150] Setting up conv1a
I0524 09:18:39.230063   849 net.cpp:157] Top shape: 24 64 16 112 112 (308281344)
I0524 09:18:39.230070   849 net.cpp:165] Memory required for data: 1811153280
I0524 09:18:39.230093   849 layer_factory.hpp:77] Creating layer relu1a
I0524 09:18:39.230119   849 net.cpp:100] Creating Layer relu1a
I0524 09:18:39.230137   849 net.cpp:434] relu1a <- conv1a
I0524 09:18:39.230154   849 net.cpp:395] relu1a -> conv1a (in-place)
I0524 09:18:39.231709   849 net.cpp:150] Setting up relu1a
I0524 09:18:39.231732   849 net.cpp:157] Top shape: 24 64 16 112 112 (308281344)
I0524 09:18:39.231739   849 net.cpp:165] Memory required for data: 3044278656
I0524 09:18:39.231745   849 layer_factory.hpp:77] Creating layer pool1
I0524 09:18:39.231760   849 net.cpp:100] Creating Layer pool1
I0524 09:18:39.231767   849 net.cpp:434] pool1 <- conv1a
I0524 09:18:39.231776   849 net.cpp:408] pool1 -> pool1
I0524 09:18:39.232209   849 net.cpp:150] Setting up pool1
I0524 09:18:39.232229   849 net.cpp:157] Top shape: 24 64 16 56 56 (77070336)
I0524 09:18:39.232237   849 net.cpp:165] Memory required for data: 3352560000
I0524 09:18:39.232249   849 layer_factory.hpp:77] Creating layer conv2a
I0524 09:18:39.232273   849 net.cpp:100] Creating Layer conv2a
I0524 09:18:39.232286   849 net.cpp:434] conv2a <- pool1
I0524 09:18:39.232306   849 net.cpp:408] conv2a -> conv2a
I0524 09:18:39.245908   849 net.cpp:150] Setting up conv2a
I0524 09:18:39.245930   849 net.cpp:157] Top shape: 24 128 16 56 56 (154140672)
I0524 09:18:39.245935   849 net.cpp:165] Memory required for data: 3969122688
I0524 09:18:39.245949   849 layer_factory.hpp:77] Creating layer relu2a
I0524 09:18:39.245961   849 net.cpp:100] Creating Layer relu2a
I0524 09:18:39.245966   849 net.cpp:434] relu2a <- conv2a
I0524 09:18:39.245978   849 net.cpp:395] relu2a -> conv2a (in-place)
I0524 09:18:39.246345   849 net.cpp:150] Setting up relu2a
I0524 09:18:39.246364   849 net.cpp:157] Top shape: 24 128 16 56 56 (154140672)
I0524 09:18:39.246373   849 net.cpp:165] Memory required for data: 4585685376
I0524 09:18:39.246384   849 layer_factory.hpp:77] Creating layer pool2
I0524 09:18:39.246404   849 net.cpp:100] Creating Layer pool2
I0524 09:18:39.246417   849 net.cpp:434] pool2 <- conv2a
I0524 09:18:39.246433   849 net.cpp:408] pool2 -> pool2
I0524 09:18:39.246821   849 net.cpp:150] Setting up pool2
I0524 09:18:39.246840   849 net.cpp:157] Top shape: 24 128 8 28 28 (19267584)
I0524 09:18:39.246850   849 net.cpp:165] Memory required for data: 4662755712
I0524 09:18:39.246863   849 layer_factory.hpp:77] Creating layer conv3a
I0524 09:18:39.246886   849 net.cpp:100] Creating Layer conv3a
I0524 09:18:39.246898   849 net.cpp:434] conv3a <- pool2
I0524 09:18:39.246940   849 net.cpp:408] conv3a -> conv3a
I0524 09:18:39.296634   849 net.cpp:150] Setting up conv3a
I0524 09:18:39.296676   849 net.cpp:157] Top shape: 24 256 8 28 28 (38535168)
I0524 09:18:39.296691   849 net.cpp:165] Memory required for data: 4816896384
I0524 09:18:39.296722   849 layer_factory.hpp:77] Creating layer relu3a
I0524 09:18:39.296752   849 net.cpp:100] Creating Layer relu3a
I0524 09:18:39.296762   849 net.cpp:434] relu3a <- conv3a
I0524 09:18:39.296774   849 net.cpp:395] relu3a -> conv3a (in-place)
I0524 09:18:39.297168   849 net.cpp:150] Setting up relu3a
I0524 09:18:39.297195   849 net.cpp:157] Top shape: 24 256 8 28 28 (38535168)
I0524 09:18:39.297201   849 net.cpp:165] Memory required for data: 4971037056
I0524 09:18:39.297209   849 layer_factory.hpp:77] Creating layer pool3
I0524 09:18:39.297261   849 net.cpp:100] Creating Layer pool3
I0524 09:18:39.297271   849 net.cpp:434] pool3 <- conv3a
I0524 09:18:39.297283   849 net.cpp:408] pool3 -> pool3
I0524 09:18:39.299183   849 net.cpp:150] Setting up pool3
I0524 09:18:39.299209   849 net.cpp:157] Top shape: 24 256 4 14 14 (4816896)
I0524 09:18:39.299223   849 net.cpp:165] Memory required for data: 4990304640
I0524 09:18:39.299242   849 layer_factory.hpp:77] Creating layer conv4a
I0524 09:18:39.299260   849 net.cpp:100] Creating Layer conv4a
I0524 09:18:39.299269   849 net.cpp:434] conv4a <- pool3
I0524 09:18:39.299290   849 net.cpp:408] conv4a -> conv4a
I0524 09:18:39.395941   849 net.cpp:150] Setting up conv4a
I0524 09:18:39.395972   849 net.cpp:157] Top shape: 24 256 4 14 14 (4816896)
I0524 09:18:39.395977   849 net.cpp:165] Memory required for data: 5009572224
I0524 09:18:39.395987   849 layer_factory.hpp:77] Creating layer relu4a
I0524 09:18:39.396009   849 net.cpp:100] Creating Layer relu4a
I0524 09:18:39.396014   849 net.cpp:434] relu4a <- conv4a
I0524 09:18:39.396021   849 net.cpp:395] relu4a -> conv4a (in-place)
I0524 09:18:39.396265   849 net.cpp:150] Setting up relu4a
I0524 09:18:39.396277   849 net.cpp:157] Top shape: 24 256 4 14 14 (4816896)
I0524 09:18:39.396281   849 net.cpp:165] Memory required for data: 5028839808
I0524 09:18:39.396286   849 layer_factory.hpp:77] Creating layer pool4
I0524 09:18:39.396299   849 net.cpp:100] Creating Layer pool4
I0524 09:18:39.396303   849 net.cpp:434] pool4 <- conv4a
I0524 09:18:39.396311   849 net.cpp:408] pool4 -> pool4
I0524 09:18:39.396582   849 net.cpp:150] Setting up pool4
I0524 09:18:39.396595   849 net.cpp:157] Top shape: 24 256 2 7 7 (602112)
I0524 09:18:39.396600   849 net.cpp:165] Memory required for data: 5031248256
I0524 09:18:39.396602   849 layer_factory.hpp:77] Creating layer conv5a
I0524 09:18:39.396615   849 net.cpp:100] Creating Layer conv5a
I0524 09:18:39.396620   849 net.cpp:434] conv5a <- pool4
I0524 09:18:39.396630   849 net.cpp:408] conv5a -> conv5a
I0524 09:18:39.459352   849 net.cpp:150] Setting up conv5a
I0524 09:18:39.459391   849 net.cpp:157] Top shape: 24 256 2 7 7 (602112)
I0524 09:18:39.459395   849 net.cpp:165] Memory required for data: 5033656704
I0524 09:18:39.459410   849 layer_factory.hpp:77] Creating layer relu5a
I0524 09:18:39.459425   849 net.cpp:100] Creating Layer relu5a
I0524 09:18:39.459430   849 net.cpp:434] relu5a <- conv5a
I0524 09:18:39.459439   849 net.cpp:395] relu5a -> conv5a (in-place)
I0524 09:18:39.459652   849 net.cpp:150] Setting up relu5a
I0524 09:18:39.459663   849 net.cpp:157] Top shape: 24 256 2 7 7 (602112)
I0524 09:18:39.459666   849 net.cpp:165] Memory required for data: 5036065152
I0524 09:18:39.459671   849 layer_factory.hpp:77] Creating layer pool5
I0524 09:18:39.459679   849 net.cpp:100] Creating Layer pool5
I0524 09:18:39.459684   849 net.cpp:434] pool5 <- conv5a
I0524 09:18:39.459691   849 net.cpp:408] pool5 -> pool5
I0524 09:18:39.460824   849 net.cpp:150] Setting up pool5
I0524 09:18:39.460839   849 net.cpp:157] Top shape: 24 256 1 4 4 (98304)
I0524 09:18:39.460842   849 net.cpp:165] Memory required for data: 5036458368
I0524 09:18:39.460846   849 layer_factory.hpp:77] Creating layer fc6
I0524 09:18:39.460868   849 net.cpp:100] Creating Layer fc6
I0524 09:18:39.460873   849 net.cpp:434] fc6 <- pool5
I0524 09:18:39.460880   849 net.cpp:408] fc6 -> fc6
I0524 09:18:39.743044   849 net.cpp:150] Setting up fc6
I0524 09:18:39.743082   849 net.cpp:157] Top shape: 24 2048 (49152)
I0524 09:18:39.743085   849 net.cpp:165] Memory required for data: 5036654976
I0524 09:18:39.743094   849 layer_factory.hpp:77] Creating layer relu6
I0524 09:18:39.743113   849 net.cpp:100] Creating Layer relu6
I0524 09:18:39.743118   849 net.cpp:434] relu6 <- fc6
I0524 09:18:39.743124   849 net.cpp:395] relu6 -> fc6 (in-place)
I0524 09:18:39.743402   849 net.cpp:150] Setting up relu6
I0524 09:18:39.743413   849 net.cpp:157] Top shape: 24 2048 (49152)
I0524 09:18:39.743417   849 net.cpp:165] Memory required for data: 5036851584
I0524 09:18:39.743440   849 layer_factory.hpp:77] Creating layer drop6
I0524 09:18:39.743454   849 net.cpp:100] Creating Layer drop6
I0524 09:18:39.743458   849 net.cpp:434] drop6 <- fc6
I0524 09:18:39.743464   849 net.cpp:395] drop6 -> fc6 (in-place)
I0524 09:18:39.743501   849 net.cpp:150] Setting up drop6
I0524 09:18:39.743535   849 net.cpp:157] Top shape: 24 2048 (49152)
I0524 09:18:39.743540   849 net.cpp:165] Memory required for data: 5037048192
I0524 09:18:39.743541   849 layer_factory.hpp:77] Creating layer fc7
I0524 09:18:39.743552   849 net.cpp:100] Creating Layer fc7
I0524 09:18:39.743556   849 net.cpp:434] fc7 <- fc6
I0524 09:18:39.743566   849 net.cpp:408] fc7 -> fc7
I0524 09:18:39.887246   849 net.cpp:150] Setting up fc7
I0524 09:18:39.887295   849 net.cpp:157] Top shape: 24 2048 (49152)
I0524 09:18:39.887298   849 net.cpp:165] Memory required for data: 5037244800
I0524 09:18:39.887315   849 layer_factory.hpp:77] Creating layer relu7
I0524 09:18:39.887331   849 net.cpp:100] Creating Layer relu7
I0524 09:18:39.887346   849 net.cpp:434] relu7 <- fc7
I0524 09:18:39.887358   849 net.cpp:395] relu7 -> fc7 (in-place)
I0524 09:18:39.887693   849 net.cpp:150] Setting up relu7
I0524 09:18:39.887706   849 net.cpp:157] Top shape: 24 2048 (49152)
I0524 09:18:39.887708   849 net.cpp:165] Memory required for data: 5037441408
I0524 09:18:39.887712   849 layer_factory.hpp:77] Creating layer drop7
I0524 09:18:39.887725   849 net.cpp:100] Creating Layer drop7
I0524 09:18:39.887729   849 net.cpp:434] drop7 <- fc7
I0524 09:18:39.887734   849 net.cpp:395] drop7 -> fc7 (in-place)
I0524 09:18:39.887774   849 net.cpp:150] Setting up drop7
I0524 09:18:39.887784   849 net.cpp:157] Top shape: 24 2048 (49152)
I0524 09:18:39.887786   849 net.cpp:165] Memory required for data: 5037638016
I0524 09:18:39.887789   849 layer_factory.hpp:77] Creating layer fc8
I0524 09:18:39.887800   849 net.cpp:100] Creating Layer fc8
I0524 09:18:39.887804   849 net.cpp:434] fc8 <- fc7
I0524 09:18:39.887810   849 net.cpp:408] fc8 -> fc8
I0524 09:18:39.888607   849 net.cpp:150] Setting up fc8
I0524 09:18:39.888617   849 net.cpp:157] Top shape: 24 10 (240)
I0524 09:18:39.888619   849 net.cpp:165] Memory required for data: 5037638976
I0524 09:18:39.888633   849 layer_factory.hpp:77] Creating layer loss
I0524 09:18:39.888648   849 net.cpp:100] Creating Layer loss
I0524 09:18:39.888653   849 net.cpp:434] loss <- fc8
I0524 09:18:39.888658   849 net.cpp:434] loss <- label
I0524 09:18:39.888665   849 net.cpp:408] loss -> loss
I0524 09:18:39.888680   849 layer_factory.hpp:77] Creating layer loss
…
    mean_value: 65
    mean_value: 74
    mean_value: 92
    mean_value: 65
    mean_value: 74
    mean_value: 92
    mean_value: 65
    mean_value: 74
    mean_value: 92
    mean_value: 65
    mean_value: 74
    mean_value: 92
    mean_value: 65
    mean_value: 74
    mean_value: 92
    mean_value: 65
    mean_value: 74
    mean_value: 92
    mean_value: 65
    mean_value: 74
    mean_value: 92
    mean_value: 65
    mean_value: 74
    mean_value: 92
  }
  data_param {
    source: "/data/leo-data/Synthetic/LMDB/Triplets/val"
    batch_size: 1
    backend: LMDB
  }
}
layer {
  name: "slicer"
  type: "Slice"
  bottom: "triplet"
  top: "anchor_stacked"
  top: "positive_stacked"
  top: "negative_stacked"
  slice_param {
    slice_dim: 1
    slice_point: 48
    slice_point: 96
  }
}
layer {
  name: "reshape_anchor"
  type: "Reshape"
  bottom: "anchor_stacked"
  top: "anchor"
  reshape_param {
    shape {
      dim: 0
      dim: 3
      dim: 16
      dim: 112
      dim: 112
    }
  }
}
layer {
  name: "reshape_positive"
  type: "Reshape"
  bottom: "positive_stacked"
  top: "positive"
  reshape_param {
    shape {
      dim: 0
      dim: 3
      dim: 16
      dim: 112
      dim: 112
    }
  }
}
layer {
  name: "silence_negative"
  type: "Silence"
  bottom: "negative_stacked"
}
layer {
  name: "data_switch"
  type: "Python"
  bottom: "anchor"
  bottom: "positive"
  top: "first_person"
  top: "third_person"
  python_param {
    module: "data_switch"
    layer: "DataSwitchLayer"
  }
}
layer {
  name: "label_split"
  type: "Python"
  bottom: "raw_label"
  top: "fp_label"
  top: "tp_label"
  python_param {
    module: "label_split"
    layer: "LabelSplitLayer"
  }
}
layer {
  name: "label_parse"
  type: "Python"
  bottom: "tp_label"
  top: "label"
  python_param {
    module: "label_parse"
    layer: "LabelParseLayer"
    param_str: "Scene"
  }
}
layer {
  name: "silence_first_person"
  type: "Silence"
  bottom: "first_person"
  bottom: "fp_label"
}
layer {
  name: "conv1a"
  type: "NdConvolution"
  bottom: "third_person"
  top: "conv1a"
  param {
    lr_mult: 0
    decay_mult: 0
  }
  param {
    lr_mult: 0
    decay_mult: 0
  }
  convolution_param {
    num_output: 64
    weight_filler {
      type: "gaussian"
      std: 0.01
    }
    bias_filler {
      type: "constant"
      value: 0
    }
    pad_shape {
      dim: 1
      dim: 1
      dim: 1
    }
    kernel_shape {
      dim: 3
      dim: 3
      dim: 3
    }
    stride_shape {
      dim: 1
      dim: 1
      dim: 1
    }
  }
}
layer {
  name: "relu1a"
  type: "ReLU"
  bottom: "conv1a"
  top: "conv1a"
}
layer {
  name: "pool1"
  type: "NdPooling"
  bottom: "conv1a"
  top: "pool1"
  pooling_param {
    pool: MAX
    kernel_shape {
      dim: 1
      dim: 2
      dim: 2
    }
    stride_shape {
      dim: 1
      dim: 2
      dim: 2
    }
  }
}
layer {
  name: "conv2a"
  type: "NdConvolution"
  bottom: "pool1"
  top: "conv2a"
  param {
    lr_mult: 0
    decay_mult: 0
  }
  param {
    lr_mult: 0
    decay_mult: 0
  }
  convolution_param {
    num_output: 128
    weight_filler {
      type: "gaussian"
      std: 0.01
    }
    bias_filler {
      type: "constant"
      value: 1
    }
    pad_shape {
      dim: 1
      dim: 1
      dim: 1
    }
    kernel_shape {
      dim: 3
      dim: 3
      dim: 3
    }
    stride_shape {
      dim: 1
      dim: 1
      dim: 1
    }
  }
}
layer {
  name: "relu2a"
  type: "ReLU"
  bottom: "conv2a"
  top: "conv2a"
}
layer {
  name: "pool2"
  type: "NdPooling"
  bottom: "conv2a"
  top: "pool2"
  pooling_param {
    pool: MAX
    kernel_shape {
      dim: 2
      dim: 2
      dim: 2
    }
    stride_shape {
      dim: 2
      dim: 2
      dim: 2
    }
  }
}
layer {
  name: "conv3a"
  type: "NdConvolution"
  bottom: "pool2"
  top: "conv3a"
  param {
    lr_mult: 0
    decay_mult: 0
  }
  param {
    lr_mult: 0
    decay_mult: 0
  }
  convolution_param {
    num_output: 256
    weight_filler {
      type: "gaussian"
      std: 0.01
    }
    bias_filler {
      type: "constant"
      value: 1
    }
    pad_shape {
      dim: 1
      dim: 1
      dim: 1
    }
    kernel_shape {
      dim: 3
      dim: 3
      dim: 3
    }
    stride_shape {
      dim: 1
      dim: 1
      dim: 1
    }
  }
}
layer {
  name: "relu3a"
  type: "ReLU"
  bottom: "conv3a"
  top: "conv3a"
}
layer {
  name: "pool3"
  type: "NdPooling"
  bottom: "conv3a"
  top: "pool3"
  pooling_param {
    pool: MAX
    kernel_shape {
      dim: 2
      dim: 2
      dim: 2
    }
    stride_shape {
      dim: 2
      dim: 2
      dim: 2
    }
  }
}
layer {
  name: "conv4a"
  type: "NdConvolution"
  bottom: "pool3"
  top: "conv4a"
  param {
    lr_mult: 0
    decay_mult: 0
  }
  param {
    lr_mult: 0
    decay_mult: 0
  }
  convolution_param {
    num_output: 256
    weight_filler {
      type: "gaussian"
      std: 0.01
    }
    bias_filler {
      type: "constant"
      value: 1
    }
    pad_shape {
      dim: 1
      dim: 1
      dim: 1
    }
    kernel_shape {
      dim: 3
      dim: 3
      dim: 3
    }
    stride_shape {
      dim: 1
      dim: 1
      dim: 1
    }
  }
}
layer {
  name: "relu4a"
  type: "ReLU"
  bottom: "conv4a"
  top: "conv4a"
}
layer {
  name: "pool4"
  type: "NdPooling"
  bottom: "conv4a"
  top: "pool4"
  pooling_param {
    pool: MAX
    kernel_shape {
      dim: 2
      dim: 2
      dim: 2
    }
    stride_shape {
      dim: 2
      dim: 2
      dim: 2
    }
  }
}
layer {
  name: "conv5a"
  type: "NdConvolution"
  bottom: "pool4"
  top: "conv5a"
  param {
    lr_mult: 0
    decay_mult: 0
  }
  param {
    lr_mult: 0
    decay_mult: 0
  }
  convolution_param {
    num_output: 256
    weight_filler {
      type: "gaussian"
      std: 0.01
    }
    bias_filler {
      type: "constant"
      value: 1
    }
    pad_shape {
      dim: 1
      dim: 1
      dim: 1
    }
    kernel_shape {
      dim: 3
      dim: 3
      dim: 3
    }
    stride_shape {
      dim: 1
      dim: 1
      dim: 1
    }
  }
}
layer {
  name: "relu5a"
  type: "ReLU"
  bottom: "conv5a"
  top: "conv5a"
}
layer {
  name: "pool5"
  type: "NdPooling"
  bottom: "conv5a"
  top: "pool5"
  pooling_param {
    pool: MAX
    kernel_shape {
      dim: 2
      dim: 2
      dim: 2
    }
    stride_shape {
      dim: 2
      dim: 2
      dim: 2
    }
  }
}
layer {
  name: "fc6"
  type: "InnerProduct"
  bottom: "pool5"
  top: "fc6"
  param {
    lr_mult: 0
    decay_mult: 0
  }
  param {
    lr_mult: 0
    decay_mult: 0
  }
  inner_product_param {
    num_output: 2048
    weight_filler {
      type: "gaussian"
      std: 0.005
    }
    bias_filler {
      type: "constant"
      value: 1
    }
  }
}
layer {
  name: "relu6"
  type: "ReLU"
  bottom: "fc6"
  top: "fc6"
}
layer {
  name: "drop6"
  type: "Dropout"
  bottom: "fc6"
  top: "fc6"
  dropout_param {
    dropout_ratio: 0.5
  }
}
layer {
  name: "fc7"
  type: "InnerProduct"
  bottom: "fc6"
  top: "fc7"
  param {
    lr_mult: 0
    decay_mult: 0
  }
  param {
    lr_mult: 0
    decay_mult: 0
  }
  inner_product_param {
    num_output: 2048
    weight_filler {
      type: "gaussian"
      std: 0.005
    }
    bias_filler {
      type: "constant"
      value: 1
    }
  }
}
layer {
  name: "relu7"
  type: "ReLU"
  bottom: "fc7"
  top: "fc7"
}
layer {
  name: "drop7"
  type: "Dropout"
  bottom: "fc7"
  top: "fc7"
  dropout_param {
    dropout_ratio: 0.5
  }
}
layer {
  name: "fc8"
  type: "InnerProduct"
  bottom: "fc7"
  top: "fc8"
  param {
    lr_mult: 1
    decay_mult: 1
  }
  param {
    lr_mult: 2
    decay_mult: 0
  }
  inner_product_param {
    num_output: 10
    weight_filler {
      type: "gaussian"
      std: 0.01
    }
    bias_filler {
      type: "constant"
      value: 0
    }
  }
}
layer {
  name: "prob"
  type: "Softmax"
  bottom: "fc8"
  top: "prob"
  include {
    phase: TEST
  }
}
layer {
  name: "accuracy"
  type: "Accuracy"
  bottom: "prob"
  bottom: "label"
  top: "accuracy/top-1"
  include {
    phase: TEST
  }
}
layer {
  name: "accuracy"
  type: "Accuracy"
  bottom: "prob"
  bottom: "label"
  top: "accuracy/top-5"
  include {
    phase: TEST
  }
  accuracy_param {
    top_k: 5
  }
}
layer {
  name: "loss"
  type: "SoftmaxWithLoss"
  bottom: "fc8"
  bottom: "label"
  top: "loss"
}
I0524 09:18:39.891450   849 layer_factory.hpp:77] Creating layer data
I0524 09:18:39.891530   849 net.cpp:100] Creating Layer data
I0524 09:18:39.891540   849 net.cpp:408] data -> triplet
I0524 09:18:39.891547   849 net.cpp:408] data -> raw_label
I0524 09:18:39.895279   859 db_lmdb.cpp:35] Opened lmdb /data/leo-data/Synthetic/LMDB/Triplets/val
I0524 09:18:39.908179   849 data_layer.cpp:41] output data size: 1,144,112,112
I0524 09:18:39.946187   849 net.cpp:150] Setting up data
I0524 09:18:39.946240   849 net.cpp:157] Top shape: 1 144 112 112 (1806336)
I0524 09:18:39.946255   849 net.cpp:157] Top shape: 1 (1)
I0524 09:18:39.946259   849 net.cpp:165] Memory required for data: 7225348
I0524 09:18:39.946265   849 layer_factory.hpp:77] Creating layer slicer
I0524 09:18:39.946280   849 net.cpp:100] Creating Layer slicer
I0524 09:18:39.946290   849 net.cpp:434] slicer <- triplet
I0524 09:18:39.946306   849 net.cpp:408] slicer -> anchor_stacked
I0524 09:18:39.946316   849 net.cpp:408] slicer -> positive_stacked
I0524 09:18:39.946326   849 net.cpp:408] slicer -> negative_stacked
I0524 09:18:39.946542   849 net.cpp:150] Setting up slicer
I0524 09:18:39.946552   849 net.cpp:157] Top shape: 1 48 112 112 (602112)
I0524 09:18:39.946555   849 net.cpp:157] Top shape: 1 48 112 112 (602112)
I0524 09:18:39.946559   849 net.cpp:157] Top shape: 1 48 112 112 (602112)
I0524 09:18:39.946561   849 net.cpp:165] Memory required for data: 14450692
I0524 09:18:39.946565   849 layer_factory.hpp:77] Creating layer reshape_anchor
I0524 09:18:39.946575   849 net.cpp:100] Creating Layer reshape_anchor
I0524 09:18:39.946579   849 net.cpp:434] reshape_anchor <- anchor_stacked
I0524 09:18:39.946586   849 net.cpp:408] reshape_anchor -> anchor
I0524 09:18:39.946640   849 net.cpp:150] Setting up reshape_anchor
I0524 09:18:39.946647   849 net.cpp:157] Top shape: 1 3 16 112 112 (602112)
I0524 09:18:39.946650   849 net.cpp:165] Memory required for data: 16859140
I0524 09:18:39.946653   849 layer_factory.hpp:77] Creating layer reshape_positive
I0524 09:18:39.946661   849 net.cpp:100] Creating Layer reshape_positive
I0524 09:18:39.946665   849 net.cpp:434] reshape_positive <- positive_stacked
I0524 09:18:39.946669   849 net.cpp:408] reshape_positive -> positive
I0524 09:18:39.946704   849 net.cpp:150] Setting up reshape_positive
I0524 09:18:39.946712   849 net.cpp:157] Top shape: 1 3 16 112 112 (602112)
I0524 09:18:39.946714   849 net.cpp:165] Memory required for data: 19267588
I0524 09:18:39.946717   849 layer_factory.hpp:77] Creating layer silence_negative
I0524 09:18:39.946723   849 net.cpp:100] Creating Layer silence_negative
I0524 09:18:39.946727   849 net.cpp:434] silence_negative <- negative_stacked
I0524 09:18:39.946732   849 net.cpp:150] Setting up silence_negative
I0524 09:18:39.946734   849 net.cpp:165] Memory required for data: 19267588
I0524 09:18:39.946738   849 layer_factory.hpp:77] Creating layer data_switch
I0524 09:18:39.946810   849 net.cpp:100] Creating Layer data_switch
I0524 09:18:39.946816   849 net.cpp:434] data_switch <- anchor
I0524 09:18:39.946820   849 net.cpp:434] data_switch <- positive
I0524 09:18:39.946826   849 net.cpp:408] data_switch -> first_person
I0524 09:18:39.946832   849 net.cpp:408] data_switch -> third_person
I0524 09:18:39.951115   849 net.cpp:150] Setting up data_switch
I0524 09:18:39.951130   849 net.cpp:157] Top shape: 1 3 16 112 112 (602112)
I0524 09:18:39.951136   849 net.cpp:157] Top shape: 1 3 16 112 112 (602112)
I0524 09:18:39.951139   849 net.cpp:165] Memory required for data: 24084484
I0524 09:18:39.951143   849 layer_factory.hpp:77] Creating layer label_split
I0524 09:18:39.951176   849 net.cpp:100] Creating Layer label_split
I0524 09:18:39.951202   849 net.cpp:434] label_split <- raw_label
I0524 09:18:39.951212   849 net.cpp:408] label_split -> fp_label
I0524 09:18:39.951223   849 net.cpp:408] label_split -> tp_label
I0524 09:18:39.951336   849 net.cpp:150] Setting up label_split
I0524 09:18:39.951350   849 net.cpp:157] Top shape: 1 1 (1)
I0524 09:18:39.951357   849 net.cpp:157] Top shape: 1 1 (1)
I0524 09:18:39.951362   849 net.cpp:165] Memory required for data: 24084492
I0524 09:18:39.951369   849 layer_factory.hpp:77] Creating layer label_parse
I0524 09:18:39.951406   849 net.cpp:100] Creating Layer label_parse
I0524 09:18:39.951416   849 net.cpp:434] label_parse <- tp_label
I0524 09:18:39.951424   849 net.cpp:408] label_parse -> label
I0524 09:18:39.951506   849 net.cpp:150] Setting up label_parse
I0524 09:18:39.951519   849 net.cpp:157] Top shape: 1 1 (1)
I0524 09:18:39.951524   849 net.cpp:165] Memory required for data: 24084496
I0524 09:18:39.951529   849 layer_factory.hpp:77] Creating layer label_label_parse_0_split
I0524 09:18:39.951550   849 net.cpp:100] Creating Layer label_label_parse_0_split
I0524 09:18:39.951557   849 net.cpp:434] label_label_parse_0_split <- label
I0524 09:18:39.951565   849 net.cpp:408] label_label_parse_0_split -> label_label_parse_0_split_0
I0524 09:18:39.951576   849 net.cpp:408] label_label_parse_0_split -> label_label_parse_0_split_1
I0524 09:18:39.951587   849 net.cpp:408] label_label_parse_0_split -> label_label_parse_0_split_2
I0524 09:18:39.951653   849 net.cpp:150] Setting up label_label_parse_0_split
I0524 09:18:39.951663   849 net.cpp:157] Top shape: 1 1 (1)
I0524 09:18:39.951670   849 net.cpp:157] Top shape: 1 1 (1)
I0524 09:18:39.951678   849 net.cpp:157] Top shape: 1 1 (1)
I0524 09:18:39.951683   849 net.cpp:165] Memory required for data: 24084508
I0524 09:18:39.951688   849 layer_factory.hpp:77] Creating layer silence_first_person
I0524 09:18:39.951695   849 net.cpp:100] Creating Layer silence_first_person
I0524 09:18:39.951702   849 net.cpp:434] silence_first_person <- first_person
I0524 09:18:39.951709   849 net.cpp:434] silence_first_person <- fp_label
I0524 09:18:39.951717   849 net.cpp:150] Setting up silence_first_person
I0524 09:18:39.951725   849 net.cpp:165] Memory required for data: 24084508
I0524 09:18:39.951730   849 layer_factory.hpp:77] Creating layer conv1a
I0524 09:18:39.951746   849 net.cpp:100] Creating Layer conv1a
I0524 09:18:39.951752   849 net.cpp:434] conv1a <- third_person
I0524 09:18:39.951763   849 net.cpp:408] conv1a -> conv1a
I0524 09:18:39.963184   849 net.cpp:150] Setting up conv1a
I0524 09:18:39.963248   849 net.cpp:157] Top shape: 1 64 16 112 112 (12845056)
I0524 09:18:39.963258   849 net.cpp:165] Memory required for data: 75464732
I0524 09:18:39.963300   849 layer_factory.hpp:77] Creating layer relu1a
I0524 09:18:39.963323   849 net.cpp:100] Creating Layer relu1a
I0524 09:18:39.963338   849 net.cpp:434] relu1a <- conv1a
I0524 09:18:39.963359   849 net.cpp:395] relu1a -> conv1a (in-place)
I0524 09:18:39.966569   849 net.cpp:150] Setting up relu1a
I0524 09:18:39.966593   849 net.cpp:157] Top shape: 1 64 16 112 112 (12845056)
I0524 09:18:39.966598   849 net.cpp:165] Memory required for data: 126844956
I0524 09:18:39.966612   849 layer_factory.hpp:77] Creating layer pool1
I0524 09:18:39.966627   849 net.cpp:100] Creating Layer pool1
I0524 09:18:39.966634   849 net.cpp:434] pool1 <- conv1a
I0524 09:18:39.966642   849 net.cpp:408] pool1 -> pool1
I0524 09:18:39.967037   849 net.cpp:150] Setting up pool1
I0524 09:18:39.967054   849 net.cpp:157] Top shape: 1 64 16 56 56 (3211264)
I0524 09:18:39.967061   849 net.cpp:165] Memory required for data: 139690012
I0524 09:18:39.967066   849 layer_factory.hpp:77] Creating layer conv2a
I0524 09:18:39.967079   849 net.cpp:100] Creating Layer conv2a
I0524 09:18:39.967085   849 net.cpp:434] conv2a <- pool1
I0524 09:18:39.967095   849 net.cpp:408] conv2a -> conv2a
I0524 09:18:39.980656   849 net.cpp:150] Setting up conv2a
I0524 09:18:39.980696   849 net.cpp:157] Top shape: 1 128 16 56 56 (6422528)
I0524 09:18:39.980762   849 net.cpp:165] Memory required for data: 165380124
I0524 09:18:39.980787   849 layer_factory.hpp:77] Creating layer relu2a
I0524 09:18:39.980799   849 net.cpp:100] Creating Layer relu2a
I0524 09:18:39.980806   849 net.cpp:434] relu2a <- conv2a
I0524 09:18:39.980816   849 net.cpp:395] relu2a -> conv2a (in-place)
I0524 09:18:39.981079   849 net.cpp:150] Setting up relu2a
I0524 09:18:39.981093   849 net.cpp:157] Top shape: 1 128 16 56 56 (6422528)
I0524 09:18:39.981101   849 net.cpp:165] Memory required for data: 191070236
I0524 09:18:39.981106   849 layer_factory.hpp:77] Creating layer pool2
I0524 09:18:39.981122   849 net.cpp:100] Creating Layer pool2
I0524 09:18:39.981129   849 net.cpp:434] pool2 <- conv2a
I0524 09:18:39.981139   849 net.cpp:408] pool2 -> pool2
I0524 09:18:39.981467   849 net.cpp:150] Setting up pool2
I0524 09:18:39.981480   849 net.cpp:157] Top shape: 1 128 8 28 28 (802816)
I0524 09:18:39.981490   849 net.cpp:165] Memory required for data: 194281500
I0524 09:18:39.981494   849 layer_factory.hpp:77] Creating layer conv3a
I0524 09:18:39.981510   849 net.cpp:100] Creating Layer conv3a
I0524 09:18:39.981519   849 net.cpp:434] conv3a <- pool2
I0524 09:18:39.981530   849 net.cpp:408] conv3a -> conv3a
I0524 09:18:40.018601   849 net.cpp:150] Setting up conv3a
I0524 09:18:40.018636   849 net.cpp:157] Top shape: 1 256 8 28 28 (1605632)
I0524 09:18:40.018641   849 net.cpp:165] Memory required for data: 200704028
I0524 09:18:40.018656   849 layer_factory.hpp:77] Creating layer relu3a
I0524 09:18:40.018676   849 net.cpp:100] Creating Layer relu3a
I0524 09:18:40.018682   849 net.cpp:434] relu3a <- conv3a
I0524 09:18:40.018687   849 net.cpp:395] relu3a -> conv3a (in-place)
I0524 09:18:40.018939   849 net.cpp:150] Setting up relu3a
I0524 09:18:40.018954   849 net.cpp:157] Top shape: 1 256 8 28 28 (1605632)
I0524 09:18:40.018959   849 net.cpp:165] Memory required for data: 207126556
I0524 09:18:40.018963   849 layer_factory.hpp:77] Creating layer pool3
I0524 09:18:40.018975   849 net.cpp:100] Creating Layer pool3
I0524 09:18:40.018980   849 net.cpp:434] pool3 <- conv3a
I0524 09:18:40.018990   849 net.cpp:408] pool3 -> pool3
I0524 09:18:40.020107   849 net.cpp:150] Setting up pool3
I0524 09:18:40.020122   849 net.cpp:157] Top shape: 1 256 4 14 14 (200704)
I0524 09:18:40.020126   849 net.cpp:165] Memory required for data: 207929372
I0524 09:18:40.020130   849 layer_factory.hpp:77] Creating layer conv4a
I0524 09:18:40.020143   849 net.cpp:100] Creating Layer conv4a
I0524 09:18:40.020148   849 net.cpp:434] conv4a <- pool3
I0524 09:18:40.020159   849 net.cpp:408] conv4a -> conv4a
I0524 09:18:40.084965   849 net.cpp:150] Setting up conv4a
I0524 09:18:40.084987   849 net.cpp:157] Top shape: 1 256 4 14 14 (200704)
I0524 09:18:40.084991   849 net.cpp:165] Memory required for data: 208732188
I0524 09:18:40.085000   849 layer_factory.hpp:77] Creating layer relu4a
I0524 09:18:40.085007   849 net.cpp:100] Creating Layer relu4a
I0524 09:18:40.085011   849 net.cpp:434] relu4a <- conv4a
I0524 09:18:40.085018   849 net.cpp:395] relu4a -> conv4a (in-place)
I0524 09:18:40.085232   849 net.cpp:150] Setting up relu4a
I0524 09:18:40.085242   849 net.cpp:157] Top shape: 1 256 4 14 14 (200704)
I0524 09:18:40.085247   849 net.cpp:165] Memory required for data: 209535004
I0524 09:18:40.085252   849 layer_factory.hpp:77] Creating layer pool4
I0524 09:18:40.085264   849 net.cpp:100] Creating Layer pool4
I0524 09:18:40.085269   849 net.cpp:434] pool4 <- conv4a
I0524 09:18:40.085278   849 net.cpp:408] pool4 -> pool4
I0524 09:18:40.085536   849 net.cpp:150] Setting up pool4
I0524 09:18:40.085546   849 net.cpp:157] Top shape: 1 256 2 7 7 (25088)
I0524 09:18:40.085551   849 net.cpp:165] Memory required for data: 209635356
I0524 09:18:40.085556   849 layer_factory.hpp:77] Creating layer conv5a
I0524 09:18:40.085569   849 net.cpp:100] Creating Layer conv5a
I0524 09:18:40.085575   849 net.cpp:434] conv5a <- pool4
I0524 09:18:40.085584   849 net.cpp:408] conv5a -> conv5a
I0524 09:18:40.147151   849 net.cpp:150] Setting up conv5a
I0524 09:18:40.147194   849 net.cpp:157] Top shape: 1 256 2 7 7 (25088)
I0524 09:18:40.147198   849 net.cpp:165] Memory required for data: 209735708
I0524 09:18:40.147210   849 layer_factory.hpp:77] Creating layer relu5a
I0524 09:18:40.147218   849 net.cpp:100] Creating Layer relu5a
I0524 09:18:40.147224   849 net.cpp:434] relu5a <- conv5a
I0524 09:18:40.147248   849 net.cpp:395] relu5a -> conv5a (in-place)
I0524 09:18:40.147478   849 net.cpp:150] Setting up relu5a
I0524 09:18:40.147490   849 net.cpp:157] Top shape: 1 256 2 7 7 (25088)
I0524 09:18:40.147500   849 net.cpp:165] Memory required for data: 209836060
I0524 09:18:40.147507   849 layer_factory.hpp:77] Creating layer pool5
I0524 09:18:40.147521   849 net.cpp:100] Creating Layer pool5
I0524 09:18:40.147526   849 net.cpp:434] pool5 <- conv5a
I0524 09:18:40.147534   849 net.cpp:408] pool5 -> pool5
I0524 09:18:40.151495   849 net.cpp:150] Setting up pool5
I0524 09:18:40.151520   849 net.cpp:157] Top shape: 1 256 1 4 4 (4096)
I0524 09:18:40.151525   849 net.cpp:165] Memory required for data: 209852444
I0524 09:18:40.151530   849 layer_factory.hpp:77] Creating layer fc6
I0524 09:18:40.151553   849 net.cpp:100] Creating Layer fc6
I0524 09:18:40.151592   849 net.cpp:434] fc6 <- pool5
I0524 09:18:40.151607   849 net.cpp:408] fc6 -> fc6
I0524 09:18:40.445794   849 net.cpp:150] Setting up fc6
I0524 09:18:40.445837   849 net.cpp:157] Top shape: 1 2048 (2048)
I0524 09:18:40.445840   849 net.cpp:165] Memory required for data: 209860636
I0524 09:18:40.445854   849 layer_factory.hpp:77] Creating layer relu6
I0524 09:18:40.445883   849 net.cpp:100] Creating Layer relu6
I0524 09:18:40.445890   849 net.cpp:434] relu6 <- fc6
I0524 09:18:40.445901   849 net.cpp:395] relu6 -> fc6 (in-place)
I0524 09:18:40.446214   849 net.cpp:150] Setting up relu6
I0524 09:18:40.446226   849 net.cpp:157] Top shape: 1 2048 (2048)
I0524 09:18:40.446229   849 net.cpp:165] Memory required for data: 209868828
I0524 09:18:40.446238   849 layer_factory.hpp:77] Creating layer drop6
I0524 09:18:40.446257   849 net.cpp:100] Creating Layer drop6
I0524 09:18:40.446266   849 net.cpp:434] drop6 <- fc6
I0524 09:18:40.446274   849 net.cpp:395] drop6 -> fc6 (in-place)
I0524 09:18:40.446318   849 net.cpp:150] Setting up drop6
I0524 09:18:40.446327   849 net.cpp:157] Top shape: 1 2048 (2048)
I0524 09:18:40.446334   849 net.cpp:165] Memory required for data: 209877020
I0524 09:18:40.446339   849 layer_factory.hpp:77] Creating layer fc7
I0524 09:18:40.446365   849 net.cpp:100] Creating Layer fc7
I0524 09:18:40.446370   849 net.cpp:434] fc7 <- fc6
I0524 09:18:40.446377   849 net.cpp:408] fc7 -> fc7
I0524 09:18:40.588372   849 net.cpp:150] Setting up fc7
I0524 09:18:40.588412   849 net.cpp:157] Top shape: 1 2048 (2048)
I0524 09:18:40.588415   849 net.cpp:165] Memory required for data: 209885212
I0524 09:18:40.588444   849 layer_factory.hpp:77] Creating layer relu7
I0524 09:18:40.588490   849 net.cpp:100] Creating Layer relu7
I0524 09:18:40.588500   849 net.cpp:434] relu7 <- fc7
I0524 09:18:40.588507   849 net.cpp:395] relu7 -> fc7 (in-place)
I0524 09:18:40.588865   849 net.cpp:150] Setting up relu7
I0524 09:18:40.588878   849 net.cpp:157] Top shape: 1 2048 (2048)
I0524 09:18:40.588882   849 net.cpp:165] Memory required for data: 209893404
I0524 09:18:40.588886   849 layer_factory.hpp:77] Creating layer drop7
I0524 09:18:40.588893   849 net.cpp:100] Creating Layer drop7
I0524 09:18:40.588898   849 net.cpp:434] drop7 <- fc7
I0524 09:18:40.588904   849 net.cpp:395] drop7 -> fc7 (in-place)
I0524 09:18:40.588944   849 net.cpp:150] Setting up drop7
I0524 09:18:40.588956   849 net.cpp:157] Top shape: 1 2048 (2048)
I0524 09:18:40.588963   849 net.cpp:165] Memory required for data: 209901596
I0524 09:18:40.588968   849 layer_factory.hpp:77] Creating layer fc8
I0524 09:18:40.588989   849 net.cpp:100] Creating Layer fc8
I0524 09:18:40.588994   849 net.cpp:434] fc8 <- fc7
I0524 09:18:40.589002   849 net.cpp:408] fc8 -> fc8
I0524 09:18:40.590010   849 net.cpp:150] Setting up fc8
I0524 09:18:40.590026   849 net.cpp:157] Top shape: 1 10 (10)
I0524 09:18:40.590072   849 net.cpp:165] Memory required for data: 209901636
I0524 09:18:40.590085   849 layer_factory.hpp:77] Creating layer fc8_fc8_0_split
I0524 09:18:40.590111   849 net.cpp:100] Creating Layer fc8_fc8_0_split
I0524 09:18:40.590117   849 net.cpp:434] fc8_fc8_0_split <- fc8
I0524 09:18:40.590126   849 net.cpp:408] fc8_fc8_0_split -> fc8_fc8_0_split_0
I0524 09:18:40.590139   849 net.cpp:408] fc8_fc8_0_split -> fc8_fc8_0_split_1
I0524 09:18:40.590201   849 net.cpp:150] Setting up fc8_fc8_0_split
I0524 09:18:40.590212   849 net.cpp:157] Top shape: 1 10 (10)
I0524 09:18:40.590220   849 net.cpp:157] Top shape: 1 10 (10)
I0524 09:18:40.590226   849 net.cpp:165] Memory required for data: 209901716
I0524 09:18:40.590231   849 layer_factory.hpp:77] Creating layer prob
I0524 09:18:40.590250   849 net.cpp:100] Creating Layer prob
I0524 09:18:40.590258   849 net.cpp:434] prob <- fc8_fc8_0_split_0
I0524 09:18:40.590265   849 net.cpp:408] prob -> prob
I0524 09:18:40.590632   849 net.cpp:150] Setting up prob
I0524 09:18:40.590647   849 net.cpp:157] Top shape: 1 10 (10)
I0524 09:18:40.590653   849 net.cpp:165] Memory required for data: 209901756
I0524 09:18:40.590659   849 layer_factory.hpp:77] Creating layer prob_prob_0_split
I0524 09:18:40.590668   849 net.cpp:100] Creating Layer prob_prob_0_split
I0524 09:18:40.590675   849 net.cpp:434] prob_prob_0_split <- prob
I0524 09:18:40.590685   849 net.cpp:408] prob_prob_0_split -> prob_prob_0_split_0
I0524 09:18:40.590697   849 net.cpp:408] prob_prob_0_split -> prob_prob_0_split_1
I0524 09:18:40.590764   849 net.cpp:150] Setting up prob_prob_0_split
I0524 09:18:40.590773   849 net.cpp:157] Top shape: 1 10 (10)
I0524 09:18:40.590782   849 net.cpp:157] Top shape: 1 10 (10)
I0524 09:18:40.590788   849 net.cpp:165] Memory required for data: 209901836
I0524 09:18:40.590795   849 layer_factory.hpp:77] Creating layer accuracy
I0524 09:18:40.590806   849 net.cpp:100] Creating Layer accuracy
I0524 09:18:40.590812   849 net.cpp:434] accuracy <- prob_prob_0_split_0
I0524 09:18:40.590821   849 net.cpp:434] accuracy <- label_label_parse_0_split_0
I0524 09:18:40.590832   849 net.cpp:408] accuracy -> accuracy/top-1
…
