…
    mean_value: 65
    mean_value: 74
    mean_value: 92
    mean_value: 65
    mean_value: 74
    mean_value: 92
    mean_value: 65
    mean_value: 74
    mean_value: 92
    mean_value: 65
    mean_value: 74
    mean_value: 92
    mean_value: 65
    mean_value: 74
    mean_value: 92
    mean_value: 65
    mean_value: 74
    mean_value: 92
    mean_value: 65
    mean_value: 74
    mean_value: 92
    mean_value: 65
    mean_value: 74
    mean_value: 92
  }
  data_param {
    source: "/data/leo-data/Synthetic/LMDB/Triplets/train"
    batch_size: 18
    backend: LMDB
  }
}
layer {
  name: "slicer"
  type: "Slice"
  bottom: "triplet"
  top: "anchor_stacked"
  top: "positive_stacked"
  top: "negative_stacked"
  slice_param {
    slice_dim: 1
    slice_point: 48
    slice_point: 96
  }
}
layer {
  name: "reshape_anchor"
  type: "Reshape"
  bottom: "anchor_stacked"
  top: "anchor"
  reshape_param {
    shape {
      dim: 0
      dim: 3
      dim: 16
      dim: 112
      dim: 112
    }
  }
}
layer {
  name: "reshape_positive"
  type: "Reshape"
  bottom: "positive_stacked"
  top: "positive"
  reshape_param {
    shape {
      dim: 0
      dim: 3
      dim: 16
      dim: 112
      dim: 112
    }
  }
}
layer {
  name: "reshape_negative"
  type: "Reshape"
  bottom: "negative_stacked"
  top: "negative"
  reshape_param {
    shape {
      dim: 0
      dim: 3
      dim: 16
      dim: 112
      dim: 112
    }
  }
}
layer {
  name: "conv1a"
  type: "NdConvolution"
  bottom: "anchor"
  top: "conv1a"
  param {
    name: "conv1a_w"
    lr_mult: 1
    decay_mult: 1
  }
  param {
    name: "conv1a_b"
    lr_mult: 2
    decay_mult: 0
  }
  convolution_param {
    num_output: 64
    weight_filler {
      type: "gaussian"
      std: 0.01
    }
    bias_filler {
      type: "constant"
      value: 0
    }
    pad_shape {
      dim: 1
      dim: 1
      dim: 1
    }
    kernel_shape {
      dim: 3
      dim: 3
      dim: 3
    }
    stride_shape {
      dim: 1
      dim: 1
      dim: 1
    }
  }
}
layer {
  name: "relu1a"
  type: "ReLU"
  bottom: "conv1a"
  top: "conv1a"
}
layer {
  name: "pool1"
  type: "NdPooling"
  bottom: "conv1a"
  top: "pool1"
  pooling_param {
    pool: MAX
    kernel_shape {
      dim: 1
      dim: 2
      dim: 2
    }
    stride_shape {
      dim: 1
      dim: 2
      dim: 2
    }
  }
}
layer {
  name: "conv2a"
  type: "NdConvolution"
  bottom: "pool1"
  top: "conv2a"
  param {
    name: "conv2a_w"
    lr_mult: 1
    decay_mult: 1
  }
  param {
    name: "conv2a_b"
    lr_mult: 2
    decay_mult: 0
  }
  convolution_param {
    num_output: 128
    weight_filler {
      type: "gaussian"
      std: 0.01
    }
    bias_filler {
      type: "constant"
      value: 1
    }
    pad_shape {
      dim: 1
      dim: 1
      dim: 1
    }
    kernel_shape {
      dim: 3
      dim: 3
      dim: 3
    }
    stride_shape {
      dim: 1
      dim: 1
      dim: 1
    }
  }
}
layer {
  name: "relu2a"
  type: "ReLU"
  bottom: "conv2a"
  top: "conv2a"
}
layer {
  name: "pool2"
  type: "NdPooling"
  bottom: "conv2a"
  top: "pool2"
  pooling_param {
    pool: MAX
    kernel_shape {
      dim: 2
      dim: 2
      dim: 2
    }
    stride_shape {
      dim: 2
      dim: 2
      dim: 2
    }
  }
}
layer {
  name: "conv3a"
  type: "NdConvolution"
  bottom: "pool2"
  top: "conv3a"
  param {
    name: "conv3a_w"
    lr_mult: 1
    decay_mult: 1
  }
  param {
    name: "conv3a_b"
    lr_mult: 2
    decay_mult: 0
  }
  convolution_param {
    num_output: 256
    weight_filler {
      type: "gaussian"
      std: 0.01
    }
    bias_filler {
      type: "constant"
      value: 1
    }
    pad_shape {
      dim: 1
      dim: 1
      dim: 1
    }
    kernel_shape {
      dim: 3
      dim: 3
      dim: 3
    }
    stride_shape {
      dim: 1
      dim: 1
      dim: 1
    }
  }
}
layer {
  name: "relu3a"
  type: "ReLU"
  bottom: "conv3a"
  top: "conv3a"
}
layer {
  name: "pool3"
  type: "NdPooling"
  bottom: "conv3a"
  top: "pool3"
  pooling_param {
    pool: MAX
    kernel_shape {
      dim: 2
      dim: 2
      dim: 2
    }
    stride_shape {
      dim: 2
      dim: 2
      dim: 2
    }
  }
}
layer {
  name: "conv4a"
  type: "NdConvolution"
  bottom: "pool3"
  top: "conv4a"
  param {
    name: "conv4a_w"
    lr_mult: 1
    decay_mult: 1
  }
  param {
    name: "conv4a_b"
    lr_mult: 2
    decay_mult: 0
  }
  convolution_param {
    num_output: 256
    weight_filler {
      type: "gaussian"
      std: 0.01
    }
    bias_filler {
      type: "constant"
      value: 1
    }
    pad_shape {
      dim: 1
      dim: 1
      dim: 1
    }
    kernel_shape {
      dim: 3
      dim: 3
      dim: 3
    }
    stride_shape {
      dim: 1
      dim: 1
      dim: 1
    }
  }
}
layer {
  name: "relu4a"
  type: "ReLU"
  bottom: "conv4a"
  top: "conv4a"
}
layer {
  name: "pool4"
  type: "NdPooling"
  bottom: "conv4a"
  top: "pool4"
  pooling_param {
    pool: MAX
    kernel_shape {
      dim: 2
      dim: 2
      dim: 2
    }
    stride_shape {
      dim: 2
      dim: 2
      dim: 2
    }
  }
}
layer {
  name: "conv5a"
  type: "NdConvolution"
  bottom: "pool4"
  top: "conv5a"
  param {
    name: "conv5a_w"
    lr_mult: 1
    decay_mult: 1
  }
  param {
    name: "conv5a_b"
    lr_mult: 2
    decay_mult: 0
  }
  convolution_param {
    num_output: 256
    weight_filler {
      type: "gaussian"
      std: 0.01
    }
    bias_filler {
      type: "constant"
      value: 1
    }
    pad_shape {
      dim: 1
      dim: 1
      dim: 1
    }
    kernel_shape {
      dim: 3
      dim: 3
      dim: 3
    }
    stride_shape {
      dim: 1
      dim: 1
      dim: 1
    }
  }
}
layer {
  name: "relu5a"
  type: "ReLU"
  bottom: "conv5a"
  top: "conv5a"
}
layer {
  name: "pool5"
  type: "NdPooling"
  bottom: "conv5a"
  top: "pool5"
  pooling_param {
    pool: MAX
    kernel_shape {
      dim: 2
      dim: 2
      dim: 2
    }
    stride_shape {
      dim: 2
      dim: 2
      dim: 2
    }
  }
}
layer {
  name: "fc6"
  type: "InnerProduct"
  bottom: "pool5"
  top: "fc6"
  param {
    name: "fc6_w"
    lr_mult: 1
    decay_mult: 1
  }
  param {
    name: "fc6_b"
    lr_mult: 2
    decay_mult: 0
  }
  inner_product_param {
    num_output: 2048
    weight_filler {
      type: "gaussian"
      std: 0.005
    }
    bias_filler {
      type: "constant"
      value: 1
    }
  }
}
layer {
  name: "relu6"
  type: "ReLU"
  bottom: "fc6"
  top: "fc6"
}
layer {
  name: "drop6"
  type: "Dropout"
  bottom: "fc6"
  top: "fc6"
  dropout_param {
    dropout_ratio: 0.5
  }
}
layer {
  name: "fc7"
  type: "InnerProduct"
  bottom: "fc6"
  top: "fc7"
  param {
    name: "fc7_w"
    lr_mult: 1
    decay_mult: 1
  }
  param {
    name: "fc7_b"
    lr_mult: 2
    decay_mult: 0
  }
  inner_product_param {
    num_output: 2048
    weight_filler {
      type: "gaussian"
      std: 0.005
    }
    bias_filler {
      type: "constant"
      value: 1
    }
  }
}
layer {
  name: "relu7"
  type: "ReLU"
  bottom: "fc7"
  top: "fc7"
}
layer {
  name: "drop7"
  type: "Dropout"
  bottom: "fc7"
  top: "fc7"
  dropout_param {
    dropout_ratio: 0.5
  }
}
layer {
  name: "conv1a_pos"
  type: "NdConvolution"
  bottom: "positive"
  top: "conv1a_pos"
  param {
    name: "conv1a_w"
    lr_mult: 1
    decay_mult: 1
  }
  param {
    name: "conv1a_b"
    lr_mult: 2
    decay_mult: 0
  }
  convolution_param {
    num_output: 64
    weight_filler {
      type: "gaussian"
      std: 0.01
    }
    bias_filler {
      type: "constant"
      value: 0
    }
    pad_shape {
      dim: 1
      dim: 1
      dim: 1
    }
    kernel_shape {
      dim: 3
      dim: 3
      dim: 3
    }
    stride_shape {
      dim: 1
      dim: 1
      dim: 1
    }
  }
}
layer {
  name: "relu1a_pos"
  type: "ReLU"
  bottom: "conv1a_pos"
  top: "conv1a_pos"
}
layer {
  name: "pool1_pos"
  type: "NdPooling"
  bottom: "conv1a_pos"
  top: "pool1_pos"
  pooling_param {
    pool: MAX
    kernel_shape {
      dim: 1
      dim: 2
      dim: 2
    }
    stride_shape {
      dim: 1
      dim: 2
      dim: 2
    }
  }
}
layer {
  name: "conv2a_pos"
  type: "NdConvolution"
  bottom: "pool1_pos"
  top: "conv2a_pos"
  param {
    name: "conv2a_w"
    lr_mult: 1
    decay_mult: 1
  }
  param {
    name: "conv2a_b"
    lr_mult: 2
    decay_mult: 0
  }
  convolution_param {
    num_output: 128
    weight_filler {
      type: "gaussian"
      std: 0.01
    }
    bias_filler {
      type: "constant"
      value: 1
    }
    pad_shape {
      dim: 1
      dim: 1
      dim: 1
    }
    kernel_shape {
      dim: 3
      dim: 3
      dim: 3
    }
    stride_shape {
      dim: 1
      dim: 1
      dim: 1
    }
  }
}
layer {
  name: "relu2a_pos"
  type: "ReLU"
  bottom: "conv2a_pos"
  top: "conv2a_pos"
}
layer {
  name: "pool2_pos"
  type: "NdPooling"
  bottom: "conv2a_pos"
  top: "pool2_pos"
  pooling_param {
    pool: MAX
    kernel_shape {
      dim: 2
      dim: 2
      dim: 2
    }
    stride_shape {
      dim: 2
      dim: 2
      dim: 2
    }
  }
}
layer {
  name: "conv3a_pos"
  type: "NdConvolution"
  bottom: "pool2_pos"
  top: "conv3a_pos"
  param {
    name: "conv3a_w"
    lr_mult: 1
    decay_mult: 1
  }
  param {
    name: "conv3a_b"
    lr_mult: 2
    decay_mult: 0
  }
  convolution_param {
    num_output: 256
    weight_filler {
      type: "gaussian"
      std: 0.01
    }
    bias_filler {
      type: "constant"
      value: 1
    }
    pad_shape {
      dim: 1
      dim: 1
      dim: 1
    }
    kernel_shape {
      dim: 3
      dim: 3
      dim: 3
    }
    stride_shape {
      dim: 1
      dim: 1
      dim: 1
    }
  }
}
layer {
  name: "relu3a_pos"
  type: "ReLU"
  bottom: "conv3a_pos"
  top: "conv3a_pos"
}
layer {
  name: "pool3_pos"
  type: "NdPooling"
  bottom: "conv3a_pos"
  top: "pool3_pos"
  pooling_param {
    pool: MAX
    kernel_shape {
      dim: 2
      dim: 2
      dim: 2
    }
    stride_shape {
      dim: 2
      dim: 2
      dim: 2
    }
  }
}
layer {
  name: "conv4a_pos"
  type: "NdConvolution"
  bottom: "pool3_pos"
  top: "conv4a_pos"
  param {
    name: "conv4a_w"
    lr_mult: 1
    decay_mult: 1
  }
  param {
    name: "conv4a_b"
    lr_mult: 2
    decay_mult: 0
  }
  convolution_param {
    num_output: 256
    weight_filler {
      type: "gaussian"
      std: 0.01
    }
    bias_filler {
      type: "constant"
      value: 1
    }
    pad_shape {
      dim: 1
      dim: 1
      dim: 1
    }
    kernel_shape {
      dim: 3
      dim: 3
      dim: 3
    }
    stride_shape {
      dim: 1
      dim: 1
      dim: 1
    }
  }
}
layer {
  name: "relu4a_pos"
  type: "ReLU"
  bottom: "conv4a_pos"
  top: "conv4a_pos"
}
layer {
  name: "pool4_pos"
  type: "NdPooling"
  bottom: "conv4a_pos"
  top: "pool4_pos"
  pooling_param {
    pool: MAX
    kernel_shape {
      dim: 2
      dim: 2
      dim: 2
    }
    stride_shape {
      dim: 2
      dim: 2
      dim: 2
    }
  }
}
layer {
  name: "conv5a_pos"
  type: "NdConvolution"
  bottom: "pool4_pos"
  top: "conv5a_pos"
  param {
    name: "conv5a_w"
    lr_mult: 1
    decay_mult: 1
  }
  param {
    name: "conv5a_b"
    lr_mult: 2
    decay_mult: 0
  }
  convolution_param {
    num_output: 256
    weight_filler {
      type: "gaussian"
      std: 0.01
    }
    bias_filler {
      type: "constant"
      value: 1
    }
    pad_shape {
      dim: 1
      dim: 1
      dim: 1
    }
    kernel_shape {
      dim: 3
      dim: 3
      dim: 3
    }
    stride_shape {
      dim: 1
      dim: 1
      dim: 1
    }
  }
}
layer {
  name: "relu5a_pos"
  type: "ReLU"
  bottom: "conv5a_pos"
  top: "conv5a_pos"
}
layer {
  name: "pool5_pos"
  type: "NdPooling"
  bottom: "conv5a_pos"
  top: "pool5_pos"
  pooling_param {
    pool: MAX
    kernel_shape {
      dim: 2
      dim: 2
      dim: 2
    }
    stride_shape {
      dim: 2
      dim: 2
      dim: 2
    }
  }
}
layer {
  name: "fc6_pos"
  type: "InnerProduct"
  bottom: "pool5_pos"
  top: "fc6_pos"
  param {
    name: "fc6_w"
    lr_mult: 1
    decay_mult: 1
  }
  param {
    name: "fc6_b"
    lr_mult: 2
    decay_mult: 0
  }
  inner_product_param {
    num_output: 2048
    weight_filler {
      type: "gaussian"
      std: 0.005
    }
    bias_filler {
      type: "constant"
      value: 1
    }
  }
}
layer {
  name: "relu6_pos"
  type: "ReLU"
  bottom: "fc6_pos"
  top: "fc6_pos"
}
layer {
  name: "drop6_pos"
  type: "Dropout"
  bottom: "fc6_pos"
  top: "fc6_pos"
  dropout_param {
    dropout_ratio: 0.5
  }
}
layer {
  name: "fc7_pos"
  type: "InnerProduct"
  bottom: "fc6_pos"
  top: "fc7_pos"
  param {
    name: "fc7_w"
    lr_mult: 1
    decay_mult: 1
  }
  param {
    name: "fc7_b"
    lr_mult: 2
    decay_mult: 0
  }
  inner_product_param {
    num_output: 2048
    weight_filler {
      type: "gaussian"
      std: 0.005
    }
    bias_filler {
      type: "constant"
      value: 1
    }
  }
}
layer {
  name: "relu7_pos"
  type: "ReLU"
  bottom: "fc7_pos"
  top: "fc7_pos"
}
layer {
  name: "drop7_pos"
  type: "Dropout"
  bottom: "fc7_pos"
  top: "fc7_pos"
  dropout_param {
    dropout_ratio: 0.5
  }
}
layer {
  name: "conv1a_neg"
  type: "NdConvolution"
  bottom: "negative"
  top: "conv1a_neg"
  param {
    name: "conv1a_w"
    lr_mult: 1
    decay_mult: 1
  }
  param {
    name: "conv1a_b"
    lr_mult: 2
    decay_mult: 0
  }
  convolution_param {
    num_output: 64
    weight_filler {
      type: "gaussian"
      std: 0.01
    }
    bias_filler {
      type: "constant"
      value: 0
    }
    pad_shape {
      dim: 1
      dim: 1
      dim: 1
    }
    kernel_shape {
      dim: 3
      dim: 3
      dim: 3
    }
    stride_shape {
      dim: 1
      dim: 1
      dim: 1
    }
  }
}
layer {
  name: "relu1a_neg"
  type: "ReLU"
  bottom: "conv1a_neg"
  top: "conv1a_neg"
}
layer {
  name: "pool1_neg"
  type: "NdPooling"
  bottom: "conv1a_neg"
  top: "pool1_neg"
  pooling_param {
    pool: MAX
    kernel_shape {
      dim: 1
      dim: 2
      dim: 2
    }
    stride_shape {
      dim: 1
      dim: 2
      dim: 2
    }
  }
}
layer {
  name: "conv2a_neg"
  type: "NdConvolution"
  bottom: "pool1_neg"
  top: "conv2a_neg"
  param {
    name: "conv2a_w"
    lr_mult: 1
    decay_mult: 1
  }
  param {
    name: "conv2a_b"
    lr_mult: 2
    decay_mult: 0
  }
  convolution_param {
    num_output: 128
    weight_filler {
      type: "gaussian"
      std: 0.01
    }
    bias_filler {
      type: "constant"
      value: 1
    }
    pad_shape {
      dim: 1
      dim: 1
      dim: 1
    }
    kernel_shape {
      dim: 3
      dim: 3
      dim: 3
    }
    stride_shape {
      dim: 1
      dim: 1
      dim: 1
    }
  }
}
layer {
  name: "relu2a_neg"
  type: "ReLU"
  bottom: "conv2a_neg"
  top: "conv2a_neg"
}
layer {
  name: "pool2_neg"
  type: "NdPooling"
  bottom: "conv2a_neg"
  top: "pool2_neg"
  pooling_param {
    pool: MAX
    kernel_shape {
      dim: 2
      dim: 2
      dim: 2
    }
    stride_shape {
      dim: 2
      dim: 2
      dim: 2
    }
  }
}
layer {
  name: "conv3a_neg"
  type: "NdConvolution"
  bottom: "pool2_neg"
  top: "conv3a_neg"
  param {
    name: "conv3a_w"
    lr_mult: 1
    decay_mult: 1
  }
  param {
    name: "conv3a_b"
    lr_mult: 2
    decay_mult: 0
  }
  convolution_param {
    num_output: 256
    weight_filler {
      type: "gaussian"
      std: 0.01
    }
    bias_filler {
      type: "constant"
      value: 1
    }
    pad_shape {
      dim: 1
      dim: 1
      dim: 1
    }
    kernel_shape {
      dim: 3
      dim: 3
      dim: 3
    }
    stride_shape {
      dim: 1
      dim: 1
      dim: 1
    }
  }
}
layer {
  name: "relu3a_neg"
  type: "ReLU"
  bottom: "conv3a_neg"
  top: "conv3a_neg"
}
layer {
  name: "pool3_neg"
  type: "NdPooling"
  bottom: "conv3a_neg"
  top: "pool3_neg"
  pooling_param {
    pool: MAX
    kernel_shape {
      dim: 2
      dim: 2
      dim: 2
    }
    stride_shape {
      dim: 2
      dim: 2
      dim: 2
    }
  }
}
layer {
  name: "conv4a_neg"
  type: "NdConvolution"
  bottom: "pool3_neg"
  top: "conv4a_neg"
  param {
    name: "conv4a_w"
    lr_mult: 1
    decay_mult: 1
  }
  param {
    name: "conv4a_b"
    lr_mult: 2
    decay_mult: 0
  }
  convolution_param {
    num_output: 256
    weight_filler {
      type: "gaussian"
      std: 0.01
    }
    bias_filler {
      type: "constant"
      value: 1
    }
    pad_shape {
      dim: 1
      dim: 1
      dim: 1
    }
    kernel_shape {
      dim: 3
      dim: 3
      dim: 3
    }
    stride_shape {
      dim: 1
      dim: 1
      dim: 1
    }
  }
}
layer {
  name: "relu4a_neg"
  type: "ReLU"
  bottom: "conv4a_neg"
  top: "conv4a_neg"
}
layer {
  name: "pool4_neg"
  type: "NdPooling"
  bottom: "conv4a_neg"
  top: "pool4_neg"
  pooling_param {
    pool: MAX
    kernel_shape {
      dim: 2
      dim: 2
      dim: 2
    }
    stride_shape {
      dim: 2
      dim: 2
      dim: 2
    }
  }
}
layer {
  name: "conv5a_neg"
  type: "NdConvolution"
  bottom: "pool4_neg"
  top: "conv5a_neg"
  param {
    name: "conv5a_w"
    lr_mult: 1
    decay_mult: 1
  }
  param {
    name: "conv5a_b"
    lr_mult: 2
    decay_mult: 0
  }
  convolution_param {
    num_output: 256
    weight_filler {
      type: "gaussian"
      std: 0.01
    }
    bias_filler {
      type: "constant"
      value: 1
    }
    pad_shape {
      dim: 1
      dim: 1
      dim: 1
    }
    kernel_shape {
      dim: 3
      dim: 3
      dim: 3
    }
    stride_shape {
      dim: 1
      dim: 1
      dim: 1
    }
  }
}
layer {
  name: "relu5a_neg"
  type: "ReLU"
  bottom: "conv5a_neg"
  top: "conv5a_neg"
}
layer {
  name: "pool5_neg"
  type: "NdPooling"
  bottom: "conv5a_neg"
  top: "pool5_neg"
  pooling_param {
    pool: MAX
    kernel_shape {
      dim: 2
      dim: 2
      dim: 2
    }
    stride_shape {
      dim: 2
      dim: 2
      dim: 2
    }
  }
}
layer {
  name: "fc6_neg"
  type: "InnerProduct"
  bottom: "pool5_neg"
  top: "fc6_neg"
  param {
    name: "fc6_w"
    lr_mult: 1
    decay_mult: 1
  }
  param {
    name: "fc6_b"
    lr_mult: 2
    decay_mult: 0
  }
  inner_product_param {
    num_output: 2048
    weight_filler {
      type: "gaussian"
      std: 0.005
    }
    bias_filler {
      type: "constant"
      value: 1
    }
  }
}
layer {
  name: "relu6_neg"
  type: "ReLU"
  bottom: "fc6_neg"
  top: "fc6_neg"
}
layer {
  name: "drop6_neg"
  type: "Dropout"
  bottom: "fc6_neg"
  top: "fc6_neg"
  dropout_param {
    dropout_ratio: 0.5
  }
}
layer {
  name: "fc7_neg"
  type: "InnerProduct"
  bottom: "fc6_neg"
  top: "fc7_neg"
  param {
    name: "fc7_w"
    lr_mult: 1
    decay_mult: 1
  }
  param {
    name: "fc7_b"
    lr_mult: 2
    decay_mult: 0
  }
  inner_product_param {
    num_output: 2048
    weight_filler {
      type: "gaussian"
      std: 0.005
    }
    bias_filler {
      type: "constant"
      value: 1
    }
  }
}
layer {
  name: "relu7_neg"
  type: "ReLU"
  bottom: "fc7_neg"
  top: "fc7_neg"
}
layer {
  name: "drop7_neg"
  type: "Dropout"
  bottom: "fc7_neg"
  top: "fc7_neg"
  dropout_param {
    dropout_ratio: 0.5
  }
}
layer {
  name: "loss"
  type: "TripletLoss"
  bottom: "fc7"
  bottom: "fc7_pos"
  bottom: "fc7_neg"
  top: "loss"
  threshold_param {
    threshold: 1
  }
}
I0508 16:39:54.147830  1788 layer_factory.hpp:77] Creating layer data
I0508 16:39:54.149060  1788 net.cpp:100] Creating Layer data
I0508 16:39:54.149178  1788 net.cpp:408] data -> triplet
I0508 16:39:54.197372  1794 db_lmdb.cpp:35] Opened lmdb /data/leo-data/Synthetic/LMDB/Triplets/train
I0508 16:39:54.554232  1788 data_layer.cpp:41] output data size: 18,144,112,112
I0508 16:39:54.902745  1788 net.cpp:150] Setting up data
I0508 16:39:54.902794  1788 net.cpp:157] Top shape: 18 144 112 112 (32514048)
I0508 16:39:54.902799  1788 net.cpp:165] Memory required for data: 130056192
I0508 16:39:54.902812  1788 layer_factory.hpp:77] Creating layer slicer
I0508 16:39:54.902947  1788 net.cpp:100] Creating Layer slicer
I0508 16:39:54.902967  1788 net.cpp:434] slicer <- triplet
I0508 16:39:54.902987  1788 net.cpp:408] slicer -> anchor_stacked
I0508 16:39:54.903033  1788 net.cpp:408] slicer -> positive_stacked
I0508 16:39:54.903064  1788 net.cpp:408] slicer -> negative_stacked
I0508 16:39:54.903198  1788 net.cpp:150] Setting up slicer
I0508 16:39:54.903218  1788 net.cpp:157] Top shape: 18 48 112 112 (10838016)
I0508 16:39:54.903226  1788 net.cpp:157] Top shape: 18 48 112 112 (10838016)
I0508 16:39:54.903234  1788 net.cpp:157] Top shape: 18 48 112 112 (10838016)
I0508 16:39:54.903239  1788 net.cpp:165] Memory required for data: 260112384
I0508 16:39:54.903244  1788 layer_factory.hpp:77] Creating layer reshape_anchor
I0508 16:39:54.903276  1788 net.cpp:100] Creating Layer reshape_anchor
I0508 16:39:54.903285  1788 net.cpp:434] reshape_anchor <- anchor_stacked
I0508 16:39:54.903301  1788 net.cpp:408] reshape_anchor -> anchor
I0508 16:39:54.903360  1788 net.cpp:150] Setting up reshape_anchor
I0508 16:39:54.903373  1788 net.cpp:157] Top shape: 18 3 16 112 112 (10838016)
I0508 16:39:54.903378  1788 net.cpp:165] Memory required for data: 303464448
I0508 16:39:54.903384  1788 layer_factory.hpp:77] Creating layer reshape_positive
I0508 16:39:54.903394  1788 net.cpp:100] Creating Layer reshape_positive
I0508 16:39:54.903401  1788 net.cpp:434] reshape_positive <- positive_stacked
I0508 16:39:54.903412  1788 net.cpp:408] reshape_positive -> positive
I0508 16:39:54.903478  1788 net.cpp:150] Setting up reshape_positive
I0508 16:39:54.903491  1788 net.cpp:157] Top shape: 18 3 16 112 112 (10838016)
I0508 16:39:54.903496  1788 net.cpp:165] Memory required for data: 346816512
I0508 16:39:54.903501  1788 layer_factory.hpp:77] Creating layer reshape_negative
I0508 16:39:54.903512  1788 net.cpp:100] Creating Layer reshape_negative
I0508 16:39:54.903519  1788 net.cpp:434] reshape_negative <- negative_stacked
I0508 16:39:54.903530  1788 net.cpp:408] reshape_negative -> negative
I0508 16:39:54.903565  1788 net.cpp:150] Setting up reshape_negative
I0508 16:39:54.903580  1788 net.cpp:157] Top shape: 18 3 16 112 112 (10838016)
I0508 16:39:54.903585  1788 net.cpp:165] Memory required for data: 390168576
I0508 16:39:54.903591  1788 layer_factory.hpp:77] Creating layer conv1a
I0508 16:39:54.903611  1788 net.cpp:100] Creating Layer conv1a
I0508 16:39:54.903617  1788 net.cpp:434] conv1a <- anchor
I0508 16:39:54.903668  1788 net.cpp:408] conv1a -> conv1a
I0508 16:39:55.435583  1795 blocking_queue.cpp:50] Waiting for data
I0508 16:39:56.021843  1788 net.cpp:150] Setting up conv1a
I0508 16:39:56.021883  1788 net.cpp:157] Top shape: 18 64 16 112 112 (231211008)
I0508 16:39:56.021889  1788 net.cpp:165] Memory required for data: 1315012608
I0508 16:39:56.021917  1788 layer_factory.hpp:77] Creating layer relu1a
I0508 16:39:56.021936  1788 net.cpp:100] Creating Layer relu1a
I0508 16:39:56.021951  1788 net.cpp:434] relu1a <- conv1a
I0508 16:39:56.021963  1788 net.cpp:395] relu1a -> conv1a (in-place)
I0508 16:39:56.023154  1788 net.cpp:150] Setting up relu1a
I0508 16:39:56.023176  1788 net.cpp:157] Top shape: 18 64 16 112 112 (231211008)
I0508 16:39:56.023185  1788 net.cpp:165] Memory required for data: 2239856640
I0508 16:39:56.023195  1788 layer_factory.hpp:77] Creating layer pool1
I0508 16:39:56.023212  1788 net.cpp:100] Creating Layer pool1
I0508 16:39:56.023222  1788 net.cpp:434] pool1 <- conv1a
I0508 16:39:56.023236  1788 net.cpp:408] pool1 -> pool1
I0508 16:39:56.023581  1788 net.cpp:150] Setting up pool1
I0508 16:39:56.023602  1788 net.cpp:157] Top shape: 18 64 16 56 56 (57802752)
I0508 16:39:56.023610  1788 net.cpp:165] Memory required for data: 2471067648
I0508 16:39:56.023619  1788 layer_factory.hpp:77] Creating layer conv2a
I0508 16:39:56.023641  1788 net.cpp:100] Creating Layer conv2a
I0508 16:39:56.023651  1788 net.cpp:434] conv2a <- pool1
I0508 16:39:56.023665  1788 net.cpp:408] conv2a -> conv2a
I0508 16:39:56.038214  1788 net.cpp:150] Setting up conv2a
I0508 16:39:56.038241  1788 net.cpp:157] Top shape: 18 128 16 56 56 (115605504)
I0508 16:39:56.038249  1788 net.cpp:165] Memory required for data: 2933489664
I0508 16:39:56.038269  1788 layer_factory.hpp:77] Creating layer relu2a
I0508 16:39:56.038308  1788 net.cpp:100] Creating Layer relu2a
I0508 16:39:56.038316  1788 net.cpp:434] relu2a <- conv2a
I0508 16:39:56.038327  1788 net.cpp:395] relu2a -> conv2a (in-place)
I0508 16:39:56.039461  1788 net.cpp:150] Setting up relu2a
I0508 16:39:56.039482  1788 net.cpp:157] Top shape: 18 128 16 56 56 (115605504)
I0508 16:39:56.039489  1788 net.cpp:165] Memory required for data: 3395911680
I0508 16:39:56.039497  1788 layer_factory.hpp:77] Creating layer pool2
I0508 16:39:56.039515  1788 net.cpp:100] Creating Layer pool2
I0508 16:39:56.039523  1788 net.cpp:434] pool2 <- conv2a
I0508 16:39:56.039538  1788 net.cpp:408] pool2 -> pool2
I0508 16:39:56.039860  1788 net.cpp:150] Setting up pool2
I0508 16:39:56.039875  1788 net.cpp:157] Top shape: 18 128 8 28 28 (14450688)
I0508 16:39:56.039883  1788 net.cpp:165] Memory required for data: 3453714432
I0508 16:39:56.039891  1788 layer_factory.hpp:77] Creating layer conv3a
I0508 16:39:56.039911  1788 net.cpp:100] Creating Layer conv3a
I0508 16:39:56.039918  1788 net.cpp:434] conv3a <- pool2
I0508 16:39:56.039933  1788 net.cpp:408] conv3a -> conv3a
I0508 16:39:56.099985  1788 net.cpp:150] Setting up conv3a
I0508 16:39:56.100024  1788 net.cpp:157] Top shape: 18 256 8 28 28 (28901376)
I0508 16:39:56.100031  1788 net.cpp:165] Memory required for data: 3569319936
I0508 16:39:56.100100  1788 layer_factory.hpp:77] Creating layer relu3a
I0508 16:39:56.100118  1788 net.cpp:100] Creating Layer relu3a
I0508 16:39:56.100127  1788 net.cpp:434] relu3a <- conv3a
I0508 16:39:56.100138  1788 net.cpp:395] relu3a -> conv3a (in-place)
I0508 16:39:56.101145  1788 net.cpp:150] Setting up relu3a
I0508 16:39:56.101161  1788 net.cpp:157] Top shape: 18 256 8 28 28 (28901376)
I0508 16:39:56.101167  1788 net.cpp:165] Memory required for data: 3684925440
I0508 16:39:56.101174  1788 layer_factory.hpp:77] Creating layer pool3
I0508 16:39:56.101193  1788 net.cpp:100] Creating Layer pool3
I0508 16:39:56.101200  1788 net.cpp:434] pool3 <- conv3a
I0508 16:39:56.101213  1788 net.cpp:408] pool3 -> pool3
I0508 16:39:56.101501  1788 net.cpp:150] Setting up pool3
I0508 16:39:56.101516  1788 net.cpp:157] Top shape: 18 256 4 14 14 (3612672)
I0508 16:39:56.101521  1788 net.cpp:165] Memory required for data: 3699376128
I0508 16:39:56.101528  1788 layer_factory.hpp:77] Creating layer conv4a
I0508 16:39:56.101547  1788 net.cpp:100] Creating Layer conv4a
I0508 16:39:56.101553  1788 net.cpp:434] conv4a <- pool3
I0508 16:39:56.101567  1788 net.cpp:408] conv4a -> conv4a
I0508 16:39:56.187109  1788 net.cpp:150] Setting up conv4a
I0508 16:39:56.187156  1788 net.cpp:157] Top shape: 18 256 4 14 14 (3612672)
I0508 16:39:56.187162  1788 net.cpp:165] Memory required for data: 3713826816
I0508 16:39:56.187178  1788 layer_factory.hpp:77] Creating layer relu4a
I0508 16:39:56.187194  1788 net.cpp:100] Creating Layer relu4a
I0508 16:39:56.187206  1788 net.cpp:434] relu4a <- conv4a
I0508 16:39:56.187222  1788 net.cpp:395] relu4a -> conv4a (in-place)
I0508 16:39:56.187458  1788 net.cpp:150] Setting up relu4a
I0508 16:39:56.187471  1788 net.cpp:157] Top shape: 18 256 4 14 14 (3612672)
I0508 16:39:56.187477  1788 net.cpp:165] Memory required for data: 3728277504
I0508 16:39:56.187484  1788 layer_factory.hpp:77] Creating layer pool4
I0508 16:39:56.187503  1788 net.cpp:100] Creating Layer pool4
I0508 16:39:56.187510  1788 net.cpp:434] pool4 <- conv4a
I0508 16:39:56.187523  1788 net.cpp:408] pool4 -> pool4
I0508 16:39:56.189992  1788 net.cpp:150] Setting up pool4
I0508 16:39:56.190011  1788 net.cpp:157] Top shape: 18 256 2 7 7 (451584)
I0508 16:39:56.190017  1788 net.cpp:165] Memory required for data: 3730083840
I0508 16:39:56.190023  1788 layer_factory.hpp:77] Creating layer conv5a
I0508 16:39:56.190042  1788 net.cpp:100] Creating Layer conv5a
I0508 16:39:56.190049  1788 net.cpp:434] conv5a <- pool4
I0508 16:39:56.190062  1788 net.cpp:408] conv5a -> conv5a
I0508 16:39:56.262161  1788 net.cpp:150] Setting up conv5a
I0508 16:39:56.262199  1788 net.cpp:157] Top shape: 18 256 2 7 7 (451584)
I0508 16:39:56.262205  1788 net.cpp:165] Memory required for data: 3731890176
I0508 16:39:56.262235  1788 layer_factory.hpp:77] Creating layer relu5a
I0508 16:39:56.262249  1788 net.cpp:100] Creating Layer relu5a
I0508 16:39:56.262260  1788 net.cpp:434] relu5a <- conv5a
I0508 16:39:56.262274  1788 net.cpp:395] relu5a -> conv5a (in-place)
I0508 16:39:56.262495  1788 net.cpp:150] Setting up relu5a
I0508 16:39:56.262507  1788 net.cpp:157] Top shape: 18 256 2 7 7 (451584)
I0508 16:39:56.262512  1788 net.cpp:165] Memory required for data: 3733696512
I0508 16:39:56.262518  1788 layer_factory.hpp:77] Creating layer pool5
I0508 16:39:56.262534  1788 net.cpp:100] Creating Layer pool5
I0508 16:39:56.262540  1788 net.cpp:434] pool5 <- conv5a
I0508 16:39:56.262553  1788 net.cpp:408] pool5 -> pool5
I0508 16:39:56.263523  1788 net.cpp:150] Setting up pool5
I0508 16:39:56.263541  1788 net.cpp:157] Top shape: 18 256 1 4 4 (73728)
I0508 16:39:56.263547  1788 net.cpp:165] Memory required for data: 3733991424
I0508 16:39:56.263553  1788 layer_factory.hpp:77] Creating layer fc6
I0508 16:39:56.263576  1788 net.cpp:100] Creating Layer fc6
I0508 16:39:56.263584  1788 net.cpp:434] fc6 <- pool5
I0508 16:39:56.263597  1788 net.cpp:408] fc6 -> fc6
I0508 16:39:56.560567  1788 net.cpp:150] Setting up fc6
I0508 16:39:56.560605  1788 net.cpp:157] Top shape: 18 2048 (36864)
I0508 16:39:56.560655  1788 net.cpp:165] Memory required for data: 3734138880
I0508 16:39:56.560677  1788 layer_factory.hpp:77] Creating layer relu6
I0508 16:39:56.560695  1788 net.cpp:100] Creating Layer relu6
I0508 16:39:56.560703  1788 net.cpp:434] relu6 <- fc6
I0508 16:39:56.560714  1788 net.cpp:395] relu6 -> fc6 (in-place)
I0508 16:39:56.560988  1788 net.cpp:150] Setting up relu6
I0508 16:39:56.561002  1788 net.cpp:157] Top shape: 18 2048 (36864)
I0508 16:39:56.561007  1788 net.cpp:165] Memory required for data: 3734286336
I0508 16:39:56.561012  1788 layer_factory.hpp:77] Creating layer drop6
I0508 16:39:56.561028  1788 net.cpp:100] Creating Layer drop6
I0508 16:39:56.561034  1788 net.cpp:434] drop6 <- fc6
I0508 16:39:56.561043  1788 net.cpp:395] drop6 -> fc6 (in-place)
I0508 16:39:56.561085  1788 net.cpp:150] Setting up drop6
I0508 16:39:56.561095  1788 net.cpp:157] Top shape: 18 2048 (36864)
I0508 16:39:56.561100  1788 net.cpp:165] Memory required for data: 3734433792
I0508 16:39:56.561105  1788 layer_factory.hpp:77] Creating layer fc7
I0508 16:39:56.561121  1788 net.cpp:100] Creating Layer fc7
I0508 16:39:56.561127  1788 net.cpp:434] fc7 <- fc6
I0508 16:39:56.561147  1788 net.cpp:408] fc7 -> fc7
I0508 16:39:56.708101  1788 net.cpp:150] Setting up fc7
I0508 16:39:56.708153  1788 net.cpp:157] Top shape: 18 2048 (36864)
I0508 16:39:56.708160  1788 net.cpp:165] Memory required for data: 3734581248
I0508 16:39:56.708178  1788 layer_factory.hpp:77] Creating layer relu7
I0508 16:39:56.708192  1788 net.cpp:100] Creating Layer relu7
I0508 16:39:56.708202  1788 net.cpp:434] relu7 <- fc7
I0508 16:39:56.708216  1788 net.cpp:395] relu7 -> fc7 (in-place)
I0508 16:39:56.712455  1788 net.cpp:150] Setting up relu7
I0508 16:39:56.712472  1788 net.cpp:157] Top shape: 18 2048 (36864)
I0508 16:39:56.712484  1788 net.cpp:165] Memory required for data: 3734728704
I0508 16:39:56.712489  1788 layer_factory.hpp:77] Creating layer drop7
I0508 16:39:56.712498  1788 net.cpp:100] Creating Layer drop7
I0508 16:39:56.712502  1788 net.cpp:434] drop7 <- fc7
I0508 16:39:56.712517  1788 net.cpp:395] drop7 -> fc7 (in-place)
I0508 16:39:56.712551  1788 net.cpp:150] Setting up drop7
I0508 16:39:56.712558  1788 net.cpp:157] Top shape: 18 2048 (36864)
I0508 16:39:56.712561  1788 net.cpp:165] Memory required for data: 3734876160
I0508 16:39:56.712564  1788 layer_factory.hpp:77] Creating layer conv1a_pos
I0508 16:39:56.712580  1788 net.cpp:100] Creating Layer conv1a_pos
I0508 16:39:56.712585  1788 net.cpp:434] conv1a_pos <- positive
I0508 16:39:56.712591  1788 net.cpp:408] conv1a_pos -> conv1a_pos
I0508 16:39:56.717459  1788 net.cpp:150] Setting up conv1a_pos
I0508 16:39:56.717476  1788 net.cpp:157] Top shape: 18 64 16 112 112 (231211008)
I0508 16:39:56.717480  1788 net.cpp:165] Memory required for data: 4659720192
I0508 16:39:56.717485  1788 net.cpp:493] Sharing parameters 'conv1a_w' owned by layer 'conv1a', param index 0
I0508 16:39:56.717497  1788 net.cpp:493] Sharing parameters 'conv1a_b' owned by layer 'conv1a', param index 1
I0508 16:39:56.717500  1788 layer_factory.hpp:77] Creating layer relu1a_pos
I0508 16:39:56.717509  1788 net.cpp:100] Creating Layer relu1a_pos
I0508 16:39:56.717514  1788 net.cpp:434] relu1a_pos <- conv1a_pos
I0508 16:39:56.717519  1788 net.cpp:395] relu1a_pos -> conv1a_pos (in-place)
I0508 16:39:56.717744  1788 net.cpp:150] Setting up relu1a_pos
I0508 16:39:56.717756  1788 net.cpp:157] Top shape: 18 64 16 112 112 (231211008)
I0508 16:39:56.717759  1788 net.cpp:165] Memory required for data: 5584564224
I0508 16:39:56.717762  1788 layer_factory.hpp:77] Creating layer pool1_pos
I0508 16:39:56.717773  1788 net.cpp:100] Creating Layer pool1_pos
I0508 16:39:56.717778  1788 net.cpp:434] pool1_pos <- conv1a_pos
I0508 16:39:56.717784  1788 net.cpp:408] pool1_pos -> pool1_pos
I0508 16:39:56.718724  1788 net.cpp:150] Setting up pool1_pos
I0508 16:39:56.718737  1788 net.cpp:157] Top shape: 18 64 16 56 56 (57802752)
I0508 16:39:56.718741  1788 net.cpp:165] Memory required for data: 5815775232
I0508 16:39:56.718745  1788 layer_factory.hpp:77] Creating layer conv2a_pos
I0508 16:39:56.718786  1788 net.cpp:100] Creating Layer conv2a_pos
I0508 16:39:56.718791  1788 net.cpp:434] conv2a_pos <- pool1_pos
I0508 16:39:56.718798  1788 net.cpp:408] conv2a_pos -> conv2a_pos
I0508 16:39:56.733348  1788 net.cpp:150] Setting up conv2a_pos
I0508 16:39:56.733368  1788 net.cpp:157] Top shape: 18 128 16 56 56 (115605504)
I0508 16:39:56.733372  1788 net.cpp:165] Memory required for data: 6278197248
I0508 16:39:56.733389  1788 net.cpp:493] Sharing parameters 'conv2a_w' owned by layer 'conv2a', param index 0
I0508 16:39:56.733395  1788 net.cpp:493] Sharing parameters 'conv2a_b' owned by layer 'conv2a', param index 1
I0508 16:39:56.733400  1788 layer_factory.hpp:77] Creating layer relu2a_pos
I0508 16:39:56.733408  1788 net.cpp:100] Creating Layer relu2a_pos
I0508 16:39:56.733413  1788 net.cpp:434] relu2a_pos <- conv2a_pos
I0508 16:39:56.733418  1788 net.cpp:395] relu2a_pos -> conv2a_pos (in-place)
I0508 16:39:56.733623  1788 net.cpp:150] Setting up relu2a_pos
I0508 16:39:56.733633  1788 net.cpp:157] Top shape: 18 128 16 56 56 (115605504)
I0508 16:39:56.733636  1788 net.cpp:165] Memory required for data: 6740619264
I0508 16:39:56.733640  1788 layer_factory.hpp:77] Creating layer pool2_pos
I0508 16:39:56.733649  1788 net.cpp:100] Creating Layer pool2_pos
I0508 16:39:56.733654  1788 net.cpp:434] pool2_pos <- conv2a_pos
I0508 16:39:56.733659  1788 net.cpp:408] pool2_pos -> pool2_pos
I0508 16:39:56.734580  1788 net.cpp:150] Setting up pool2_pos
I0508 16:39:56.734594  1788 net.cpp:157] Top shape: 18 128 8 28 28 (14450688)
I0508 16:39:56.734597  1788 net.cpp:165] Memory required for data: 6798422016
I0508 16:39:56.734601  1788 layer_factory.hpp:77] Creating layer conv3a_pos
I0508 16:39:56.734618  1788 net.cpp:100] Creating Layer conv3a_pos
I0508 16:39:56.734624  1788 net.cpp:434] conv3a_pos <- pool2_pos
I0508 16:39:56.734633  1788 net.cpp:408] conv3a_pos -> conv3a_pos
I0508 16:39:56.770730  1788 net.cpp:150] Setting up conv3a_pos
I0508 16:39:56.770787  1788 net.cpp:157] Top shape: 18 256 8 28 28 (28901376)
I0508 16:39:56.770813  1788 net.cpp:165] Memory required for data: 6914027520
I0508 16:39:56.770838  1788 net.cpp:493] Sharing parameters 'conv3a_w' owned by layer 'conv3a', param index 0
I0508 16:39:56.770854  1788 net.cpp:493] Sharing parameters 'conv3a_b' owned by layer 'conv3a', param index 1
I0508 16:39:56.770879  1788 layer_factory.hpp:77] Creating layer relu3a_pos
I0508 16:39:56.770920  1788 net.cpp:100] Creating Layer relu3a_pos
I0508 16:39:56.770938  1788 net.cpp:434] relu3a_pos <- conv3a_pos
I0508 16:39:56.770959  1788 net.cpp:395] relu3a_pos -> conv3a_pos (in-place)
I0508 16:39:56.774749  1788 net.cpp:150] Setting up relu3a_pos
I0508 16:39:56.774766  1788 net.cpp:157] Top shape: 18 256 8 28 28 (28901376)
I0508 16:39:56.774791  1788 net.cpp:165] Memory required for data: 7029633024
I0508 16:39:56.774797  1788 layer_factory.hpp:77] Creating layer pool3_pos
I0508 16:39:56.774811  1788 net.cpp:100] Creating Layer pool3_pos
I0508 16:39:56.774827  1788 net.cpp:434] pool3_pos <- conv3a_pos
I0508 16:39:56.774842  1788 net.cpp:408] pool3_pos -> pool3_pos
I0508 16:39:56.783607  1788 net.cpp:150] Setting up pool3_pos
I0508 16:39:56.783641  1788 net.cpp:157] Top shape: 18 256 4 14 14 (3612672)
I0508 16:39:56.783649  1788 net.cpp:165] Memory required for data: 7044083712
I0508 16:39:56.783658  1788 layer_factory.hpp:77] Creating layer conv4a_pos
I0508 16:39:56.783684  1788 net.cpp:100] Creating Layer conv4a_pos
I0508 16:39:56.783704  1788 net.cpp:434] conv4a_pos <- pool3_pos
I0508 16:39:56.783735  1788 net.cpp:408] conv4a_pos -> conv4a_pos
I0508 16:39:56.878939  1788 net.cpp:150] Setting up conv4a_pos
I0508 16:39:56.878988  1788 net.cpp:157] Top shape: 18 256 4 14 14 (3612672)
I0508 16:39:56.878994  1788 net.cpp:165] Memory required for data: 7058534400
I0508 16:39:56.879004  1788 net.cpp:493] Sharing parameters 'conv4a_w' owned by layer 'conv4a', param index 0
I0508 16:39:56.879011  1788 net.cpp:493] Sharing parameters 'conv4a_b' owned by layer 'conv4a', param index 1
I0508 16:39:56.879016  1788 layer_factory.hpp:77] Creating layer relu4a_pos
I0508 16:39:56.879082  1788 net.cpp:100] Creating Layer relu4a_pos
I0508 16:39:56.879096  1788 net.cpp:434] relu4a_pos <- conv4a_pos
I0508 16:39:56.879109  1788 net.cpp:395] relu4a_pos -> conv4a_pos (in-place)
I0508 16:39:56.880311  1788 net.cpp:150] Setting up relu4a_pos
I0508 16:39:56.880328  1788 net.cpp:157] Top shape: 18 256 4 14 14 (3612672)
I0508 16:39:56.880339  1788 net.cpp:165] Memory required for data: 7072985088
I0508 16:39:56.880345  1788 layer_factory.hpp:77] Creating layer pool4_pos
I0508 16:39:56.880367  1788 net.cpp:100] Creating Layer pool4_pos
I0508 16:39:56.880390  1788 net.cpp:434] pool4_pos <- conv4a_pos
I0508 16:39:56.880409  1788 net.cpp:408] pool4_pos -> pool4_pos
I0508 16:39:56.880746  1788 net.cpp:150] Setting up pool4_pos
I0508 16:39:56.880759  1788 net.cpp:157] Top shape: 18 256 2 7 7 (451584)
I0508 16:39:56.880769  1788 net.cpp:165] Memory required for data: 7074791424
I0508 16:39:56.880779  1788 layer_factory.hpp:77] Creating layer conv5a_pos
I0508 16:39:56.880817  1788 net.cpp:100] Creating Layer conv5a_pos
I0508 16:39:56.880826  1788 net.cpp:434] conv5a_pos <- pool4_pos
I0508 16:39:56.880848  1788 net.cpp:408] conv5a_pos -> conv5a_pos
I0508 16:39:56.954182  1788 net.cpp:150] Setting up conv5a_pos
I0508 16:39:56.954246  1788 net.cpp:157] Top shape: 18 256 2 7 7 (451584)
I0508 16:39:56.954252  1788 net.cpp:165] Memory required for data: 7076597760
I0508 16:39:56.954262  1788 net.cpp:493] Sharing parameters 'conv5a_w' owned by layer 'conv5a', param index 0
I0508 16:39:56.954267  1788 net.cpp:493] Sharing parameters 'conv5a_b' owned by layer 'conv5a', param index 1
I0508 16:39:56.954273  1788 layer_factory.hpp:77] Creating layer relu5a_pos
I0508 16:39:56.954300  1788 net.cpp:100] Creating Layer relu5a_pos
I0508 16:39:56.954308  1788 net.cpp:434] relu5a_pos <- conv5a_pos
I0508 16:39:56.954316  1788 net.cpp:395] relu5a_pos -> conv5a_pos (in-place)
I0508 16:39:56.955219  1788 net.cpp:150] Setting up relu5a_pos
I0508 16:39:56.955243  1788 net.cpp:157] Top shape: 18 256 2 7 7 (451584)
I0508 16:39:56.955258  1788 net.cpp:165] Memory required for data: 7078404096
I0508 16:39:56.955261  1788 layer_factory.hpp:77] Creating layer pool5_pos
I0508 16:39:56.955276  1788 net.cpp:100] Creating Layer pool5_pos
I0508 16:39:56.955294  1788 net.cpp:434] pool5_pos <- conv5a_pos
I0508 16:39:56.955303  1788 net.cpp:408] pool5_pos -> pool5_pos
I0508 16:39:56.955540  1788 net.cpp:150] Setting up pool5_pos
I0508 16:39:56.955550  1788 net.cpp:157] Top shape: 18 256 1 4 4 (73728)
I0508 16:39:56.955554  1788 net.cpp:165] Memory required for data: 7078699008
I0508 16:39:56.955557  1788 layer_factory.hpp:77] Creating layer fc6_pos
I0508 16:39:56.955574  1788 net.cpp:100] Creating Layer fc6_pos
I0508 16:39:56.955579  1788 net.cpp:434] fc6_pos <- pool5_pos
I0508 16:39:56.955586  1788 net.cpp:408] fc6_pos -> fc6_pos
I0508 16:39:57.234946  1788 net.cpp:150] Setting up fc6_pos
I0508 16:39:57.234992  1788 net.cpp:157] Top shape: 18 2048 (36864)
I0508 16:39:57.234998  1788 net.cpp:165] Memory required for data: 7078846464
I0508 16:39:57.235010  1788 net.cpp:493] Sharing parameters 'fc6_w' owned by layer 'fc6', param index 0
I0508 16:39:57.235018  1788 net.cpp:493] Sharing parameters 'fc6_b' owned by layer 'fc6', param index 1
I0508 16:39:57.235026  1788 layer_factory.hpp:77] Creating layer relu6_pos
I0508 16:39:57.235040  1788 net.cpp:100] Creating Layer relu6_pos
I0508 16:39:57.235047  1788 net.cpp:434] relu6_pos <- fc6_pos
I0508 16:39:57.235060  1788 net.cpp:395] relu6_pos -> fc6_pos (in-place)
I0508 16:39:57.241837  1788 net.cpp:150] Setting up relu6_pos
I0508 16:39:57.241883  1788 net.cpp:157] Top shape: 18 2048 (36864)
I0508 16:39:57.241890  1788 net.cpp:165] Memory required for data: 7078993920
I0508 16:39:57.241899  1788 layer_factory.hpp:77] Creating layer drop6_pos
I0508 16:39:57.241935  1788 net.cpp:100] Creating Layer drop6_pos
I0508 16:39:57.241946  1788 net.cpp:434] drop6_pos <- fc6_pos
I0508 16:39:57.241960  1788 net.cpp:395] drop6_pos -> fc6_pos (in-place)
I0508 16:39:57.242075  1788 net.cpp:150] Setting up drop6_pos
I0508 16:39:57.242090  1788 net.cpp:157] Top shape: 18 2048 (36864)
I0508 16:39:57.242106  1788 net.cpp:165] Memory required for data: 7079141376
I0508 16:39:57.242113  1788 layer_factory.hpp:77] Creating layer fc7_pos
I0508 16:39:57.242128  1788 net.cpp:100] Creating Layer fc7_pos
I0508 16:39:57.242135  1788 net.cpp:434] fc7_pos <- fc6_pos
I0508 16:39:57.242161  1788 net.cpp:408] fc7_pos -> fc7_pos
I0508 16:39:57.386082  1788 net.cpp:150] Setting up fc7_pos
I0508 16:39:57.386116  1788 net.cpp:157] Top shape: 18 2048 (36864)
I0508 16:39:57.386119  1788 net.cpp:165] Memory required for data: 7079288832
I0508 16:39:57.386127  1788 net.cpp:493] Sharing parameters 'fc7_w' owned by layer 'fc7', param index 0
I0508 16:39:57.386132  1788 net.cpp:493] Sharing parameters 'fc7_b' owned by layer 'fc7', param index 1
I0508 16:39:57.386137  1788 layer_factory.hpp:77] Creating layer relu7_pos
I0508 16:39:57.386145  1788 net.cpp:100] Creating Layer relu7_pos
I0508 16:39:57.386153  1788 net.cpp:434] relu7_pos <- fc7_pos
I0508 16:39:57.386162  1788 net.cpp:395] relu7_pos -> fc7_pos (in-place)
I0508 16:39:57.386417  1788 net.cpp:150] Setting up relu7_pos
I0508 16:39:57.386426  1788 net.cpp:157] Top shape: 18 2048 (36864)
I0508 16:39:57.386430  1788 net.cpp:165] Memory required for data: 7079436288
I0508 16:39:57.386433  1788 layer_factory.hpp:77] Creating layer drop7_pos
I0508 16:39:57.386456  1788 net.cpp:100] Creating Layer drop7_pos
I0508 16:39:57.386474  1788 net.cpp:434] drop7_pos <- fc7_pos
I0508 16:39:57.386482  1788 net.cpp:395] drop7_pos -> fc7_pos (in-place)
I0508 16:39:57.386513  1788 net.cpp:150] Setting up drop7_pos
I0508 16:39:57.386520  1788 net.cpp:157] Top shape: 18 2048 (36864)
I0508 16:39:57.386528  1788 net.cpp:165] Memory required for data: 7079583744
I0508 16:39:57.386530  1788 layer_factory.hpp:77] Creating layer conv1a_neg
I0508 16:39:57.386541  1788 net.cpp:100] Creating Layer conv1a_neg
I0508 16:39:57.386545  1788 net.cpp:434] conv1a_neg <- negative
I0508 16:39:57.386559  1788 net.cpp:408] conv1a_neg -> conv1a_neg
I0508 16:39:57.396884  1788 net.cpp:150] Setting up conv1a_neg
I0508 16:39:57.396926  1788 net.cpp:157] Top shape: 18 64 16 112 112 (231211008)
I0508 16:39:57.396934  1788 net.cpp:165] Memory required for data: 8004427776
I0508 16:39:57.396947  1788 net.cpp:493] Sharing parameters 'conv1a_w' owned by layer 'conv1a', param index 0
I0508 16:39:57.396960  1788 net.cpp:493] Sharing parameters 'conv1a_b' owned by layer 'conv1a', param index 1
I0508 16:39:57.396968  1788 layer_factory.hpp:77] Creating layer relu1a_neg
I0508 16:39:57.396986  1788 net.cpp:100] Creating Layer relu1a_neg
I0508 16:39:57.396996  1788 net.cpp:434] relu1a_neg <- conv1a_neg
I0508 16:39:57.397006  1788 net.cpp:395] relu1a_neg -> conv1a_neg (in-place)
I0508 16:39:57.398521  1788 net.cpp:150] Setting up relu1a_neg
I0508 16:39:57.398545  1788 net.cpp:157] Top shape: 18 64 16 112 112 (231211008)
I0508 16:39:57.398553  1788 net.cpp:165] Memory required for data: 8929271808
I0508 16:39:57.398561  1788 layer_factory.hpp:77] Creating layer pool1_neg
I0508 16:39:57.398578  1788 net.cpp:100] Creating Layer pool1_neg
I0508 16:39:57.398587  1788 net.cpp:434] pool1_neg <- conv1a_neg
I0508 16:39:57.398600  1788 net.cpp:408] pool1_neg -> pool1_neg
I0508 16:39:57.399101  1788 net.cpp:150] Setting up pool1_neg
I0508 16:39:57.399128  1788 net.cpp:157] Top shape: 18 64 16 56 56 (57802752)
I0508 16:39:57.399138  1788 net.cpp:165] Memory required for data: 9160482816
I0508 16:39:57.399152  1788 layer_factory.hpp:77] Creating layer conv2a_neg
I0508 16:39:57.399184  1788 net.cpp:100] Creating Layer conv2a_neg
I0508 16:39:57.399196  1788 net.cpp:434] conv2a_neg <- pool1_neg
I0508 16:39:57.399219  1788 net.cpp:408] conv2a_neg -> conv2a_neg
I0508 16:39:57.426798  1788 net.cpp:150] Setting up conv2a_neg
I0508 16:39:57.426829  1788 net.cpp:157] Top shape: 18 128 16 56 56 (115605504)
I0508 16:39:57.426841  1788 net.cpp:165] Memory required for data: 9622904832
I0508 16:39:57.426853  1788 net.cpp:493] Sharing parameters 'conv2a_w' owned by layer 'conv2a', param index 0
I0508 16:39:57.426895  1788 net.cpp:493] Sharing parameters 'conv2a_b' owned by layer 'conv2a', param index 1
I0508 16:39:57.426918  1788 layer_factory.hpp:77] Creating layer relu2a_neg
I0508 16:39:57.426935  1788 net.cpp:100] Creating Layer relu2a_neg
I0508 16:39:57.426952  1788 net.cpp:434] relu2a_neg <- conv2a_neg
I0508 16:39:57.427000  1788 net.cpp:395] relu2a_neg -> conv2a_neg (in-place)
I0508 16:39:57.429232  1788 net.cpp:150] Setting up relu2a_neg
I0508 16:39:57.429250  1788 net.cpp:157] Top shape: 18 128 16 56 56 (115605504)
I0508 16:39:57.429255  1788 net.cpp:165] Memory required for data: 10085326848
I0508 16:39:57.429257  1788 layer_factory.hpp:77] Creating layer pool2_neg
I0508 16:39:57.429268  1788 net.cpp:100] Creating Layer pool2_neg
I0508 16:39:57.429275  1788 net.cpp:434] pool2_neg <- conv2a_neg
I0508 16:39:57.429280  1788 net.cpp:408] pool2_neg -> pool2_neg
I0508 16:39:57.429527  1788 net.cpp:150] Setting up pool2_neg
I0508 16:39:57.429538  1788 net.cpp:157] Top shape: 18 128 8 28 28 (14450688)
I0508 16:39:57.429541  1788 net.cpp:165] Memory required for data: 10143129600
I0508 16:39:57.429553  1788 layer_factory.hpp:77] Creating layer conv3a_neg
I0508 16:39:57.429570  1788 net.cpp:100] Creating Layer conv3a_neg
I0508 16:39:57.429575  1788 net.cpp:434] conv3a_neg <- pool2_neg
I0508 16:39:57.429582  1788 net.cpp:408] conv3a_neg -> conv3a_neg
I0508 16:39:57.484148  1788 net.cpp:150] Setting up conv3a_neg
I0508 16:39:57.484195  1788 net.cpp:157] Top shape: 18 256 8 28 28 (28901376)
I0508 16:39:57.484203  1788 net.cpp:165] Memory required for data: 10258735104
I0508 16:39:57.484230  1788 net.cpp:493] Sharing parameters 'conv3a_w' owned by layer 'conv3a', param index 0
I0508 16:39:57.484238  1788 net.cpp:493] Sharing parameters 'conv3a_b' owned by layer 'conv3a', param index 1
I0508 16:39:57.484247  1788 layer_factory.hpp:77] Creating layer relu3a_neg
I0508 16:39:57.484277  1788 net.cpp:100] Creating Layer relu3a_neg
I0508 16:39:57.484287  1788 net.cpp:434] relu3a_neg <- conv3a_neg
I0508 16:39:57.484297  1788 net.cpp:395] relu3a_neg -> conv3a_neg (in-place)
I0508 16:39:57.484586  1788 net.cpp:150] Setting up relu3a_neg
I0508 16:39:57.484599  1788 net.cpp:157] Top shape: 18 256 8 28 28 (28901376)
I0508 16:39:57.484604  1788 net.cpp:165] Memory required for data: 10374340608
I0508 16:39:57.484609  1788 layer_factory.hpp:77] Creating layer pool3_neg
I0508 16:39:57.484619  1788 net.cpp:100] Creating Layer pool3_neg
I0508 16:39:57.484627  1788 net.cpp:434] pool3_neg <- conv3a_neg
I0508 16:39:57.484637  1788 net.cpp:408] pool3_neg -> pool3_neg
I0508 16:39:57.485880  1788 net.cpp:150] Setting up pool3_neg
I0508 16:39:57.485899  1788 net.cpp:157] Top shape: 18 256 4 14 14 (3612672)
I0508 16:39:57.485910  1788 net.cpp:165] Memory required for data: 10388791296
I0508 16:39:57.485924  1788 layer_factory.hpp:77] Creating layer conv4a_neg
I0508 16:39:57.485944  1788 net.cpp:100] Creating Layer conv4a_neg
I0508 16:39:57.485950  1788 net.cpp:434] conv4a_neg <- pool3_neg
I0508 16:39:57.485965  1788 net.cpp:408] conv4a_neg -> conv4a_neg
I0508 16:39:57.583222  1788 net.cpp:150] Setting up conv4a_neg
I0508 16:39:57.583271  1788 net.cpp:157] Top shape: 18 256 4 14 14 (3612672)
I0508 16:39:57.583276  1788 net.cpp:165] Memory required for data: 10403241984
I0508 16:39:57.583288  1788 net.cpp:493] Sharing parameters 'conv4a_w' owned by layer 'conv4a', param index 0
I0508 16:39:57.583295  1788 net.cpp:493] Sharing parameters 'conv4a_b' owned by layer 'conv4a', param index 1
I0508 16:39:57.583300  1788 layer_factory.hpp:77] Creating layer relu4a_neg
I0508 16:39:57.583329  1788 net.cpp:100] Creating Layer relu4a_neg
I0508 16:39:57.583340  1788 net.cpp:434] relu4a_neg <- conv4a_neg
I0508 16:39:57.583354  1788 net.cpp:395] relu4a_neg -> conv4a_neg (in-place)
I0508 16:39:57.583688  1788 net.cpp:150] Setting up relu4a_neg
I0508 16:39:57.583703  1788 net.cpp:157] Top shape: 18 256 4 14 14 (3612672)
I0508 16:39:57.583711  1788 net.cpp:165] Memory required for data: 10417692672
I0508 16:39:57.583745  1788 layer_factory.hpp:77] Creating layer pool4_neg
I0508 16:39:57.583762  1788 net.cpp:100] Creating Layer pool4_neg
I0508 16:39:57.583772  1788 net.cpp:434] pool4_neg <- conv4a_neg
I0508 16:39:57.583786  1788 net.cpp:408] pool4_neg -> pool4_neg
I0508 16:39:57.584893  1788 net.cpp:150] Setting up pool4_neg
I0508 16:39:57.584909  1788 net.cpp:157] Top shape: 18 256 2 7 7 (451584)
I0508 16:39:57.584918  1788 net.cpp:165] Memory required for data: 10419499008
I0508 16:39:57.584925  1788 layer_factory.hpp:77] Creating layer conv5a_neg
I0508 16:39:57.584961  1788 net.cpp:100] Creating Layer conv5a_neg
I0508 16:39:57.584972  1788 net.cpp:434] conv5a_neg <- pool4_neg
I0508 16:39:57.584986  1788 net.cpp:408] conv5a_neg -> conv5a_neg
I0508 16:39:57.661566  1788 net.cpp:150] Setting up conv5a_neg
I0508 16:39:57.661609  1788 net.cpp:157] Top shape: 18 256 2 7 7 (451584)
I0508 16:39:57.661614  1788 net.cpp:165] Memory required for data: 10421305344
I0508 16:39:57.661623  1788 net.cpp:493] Sharing parameters 'conv5a_w' owned by layer 'conv5a', param index 0
I0508 16:39:57.661628  1788 net.cpp:493] Sharing parameters 'conv5a_b' owned by layer 'conv5a', param index 1
I0508 16:39:57.661633  1788 layer_factory.hpp:77] Creating layer relu5a_neg
I0508 16:39:57.661645  1788 net.cpp:100] Creating Layer relu5a_neg
I0508 16:39:57.661653  1788 net.cpp:434] relu5a_neg <- conv5a_neg
I0508 16:39:57.661664  1788 net.cpp:395] relu5a_neg -> conv5a_neg (in-place)
I0508 16:39:57.661958  1788 net.cpp:150] Setting up relu5a_neg
I0508 16:39:57.661972  1788 net.cpp:157] Top shape: 18 256 2 7 7 (451584)
I0508 16:39:57.661976  1788 net.cpp:165] Memory required for data: 10423111680
I0508 16:39:57.662001  1788 layer_factory.hpp:77] Creating layer pool5_neg
I0508 16:39:57.662019  1788 net.cpp:100] Creating Layer pool5_neg
I0508 16:39:57.662026  1788 net.cpp:434] pool5_neg <- conv5a_neg
I0508 16:39:57.662039  1788 net.cpp:408] pool5_neg -> pool5_neg
I0508 16:39:57.663038  1788 net.cpp:150] Setting up pool5_neg
I0508 16:39:57.663051  1788 net.cpp:157] Top shape: 18 256 1 4 4 (73728)
I0508 16:39:57.663055  1788 net.cpp:165] Memory required for data: 10423406592
I0508 16:39:57.663063  1788 layer_factory.hpp:77] Creating layer fc6_neg
I0508 16:39:57.663094  1788 net.cpp:100] Creating Layer fc6_neg
I0508 16:39:57.663101  1788 net.cpp:434] fc6_neg <- pool5_neg
I0508 16:39:57.663116  1788 net.cpp:408] fc6_neg -> fc6_neg
I0508 16:39:57.963728  1788 net.cpp:150] Setting up fc6_neg
I0508 16:39:57.963771  1788 net.cpp:157] Top shape: 18 2048 (36864)
I0508 16:39:57.963778  1788 net.cpp:165] Memory required for data: 10423554048
I0508 16:39:57.963788  1788 net.cpp:493] Sharing parameters 'fc6_w' owned by layer 'fc6', param index 0
I0508 16:39:57.963793  1788 net.cpp:493] Sharing parameters 'fc6_b' owned by layer 'fc6', param index 1
I0508 16:39:57.963798  1788 layer_factory.hpp:77] Creating layer relu6_neg
I0508 16:39:57.963817  1788 net.cpp:100] Creating Layer relu6_neg
I0508 16:39:57.963824  1788 net.cpp:434] relu6_neg <- fc6_neg
I0508 16:39:57.963840  1788 net.cpp:395] relu6_neg -> fc6_neg (in-place)
I0508 16:39:57.964136  1788 net.cpp:150] Setting up relu6_neg
I0508 16:39:57.964148  1788 net.cpp:157] Top shape: 18 2048 (36864)
I0508 16:39:57.964153  1788 net.cpp:165] Memory required for data: 10423701504
I0508 16:39:57.964156  1788 layer_factory.hpp:77] Creating layer drop6_neg
I0508 16:39:57.964177  1788 net.cpp:100] Creating Layer drop6_neg
I0508 16:39:57.964184  1788 net.cpp:434] drop6_neg <- fc6_neg
I0508 16:39:57.964190  1788 net.cpp:395] drop6_neg -> fc6_neg (in-place)
I0508 16:39:57.964226  1788 net.cpp:150] Setting up drop6_neg
I0508 16:39:57.964236  1788 net.cpp:157] Top shape: 18 2048 (36864)
I0508 16:39:57.964238  1788 net.cpp:165] Memory required for data: 10423848960
I0508 16:39:57.964242  1788 layer_factory.hpp:77] Creating layer fc7_neg
I0508 16:39:57.964258  1788 net.cpp:100] Creating Layer fc7_neg
I0508 16:39:57.964262  1788 net.cpp:434] fc7_neg <- fc6_neg
I0508 16:39:57.964270  1788 net.cpp:408] fc7_neg -> fc7_neg
I0508 16:39:58.174484  1788 net.cpp:150] Setting up fc7_neg
I0508 16:39:58.174527  1788 net.cpp:157] Top shape: 18 2048 (36864)
I0508 16:39:58.174532  1788 net.cpp:165] Memory required for data: 10423996416
I0508 16:39:58.174546  1788 net.cpp:493] Sharing parameters 'fc7_w' owned by layer 'fc7', param index 0
I0508 16:39:58.174554  1788 net.cpp:493] Sharing parameters 'fc7_b' owned by layer 'fc7', param index 1
I0508 16:39:58.174558  1788 layer_factory.hpp:77] Creating layer relu7_neg
I0508 16:39:58.174571  1788 net.cpp:100] Creating Layer relu7_neg
I0508 16:39:58.174579  1788 net.cpp:434] relu7_neg <- fc7_neg
I0508 16:39:58.174590  1788 net.cpp:395] relu7_neg -> fc7_neg (in-place)
I0508 16:39:58.177223  1788 net.cpp:150] Setting up relu7_neg
I0508 16:39:58.177242  1788 net.cpp:157] Top shape: 18 2048 (36864)
I0508 16:39:58.177248  1788 net.cpp:165] Memory required for data: 10424143872
I0508 16:39:58.177254  1788 layer_factory.hpp:77] Creating layer drop7_neg
I0508 16:39:58.177269  1788 net.cpp:100] Creating Layer drop7_neg
I0508 16:39:58.177273  1788 net.cpp:434] drop7_neg <- fc7_neg
I0508 16:39:58.177284  1788 net.cpp:395] drop7_neg -> fc7_neg (in-place)
I0508 16:39:58.177331  1788 net.cpp:150] Setting up drop7_neg
I0508 16:39:58.177345  1788 net.cpp:157] Top shape: 18 2048 (36864)
I0508 16:39:58.177347  1788 net.cpp:165] Memory required for data: 10424291328
I0508 16:39:58.177352  1788 layer_factory.hpp:77] Creating layer loss
I0508 16:39:58.177714  1788 net.cpp:100] Creating Layer loss
I0508 16:39:58.177736  1788 net.cpp:434] loss <- fc7
I0508 16:39:58.177757  1788 net.cpp:434] loss <- fc7_pos
I0508 16:39:58.177772  1788 net.cpp:434] loss <- fc7_neg
I0508 16:39:58.177789  1788 net.cpp:408] loss -> loss
…
    mean_value: 65
    mean_value: 74
    mean_value: 92
    mean_value: 65
    mean_value: 74
    mean_value: 92
    mean_value: 65
    mean_value: 74
    mean_value: 92
    mean_value: 65
    mean_value: 74
    mean_value: 92
    mean_value: 65
    mean_value: 74
    mean_value: 92
    mean_value: 65
    mean_value: 74
    mean_value: 92
    mean_value: 65
    mean_value: 74
    mean_value: 92
    mean_value: 65
    mean_value: 74
    mean_value: 92
  }
  data_param {
    source: "/data/leo-data/Synthetic/LMDB/Triplets/val"
    batch_size: 1
    backend: LMDB
  }
}
layer {
  name: "slicer"
  type: "Slice"
  bottom: "triplet"
  top: "anchor_stacked"
  top: "positive_stacked"
  top: "negative_stacked"
  slice_param {
    slice_dim: 1
    slice_point: 48
    slice_point: 96
  }
}
layer {
  name: "reshape_anchor"
  type: "Reshape"
  bottom: "anchor_stacked"
  top: "anchor"
  reshape_param {
    shape {
      dim: 0
      dim: 3
      dim: 16
      dim: 112
      dim: 112
    }
  }
}
layer {
  name: "reshape_positive"
  type: "Reshape"
  bottom: "positive_stacked"
  top: "positive"
  reshape_param {
    shape {
      dim: 0
      dim: 3
      dim: 16
      dim: 112
      dim: 112
    }
  }
}
layer {
  name: "reshape_negative"
  type: "Reshape"
  bottom: "negative_stacked"
  top: "negative"
  reshape_param {
    shape {
      dim: 0
      dim: 3
      dim: 16
      dim: 112
      dim: 112
    }
  }
}
layer {
  name: "conv1a"
  type: "NdConvolution"
  bottom: "anchor"
  top: "conv1a"
  param {
    name: "conv1a_w"
    lr_mult: 1
    decay_mult: 1
  }
  param {
    name: "conv1a_b"
    lr_mult: 2
    decay_mult: 0
  }
  convolution_param {
    num_output: 64
    weight_filler {
      type: "gaussian"
      std: 0.01
    }
    bias_filler {
      type: "constant"
      value: 0
    }
    pad_shape {
      dim: 1
      dim: 1
      dim: 1
    }
    kernel_shape {
      dim: 3
      dim: 3
      dim: 3
    }
    stride_shape {
      dim: 1
      dim: 1
      dim: 1
    }
  }
}
layer {
  name: "relu1a"
  type: "ReLU"
  bottom: "conv1a"
  top: "conv1a"
}
layer {
  name: "pool1"
  type: "NdPooling"
  bottom: "conv1a"
  top: "pool1"
  pooling_param {
    pool: MAX
    kernel_shape {
      dim: 1
      dim: 2
      dim: 2
    }
    stride_shape {
      dim: 1
      dim: 2
      dim: 2
    }
  }
}
layer {
  name: "conv2a"
  type: "NdConvolution"
  bottom: "pool1"
  top: "conv2a"
  param {
    name: "conv2a_w"
    lr_mult: 1
    decay_mult: 1
  }
  param {
    name: "conv2a_b"
    lr_mult: 2
    decay_mult: 0
  }
  convolution_param {
    num_output: 128
    weight_filler {
      type: "gaussian"
      std: 0.01
    }
    bias_filler {
      type: "constant"
      value: 1
    }
    pad_shape {
      dim: 1
      dim: 1
      dim: 1
    }
    kernel_shape {
      dim: 3
      dim: 3
      dim: 3
    }
    stride_shape {
      dim: 1
      dim: 1
      dim: 1
    }
  }
}
layer {
  name: "relu2a"
  type: "ReLU"
  bottom: "conv2a"
  top: "conv2a"
}
layer {
  name: "pool2"
  type: "NdPooling"
  bottom: "conv2a"
  top: "pool2"
  pooling_param {
    pool: MAX
    kernel_shape {
      dim: 2
      dim: 2
      dim: 2
    }
    stride_shape {
      dim: 2
      dim: 2
      dim: 2
    }
  }
}
layer {
  name: "conv3a"
  type: "NdConvolution"
  bottom: "pool2"
  top: "conv3a"
  param {
    name: "conv3a_w"
    lr_mult: 1
    decay_mult: 1
  }
  param {
    name: "conv3a_b"
    lr_mult: 2
    decay_mult: 0
  }
  convolution_param {
    num_output: 256
    weight_filler {
      type: "gaussian"
      std: 0.01
    }
    bias_filler {
      type: "constant"
      value: 1
    }
    pad_shape {
      dim: 1
      dim: 1
      dim: 1
    }
    kernel_shape {
      dim: 3
      dim: 3
      dim: 3
    }
    stride_shape {
      dim: 1
      dim: 1
      dim: 1
    }
  }
}
layer {
  name: "relu3a"
  type: "ReLU"
  bottom: "conv3a"
  top: "conv3a"
}
layer {
  name: "pool3"
  type: "NdPooling"
  bottom: "conv3a"
  top: "pool3"
  pooling_param {
    pool: MAX
    kernel_shape {
      dim: 2
      dim: 2
      dim: 2
    }
    stride_shape {
      dim: 2
      dim: 2
      dim: 2
    }
  }
}
layer {
  name: "conv4a"
  type: "NdConvolution"
  bottom: "pool3"
  top: "conv4a"
  param {
    name: "conv4a_w"
    lr_mult: 1
    decay_mult: 1
  }
  param {
    name: "conv4a_b"
    lr_mult: 2
    decay_mult: 0
  }
  convolution_param {
    num_output: 256
    weight_filler {
      type: "gaussian"
      std: 0.01
    }
    bias_filler {
      type: "constant"
      value: 1
    }
    pad_shape {
      dim: 1
      dim: 1
      dim: 1
    }
    kernel_shape {
      dim: 3
      dim: 3
      dim: 3
    }
    stride_shape {
      dim: 1
      dim: 1
      dim: 1
    }
  }
}
layer {
  name: "relu4a"
  type: "ReLU"
  bottom: "conv4a"
  top: "conv4a"
}
layer {
  name: "pool4"
  type: "NdPooling"
  bottom: "conv4a"
  top: "pool4"
  pooling_param {
    pool: MAX
    kernel_shape {
      dim: 2
      dim: 2
      dim: 2
    }
    stride_shape {
      dim: 2
      dim: 2
      dim: 2
    }
  }
}
layer {
  name: "conv5a"
  type: "NdConvolution"
  bottom: "pool4"
  top: "conv5a"
  param {
    name: "conv5a_w"
    lr_mult: 1
    decay_mult: 1
  }
  param {
    name: "conv5a_b"
    lr_mult: 2
    decay_mult: 0
  }
  convolution_param {
    num_output: 256
    weight_filler {
      type: "gaussian"
      std: 0.01
    }
    bias_filler {
      type: "constant"
      value: 1
    }
    pad_shape {
      dim: 1
      dim: 1
      dim: 1
    }
    kernel_shape {
      dim: 3
      dim: 3
      dim: 3
    }
    stride_shape {
      dim: 1
      dim: 1
      dim: 1
    }
  }
}
layer {
  name: "relu5a"
  type: "ReLU"
  bottom: "conv5a"
  top: "conv5a"
}
layer {
  name: "pool5"
  type: "NdPooling"
  bottom: "conv5a"
  top: "pool5"
  pooling_param {
    pool: MAX
    kernel_shape {
      dim: 2
      dim: 2
      dim: 2
    }
    stride_shape {
      dim: 2
      dim: 2
      dim: 2
    }
  }
}
layer {
  name: "fc6"
  type: "InnerProduct"
  bottom: "pool5"
  top: "fc6"
  param {
    name: "fc6_w"
    lr_mult: 1
    decay_mult: 1
  }
  param {
    name: "fc6_b"
    lr_mult: 2
    decay_mult: 0
  }
  inner_product_param {
    num_output: 2048
    weight_filler {
      type: "gaussian"
      std: 0.005
    }
    bias_filler {
      type: "constant"
      value: 1
    }
  }
}
layer {
  name: "relu6"
  type: "ReLU"
  bottom: "fc6"
  top: "fc6"
}
layer {
  name: "drop6"
  type: "Dropout"
  bottom: "fc6"
  top: "fc6"
  dropout_param {
    dropout_ratio: 0.5
  }
}
layer {
  name: "fc7"
  type: "InnerProduct"
  bottom: "fc6"
  top: "fc7"
  param {
    name: "fc7_w"
    lr_mult: 1
    decay_mult: 1
  }
  param {
    name: "fc7_b"
    lr_mult: 2
    decay_mult: 0
  }
  inner_product_param {
    num_output: 2048
    weight_filler {
      type: "gaussian"
      std: 0.005
    }
    bias_filler {
      type: "constant"
      value: 1
    }
  }
}
layer {
  name: "relu7"
  type: "ReLU"
  bottom: "fc7"
  top: "fc7"
}
layer {
  name: "drop7"
  type: "Dropout"
  bottom: "fc7"
  top: "fc7"
  dropout_param {
    dropout_ratio: 0.5
  }
}
layer {
  name: "conv1a_pos"
  type: "NdConvolution"
  bottom: "positive"
  top: "conv1a_pos"
  param {
    name: "conv1a_w"
    lr_mult: 1
    decay_mult: 1
  }
  param {
    name: "conv1a_b"
    lr_mult: 2
    decay_mult: 0
  }
  convolution_param {
    num_output: 64
    weight_filler {
      type: "gaussian"
      std: 0.01
    }
    bias_filler {
      type: "constant"
      value: 0
    }
    pad_shape {
      dim: 1
      dim: 1
      dim: 1
    }
    kernel_shape {
      dim: 3
      dim: 3
      dim: 3
    }
    stride_shape {
      dim: 1
      dim: 1
      dim: 1
    }
  }
}
layer {
  name: "relu1a_pos"
  type: "ReLU"
  bottom: "conv1a_pos"
  top: "conv1a_pos"
}
layer {
  name: "pool1_pos"
  type: "NdPooling"
  bottom: "conv1a_pos"
  top: "pool1_pos"
  pooling_param {
    pool: MAX
    kernel_shape {
      dim: 1
      dim: 2
      dim: 2
    }
    stride_shape {
      dim: 1
      dim: 2
      dim: 2
    }
  }
}
layer {
  name: "conv2a_pos"
  type: "NdConvolution"
  bottom: "pool1_pos"
  top: "conv2a_pos"
  param {
    name: "conv2a_w"
    lr_mult: 1
    decay_mult: 1
  }
  param {
    name: "conv2a_b"
    lr_mult: 2
    decay_mult: 0
  }
  convolution_param {
    num_output: 128
    weight_filler {
      type: "gaussian"
      std: 0.01
    }
    bias_filler {
      type: "constant"
      value: 1
    }
    pad_shape {
      dim: 1
      dim: 1
      dim: 1
    }
    kernel_shape {
      dim: 3
      dim: 3
      dim: 3
    }
    stride_shape {
      dim: 1
      dim: 1
      dim: 1
    }
  }
}
layer {
  name: "relu2a_pos"
  type: "ReLU"
  bottom: "conv2a_pos"
  top: "conv2a_pos"
}
layer {
  name: "pool2_pos"
  type: "NdPooling"
  bottom: "conv2a_pos"
  top: "pool2_pos"
  pooling_param {
    pool: MAX
    kernel_shape {
      dim: 2
      dim: 2
      dim: 2
    }
    stride_shape {
      dim: 2
      dim: 2
      dim: 2
    }
  }
}
layer {
  name: "conv3a_pos"
  type: "NdConvolution"
  bottom: "pool2_pos"
  top: "conv3a_pos"
  param {
    name: "conv3a_w"
    lr_mult: 1
    decay_mult: 1
  }
  param {
    name: "conv3a_b"
    lr_mult: 2
    decay_mult: 0
  }
  convolution_param {
    num_output: 256
    weight_filler {
      type: "gaussian"
      std: 0.01
    }
    bias_filler {
      type: "constant"
      value: 1
    }
    pad_shape {
      dim: 1
      dim: 1
      dim: 1
    }
    kernel_shape {
      dim: 3
      dim: 3
      dim: 3
    }
    stride_shape {
      dim: 1
      dim: 1
      dim: 1
    }
  }
}
layer {
  name: "relu3a_pos"
  type: "ReLU"
  bottom: "conv3a_pos"
  top: "conv3a_pos"
}
layer {
  name: "pool3_pos"
  type: "NdPooling"
  bottom: "conv3a_pos"
  top: "pool3_pos"
  pooling_param {
    pool: MAX
    kernel_shape {
      dim: 2
      dim: 2
      dim: 2
    }
    stride_shape {
      dim: 2
      dim: 2
      dim: 2
    }
  }
}
layer {
  name: "conv4a_pos"
  type: "NdConvolution"
  bottom: "pool3_pos"
  top: "conv4a_pos"
  param {
    name: "conv4a_w"
    lr_mult: 1
    decay_mult: 1
  }
  param {
    name: "conv4a_b"
    lr_mult: 2
    decay_mult: 0
  }
  convolution_param {
    num_output: 256
    weight_filler {
      type: "gaussian"
      std: 0.01
    }
    bias_filler {
      type: "constant"
      value: 1
    }
    pad_shape {
      dim: 1
      dim: 1
      dim: 1
    }
    kernel_shape {
      dim: 3
      dim: 3
      dim: 3
    }
    stride_shape {
      dim: 1
      dim: 1
      dim: 1
    }
  }
}
layer {
  name: "relu4a_pos"
  type: "ReLU"
  bottom: "conv4a_pos"
  top: "conv4a_pos"
}
layer {
  name: "pool4_pos"
  type: "NdPooling"
  bottom: "conv4a_pos"
  top: "pool4_pos"
  pooling_param {
    pool: MAX
    kernel_shape {
      dim: 2
      dim: 2
      dim: 2
    }
    stride_shape {
      dim: 2
      dim: 2
      dim: 2
    }
  }
}
layer {
  name: "conv5a_pos"
  type: "NdConvolution"
  bottom: "pool4_pos"
  top: "conv5a_pos"
  param {
    name: "conv5a_w"
    lr_mult: 1
    decay_mult: 1
  }
  param {
    name: "conv5a_b"
    lr_mult: 2
    decay_mult: 0
  }
  convolution_param {
    num_output: 256
    weight_filler {
      type: "gaussian"
      std: 0.01
    }
    bias_filler {
      type: "constant"
      value: 1
    }
    pad_shape {
      dim: 1
      dim: 1
      dim: 1
    }
    kernel_shape {
      dim: 3
      dim: 3
      dim: 3
    }
    stride_shape {
      dim: 1
      dim: 1
      dim: 1
    }
  }
}
layer {
  name: "relu5a_pos"
  type: "ReLU"
  bottom: "conv5a_pos"
  top: "conv5a_pos"
}
layer {
  name: "pool5_pos"
  type: "NdPooling"
  bottom: "conv5a_pos"
  top: "pool5_pos"
  pooling_param {
    pool: MAX
    kernel_shape {
      dim: 2
      dim: 2
      dim: 2
    }
    stride_shape {
      dim: 2
      dim: 2
      dim: 2
    }
  }
}
layer {
  name: "fc6_pos"
  type: "InnerProduct"
  bottom: "pool5_pos"
  top: "fc6_pos"
  param {
    name: "fc6_w"
    lr_mult: 1
    decay_mult: 1
  }
  param {
    name: "fc6_b"
    lr_mult: 2
    decay_mult: 0
  }
  inner_product_param {
    num_output: 2048
    weight_filler {
      type: "gaussian"
      std: 0.005
    }
    bias_filler {
      type: "constant"
      value: 1
    }
  }
}
layer {
  name: "relu6_pos"
  type: "ReLU"
  bottom: "fc6_pos"
  top: "fc6_pos"
}
layer {
  name: "drop6_pos"
  type: "Dropout"
  bottom: "fc6_pos"
  top: "fc6_pos"
  dropout_param {
    dropout_ratio: 0.5
  }
}
layer {
  name: "fc7_pos"
  type: "InnerProduct"
  bottom: "fc6_pos"
  top: "fc7_pos"
  param {
    name: "fc7_w"
    lr_mult: 1
    decay_mult: 1
  }
  param {
    name: "fc7_b"
    lr_mult: 2
    decay_mult: 0
  }
  inner_product_param {
    num_output: 2048
    weight_filler {
      type: "gaussian"
      std: 0.005
    }
    bias_filler {
      type: "constant"
      value: 1
    }
  }
}
layer {
  name: "relu7_pos"
  type: "ReLU"
  bottom: "fc7_pos"
  top: "fc7_pos"
}
layer {
  name: "drop7_pos"
  type: "Dropout"
  bottom: "fc7_pos"
  top: "fc7_pos"
  dropout_param {
    dropout_ratio: 0.5
  }
}
layer {
  name: "conv1a_neg"
  type: "NdConvolution"
  bottom: "negative"
  top: "conv1a_neg"
  param {
    name: "conv1a_w"
    lr_mult: 1
    decay_mult: 1
  }
  param {
    name: "conv1a_b"
    lr_mult: 2
    decay_mult: 0
  }
  convolution_param {
    num_output: 64
    weight_filler {
      type: "gaussian"
      std: 0.01
    }
    bias_filler {
      type: "constant"
      value: 0
    }
    pad_shape {
      dim: 1
      dim: 1
      dim: 1
    }
    kernel_shape {
      dim: 3
      dim: 3
      dim: 3
    }
    stride_shape {
      dim: 1
      dim: 1
      dim: 1
    }
  }
}
layer {
  name: "relu1a_neg"
  type: "ReLU"
  bottom: "conv1a_neg"
  top: "conv1a_neg"
}
layer {
  name: "pool1_neg"
  type: "NdPooling"
  bottom: "conv1a_neg"
  top: "pool1_neg"
  pooling_param {
    pool: MAX
    kernel_shape {
      dim: 1
      dim: 2
      dim: 2
    }
    stride_shape {
      dim: 1
      dim: 2
      dim: 2
    }
  }
}
layer {
  name: "conv2a_neg"
  type: "NdConvolution"
  bottom: "pool1_neg"
  top: "conv2a_neg"
  param {
    name: "conv2a_w"
    lr_mult: 1
    decay_mult: 1
  }
  param {
    name: "conv2a_b"
    lr_mult: 2
    decay_mult: 0
  }
  convolution_param {
    num_output: 128
    weight_filler {
      type: "gaussian"
      std: 0.01
    }
    bias_filler {
      type: "constant"
      value: 1
    }
    pad_shape {
      dim: 1
      dim: 1
      dim: 1
    }
    kernel_shape {
      dim: 3
      dim: 3
      dim: 3
    }
    stride_shape {
      dim: 1
      dim: 1
      dim: 1
    }
  }
}
layer {
  name: "relu2a_neg"
  type: "ReLU"
  bottom: "conv2a_neg"
  top: "conv2a_neg"
}
layer {
  name: "pool2_neg"
  type: "NdPooling"
  bottom: "conv2a_neg"
  top: "pool2_neg"
  pooling_param {
    pool: MAX
    kernel_shape {
      dim: 2
      dim: 2
      dim: 2
    }
    stride_shape {
      dim: 2
      dim: 2
      dim: 2
    }
  }
}
layer {
  name: "conv3a_neg"
  type: "NdConvolution"
  bottom: "pool2_neg"
  top: "conv3a_neg"
  param {
    name: "conv3a_w"
    lr_mult: 1
    decay_mult: 1
  }
  param {
    name: "conv3a_b"
    lr_mult: 2
    decay_mult: 0
  }
  convolution_param {
    num_output: 256
    weight_filler {
      type: "gaussian"
      std: 0.01
    }
    bias_filler {
      type: "constant"
      value: 1
    }
    pad_shape {
      dim: 1
      dim: 1
      dim: 1
    }
    kernel_shape {
      dim: 3
      dim: 3
      dim: 3
    }
    stride_shape {
      dim: 1
      dim: 1
      dim: 1
    }
  }
}
layer {
  name: "relu3a_neg"
  type: "ReLU"
  bottom: "conv3a_neg"
  top: "conv3a_neg"
}
layer {
  name: "pool3_neg"
  type: "NdPooling"
  bottom: "conv3a_neg"
  top: "pool3_neg"
  pooling_param {
    pool: MAX
    kernel_shape {
      dim: 2
      dim: 2
      dim: 2
    }
    stride_shape {
      dim: 2
      dim: 2
      dim: 2
    }
  }
}
layer {
  name: "conv4a_neg"
  type: "NdConvolution"
  bottom: "pool3_neg"
  top: "conv4a_neg"
  param {
    name: "conv4a_w"
    lr_mult: 1
    decay_mult: 1
  }
  param {
    name: "conv4a_b"
    lr_mult: 2
    decay_mult: 0
  }
  convolution_param {
    num_output: 256
    weight_filler {
      type: "gaussian"
      std: 0.01
    }
    bias_filler {
      type: "constant"
      value: 1
    }
    pad_shape {
      dim: 1
      dim: 1
      dim: 1
    }
    kernel_shape {
      dim: 3
      dim: 3
      dim: 3
    }
    stride_shape {
      dim: 1
      dim: 1
      dim: 1
    }
  }
}
layer {
  name: "relu4a_neg"
  type: "ReLU"
  bottom: "conv4a_neg"
  top: "conv4a_neg"
}
layer {
  name: "pool4_neg"
  type: "NdPooling"
  bottom: "conv4a_neg"
  top: "pool4_neg"
  pooling_param {
    pool: MAX
    kernel_shape {
      dim: 2
      dim: 2
      dim: 2
    }
    stride_shape {
      dim: 2
      dim: 2
      dim: 2
    }
  }
}
layer {
  name: "conv5a_neg"
  type: "NdConvolution"
  bottom: "pool4_neg"
  top: "conv5a_neg"
  param {
    name: "conv5a_w"
    lr_mult: 1
    decay_mult: 1
  }
  param {
    name: "conv5a_b"
    lr_mult: 2
    decay_mult: 0
  }
  convolution_param {
    num_output: 256
    weight_filler {
      type: "gaussian"
      std: 0.01
    }
    bias_filler {
      type: "constant"
      value: 1
    }
    pad_shape {
      dim: 1
      dim: 1
      dim: 1
    }
    kernel_shape {
      dim: 3
      dim: 3
      dim: 3
    }
    stride_shape {
      dim: 1
      dim: 1
      dim: 1
    }
  }
}
layer {
  name: "relu5a_neg"
  type: "ReLU"
  bottom: "conv5a_neg"
  top: "conv5a_neg"
}
layer {
  name: "pool5_neg"
  type: "NdPooling"
  bottom: "conv5a_neg"
  top: "pool5_neg"
  pooling_param {
    pool: MAX
    kernel_shape {
      dim: 2
      dim: 2
      dim: 2
    }
    stride_shape {
      dim: 2
      dim: 2
      dim: 2
    }
  }
}
layer {
  name: "fc6_neg"
  type: "InnerProduct"
  bottom: "pool5_neg"
  top: "fc6_neg"
  param {
    name: "fc6_w"
    lr_mult: 1
    decay_mult: 1
  }
  param {
    name: "fc6_b"
    lr_mult: 2
    decay_mult: 0
  }
  inner_product_param {
    num_output: 2048
    weight_filler {
      type: "gaussian"
      std: 0.005
    }
    bias_filler {
      type: "constant"
      value: 1
    }
  }
}
layer {
  name: "relu6_neg"
  type: "ReLU"
  bottom: "fc6_neg"
  top: "fc6_neg"
}
layer {
  name: "drop6_neg"
  type: "Dropout"
  bottom: "fc6_neg"
  top: "fc6_neg"
  dropout_param {
    dropout_ratio: 0.5
  }
}
layer {
  name: "fc7_neg"
  type: "InnerProduct"
  bottom: "fc6_neg"
  top: "fc7_neg"
  param {
    name: "fc7_w"
    lr_mult: 1
    decay_mult: 1
  }
  param {
    name: "fc7_b"
    lr_mult: 2
    decay_mult: 0
  }
  inner_product_param {
    num_output: 2048
    weight_filler {
      type: "gaussian"
      std: 0.005
    }
    bias_filler {
      type: "constant"
      value: 1
    }
  }
}
layer {
  name: "relu7_neg"
  type: "ReLU"
  bottom: "fc7_neg"
  top: "fc7_neg"
}
layer {
  name: "drop7_neg"
  type: "Dropout"
  bottom: "fc7_neg"
  top: "fc7_neg"
  dropout_param {
    dropout_ratio: 0.5
  }
}
layer {
  name: "loss"
  type: "TripletLoss"
  bottom: "fc7"
  bottom: "fc7_pos"
  bottom: "fc7_neg"
  top: "loss"
  threshold_param {
    threshold: 1
  }
}
I0508 16:39:58.224551  1788 layer_factory.hpp:77] Creating layer data
I0508 16:39:58.224647  1788 net.cpp:100] Creating Layer data
I0508 16:39:58.224658  1788 net.cpp:408] data -> triplet
I0508 16:39:58.278789  1797 db_lmdb.cpp:35] Opened lmdb /data/leo-data/Synthetic/LMDB/Triplets/val
I0508 16:39:58.424322  1788 data_layer.cpp:41] output data size: 1,144,112,112
I0508 16:39:58.446303  1788 net.cpp:150] Setting up data
I0508 16:39:58.446352  1788 net.cpp:157] Top shape: 1 144 112 112 (1806336)
I0508 16:39:58.446357  1788 net.cpp:165] Memory required for data: 7225344
I0508 16:39:58.446365  1788 layer_factory.hpp:77] Creating layer slicer
I0508 16:39:58.446386  1788 net.cpp:100] Creating Layer slicer
I0508 16:39:58.446393  1788 net.cpp:434] slicer <- triplet
I0508 16:39:58.446405  1788 net.cpp:408] slicer -> anchor_stacked
I0508 16:39:58.446419  1788 net.cpp:408] slicer -> positive_stacked
I0508 16:39:58.446450  1788 net.cpp:408] slicer -> negative_stacked
I0508 16:39:58.446630  1788 net.cpp:150] Setting up slicer
I0508 16:39:58.446645  1788 net.cpp:157] Top shape: 1 48 112 112 (602112)
I0508 16:39:58.446653  1788 net.cpp:157] Top shape: 1 48 112 112 (602112)
I0508 16:39:58.446660  1788 net.cpp:157] Top shape: 1 48 112 112 (602112)
I0508 16:39:58.446662  1788 net.cpp:165] Memory required for data: 14450688
I0508 16:39:58.446666  1788 layer_factory.hpp:77] Creating layer reshape_anchor
I0508 16:39:58.446676  1788 net.cpp:100] Creating Layer reshape_anchor
I0508 16:39:58.446678  1788 net.cpp:434] reshape_anchor <- anchor_stacked
I0508 16:39:58.446686  1788 net.cpp:408] reshape_anchor -> anchor
I0508 16:39:58.446738  1788 net.cpp:150] Setting up reshape_anchor
I0508 16:39:58.446744  1788 net.cpp:157] Top shape: 1 3 16 112 112 (602112)
I0508 16:39:58.446748  1788 net.cpp:165] Memory required for data: 16859136
I0508 16:39:58.446750  1788 layer_factory.hpp:77] Creating layer reshape_positive
I0508 16:39:58.446755  1788 net.cpp:100] Creating Layer reshape_positive
I0508 16:39:58.446758  1788 net.cpp:434] reshape_positive <- positive_stacked
I0508 16:39:58.446763  1788 net.cpp:408] reshape_positive -> positive
I0508 16:39:58.446794  1788 net.cpp:150] Setting up reshape_positive
I0508 16:39:58.446800  1788 net.cpp:157] Top shape: 1 3 16 112 112 (602112)
I0508 16:39:58.446804  1788 net.cpp:165] Memory required for data: 19267584
I0508 16:39:58.446805  1788 layer_factory.hpp:77] Creating layer reshape_negative
I0508 16:39:58.446812  1788 net.cpp:100] Creating Layer reshape_negative
I0508 16:39:58.446815  1788 net.cpp:434] reshape_negative <- negative_stacked
I0508 16:39:58.446820  1788 net.cpp:408] reshape_negative -> negative
I0508 16:39:58.446854  1788 net.cpp:150] Setting up reshape_negative
I0508 16:39:58.446861  1788 net.cpp:157] Top shape: 1 3 16 112 112 (602112)
I0508 16:39:58.446863  1788 net.cpp:165] Memory required for data: 21676032
I0508 16:39:58.446866  1788 layer_factory.hpp:77] Creating layer conv1a
I0508 16:39:58.446878  1788 net.cpp:100] Creating Layer conv1a
I0508 16:39:58.446882  1788 net.cpp:434] conv1a <- anchor
I0508 16:39:58.446889  1788 net.cpp:408] conv1a -> conv1a
I0508 16:39:58.460520  1788 net.cpp:150] Setting up conv1a
I0508 16:39:58.460556  1788 net.cpp:157] Top shape: 1 64 16 112 112 (12845056)
I0508 16:39:58.460594  1788 net.cpp:165] Memory required for data: 73056256
I0508 16:39:58.460618  1788 layer_factory.hpp:77] Creating layer relu1a
I0508 16:39:58.460635  1788 net.cpp:100] Creating Layer relu1a
I0508 16:39:58.460645  1788 net.cpp:434] relu1a <- conv1a
I0508 16:39:58.460655  1788 net.cpp:395] relu1a -> conv1a (in-place)
I0508 16:39:58.461077  1788 net.cpp:150] Setting up relu1a
I0508 16:39:58.461097  1788 net.cpp:157] Top shape: 1 64 16 112 112 (12845056)
I0508 16:39:58.461102  1788 net.cpp:165] Memory required for data: 124436480
I0508 16:39:58.461108  1788 layer_factory.hpp:77] Creating layer pool1
I0508 16:39:58.461133  1788 net.cpp:100] Creating Layer pool1
I0508 16:39:58.461141  1788 net.cpp:434] pool1 <- conv1a
I0508 16:39:58.461151  1788 net.cpp:408] pool1 -> pool1
I0508 16:39:58.462893  1788 net.cpp:150] Setting up pool1
I0508 16:39:58.462944  1788 net.cpp:157] Top shape: 1 64 16 56 56 (3211264)
I0508 16:39:58.462954  1788 net.cpp:165] Memory required for data: 137281536
I0508 16:39:58.462961  1788 layer_factory.hpp:77] Creating layer conv2a
I0508 16:39:58.462983  1788 net.cpp:100] Creating Layer conv2a
I0508 16:39:58.462992  1788 net.cpp:434] conv2a <- pool1
I0508 16:39:58.463012  1788 net.cpp:408] conv2a -> conv2a
I0508 16:39:58.480408  1788 net.cpp:150] Setting up conv2a
I0508 16:39:58.480446  1788 net.cpp:157] Top shape: 1 128 16 56 56 (6422528)
I0508 16:39:58.480454  1788 net.cpp:165] Memory required for data: 162971648
I0508 16:39:58.480474  1788 layer_factory.hpp:77] Creating layer relu2a
I0508 16:39:58.480487  1788 net.cpp:100] Creating Layer relu2a
I0508 16:39:58.480494  1788 net.cpp:434] relu2a <- conv2a
I0508 16:39:58.480504  1788 net.cpp:395] relu2a -> conv2a (in-place)
I0508 16:39:58.481988  1788 net.cpp:150] Setting up relu2a
I0508 16:39:58.482010  1788 net.cpp:157] Top shape: 1 128 16 56 56 (6422528)
I0508 16:39:58.482017  1788 net.cpp:165] Memory required for data: 188661760
I0508 16:39:58.482023  1788 layer_factory.hpp:77] Creating layer pool2
I0508 16:39:58.482038  1788 net.cpp:100] Creating Layer pool2
I0508 16:39:58.482044  1788 net.cpp:434] pool2 <- conv2a
I0508 16:39:58.482054  1788 net.cpp:408] pool2 -> pool2
I0508 16:39:58.483660  1788 net.cpp:150] Setting up pool2
I0508 16:39:58.483682  1788 net.cpp:157] Top shape: 1 128 8 28 28 (802816)
I0508 16:39:58.483688  1788 net.cpp:165] Memory required for data: 191873024
I0508 16:39:58.483695  1788 layer_factory.hpp:77] Creating layer conv3a
I0508 16:39:58.483711  1788 net.cpp:100] Creating Layer conv3a
I0508 16:39:58.483718  1788 net.cpp:434] conv3a <- pool2
I0508 16:39:58.483731  1788 net.cpp:408] conv3a -> conv3a
I0508 16:39:58.534370  1788 net.cpp:150] Setting up conv3a
I0508 16:39:58.534392  1788 net.cpp:157] Top shape: 1 256 8 28 28 (1605632)
I0508 16:39:58.534396  1788 net.cpp:165] Memory required for data: 198295552
I0508 16:39:58.534406  1788 layer_factory.hpp:77] Creating layer relu3a
I0508 16:39:58.534423  1788 net.cpp:100] Creating Layer relu3a
I0508 16:39:58.534427  1788 net.cpp:434] relu3a <- conv3a
I0508 16:39:58.534433  1788 net.cpp:395] relu3a -> conv3a (in-place)
I0508 16:39:58.536345  1788 net.cpp:150] Setting up relu3a
I0508 16:39:58.536363  1788 net.cpp:157] Top shape: 1 256 8 28 28 (1605632)
I0508 16:39:58.536372  1788 net.cpp:165] Memory required for data: 204718080
I0508 16:39:58.536376  1788 layer_factory.hpp:77] Creating layer pool3
I0508 16:39:58.536384  1788 net.cpp:100] Creating Layer pool3
I0508 16:39:58.536388  1788 net.cpp:434] pool3 <- conv3a
I0508 16:39:58.536403  1788 net.cpp:408] pool3 -> pool3
I0508 16:39:58.536667  1788 net.cpp:150] Setting up pool3
I0508 16:39:58.536679  1788 net.cpp:157] Top shape: 1 256 4 14 14 (200704)
I0508 16:39:58.536685  1788 net.cpp:165] Memory required for data: 205520896
I0508 16:39:58.536692  1788 layer_factory.hpp:77] Creating layer conv4a
I0508 16:39:58.536708  1788 net.cpp:100] Creating Layer conv4a
I0508 16:39:58.536713  1788 net.cpp:434] conv4a <- pool3
I0508 16:39:58.536723  1788 net.cpp:408] conv4a -> conv4a
I0508 16:39:58.603154  1788 net.cpp:150] Setting up conv4a
I0508 16:39:58.603231  1788 net.cpp:157] Top shape: 1 256 4 14 14 (200704)
I0508 16:39:58.603236  1788 net.cpp:165] Memory required for data: 206323712
I0508 16:39:58.603247  1788 layer_factory.hpp:77] Creating layer relu4a
I0508 16:39:58.603258  1788 net.cpp:100] Creating Layer relu4a
I0508 16:39:58.603266  1788 net.cpp:434] relu4a <- conv4a
I0508 16:39:58.603274  1788 net.cpp:395] relu4a -> conv4a (in-place)
I0508 16:39:58.604565  1788 net.cpp:150] Setting up relu4a
I0508 16:39:58.604578  1788 net.cpp:157] Top shape: 1 256 4 14 14 (200704)
I0508 16:39:58.604589  1788 net.cpp:165] Memory required for data: 207126528
I0508 16:39:58.604593  1788 layer_factory.hpp:77] Creating layer pool4
I0508 16:39:58.604609  1788 net.cpp:100] Creating Layer pool4
I0508 16:39:58.604611  1788 net.cpp:434] pool4 <- conv4a
I0508 16:39:58.604617  1788 net.cpp:408] pool4 -> pool4
I0508 16:39:58.604874  1788 net.cpp:150] Setting up pool4
I0508 16:39:58.604884  1788 net.cpp:157] Top shape: 1 256 2 7 7 (25088)
I0508 16:39:58.604888  1788 net.cpp:165] Memory required for data: 207226880
I0508 16:39:58.604892  1788 layer_factory.hpp:77] Creating layer conv5a
I0508 16:39:58.604910  1788 net.cpp:100] Creating Layer conv5a
I0508 16:39:58.604915  1788 net.cpp:434] conv5a <- pool4
I0508 16:39:58.604923  1788 net.cpp:408] conv5a -> conv5a
I0508 16:39:58.674286  1788 net.cpp:150] Setting up conv5a
I0508 16:39:58.674320  1788 net.cpp:157] Top shape: 1 256 2 7 7 (25088)
I0508 16:39:58.674324  1788 net.cpp:165] Memory required for data: 207327232
I0508 16:39:58.674341  1788 layer_factory.hpp:77] Creating layer relu5a
I0508 16:39:58.674352  1788 net.cpp:100] Creating Layer relu5a
I0508 16:39:58.674357  1788 net.cpp:434] relu5a <- conv5a
I0508 16:39:58.674365  1788 net.cpp:395] relu5a -> conv5a (in-place)
I0508 16:39:58.675294  1788 net.cpp:150] Setting up relu5a
I0508 16:39:58.675309  1788 net.cpp:157] Top shape: 1 256 2 7 7 (25088)
I0508 16:39:58.675320  1788 net.cpp:165] Memory required for data: 207427584
I0508 16:39:58.675323  1788 layer_factory.hpp:77] Creating layer pool5
I0508 16:39:58.675334  1788 net.cpp:100] Creating Layer pool5
I0508 16:39:58.675338  1788 net.cpp:434] pool5 <- conv5a
I0508 16:39:58.675343  1788 net.cpp:408] pool5 -> pool5
I0508 16:39:58.675608  1788 net.cpp:150] Setting up pool5
I0508 16:39:58.675621  1788 net.cpp:157] Top shape: 1 256 1 4 4 (4096)
I0508 16:39:58.675623  1788 net.cpp:165] Memory required for data: 207443968
I0508 16:39:58.675626  1788 layer_factory.hpp:77] Creating layer fc6
I0508 16:39:58.675637  1788 net.cpp:100] Creating Layer fc6
I0508 16:39:58.675640  1788 net.cpp:434] fc6 <- pool5
I0508 16:39:58.675647  1788 net.cpp:408] fc6 -> fc6
I0508 16:39:58.957412  1788 net.cpp:150] Setting up fc6
I0508 16:39:58.957454  1788 net.cpp:157] Top shape: 1 2048 (2048)
I0508 16:39:58.957458  1788 net.cpp:165] Memory required for data: 207452160
I0508 16:39:58.957469  1788 layer_factory.hpp:77] Creating layer relu6
I0508 16:39:58.957479  1788 net.cpp:100] Creating Layer relu6
I0508 16:39:58.957484  1788 net.cpp:434] relu6 <- fc6
I0508 16:39:58.957490  1788 net.cpp:395] relu6 -> fc6 (in-place)
I0508 16:39:58.965471  1788 net.cpp:150] Setting up relu6
I0508 16:39:58.965512  1788 net.cpp:157] Top shape: 1 2048 (2048)
I0508 16:39:58.965519  1788 net.cpp:165] Memory required for data: 207460352
I0508 16:39:58.965528  1788 layer_factory.hpp:77] Creating layer drop6
I0508 16:39:58.965543  1788 net.cpp:100] Creating Layer drop6
I0508 16:39:58.965553  1788 net.cpp:434] drop6 <- fc6
I0508 16:39:58.965569  1788 net.cpp:395] drop6 -> fc6 (in-place)
I0508 16:39:58.965653  1788 net.cpp:150] Setting up drop6
I0508 16:39:58.965667  1788 net.cpp:157] Top shape: 1 2048 (2048)
I0508 16:39:58.965672  1788 net.cpp:165] Memory required for data: 207468544
I0508 16:39:58.965677  1788 layer_factory.hpp:77] Creating layer fc7
I0508 16:39:58.965699  1788 net.cpp:100] Creating Layer fc7
I0508 16:39:58.965705  1788 net.cpp:434] fc7 <- fc6
I0508 16:39:58.965720  1788 net.cpp:408] fc7 -> fc7
I0508 16:39:59.105118  1788 net.cpp:150] Setting up fc7
I0508 16:39:59.105191  1788 net.cpp:157] Top shape: 1 2048 (2048)
I0508 16:39:59.105197  1788 net.cpp:165] Memory required for data: 207476736
I0508 16:39:59.105223  1788 layer_factory.hpp:77] Creating layer relu7
I0508 16:39:59.105237  1788 net.cpp:100] Creating Layer relu7
I0508 16:39:59.105245  1788 net.cpp:434] relu7 <- fc7
I0508 16:39:59.105257  1788 net.cpp:395] relu7 -> fc7 (in-place)
I0508 16:39:59.105599  1788 net.cpp:150] Setting up relu7
I0508 16:39:59.105614  1788 net.cpp:157] Top shape: 1 2048 (2048)
I0508 16:39:59.105620  1788 net.cpp:165] Memory required for data: 207484928
I0508 16:39:59.105640  1788 layer_factory.hpp:77] Creating layer drop7
I0508 16:39:59.105666  1788 net.cpp:100] Creating Layer drop7
I0508 16:39:59.105674  1788 net.cpp:434] drop7 <- fc7
I0508 16:39:59.105680  1788 net.cpp:395] drop7 -> fc7 (in-place)
I0508 16:39:59.105725  1788 net.cpp:150] Setting up drop7
I0508 16:39:59.105762  1788 net.cpp:157] Top shape: 1 2048 (2048)
I0508 16:39:59.105778  1788 net.cpp:165] Memory required for data: 207493120
I0508 16:39:59.105787  1788 layer_factory.hpp:77] Creating layer conv1a_pos
I0508 16:39:59.105803  1788 net.cpp:100] Creating Layer conv1a_pos
I0508 16:39:59.105808  1788 net.cpp:434] conv1a_pos <- positive
I0508 16:39:59.105818  1788 net.cpp:408] conv1a_pos -> conv1a_pos
I0508 16:39:59.109079  1788 net.cpp:150] Setting up conv1a_pos
I0508 16:39:59.109094  1788 net.cpp:157] Top shape: 1 64 16 112 112 (12845056)
I0508 16:39:59.109097  1788 net.cpp:165] Memory required for data: 258873344
I0508 16:39:59.109102  1788 net.cpp:493] Sharing parameters 'conv1a_w' owned by layer 'conv1a', param index 0
I0508 16:39:59.109107  1788 net.cpp:493] Sharing parameters 'conv1a_b' owned by layer 'conv1a', param index 1
I0508 16:39:59.109109  1788 layer_factory.hpp:77] Creating layer relu1a_pos
I0508 16:39:59.109127  1788 net.cpp:100] Creating Layer relu1a_pos
I0508 16:39:59.109130  1788 net.cpp:434] relu1a_pos <- conv1a_pos
I0508 16:39:59.109135  1788 net.cpp:395] relu1a_pos -> conv1a_pos (in-place)
I0508 16:39:59.109971  1788 net.cpp:150] Setting up relu1a_pos
I0508 16:39:59.109983  1788 net.cpp:157] Top shape: 1 64 16 112 112 (12845056)
I0508 16:39:59.109987  1788 net.cpp:165] Memory required for data: 310253568
I0508 16:39:59.109989  1788 layer_factory.hpp:77] Creating layer pool1_pos
I0508 16:39:59.110009  1788 net.cpp:100] Creating Layer pool1_pos
I0508 16:39:59.110014  1788 net.cpp:434] pool1_pos <- conv1a_pos
I0508 16:39:59.110021  1788 net.cpp:408] pool1_pos -> pool1_pos
I0508 16:39:59.110262  1788 net.cpp:150] Setting up pool1_pos
I0508 16:39:59.110272  1788 net.cpp:157] Top shape: 1 64 16 56 56 (3211264)
I0508 16:39:59.110275  1788 net.cpp:165] Memory required for data: 323098624
I0508 16:39:59.110278  1788 layer_factory.hpp:77] Creating layer conv2a_pos
I0508 16:39:59.110287  1788 net.cpp:100] Creating Layer conv2a_pos
I0508 16:39:59.110291  1788 net.cpp:434] conv2a_pos <- pool1_pos
I0508 16:39:59.110298  1788 net.cpp:408] conv2a_pos -> conv2a_pos
I0508 16:39:59.126868  1788 net.cpp:150] Setting up conv2a_pos
I0508 16:39:59.126925  1788 net.cpp:157] Top shape: 1 128 16 56 56 (6422528)
I0508 16:39:59.126935  1788 net.cpp:165] Memory required for data: 348788736
I0508 16:39:59.126951  1788 net.cpp:493] Sharing parameters 'conv2a_w' owned by layer 'conv2a', param index 0
I0508 16:39:59.126960  1788 net.cpp:493] Sharing parameters 'conv2a_b' owned by layer 'conv2a', param index 1
I0508 16:39:59.126966  1788 layer_factory.hpp:77] Creating layer relu2a_pos
I0508 16:39:59.126981  1788 net.cpp:100] Creating Layer relu2a_pos
I0508 16:39:59.126988  1788 net.cpp:434] relu2a_pos <- conv2a_pos
I0508 16:39:59.126996  1788 net.cpp:395] relu2a_pos -> conv2a_pos (in-place)
I0508 16:39:59.127317  1788 net.cpp:150] Setting up relu2a_pos
I0508 16:39:59.127338  1788 net.cpp:157] Top shape: 1 128 16 56 56 (6422528)
I0508 16:39:59.127348  1788 net.cpp:165] Memory required for data: 374478848
I0508 16:39:59.127355  1788 layer_factory.hpp:77] Creating layer pool2_pos
I0508 16:39:59.127370  1788 net.cpp:100] Creating Layer pool2_pos
I0508 16:39:59.127410  1788 net.cpp:434] pool2_pos <- conv2a_pos
I0508 16:39:59.127439  1788 net.cpp:408] pool2_pos -> pool2_pos
I0508 16:39:59.128682  1788 net.cpp:150] Setting up pool2_pos
I0508 16:39:59.128703  1788 net.cpp:157] Top shape: 1 128 8 28 28 (802816)
I0508 16:39:59.128710  1788 net.cpp:165] Memory required for data: 377690112
I0508 16:39:59.128718  1788 layer_factory.hpp:77] Creating layer conv3a_pos
I0508 16:39:59.128749  1788 net.cpp:100] Creating Layer conv3a_pos
I0508 16:39:59.128760  1788 net.cpp:434] conv3a_pos <- pool2_pos
I0508 16:39:59.128782  1788 net.cpp:408] conv3a_pos -> conv3a_pos
I0508 16:39:59.167791  1788 net.cpp:150] Setting up conv3a_pos
I0508 16:39:59.167831  1788 net.cpp:157] Top shape: 1 256 8 28 28 (1605632)
I0508 16:39:59.167839  1788 net.cpp:165] Memory required for data: 384112640
I0508 16:39:59.167850  1788 net.cpp:493] Sharing parameters 'conv3a_w' owned by layer 'conv3a', param index 0
I0508 16:39:59.167860  1788 net.cpp:493] Sharing parameters 'conv3a_b' owned by layer 'conv3a', param index 1
I0508 16:39:59.167909  1788 layer_factory.hpp:77] Creating layer relu3a_pos
I0508 16:39:59.167928  1788 net.cpp:100] Creating Layer relu3a_pos
I0508 16:39:59.167954  1788 net.cpp:434] relu3a_pos <- conv3a_pos
I0508 16:39:59.167968  1788 net.cpp:395] relu3a_pos -> conv3a_pos (in-place)
I0508 16:39:59.168282  1788 net.cpp:150] Setting up relu3a_pos
I0508 16:39:59.168306  1788 net.cpp:157] Top shape: 1 256 8 28 28 (1605632)
I0508 16:39:59.168313  1788 net.cpp:165] Memory required for data: 390535168
I0508 16:39:59.168319  1788 layer_factory.hpp:77] Creating layer pool3_pos
I0508 16:39:59.168336  1788 net.cpp:100] Creating Layer pool3_pos
I0508 16:39:59.168345  1788 net.cpp:434] pool3_pos <- conv3a_pos
I0508 16:39:59.168356  1788 net.cpp:408] pool3_pos -> pool3_pos
I0508 16:39:59.169453  1788 net.cpp:150] Setting up pool3_pos
I0508 16:39:59.169471  1788 net.cpp:157] Top shape: 1 256 4 14 14 (200704)
I0508 16:39:59.169477  1788 net.cpp:165] Memory required for data: 391337984
I0508 16:39:59.169484  1788 layer_factory.hpp:77] Creating layer conv4a_pos
I0508 16:39:59.169503  1788 net.cpp:100] Creating Layer conv4a_pos
I0508 16:39:59.169512  1788 net.cpp:434] conv4a_pos <- pool3_pos
I0508 16:39:59.169525  1788 net.cpp:408] conv4a_pos -> conv4a_pos
I0508 16:39:59.242576  1788 net.cpp:150] Setting up conv4a_pos
I0508 16:39:59.242619  1788 net.cpp:157] Top shape: 1 256 4 14 14 (200704)
I0508 16:39:59.242626  1788 net.cpp:165] Memory required for data: 392140800
I0508 16:39:59.242637  1788 net.cpp:493] Sharing parameters 'conv4a_w' owned by layer 'conv4a', param index 0
I0508 16:39:59.242645  1788 net.cpp:493] Sharing parameters 'conv4a_b' owned by layer 'conv4a', param index 1
I0508 16:39:59.242652  1788 layer_factory.hpp:77] Creating layer relu4a_pos
I0508 16:39:59.242667  1788 net.cpp:100] Creating Layer relu4a_pos
I0508 16:39:59.242707  1788 net.cpp:434] relu4a_pos <- conv4a_pos
I0508 16:39:59.242722  1788 net.cpp:395] relu4a_pos -> conv4a_pos (in-place)
I0508 16:39:59.243016  1788 net.cpp:150] Setting up relu4a_pos
I0508 16:39:59.243031  1788 net.cpp:157] Top shape: 1 256 4 14 14 (200704)
I0508 16:39:59.243037  1788 net.cpp:165] Memory required for data: 392943616
I0508 16:39:59.243043  1788 layer_factory.hpp:77] Creating layer pool4_pos
I0508 16:39:59.243055  1788 net.cpp:100] Creating Layer pool4_pos
I0508 16:39:59.243062  1788 net.cpp:434] pool4_pos <- conv4a_pos
I0508 16:39:59.243075  1788 net.cpp:408] pool4_pos -> pool4_pos
I0508 16:39:59.244047  1788 net.cpp:150] Setting up pool4_pos
I0508 16:39:59.244065  1788 net.cpp:157] Top shape: 1 256 2 7 7 (25088)
I0508 16:39:59.244071  1788 net.cpp:165] Memory required for data: 393043968
I0508 16:39:59.244076  1788 layer_factory.hpp:77] Creating layer conv5a_pos
I0508 16:39:59.244093  1788 net.cpp:100] Creating Layer conv5a_pos
I0508 16:39:59.244101  1788 net.cpp:434] conv5a_pos <- pool4_pos
I0508 16:39:59.244113  1788 net.cpp:408] conv5a_pos -> conv5a_pos
I0508 16:39:59.333662  1788 net.cpp:150] Setting up conv5a_pos
I0508 16:39:59.333705  1788 net.cpp:157] Top shape: 1 256 2 7 7 (25088)
I0508 16:39:59.333745  1788 net.cpp:165] Memory required for data: 393144320
I0508 16:39:59.333760  1788 net.cpp:493] Sharing parameters 'conv5a_w' owned by layer 'conv5a', param index 0
I0508 16:39:59.333766  1788 net.cpp:493] Sharing parameters 'conv5a_b' owned by layer 'conv5a', param index 1
I0508 16:39:59.333771  1788 layer_factory.hpp:77] Creating layer relu5a_pos
I0508 16:39:59.333784  1788 net.cpp:100] Creating Layer relu5a_pos
I0508 16:39:59.333793  1788 net.cpp:434] relu5a_pos <- conv5a_pos
I0508 16:39:59.333803  1788 net.cpp:395] relu5a_pos -> conv5a_pos (in-place)
I0508 16:39:59.336351  1788 net.cpp:150] Setting up relu5a_pos
I0508 16:39:59.336371  1788 net.cpp:157] Top shape: 1 256 2 7 7 (25088)
I0508 16:39:59.336382  1788 net.cpp:165] Memory required for data: 393244672
I0508 16:39:59.336386  1788 layer_factory.hpp:77] Creating layer pool5_pos
I0508 16:39:59.336402  1788 net.cpp:100] Creating Layer pool5_pos
I0508 16:39:59.336421  1788 net.cpp:434] pool5_pos <- conv5a_pos
I0508 16:39:59.336436  1788 net.cpp:408] pool5_pos -> pool5_pos
I0508 16:39:59.337512  1788 net.cpp:150] Setting up pool5_pos
I0508 16:39:59.337528  1788 net.cpp:157] Top shape: 1 256 1 4 4 (4096)
I0508 16:39:59.337538  1788 net.cpp:165] Memory required for data: 393261056
I0508 16:39:59.337548  1788 layer_factory.hpp:77] Creating layer fc6_pos
I0508 16:39:59.337574  1788 net.cpp:100] Creating Layer fc6_pos
I0508 16:39:59.337581  1788 net.cpp:434] fc6_pos <- pool5_pos
I0508 16:39:59.337594  1788 net.cpp:408] fc6_pos -> fc6_pos
I0508 16:39:59.639860  1788 net.cpp:150] Setting up fc6_pos
I0508 16:39:59.639901  1788 net.cpp:157] Top shape: 1 2048 (2048)
I0508 16:39:59.639907  1788 net.cpp:165] Memory required for data: 393269248
I0508 16:39:59.639926  1788 net.cpp:493] Sharing parameters 'fc6_w' owned by layer 'fc6', param index 0
I0508 16:39:59.639936  1788 net.cpp:493] Sharing parameters 'fc6_b' owned by layer 'fc6', param index 1
I0508 16:39:59.639945  1788 layer_factory.hpp:77] Creating layer relu6_pos
I0508 16:39:59.639978  1788 net.cpp:100] Creating Layer relu6_pos
I0508 16:39:59.639989  1788 net.cpp:434] relu6_pos <- fc6_pos
I0508 16:39:59.640002  1788 net.cpp:395] relu6_pos -> fc6_pos (in-place)
I0508 16:39:59.640313  1788 net.cpp:150] Setting up relu6_pos
I0508 16:39:59.640327  1788 net.cpp:157] Top shape: 1 2048 (2048)
I0508 16:39:59.640339  1788 net.cpp:165] Memory required for data: 393277440
I0508 16:39:59.640347  1788 layer_factory.hpp:77] Creating layer drop6_pos
I0508 16:39:59.640362  1788 net.cpp:100] Creating Layer drop6_pos
I0508 16:39:59.640370  1788 net.cpp:434] drop6_pos <- fc6_pos
I0508 16:39:59.640379  1788 net.cpp:395] drop6_pos -> fc6_pos (in-place)
I0508 16:39:59.640432  1788 net.cpp:150] Setting up drop6_pos
I0508 16:39:59.640444  1788 net.cpp:157] Top shape: 1 2048 (2048)
I0508 16:39:59.640450  1788 net.cpp:165] Memory required for data: 393285632
I0508 16:39:59.640456  1788 layer_factory.hpp:77] Creating layer fc7_pos
I0508 16:39:59.640472  1788 net.cpp:100] Creating Layer fc7_pos
I0508 16:39:59.640480  1788 net.cpp:434] fc7_pos <- fc6_pos
I0508 16:39:59.640493  1788 net.cpp:408] fc7_pos -> fc7_pos
I0508 16:39:59.808612  1788 net.cpp:150] Setting up fc7_pos
I0508 16:39:59.808651  1788 net.cpp:157] Top shape: 1 2048 (2048)
I0508 16:39:59.808660  1788 net.cpp:165] Memory required for data: 393293824
I0508 16:39:59.808678  1788 net.cpp:493] Sharing parameters 'fc7_w' owned by layer 'fc7', param index 0
I0508 16:39:59.808687  1788 net.cpp:493] Sharing parameters 'fc7_b' owned by layer 'fc7', param index 1
I0508 16:39:59.808696  1788 layer_factory.hpp:77] Creating layer relu7_pos
I0508 16:39:59.808714  1788 net.cpp:100] Creating Layer relu7_pos
I0508 16:39:59.808724  1788 net.cpp:434] relu7_pos <- fc7_pos
I0508 16:39:59.808737  1788 net.cpp:395] relu7_pos -> fc7_pos (in-place)
I0508 16:39:59.823817  1788 net.cpp:150] Setting up relu7_pos
I0508 16:39:59.823861  1788 net.cpp:157] Top shape: 1 2048 (2048)
I0508 16:39:59.823868  1788 net.cpp:165] Memory required for data: 393302016
I0508 16:39:59.823915  1788 layer_factory.hpp:77] Creating layer drop7_pos
I0508 16:39:59.823937  1788 net.cpp:100] Creating Layer drop7_pos
I0508 16:39:59.823947  1788 net.cpp:434] drop7_pos <- fc7_pos
I0508 16:39:59.823961  1788 net.cpp:395] drop7_pos -> fc7_pos (in-place)
I0508 16:39:59.824062  1788 net.cpp:150] Setting up drop7_pos
I0508 16:39:59.824074  1788 net.cpp:157] Top shape: 1 2048 (2048)
I0508 16:39:59.824082  1788 net.cpp:165] Memory required for data: 393310208
I0508 16:39:59.824090  1788 layer_factory.hpp:77] Creating layer conv1a_neg
I0508 16:39:59.824110  1788 net.cpp:100] Creating Layer conv1a_neg
I0508 16:39:59.824118  1788 net.cpp:434] conv1a_neg <- negative
I0508 16:39:59.824132  1788 net.cpp:408] conv1a_neg -> conv1a_neg
I0508 16:39:59.829862  1788 net.cpp:150] Setting up conv1a_neg
I0508 16:39:59.829902  1788 net.cpp:157] Top shape: 1 64 16 112 112 (12845056)
I0508 16:39:59.829913  1788 net.cpp:165] Memory required for data: 444690432
I0508 16:39:59.829929  1788 net.cpp:493] Sharing parameters 'conv1a_w' owned by layer 'conv1a', param index 0
I0508 16:39:59.829946  1788 net.cpp:493] Sharing parameters 'conv1a_b' owned by layer 'conv1a', param index 1
I0508 16:39:59.829957  1788 layer_factory.hpp:77] Creating layer relu1a_neg
I0508 16:39:59.830041  1788 net.cpp:100] Creating Layer relu1a_neg
I0508 16:39:59.830057  1788 net.cpp:434] relu1a_neg <- conv1a_neg
I0508 16:39:59.830075  1788 net.cpp:395] relu1a_neg -> conv1a_neg (in-place)
I0508 16:39:59.831764  1788 net.cpp:150] Setting up relu1a_neg
I0508 16:39:59.831795  1788 net.cpp:157] Top shape: 1 64 16 112 112 (12845056)
I0508 16:39:59.831807  1788 net.cpp:165] Memory required for data: 496070656
I0508 16:39:59.831820  1788 layer_factory.hpp:77] Creating layer pool1_neg
I0508 16:39:59.831862  1788 net.cpp:100] Creating Layer pool1_neg
I0508 16:39:59.831881  1788 net.cpp:434] pool1_neg <- conv1a_neg
I0508 16:39:59.831904  1788 net.cpp:408] pool1_neg -> pool1_neg
I0508 16:39:59.832499  1788 net.cpp:150] Setting up pool1_neg
I0508 16:39:59.832530  1788 net.cpp:157] Top shape: 1 64 16 56 56 (3211264)
I0508 16:39:59.832540  1788 net.cpp:165] Memory required for data: 508915712
I0508 16:39:59.832551  1788 layer_factory.hpp:77] Creating layer conv2a_neg
I0508 16:39:59.832589  1788 net.cpp:100] Creating Layer conv2a_neg
I0508 16:39:59.832603  1788 net.cpp:434] conv2a_neg <- pool1_neg
I0508 16:39:59.832628  1788 net.cpp:408] conv2a_neg -> conv2a_neg
I0508 16:39:59.855471  1788 net.cpp:150] Setting up conv2a_neg
I0508 16:39:59.855509  1788 net.cpp:157] Top shape: 1 128 16 56 56 (6422528)
I0508 16:39:59.855527  1788 net.cpp:165] Memory required for data: 534605824
I0508 16:39:59.855541  1788 net.cpp:493] Sharing parameters 'conv2a_w' owned by layer 'conv2a', param index 0
I0508 16:39:59.855558  1788 net.cpp:493] Sharing parameters 'conv2a_b' owned by layer 'conv2a', param index 1
I0508 16:39:59.855571  1788 layer_factory.hpp:77] Creating layer relu2a_neg
I0508 16:39:59.855590  1788 net.cpp:100] Creating Layer relu2a_neg
I0508 16:39:59.855603  1788 net.cpp:434] relu2a_neg <- conv2a_neg
I0508 16:39:59.855618  1788 net.cpp:395] relu2a_neg -> conv2a_neg (in-place)
I0508 16:39:59.857103  1788 net.cpp:150] Setting up relu2a_neg
I0508 16:39:59.857130  1788 net.cpp:157] Top shape: 1 128 16 56 56 (6422528)
I0508 16:39:59.857139  1788 net.cpp:165] Memory required for data: 560295936
I0508 16:39:59.857149  1788 layer_factory.hpp:77] Creating layer pool2_neg
I0508 16:39:59.857172  1788 net.cpp:100] Creating Layer pool2_neg
I0508 16:39:59.857184  1788 net.cpp:434] pool2_neg <- conv2a_neg
I0508 16:39:59.857201  1788 net.cpp:408] pool2_neg -> pool2_neg
I0508 16:39:59.857662  1788 net.cpp:150] Setting up pool2_neg
I0508 16:39:59.857686  1788 net.cpp:157] Top shape: 1 128 8 28 28 (802816)
I0508 16:39:59.857697  1788 net.cpp:165] Memory required for data: 563507200
I0508 16:39:59.857707  1788 layer_factory.hpp:77] Creating layer conv3a_neg
I0508 16:39:59.857731  1788 net.cpp:100] Creating Layer conv3a_neg
I0508 16:39:59.857790  1788 net.cpp:434] conv3a_neg <- pool2_neg
I0508 16:39:59.857846  1788 net.cpp:408] conv3a_neg -> conv3a_neg
I0508 16:39:59.906554  1788 net.cpp:150] Setting up conv3a_neg
I0508 16:39:59.906585  1788 net.cpp:157] Top shape: 1 256 8 28 28 (1605632)
I0508 16:39:59.906592  1788 net.cpp:165] Memory required for data: 569929728
I0508 16:39:59.906608  1788 net.cpp:493] Sharing parameters 'conv3a_w' owned by layer 'conv3a', param index 0
I0508 16:39:59.906615  1788 net.cpp:493] Sharing parameters 'conv3a_b' owned by layer 'conv3a', param index 1
I0508 16:39:59.906620  1788 layer_factory.hpp:77] Creating layer relu3a_neg
I0508 16:39:59.906632  1788 net.cpp:100] Creating Layer relu3a_neg
I0508 16:39:59.906637  1788 net.cpp:434] relu3a_neg <- conv3a_neg
I0508 16:39:59.906646  1788 net.cpp:395] relu3a_neg -> conv3a_neg (in-place)
I0508 16:39:59.907690  1788 net.cpp:150] Setting up relu3a_neg
I0508 16:39:59.907703  1788 net.cpp:157] Top shape: 1 256 8 28 28 (1605632)
I0508 16:39:59.907707  1788 net.cpp:165] Memory required for data: 576352256
I0508 16:39:59.907711  1788 layer_factory.hpp:77] Creating layer pool3_neg
I0508 16:39:59.907722  1788 net.cpp:100] Creating Layer pool3_neg
I0508 16:39:59.907727  1788 net.cpp:434] pool3_neg <- conv3a_neg
I0508 16:39:59.907732  1788 net.cpp:408] pool3_neg -> pool3_neg
I0508 16:39:59.908023  1788 net.cpp:150] Setting up pool3_neg
I0508 16:39:59.908035  1788 net.cpp:157] Top shape: 1 256 4 14 14 (200704)
I0508 16:39:59.908038  1788 net.cpp:165] Memory required for data: 577155072
I0508 16:39:59.908041  1788 layer_factory.hpp:77] Creating layer conv4a_neg
I0508 16:39:59.908053  1788 net.cpp:100] Creating Layer conv4a_neg
I0508 16:39:59.908057  1788 net.cpp:434] conv4a_neg <- pool3_neg
I0508 16:39:59.908067  1788 net.cpp:408] conv4a_neg -> conv4a_neg
I0508 16:39:59.968919  1788 net.cpp:150] Setting up conv4a_neg
I0508 16:39:59.968946  1788 net.cpp:157] Top shape: 1 256 4 14 14 (200704)
I0508 16:39:59.968953  1788 net.cpp:165] Memory required for data: 577957888
I0508 16:39:59.968960  1788 net.cpp:493] Sharing parameters 'conv4a_w' owned by layer 'conv4a', param index 0
I0508 16:39:59.968966  1788 net.cpp:493] Sharing parameters 'conv4a_b' owned by layer 'conv4a', param index 1
I0508 16:39:59.968968  1788 layer_factory.hpp:77] Creating layer relu4a_neg
I0508 16:39:59.968979  1788 net.cpp:100] Creating Layer relu4a_neg
I0508 16:39:59.968984  1788 net.cpp:434] relu4a_neg <- conv4a_neg
I0508 16:39:59.968991  1788 net.cpp:395] relu4a_neg -> conv4a_neg (in-place)
I0508 16:39:59.969820  1788 net.cpp:150] Setting up relu4a_neg
I0508 16:39:59.969832  1788 net.cpp:157] Top shape: 1 256 4 14 14 (200704)
I0508 16:39:59.969835  1788 net.cpp:165] Memory required for data: 578760704
I0508 16:39:59.969842  1788 layer_factory.hpp:77] Creating layer pool4_neg
I0508 16:39:59.969851  1788 net.cpp:100] Creating Layer pool4_neg
I0508 16:39:59.969856  1788 net.cpp:434] pool4_neg <- conv4a_neg
I0508 16:39:59.969861  1788 net.cpp:408] pool4_neg -> pool4_neg
I0508 16:39:59.970114  1788 net.cpp:150] Setting up pool4_neg
I0508 16:39:59.970130  1788 net.cpp:157] Top shape: 1 256 2 7 7 (25088)
I0508 16:39:59.970134  1788 net.cpp:165] Memory required for data: 578861056
I0508 16:39:59.970136  1788 layer_factory.hpp:77] Creating layer conv5a_neg
I0508 16:39:59.970145  1788 net.cpp:100] Creating Layer conv5a_neg
I0508 16:39:59.970149  1788 net.cpp:434] conv5a_neg <- pool4_neg
I0508 16:39:59.970155  1788 net.cpp:408] conv5a_neg -> conv5a_neg
I0508 16:40:00.064312  1788 net.cpp:150] Setting up conv5a_neg
I0508 16:40:00.064347  1788 net.cpp:157] Top shape: 1 256 2 7 7 (25088)
I0508 16:40:00.064352  1788 net.cpp:165] Memory required for data: 578961408
I0508 16:40:00.064360  1788 net.cpp:493] Sharing parameters 'conv5a_w' owned by layer 'conv5a', param index 0
I0508 16:40:00.064368  1788 net.cpp:493] Sharing parameters 'conv5a_b' owned by layer 'conv5a', param index 1
I0508 16:40:00.064378  1788 layer_factory.hpp:77] Creating layer relu5a_neg
I0508 16:40:00.064389  1788 net.cpp:100] Creating Layer relu5a_neg
I0508 16:40:00.064396  1788 net.cpp:434] relu5a_neg <- conv5a_neg
I0508 16:40:00.064441  1788 net.cpp:395] relu5a_neg -> conv5a_neg (in-place)
I0508 16:40:00.064699  1788 net.cpp:150] Setting up relu5a_neg
I0508 16:40:00.064712  1788 net.cpp:157] Top shape: 1 256 2 7 7 (25088)
I0508 16:40:00.064715  1788 net.cpp:165] Memory required for data: 579061760
I0508 16:40:00.064718  1788 layer_factory.hpp:77] Creating layer pool5_neg
I0508 16:40:00.064735  1788 net.cpp:100] Creating Layer pool5_neg
I0508 16:40:00.064741  1788 net.cpp:434] pool5_neg <- conv5a_neg
I0508 16:40:00.064752  1788 net.cpp:408] pool5_neg -> pool5_neg
I0508 16:40:00.065809  1788 net.cpp:150] Setting up pool5_neg
I0508 16:40:00.065824  1788 net.cpp:157] Top shape: 1 256 1 4 4 (4096)
I0508 16:40:00.065829  1788 net.cpp:165] Memory required for data: 579078144
I0508 16:40:00.065832  1788 layer_factory.hpp:77] Creating layer fc6_neg
I0508 16:40:00.065852  1788 net.cpp:100] Creating Layer fc6_neg
I0508 16:40:00.065860  1788 net.cpp:434] fc6_neg <- pool5_neg
I0508 16:40:00.065867  1788 net.cpp:408] fc6_neg -> fc6_neg
I0508 16:40:00.384785  1788 net.cpp:150] Setting up fc6_neg
I0508 16:40:00.384826  1788 net.cpp:157] Top shape: 1 2048 (2048)
I0508 16:40:00.384831  1788 net.cpp:165] Memory required for data: 579086336
I0508 16:40:00.384838  1788 net.cpp:493] Sharing parameters 'fc6_w' owned by layer 'fc6', param index 0
I0508 16:40:00.384845  1788 net.cpp:493] Sharing parameters 'fc6_b' owned by layer 'fc6', param index 1
I0508 16:40:00.384850  1788 layer_factory.hpp:77] Creating layer relu6_neg
I0508 16:40:00.384860  1788 net.cpp:100] Creating Layer relu6_neg
I0508 16:40:00.384865  1788 net.cpp:434] relu6_neg <- fc6_neg
I0508 16:40:00.384872  1788 net.cpp:395] relu6_neg -> fc6_neg (in-place)
I0508 16:40:00.385185  1788 net.cpp:150] Setting up relu6_neg
I0508 16:40:00.385196  1788 net.cpp:157] Top shape: 1 2048 (2048)
I0508 16:40:00.385200  1788 net.cpp:165] Memory required for data: 579094528
I0508 16:40:00.385205  1788 layer_factory.hpp:77] Creating layer drop6_neg
I0508 16:40:00.385224  1788 net.cpp:100] Creating Layer drop6_neg
I0508 16:40:00.385231  1788 net.cpp:434] drop6_neg <- fc6_neg
I0508 16:40:00.385236  1788 net.cpp:395] drop6_neg -> fc6_neg (in-place)
I0508 16:40:00.385277  1788 net.cpp:150] Setting up drop6_neg
I0508 16:40:00.385288  1788 net.cpp:157] Top shape: 1 2048 (2048)
I0508 16:40:00.385291  1788 net.cpp:165] Memory required for data: 579102720
I0508 16:40:00.385295  1788 layer_factory.hpp:77] Creating layer fc7_neg
I0508 16:40:00.385306  1788 net.cpp:100] Creating Layer fc7_neg
I0508 16:40:00.385309  1788 net.cpp:434] fc7_neg <- fc6_neg
I0508 16:40:00.385318  1788 net.cpp:408] fc7_neg -> fc7_neg
I0508 16:40:00.547762  1788 net.cpp:150] Setting up fc7_neg
I0508 16:40:00.547802  1788 net.cpp:157] Top shape: 1 2048 (2048)
I0508 16:40:00.547807  1788 net.cpp:165] Memory required for data: 579110912
I0508 16:40:00.547814  1788 net.cpp:493] Sharing parameters 'fc7_w' owned by layer 'fc7', param index 0
I0508 16:40:00.547822  1788 net.cpp:493] Sharing parameters 'fc7_b' owned by layer 'fc7', param index 1
I0508 16:40:00.547827  1788 layer_factory.hpp:77] Creating layer relu7_neg
I0508 16:40:00.547837  1788 net.cpp:100] Creating Layer relu7_neg
I0508 16:40:00.547842  1788 net.cpp:434] relu7_neg <- fc7_neg
I0508 16:40:00.547848  1788 net.cpp:395] relu7_neg -> fc7_neg (in-place)
I0508 16:40:00.548946  1788 net.cpp:150] Setting up relu7_neg
I0508 16:40:00.548960  1788 net.cpp:157] Top shape: 1 2048 (2048)
I0508 16:40:00.548964  1788 net.cpp:165] Memory required for data: 579119104
I0508 16:40:00.548972  1788 layer_factory.hpp:77] Creating layer drop7_neg
I0508 16:40:00.548981  1788 net.cpp:100] Creating Layer drop7_neg
I0508 16:40:00.548985  1788 net.cpp:434] drop7_neg <- fc7_neg
I0508 16:40:00.548990  1788 net.cpp:395] drop7_neg -> fc7_neg (in-place)
I0508 16:40:00.549039  1788 net.cpp:150] Setting up drop7_neg
I0508 16:40:00.549054  1788 net.cpp:157] Top shape: 1 2048 (2048)
I0508 16:40:00.549057  1788 net.cpp:165] Memory required for data: 579127296
I0508 16:40:00.549060  1788 layer_factory.hpp:77] Creating layer loss
I0508 16:40:00.549085  1788 net.cpp:100] Creating Layer loss
I0508 16:40:00.549098  1788 net.cpp:434] loss <- fc7
I0508 16:40:00.549103  1788 net.cpp:434] loss <- fc7_pos
I0508 16:40:00.549106  1788 net.cpp:434] loss <- fc7_neg
I0508 16:40:00.549113  1788 net.cpp:408] loss -> loss
…
