…
    mean_value: 65
    mean_value: 74
    mean_value: 92
    mean_value: 65
    mean_value: 74
    mean_value: 92
    mean_value: 65
    mean_value: 74
    mean_value: 92
    mean_value: 65
    mean_value: 74
    mean_value: 92
    mean_value: 65
    mean_value: 74
    mean_value: 92
    mean_value: 65
    mean_value: 74
    mean_value: 92
    mean_value: 65
    mean_value: 74
    mean_value: 92
    mean_value: 65
    mean_value: 74
    mean_value: 92
  }
  data_param {
    source: "/data/leo-data/Synthetic/LMDB/Triplets/train"
    batch_size: 24
    backend: LMDB
  }
}
layer {
  name: "slicer"
  type: "Slice"
  bottom: "triplet"
  top: "anchor_stacked"
  top: "positive_stacked"
  top: "negative_stacked"
  slice_param {
    slice_dim: 1
    slice_point: 48
    slice_point: 96
  }
}
layer {
  name: "reshape_anchor"
  type: "Reshape"
  bottom: "anchor_stacked"
  top: "anchor"
  reshape_param {
    shape {
      dim: 0
      dim: 3
      dim: 16
      dim: 112
      dim: 112
    }
  }
}
layer {
  name: "reshape_positive"
  type: "Reshape"
  bottom: "positive_stacked"
  top: "positive"
  reshape_param {
    shape {
      dim: 0
      dim: 3
      dim: 16
      dim: 112
      dim: 112
    }
  }
}
layer {
  name: "silence_negative"
  type: "Silence"
  bottom: "negative_stacked"
}
layer {
  name: "conv1a"
  type: "NdConvolution"
  bottom: "positive"
  top: "conv1a"
  param {
    lr_mult: 1
    decay_mult: 1
  }
  param {
    lr_mult: 2
    decay_mult: 0
  }
  convolution_param {
    num_output: 64
    weight_filler {
      type: "gaussian"
      std: 0.01
    }
    bias_filler {
      type: "constant"
      value: 0
    }
    pad_shape {
      dim: 1
      dim: 1
      dim: 1
    }
    kernel_shape {
      dim: 3
      dim: 3
      dim: 3
    }
    stride_shape {
      dim: 1
      dim: 1
      dim: 1
    }
  }
}
layer {
  name: "relu1a"
  type: "ReLU"
  bottom: "conv1a"
  top: "conv1a"
}
layer {
  name: "pool1"
  type: "NdPooling"
  bottom: "conv1a"
  top: "pool1"
  pooling_param {
    pool: MAX
    kernel_shape {
      dim: 1
      dim: 2
      dim: 2
    }
    stride_shape {
      dim: 1
      dim: 2
      dim: 2
    }
  }
}
layer {
  name: "conv2a"
  type: "NdConvolution"
  bottom: "pool1"
  top: "conv2a"
  param {
    lr_mult: 1
    decay_mult: 1
  }
  param {
    lr_mult: 2
    decay_mult: 0
  }
  convolution_param {
    num_output: 128
    weight_filler {
      type: "gaussian"
      std: 0.01
    }
    bias_filler {
      type: "constant"
      value: 1
    }
    pad_shape {
      dim: 1
      dim: 1
      dim: 1
    }
    kernel_shape {
      dim: 3
      dim: 3
      dim: 3
    }
    stride_shape {
      dim: 1
      dim: 1
      dim: 1
    }
  }
}
layer {
  name: "relu2a"
  type: "ReLU"
  bottom: "conv2a"
  top: "conv2a"
}
layer {
  name: "pool2"
  type: "NdPooling"
  bottom: "conv2a"
  top: "pool2"
  pooling_param {
    pool: MAX
    kernel_shape {
      dim: 2
      dim: 2
      dim: 2
    }
    stride_shape {
      dim: 2
      dim: 2
      dim: 2
    }
  }
}
layer {
  name: "conv3a"
  type: "NdConvolution"
  bottom: "pool2"
  top: "conv3a"
  param {
    lr_mult: 1
    decay_mult: 1
  }
  param {
    lr_mult: 2
    decay_mult: 0
  }
  convolution_param {
    num_output: 256
    weight_filler {
      type: "gaussian"
      std: 0.01
    }
    bias_filler {
      type: "constant"
      value: 1
    }
    pad_shape {
      dim: 1
      dim: 1
      dim: 1
    }
    kernel_shape {
      dim: 3
      dim: 3
      dim: 3
    }
    stride_shape {
      dim: 1
      dim: 1
      dim: 1
    }
  }
}
layer {
  name: "relu3a"
  type: "ReLU"
  bottom: "conv3a"
  top: "conv3a"
}
layer {
  name: "pool3"
  type: "NdPooling"
  bottom: "conv3a"
  top: "pool3"
  pooling_param {
    pool: MAX
    kernel_shape {
      dim: 2
      dim: 2
      dim: 2
    }
    stride_shape {
      dim: 2
      dim: 2
      dim: 2
    }
  }
}
layer {
  name: "conv4a"
  type: "NdConvolution"
  bottom: "pool3"
  top: "conv4a"
  param {
    lr_mult: 1
    decay_mult: 1
  }
  param {
    lr_mult: 2
    decay_mult: 0
  }
  convolution_param {
    num_output: 256
    weight_filler {
      type: "gaussian"
      std: 0.01
    }
    bias_filler {
      type: "constant"
      value: 1
    }
    pad_shape {
      dim: 1
      dim: 1
      dim: 1
    }
    kernel_shape {
      dim: 3
      dim: 3
      dim: 3
    }
    stride_shape {
      dim: 1
      dim: 1
      dim: 1
    }
  }
}
layer {
  name: "relu4a"
  type: "ReLU"
  bottom: "conv4a"
  top: "conv4a"
}
layer {
  name: "pool4"
  type: "NdPooling"
  bottom: "conv4a"
  top: "pool4"
  pooling_param {
    pool: MAX
    kernel_shape {
      dim: 2
      dim: 2
      dim: 2
    }
    stride_shape {
      dim: 2
      dim: 2
      dim: 2
    }
  }
}
layer {
  name: "conv5a"
  type: "NdConvolution"
  bottom: "pool4"
  top: "conv5a"
  param {
    lr_mult: 1
    decay_mult: 1
  }
  param {
    lr_mult: 2
    decay_mult: 0
  }
  convolution_param {
    num_output: 256
    weight_filler {
      type: "gaussian"
      std: 0.01
    }
    bias_filler {
      type: "constant"
      value: 1
    }
    pad_shape {
      dim: 1
      dim: 1
      dim: 1
    }
    kernel_shape {
      dim: 3
      dim: 3
      dim: 3
    }
    stride_shape {
      dim: 1
      dim: 1
      dim: 1
    }
  }
}
layer {
  name: "relu5a"
  type: "ReLU"
  bottom: "conv5a"
  top: "conv5a"
}
layer {
  name: "pool5"
  type: "NdPooling"
  bottom: "conv5a"
  top: "pool5"
  pooling_param {
    pool: MAX
    kernel_shape {
      dim: 2
      dim: 2
      dim: 2
    }
    stride_shape {
      dim: 2
      dim: 2
      dim: 2
    }
  }
}
layer {
  name: "fc6"
  type: "InnerProduct"
  bottom: "pool5"
  top: "fc6"
  param {
    lr_mult: 1
    decay_mult: 1
  }
  param {
    lr_mult: 2
    decay_mult: 0
  }
  inner_product_param {
    num_output: 2048
    weight_filler {
      type: "gaussian"
      std: 0.005
    }
    bias_filler {
      type: "constant"
      value: 1
    }
  }
}
layer {
  name: "relu6"
  type: "ReLU"
  bottom: "fc6"
  top: "fc6"
}
layer {
  name: "drop6"
  type: "Dropout"
  bottom: "fc6"
  top: "fc6"
  dropout_param {
    dropout_ratio: 0.5
  }
}
layer {
  name: "fc7"
  type: "InnerProduct"
  bottom: "fc6"
  top: "fc7"
  param {
    lr_mult: 1
    decay_mult: 1
  }
  param {
    lr_mult: 2
    decay_mult: 0
  }
  inner_product_param {
    num_output: 2048
    weight_filler {
      type: "gaussian"
      std: 0.005
    }
    bias_filler {
      type: "constant"
      value: 1
    }
  }
}
layer {
  name: "relu7"
  type: "ReLU"
  bottom: "fc7"
  top: "fc7"
}
layer {
  name: "drop7"
  type: "Dropout"
  bottom: "fc7"
  top: "fc7"
  dropout_param {
    dropout_ratio: 0.5
  }
}
layer {
  name: "auto8"
  type: "InnerProduct"
  bottom: "fc7"
  top: "auto8"
  param {
    lr_mult: 1
    decay_mult: 1
  }
  param {
    lr_mult: 2
    decay_mult: 0
  }
  inner_product_param {
    num_output: 2048
    weight_filler {
      type: "gaussian"
      std: 0.005
    }
    bias_filler {
      type: "constant"
      value: 1
    }
  }
}
layer {
  name: "relu8"
  type: "ReLU"
  bottom: "auto8"
  top: "auto8"
}
layer {
  name: "drop8"
  type: "Dropout"
  bottom: "auto8"
  top: "auto8"
  dropout_param {
    dropout_ratio: 0.5
  }
}
layer {
  name: "conv1a_3p"
  type: "NdConvolution"
  bottom: "anchor"
  top: "conv1a_3p"
  param {
    lr_mult: 1
    decay_mult: 1
  }
  param {
    lr_mult: 2
    decay_mult: 0
  }
  convolution_param {
    num_output: 64
    weight_filler {
      type: "gaussian"
      std: 0.01
    }
    bias_filler {
      type: "constant"
      value: 0
    }
    pad_shape {
      dim: 1
      dim: 1
      dim: 1
    }
    kernel_shape {
      dim: 3
      dim: 3
      dim: 3
    }
    stride_shape {
      dim: 1
      dim: 1
      dim: 1
    }
  }
}
layer {
  name: "relu1a_3p"
  type: "ReLU"
  bottom: "conv1a_3p"
  top: "conv1a_3p"
}
layer {
  name: "pool1_3p"
  type: "NdPooling"
  bottom: "conv1a_3p"
  top: "pool1_3p"
  pooling_param {
    pool: MAX
    kernel_shape {
      dim: 1
      dim: 2
      dim: 2
    }
    stride_shape {
      dim: 1
      dim: 2
      dim: 2
    }
  }
}
layer {
  name: "conv2a_3p"
  type: "NdConvolution"
  bottom: "pool1_3p"
  top: "conv2a_3p"
  param {
    lr_mult: 1
    decay_mult: 1
  }
  param {
    lr_mult: 2
    decay_mult: 0
  }
  convolution_param {
    num_output: 128
    weight_filler {
      type: "gaussian"
      std: 0.01
    }
    bias_filler {
      type: "constant"
      value: 1
    }
    pad_shape {
      dim: 1
      dim: 1
      dim: 1
    }
    kernel_shape {
      dim: 3
      dim: 3
      dim: 3
    }
    stride_shape {
      dim: 1
      dim: 1
      dim: 1
    }
  }
}
layer {
  name: "relu2a_3p"
  type: "ReLU"
  bottom: "conv2a_3p"
  top: "conv2a_3p"
}
layer {
  name: "pool2_3p"
  type: "NdPooling"
  bottom: "conv2a_3p"
  top: "pool2_3p"
  pooling_param {
    pool: MAX
    kernel_shape {
      dim: 2
      dim: 2
      dim: 2
    }
    stride_shape {
      dim: 2
      dim: 2
      dim: 2
    }
  }
}
layer {
  name: "conv3a_3p"
  type: "NdConvolution"
  bottom: "pool2_3p"
  top: "conv3a_3p"
  param {
    lr_mult: 1
    decay_mult: 1
  }
  param {
    lr_mult: 2
    decay_mult: 0
  }
  convolution_param {
    num_output: 256
    weight_filler {
      type: "gaussian"
      std: 0.01
    }
    bias_filler {
      type: "constant"
      value: 1
    }
    pad_shape {
      dim: 1
      dim: 1
      dim: 1
    }
    kernel_shape {
      dim: 3
      dim: 3
      dim: 3
    }
    stride_shape {
      dim: 1
      dim: 1
      dim: 1
    }
  }
}
layer {
  name: "relu3a_3p"
  type: "ReLU"
  bottom: "conv3a_3p"
  top: "conv3a_3p"
}
layer {
  name: "pool3_3p"
  type: "NdPooling"
  bottom: "conv3a_3p"
  top: "pool3_3p"
  pooling_param {
    pool: MAX
    kernel_shape {
      dim: 2
      dim: 2
      dim: 2
    }
    stride_shape {
      dim: 2
      dim: 2
      dim: 2
    }
  }
}
layer {
  name: "conv4a_3p"
  type: "NdConvolution"
  bottom: "pool3_3p"
  top: "conv4a_3p"
  param {
    lr_mult: 1
    decay_mult: 1
  }
  param {
    lr_mult: 2
    decay_mult: 0
  }
  convolution_param {
    num_output: 256
    weight_filler {
      type: "gaussian"
      std: 0.01
    }
    bias_filler {
      type: "constant"
      value: 1
    }
    pad_shape {
      dim: 1
      dim: 1
      dim: 1
    }
    kernel_shape {
      dim: 3
      dim: 3
      dim: 3
    }
    stride_shape {
      dim: 1
      dim: 1
      dim: 1
    }
  }
}
layer {
  name: "relu4a_3p"
  type: "ReLU"
  bottom: "conv4a_3p"
  top: "conv4a_3p"
}
layer {
  name: "pool4_3p"
  type: "NdPooling"
  bottom: "conv4a_3p"
  top: "pool4_3p"
  pooling_param {
    pool: MAX
    kernel_shape {
      dim: 2
      dim: 2
      dim: 2
    }
    stride_shape {
      dim: 2
      dim: 2
      dim: 2
    }
  }
}
layer {
  name: "conv5a_3p"
  type: "NdConvolution"
  bottom: "pool4_3p"
  top: "conv5a_3p"
  param {
    lr_mult: 1
    decay_mult: 1
  }
  param {
    lr_mult: 2
    decay_mult: 0
  }
  convolution_param {
    num_output: 256
    weight_filler {
      type: "gaussian"
      std: 0.01
    }
    bias_filler {
      type: "constant"
      value: 1
    }
    pad_shape {
      dim: 1
      dim: 1
      dim: 1
    }
    kernel_shape {
      dim: 3
      dim: 3
      dim: 3
    }
    stride_shape {
      dim: 1
      dim: 1
      dim: 1
    }
  }
}
layer {
  name: "relu5a_3p"
  type: "ReLU"
  bottom: "conv5a_3p"
  top: "conv5a_3p"
}
layer {
  name: "pool5_3p"
  type: "NdPooling"
  bottom: "conv5a_3p"
  top: "pool5_3p"
  pooling_param {
    pool: MAX
    kernel_shape {
      dim: 2
      dim: 2
      dim: 2
    }
    stride_shape {
      dim: 2
      dim: 2
      dim: 2
    }
  }
}
layer {
  name: "fc6_3p"
  type: "InnerProduct"
  bottom: "pool5_3p"
  top: "fc6_3p"
  param {
    lr_mult: 1
    decay_mult: 1
  }
  param {
    lr_mult: 2
    decay_mult: 0
  }
  inner_product_param {
    num_output: 2048
    weight_filler {
      type: "gaussian"
      std: 0.005
    }
    bias_filler {
      type: "constant"
      value: 1
    }
  }
}
layer {
  name: "relu6_3p"
  type: "ReLU"
  bottom: "fc6_3p"
  top: "fc6_3p"
}
layer {
  name: "drop6_3p"
  type: "Dropout"
  bottom: "fc6_3p"
  top: "fc6_3p"
  dropout_param {
    dropout_ratio: 0.5
  }
}
layer {
  name: "fc7_3p"
  type: "InnerProduct"
  bottom: "fc6_3p"
  top: "fc7_3p"
  param {
    lr_mult: 1
    decay_mult: 1
  }
  param {
    lr_mult: 2
    decay_mult: 0
  }
  inner_product_param {
    num_output: 2048
    weight_filler {
      type: "gaussian"
      std: 0.005
    }
    bias_filler {
      type: "constant"
      value: 1
    }
  }
}
layer {
  name: "relu7_3p"
  type: "ReLU"
  bottom: "fc7_3p"
  top: "fc7_3p"
}
layer {
  name: "drop7_3p"
  type: "Dropout"
  bottom: "fc7_3p"
  top: "fc7_3p"
  dropout_param {
    dropout_ratio: 0.5
  }
}
layer {
  name: "auto8_3p"
  type: "InnerProduct"
  bottom: "fc7_3p"
  top: "auto8_3p"
  param {
    lr_mult: 1
    decay_mult: 1
  }
  param {
    lr_mult: 2
    decay_mult: 0
  }
  inner_product_param {
    num_output: 2048
    weight_filler {
      type: "gaussian"
      std: 0.005
    }
    bias_filler {
      type: "constant"
      value: 1
    }
  }
}
layer {
  name: "relu8_3p"
  type: "ReLU"
  bottom: "auto8_3p"
  top: "auto8_3p"
}
layer {
  name: "drop8_3p"
  type: "Dropout"
  bottom: "auto8_3p"
  top: "auto8_3p"
  dropout_param {
    dropout_ratio: 0.5
  }
}
layer {
  name: "loss"
  type: "Python"
  bottom: "fc7"
  bottom: "fc7_3p"
  bottom: "auto8"
  bottom: "auto8_3p"
  top: "loss"
  loss_weight: 1
  python_param {
    module: "cyclic_loss"
    layer: "CyclicLossLayer"
  }
}
I0505 16:36:50.429337 20773 layer_factory.hpp:77] Creating layer data
I0505 16:36:50.429808 20773 net.cpp:100] Creating Layer data
I0505 16:36:50.429839 20773 net.cpp:408] data -> triplet
I0505 16:36:50.509627 20782 db_lmdb.cpp:35] Opened lmdb /data/leo-data/Synthetic/LMDB/Triplets/train
I0505 16:36:50.628068 20773 data_layer.cpp:41] output data size: 24,144,112,112
I0505 16:36:51.064054 20773 net.cpp:150] Setting up data
I0505 16:36:51.064116 20773 net.cpp:157] Top shape: 24 144 112 112 (43352064)
I0505 16:36:51.064121 20773 net.cpp:165] Memory required for data: 173408256
I0505 16:36:51.064136 20773 layer_factory.hpp:77] Creating layer slicer
I0505 16:36:51.064158 20773 net.cpp:100] Creating Layer slicer
I0505 16:36:51.064168 20773 net.cpp:434] slicer <- triplet
I0505 16:36:51.064182 20773 net.cpp:408] slicer -> anchor_stacked
I0505 16:36:51.064200 20773 net.cpp:408] slicer -> positive_stacked
I0505 16:36:51.064224 20773 net.cpp:408] slicer -> negative_stacked
I0505 16:36:51.064502 20773 net.cpp:150] Setting up slicer
I0505 16:36:51.064532 20773 net.cpp:157] Top shape: 24 48 112 112 (14450688)
I0505 16:36:51.064545 20773 net.cpp:157] Top shape: 24 48 112 112 (14450688)
I0505 16:36:51.064561 20773 net.cpp:157] Top shape: 24 48 112 112 (14450688)
I0505 16:36:51.064570 20773 net.cpp:165] Memory required for data: 346816512
I0505 16:36:51.064577 20773 layer_factory.hpp:77] Creating layer reshape_anchor
I0505 16:36:51.064611 20773 net.cpp:100] Creating Layer reshape_anchor
I0505 16:36:51.064621 20773 net.cpp:434] reshape_anchor <- anchor_stacked
I0505 16:36:51.064695 20773 net.cpp:408] reshape_anchor -> anchor
I0505 16:36:51.064764 20773 net.cpp:150] Setting up reshape_anchor
I0505 16:36:51.064780 20773 net.cpp:157] Top shape: 24 3 16 112 112 (14450688)
I0505 16:36:51.064790 20773 net.cpp:165] Memory required for data: 404619264
I0505 16:36:51.064797 20773 layer_factory.hpp:77] Creating layer reshape_positive
I0505 16:36:51.064821 20773 net.cpp:100] Creating Layer reshape_positive
I0505 16:36:51.064870 20773 net.cpp:434] reshape_positive <- positive_stacked
I0505 16:36:51.064899 20773 net.cpp:408] reshape_positive -> positive
I0505 16:36:51.064954 20773 net.cpp:150] Setting up reshape_positive
I0505 16:36:51.064973 20773 net.cpp:157] Top shape: 24 3 16 112 112 (14450688)
I0505 16:36:51.064982 20773 net.cpp:165] Memory required for data: 462422016
I0505 16:36:51.064996 20773 layer_factory.hpp:77] Creating layer silence_negative
I0505 16:36:51.065011 20773 net.cpp:100] Creating Layer silence_negative
I0505 16:36:51.065019 20773 net.cpp:434] silence_negative <- negative_stacked
I0505 16:36:51.076128 20773 net.cpp:150] Setting up silence_negative
I0505 16:36:51.076159 20773 net.cpp:165] Memory required for data: 462422016
I0505 16:36:51.076171 20773 layer_factory.hpp:77] Creating layer conv1a
I0505 16:36:51.076206 20773 net.cpp:100] Creating Layer conv1a
I0505 16:36:51.076215 20773 net.cpp:434] conv1a <- positive
I0505 16:36:51.076231 20773 net.cpp:408] conv1a -> conv1a
I0505 16:36:51.164518 20786 blocking_queue.cpp:50] Waiting for data
I0505 16:36:51.504125 20773 net.cpp:150] Setting up conv1a
I0505 16:36:51.504170 20773 net.cpp:157] Top shape: 24 64 16 112 112 (308281344)
I0505 16:36:51.504179 20773 net.cpp:165] Memory required for data: 1695547392
I0505 16:36:51.504212 20773 layer_factory.hpp:77] Creating layer relu1a
I0505 16:36:51.504245 20773 net.cpp:100] Creating Layer relu1a
I0505 16:36:51.504256 20773 net.cpp:434] relu1a <- conv1a
I0505 16:36:51.504267 20773 net.cpp:395] relu1a -> conv1a (in-place)
I0505 16:36:51.504770 20773 net.cpp:150] Setting up relu1a
I0505 16:36:51.504792 20773 net.cpp:157] Top shape: 24 64 16 112 112 (308281344)
I0505 16:36:51.504801 20773 net.cpp:165] Memory required for data: 2928672768
I0505 16:36:51.504812 20773 layer_factory.hpp:77] Creating layer pool1
I0505 16:36:51.504835 20773 net.cpp:100] Creating Layer pool1
I0505 16:36:51.504845 20773 net.cpp:434] pool1 <- conv1a
I0505 16:36:51.504859 20773 net.cpp:408] pool1 -> pool1
I0505 16:36:51.507585 20773 net.cpp:150] Setting up pool1
I0505 16:36:51.507608 20773 net.cpp:157] Top shape: 24 64 16 56 56 (77070336)
I0505 16:36:51.507617 20773 net.cpp:165] Memory required for data: 3236954112
I0505 16:36:51.507710 20773 layer_factory.hpp:77] Creating layer conv2a
I0505 16:36:51.507798 20773 net.cpp:100] Creating Layer conv2a
I0505 16:36:51.507817 20773 net.cpp:434] conv2a <- pool1
I0505 16:36:51.507882 20773 net.cpp:408] conv2a -> conv2a
I0505 16:36:51.526521 20773 net.cpp:150] Setting up conv2a
I0505 16:36:51.526568 20773 net.cpp:157] Top shape: 24 128 16 56 56 (154140672)
I0505 16:36:51.526576 20773 net.cpp:165] Memory required for data: 3853516800
I0505 16:36:51.526597 20773 layer_factory.hpp:77] Creating layer relu2a
I0505 16:36:51.526612 20773 net.cpp:100] Creating Layer relu2a
I0505 16:36:51.526620 20773 net.cpp:434] relu2a <- conv2a
I0505 16:36:51.526634 20773 net.cpp:395] relu2a -> conv2a (in-place)
I0505 16:36:51.526902 20773 net.cpp:150] Setting up relu2a
I0505 16:36:51.526938 20773 net.cpp:157] Top shape: 24 128 16 56 56 (154140672)
I0505 16:36:51.526947 20773 net.cpp:165] Memory required for data: 4470079488
I0505 16:36:51.526959 20773 layer_factory.hpp:77] Creating layer pool2
I0505 16:36:51.526976 20773 net.cpp:100] Creating Layer pool2
I0505 16:36:51.526984 20773 net.cpp:434] pool2 <- conv2a
I0505 16:36:51.527001 20773 net.cpp:408] pool2 -> pool2
I0505 16:36:51.527315 20773 net.cpp:150] Setting up pool2
I0505 16:36:51.527359 20773 net.cpp:157] Top shape: 24 128 8 28 28 (19267584)
I0505 16:36:51.527381 20773 net.cpp:165] Memory required for data: 4547149824
I0505 16:36:51.527406 20773 layer_factory.hpp:77] Creating layer conv3a
I0505 16:36:51.527441 20773 net.cpp:100] Creating Layer conv3a
I0505 16:36:51.527456 20773 net.cpp:434] conv3a <- pool2
I0505 16:36:51.527479 20773 net.cpp:408] conv3a -> conv3a
I0505 16:36:51.579077 20773 net.cpp:150] Setting up conv3a
I0505 16:36:51.579109 20773 net.cpp:157] Top shape: 24 256 8 28 28 (38535168)
I0505 16:36:51.579114 20773 net.cpp:165] Memory required for data: 4701290496
I0505 16:36:51.579134 20773 layer_factory.hpp:77] Creating layer relu3a
I0505 16:36:51.579152 20773 net.cpp:100] Creating Layer relu3a
I0505 16:36:51.579162 20773 net.cpp:434] relu3a <- conv3a
I0505 16:36:51.579175 20773 net.cpp:395] relu3a -> conv3a (in-place)
I0505 16:36:51.579426 20773 net.cpp:150] Setting up relu3a
I0505 16:36:51.579442 20773 net.cpp:157] Top shape: 24 256 8 28 28 (38535168)
I0505 16:36:51.579445 20773 net.cpp:165] Memory required for data: 4855431168
I0505 16:36:51.579453 20773 layer_factory.hpp:77] Creating layer pool3
I0505 16:36:51.579476 20773 net.cpp:100] Creating Layer pool3
I0505 16:36:51.579485 20773 net.cpp:434] pool3 <- conv3a
I0505 16:36:51.579497 20773 net.cpp:408] pool3 -> pool3
I0505 16:36:51.579752 20773 net.cpp:150] Setting up pool3
I0505 16:36:51.579764 20773 net.cpp:157] Top shape: 24 256 4 14 14 (4816896)
I0505 16:36:51.579771 20773 net.cpp:165] Memory required for data: 4874698752
I0505 16:36:51.579778 20773 layer_factory.hpp:77] Creating layer conv4a
I0505 16:36:51.579800 20773 net.cpp:100] Creating Layer conv4a
I0505 16:36:51.579809 20773 net.cpp:434] conv4a <- pool3
I0505 16:36:51.579823 20773 net.cpp:408] conv4a -> conv4a
I0505 16:36:51.657835 20773 net.cpp:150] Setting up conv4a
I0505 16:36:51.657876 20773 net.cpp:157] Top shape: 24 256 4 14 14 (4816896)
I0505 16:36:51.657881 20773 net.cpp:165] Memory required for data: 4893966336
I0505 16:36:51.657893 20773 layer_factory.hpp:77] Creating layer relu4a
I0505 16:36:51.657909 20773 net.cpp:100] Creating Layer relu4a
I0505 16:36:51.657948 20773 net.cpp:434] relu4a <- conv4a
I0505 16:36:51.657961 20773 net.cpp:395] relu4a -> conv4a (in-place)
I0505 16:36:51.659085 20773 net.cpp:150] Setting up relu4a
I0505 16:36:51.659101 20773 net.cpp:157] Top shape: 24 256 4 14 14 (4816896)
I0505 16:36:51.659106 20773 net.cpp:165] Memory required for data: 4913233920
I0505 16:36:51.659114 20773 layer_factory.hpp:77] Creating layer pool4
I0505 16:36:51.659142 20773 net.cpp:100] Creating Layer pool4
I0505 16:36:51.659150 20773 net.cpp:434] pool4 <- conv4a
I0505 16:36:51.659164 20773 net.cpp:408] pool4 -> pool4
I0505 16:36:51.659425 20773 net.cpp:150] Setting up pool4
I0505 16:36:51.659438 20773 net.cpp:157] Top shape: 24 256 2 7 7 (602112)
I0505 16:36:51.659446 20773 net.cpp:165] Memory required for data: 4915642368
I0505 16:36:51.659452 20773 layer_factory.hpp:77] Creating layer conv5a
I0505 16:36:51.659473 20773 net.cpp:100] Creating Layer conv5a
I0505 16:36:51.659482 20773 net.cpp:434] conv5a <- pool4
I0505 16:36:51.659497 20773 net.cpp:408] conv5a -> conv5a
I0505 16:36:51.761193 20773 net.cpp:150] Setting up conv5a
I0505 16:36:51.761234 20773 net.cpp:157] Top shape: 24 256 2 7 7 (602112)
I0505 16:36:51.761240 20773 net.cpp:165] Memory required for data: 4918050816
I0505 16:36:51.761261 20773 layer_factory.hpp:77] Creating layer relu5a
I0505 16:36:51.761279 20773 net.cpp:100] Creating Layer relu5a
I0505 16:36:51.761286 20773 net.cpp:434] relu5a <- conv5a
I0505 16:36:51.761296 20773 net.cpp:395] relu5a -> conv5a (in-place)
I0505 16:36:51.761577 20773 net.cpp:150] Setting up relu5a
I0505 16:36:51.761592 20773 net.cpp:157] Top shape: 24 256 2 7 7 (602112)
I0505 16:36:51.761597 20773 net.cpp:165] Memory required for data: 4920459264
I0505 16:36:51.761602 20773 layer_factory.hpp:77] Creating layer pool5
I0505 16:36:51.761615 20773 net.cpp:100] Creating Layer pool5
I0505 16:36:51.761625 20773 net.cpp:434] pool5 <- conv5a
I0505 16:36:51.761633 20773 net.cpp:408] pool5 -> pool5
I0505 16:36:51.761965 20773 net.cpp:150] Setting up pool5
I0505 16:36:51.761979 20773 net.cpp:157] Top shape: 24 256 1 4 4 (98304)
I0505 16:36:51.761984 20773 net.cpp:165] Memory required for data: 4920852480
I0505 16:36:51.761989 20773 layer_factory.hpp:77] Creating layer fc6
I0505 16:36:51.762015 20773 net.cpp:100] Creating Layer fc6
I0505 16:36:51.762025 20773 net.cpp:434] fc6 <- pool5
I0505 16:36:51.762035 20773 net.cpp:408] fc6 -> fc6
I0505 16:36:52.093616 20773 net.cpp:150] Setting up fc6
I0505 16:36:52.093653 20773 net.cpp:157] Top shape: 24 2048 (49152)
I0505 16:36:52.093659 20773 net.cpp:165] Memory required for data: 4921049088
I0505 16:36:52.093674 20773 layer_factory.hpp:77] Creating layer relu6
I0505 16:36:52.093698 20773 net.cpp:100] Creating Layer relu6
I0505 16:36:52.093727 20773 net.cpp:434] relu6 <- fc6
I0505 16:36:52.093750 20773 net.cpp:395] relu6 -> fc6 (in-place)
I0505 16:36:52.096144 20773 net.cpp:150] Setting up relu6
I0505 16:36:52.096164 20773 net.cpp:157] Top shape: 24 2048 (49152)
I0505 16:36:52.096170 20773 net.cpp:165] Memory required for data: 4921245696
I0505 16:36:52.096177 20773 layer_factory.hpp:77] Creating layer drop6
I0505 16:36:52.096195 20773 net.cpp:100] Creating Layer drop6
I0505 16:36:52.096225 20773 net.cpp:434] drop6 <- fc6
I0505 16:36:52.096246 20773 net.cpp:395] drop6 -> fc6 (in-place)
I0505 16:36:52.096303 20773 net.cpp:150] Setting up drop6
I0505 16:36:52.096333 20773 net.cpp:157] Top shape: 24 2048 (49152)
I0505 16:36:52.096362 20773 net.cpp:165] Memory required for data: 4921442304
I0505 16:36:52.096379 20773 layer_factory.hpp:77] Creating layer fc7
I0505 16:36:52.096408 20773 net.cpp:100] Creating Layer fc7
I0505 16:36:52.096426 20773 net.cpp:434] fc7 <- fc6
I0505 16:36:52.096446 20773 net.cpp:408] fc7 -> fc7
I0505 16:36:52.249160 20773 net.cpp:150] Setting up fc7
I0505 16:36:52.249194 20773 net.cpp:157] Top shape: 24 2048 (49152)
I0505 16:36:52.249199 20773 net.cpp:165] Memory required for data: 4921638912
I0505 16:36:52.249209 20773 layer_factory.hpp:77] Creating layer relu7
I0505 16:36:52.249222 20773 net.cpp:100] Creating Layer relu7
I0505 16:36:52.249263 20773 net.cpp:434] relu7 <- fc7
I0505 16:36:52.249272 20773 net.cpp:395] relu7 -> fc7 (in-place)
I0505 16:36:52.249538 20773 net.cpp:150] Setting up relu7
I0505 16:36:52.249548 20773 net.cpp:157] Top shape: 24 2048 (49152)
I0505 16:36:52.249553 20773 net.cpp:165] Memory required for data: 4921835520
I0505 16:36:52.249557 20773 layer_factory.hpp:77] Creating layer drop7
I0505 16:36:52.249570 20773 net.cpp:100] Creating Layer drop7
I0505 16:36:52.249574 20773 net.cpp:434] drop7 <- fc7
I0505 16:36:52.249580 20773 net.cpp:395] drop7 -> fc7 (in-place)
I0505 16:36:52.249614 20773 net.cpp:150] Setting up drop7
I0505 16:36:52.249622 20773 net.cpp:157] Top shape: 24 2048 (49152)
I0505 16:36:52.249625 20773 net.cpp:165] Memory required for data: 4922032128
I0505 16:36:52.249629 20773 layer_factory.hpp:77] Creating layer fc7_drop7_0_split
I0505 16:36:52.249636 20773 net.cpp:100] Creating Layer fc7_drop7_0_split
I0505 16:36:52.249644 20773 net.cpp:434] fc7_drop7_0_split <- fc7
I0505 16:36:52.249650 20773 net.cpp:408] fc7_drop7_0_split -> fc7_drop7_0_split_0
I0505 16:36:52.249661 20773 net.cpp:408] fc7_drop7_0_split -> fc7_drop7_0_split_1
I0505 16:36:52.249696 20773 net.cpp:150] Setting up fc7_drop7_0_split
I0505 16:36:52.249702 20773 net.cpp:157] Top shape: 24 2048 (49152)
I0505 16:36:52.249706 20773 net.cpp:157] Top shape: 24 2048 (49152)
I0505 16:36:52.249709 20773 net.cpp:165] Memory required for data: 4922425344
I0505 16:36:52.249713 20773 layer_factory.hpp:77] Creating layer auto8
I0505 16:36:52.249724 20773 net.cpp:100] Creating Layer auto8
I0505 16:36:52.249729 20773 net.cpp:434] auto8 <- fc7_drop7_0_split_0
I0505 16:36:52.249738 20773 net.cpp:408] auto8 -> auto8
I0505 16:36:52.402614 20773 net.cpp:150] Setting up auto8
I0505 16:36:52.402660 20773 net.cpp:157] Top shape: 24 2048 (49152)
I0505 16:36:52.402665 20773 net.cpp:165] Memory required for data: 4922621952
I0505 16:36:52.402678 20773 layer_factory.hpp:77] Creating layer relu8
I0505 16:36:52.402693 20773 net.cpp:100] Creating Layer relu8
I0505 16:36:52.402698 20773 net.cpp:434] relu8 <- auto8
I0505 16:36:52.402705 20773 net.cpp:395] relu8 -> auto8 (in-place)
I0505 16:36:52.402998 20773 net.cpp:150] Setting up relu8
I0505 16:36:52.403009 20773 net.cpp:157] Top shape: 24 2048 (49152)
I0505 16:36:52.403012 20773 net.cpp:165] Memory required for data: 4922818560
I0505 16:36:52.403017 20773 layer_factory.hpp:77] Creating layer drop8
I0505 16:36:52.403033 20773 net.cpp:100] Creating Layer drop8
I0505 16:36:52.403038 20773 net.cpp:434] drop8 <- auto8
I0505 16:36:52.403043 20773 net.cpp:395] drop8 -> auto8 (in-place)
I0505 16:36:52.403071 20773 net.cpp:150] Setting up drop8
I0505 16:36:52.403077 20773 net.cpp:157] Top shape: 24 2048 (49152)
I0505 16:36:52.403080 20773 net.cpp:165] Memory required for data: 4923015168
I0505 16:36:52.403084 20773 layer_factory.hpp:77] Creating layer conv1a_3p
I0505 16:36:52.403095 20773 net.cpp:100] Creating Layer conv1a_3p
I0505 16:36:52.403100 20773 net.cpp:434] conv1a_3p <- anchor
I0505 16:36:52.403107 20773 net.cpp:408] conv1a_3p -> conv1a_3p
I0505 16:36:52.406213 20773 net.cpp:150] Setting up conv1a_3p
I0505 16:36:52.406227 20773 net.cpp:157] Top shape: 24 64 16 112 112 (308281344)
I0505 16:36:52.406231 20773 net.cpp:165] Memory required for data: 6156140544
I0505 16:36:52.406244 20773 layer_factory.hpp:77] Creating layer relu1a_3p
I0505 16:36:52.406253 20773 net.cpp:100] Creating Layer relu1a_3p
I0505 16:36:52.406258 20773 net.cpp:434] relu1a_3p <- conv1a_3p
I0505 16:36:52.406265 20773 net.cpp:395] relu1a_3p -> conv1a_3p (in-place)
I0505 16:36:52.406455 20773 net.cpp:150] Setting up relu1a_3p
I0505 16:36:52.406464 20773 net.cpp:157] Top shape: 24 64 16 112 112 (308281344)
I0505 16:36:52.406467 20773 net.cpp:165] Memory required for data: 7389265920
I0505 16:36:52.406471 20773 layer_factory.hpp:77] Creating layer pool1_3p
I0505 16:36:52.406488 20773 net.cpp:100] Creating Layer pool1_3p
I0505 16:36:52.406493 20773 net.cpp:434] pool1_3p <- conv1a_3p
I0505 16:36:52.406499 20773 net.cpp:408] pool1_3p -> pool1_3p
I0505 16:36:52.407582 20773 net.cpp:150] Setting up pool1_3p
I0505 16:36:52.407598 20773 net.cpp:157] Top shape: 24 64 16 56 56 (77070336)
I0505 16:36:52.407601 20773 net.cpp:165] Memory required for data: 7697547264
I0505 16:36:52.407608 20773 layer_factory.hpp:77] Creating layer conv2a_3p
I0505 16:36:52.407616 20773 net.cpp:100] Creating Layer conv2a_3p
I0505 16:36:52.407620 20773 net.cpp:434] conv2a_3p <- pool1_3p
I0505 16:36:52.407629 20773 net.cpp:408] conv2a_3p -> conv2a_3p
I0505 16:36:52.415320 20773 net.cpp:150] Setting up conv2a_3p
I0505 16:36:52.415347 20773 net.cpp:157] Top shape: 24 128 16 56 56 (154140672)
I0505 16:36:52.415350 20773 net.cpp:165] Memory required for data: 8314109952
I0505 16:36:52.415359 20773 layer_factory.hpp:77] Creating layer relu2a_3p
I0505 16:36:52.415374 20773 net.cpp:100] Creating Layer relu2a_3p
I0505 16:36:52.415379 20773 net.cpp:434] relu2a_3p <- conv2a_3p
I0505 16:36:52.415385 20773 net.cpp:395] relu2a_3p -> conv2a_3p (in-place)
I0505 16:36:52.418872 20773 net.cpp:150] Setting up relu2a_3p
I0505 16:36:52.418889 20773 net.cpp:157] Top shape: 24 128 16 56 56 (154140672)
I0505 16:36:52.418891 20773 net.cpp:165] Memory required for data: 8930672640
I0505 16:36:52.418895 20773 layer_factory.hpp:77] Creating layer pool2_3p
I0505 16:36:52.418925 20773 net.cpp:100] Creating Layer pool2_3p
I0505 16:36:52.418932 20773 net.cpp:434] pool2_3p <- conv2a_3p
I0505 16:36:52.418953 20773 net.cpp:408] pool2_3p -> pool2_3p
I0505 16:36:52.419183 20773 net.cpp:150] Setting up pool2_3p
I0505 16:36:52.419193 20773 net.cpp:157] Top shape: 24 128 8 28 28 (19267584)
I0505 16:36:52.419196 20773 net.cpp:165] Memory required for data: 9007742976
I0505 16:36:52.419203 20773 layer_factory.hpp:77] Creating layer conv3a_3p
I0505 16:36:52.419215 20773 net.cpp:100] Creating Layer conv3a_3p
I0505 16:36:52.419220 20773 net.cpp:434] conv3a_3p <- pool2_3p
I0505 16:36:52.419227 20773 net.cpp:408] conv3a_3p -> conv3a_3p
I0505 16:36:52.451766 20773 net.cpp:150] Setting up conv3a_3p
I0505 16:36:52.451803 20773 net.cpp:157] Top shape: 24 256 8 28 28 (38535168)
I0505 16:36:52.451808 20773 net.cpp:165] Memory required for data: 9161883648
I0505 16:36:52.451818 20773 layer_factory.hpp:77] Creating layer relu3a_3p
I0505 16:36:52.451834 20773 net.cpp:100] Creating Layer relu3a_3p
I0505 16:36:52.451840 20773 net.cpp:434] relu3a_3p <- conv3a_3p
I0505 16:36:52.451848 20773 net.cpp:395] relu3a_3p -> conv3a_3p (in-place)
I0505 16:36:52.452056 20773 net.cpp:150] Setting up relu3a_3p
I0505 16:36:52.452069 20773 net.cpp:157] Top shape: 24 256 8 28 28 (38535168)
I0505 16:36:52.452075 20773 net.cpp:165] Memory required for data: 9316024320
I0505 16:36:52.452081 20773 layer_factory.hpp:77] Creating layer pool3_3p
I0505 16:36:52.452095 20773 net.cpp:100] Creating Layer pool3_3p
I0505 16:36:52.452131 20773 net.cpp:434] pool3_3p <- conv3a_3p
I0505 16:36:52.452152 20773 net.cpp:408] pool3_3p -> pool3_3p
I0505 16:36:52.452406 20773 net.cpp:150] Setting up pool3_3p
I0505 16:36:52.452420 20773 net.cpp:157] Top shape: 24 256 4 14 14 (4816896)
I0505 16:36:52.452425 20773 net.cpp:165] Memory required for data: 9335291904
I0505 16:36:52.452433 20773 layer_factory.hpp:77] Creating layer conv4a_3p
I0505 16:36:52.452462 20773 net.cpp:100] Creating Layer conv4a_3p
I0505 16:36:52.452469 20773 net.cpp:434] conv4a_3p <- pool3_3p
I0505 16:36:52.452482 20773 net.cpp:408] conv4a_3p -> conv4a_3p
I0505 16:36:52.522419 20773 net.cpp:150] Setting up conv4a_3p
I0505 16:36:52.522472 20773 net.cpp:157] Top shape: 24 256 4 14 14 (4816896)
I0505 16:36:52.522480 20773 net.cpp:165] Memory required for data: 9354559488
I0505 16:36:52.522496 20773 layer_factory.hpp:77] Creating layer relu4a_3p
I0505 16:36:52.522519 20773 net.cpp:100] Creating Layer relu4a_3p
I0505 16:36:52.522539 20773 net.cpp:434] relu4a_3p <- conv4a_3p
I0505 16:36:52.522552 20773 net.cpp:395] relu4a_3p -> conv4a_3p (in-place)
I0505 16:36:52.527477 20773 net.cpp:150] Setting up relu4a_3p
I0505 16:36:52.527519 20773 net.cpp:157] Top shape: 24 256 4 14 14 (4816896)
I0505 16:36:52.527526 20773 net.cpp:165] Memory required for data: 9373827072
I0505 16:36:52.527566 20773 layer_factory.hpp:77] Creating layer pool4_3p
I0505 16:36:52.527603 20773 net.cpp:100] Creating Layer pool4_3p
I0505 16:36:52.527616 20773 net.cpp:434] pool4_3p <- conv4a_3p
I0505 16:36:52.527631 20773 net.cpp:408] pool4_3p -> pool4_3p
I0505 16:36:52.528046 20773 net.cpp:150] Setting up pool4_3p
I0505 16:36:52.528060 20773 net.cpp:157] Top shape: 24 256 2 7 7 (602112)
I0505 16:36:52.528064 20773 net.cpp:165] Memory required for data: 9376235520
I0505 16:36:52.528069 20773 layer_factory.hpp:77] Creating layer conv5a_3p
I0505 16:36:52.528082 20773 net.cpp:100] Creating Layer conv5a_3p
I0505 16:36:52.528087 20773 net.cpp:434] conv5a_3p <- pool4_3p
I0505 16:36:52.528095 20773 net.cpp:408] conv5a_3p -> conv5a_3p
I0505 16:36:52.595613 20773 net.cpp:150] Setting up conv5a_3p
I0505 16:36:52.595645 20773 net.cpp:157] Top shape: 24 256 2 7 7 (602112)
I0505 16:36:52.595649 20773 net.cpp:165] Memory required for data: 9378643968
I0505 16:36:52.595660 20773 layer_factory.hpp:77] Creating layer relu5a_3p
I0505 16:36:52.595675 20773 net.cpp:100] Creating Layer relu5a_3p
I0505 16:36:52.595681 20773 net.cpp:434] relu5a_3p <- conv5a_3p
I0505 16:36:52.595690 20773 net.cpp:395] relu5a_3p -> conv5a_3p (in-place)
I0505 16:36:52.595882 20773 net.cpp:150] Setting up relu5a_3p
I0505 16:36:52.595896 20773 net.cpp:157] Top shape: 24 256 2 7 7 (602112)
I0505 16:36:52.595901 20773 net.cpp:165] Memory required for data: 9381052416
I0505 16:36:52.595906 20773 layer_factory.hpp:77] Creating layer pool5_3p
I0505 16:36:52.595921 20773 net.cpp:100] Creating Layer pool5_3p
I0505 16:36:52.595928 20773 net.cpp:434] pool5_3p <- conv5a_3p
I0505 16:36:52.595937 20773 net.cpp:408] pool5_3p -> pool5_3p
I0505 16:36:52.596205 20773 net.cpp:150] Setting up pool5_3p
I0505 16:36:52.596220 20773 net.cpp:157] Top shape: 24 256 1 4 4 (98304)
I0505 16:36:52.596225 20773 net.cpp:165] Memory required for data: 9381445632
I0505 16:36:52.596231 20773 layer_factory.hpp:77] Creating layer fc6_3p
I0505 16:36:52.596247 20773 net.cpp:100] Creating Layer fc6_3p
I0505 16:36:52.596256 20773 net.cpp:434] fc6_3p <- pool5_3p
I0505 16:36:52.596268 20773 net.cpp:408] fc6_3p -> fc6_3p
I0505 16:36:52.946943 20773 net.cpp:150] Setting up fc6_3p
I0505 16:36:52.946974 20773 net.cpp:157] Top shape: 24 2048 (49152)
I0505 16:36:52.946979 20773 net.cpp:165] Memory required for data: 9381642240
I0505 16:36:52.946990 20773 layer_factory.hpp:77] Creating layer relu6_3p
I0505 16:36:52.947000 20773 net.cpp:100] Creating Layer relu6_3p
I0505 16:36:52.947005 20773 net.cpp:434] relu6_3p <- fc6_3p
I0505 16:36:52.947012 20773 net.cpp:395] relu6_3p -> fc6_3p (in-place)
I0505 16:36:52.958009 20773 net.cpp:150] Setting up relu6_3p
I0505 16:36:52.958027 20773 net.cpp:157] Top shape: 24 2048 (49152)
I0505 16:36:52.958031 20773 net.cpp:165] Memory required for data: 9381838848
I0505 16:36:52.958036 20773 layer_factory.hpp:77] Creating layer drop6_3p
I0505 16:36:52.958050 20773 net.cpp:100] Creating Layer drop6_3p
I0505 16:36:52.958060 20773 net.cpp:434] drop6_3p <- fc6_3p
I0505 16:36:52.958066 20773 net.cpp:395] drop6_3p -> fc6_3p (in-place)
I0505 16:36:52.958104 20773 net.cpp:150] Setting up drop6_3p
I0505 16:36:52.958112 20773 net.cpp:157] Top shape: 24 2048 (49152)
I0505 16:36:52.958115 20773 net.cpp:165] Memory required for data: 9382035456
I0505 16:36:52.958119 20773 layer_factory.hpp:77] Creating layer fc7_3p
I0505 16:36:52.958130 20773 net.cpp:100] Creating Layer fc7_3p
I0505 16:36:52.958139 20773 net.cpp:434] fc7_3p <- fc6_3p
I0505 16:36:52.958148 20773 net.cpp:408] fc7_3p -> fc7_3p
I0505 16:36:53.119773 20773 net.cpp:150] Setting up fc7_3p
I0505 16:36:53.119812 20773 net.cpp:157] Top shape: 24 2048 (49152)
I0505 16:36:53.119817 20773 net.cpp:165] Memory required for data: 9382232064
I0505 16:36:53.119832 20773 layer_factory.hpp:77] Creating layer relu7_3p
I0505 16:36:53.119848 20773 net.cpp:100] Creating Layer relu7_3p
I0505 16:36:53.119859 20773 net.cpp:434] relu7_3p <- fc7_3p
I0505 16:36:53.119865 20773 net.cpp:395] relu7_3p -> fc7_3p (in-place)
I0505 16:36:53.120213 20773 net.cpp:150] Setting up relu7_3p
I0505 16:36:53.120224 20773 net.cpp:157] Top shape: 24 2048 (49152)
I0505 16:36:53.120227 20773 net.cpp:165] Memory required for data: 9382428672
I0505 16:36:53.120232 20773 layer_factory.hpp:77] Creating layer drop7_3p
I0505 16:36:53.120242 20773 net.cpp:100] Creating Layer drop7_3p
I0505 16:36:53.120249 20773 net.cpp:434] drop7_3p <- fc7_3p
I0505 16:36:53.120252 20773 net.cpp:395] drop7_3p -> fc7_3p (in-place)
I0505 16:36:53.120288 20773 net.cpp:150] Setting up drop7_3p
I0505 16:36:53.120296 20773 net.cpp:157] Top shape: 24 2048 (49152)
I0505 16:36:53.120298 20773 net.cpp:165] Memory required for data: 9382625280
I0505 16:36:53.120301 20773 layer_factory.hpp:77] Creating layer fc7_3p_drop7_3p_0_split
I0505 16:36:53.120309 20773 net.cpp:100] Creating Layer fc7_3p_drop7_3p_0_split
I0505 16:36:53.120312 20773 net.cpp:434] fc7_3p_drop7_3p_0_split <- fc7_3p
I0505 16:36:53.120319 20773 net.cpp:408] fc7_3p_drop7_3p_0_split -> fc7_3p_drop7_3p_0_split_0
I0505 16:36:53.120327 20773 net.cpp:408] fc7_3p_drop7_3p_0_split -> fc7_3p_drop7_3p_0_split_1
I0505 16:36:53.120365 20773 net.cpp:150] Setting up fc7_3p_drop7_3p_0_split
I0505 16:36:53.120373 20773 net.cpp:157] Top shape: 24 2048 (49152)
I0505 16:36:53.120376 20773 net.cpp:157] Top shape: 24 2048 (49152)
I0505 16:36:53.120378 20773 net.cpp:165] Memory required for data: 9383018496
I0505 16:36:53.120383 20773 layer_factory.hpp:77] Creating layer auto8_3p
I0505 16:36:53.120393 20773 net.cpp:100] Creating Layer auto8_3p
I0505 16:36:53.120398 20773 net.cpp:434] auto8_3p <- fc7_3p_drop7_3p_0_split_0
I0505 16:36:53.120407 20773 net.cpp:408] auto8_3p -> auto8_3p
I0505 16:36:53.275935 20773 net.cpp:150] Setting up auto8_3p
I0505 16:36:53.275964 20773 net.cpp:157] Top shape: 24 2048 (49152)
I0505 16:36:53.275969 20773 net.cpp:165] Memory required for data: 9383215104
I0505 16:36:53.275979 20773 layer_factory.hpp:77] Creating layer relu8_3p
I0505 16:36:53.275995 20773 net.cpp:100] Creating Layer relu8_3p
I0505 16:36:53.276002 20773 net.cpp:434] relu8_3p <- auto8_3p
I0505 16:36:53.276013 20773 net.cpp:395] relu8_3p -> auto8_3p (in-place)
I0505 16:36:53.276314 20773 net.cpp:150] Setting up relu8_3p
I0505 16:36:53.276327 20773 net.cpp:157] Top shape: 24 2048 (49152)
I0505 16:36:53.276330 20773 net.cpp:165] Memory required for data: 9383411712
I0505 16:36:53.276335 20773 layer_factory.hpp:77] Creating layer drop8_3p
I0505 16:36:53.276343 20773 net.cpp:100] Creating Layer drop8_3p
I0505 16:36:53.276346 20773 net.cpp:434] drop8_3p <- auto8_3p
I0505 16:36:53.276353 20773 net.cpp:395] drop8_3p -> auto8_3p (in-place)
I0505 16:36:53.276388 20773 net.cpp:150] Setting up drop8_3p
I0505 16:36:53.276397 20773 net.cpp:157] Top shape: 24 2048 (49152)
I0505 16:36:53.276402 20773 net.cpp:165] Memory required for data: 9383608320
I0505 16:36:53.276407 20773 layer_factory.hpp:77] Creating layer loss
I0505 16:36:54.311558 20773 net.cpp:100] Creating Layer loss
I0505 16:36:54.311619 20773 net.cpp:434] loss <- fc7_drop7_0_split_1
I0505 16:36:54.311652 20773 net.cpp:434] loss <- fc7_3p_drop7_3p_0_split_1
I0505 16:36:54.311673 20773 net.cpp:434] loss <- auto8
I0505 16:36:54.311679 20773 net.cpp:434] loss <- auto8_3p
I0505 16:36:54.311687 20773 net.cpp:408] loss -> loss
I0505 16:36:55.151697 20773 net.cpp:150] Setting up loss
I0505 16:36:55.151748 20773 net.cpp:157] Top shape: 1 (1)
I0505 16:36:55.151757 20773 net.cpp:160]     with loss weight 1
I0505 16:36:55.151805 20773 net.cpp:165] Memory required for data: 9383608324
I0505 16:36:55.151816 20773 net.cpp:226] loss needs backward computation.
I0505 16:36:55.151829 20773 net.cpp:226] drop8_3p needs backward computation.
I0505 16:36:55.151839 20773 net.cpp:226] relu8_3p needs backward computation.
I0505 16:36:55.151844 20773 net.cpp:226] auto8_3p needs backward computation.
…
    mean_value: 65
    mean_value: 74
    mean_value: 92
    mean_value: 65
    mean_value: 74
    mean_value: 92
    mean_value: 65
    mean_value: 74
    mean_value: 92
    mean_value: 65
    mean_value: 74
    mean_value: 92
    mean_value: 65
    mean_value: 74
    mean_value: 92
    mean_value: 65
    mean_value: 74
    mean_value: 92
    mean_value: 65
    mean_value: 74
    mean_value: 92
    mean_value: 65
    mean_value: 74
    mean_value: 92
  }
  data_param {
    source: "/data/leo-data/Synthetic/LMDB/Triplets/val"
    batch_size: 1
    backend: LMDB
  }
}
layer {
  name: "slicer"
  type: "Slice"
  bottom: "triplet"
  top: "anchor_stacked"
  top: "positive_stacked"
  top: "negative_stacked"
  slice_param {
    slice_dim: 1
    slice_point: 48
    slice_point: 96
  }
}
layer {
  name: "reshape_anchor"
  type: "Reshape"
  bottom: "anchor_stacked"
  top: "anchor"
  reshape_param {
    shape {
      dim: 0
      dim: 3
      dim: 16
      dim: 112
      dim: 112
    }
  }
}
layer {
  name: "reshape_positive"
  type: "Reshape"
  bottom: "positive_stacked"
  top: "positive"
  reshape_param {
    shape {
      dim: 0
      dim: 3
      dim: 16
      dim: 112
      dim: 112
    }
  }
}
layer {
  name: "silence_negative"
  type: "Silence"
  bottom: "negative_stacked"
}
layer {
  name: "conv1a"
  type: "NdConvolution"
  bottom: "positive"
  top: "conv1a"
  param {
    lr_mult: 1
    decay_mult: 1
  }
  param {
    lr_mult: 2
    decay_mult: 0
  }
  convolution_param {
    num_output: 64
    weight_filler {
      type: "gaussian"
      std: 0.01
    }
    bias_filler {
      type: "constant"
      value: 0
    }
    pad_shape {
      dim: 1
      dim: 1
      dim: 1
    }
    kernel_shape {
      dim: 3
      dim: 3
      dim: 3
    }
    stride_shape {
      dim: 1
      dim: 1
      dim: 1
    }
  }
}
layer {
  name: "relu1a"
  type: "ReLU"
  bottom: "conv1a"
  top: "conv1a"
}
layer {
  name: "pool1"
  type: "NdPooling"
  bottom: "conv1a"
  top: "pool1"
  pooling_param {
    pool: MAX
    kernel_shape {
      dim: 1
      dim: 2
      dim: 2
    }
    stride_shape {
      dim: 1
      dim: 2
      dim: 2
    }
  }
}
layer {
  name: "conv2a"
  type: "NdConvolution"
  bottom: "pool1"
  top: "conv2a"
  param {
    lr_mult: 1
    decay_mult: 1
  }
  param {
    lr_mult: 2
    decay_mult: 0
  }
  convolution_param {
    num_output: 128
    weight_filler {
      type: "gaussian"
      std: 0.01
    }
    bias_filler {
      type: "constant"
      value: 1
    }
    pad_shape {
      dim: 1
      dim: 1
      dim: 1
    }
    kernel_shape {
      dim: 3
      dim: 3
      dim: 3
    }
    stride_shape {
      dim: 1
      dim: 1
      dim: 1
    }
  }
}
layer {
  name: "relu2a"
  type: "ReLU"
  bottom: "conv2a"
  top: "conv2a"
}
layer {
  name: "pool2"
  type: "NdPooling"
  bottom: "conv2a"
  top: "pool2"
  pooling_param {
    pool: MAX
    kernel_shape {
      dim: 2
      dim: 2
      dim: 2
    }
    stride_shape {
      dim: 2
      dim: 2
      dim: 2
    }
  }
}
layer {
  name: "conv3a"
  type: "NdConvolution"
  bottom: "pool2"
  top: "conv3a"
  param {
    lr_mult: 1
    decay_mult: 1
  }
  param {
    lr_mult: 2
    decay_mult: 0
  }
  convolution_param {
    num_output: 256
    weight_filler {
      type: "gaussian"
      std: 0.01
    }
    bias_filler {
      type: "constant"
      value: 1
    }
    pad_shape {
      dim: 1
      dim: 1
      dim: 1
    }
    kernel_shape {
      dim: 3
      dim: 3
      dim: 3
    }
    stride_shape {
      dim: 1
      dim: 1
      dim: 1
    }
  }
}
layer {
  name: "relu3a"
  type: "ReLU"
  bottom: "conv3a"
  top: "conv3a"
}
layer {
  name: "pool3"
  type: "NdPooling"
  bottom: "conv3a"
  top: "pool3"
  pooling_param {
    pool: MAX
    kernel_shape {
      dim: 2
      dim: 2
      dim: 2
    }
    stride_shape {
      dim: 2
      dim: 2
      dim: 2
    }
  }
}
layer {
  name: "conv4a"
  type: "NdConvolution"
  bottom: "pool3"
  top: "conv4a"
  param {
    lr_mult: 1
    decay_mult: 1
  }
  param {
    lr_mult: 2
    decay_mult: 0
  }
  convolution_param {
    num_output: 256
    weight_filler {
      type: "gaussian"
      std: 0.01
    }
    bias_filler {
      type: "constant"
      value: 1
    }
    pad_shape {
      dim: 1
      dim: 1
      dim: 1
    }
    kernel_shape {
      dim: 3
      dim: 3
      dim: 3
    }
    stride_shape {
      dim: 1
      dim: 1
      dim: 1
    }
  }
}
layer {
  name: "relu4a"
  type: "ReLU"
  bottom: "conv4a"
  top: "conv4a"
}
layer {
  name: "pool4"
  type: "NdPooling"
  bottom: "conv4a"
  top: "pool4"
  pooling_param {
    pool: MAX
    kernel_shape {
      dim: 2
      dim: 2
      dim: 2
    }
    stride_shape {
      dim: 2
      dim: 2
      dim: 2
    }
  }
}
layer {
  name: "conv5a"
  type: "NdConvolution"
  bottom: "pool4"
  top: "conv5a"
  param {
    lr_mult: 1
    decay_mult: 1
  }
  param {
    lr_mult: 2
    decay_mult: 0
  }
  convolution_param {
    num_output: 256
    weight_filler {
      type: "gaussian"
      std: 0.01
    }
    bias_filler {
      type: "constant"
      value: 1
    }
    pad_shape {
      dim: 1
      dim: 1
      dim: 1
    }
    kernel_shape {
      dim: 3
      dim: 3
      dim: 3
    }
    stride_shape {
      dim: 1
      dim: 1
      dim: 1
    }
  }
}
layer {
  name: "relu5a"
  type: "ReLU"
  bottom: "conv5a"
  top: "conv5a"
}
layer {
  name: "pool5"
  type: "NdPooling"
  bottom: "conv5a"
  top: "pool5"
  pooling_param {
    pool: MAX
    kernel_shape {
      dim: 2
      dim: 2
      dim: 2
    }
    stride_shape {
      dim: 2
      dim: 2
      dim: 2
    }
  }
}
layer {
  name: "fc6"
  type: "InnerProduct"
  bottom: "pool5"
  top: "fc6"
  param {
    lr_mult: 1
    decay_mult: 1
  }
  param {
    lr_mult: 2
    decay_mult: 0
  }
  inner_product_param {
    num_output: 2048
    weight_filler {
      type: "gaussian"
      std: 0.005
    }
    bias_filler {
      type: "constant"
      value: 1
    }
  }
}
layer {
  name: "relu6"
  type: "ReLU"
  bottom: "fc6"
  top: "fc6"
}
layer {
  name: "drop6"
  type: "Dropout"
  bottom: "fc6"
  top: "fc6"
  dropout_param {
    dropout_ratio: 0.5
  }
}
layer {
  name: "fc7"
  type: "InnerProduct"
  bottom: "fc6"
  top: "fc7"
  param {
    lr_mult: 1
    decay_mult: 1
  }
  param {
    lr_mult: 2
    decay_mult: 0
  }
  inner_product_param {
    num_output: 2048
    weight_filler {
      type: "gaussian"
      std: 0.005
    }
    bias_filler {
      type: "constant"
      value: 1
    }
  }
}
layer {
  name: "relu7"
  type: "ReLU"
  bottom: "fc7"
  top: "fc7"
}
layer {
  name: "drop7"
  type: "Dropout"
  bottom: "fc7"
  top: "fc7"
  dropout_param {
    dropout_ratio: 0.5
  }
}
layer {
  name: "auto8"
  type: "InnerProduct"
  bottom: "fc7"
  top: "auto8"
  param {
    lr_mult: 1
    decay_mult: 1
  }
  param {
    lr_mult: 2
    decay_mult: 0
  }
  inner_product_param {
    num_output: 2048
    weight_filler {
      type: "gaussian"
      std: 0.005
    }
    bias_filler {
      type: "constant"
      value: 1
    }
  }
}
layer {
  name: "relu8"
  type: "ReLU"
  bottom: "auto8"
  top: "auto8"
}
layer {
  name: "drop8"
  type: "Dropout"
  bottom: "auto8"
  top: "auto8"
  dropout_param {
    dropout_ratio: 0.5
  }
}
layer {
  name: "conv1a_3p"
  type: "NdConvolution"
  bottom: "anchor"
  top: "conv1a_3p"
  param {
    lr_mult: 1
    decay_mult: 1
  }
  param {
    lr_mult: 2
    decay_mult: 0
  }
  convolution_param {
    num_output: 64
    weight_filler {
      type: "gaussian"
      std: 0.01
    }
    bias_filler {
      type: "constant"
      value: 0
    }
    pad_shape {
      dim: 1
      dim: 1
      dim: 1
    }
    kernel_shape {
      dim: 3
      dim: 3
      dim: 3
    }
    stride_shape {
      dim: 1
      dim: 1
      dim: 1
    }
  }
}
layer {
  name: "relu1a_3p"
  type: "ReLU"
  bottom: "conv1a_3p"
  top: "conv1a_3p"
}
layer {
  name: "pool1_3p"
  type: "NdPooling"
  bottom: "conv1a_3p"
  top: "pool1_3p"
  pooling_param {
    pool: MAX
    kernel_shape {
      dim: 1
      dim: 2
      dim: 2
    }
    stride_shape {
      dim: 1
      dim: 2
      dim: 2
    }
  }
}
layer {
  name: "conv2a_3p"
  type: "NdConvolution"
  bottom: "pool1_3p"
  top: "conv2a_3p"
  param {
    lr_mult: 1
    decay_mult: 1
  }
  param {
    lr_mult: 2
    decay_mult: 0
  }
  convolution_param {
    num_output: 128
    weight_filler {
      type: "gaussian"
      std: 0.01
    }
    bias_filler {
      type: "constant"
      value: 1
    }
    pad_shape {
      dim: 1
      dim: 1
      dim: 1
    }
    kernel_shape {
      dim: 3
      dim: 3
      dim: 3
    }
    stride_shape {
      dim: 1
      dim: 1
      dim: 1
    }
  }
}
layer {
  name: "relu2a_3p"
  type: "ReLU"
  bottom: "conv2a_3p"
  top: "conv2a_3p"
}
layer {
  name: "pool2_3p"
  type: "NdPooling"
  bottom: "conv2a_3p"
  top: "pool2_3p"
  pooling_param {
    pool: MAX
    kernel_shape {
      dim: 2
      dim: 2
      dim: 2
    }
    stride_shape {
      dim: 2
      dim: 2
      dim: 2
    }
  }
}
layer {
  name: "conv3a_3p"
  type: "NdConvolution"
  bottom: "pool2_3p"
  top: "conv3a_3p"
  param {
    lr_mult: 1
    decay_mult: 1
  }
  param {
    lr_mult: 2
    decay_mult: 0
  }
  convolution_param {
    num_output: 256
    weight_filler {
      type: "gaussian"
      std: 0.01
    }
    bias_filler {
      type: "constant"
      value: 1
    }
    pad_shape {
      dim: 1
      dim: 1
      dim: 1
    }
    kernel_shape {
      dim: 3
      dim: 3
      dim: 3
    }
    stride_shape {
      dim: 1
      dim: 1
      dim: 1
    }
  }
}
layer {
  name: "relu3a_3p"
  type: "ReLU"
  bottom: "conv3a_3p"
  top: "conv3a_3p"
}
layer {
  name: "pool3_3p"
  type: "NdPooling"
  bottom: "conv3a_3p"
  top: "pool3_3p"
  pooling_param {
    pool: MAX
    kernel_shape {
      dim: 2
      dim: 2
      dim: 2
    }
    stride_shape {
      dim: 2
      dim: 2
      dim: 2
    }
  }
}
layer {
  name: "conv4a_3p"
  type: "NdConvolution"
  bottom: "pool3_3p"
  top: "conv4a_3p"
  param {
    lr_mult: 1
    decay_mult: 1
  }
  param {
    lr_mult: 2
    decay_mult: 0
  }
  convolution_param {
    num_output: 256
    weight_filler {
      type: "gaussian"
      std: 0.01
    }
    bias_filler {
      type: "constant"
      value: 1
    }
    pad_shape {
      dim: 1
      dim: 1
      dim: 1
    }
    kernel_shape {
      dim: 3
      dim: 3
      dim: 3
    }
    stride_shape {
      dim: 1
      dim: 1
      dim: 1
    }
  }
}
layer {
  name: "relu4a_3p"
  type: "ReLU"
  bottom: "conv4a_3p"
  top: "conv4a_3p"
}
layer {
  name: "pool4_3p"
  type: "NdPooling"
  bottom: "conv4a_3p"
  top: "pool4_3p"
  pooling_param {
    pool: MAX
    kernel_shape {
      dim: 2
      dim: 2
      dim: 2
    }
    stride_shape {
      dim: 2
      dim: 2
      dim: 2
    }
  }
}
layer {
  name: "conv5a_3p"
  type: "NdConvolution"
  bottom: "pool4_3p"
  top: "conv5a_3p"
  param {
    lr_mult: 1
    decay_mult: 1
  }
  param {
    lr_mult: 2
    decay_mult: 0
  }
  convolution_param {
    num_output: 256
    weight_filler {
      type: "gaussian"
      std: 0.01
    }
    bias_filler {
      type: "constant"
      value: 1
    }
    pad_shape {
      dim: 1
      dim: 1
      dim: 1
    }
    kernel_shape {
      dim: 3
      dim: 3
      dim: 3
    }
    stride_shape {
      dim: 1
      dim: 1
      dim: 1
    }
  }
}
layer {
  name: "relu5a_3p"
  type: "ReLU"
  bottom: "conv5a_3p"
  top: "conv5a_3p"
}
layer {
  name: "pool5_3p"
  type: "NdPooling"
  bottom: "conv5a_3p"
  top: "pool5_3p"
  pooling_param {
    pool: MAX
    kernel_shape {
      dim: 2
      dim: 2
      dim: 2
    }
    stride_shape {
      dim: 2
      dim: 2
      dim: 2
    }
  }
}
layer {
  name: "fc6_3p"
  type: "InnerProduct"
  bottom: "pool5_3p"
  top: "fc6_3p"
  param {
    lr_mult: 1
    decay_mult: 1
  }
  param {
    lr_mult: 2
    decay_mult: 0
  }
  inner_product_param {
    num_output: 2048
    weight_filler {
      type: "gaussian"
      std: 0.005
    }
    bias_filler {
      type: "constant"
      value: 1
    }
  }
}
layer {
  name: "relu6_3p"
  type: "ReLU"
  bottom: "fc6_3p"
  top: "fc6_3p"
}
layer {
  name: "drop6_3p"
  type: "Dropout"
  bottom: "fc6_3p"
  top: "fc6_3p"
  dropout_param {
    dropout_ratio: 0.5
  }
}
layer {
  name: "fc7_3p"
  type: "InnerProduct"
  bottom: "fc6_3p"
  top: "fc7_3p"
  param {
    lr_mult: 1
    decay_mult: 1
  }
  param {
    lr_mult: 2
    decay_mult: 0
  }
  inner_product_param {
    num_output: 2048
    weight_filler {
      type: "gaussian"
      std: 0.005
    }
    bias_filler {
      type: "constant"
      value: 1
    }
  }
}
layer {
  name: "relu7_3p"
  type: "ReLU"
  bottom: "fc7_3p"
  top: "fc7_3p"
}
layer {
  name: "drop7_3p"
  type: "Dropout"
  bottom: "fc7_3p"
  top: "fc7_3p"
  dropout_param {
    dropout_ratio: 0.5
  }
}
layer {
  name: "auto8_3p"
  type: "InnerProduct"
  bottom: "fc7_3p"
  top: "auto8_3p"
  param {
    lr_mult: 1
    decay_mult: 1
  }
  param {
    lr_mult: 2
    decay_mult: 0
  }
  inner_product_param {
    num_output: 2048
    weight_filler {
      type: "gaussian"
      std: 0.005
    }
    bias_filler {
      type: "constant"
      value: 1
    }
  }
}
layer {
  name: "relu8_3p"
  type: "ReLU"
  bottom: "auto8_3p"
  top: "auto8_3p"
}
layer {
  name: "drop8_3p"
  type: "Dropout"
  bottom: "auto8_3p"
  top: "auto8_3p"
  dropout_param {
    dropout_ratio: 0.5
  }
}
layer {
  name: "loss"
  type: "Python"
  bottom: "fc7"
  bottom: "fc7_3p"
  bottom: "auto8"
  bottom: "auto8_3p"
  top: "loss"
  loss_weight: 1
  python_param {
    module: "cyclic_loss"
    layer: "CyclicLossLayer"
  }
}
I0505 16:36:55.158301 20773 layer_factory.hpp:77] Creating layer data
I0505 16:36:55.158452 20773 net.cpp:100] Creating Layer data
I0505 16:36:55.158473 20773 net.cpp:408] data -> triplet
I0505 16:36:55.399020 20807 db_lmdb.cpp:35] Opened lmdb /data/leo-data/Synthetic/LMDB/Triplets/val
I0505 16:36:55.625469 20773 data_layer.cpp:41] output data size: 1,144,112,112
I0505 16:36:55.650300 20773 net.cpp:150] Setting up data
I0505 16:36:55.650339 20773 net.cpp:157] Top shape: 1 144 112 112 (1806336)
I0505 16:36:55.650346 20773 net.cpp:165] Memory required for data: 7225344
I0505 16:36:55.650357 20773 layer_factory.hpp:77] Creating layer slicer
I0505 16:36:55.650382 20773 net.cpp:100] Creating Layer slicer
I0505 16:36:55.650396 20773 net.cpp:434] slicer <- triplet
I0505 16:36:55.650415 20773 net.cpp:408] slicer -> anchor_stacked
I0505 16:36:55.650436 20773 net.cpp:408] slicer -> positive_stacked
I0505 16:36:55.650456 20773 net.cpp:408] slicer -> negative_stacked
I0505 16:36:55.650670 20773 net.cpp:150] Setting up slicer
I0505 16:36:55.650686 20773 net.cpp:157] Top shape: 1 48 112 112 (602112)
I0505 16:36:55.650696 20773 net.cpp:157] Top shape: 1 48 112 112 (602112)
I0505 16:36:55.650709 20773 net.cpp:157] Top shape: 1 48 112 112 (602112)
I0505 16:36:55.650719 20773 net.cpp:165] Memory required for data: 14450688
I0505 16:36:55.650732 20773 layer_factory.hpp:77] Creating layer reshape_anchor
I0505 16:36:55.650751 20773 net.cpp:100] Creating Layer reshape_anchor
I0505 16:36:55.650763 20773 net.cpp:434] reshape_anchor <- anchor_stacked
I0505 16:36:55.650779 20773 net.cpp:408] reshape_anchor -> anchor
I0505 16:36:55.650847 20773 net.cpp:150] Setting up reshape_anchor
I0505 16:36:55.650866 20773 net.cpp:157] Top shape: 1 3 16 112 112 (602112)
I0505 16:36:55.650876 20773 net.cpp:165] Memory required for data: 16859136
I0505 16:36:55.650887 20773 layer_factory.hpp:77] Creating layer reshape_positive
I0505 16:36:55.650902 20773 net.cpp:100] Creating Layer reshape_positive
I0505 16:36:55.650934 20773 net.cpp:434] reshape_positive <- positive_stacked
I0505 16:36:55.650950 20773 net.cpp:408] reshape_positive -> positive
I0505 16:36:55.651034 20773 net.cpp:150] Setting up reshape_positive
I0505 16:36:55.651052 20773 net.cpp:157] Top shape: 1 3 16 112 112 (602112)
I0505 16:36:55.651062 20773 net.cpp:165] Memory required for data: 19267584
I0505 16:36:55.651072 20773 layer_factory.hpp:77] Creating layer silence_negative
I0505 16:36:55.651088 20773 net.cpp:100] Creating Layer silence_negative
I0505 16:36:55.651099 20773 net.cpp:434] silence_negative <- negative_stacked
I0505 16:36:55.651113 20773 net.cpp:150] Setting up silence_negative
I0505 16:36:55.651123 20773 net.cpp:165] Memory required for data: 19267584
I0505 16:36:55.651132 20773 layer_factory.hpp:77] Creating layer conv1a
I0505 16:36:55.651154 20773 net.cpp:100] Creating Layer conv1a
I0505 16:36:55.651163 20773 net.cpp:434] conv1a <- positive
I0505 16:36:55.651180 20773 net.cpp:408] conv1a -> conv1a
I0505 16:36:55.668198 20773 net.cpp:150] Setting up conv1a
I0505 16:36:55.668231 20773 net.cpp:157] Top shape: 1 64 16 112 112 (12845056)
I0505 16:36:55.668237 20773 net.cpp:165] Memory required for data: 70647808
I0505 16:36:55.668256 20773 layer_factory.hpp:77] Creating layer relu1a
I0505 16:36:55.668272 20773 net.cpp:100] Creating Layer relu1a
I0505 16:36:55.668279 20773 net.cpp:434] relu1a <- conv1a
I0505 16:36:55.668287 20773 net.cpp:395] relu1a -> conv1a (in-place)
I0505 16:36:55.670943 20773 net.cpp:150] Setting up relu1a
I0505 16:36:55.670964 20773 net.cpp:157] Top shape: 1 64 16 112 112 (12845056)
I0505 16:36:55.670974 20773 net.cpp:165] Memory required for data: 122028032
I0505 16:36:55.670979 20773 layer_factory.hpp:77] Creating layer pool1
I0505 16:36:55.670990 20773 net.cpp:100] Creating Layer pool1
I0505 16:36:55.670995 20773 net.cpp:434] pool1 <- conv1a
I0505 16:36:55.671006 20773 net.cpp:408] pool1 -> pool1
I0505 16:36:55.671398 20773 net.cpp:150] Setting up pool1
I0505 16:36:55.671416 20773 net.cpp:157] Top shape: 1 64 16 56 56 (3211264)
I0505 16:36:55.671422 20773 net.cpp:165] Memory required for data: 134873088
I0505 16:36:55.671452 20773 layer_factory.hpp:77] Creating layer conv2a
I0505 16:36:55.671473 20773 net.cpp:100] Creating Layer conv2a
I0505 16:36:55.671481 20773 net.cpp:434] conv2a <- pool1
I0505 16:36:55.671490 20773 net.cpp:408] conv2a -> conv2a
I0505 16:36:55.685811 20773 net.cpp:150] Setting up conv2a
I0505 16:36:55.685838 20773 net.cpp:157] Top shape: 1 128 16 56 56 (6422528)
I0505 16:36:55.685842 20773 net.cpp:165] Memory required for data: 160563200
I0505 16:36:55.685863 20773 layer_factory.hpp:77] Creating layer relu2a
I0505 16:36:55.685874 20773 net.cpp:100] Creating Layer relu2a
I0505 16:36:55.685883 20773 net.cpp:434] relu2a <- conv2a
I0505 16:36:55.685887 20773 net.cpp:395] relu2a -> conv2a (in-place)
I0505 16:36:55.686082 20773 net.cpp:150] Setting up relu2a
I0505 16:36:55.686105 20773 net.cpp:157] Top shape: 1 128 16 56 56 (6422528)
I0505 16:36:55.686107 20773 net.cpp:165] Memory required for data: 186253312
I0505 16:36:55.686111 20773 layer_factory.hpp:77] Creating layer pool2
I0505 16:36:55.686121 20773 net.cpp:100] Creating Layer pool2
I0505 16:36:55.686126 20773 net.cpp:434] pool2 <- conv2a
I0505 16:36:55.686132 20773 net.cpp:408] pool2 -> pool2
I0505 16:36:55.686357 20773 net.cpp:150] Setting up pool2
I0505 16:36:55.686367 20773 net.cpp:157] Top shape: 1 128 8 28 28 (802816)
I0505 16:36:55.686370 20773 net.cpp:165] Memory required for data: 189464576
I0505 16:36:55.686373 20773 layer_factory.hpp:77] Creating layer conv3a
I0505 16:36:55.686385 20773 net.cpp:100] Creating Layer conv3a
I0505 16:36:55.686390 20773 net.cpp:434] conv3a <- pool2
I0505 16:36:55.686398 20773 net.cpp:408] conv3a -> conv3a
I0505 16:36:55.718793 20773 net.cpp:150] Setting up conv3a
I0505 16:36:55.718822 20773 net.cpp:157] Top shape: 1 256 8 28 28 (1605632)
I0505 16:36:55.718825 20773 net.cpp:165] Memory required for data: 195887104
I0505 16:36:55.718839 20773 layer_factory.hpp:77] Creating layer relu3a
I0505 16:36:55.718848 20773 net.cpp:100] Creating Layer relu3a
I0505 16:36:55.718853 20773 net.cpp:434] relu3a <- conv3a
I0505 16:36:55.718868 20773 net.cpp:395] relu3a -> conv3a (in-place)
I0505 16:36:55.719126 20773 net.cpp:150] Setting up relu3a
I0505 16:36:55.719138 20773 net.cpp:157] Top shape: 1 256 8 28 28 (1605632)
I0505 16:36:55.719142 20773 net.cpp:165] Memory required for data: 202309632
I0505 16:36:55.719146 20773 layer_factory.hpp:77] Creating layer pool3
I0505 16:36:55.719156 20773 net.cpp:100] Creating Layer pool3
I0505 16:36:55.719162 20773 net.cpp:434] pool3 <- conv3a
I0505 16:36:55.719168 20773 net.cpp:408] pool3 -> pool3
I0505 16:36:55.720175 20773 net.cpp:150] Setting up pool3
I0505 16:36:55.720187 20773 net.cpp:157] Top shape: 1 256 4 14 14 (200704)
I0505 16:36:55.720191 20773 net.cpp:165] Memory required for data: 203112448
I0505 16:36:55.720194 20773 layer_factory.hpp:77] Creating layer conv4a
I0505 16:36:55.720208 20773 net.cpp:100] Creating Layer conv4a
I0505 16:36:55.720214 20773 net.cpp:434] conv4a <- pool3
I0505 16:36:55.720219 20773 net.cpp:408] conv4a -> conv4a
I0505 16:36:55.788790 20773 net.cpp:150] Setting up conv4a
I0505 16:36:55.788818 20773 net.cpp:157] Top shape: 1 256 4 14 14 (200704)
I0505 16:36:55.788825 20773 net.cpp:165] Memory required for data: 203915264
I0505 16:36:55.788841 20773 layer_factory.hpp:77] Creating layer relu4a
I0505 16:36:55.788859 20773 net.cpp:100] Creating Layer relu4a
I0505 16:36:55.788869 20773 net.cpp:434] relu4a <- conv4a
I0505 16:36:55.788884 20773 net.cpp:395] relu4a -> conv4a (in-place)
I0505 16:36:55.789144 20773 net.cpp:150] Setting up relu4a
I0505 16:36:55.789156 20773 net.cpp:157] Top shape: 1 256 4 14 14 (200704)
I0505 16:36:55.789162 20773 net.cpp:165] Memory required for data: 204718080
I0505 16:36:55.789167 20773 layer_factory.hpp:77] Creating layer pool4
I0505 16:36:55.789186 20773 net.cpp:100] Creating Layer pool4
I0505 16:36:55.789192 20773 net.cpp:434] pool4 <- conv4a
I0505 16:36:55.789204 20773 net.cpp:408] pool4 -> pool4
I0505 16:36:55.789506 20773 net.cpp:150] Setting up pool4
I0505 16:36:55.789520 20773 net.cpp:157] Top shape: 1 256 2 7 7 (25088)
I0505 16:36:55.789548 20773 net.cpp:165] Memory required for data: 204818432
I0505 16:36:55.789557 20773 layer_factory.hpp:77] Creating layer conv5a
I0505 16:36:55.789573 20773 net.cpp:100] Creating Layer conv5a
I0505 16:36:55.789579 20773 net.cpp:434] conv5a <- pool4
I0505 16:36:55.789589 20773 net.cpp:408] conv5a -> conv5a
I0505 16:36:55.855139 20773 net.cpp:150] Setting up conv5a
I0505 16:36:55.855165 20773 net.cpp:157] Top shape: 1 256 2 7 7 (25088)
I0505 16:36:55.855170 20773 net.cpp:165] Memory required for data: 204918784
I0505 16:36:55.855193 20773 layer_factory.hpp:77] Creating layer relu5a
I0505 16:36:55.855217 20773 net.cpp:100] Creating Layer relu5a
I0505 16:36:55.855226 20773 net.cpp:434] relu5a <- conv5a
I0505 16:36:55.855235 20773 net.cpp:395] relu5a -> conv5a (in-place)
I0505 16:36:55.855461 20773 net.cpp:150] Setting up relu5a
I0505 16:36:55.855473 20773 net.cpp:157] Top shape: 1 256 2 7 7 (25088)
I0505 16:36:55.855478 20773 net.cpp:165] Memory required for data: 205019136
I0505 16:36:55.855482 20773 layer_factory.hpp:77] Creating layer pool5
I0505 16:36:55.855492 20773 net.cpp:100] Creating Layer pool5
I0505 16:36:55.855501 20773 net.cpp:434] pool5 <- conv5a
I0505 16:36:55.855509 20773 net.cpp:408] pool5 -> pool5
I0505 16:36:55.857525 20773 net.cpp:150] Setting up pool5
I0505 16:36:55.857542 20773 net.cpp:157] Top shape: 1 256 1 4 4 (4096)
I0505 16:36:55.857548 20773 net.cpp:165] Memory required for data: 205035520
I0505 16:36:55.857554 20773 layer_factory.hpp:77] Creating layer fc6
I0505 16:36:55.857571 20773 net.cpp:100] Creating Layer fc6
I0505 16:36:55.857578 20773 net.cpp:434] fc6 <- pool5
I0505 16:36:55.857586 20773 net.cpp:408] fc6 -> fc6
I0505 16:36:56.167464 20773 net.cpp:150] Setting up fc6
I0505 16:36:56.167508 20773 net.cpp:157] Top shape: 1 2048 (2048)
I0505 16:36:56.167515 20773 net.cpp:165] Memory required for data: 205043712
I0505 16:36:56.167528 20773 layer_factory.hpp:77] Creating layer relu6
I0505 16:36:56.167543 20773 net.cpp:100] Creating Layer relu6
I0505 16:36:56.167585 20773 net.cpp:434] relu6 <- fc6
I0505 16:36:56.167609 20773 net.cpp:395] relu6 -> fc6 (in-place)
I0505 16:36:56.167964 20773 net.cpp:150] Setting up relu6
I0505 16:36:56.167995 20773 net.cpp:157] Top shape: 1 2048 (2048)
I0505 16:36:56.168011 20773 net.cpp:165] Memory required for data: 205051904
I0505 16:36:56.168027 20773 layer_factory.hpp:77] Creating layer drop6
I0505 16:36:56.168050 20773 net.cpp:100] Creating Layer drop6
I0505 16:36:56.168064 20773 net.cpp:434] drop6 <- fc6
I0505 16:36:56.168084 20773 net.cpp:395] drop6 -> fc6 (in-place)
I0505 16:36:56.168151 20773 net.cpp:150] Setting up drop6
I0505 16:36:56.168175 20773 net.cpp:157] Top shape: 1 2048 (2048)
I0505 16:36:56.168190 20773 net.cpp:165] Memory required for data: 205060096
I0505 16:36:56.168206 20773 layer_factory.hpp:77] Creating layer fc7
I0505 16:36:56.168231 20773 net.cpp:100] Creating Layer fc7
I0505 16:36:56.168246 20773 net.cpp:434] fc7 <- fc6
I0505 16:36:56.168265 20773 net.cpp:408] fc7 -> fc7
I0505 16:36:56.322239 20773 net.cpp:150] Setting up fc7
I0505 16:36:56.322283 20773 net.cpp:157] Top shape: 1 2048 (2048)
I0505 16:36:56.322286 20773 net.cpp:165] Memory required for data: 205068288
I0505 16:36:56.322296 20773 layer_factory.hpp:77] Creating layer relu7
I0505 16:36:56.322306 20773 net.cpp:100] Creating Layer relu7
I0505 16:36:56.322311 20773 net.cpp:434] relu7 <- fc7
I0505 16:36:56.322317 20773 net.cpp:395] relu7 -> fc7 (in-place)
I0505 16:36:56.322593 20773 net.cpp:150] Setting up relu7
I0505 16:36:56.322604 20773 net.cpp:157] Top shape: 1 2048 (2048)
I0505 16:36:56.322607 20773 net.cpp:165] Memory required for data: 205076480
I0505 16:36:56.322612 20773 layer_factory.hpp:77] Creating layer drop7
I0505 16:36:56.322618 20773 net.cpp:100] Creating Layer drop7
I0505 16:36:56.322621 20773 net.cpp:434] drop7 <- fc7
I0505 16:36:56.322628 20773 net.cpp:395] drop7 -> fc7 (in-place)
I0505 16:36:56.322661 20773 net.cpp:150] Setting up drop7
I0505 16:36:56.322669 20773 net.cpp:157] Top shape: 1 2048 (2048)
I0505 16:36:56.322674 20773 net.cpp:165] Memory required for data: 205084672
I0505 16:36:56.322698 20773 layer_factory.hpp:77] Creating layer fc7_drop7_0_split
I0505 16:36:56.322705 20773 net.cpp:100] Creating Layer fc7_drop7_0_split
I0505 16:36:56.322708 20773 net.cpp:434] fc7_drop7_0_split <- fc7
I0505 16:36:56.322713 20773 net.cpp:408] fc7_drop7_0_split -> fc7_drop7_0_split_0
I0505 16:36:56.322720 20773 net.cpp:408] fc7_drop7_0_split -> fc7_drop7_0_split_1
I0505 16:36:56.322779 20773 net.cpp:150] Setting up fc7_drop7_0_split
I0505 16:36:56.322787 20773 net.cpp:157] Top shape: 1 2048 (2048)
I0505 16:36:56.322790 20773 net.cpp:157] Top shape: 1 2048 (2048)
I0505 16:36:56.322793 20773 net.cpp:165] Memory required for data: 205101056
I0505 16:36:56.322796 20773 layer_factory.hpp:77] Creating layer auto8
I0505 16:36:56.322806 20773 net.cpp:100] Creating Layer auto8
I0505 16:36:56.322811 20773 net.cpp:434] auto8 <- fc7_drop7_0_split_0
I0505 16:36:56.322816 20773 net.cpp:408] auto8 -> auto8
I0505 16:36:56.467887 20773 net.cpp:150] Setting up auto8
I0505 16:36:56.467926 20773 net.cpp:157] Top shape: 1 2048 (2048)
I0505 16:36:56.467932 20773 net.cpp:165] Memory required for data: 205109248
I0505 16:36:56.467941 20773 layer_factory.hpp:77] Creating layer relu8
I0505 16:36:56.467952 20773 net.cpp:100] Creating Layer relu8
I0505 16:36:56.467957 20773 net.cpp:434] relu8 <- auto8
I0505 16:36:56.467962 20773 net.cpp:395] relu8 -> auto8 (in-place)
I0505 16:36:56.468221 20773 net.cpp:150] Setting up relu8
I0505 16:36:56.468231 20773 net.cpp:157] Top shape: 1 2048 (2048)
I0505 16:36:56.468235 20773 net.cpp:165] Memory required for data: 205117440
I0505 16:36:56.468238 20773 layer_factory.hpp:77] Creating layer drop8
I0505 16:36:56.468245 20773 net.cpp:100] Creating Layer drop8
I0505 16:36:56.468248 20773 net.cpp:434] drop8 <- auto8
I0505 16:36:56.468252 20773 net.cpp:395] drop8 -> auto8 (in-place)
I0505 16:36:56.468286 20773 net.cpp:150] Setting up drop8
I0505 16:36:56.468293 20773 net.cpp:157] Top shape: 1 2048 (2048)
I0505 16:36:56.468297 20773 net.cpp:165] Memory required for data: 205125632
I0505 16:36:56.468298 20773 layer_factory.hpp:77] Creating layer conv1a_3p
I0505 16:36:56.468309 20773 net.cpp:100] Creating Layer conv1a_3p
I0505 16:36:56.468317 20773 net.cpp:434] conv1a_3p <- anchor
I0505 16:36:56.468327 20773 net.cpp:408] conv1a_3p -> conv1a_3p
I0505 16:36:56.472674 20773 net.cpp:150] Setting up conv1a_3p
I0505 16:36:56.472699 20773 net.cpp:157] Top shape: 1 64 16 112 112 (12845056)
I0505 16:36:56.472704 20773 net.cpp:165] Memory required for data: 256505856
I0505 16:36:56.472738 20773 layer_factory.hpp:77] Creating layer relu1a_3p
I0505 16:36:56.472754 20773 net.cpp:100] Creating Layer relu1a_3p
I0505 16:36:56.472762 20773 net.cpp:434] relu1a_3p <- conv1a_3p
I0505 16:36:56.472771 20773 net.cpp:395] relu1a_3p -> conv1a_3p (in-place)
I0505 16:36:56.472990 20773 net.cpp:150] Setting up relu1a_3p
I0505 16:36:56.473002 20773 net.cpp:157] Top shape: 1 64 16 112 112 (12845056)
I0505 16:36:56.473007 20773 net.cpp:165] Memory required for data: 307886080
I0505 16:36:56.473012 20773 layer_factory.hpp:77] Creating layer pool1_3p
I0505 16:36:56.473031 20773 net.cpp:100] Creating Layer pool1_3p
I0505 16:36:56.473037 20773 net.cpp:434] pool1_3p <- conv1a_3p
I0505 16:36:56.473048 20773 net.cpp:408] pool1_3p -> pool1_3p
I0505 16:36:56.474643 20773 net.cpp:150] Setting up pool1_3p
I0505 16:36:56.474678 20773 net.cpp:157] Top shape: 1 64 16 56 56 (3211264)
I0505 16:36:56.474684 20773 net.cpp:165] Memory required for data: 320731136
I0505 16:36:56.474690 20773 layer_factory.hpp:77] Creating layer conv2a_3p
I0505 16:36:56.474712 20773 net.cpp:100] Creating Layer conv2a_3p
I0505 16:36:56.474721 20773 net.cpp:434] conv2a_3p <- pool1_3p
I0505 16:36:56.474740 20773 net.cpp:408] conv2a_3p -> conv2a_3p
I0505 16:36:56.492295 20773 net.cpp:150] Setting up conv2a_3p
I0505 16:36:56.492321 20773 net.cpp:157] Top shape: 1 128 16 56 56 (6422528)
I0505 16:36:56.492326 20773 net.cpp:165] Memory required for data: 346421248
I0505 16:36:56.492337 20773 layer_factory.hpp:77] Creating layer relu2a_3p
I0505 16:36:56.492378 20773 net.cpp:100] Creating Layer relu2a_3p
I0505 16:36:56.492385 20773 net.cpp:434] relu2a_3p <- conv2a_3p
I0505 16:36:56.492395 20773 net.cpp:395] relu2a_3p -> conv2a_3p (in-place)
I0505 16:36:56.492712 20773 net.cpp:150] Setting up relu2a_3p
I0505 16:36:56.492727 20773 net.cpp:157] Top shape: 1 128 16 56 56 (6422528)
I0505 16:36:56.492735 20773 net.cpp:165] Memory required for data: 372111360
I0505 16:36:56.492741 20773 layer_factory.hpp:77] Creating layer pool2_3p
I0505 16:36:56.492754 20773 net.cpp:100] Creating Layer pool2_3p
I0505 16:36:56.492761 20773 net.cpp:434] pool2_3p <- conv2a_3p
I0505 16:36:56.492769 20773 net.cpp:408] pool2_3p -> pool2_3p
I0505 16:36:56.493201 20773 net.cpp:150] Setting up pool2_3p
I0505 16:36:56.493226 20773 net.cpp:157] Top shape: 1 128 8 28 28 (802816)
I0505 16:36:56.493230 20773 net.cpp:165] Memory required for data: 375322624
I0505 16:36:56.493235 20773 layer_factory.hpp:77] Creating layer conv3a_3p
I0505 16:36:56.493248 20773 net.cpp:100] Creating Layer conv3a_3p
I0505 16:36:56.493253 20773 net.cpp:434] conv3a_3p <- pool2_3p
I0505 16:36:56.493264 20773 net.cpp:408] conv3a_3p -> conv3a_3p
I0505 16:36:56.537863 20773 net.cpp:150] Setting up conv3a_3p
I0505 16:36:56.537900 20773 net.cpp:157] Top shape: 1 256 8 28 28 (1605632)
I0505 16:36:56.537905 20773 net.cpp:165] Memory required for data: 381745152
I0505 16:36:56.537917 20773 layer_factory.hpp:77] Creating layer relu3a_3p
I0505 16:36:56.537930 20773 net.cpp:100] Creating Layer relu3a_3p
I0505 16:36:56.537935 20773 net.cpp:434] relu3a_3p <- conv3a_3p
I0505 16:36:56.537951 20773 net.cpp:395] relu3a_3p -> conv3a_3p (in-place)
I0505 16:36:56.538189 20773 net.cpp:150] Setting up relu3a_3p
I0505 16:36:56.538202 20773 net.cpp:157] Top shape: 1 256 8 28 28 (1605632)
I0505 16:36:56.538213 20773 net.cpp:165] Memory required for data: 388167680
I0505 16:36:56.538216 20773 layer_factory.hpp:77] Creating layer pool3_3p
I0505 16:36:56.538229 20773 net.cpp:100] Creating Layer pool3_3p
I0505 16:36:56.538235 20773 net.cpp:434] pool3_3p <- conv3a_3p
I0505 16:36:56.538242 20773 net.cpp:408] pool3_3p -> pool3_3p
I0505 16:36:56.539497 20773 net.cpp:150] Setting up pool3_3p
I0505 16:36:56.539515 20773 net.cpp:157] Top shape: 1 256 4 14 14 (200704)
I0505 16:36:56.539518 20773 net.cpp:165] Memory required for data: 388970496
I0505 16:36:56.539525 20773 layer_factory.hpp:77] Creating layer conv4a_3p
I0505 16:36:56.539541 20773 net.cpp:100] Creating Layer conv4a_3p
I0505 16:36:56.539546 20773 net.cpp:434] conv4a_3p <- pool3_3p
I0505 16:36:56.539554 20773 net.cpp:408] conv4a_3p -> conv4a_3p
I0505 16:36:56.608666 20773 net.cpp:150] Setting up conv4a_3p
I0505 16:36:56.608708 20773 net.cpp:157] Top shape: 1 256 4 14 14 (200704)
I0505 16:36:56.608712 20773 net.cpp:165] Memory required for data: 389773312
I0505 16:36:56.608724 20773 layer_factory.hpp:77] Creating layer relu4a_3p
I0505 16:36:56.608738 20773 net.cpp:100] Creating Layer relu4a_3p
I0505 16:36:56.608744 20773 net.cpp:434] relu4a_3p <- conv4a_3p
I0505 16:36:56.608754 20773 net.cpp:395] relu4a_3p -> conv4a_3p (in-place)
I0505 16:36:56.608984 20773 net.cpp:150] Setting up relu4a_3p
I0505 16:36:56.608995 20773 net.cpp:157] Top shape: 1 256 4 14 14 (200704)
I0505 16:36:56.608999 20773 net.cpp:165] Memory required for data: 390576128
I0505 16:36:56.609004 20773 layer_factory.hpp:77] Creating layer pool4_3p
I0505 16:36:56.609014 20773 net.cpp:100] Creating Layer pool4_3p
I0505 16:36:56.609019 20773 net.cpp:434] pool4_3p <- conv4a_3p
I0505 16:36:56.609026 20773 net.cpp:408] pool4_3p -> pool4_3p
I0505 16:36:56.609279 20773 net.cpp:150] Setting up pool4_3p
I0505 16:36:56.609290 20773 net.cpp:157] Top shape: 1 256 2 7 7 (25088)
I0505 16:36:56.609293 20773 net.cpp:165] Memory required for data: 390676480
I0505 16:36:56.609297 20773 layer_factory.hpp:77] Creating layer conv5a_3p
I0505 16:36:56.609311 20773 net.cpp:100] Creating Layer conv5a_3p
I0505 16:36:56.609318 20773 net.cpp:434] conv5a_3p <- pool4_3p
I0505 16:36:56.609323 20773 net.cpp:408] conv5a_3p -> conv5a_3p
I0505 16:36:56.671459 20773 net.cpp:150] Setting up conv5a_3p
I0505 16:36:56.671524 20773 net.cpp:157] Top shape: 1 256 2 7 7 (25088)
I0505 16:36:56.671530 20773 net.cpp:165] Memory required for data: 390776832
I0505 16:36:56.671542 20773 layer_factory.hpp:77] Creating layer relu5a_3p
I0505 16:36:56.671555 20773 net.cpp:100] Creating Layer relu5a_3p
I0505 16:36:56.671561 20773 net.cpp:434] relu5a_3p <- conv5a_3p
I0505 16:36:56.671569 20773 net.cpp:395] relu5a_3p -> conv5a_3p (in-place)
I0505 16:36:56.671782 20773 net.cpp:150] Setting up relu5a_3p
I0505 16:36:56.671795 20773 net.cpp:157] Top shape: 1 256 2 7 7 (25088)
I0505 16:36:56.671800 20773 net.cpp:165] Memory required for data: 390877184
I0505 16:36:56.671807 20773 layer_factory.hpp:77] Creating layer pool5_3p
I0505 16:36:56.671823 20773 net.cpp:100] Creating Layer pool5_3p
I0505 16:36:56.671830 20773 net.cpp:434] pool5_3p <- conv5a_3p
I0505 16:36:56.671844 20773 net.cpp:408] pool5_3p -> pool5_3p
I0505 16:36:56.672111 20773 net.cpp:150] Setting up pool5_3p
I0505 16:36:56.672124 20773 net.cpp:157] Top shape: 1 256 1 4 4 (4096)
I0505 16:36:56.672129 20773 net.cpp:165] Memory required for data: 390893568
I0505 16:36:56.672135 20773 layer_factory.hpp:77] Creating layer fc6_3p
I0505 16:36:56.672152 20773 net.cpp:100] Creating Layer fc6_3p
I0505 16:36:56.672159 20773 net.cpp:434] fc6_3p <- pool5_3p
I0505 16:36:56.672169 20773 net.cpp:408] fc6_3p -> fc6_3p
I0505 16:36:56.964143 20773 net.cpp:150] Setting up fc6_3p
I0505 16:36:56.964175 20773 net.cpp:157] Top shape: 1 2048 (2048)
I0505 16:36:56.964180 20773 net.cpp:165] Memory required for data: 390901760
I0505 16:36:56.964192 20773 layer_factory.hpp:77] Creating layer relu6_3p
I0505 16:36:56.964207 20773 net.cpp:100] Creating Layer relu6_3p
I0505 16:36:56.964216 20773 net.cpp:434] relu6_3p <- fc6_3p
I0505 16:36:56.964226 20773 net.cpp:395] relu6_3p -> fc6_3p (in-place)
I0505 16:36:56.965467 20773 net.cpp:150] Setting up relu6_3p
I0505 16:36:56.965481 20773 net.cpp:157] Top shape: 1 2048 (2048)
I0505 16:36:56.965486 20773 net.cpp:165] Memory required for data: 390909952
I0505 16:36:56.965488 20773 layer_factory.hpp:77] Creating layer drop6_3p
I0505 16:36:56.965502 20773 net.cpp:100] Creating Layer drop6_3p
I0505 16:36:56.965508 20773 net.cpp:434] drop6_3p <- fc6_3p
I0505 16:36:56.965517 20773 net.cpp:395] drop6_3p -> fc6_3p (in-place)
I0505 16:36:56.965564 20773 net.cpp:150] Setting up drop6_3p
I0505 16:36:56.965571 20773 net.cpp:157] Top shape: 1 2048 (2048)
I0505 16:36:56.965574 20773 net.cpp:165] Memory required for data: 390918144
I0505 16:36:56.965580 20773 layer_factory.hpp:77] Creating layer fc7_3p
I0505 16:36:56.965596 20773 net.cpp:100] Creating Layer fc7_3p
I0505 16:36:56.965610 20773 net.cpp:434] fc7_3p <- fc6_3p
I0505 16:36:56.965616 20773 net.cpp:408] fc7_3p -> fc7_3p
I0505 16:36:57.125047 20773 net.cpp:150] Setting up fc7_3p
I0505 16:36:57.125079 20773 net.cpp:157] Top shape: 1 2048 (2048)
I0505 16:36:57.125083 20773 net.cpp:165] Memory required for data: 390926336
I0505 16:36:57.125093 20773 layer_factory.hpp:77] Creating layer relu7_3p
I0505 16:36:57.125107 20773 net.cpp:100] Creating Layer relu7_3p
I0505 16:36:57.125111 20773 net.cpp:434] relu7_3p <- fc7_3p
I0505 16:36:57.125118 20773 net.cpp:395] relu7_3p -> fc7_3p (in-place)
I0505 16:36:57.125401 20773 net.cpp:150] Setting up relu7_3p
I0505 16:36:57.125412 20773 net.cpp:157] Top shape: 1 2048 (2048)
I0505 16:36:57.125417 20773 net.cpp:165] Memory required for data: 390934528
I0505 16:36:57.125422 20773 layer_factory.hpp:77] Creating layer drop7_3p
I0505 16:36:57.125428 20773 net.cpp:100] Creating Layer drop7_3p
I0505 16:36:57.125432 20773 net.cpp:434] drop7_3p <- fc7_3p
I0505 16:36:57.125437 20773 net.cpp:395] drop7_3p -> fc7_3p (in-place)
I0505 16:36:57.125473 20773 net.cpp:150] Setting up drop7_3p
I0505 16:36:57.125481 20773 net.cpp:157] Top shape: 1 2048 (2048)
I0505 16:36:57.125484 20773 net.cpp:165] Memory required for data: 390942720
I0505 16:36:57.125488 20773 layer_factory.hpp:77] Creating layer fc7_3p_drop7_3p_0_split
I0505 16:36:57.125494 20773 net.cpp:100] Creating Layer fc7_3p_drop7_3p_0_split
I0505 16:36:57.125514 20773 net.cpp:434] fc7_3p_drop7_3p_0_split <- fc7_3p
I0505 16:36:57.125521 20773 net.cpp:408] fc7_3p_drop7_3p_0_split -> fc7_3p_drop7_3p_0_split_0
I0505 16:36:57.125529 20773 net.cpp:408] fc7_3p_drop7_3p_0_split -> fc7_3p_drop7_3p_0_split_1
I0505 16:36:57.125587 20773 net.cpp:150] Setting up fc7_3p_drop7_3p_0_split
I0505 16:36:57.125597 20773 net.cpp:157] Top shape: 1 2048 (2048)
I0505 16:36:57.125600 20773 net.cpp:157] Top shape: 1 2048 (2048)
I0505 16:36:57.125602 20773 net.cpp:165] Memory required for data: 390959104
I0505 16:36:57.125605 20773 layer_factory.hpp:77] Creating layer auto8_3p
I0505 16:36:57.125617 20773 net.cpp:100] Creating Layer auto8_3p
I0505 16:36:57.125627 20773 net.cpp:434] auto8_3p <- fc7_3p_drop7_3p_0_split_0
I0505 16:36:57.125634 20773 net.cpp:408] auto8_3p -> auto8_3p
I0505 16:36:57.266857 20773 net.cpp:150] Setting up auto8_3p
I0505 16:36:57.266886 20773 net.cpp:157] Top shape: 1 2048 (2048)
I0505 16:36:57.266891 20773 net.cpp:165] Memory required for data: 390967296
I0505 16:36:57.266901 20773 layer_factory.hpp:77] Creating layer relu8_3p
I0505 16:36:57.266914 20773 net.cpp:100] Creating Layer relu8_3p
I0505 16:36:57.266921 20773 net.cpp:434] relu8_3p <- auto8_3p
I0505 16:36:57.266927 20773 net.cpp:395] relu8_3p -> auto8_3p (in-place)
I0505 16:36:57.267211 20773 net.cpp:150] Setting up relu8_3p
I0505 16:36:57.267221 20773 net.cpp:157] Top shape: 1 2048 (2048)
I0505 16:36:57.267225 20773 net.cpp:165] Memory required for data: 390975488
I0505 16:36:57.267228 20773 layer_factory.hpp:77] Creating layer drop8_3p
I0505 16:36:57.267238 20773 net.cpp:100] Creating Layer drop8_3p
I0505 16:36:57.267249 20773 net.cpp:434] drop8_3p <- auto8_3p
I0505 16:36:57.267256 20773 net.cpp:395] drop8_3p -> auto8_3p (in-place)
I0505 16:36:57.267292 20773 net.cpp:150] Setting up drop8_3p
I0505 16:36:57.267298 20773 net.cpp:157] Top shape: 1 2048 (2048)
I0505 16:36:57.267302 20773 net.cpp:165] Memory required for data: 390983680
I0505 16:36:57.267304 20773 layer_factory.hpp:77] Creating layer loss
I0505 16:36:57.267383 20773 net.cpp:100] Creating Layer loss
I0505 16:36:57.267390 20773 net.cpp:434] loss <- fc7_drop7_0_split_1
I0505 16:36:57.267396 20773 net.cpp:434] loss <- fc7_3p_drop7_3p_0_split_1
I0505 16:36:57.267401 20773 net.cpp:434] loss <- auto8
I0505 16:36:57.267405 20773 net.cpp:434] loss <- auto8_3p
I0505 16:36:57.267410 20773 net.cpp:408] loss -> loss
I0505 16:36:57.267581 20773 net.cpp:150] Setting up loss
I0505 16:36:57.267593 20773 net.cpp:157] Top shape: 1 (1)
I0505 16:36:57.267596 20773 net.cpp:160]     with loss weight 1
I0505 16:36:57.267611 20773 net.cpp:165] Memory required for data: 390983684
I0505 16:36:57.267614 20773 net.cpp:226] loss needs backward computation.
I0505 16:36:57.267618 20773 net.cpp:226] drop8_3p needs backward computation.
I0505 16:36:57.267621 20773 net.cpp:226] relu8_3p needs backward computation.
I0505 16:36:57.267624 20773 net.cpp:226] auto8_3p needs backward computation.
…
