…
    mean_value: 65
    mean_value: 74
    mean_value: 92
    mean_value: 65
    mean_value: 74
    mean_value: 92
    mean_value: 65
    mean_value: 74
    mean_value: 92
    mean_value: 65
    mean_value: 74
    mean_value: 92
    mean_value: 65
    mean_value: 74
    mean_value: 92
    mean_value: 65
    mean_value: 74
    mean_value: 92
    mean_value: 65
    mean_value: 74
    mean_value: 92
    mean_value: 65
    mean_value: 74
    mean_value: 92
  }
  data_param {
    source: "/data/leo-data/Synthetic/LMDB/Triplets/train"
    batch_size: 18
    backend: LMDB
  }
}
layer {
  name: "slicer"
  type: "Slice"
  bottom: "triplet"
  top: "anchor_stacked"
  top: "positive_stacked"
  top: "negative_stacked"
  slice_param {
    slice_dim: 1
    slice_point: 48
    slice_point: 96
  }
}
layer {
  name: "reshape_anchor"
  type: "Reshape"
  bottom: "anchor_stacked"
  top: "anchor"
  reshape_param {
    shape {
      dim: 0
      dim: 3
      dim: 16
      dim: 112
      dim: 112
    }
  }
}
layer {
  name: "reshape_positive"
  type: "Reshape"
  bottom: "positive_stacked"
  top: "positive"
  reshape_param {
    shape {
      dim: 0
      dim: 3
      dim: 16
      dim: 112
      dim: 112
    }
  }
}
layer {
  name: "reshape_negative"
  type: "Reshape"
  bottom: "negative_stacked"
  top: "negative"
  reshape_param {
    shape {
      dim: 0
      dim: 3
      dim: 16
      dim: 112
      dim: 112
    }
  }
}
layer {
  name: "conv1a"
  type: "NdConvolution"
  bottom: "anchor"
  top: "conv1a"
  param {
    name: "conv1a_w"
    lr_mult: 1
    decay_mult: 1
  }
  param {
    name: "conv1a_b"
    lr_mult: 2
    decay_mult: 0
  }
  convolution_param {
    num_output: 64
    weight_filler {
      type: "gaussian"
      std: 0.01
    }
    bias_filler {
      type: "constant"
      value: 0
    }
    pad_shape {
      dim: 1
      dim: 1
      dim: 1
    }
    kernel_shape {
      dim: 3
      dim: 3
      dim: 3
    }
    stride_shape {
      dim: 1
      dim: 1
      dim: 1
    }
  }
}
layer {
  name: "relu1a"
  type: "ReLU"
  bottom: "conv1a"
  top: "conv1a"
}
layer {
  name: "pool1"
  type: "NdPooling"
  bottom: "conv1a"
  top: "pool1"
  pooling_param {
    pool: MAX
    kernel_shape {
      dim: 1
      dim: 2
      dim: 2
    }
    stride_shape {
      dim: 1
      dim: 2
      dim: 2
    }
  }
}
layer {
  name: "conv2a"
  type: "NdConvolution"
  bottom: "pool1"
  top: "conv2a"
  param {
    name: "conv2a_w"
    lr_mult: 1
    decay_mult: 1
  }
  param {
    name: "conv2a_b"
    lr_mult: 2
    decay_mult: 0
  }
  convolution_param {
    num_output: 128
    weight_filler {
      type: "gaussian"
      std: 0.01
    }
    bias_filler {
      type: "constant"
      value: 1
    }
    pad_shape {
      dim: 1
      dim: 1
      dim: 1
    }
    kernel_shape {
      dim: 3
      dim: 3
      dim: 3
    }
    stride_shape {
      dim: 1
      dim: 1
      dim: 1
    }
  }
}
layer {
  name: "relu2a"
  type: "ReLU"
  bottom: "conv2a"
  top: "conv2a"
}
layer {
  name: "pool2"
  type: "NdPooling"
  bottom: "conv2a"
  top: "pool2"
  pooling_param {
    pool: MAX
    kernel_shape {
      dim: 2
      dim: 2
      dim: 2
    }
    stride_shape {
      dim: 2
      dim: 2
      dim: 2
    }
  }
}
layer {
  name: "conv3a"
  type: "NdConvolution"
  bottom: "pool2"
  top: "conv3a"
  param {
    name: "conv3a_w"
    lr_mult: 1
    decay_mult: 1
  }
  param {
    name: "conv3a_b"
    lr_mult: 2
    decay_mult: 0
  }
  convolution_param {
    num_output: 256
    weight_filler {
      type: "gaussian"
      std: 0.01
    }
    bias_filler {
      type: "constant"
      value: 1
    }
    pad_shape {
      dim: 1
      dim: 1
      dim: 1
    }
    kernel_shape {
      dim: 3
      dim: 3
      dim: 3
    }
    stride_shape {
      dim: 1
      dim: 1
      dim: 1
    }
  }
}
layer {
  name: "relu3a"
  type: "ReLU"
  bottom: "conv3a"
  top: "conv3a"
}
layer {
  name: "pool3"
  type: "NdPooling"
  bottom: "conv3a"
  top: "pool3"
  pooling_param {
    pool: MAX
    kernel_shape {
      dim: 2
      dim: 2
      dim: 2
    }
    stride_shape {
      dim: 2
      dim: 2
      dim: 2
    }
  }
}
layer {
  name: "conv4a"
  type: "NdConvolution"
  bottom: "pool3"
  top: "conv4a"
  param {
    name: "conv4a_w"
    lr_mult: 1
    decay_mult: 1
  }
  param {
    name: "conv4a_b"
    lr_mult: 2
    decay_mult: 0
  }
  convolution_param {
    num_output: 256
    weight_filler {
      type: "gaussian"
      std: 0.01
    }
    bias_filler {
      type: "constant"
      value: 1
    }
    pad_shape {
      dim: 1
      dim: 1
      dim: 1
    }
    kernel_shape {
      dim: 3
      dim: 3
      dim: 3
    }
    stride_shape {
      dim: 1
      dim: 1
      dim: 1
    }
  }
}
layer {
  name: "relu4a"
  type: "ReLU"
  bottom: "conv4a"
  top: "conv4a"
}
layer {
  name: "pool4"
  type: "NdPooling"
  bottom: "conv4a"
  top: "pool4"
  pooling_param {
    pool: MAX
    kernel_shape {
      dim: 2
      dim: 2
      dim: 2
    }
    stride_shape {
      dim: 2
      dim: 2
      dim: 2
    }
  }
}
layer {
  name: "conv5a"
  type: "NdConvolution"
  bottom: "pool4"
  top: "conv5a"
  param {
    name: "conv5a_w"
    lr_mult: 1
    decay_mult: 1
  }
  param {
    name: "conv5a_b"
    lr_mult: 2
    decay_mult: 0
  }
  convolution_param {
    num_output: 256
    weight_filler {
      type: "gaussian"
      std: 0.01
    }
    bias_filler {
      type: "constant"
      value: 1
    }
    pad_shape {
      dim: 1
      dim: 1
      dim: 1
    }
    kernel_shape {
      dim: 3
      dim: 3
      dim: 3
    }
    stride_shape {
      dim: 1
      dim: 1
      dim: 1
    }
  }
}
layer {
  name: "relu5a"
  type: "ReLU"
  bottom: "conv5a"
  top: "conv5a"
}
layer {
  name: "pool5"
  type: "NdPooling"
  bottom: "conv5a"
  top: "pool5"
  pooling_param {
    pool: MAX
    kernel_shape {
      dim: 2
      dim: 2
      dim: 2
    }
    stride_shape {
      dim: 2
      dim: 2
      dim: 2
    }
  }
}
layer {
  name: "fc6"
  type: "InnerProduct"
  bottom: "pool5"
  top: "fc6"
  param {
    name: "fc6_w"
    lr_mult: 1
    decay_mult: 1
  }
  param {
    name: "fc6_b"
    lr_mult: 2
    decay_mult: 0
  }
  inner_product_param {
    num_output: 2048
    weight_filler {
      type: "gaussian"
      std: 0.005
    }
    bias_filler {
      type: "constant"
      value: 1
    }
  }
}
layer {
  name: "relu6"
  type: "ReLU"
  bottom: "fc6"
  top: "fc6"
}
layer {
  name: "drop6"
  type: "Dropout"
  bottom: "fc6"
  top: "fc6"
  dropout_param {
    dropout_ratio: 0.5
  }
}
layer {
  name: "fc7"
  type: "InnerProduct"
  bottom: "fc6"
  top: "fc7"
  param {
    name: "fc7_w"
    lr_mult: 1
    decay_mult: 1
  }
  param {
    name: "fc7_b"
    lr_mult: 2
    decay_mult: 0
  }
  inner_product_param {
    num_output: 2048
    weight_filler {
      type: "gaussian"
      std: 0.005
    }
    bias_filler {
      type: "constant"
      value: 1
    }
  }
}
layer {
  name: "relu7"
  type: "ReLU"
  bottom: "fc7"
  top: "fc7"
}
layer {
  name: "drop7"
  type: "Dropout"
  bottom: "fc7"
  top: "fc7"
  dropout_param {
    dropout_ratio: 0.5
  }
}
layer {
  name: "conv1a_pos"
  type: "NdConvolution"
  bottom: "positive"
  top: "conv1a_pos"
  param {
    name: "conv1a_w"
    lr_mult: 1
    decay_mult: 1
  }
  param {
    name: "conv1a_b"
    lr_mult: 2
    decay_mult: 0
  }
  convolution_param {
    num_output: 64
    weight_filler {
      type: "gaussian"
      std: 0.01
    }
    bias_filler {
      type: "constant"
      value: 0
    }
    pad_shape {
      dim: 1
      dim: 1
      dim: 1
    }
    kernel_shape {
      dim: 3
      dim: 3
      dim: 3
    }
    stride_shape {
      dim: 1
      dim: 1
      dim: 1
    }
  }
}
layer {
  name: "relu1a_pos"
  type: "ReLU"
  bottom: "conv1a_pos"
  top: "conv1a_pos"
}
layer {
  name: "pool1_pos"
  type: "NdPooling"
  bottom: "conv1a_pos"
  top: "pool1_pos"
  pooling_param {
    pool: MAX
    kernel_shape {
      dim: 1
      dim: 2
      dim: 2
    }
    stride_shape {
      dim: 1
      dim: 2
      dim: 2
    }
  }
}
layer {
  name: "conv2a_pos"
  type: "NdConvolution"
  bottom: "pool1_pos"
  top: "conv2a_pos"
  param {
    name: "conv2a_w"
    lr_mult: 1
    decay_mult: 1
  }
  param {
    name: "conv2a_b"
    lr_mult: 2
    decay_mult: 0
  }
  convolution_param {
    num_output: 128
    weight_filler {
      type: "gaussian"
      std: 0.01
    }
    bias_filler {
      type: "constant"
      value: 1
    }
    pad_shape {
      dim: 1
      dim: 1
      dim: 1
    }
    kernel_shape {
      dim: 3
      dim: 3
      dim: 3
    }
    stride_shape {
      dim: 1
      dim: 1
      dim: 1
    }
  }
}
layer {
  name: "relu2a_pos"
  type: "ReLU"
  bottom: "conv2a_pos"
  top: "conv2a_pos"
}
layer {
  name: "pool2_pos"
  type: "NdPooling"
  bottom: "conv2a_pos"
  top: "pool2_pos"
  pooling_param {
    pool: MAX
    kernel_shape {
      dim: 2
      dim: 2
      dim: 2
    }
    stride_shape {
      dim: 2
      dim: 2
      dim: 2
    }
  }
}
layer {
  name: "conv3a_pos"
  type: "NdConvolution"
  bottom: "pool2_pos"
  top: "conv3a_pos"
  param {
    name: "conv3a_w"
    lr_mult: 1
    decay_mult: 1
  }
  param {
    name: "conv3a_b"
    lr_mult: 2
    decay_mult: 0
  }
  convolution_param {
    num_output: 256
    weight_filler {
      type: "gaussian"
      std: 0.01
    }
    bias_filler {
      type: "constant"
      value: 1
    }
    pad_shape {
      dim: 1
      dim: 1
      dim: 1
    }
    kernel_shape {
      dim: 3
      dim: 3
      dim: 3
    }
    stride_shape {
      dim: 1
      dim: 1
      dim: 1
    }
  }
}
layer {
  name: "relu3a_pos"
  type: "ReLU"
  bottom: "conv3a_pos"
  top: "conv3a_pos"
}
layer {
  name: "pool3_pos"
  type: "NdPooling"
  bottom: "conv3a_pos"
  top: "pool3_pos"
  pooling_param {
    pool: MAX
    kernel_shape {
      dim: 2
      dim: 2
      dim: 2
    }
    stride_shape {
      dim: 2
      dim: 2
      dim: 2
    }
  }
}
layer {
  name: "conv4a_pos"
  type: "NdConvolution"
  bottom: "pool3_pos"
  top: "conv4a_pos"
  param {
    name: "conv4a_w"
    lr_mult: 1
    decay_mult: 1
  }
  param {
    name: "conv4a_b"
    lr_mult: 2
    decay_mult: 0
  }
  convolution_param {
    num_output: 256
    weight_filler {
      type: "gaussian"
      std: 0.01
    }
    bias_filler {
      type: "constant"
      value: 1
    }
    pad_shape {
      dim: 1
      dim: 1
      dim: 1
    }
    kernel_shape {
      dim: 3
      dim: 3
      dim: 3
    }
    stride_shape {
      dim: 1
      dim: 1
      dim: 1
    }
  }
}
layer {
  name: "relu4a_pos"
  type: "ReLU"
  bottom: "conv4a_pos"
  top: "conv4a_pos"
}
layer {
  name: "pool4_pos"
  type: "NdPooling"
  bottom: "conv4a_pos"
  top: "pool4_pos"
  pooling_param {
    pool: MAX
    kernel_shape {
      dim: 2
      dim: 2
      dim: 2
    }
    stride_shape {
      dim: 2
      dim: 2
      dim: 2
    }
  }
}
layer {
  name: "conv5a_pos"
  type: "NdConvolution"
  bottom: "pool4_pos"
  top: "conv5a_pos"
  param {
    name: "conv5a_w"
    lr_mult: 1
    decay_mult: 1
  }
  param {
    name: "conv5a_b"
    lr_mult: 2
    decay_mult: 0
  }
  convolution_param {
    num_output: 256
    weight_filler {
      type: "gaussian"
      std: 0.01
    }
    bias_filler {
      type: "constant"
      value: 1
    }
    pad_shape {
      dim: 1
      dim: 1
      dim: 1
    }
    kernel_shape {
      dim: 3
      dim: 3
      dim: 3
    }
    stride_shape {
      dim: 1
      dim: 1
      dim: 1
    }
  }
}
layer {
  name: "relu5a_pos"
  type: "ReLU"
  bottom: "conv5a_pos"
  top: "conv5a_pos"
}
layer {
  name: "pool5_pos"
  type: "NdPooling"
  bottom: "conv5a_pos"
  top: "pool5_pos"
  pooling_param {
    pool: MAX
    kernel_shape {
      dim: 2
      dim: 2
      dim: 2
    }
    stride_shape {
      dim: 2
      dim: 2
      dim: 2
    }
  }
}
layer {
  name: "fc6_pos"
  type: "InnerProduct"
  bottom: "pool5_pos"
  top: "fc6_pos"
  param {
    name: "fc6_w"
    lr_mult: 1
    decay_mult: 1
  }
  param {
    name: "fc6_b"
    lr_mult: 2
    decay_mult: 0
  }
  inner_product_param {
    num_output: 2048
    weight_filler {
      type: "gaussian"
      std: 0.005
    }
    bias_filler {
      type: "constant"
      value: 1
    }
  }
}
layer {
  name: "relu6_pos"
  type: "ReLU"
  bottom: "fc6_pos"
  top: "fc6_pos"
}
layer {
  name: "drop6_pos"
  type: "Dropout"
  bottom: "fc6_pos"
  top: "fc6_pos"
  dropout_param {
    dropout_ratio: 0.5
  }
}
layer {
  name: "fc7_pos"
  type: "InnerProduct"
  bottom: "fc6_pos"
  top: "fc7_pos"
  param {
    name: "fc7_w"
    lr_mult: 1
    decay_mult: 1
  }
  param {
    name: "fc7_b"
    lr_mult: 2
    decay_mult: 0
  }
  inner_product_param {
    num_output: 2048
    weight_filler {
      type: "gaussian"
      std: 0.005
    }
    bias_filler {
      type: "constant"
      value: 1
    }
  }
}
layer {
  name: "relu7_pos"
  type: "ReLU"
  bottom: "fc7_pos"
  top: "fc7_pos"
}
layer {
  name: "drop7_pos"
  type: "Dropout"
  bottom: "fc7_pos"
  top: "fc7_pos"
  dropout_param {
    dropout_ratio: 0.5
  }
}
layer {
  name: "conv1a_neg"
  type: "NdConvolution"
  bottom: "negative"
  top: "conv1a_neg"
  param {
    name: "conv1a_w"
    lr_mult: 1
    decay_mult: 1
  }
  param {
    name: "conv1a_b"
    lr_mult: 2
    decay_mult: 0
  }
  convolution_param {
    num_output: 64
    weight_filler {
      type: "gaussian"
      std: 0.01
    }
    bias_filler {
      type: "constant"
      value: 0
    }
    pad_shape {
      dim: 1
      dim: 1
      dim: 1
    }
    kernel_shape {
      dim: 3
      dim: 3
      dim: 3
    }
    stride_shape {
      dim: 1
      dim: 1
      dim: 1
    }
  }
}
layer {
  name: "relu1a_neg"
  type: "ReLU"
  bottom: "conv1a_neg"
  top: "conv1a_neg"
}
layer {
  name: "pool1_neg"
  type: "NdPooling"
  bottom: "conv1a_neg"
  top: "pool1_neg"
  pooling_param {
    pool: MAX
    kernel_shape {
      dim: 1
      dim: 2
      dim: 2
    }
    stride_shape {
      dim: 1
      dim: 2
      dim: 2
    }
  }
}
layer {
  name: "conv2a_neg"
  type: "NdConvolution"
  bottom: "pool1_neg"
  top: "conv2a_neg"
  param {
    name: "conv2a_w"
    lr_mult: 1
    decay_mult: 1
  }
  param {
    name: "conv2a_b"
    lr_mult: 2
    decay_mult: 0
  }
  convolution_param {
    num_output: 128
    weight_filler {
      type: "gaussian"
      std: 0.01
    }
    bias_filler {
      type: "constant"
      value: 1
    }
    pad_shape {
      dim: 1
      dim: 1
      dim: 1
    }
    kernel_shape {
      dim: 3
      dim: 3
      dim: 3
    }
    stride_shape {
      dim: 1
      dim: 1
      dim: 1
    }
  }
}
layer {
  name: "relu2a_neg"
  type: "ReLU"
  bottom: "conv2a_neg"
  top: "conv2a_neg"
}
layer {
  name: "pool2_neg"
  type: "NdPooling"
  bottom: "conv2a_neg"
  top: "pool2_neg"
  pooling_param {
    pool: MAX
    kernel_shape {
      dim: 2
      dim: 2
      dim: 2
    }
    stride_shape {
      dim: 2
      dim: 2
      dim: 2
    }
  }
}
layer {
  name: "conv3a_neg"
  type: "NdConvolution"
  bottom: "pool2_neg"
  top: "conv3a_neg"
  param {
    name: "conv3a_w"
    lr_mult: 1
    decay_mult: 1
  }
  param {
    name: "conv3a_b"
    lr_mult: 2
    decay_mult: 0
  }
  convolution_param {
    num_output: 256
    weight_filler {
      type: "gaussian"
      std: 0.01
    }
    bias_filler {
      type: "constant"
      value: 1
    }
    pad_shape {
      dim: 1
      dim: 1
      dim: 1
    }
    kernel_shape {
      dim: 3
      dim: 3
      dim: 3
    }
    stride_shape {
      dim: 1
      dim: 1
      dim: 1
    }
  }
}
layer {
  name: "relu3a_neg"
  type: "ReLU"
  bottom: "conv3a_neg"
  top: "conv3a_neg"
}
layer {
  name: "pool3_neg"
  type: "NdPooling"
  bottom: "conv3a_neg"
  top: "pool3_neg"
  pooling_param {
    pool: MAX
    kernel_shape {
      dim: 2
      dim: 2
      dim: 2
    }
    stride_shape {
      dim: 2
      dim: 2
      dim: 2
    }
  }
}
layer {
  name: "conv4a_neg"
  type: "NdConvolution"
  bottom: "pool3_neg"
  top: "conv4a_neg"
  param {
    name: "conv4a_w"
    lr_mult: 1
    decay_mult: 1
  }
  param {
    name: "conv4a_b"
    lr_mult: 2
    decay_mult: 0
  }
  convolution_param {
    num_output: 256
    weight_filler {
      type: "gaussian"
      std: 0.01
    }
    bias_filler {
      type: "constant"
      value: 1
    }
    pad_shape {
      dim: 1
      dim: 1
      dim: 1
    }
    kernel_shape {
      dim: 3
      dim: 3
      dim: 3
    }
    stride_shape {
      dim: 1
      dim: 1
      dim: 1
    }
  }
}
layer {
  name: "relu4a_neg"
  type: "ReLU"
  bottom: "conv4a_neg"
  top: "conv4a_neg"
}
layer {
  name: "pool4_neg"
  type: "NdPooling"
  bottom: "conv4a_neg"
  top: "pool4_neg"
  pooling_param {
    pool: MAX
    kernel_shape {
      dim: 2
      dim: 2
      dim: 2
    }
    stride_shape {
      dim: 2
      dim: 2
      dim: 2
    }
  }
}
layer {
  name: "conv5a_neg"
  type: "NdConvolution"
  bottom: "pool4_neg"
  top: "conv5a_neg"
  param {
    name: "conv5a_w"
    lr_mult: 1
    decay_mult: 1
  }
  param {
    name: "conv5a_b"
    lr_mult: 2
    decay_mult: 0
  }
  convolution_param {
    num_output: 256
    weight_filler {
      type: "gaussian"
      std: 0.01
    }
    bias_filler {
      type: "constant"
      value: 1
    }
    pad_shape {
      dim: 1
      dim: 1
      dim: 1
    }
    kernel_shape {
      dim: 3
      dim: 3
      dim: 3
    }
    stride_shape {
      dim: 1
      dim: 1
      dim: 1
    }
  }
}
layer {
  name: "relu5a_neg"
  type: "ReLU"
  bottom: "conv5a_neg"
  top: "conv5a_neg"
}
layer {
  name: "pool5_neg"
  type: "NdPooling"
  bottom: "conv5a_neg"
  top: "pool5_neg"
  pooling_param {
    pool: MAX
    kernel_shape {
      dim: 2
      dim: 2
      dim: 2
    }
    stride_shape {
      dim: 2
      dim: 2
      dim: 2
    }
  }
}
layer {
  name: "fc6_neg"
  type: "InnerProduct"
  bottom: "pool5_neg"
  top: "fc6_neg"
  param {
    name: "fc6_w"
    lr_mult: 1
    decay_mult: 1
  }
  param {
    name: "fc6_b"
    lr_mult: 2
    decay_mult: 0
  }
  inner_product_param {
    num_output: 2048
    weight_filler {
      type: "gaussian"
      std: 0.005
    }
    bias_filler {
      type: "constant"
      value: 1
    }
  }
}
layer {
  name: "relu6_neg"
  type: "ReLU"
  bottom: "fc6_neg"
  top: "fc6_neg"
}
layer {
  name: "drop6_neg"
  type: "Dropout"
  bottom: "fc6_neg"
  top: "fc6_neg"
  dropout_param {
    dropout_ratio: 0.5
  }
}
layer {
  name: "fc7_neg"
  type: "InnerProduct"
  bottom: "fc6_neg"
  top: "fc7_neg"
  param {
    name: "fc7_w"
    lr_mult: 1
    decay_mult: 1
  }
  param {
    name: "fc7_b"
    lr_mult: 2
    decay_mult: 0
  }
  inner_product_param {
    num_output: 2048
    weight_filler {
      type: "gaussian"
      std: 0.005
    }
    bias_filler {
      type: "constant"
      value: 1
    }
  }
}
layer {
  name: "relu7_neg"
  type: "ReLU"
  bottom: "fc7_neg"
  top: "fc7_neg"
}
layer {
  name: "drop7_neg"
  type: "Dropout"
  bottom: "fc7_neg"
  top: "fc7_neg"
  dropout_param {
    dropout_ratio: 0.5
  }
}
layer {
  name: "loss"
  type: "TripletLoss"
  bottom: "fc7"
  bottom: "fc7_pos"
  bottom: "fc7_neg"
  top: "loss"
  threshold_param {
    threshold: 1
  }
}
I0502 21:16:45.890583 28586 layer_factory.hpp:77] Creating layer data
I0502 21:16:45.891367 28586 net.cpp:100] Creating Layer data
I0502 21:16:45.891386 28586 net.cpp:408] data -> triplet
I0502 21:16:45.895603 28595 db_lmdb.cpp:35] Opened lmdb /data/leo-data/Synthetic/LMDB/Triplets/train
I0502 21:16:45.931249 28586 data_layer.cpp:41] output data size: 18,144,112,112
I0502 21:16:46.235407 28586 net.cpp:150] Setting up data
I0502 21:16:46.235483 28586 net.cpp:157] Top shape: 18 144 112 112 (32514048)
I0502 21:16:46.235488 28586 net.cpp:165] Memory required for data: 130056192
I0502 21:16:46.235503 28586 layer_factory.hpp:77] Creating layer slicer
I0502 21:16:46.235540 28586 net.cpp:100] Creating Layer slicer
I0502 21:16:46.235551 28586 net.cpp:434] slicer <- triplet
I0502 21:16:46.235564 28586 net.cpp:408] slicer -> anchor_stacked
I0502 21:16:46.235577 28586 net.cpp:408] slicer -> positive_stacked
I0502 21:16:46.235585 28586 net.cpp:408] slicer -> negative_stacked
I0502 21:16:46.235726 28586 net.cpp:150] Setting up slicer
I0502 21:16:46.235743 28586 net.cpp:157] Top shape: 18 48 112 112 (10838016)
I0502 21:16:46.235750 28586 net.cpp:157] Top shape: 18 48 112 112 (10838016)
I0502 21:16:46.235834 28586 net.cpp:157] Top shape: 18 48 112 112 (10838016)
I0502 21:16:46.235844 28586 net.cpp:165] Memory required for data: 260112384
I0502 21:16:46.235853 28586 layer_factory.hpp:77] Creating layer reshape_anchor
I0502 21:16:46.235889 28586 net.cpp:100] Creating Layer reshape_anchor
I0502 21:16:46.235900 28586 net.cpp:434] reshape_anchor <- anchor_stacked
I0502 21:16:46.235918 28586 net.cpp:408] reshape_anchor -> anchor
I0502 21:16:46.235980 28586 net.cpp:150] Setting up reshape_anchor
I0502 21:16:46.235994 28586 net.cpp:157] Top shape: 18 3 16 112 112 (10838016)
I0502 21:16:46.235999 28586 net.cpp:165] Memory required for data: 303464448
I0502 21:16:46.236014 28586 layer_factory.hpp:77] Creating layer reshape_positive
I0502 21:16:46.236035 28586 net.cpp:100] Creating Layer reshape_positive
I0502 21:16:46.236043 28586 net.cpp:434] reshape_positive <- positive_stacked
I0502 21:16:46.236052 28586 net.cpp:408] reshape_positive -> positive
I0502 21:16:46.236115 28586 net.cpp:150] Setting up reshape_positive
I0502 21:16:46.236127 28586 net.cpp:157] Top shape: 18 3 16 112 112 (10838016)
I0502 21:16:46.236132 28586 net.cpp:165] Memory required for data: 346816512
I0502 21:16:46.236140 28586 layer_factory.hpp:77] Creating layer reshape_negative
I0502 21:16:46.236152 28586 net.cpp:100] Creating Layer reshape_negative
I0502 21:16:46.236161 28586 net.cpp:434] reshape_negative <- negative_stacked
I0502 21:16:46.236171 28586 net.cpp:408] reshape_negative -> negative
I0502 21:16:46.236202 28586 net.cpp:150] Setting up reshape_negative
I0502 21:16:46.236212 28586 net.cpp:157] Top shape: 18 3 16 112 112 (10838016)
I0502 21:16:46.236218 28586 net.cpp:165] Memory required for data: 390168576
I0502 21:16:46.236225 28586 layer_factory.hpp:77] Creating layer conv1a
I0502 21:16:46.236245 28586 net.cpp:100] Creating Layer conv1a
I0502 21:16:46.236251 28586 net.cpp:434] conv1a <- anchor
I0502 21:16:46.236261 28586 net.cpp:408] conv1a -> conv1a
I0502 21:16:46.978195 28586 net.cpp:150] Setting up conv1a
I0502 21:16:46.978247 28586 net.cpp:157] Top shape: 18 64 16 112 112 (231211008)
I0502 21:16:46.978255 28586 net.cpp:165] Memory required for data: 1315012608
I0502 21:16:46.978296 28586 layer_factory.hpp:77] Creating layer relu1a
I0502 21:16:46.978322 28586 net.cpp:100] Creating Layer relu1a
I0502 21:16:46.978332 28586 net.cpp:434] relu1a <- conv1a
I0502 21:16:46.978345 28586 net.cpp:395] relu1a -> conv1a (in-place)
I0502 21:16:46.990324 28586 net.cpp:150] Setting up relu1a
I0502 21:16:46.990365 28586 net.cpp:157] Top shape: 18 64 16 112 112 (231211008)
I0502 21:16:46.990371 28586 net.cpp:165] Memory required for data: 2239856640
I0502 21:16:46.990378 28586 layer_factory.hpp:77] Creating layer pool1
I0502 21:16:46.990401 28586 net.cpp:100] Creating Layer pool1
I0502 21:16:46.990425 28586 net.cpp:434] pool1 <- conv1a
I0502 21:16:46.990445 28586 net.cpp:408] pool1 -> pool1
I0502 21:16:46.990967 28586 net.cpp:150] Setting up pool1
I0502 21:16:46.990988 28586 net.cpp:157] Top shape: 18 64 16 56 56 (57802752)
I0502 21:16:46.990995 28586 net.cpp:165] Memory required for data: 2471067648
I0502 21:16:46.991005 28586 layer_factory.hpp:77] Creating layer conv2a
I0502 21:16:46.991026 28586 net.cpp:100] Creating Layer conv2a
I0502 21:16:46.991034 28586 net.cpp:434] conv2a <- pool1
I0502 21:16:46.991046 28586 net.cpp:408] conv2a -> conv2a
I0502 21:16:47.023344 28586 net.cpp:150] Setting up conv2a
I0502 21:16:47.023385 28586 net.cpp:157] Top shape: 18 128 16 56 56 (115605504)
I0502 21:16:47.023392 28586 net.cpp:165] Memory required for data: 2933489664
I0502 21:16:47.023414 28586 layer_factory.hpp:77] Creating layer relu2a
I0502 21:16:47.023432 28586 net.cpp:100] Creating Layer relu2a
I0502 21:16:47.023442 28586 net.cpp:434] relu2a <- conv2a
I0502 21:16:47.023452 28586 net.cpp:395] relu2a -> conv2a (in-place)
I0502 21:16:47.025040 28586 net.cpp:150] Setting up relu2a
I0502 21:16:47.025063 28586 net.cpp:157] Top shape: 18 128 16 56 56 (115605504)
I0502 21:16:47.025070 28586 net.cpp:165] Memory required for data: 3395911680
I0502 21:16:47.025076 28586 layer_factory.hpp:77] Creating layer pool2
I0502 21:16:47.025090 28586 net.cpp:100] Creating Layer pool2
I0502 21:16:47.025097 28586 net.cpp:434] pool2 <- conv2a
I0502 21:16:47.025107 28586 net.cpp:408] pool2 -> pool2
I0502 21:16:47.025485 28586 net.cpp:150] Setting up pool2
I0502 21:16:47.025501 28586 net.cpp:157] Top shape: 18 128 8 28 28 (14450688)
I0502 21:16:47.025509 28586 net.cpp:165] Memory required for data: 3453714432
I0502 21:16:47.025516 28586 layer_factory.hpp:77] Creating layer conv3a
I0502 21:16:47.025530 28586 net.cpp:100] Creating Layer conv3a
I0502 21:16:47.025537 28586 net.cpp:434] conv3a <- pool2
I0502 21:16:47.025550 28586 net.cpp:408] conv3a -> conv3a
I0502 21:16:47.077766 28586 net.cpp:150] Setting up conv3a
I0502 21:16:47.077802 28586 net.cpp:157] Top shape: 18 256 8 28 28 (28901376)
I0502 21:16:47.077808 28586 net.cpp:165] Memory required for data: 3569319936
I0502 21:16:47.077826 28586 layer_factory.hpp:77] Creating layer relu3a
I0502 21:16:47.077867 28586 net.cpp:100] Creating Layer relu3a
I0502 21:16:47.077875 28586 net.cpp:434] relu3a <- conv3a
I0502 21:16:47.077885 28586 net.cpp:395] relu3a -> conv3a (in-place)
I0502 21:16:47.079927 28586 net.cpp:150] Setting up relu3a
I0502 21:16:47.079958 28586 net.cpp:157] Top shape: 18 256 8 28 28 (28901376)
I0502 21:16:47.079964 28586 net.cpp:165] Memory required for data: 3684925440
I0502 21:16:47.079968 28586 layer_factory.hpp:77] Creating layer pool3
I0502 21:16:47.079979 28586 net.cpp:100] Creating Layer pool3
I0502 21:16:47.079984 28586 net.cpp:434] pool3 <- conv3a
I0502 21:16:47.079993 28586 net.cpp:408] pool3 -> pool3
I0502 21:16:47.080230 28586 net.cpp:150] Setting up pool3
I0502 21:16:47.080242 28586 net.cpp:157] Top shape: 18 256 4 14 14 (3612672)
I0502 21:16:47.080245 28586 net.cpp:165] Memory required for data: 3699376128
I0502 21:16:47.080276 28586 layer_factory.hpp:77] Creating layer conv4a
I0502 21:16:47.080304 28586 net.cpp:100] Creating Layer conv4a
I0502 21:16:47.080314 28586 net.cpp:434] conv4a <- pool3
I0502 21:16:47.080327 28586 net.cpp:408] conv4a -> conv4a
I0502 21:16:47.151888 28586 net.cpp:150] Setting up conv4a
I0502 21:16:47.151928 28586 net.cpp:157] Top shape: 18 256 4 14 14 (3612672)
I0502 21:16:47.151935 28586 net.cpp:165] Memory required for data: 3713826816
I0502 21:16:47.151947 28586 layer_factory.hpp:77] Creating layer relu4a
I0502 21:16:47.151957 28586 net.cpp:100] Creating Layer relu4a
I0502 21:16:47.151962 28586 net.cpp:434] relu4a <- conv4a
I0502 21:16:47.151969 28586 net.cpp:395] relu4a -> conv4a (in-place)
I0502 21:16:47.152166 28586 net.cpp:150] Setting up relu4a
I0502 21:16:47.152178 28586 net.cpp:157] Top shape: 18 256 4 14 14 (3612672)
I0502 21:16:47.152181 28586 net.cpp:165] Memory required for data: 3728277504
I0502 21:16:47.152184 28586 layer_factory.hpp:77] Creating layer pool4
I0502 21:16:47.152197 28586 net.cpp:100] Creating Layer pool4
I0502 21:16:47.152202 28586 net.cpp:434] pool4 <- conv4a
I0502 21:16:47.152209 28586 net.cpp:408] pool4 -> pool4
I0502 21:16:47.153138 28586 net.cpp:150] Setting up pool4
I0502 21:16:47.153151 28586 net.cpp:157] Top shape: 18 256 2 7 7 (451584)
I0502 21:16:47.153156 28586 net.cpp:165] Memory required for data: 3730083840
I0502 21:16:47.153159 28586 layer_factory.hpp:77] Creating layer conv5a
I0502 21:16:47.153236 28586 net.cpp:100] Creating Layer conv5a
I0502 21:16:47.153254 28586 net.cpp:434] conv5a <- pool4
I0502 21:16:47.153271 28586 net.cpp:408] conv5a -> conv5a
I0502 21:16:47.248181 28586 net.cpp:150] Setting up conv5a
I0502 21:16:47.248224 28586 net.cpp:157] Top shape: 18 256 2 7 7 (451584)
I0502 21:16:47.248229 28586 net.cpp:165] Memory required for data: 3731890176
I0502 21:16:47.248247 28586 layer_factory.hpp:77] Creating layer relu5a
I0502 21:16:47.248266 28586 net.cpp:100] Creating Layer relu5a
I0502 21:16:47.248283 28586 net.cpp:434] relu5a <- conv5a
I0502 21:16:47.248296 28586 net.cpp:395] relu5a -> conv5a (in-place)
I0502 21:16:47.248556 28586 net.cpp:150] Setting up relu5a
I0502 21:16:47.248570 28586 net.cpp:157] Top shape: 18 256 2 7 7 (451584)
I0502 21:16:47.248579 28586 net.cpp:165] Memory required for data: 3733696512
I0502 21:16:47.248589 28586 layer_factory.hpp:77] Creating layer pool5
I0502 21:16:47.248606 28586 net.cpp:100] Creating Layer pool5
I0502 21:16:47.248613 28586 net.cpp:434] pool5 <- conv5a
I0502 21:16:47.248625 28586 net.cpp:408] pool5 -> pool5
I0502 21:16:47.252776 28586 net.cpp:150] Setting up pool5
I0502 21:16:47.252794 28586 net.cpp:157] Top shape: 18 256 1 4 4 (73728)
I0502 21:16:47.252799 28586 net.cpp:165] Memory required for data: 3733991424
I0502 21:16:47.252810 28586 layer_factory.hpp:77] Creating layer fc6
I0502 21:16:47.252837 28586 net.cpp:100] Creating Layer fc6
I0502 21:16:47.252845 28586 net.cpp:434] fc6 <- pool5
I0502 21:16:47.252852 28586 net.cpp:408] fc6 -> fc6
I0502 21:16:47.631119 28586 net.cpp:150] Setting up fc6
I0502 21:16:47.631171 28586 net.cpp:157] Top shape: 18 2048 (36864)
I0502 21:16:47.631176 28586 net.cpp:165] Memory required for data: 3734138880
I0502 21:16:47.631232 28586 layer_factory.hpp:77] Creating layer relu6
I0502 21:16:47.631247 28586 net.cpp:100] Creating Layer relu6
I0502 21:16:47.631252 28586 net.cpp:434] relu6 <- fc6
I0502 21:16:47.631258 28586 net.cpp:395] relu6 -> fc6 (in-place)
I0502 21:16:47.631536 28586 net.cpp:150] Setting up relu6
I0502 21:16:47.631547 28586 net.cpp:157] Top shape: 18 2048 (36864)
I0502 21:16:47.631551 28586 net.cpp:165] Memory required for data: 3734286336
I0502 21:16:47.631554 28586 layer_factory.hpp:77] Creating layer drop6
I0502 21:16:47.631604 28586 net.cpp:100] Creating Layer drop6
I0502 21:16:47.631633 28586 net.cpp:434] drop6 <- fc6
I0502 21:16:47.631649 28586 net.cpp:395] drop6 -> fc6 (in-place)
I0502 21:16:47.631745 28586 net.cpp:150] Setting up drop6
I0502 21:16:47.631757 28586 net.cpp:157] Top shape: 18 2048 (36864)
I0502 21:16:47.631763 28586 net.cpp:165] Memory required for data: 3734433792
I0502 21:16:47.631769 28586 layer_factory.hpp:77] Creating layer fc7
I0502 21:16:47.631784 28586 net.cpp:100] Creating Layer fc7
I0502 21:16:47.631789 28586 net.cpp:434] fc7 <- fc6
I0502 21:16:47.631798 28586 net.cpp:408] fc7 -> fc7
I0502 21:16:47.762655 28586 net.cpp:150] Setting up fc7
I0502 21:16:47.762684 28586 net.cpp:157] Top shape: 18 2048 (36864)
I0502 21:16:47.762688 28586 net.cpp:165] Memory required for data: 3734581248
I0502 21:16:47.762701 28586 layer_factory.hpp:77] Creating layer relu7
I0502 21:16:47.762711 28586 net.cpp:100] Creating Layer relu7
I0502 21:16:47.762715 28586 net.cpp:434] relu7 <- fc7
I0502 21:16:47.762723 28586 net.cpp:395] relu7 -> fc7 (in-place)
I0502 21:16:47.768829 28586 net.cpp:150] Setting up relu7
I0502 21:16:47.768870 28586 net.cpp:157] Top shape: 18 2048 (36864)
I0502 21:16:47.768878 28586 net.cpp:165] Memory required for data: 3734728704
I0502 21:16:47.768887 28586 layer_factory.hpp:77] Creating layer drop7
I0502 21:16:47.768906 28586 net.cpp:100] Creating Layer drop7
I0502 21:16:47.768926 28586 net.cpp:434] drop7 <- fc7
I0502 21:16:47.768946 28586 net.cpp:395] drop7 -> fc7 (in-place)
I0502 21:16:47.769039 28586 net.cpp:150] Setting up drop7
I0502 21:16:47.769062 28586 net.cpp:157] Top shape: 18 2048 (36864)
I0502 21:16:47.769073 28586 net.cpp:165] Memory required for data: 3734876160
I0502 21:16:47.769083 28586 layer_factory.hpp:77] Creating layer conv1a_pos
I0502 21:16:47.769114 28586 net.cpp:100] Creating Layer conv1a_pos
I0502 21:16:47.769127 28586 net.cpp:434] conv1a_pos <- positive
I0502 21:16:47.769150 28586 net.cpp:408] conv1a_pos -> conv1a_pos
I0502 21:16:47.775952 28586 net.cpp:150] Setting up conv1a_pos
I0502 21:16:47.775988 28586 net.cpp:157] Top shape: 18 64 16 112 112 (231211008)
I0502 21:16:47.775995 28586 net.cpp:165] Memory required for data: 4659720192
I0502 21:16:47.776003 28586 net.cpp:493] Sharing parameters 'conv1a_w' owned by layer 'conv1a', param index 0
I0502 21:16:47.776013 28586 net.cpp:493] Sharing parameters 'conv1a_b' owned by layer 'conv1a', param index 1
I0502 21:16:47.776020 28586 layer_factory.hpp:77] Creating layer relu1a_pos
I0502 21:16:47.776031 28586 net.cpp:100] Creating Layer relu1a_pos
I0502 21:16:47.776041 28586 net.cpp:434] relu1a_pos <- conv1a_pos
I0502 21:16:47.776057 28586 net.cpp:395] relu1a_pos -> conv1a_pos (in-place)
I0502 21:16:47.776526 28586 net.cpp:150] Setting up relu1a_pos
I0502 21:16:47.776554 28586 net.cpp:157] Top shape: 18 64 16 112 112 (231211008)
I0502 21:16:47.776567 28586 net.cpp:165] Memory required for data: 5584564224
I0502 21:16:47.776634 28586 layer_factory.hpp:77] Creating layer pool1_pos
I0502 21:16:47.776655 28586 net.cpp:100] Creating Layer pool1_pos
I0502 21:16:47.776660 28586 net.cpp:434] pool1_pos <- conv1a_pos
I0502 21:16:47.776670 28586 net.cpp:408] pool1_pos -> pool1_pos
I0502 21:16:47.777746 28586 net.cpp:150] Setting up pool1_pos
I0502 21:16:47.777763 28586 net.cpp:157] Top shape: 18 64 16 56 56 (57802752)
I0502 21:16:47.777766 28586 net.cpp:165] Memory required for data: 5815775232
I0502 21:16:47.777770 28586 layer_factory.hpp:77] Creating layer conv2a_pos
I0502 21:16:47.777782 28586 net.cpp:100] Creating Layer conv2a_pos
I0502 21:16:47.777811 28586 net.cpp:434] conv2a_pos <- pool1_pos
I0502 21:16:47.777819 28586 net.cpp:408] conv2a_pos -> conv2a_pos
I0502 21:16:47.786950 28586 net.cpp:150] Setting up conv2a_pos
I0502 21:16:47.786967 28586 net.cpp:157] Top shape: 18 128 16 56 56 (115605504)
I0502 21:16:47.786970 28586 net.cpp:165] Memory required for data: 6278197248
I0502 21:16:47.786979 28586 net.cpp:493] Sharing parameters 'conv2a_w' owned by layer 'conv2a', param index 0
I0502 21:16:47.786984 28586 net.cpp:493] Sharing parameters 'conv2a_b' owned by layer 'conv2a', param index 1
I0502 21:16:47.786988 28586 layer_factory.hpp:77] Creating layer relu2a_pos
I0502 21:16:47.786994 28586 net.cpp:100] Creating Layer relu2a_pos
I0502 21:16:47.786998 28586 net.cpp:434] relu2a_pos <- conv2a_pos
I0502 21:16:47.787003 28586 net.cpp:395] relu2a_pos -> conv2a_pos (in-place)
I0502 21:16:47.787185 28586 net.cpp:150] Setting up relu2a_pos
I0502 21:16:47.787195 28586 net.cpp:157] Top shape: 18 128 16 56 56 (115605504)
I0502 21:16:47.787199 28586 net.cpp:165] Memory required for data: 6740619264
I0502 21:16:47.787202 28586 layer_factory.hpp:77] Creating layer pool2_pos
I0502 21:16:47.787212 28586 net.cpp:100] Creating Layer pool2_pos
I0502 21:16:47.787227 28586 net.cpp:434] pool2_pos <- conv2a_pos
I0502 21:16:47.787243 28586 net.cpp:408] pool2_pos -> pool2_pos
I0502 21:16:47.788952 28586 net.cpp:150] Setting up pool2_pos
I0502 21:16:47.788978 28586 net.cpp:157] Top shape: 18 128 8 28 28 (14450688)
I0502 21:16:47.788985 28586 net.cpp:165] Memory required for data: 6798422016
I0502 21:16:47.788991 28586 layer_factory.hpp:77] Creating layer conv3a_pos
I0502 21:16:47.789016 28586 net.cpp:100] Creating Layer conv3a_pos
I0502 21:16:47.789033 28586 net.cpp:434] conv3a_pos <- pool2_pos
I0502 21:16:47.789050 28586 net.cpp:408] conv3a_pos -> conv3a_pos
I0502 21:16:47.835774 28586 net.cpp:150] Setting up conv3a_pos
I0502 21:16:47.835799 28586 net.cpp:157] Top shape: 18 256 8 28 28 (28901376)
I0502 21:16:47.835805 28586 net.cpp:165] Memory required for data: 6914027520
I0502 21:16:47.835811 28586 net.cpp:493] Sharing parameters 'conv3a_w' owned by layer 'conv3a', param index 0
I0502 21:16:47.835819 28586 net.cpp:493] Sharing parameters 'conv3a_b' owned by layer 'conv3a', param index 1
I0502 21:16:47.835824 28586 layer_factory.hpp:77] Creating layer relu3a_pos
I0502 21:16:47.835836 28586 net.cpp:100] Creating Layer relu3a_pos
I0502 21:16:47.835841 28586 net.cpp:434] relu3a_pos <- conv3a_pos
I0502 21:16:47.835853 28586 net.cpp:395] relu3a_pos -> conv3a_pos (in-place)
I0502 21:16:47.837541 28586 net.cpp:150] Setting up relu3a_pos
I0502 21:16:47.837574 28586 net.cpp:157] Top shape: 18 256 8 28 28 (28901376)
I0502 21:16:47.837579 28586 net.cpp:165] Memory required for data: 7029633024
I0502 21:16:47.837586 28586 layer_factory.hpp:77] Creating layer pool3_pos
I0502 21:16:47.837595 28586 net.cpp:100] Creating Layer pool3_pos
I0502 21:16:47.837600 28586 net.cpp:434] pool3_pos <- conv3a_pos
I0502 21:16:47.837610 28586 net.cpp:408] pool3_pos -> pool3_pos
I0502 21:16:47.838976 28586 net.cpp:150] Setting up pool3_pos
I0502 21:16:47.838996 28586 net.cpp:157] Top shape: 18 256 4 14 14 (3612672)
I0502 21:16:47.839001 28586 net.cpp:165] Memory required for data: 7044083712
I0502 21:16:47.839006 28586 layer_factory.hpp:77] Creating layer conv4a_pos
I0502 21:16:47.839020 28586 net.cpp:100] Creating Layer conv4a_pos
I0502 21:16:47.839025 28586 net.cpp:434] conv4a_pos <- pool3_pos
I0502 21:16:47.839036 28586 net.cpp:408] conv4a_pos -> conv4a_pos
I0502 21:16:47.910971 28586 net.cpp:150] Setting up conv4a_pos
I0502 21:16:47.910993 28586 net.cpp:157] Top shape: 18 256 4 14 14 (3612672)
I0502 21:16:47.911000 28586 net.cpp:165] Memory required for data: 7058534400
I0502 21:16:47.911006 28586 net.cpp:493] Sharing parameters 'conv4a_w' owned by layer 'conv4a', param index 0
I0502 21:16:47.911011 28586 net.cpp:493] Sharing parameters 'conv4a_b' owned by layer 'conv4a', param index 1
I0502 21:16:47.911015 28586 layer_factory.hpp:77] Creating layer relu4a_pos
I0502 21:16:47.911025 28586 net.cpp:100] Creating Layer relu4a_pos
I0502 21:16:47.911056 28586 net.cpp:434] relu4a_pos <- conv4a_pos
I0502 21:16:47.911063 28586 net.cpp:395] relu4a_pos -> conv4a_pos (in-place)
I0502 21:16:47.912091 28586 net.cpp:150] Setting up relu4a_pos
I0502 21:16:47.912106 28586 net.cpp:157] Top shape: 18 256 4 14 14 (3612672)
I0502 21:16:47.912109 28586 net.cpp:165] Memory required for data: 7072985088
I0502 21:16:47.912114 28586 layer_factory.hpp:77] Creating layer pool4_pos
I0502 21:16:47.912124 28586 net.cpp:100] Creating Layer pool4_pos
I0502 21:16:47.912128 28586 net.cpp:434] pool4_pos <- conv4a_pos
I0502 21:16:47.912134 28586 net.cpp:408] pool4_pos -> pool4_pos
I0502 21:16:47.912374 28586 net.cpp:150] Setting up pool4_pos
I0502 21:16:47.912384 28586 net.cpp:157] Top shape: 18 256 2 7 7 (451584)
I0502 21:16:47.912387 28586 net.cpp:165] Memory required for data: 7074791424
I0502 21:16:47.912391 28586 layer_factory.hpp:77] Creating layer conv5a_pos
I0502 21:16:47.912401 28586 net.cpp:100] Creating Layer conv5a_pos
I0502 21:16:47.912406 28586 net.cpp:434] conv5a_pos <- pool4_pos
I0502 21:16:47.912415 28586 net.cpp:408] conv5a_pos -> conv5a_pos
I0502 21:16:47.967763 28586 net.cpp:150] Setting up conv5a_pos
I0502 21:16:47.967780 28586 net.cpp:157] Top shape: 18 256 2 7 7 (451584)
I0502 21:16:47.967795 28586 net.cpp:165] Memory required for data: 7076597760
I0502 21:16:47.967800 28586 net.cpp:493] Sharing parameters 'conv5a_w' owned by layer 'conv5a', param index 0
I0502 21:16:47.967804 28586 net.cpp:493] Sharing parameters 'conv5a_b' owned by layer 'conv5a', param index 1
I0502 21:16:47.967808 28586 layer_factory.hpp:77] Creating layer relu5a_pos
I0502 21:16:47.967813 28586 net.cpp:100] Creating Layer relu5a_pos
I0502 21:16:47.967820 28586 net.cpp:434] relu5a_pos <- conv5a_pos
I0502 21:16:47.967824 28586 net.cpp:395] relu5a_pos -> conv5a_pos (in-place)
I0502 21:16:47.968744 28586 net.cpp:150] Setting up relu5a_pos
I0502 21:16:47.968755 28586 net.cpp:157] Top shape: 18 256 2 7 7 (451584)
I0502 21:16:47.968770 28586 net.cpp:165] Memory required for data: 7078404096
I0502 21:16:47.968773 28586 layer_factory.hpp:77] Creating layer pool5_pos
I0502 21:16:47.968780 28586 net.cpp:100] Creating Layer pool5_pos
I0502 21:16:47.968786 28586 net.cpp:434] pool5_pos <- conv5a_pos
I0502 21:16:47.968791 28586 net.cpp:408] pool5_pos -> pool5_pos
I0502 21:16:47.969027 28586 net.cpp:150] Setting up pool5_pos
I0502 21:16:47.969034 28586 net.cpp:157] Top shape: 18 256 1 4 4 (73728)
I0502 21:16:47.969038 28586 net.cpp:165] Memory required for data: 7078699008
I0502 21:16:47.969040 28586 layer_factory.hpp:77] Creating layer fc6_pos
I0502 21:16:47.969053 28586 net.cpp:100] Creating Layer fc6_pos
I0502 21:16:47.969055 28586 net.cpp:434] fc6_pos <- pool5_pos
I0502 21:16:47.969061 28586 net.cpp:408] fc6_pos -> fc6_pos
I0502 21:16:48.279754 28586 net.cpp:150] Setting up fc6_pos
I0502 21:16:48.279794 28586 net.cpp:157] Top shape: 18 2048 (36864)
I0502 21:16:48.279799 28586 net.cpp:165] Memory required for data: 7078846464
I0502 21:16:48.279806 28586 net.cpp:493] Sharing parameters 'fc6_w' owned by layer 'fc6', param index 0
I0502 21:16:48.279814 28586 net.cpp:493] Sharing parameters 'fc6_b' owned by layer 'fc6', param index 1
I0502 21:16:48.279816 28586 layer_factory.hpp:77] Creating layer relu6_pos
I0502 21:16:48.279826 28586 net.cpp:100] Creating Layer relu6_pos
I0502 21:16:48.279831 28586 net.cpp:434] relu6_pos <- fc6_pos
I0502 21:16:48.279846 28586 net.cpp:395] relu6_pos -> fc6_pos (in-place)
I0502 21:16:48.281141 28586 net.cpp:150] Setting up relu6_pos
I0502 21:16:48.281155 28586 net.cpp:157] Top shape: 18 2048 (36864)
I0502 21:16:48.281159 28586 net.cpp:165] Memory required for data: 7078993920
I0502 21:16:48.281167 28586 layer_factory.hpp:77] Creating layer drop6_pos
I0502 21:16:48.281173 28586 net.cpp:100] Creating Layer drop6_pos
I0502 21:16:48.281177 28586 net.cpp:434] drop6_pos <- fc6_pos
I0502 21:16:48.281184 28586 net.cpp:395] drop6_pos -> fc6_pos (in-place)
I0502 21:16:48.281225 28586 net.cpp:150] Setting up drop6_pos
I0502 21:16:48.281235 28586 net.cpp:157] Top shape: 18 2048 (36864)
I0502 21:16:48.281258 28586 net.cpp:165] Memory required for data: 7079141376
I0502 21:16:48.281261 28586 layer_factory.hpp:77] Creating layer fc7_pos
I0502 21:16:48.281272 28586 net.cpp:100] Creating Layer fc7_pos
I0502 21:16:48.281276 28586 net.cpp:434] fc7_pos <- fc6_pos
I0502 21:16:48.281283 28586 net.cpp:408] fc7_pos -> fc7_pos
I0502 21:16:48.448781 28586 net.cpp:150] Setting up fc7_pos
I0502 21:16:48.448822 28586 net.cpp:157] Top shape: 18 2048 (36864)
I0502 21:16:48.448827 28586 net.cpp:165] Memory required for data: 7079288832
I0502 21:16:48.448834 28586 net.cpp:493] Sharing parameters 'fc7_w' owned by layer 'fc7', param index 0
I0502 21:16:48.448844 28586 net.cpp:493] Sharing parameters 'fc7_b' owned by layer 'fc7', param index 1
I0502 21:16:48.448849 28586 layer_factory.hpp:77] Creating layer relu7_pos
I0502 21:16:48.448860 28586 net.cpp:100] Creating Layer relu7_pos
I0502 21:16:48.448868 28586 net.cpp:434] relu7_pos <- fc7_pos
I0502 21:16:48.448879 28586 net.cpp:395] relu7_pos -> fc7_pos (in-place)
I0502 21:16:48.449162 28586 net.cpp:150] Setting up relu7_pos
I0502 21:16:48.449172 28586 net.cpp:157] Top shape: 18 2048 (36864)
I0502 21:16:48.449175 28586 net.cpp:165] Memory required for data: 7079436288
I0502 21:16:48.449179 28586 layer_factory.hpp:77] Creating layer drop7_pos
I0502 21:16:48.449187 28586 net.cpp:100] Creating Layer drop7_pos
I0502 21:16:48.449192 28586 net.cpp:434] drop7_pos <- fc7_pos
I0502 21:16:48.449198 28586 net.cpp:395] drop7_pos -> fc7_pos (in-place)
I0502 21:16:48.449230 28586 net.cpp:150] Setting up drop7_pos
I0502 21:16:48.449239 28586 net.cpp:157] Top shape: 18 2048 (36864)
I0502 21:16:48.449241 28586 net.cpp:165] Memory required for data: 7079583744
I0502 21:16:48.449245 28586 layer_factory.hpp:77] Creating layer conv1a_neg
I0502 21:16:48.449264 28586 net.cpp:100] Creating Layer conv1a_neg
I0502 21:16:48.449267 28586 net.cpp:434] conv1a_neg <- negative
I0502 21:16:48.449275 28586 net.cpp:408] conv1a_neg -> conv1a_neg
I0502 21:16:48.452795 28586 net.cpp:150] Setting up conv1a_neg
I0502 21:16:48.452812 28586 net.cpp:157] Top shape: 18 64 16 112 112 (231211008)
I0502 21:16:48.452816 28586 net.cpp:165] Memory required for data: 8004427776
I0502 21:16:48.452823 28586 net.cpp:493] Sharing parameters 'conv1a_w' owned by layer 'conv1a', param index 0
I0502 21:16:48.452828 28586 net.cpp:493] Sharing parameters 'conv1a_b' owned by layer 'conv1a', param index 1
I0502 21:16:48.452833 28586 layer_factory.hpp:77] Creating layer relu1a_neg
I0502 21:16:48.452841 28586 net.cpp:100] Creating Layer relu1a_neg
I0502 21:16:48.452846 28586 net.cpp:434] relu1a_neg <- conv1a_neg
I0502 21:16:48.452850 28586 net.cpp:395] relu1a_neg -> conv1a_neg (in-place)
I0502 21:16:48.453807 28586 net.cpp:150] Setting up relu1a_neg
I0502 21:16:48.453824 28586 net.cpp:157] Top shape: 18 64 16 112 112 (231211008)
I0502 21:16:48.453826 28586 net.cpp:165] Memory required for data: 8929271808
I0502 21:16:48.453830 28586 layer_factory.hpp:77] Creating layer pool1_neg
I0502 21:16:48.453837 28586 net.cpp:100] Creating Layer pool1_neg
I0502 21:16:48.453841 28586 net.cpp:434] pool1_neg <- conv1a_neg
I0502 21:16:48.453850 28586 net.cpp:408] pool1_neg -> pool1_neg
I0502 21:16:48.454098 28586 net.cpp:150] Setting up pool1_neg
I0502 21:16:48.454110 28586 net.cpp:157] Top shape: 18 64 16 56 56 (57802752)
I0502 21:16:48.454113 28586 net.cpp:165] Memory required for data: 9160482816
I0502 21:16:48.454116 28586 layer_factory.hpp:77] Creating layer conv2a_neg
I0502 21:16:48.454131 28586 net.cpp:100] Creating Layer conv2a_neg
I0502 21:16:48.454136 28586 net.cpp:434] conv2a_neg <- pool1_neg
I0502 21:16:48.454144 28586 net.cpp:408] conv2a_neg -> conv2a_neg
I0502 21:16:48.465934 28586 net.cpp:150] Setting up conv2a_neg
I0502 21:16:48.465952 28586 net.cpp:157] Top shape: 18 128 16 56 56 (115605504)
I0502 21:16:48.465962 28586 net.cpp:165] Memory required for data: 9622904832
I0502 21:16:48.465967 28586 net.cpp:493] Sharing parameters 'conv2a_w' owned by layer 'conv2a', param index 0
I0502 21:16:48.466006 28586 net.cpp:493] Sharing parameters 'conv2a_b' owned by layer 'conv2a', param index 1
I0502 21:16:48.466069 28586 layer_factory.hpp:77] Creating layer relu2a_neg
I0502 21:16:48.466112 28586 net.cpp:100] Creating Layer relu2a_neg
I0502 21:16:48.466125 28586 net.cpp:434] relu2a_neg <- conv2a_neg
I0502 21:16:48.466136 28586 net.cpp:395] relu2a_neg -> conv2a_neg (in-place)
I0502 21:16:48.467702 28586 net.cpp:150] Setting up relu2a_neg
I0502 21:16:48.467723 28586 net.cpp:157] Top shape: 18 128 16 56 56 (115605504)
I0502 21:16:48.467730 28586 net.cpp:165] Memory required for data: 10085326848
I0502 21:16:48.467736 28586 layer_factory.hpp:77] Creating layer pool2_neg
I0502 21:16:48.467748 28586 net.cpp:100] Creating Layer pool2_neg
I0502 21:16:48.467754 28586 net.cpp:434] pool2_neg <- conv2a_neg
I0502 21:16:48.467766 28586 net.cpp:408] pool2_neg -> pool2_neg
I0502 21:16:48.468135 28586 net.cpp:150] Setting up pool2_neg
I0502 21:16:48.468150 28586 net.cpp:157] Top shape: 18 128 8 28 28 (14450688)
I0502 21:16:48.468155 28586 net.cpp:165] Memory required for data: 10143129600
I0502 21:16:48.468159 28586 layer_factory.hpp:77] Creating layer conv3a_neg
I0502 21:16:48.468176 28586 net.cpp:100] Creating Layer conv3a_neg
I0502 21:16:48.468181 28586 net.cpp:434] conv3a_neg <- pool2_neg
I0502 21:16:48.468192 28586 net.cpp:408] conv3a_neg -> conv3a_neg
I0502 21:16:48.512018 28586 net.cpp:150] Setting up conv3a_neg
I0502 21:16:48.512037 28586 net.cpp:157] Top shape: 18 256 8 28 28 (28901376)
I0502 21:16:48.512042 28586 net.cpp:165] Memory required for data: 10258735104
I0502 21:16:48.512056 28586 net.cpp:493] Sharing parameters 'conv3a_w' owned by layer 'conv3a', param index 0
I0502 21:16:48.512063 28586 net.cpp:493] Sharing parameters 'conv3a_b' owned by layer 'conv3a', param index 1
I0502 21:16:48.512117 28586 layer_factory.hpp:77] Creating layer relu3a_neg
I0502 21:16:48.512138 28586 net.cpp:100] Creating Layer relu3a_neg
I0502 21:16:48.512146 28586 net.cpp:434] relu3a_neg <- conv3a_neg
I0502 21:16:48.512154 28586 net.cpp:395] relu3a_neg -> conv3a_neg (in-place)
I0502 21:16:48.512431 28586 net.cpp:150] Setting up relu3a_neg
I0502 21:16:48.512444 28586 net.cpp:157] Top shape: 18 256 8 28 28 (28901376)
I0502 21:16:48.512449 28586 net.cpp:165] Memory required for data: 10374340608
I0502 21:16:48.512454 28586 layer_factory.hpp:77] Creating layer pool3_neg
I0502 21:16:48.512466 28586 net.cpp:100] Creating Layer pool3_neg
I0502 21:16:48.512472 28586 net.cpp:434] pool3_neg <- conv3a_neg
I0502 21:16:48.512481 28586 net.cpp:408] pool3_neg -> pool3_neg
I0502 21:16:48.513715 28586 net.cpp:150] Setting up pool3_neg
I0502 21:16:48.513731 28586 net.cpp:157] Top shape: 18 256 4 14 14 (3612672)
I0502 21:16:48.513736 28586 net.cpp:165] Memory required for data: 10388791296
I0502 21:16:48.513741 28586 layer_factory.hpp:77] Creating layer conv4a_neg
I0502 21:16:48.513758 28586 net.cpp:100] Creating Layer conv4a_neg
I0502 21:16:48.513764 28586 net.cpp:434] conv4a_neg <- pool3_neg
I0502 21:16:48.513774 28586 net.cpp:408] conv4a_neg -> conv4a_neg
I0502 21:16:48.579802 28586 net.cpp:150] Setting up conv4a_neg
I0502 21:16:48.579836 28586 net.cpp:157] Top shape: 18 256 4 14 14 (3612672)
I0502 21:16:48.579841 28586 net.cpp:165] Memory required for data: 10403241984
I0502 21:16:48.579849 28586 net.cpp:493] Sharing parameters 'conv4a_w' owned by layer 'conv4a', param index 0
I0502 21:16:48.579854 28586 net.cpp:493] Sharing parameters 'conv4a_b' owned by layer 'conv4a', param index 1
I0502 21:16:48.579859 28586 layer_factory.hpp:77] Creating layer relu4a_neg
I0502 21:16:48.579871 28586 net.cpp:100] Creating Layer relu4a_neg
I0502 21:16:48.579876 28586 net.cpp:434] relu4a_neg <- conv4a_neg
I0502 21:16:48.579883 28586 net.cpp:395] relu4a_neg -> conv4a_neg (in-place)
I0502 21:16:48.580081 28586 net.cpp:150] Setting up relu4a_neg
I0502 21:16:48.580092 28586 net.cpp:157] Top shape: 18 256 4 14 14 (3612672)
I0502 21:16:48.580098 28586 net.cpp:165] Memory required for data: 10417692672
I0502 21:16:48.580101 28586 layer_factory.hpp:77] Creating layer pool4_neg
I0502 21:16:48.580133 28586 net.cpp:100] Creating Layer pool4_neg
I0502 21:16:48.580137 28586 net.cpp:434] pool4_neg <- conv4a_neg
I0502 21:16:48.580143 28586 net.cpp:408] pool4_neg -> pool4_neg
I0502 21:16:48.581198 28586 net.cpp:150] Setting up pool4_neg
I0502 21:16:48.581212 28586 net.cpp:157] Top shape: 18 256 2 7 7 (451584)
I0502 21:16:48.581215 28586 net.cpp:165] Memory required for data: 10419499008
I0502 21:16:48.581218 28586 layer_factory.hpp:77] Creating layer conv5a_neg
I0502 21:16:48.581230 28586 net.cpp:100] Creating Layer conv5a_neg
I0502 21:16:48.581234 28586 net.cpp:434] conv5a_neg <- pool4_neg
I0502 21:16:48.581241 28586 net.cpp:408] conv5a_neg -> conv5a_neg
I0502 21:16:48.642720 28586 net.cpp:150] Setting up conv5a_neg
I0502 21:16:48.642750 28586 net.cpp:157] Top shape: 18 256 2 7 7 (451584)
I0502 21:16:48.642755 28586 net.cpp:165] Memory required for data: 10421305344
I0502 21:16:48.642761 28586 net.cpp:493] Sharing parameters 'conv5a_w' owned by layer 'conv5a', param index 0
I0502 21:16:48.642767 28586 net.cpp:493] Sharing parameters 'conv5a_b' owned by layer 'conv5a', param index 1
I0502 21:16:48.642771 28586 layer_factory.hpp:77] Creating layer relu5a_neg
I0502 21:16:48.642779 28586 net.cpp:100] Creating Layer relu5a_neg
I0502 21:16:48.642786 28586 net.cpp:434] relu5a_neg <- conv5a_neg
I0502 21:16:48.642793 28586 net.cpp:395] relu5a_neg -> conv5a_neg (in-place)
I0502 21:16:48.642997 28586 net.cpp:150] Setting up relu5a_neg
I0502 21:16:48.643009 28586 net.cpp:157] Top shape: 18 256 2 7 7 (451584)
I0502 21:16:48.643013 28586 net.cpp:165] Memory required for data: 10423111680
I0502 21:16:48.643018 28586 layer_factory.hpp:77] Creating layer pool5_neg
I0502 21:16:48.643028 28586 net.cpp:100] Creating Layer pool5_neg
I0502 21:16:48.643031 28586 net.cpp:434] pool5_neg <- conv5a_neg
I0502 21:16:48.643038 28586 net.cpp:408] pool5_neg -> pool5_neg
I0502 21:16:48.644084 28586 net.cpp:150] Setting up pool5_neg
I0502 21:16:48.644098 28586 net.cpp:157] Top shape: 18 256 1 4 4 (73728)
I0502 21:16:48.644101 28586 net.cpp:165] Memory required for data: 10423406592
I0502 21:16:48.644105 28586 layer_factory.hpp:77] Creating layer fc6_neg
I0502 21:16:48.644119 28586 net.cpp:100] Creating Layer fc6_neg
I0502 21:16:48.644125 28586 net.cpp:434] fc6_neg <- pool5_neg
I0502 21:16:48.644134 28586 net.cpp:408] fc6_neg -> fc6_neg
I0502 21:16:48.927261 28586 net.cpp:150] Setting up fc6_neg
I0502 21:16:48.927290 28586 net.cpp:157] Top shape: 18 2048 (36864)
I0502 21:16:48.927296 28586 net.cpp:165] Memory required for data: 10423554048
I0502 21:16:48.927304 28586 net.cpp:493] Sharing parameters 'fc6_w' owned by layer 'fc6', param index 0
I0502 21:16:48.927311 28586 net.cpp:493] Sharing parameters 'fc6_b' owned by layer 'fc6', param index 1
I0502 21:16:48.927315 28586 layer_factory.hpp:77] Creating layer relu6_neg
I0502 21:16:48.927325 28586 net.cpp:100] Creating Layer relu6_neg
I0502 21:16:48.927330 28586 net.cpp:434] relu6_neg <- fc6_neg
I0502 21:16:48.927338 28586 net.cpp:395] relu6_neg -> fc6_neg (in-place)
I0502 21:16:48.927601 28586 net.cpp:150] Setting up relu6_neg
I0502 21:16:48.927613 28586 net.cpp:157] Top shape: 18 2048 (36864)
I0502 21:16:48.927615 28586 net.cpp:165] Memory required for data: 10423701504
I0502 21:16:48.927619 28586 layer_factory.hpp:77] Creating layer drop6_neg
I0502 21:16:48.927640 28586 net.cpp:100] Creating Layer drop6_neg
I0502 21:16:48.927645 28586 net.cpp:434] drop6_neg <- fc6_neg
I0502 21:16:48.927650 28586 net.cpp:395] drop6_neg -> fc6_neg (in-place)
I0502 21:16:48.927693 28586 net.cpp:150] Setting up drop6_neg
I0502 21:16:48.927700 28586 net.cpp:157] Top shape: 18 2048 (36864)
I0502 21:16:48.927703 28586 net.cpp:165] Memory required for data: 10423848960
I0502 21:16:48.927707 28586 layer_factory.hpp:77] Creating layer fc7_neg
I0502 21:16:48.927721 28586 net.cpp:100] Creating Layer fc7_neg
I0502 21:16:48.927724 28586 net.cpp:434] fc7_neg <- fc6_neg
I0502 21:16:48.927731 28586 net.cpp:408] fc7_neg -> fc7_neg
I0502 21:16:49.067400 28586 net.cpp:150] Setting up fc7_neg
I0502 21:16:49.067446 28586 net.cpp:157] Top shape: 18 2048 (36864)
I0502 21:16:49.067472 28586 net.cpp:165] Memory required for data: 10423996416
I0502 21:16:49.067484 28586 net.cpp:493] Sharing parameters 'fc7_w' owned by layer 'fc7', param index 0
I0502 21:16:49.067490 28586 net.cpp:493] Sharing parameters 'fc7_b' owned by layer 'fc7', param index 1
I0502 21:16:49.067494 28586 layer_factory.hpp:77] Creating layer relu7_neg
I0502 21:16:49.067519 28586 net.cpp:100] Creating Layer relu7_neg
I0502 21:16:49.067529 28586 net.cpp:434] relu7_neg <- fc7_neg
I0502 21:16:49.067538 28586 net.cpp:395] relu7_neg -> fc7_neg (in-place)
I0502 21:16:49.079396 28586 net.cpp:150] Setting up relu7_neg
I0502 21:16:49.079411 28586 net.cpp:157] Top shape: 18 2048 (36864)
I0502 21:16:49.079416 28586 net.cpp:165] Memory required for data: 10424143872
I0502 21:16:49.079421 28586 layer_factory.hpp:77] Creating layer drop7_neg
I0502 21:16:49.079440 28586 net.cpp:100] Creating Layer drop7_neg
I0502 21:16:49.079444 28586 net.cpp:434] drop7_neg <- fc7_neg
I0502 21:16:49.079450 28586 net.cpp:395] drop7_neg -> fc7_neg (in-place)
I0502 21:16:49.079485 28586 net.cpp:150] Setting up drop7_neg
I0502 21:16:49.079493 28586 net.cpp:157] Top shape: 18 2048 (36864)
I0502 21:16:49.079495 28586 net.cpp:165] Memory required for data: 10424291328
I0502 21:16:49.079510 28586 layer_factory.hpp:77] Creating layer loss
I0502 21:16:49.079522 28586 net.cpp:100] Creating Layer loss
I0502 21:16:49.079526 28586 net.cpp:434] loss <- fc7
I0502 21:16:49.079531 28586 net.cpp:434] loss <- fc7_pos
I0502 21:16:49.079535 28586 net.cpp:434] loss <- fc7_neg
I0502 21:16:49.079538 28586 net.cpp:408] loss -> loss
…
    mean_value: 65
    mean_value: 74
    mean_value: 92
    mean_value: 65
    mean_value: 74
    mean_value: 92
    mean_value: 65
    mean_value: 74
    mean_value: 92
    mean_value: 65
    mean_value: 74
    mean_value: 92
    mean_value: 65
    mean_value: 74
    mean_value: 92
    mean_value: 65
    mean_value: 74
    mean_value: 92
    mean_value: 65
    mean_value: 74
    mean_value: 92
    mean_value: 65
    mean_value: 74
    mean_value: 92
  }
  data_param {
    source: "/data/leo-data/Synthetic/LMDB/Triplets/val"
    batch_size: 1
    backend: LMDB
  }
}
layer {
  name: "slicer"
  type: "Slice"
  bottom: "triplet"
  top: "anchor_stacked"
  top: "positive_stacked"
  top: "negative_stacked"
  slice_param {
    slice_dim: 1
    slice_point: 48
    slice_point: 96
  }
}
layer {
  name: "reshape_anchor"
  type: "Reshape"
  bottom: "anchor_stacked"
  top: "anchor"
  reshape_param {
    shape {
      dim: 0
      dim: 3
      dim: 16
      dim: 112
      dim: 112
    }
  }
}
layer {
  name: "reshape_positive"
  type: "Reshape"
  bottom: "positive_stacked"
  top: "positive"
  reshape_param {
    shape {
      dim: 0
      dim: 3
      dim: 16
      dim: 112
      dim: 112
    }
  }
}
layer {
  name: "reshape_negative"
  type: "Reshape"
  bottom: "negative_stacked"
  top: "negative"
  reshape_param {
    shape {
      dim: 0
      dim: 3
      dim: 16
      dim: 112
      dim: 112
    }
  }
}
layer {
  name: "conv1a"
  type: "NdConvolution"
  bottom: "anchor"
  top: "conv1a"
  param {
    name: "conv1a_w"
    lr_mult: 1
    decay_mult: 1
  }
  param {
    name: "conv1a_b"
    lr_mult: 2
    decay_mult: 0
  }
  convolution_param {
    num_output: 64
    weight_filler {
      type: "gaussian"
      std: 0.01
    }
    bias_filler {
      type: "constant"
      value: 0
    }
    pad_shape {
      dim: 1
      dim: 1
      dim: 1
    }
    kernel_shape {
      dim: 3
      dim: 3
      dim: 3
    }
    stride_shape {
      dim: 1
      dim: 1
      dim: 1
    }
  }
}
layer {
  name: "relu1a"
  type: "ReLU"
  bottom: "conv1a"
  top: "conv1a"
}
layer {
  name: "pool1"
  type: "NdPooling"
  bottom: "conv1a"
  top: "pool1"
  pooling_param {
    pool: MAX
    kernel_shape {
      dim: 1
      dim: 2
      dim: 2
    }
    stride_shape {
      dim: 1
      dim: 2
      dim: 2
    }
  }
}
layer {
  name: "conv2a"
  type: "NdConvolution"
  bottom: "pool1"
  top: "conv2a"
  param {
    name: "conv2a_w"
    lr_mult: 1
    decay_mult: 1
  }
  param {
    name: "conv2a_b"
    lr_mult: 2
    decay_mult: 0
  }
  convolution_param {
    num_output: 128
    weight_filler {
      type: "gaussian"
      std: 0.01
    }
    bias_filler {
      type: "constant"
      value: 1
    }
    pad_shape {
      dim: 1
      dim: 1
      dim: 1
    }
    kernel_shape {
      dim: 3
      dim: 3
      dim: 3
    }
    stride_shape {
      dim: 1
      dim: 1
      dim: 1
    }
  }
}
layer {
  name: "relu2a"
  type: "ReLU"
  bottom: "conv2a"
  top: "conv2a"
}
layer {
  name: "pool2"
  type: "NdPooling"
  bottom: "conv2a"
  top: "pool2"
  pooling_param {
    pool: MAX
    kernel_shape {
      dim: 2
      dim: 2
      dim: 2
    }
    stride_shape {
      dim: 2
      dim: 2
      dim: 2
    }
  }
}
layer {
  name: "conv3a"
  type: "NdConvolution"
  bottom: "pool2"
  top: "conv3a"
  param {
    name: "conv3a_w"
    lr_mult: 1
    decay_mult: 1
  }
  param {
    name: "conv3a_b"
    lr_mult: 2
    decay_mult: 0
  }
  convolution_param {
    num_output: 256
    weight_filler {
      type: "gaussian"
      std: 0.01
    }
    bias_filler {
      type: "constant"
      value: 1
    }
    pad_shape {
      dim: 1
      dim: 1
      dim: 1
    }
    kernel_shape {
      dim: 3
      dim: 3
      dim: 3
    }
    stride_shape {
      dim: 1
      dim: 1
      dim: 1
    }
  }
}
layer {
  name: "relu3a"
  type: "ReLU"
  bottom: "conv3a"
  top: "conv3a"
}
layer {
  name: "pool3"
  type: "NdPooling"
  bottom: "conv3a"
  top: "pool3"
  pooling_param {
    pool: MAX
    kernel_shape {
      dim: 2
      dim: 2
      dim: 2
    }
    stride_shape {
      dim: 2
      dim: 2
      dim: 2
    }
  }
}
layer {
  name: "conv4a"
  type: "NdConvolution"
  bottom: "pool3"
  top: "conv4a"
  param {
    name: "conv4a_w"
    lr_mult: 1
    decay_mult: 1
  }
  param {
    name: "conv4a_b"
    lr_mult: 2
    decay_mult: 0
  }
  convolution_param {
    num_output: 256
    weight_filler {
      type: "gaussian"
      std: 0.01
    }
    bias_filler {
      type: "constant"
      value: 1
    }
    pad_shape {
      dim: 1
      dim: 1
      dim: 1
    }
    kernel_shape {
      dim: 3
      dim: 3
      dim: 3
    }
    stride_shape {
      dim: 1
      dim: 1
      dim: 1
    }
  }
}
layer {
  name: "relu4a"
  type: "ReLU"
  bottom: "conv4a"
  top: "conv4a"
}
layer {
  name: "pool4"
  type: "NdPooling"
  bottom: "conv4a"
  top: "pool4"
  pooling_param {
    pool: MAX
    kernel_shape {
      dim: 2
      dim: 2
      dim: 2
    }
    stride_shape {
      dim: 2
      dim: 2
      dim: 2
    }
  }
}
layer {
  name: "conv5a"
  type: "NdConvolution"
  bottom: "pool4"
  top: "conv5a"
  param {
    name: "conv5a_w"
    lr_mult: 1
    decay_mult: 1
  }
  param {
    name: "conv5a_b"
    lr_mult: 2
    decay_mult: 0
  }
  convolution_param {
    num_output: 256
    weight_filler {
      type: "gaussian"
      std: 0.01
    }
    bias_filler {
      type: "constant"
      value: 1
    }
    pad_shape {
      dim: 1
      dim: 1
      dim: 1
    }
    kernel_shape {
      dim: 3
      dim: 3
      dim: 3
    }
    stride_shape {
      dim: 1
      dim: 1
      dim: 1
    }
  }
}
layer {
  name: "relu5a"
  type: "ReLU"
  bottom: "conv5a"
  top: "conv5a"
}
layer {
  name: "pool5"
  type: "NdPooling"
  bottom: "conv5a"
  top: "pool5"
  pooling_param {
    pool: MAX
    kernel_shape {
      dim: 2
      dim: 2
      dim: 2
    }
    stride_shape {
      dim: 2
      dim: 2
      dim: 2
    }
  }
}
layer {
  name: "fc6"
  type: "InnerProduct"
  bottom: "pool5"
  top: "fc6"
  param {
    name: "fc6_w"
    lr_mult: 1
    decay_mult: 1
  }
  param {
    name: "fc6_b"
    lr_mult: 2
    decay_mult: 0
  }
  inner_product_param {
    num_output: 2048
    weight_filler {
      type: "gaussian"
      std: 0.005
    }
    bias_filler {
      type: "constant"
      value: 1
    }
  }
}
layer {
  name: "relu6"
  type: "ReLU"
  bottom: "fc6"
  top: "fc6"
}
layer {
  name: "drop6"
  type: "Dropout"
  bottom: "fc6"
  top: "fc6"
  dropout_param {
    dropout_ratio: 0.5
  }
}
layer {
  name: "fc7"
  type: "InnerProduct"
  bottom: "fc6"
  top: "fc7"
  param {
    name: "fc7_w"
    lr_mult: 1
    decay_mult: 1
  }
  param {
    name: "fc7_b"
    lr_mult: 2
    decay_mult: 0
  }
  inner_product_param {
    num_output: 2048
    weight_filler {
      type: "gaussian"
      std: 0.005
    }
    bias_filler {
      type: "constant"
      value: 1
    }
  }
}
layer {
  name: "relu7"
  type: "ReLU"
  bottom: "fc7"
  top: "fc7"
}
layer {
  name: "drop7"
  type: "Dropout"
  bottom: "fc7"
  top: "fc7"
  dropout_param {
    dropout_ratio: 0.5
  }
}
layer {
  name: "conv1a_pos"
  type: "NdConvolution"
  bottom: "positive"
  top: "conv1a_pos"
  param {
    name: "conv1a_w"
    lr_mult: 1
    decay_mult: 1
  }
  param {
    name: "conv1a_b"
    lr_mult: 2
    decay_mult: 0
  }
  convolution_param {
    num_output: 64
    weight_filler {
      type: "gaussian"
      std: 0.01
    }
    bias_filler {
      type: "constant"
      value: 0
    }
    pad_shape {
      dim: 1
      dim: 1
      dim: 1
    }
    kernel_shape {
      dim: 3
      dim: 3
      dim: 3
    }
    stride_shape {
      dim: 1
      dim: 1
      dim: 1
    }
  }
}
layer {
  name: "relu1a_pos"
  type: "ReLU"
  bottom: "conv1a_pos"
  top: "conv1a_pos"
}
layer {
  name: "pool1_pos"
  type: "NdPooling"
  bottom: "conv1a_pos"
  top: "pool1_pos"
  pooling_param {
    pool: MAX
    kernel_shape {
      dim: 1
      dim: 2
      dim: 2
    }
    stride_shape {
      dim: 1
      dim: 2
      dim: 2
    }
  }
}
layer {
  name: "conv2a_pos"
  type: "NdConvolution"
  bottom: "pool1_pos"
  top: "conv2a_pos"
  param {
    name: "conv2a_w"
    lr_mult: 1
    decay_mult: 1
  }
  param {
    name: "conv2a_b"
    lr_mult: 2
    decay_mult: 0
  }
  convolution_param {
    num_output: 128
    weight_filler {
      type: "gaussian"
      std: 0.01
    }
    bias_filler {
      type: "constant"
      value: 1
    }
    pad_shape {
      dim: 1
      dim: 1
      dim: 1
    }
    kernel_shape {
      dim: 3
      dim: 3
      dim: 3
    }
    stride_shape {
      dim: 1
      dim: 1
      dim: 1
    }
  }
}
layer {
  name: "relu2a_pos"
  type: "ReLU"
  bottom: "conv2a_pos"
  top: "conv2a_pos"
}
layer {
  name: "pool2_pos"
  type: "NdPooling"
  bottom: "conv2a_pos"
  top: "pool2_pos"
  pooling_param {
    pool: MAX
    kernel_shape {
      dim: 2
      dim: 2
      dim: 2
    }
    stride_shape {
      dim: 2
      dim: 2
      dim: 2
    }
  }
}
layer {
  name: "conv3a_pos"
  type: "NdConvolution"
  bottom: "pool2_pos"
  top: "conv3a_pos"
  param {
    name: "conv3a_w"
    lr_mult: 1
    decay_mult: 1
  }
  param {
    name: "conv3a_b"
    lr_mult: 2
    decay_mult: 0
  }
  convolution_param {
    num_output: 256
    weight_filler {
      type: "gaussian"
      std: 0.01
    }
    bias_filler {
      type: "constant"
      value: 1
    }
    pad_shape {
      dim: 1
      dim: 1
      dim: 1
    }
    kernel_shape {
      dim: 3
      dim: 3
      dim: 3
    }
    stride_shape {
      dim: 1
      dim: 1
      dim: 1
    }
  }
}
layer {
  name: "relu3a_pos"
  type: "ReLU"
  bottom: "conv3a_pos"
  top: "conv3a_pos"
}
layer {
  name: "pool3_pos"
  type: "NdPooling"
  bottom: "conv3a_pos"
  top: "pool3_pos"
  pooling_param {
    pool: MAX
    kernel_shape {
      dim: 2
      dim: 2
      dim: 2
    }
    stride_shape {
      dim: 2
      dim: 2
      dim: 2
    }
  }
}
layer {
  name: "conv4a_pos"
  type: "NdConvolution"
  bottom: "pool3_pos"
  top: "conv4a_pos"
  param {
    name: "conv4a_w"
    lr_mult: 1
    decay_mult: 1
  }
  param {
    name: "conv4a_b"
    lr_mult: 2
    decay_mult: 0
  }
  convolution_param {
    num_output: 256
    weight_filler {
      type: "gaussian"
      std: 0.01
    }
    bias_filler {
      type: "constant"
      value: 1
    }
    pad_shape {
      dim: 1
      dim: 1
      dim: 1
    }
    kernel_shape {
      dim: 3
      dim: 3
      dim: 3
    }
    stride_shape {
      dim: 1
      dim: 1
      dim: 1
    }
  }
}
layer {
  name: "relu4a_pos"
  type: "ReLU"
  bottom: "conv4a_pos"
  top: "conv4a_pos"
}
layer {
  name: "pool4_pos"
  type: "NdPooling"
  bottom: "conv4a_pos"
  top: "pool4_pos"
  pooling_param {
    pool: MAX
    kernel_shape {
      dim: 2
      dim: 2
      dim: 2
    }
    stride_shape {
      dim: 2
      dim: 2
      dim: 2
    }
  }
}
layer {
  name: "conv5a_pos"
  type: "NdConvolution"
  bottom: "pool4_pos"
  top: "conv5a_pos"
  param {
    name: "conv5a_w"
    lr_mult: 1
    decay_mult: 1
  }
  param {
    name: "conv5a_b"
    lr_mult: 2
    decay_mult: 0
  }
  convolution_param {
    num_output: 256
    weight_filler {
      type: "gaussian"
      std: 0.01
    }
    bias_filler {
      type: "constant"
      value: 1
    }
    pad_shape {
      dim: 1
      dim: 1
      dim: 1
    }
    kernel_shape {
      dim: 3
      dim: 3
      dim: 3
    }
    stride_shape {
      dim: 1
      dim: 1
      dim: 1
    }
  }
}
layer {
  name: "relu5a_pos"
  type: "ReLU"
  bottom: "conv5a_pos"
  top: "conv5a_pos"
}
layer {
  name: "pool5_pos"
  type: "NdPooling"
  bottom: "conv5a_pos"
  top: "pool5_pos"
  pooling_param {
    pool: MAX
    kernel_shape {
      dim: 2
      dim: 2
      dim: 2
    }
    stride_shape {
      dim: 2
      dim: 2
      dim: 2
    }
  }
}
layer {
  name: "fc6_pos"
  type: "InnerProduct"
  bottom: "pool5_pos"
  top: "fc6_pos"
  param {
    name: "fc6_w"
    lr_mult: 1
    decay_mult: 1
  }
  param {
    name: "fc6_b"
    lr_mult: 2
    decay_mult: 0
  }
  inner_product_param {
    num_output: 2048
    weight_filler {
      type: "gaussian"
      std: 0.005
    }
    bias_filler {
      type: "constant"
      value: 1
    }
  }
}
layer {
  name: "relu6_pos"
  type: "ReLU"
  bottom: "fc6_pos"
  top: "fc6_pos"
}
layer {
  name: "drop6_pos"
  type: "Dropout"
  bottom: "fc6_pos"
  top: "fc6_pos"
  dropout_param {
    dropout_ratio: 0.5
  }
}
layer {
  name: "fc7_pos"
  type: "InnerProduct"
  bottom: "fc6_pos"
  top: "fc7_pos"
  param {
    name: "fc7_w"
    lr_mult: 1
    decay_mult: 1
  }
  param {
    name: "fc7_b"
    lr_mult: 2
    decay_mult: 0
  }
  inner_product_param {
    num_output: 2048
    weight_filler {
      type: "gaussian"
      std: 0.005
    }
    bias_filler {
      type: "constant"
      value: 1
    }
  }
}
layer {
  name: "relu7_pos"
  type: "ReLU"
  bottom: "fc7_pos"
  top: "fc7_pos"
}
layer {
  name: "drop7_pos"
  type: "Dropout"
  bottom: "fc7_pos"
  top: "fc7_pos"
  dropout_param {
    dropout_ratio: 0.5
  }
}
layer {
  name: "conv1a_neg"
  type: "NdConvolution"
  bottom: "negative"
  top: "conv1a_neg"
  param {
    name: "conv1a_w"
    lr_mult: 1
    decay_mult: 1
  }
  param {
    name: "conv1a_b"
    lr_mult: 2
    decay_mult: 0
  }
  convolution_param {
    num_output: 64
    weight_filler {
      type: "gaussian"
      std: 0.01
    }
    bias_filler {
      type: "constant"
      value: 0
    }
    pad_shape {
      dim: 1
      dim: 1
      dim: 1
    }
    kernel_shape {
      dim: 3
      dim: 3
      dim: 3
    }
    stride_shape {
      dim: 1
      dim: 1
      dim: 1
    }
  }
}
layer {
  name: "relu1a_neg"
  type: "ReLU"
  bottom: "conv1a_neg"
  top: "conv1a_neg"
}
layer {
  name: "pool1_neg"
  type: "NdPooling"
  bottom: "conv1a_neg"
  top: "pool1_neg"
  pooling_param {
    pool: MAX
    kernel_shape {
      dim: 1
      dim: 2
      dim: 2
    }
    stride_shape {
      dim: 1
      dim: 2
      dim: 2
    }
  }
}
layer {
  name: "conv2a_neg"
  type: "NdConvolution"
  bottom: "pool1_neg"
  top: "conv2a_neg"
  param {
    name: "conv2a_w"
    lr_mult: 1
    decay_mult: 1
  }
  param {
    name: "conv2a_b"
    lr_mult: 2
    decay_mult: 0
  }
  convolution_param {
    num_output: 128
    weight_filler {
      type: "gaussian"
      std: 0.01
    }
    bias_filler {
      type: "constant"
      value: 1
    }
    pad_shape {
      dim: 1
      dim: 1
      dim: 1
    }
    kernel_shape {
      dim: 3
      dim: 3
      dim: 3
    }
    stride_shape {
      dim: 1
      dim: 1
      dim: 1
    }
  }
}
layer {
  name: "relu2a_neg"
  type: "ReLU"
  bottom: "conv2a_neg"
  top: "conv2a_neg"
}
layer {
  name: "pool2_neg"
  type: "NdPooling"
  bottom: "conv2a_neg"
  top: "pool2_neg"
  pooling_param {
    pool: MAX
    kernel_shape {
      dim: 2
      dim: 2
      dim: 2
    }
    stride_shape {
      dim: 2
      dim: 2
      dim: 2
    }
  }
}
layer {
  name: "conv3a_neg"
  type: "NdConvolution"
  bottom: "pool2_neg"
  top: "conv3a_neg"
  param {
    name: "conv3a_w"
    lr_mult: 1
    decay_mult: 1
  }
  param {
    name: "conv3a_b"
    lr_mult: 2
    decay_mult: 0
  }
  convolution_param {
    num_output: 256
    weight_filler {
      type: "gaussian"
      std: 0.01
    }
    bias_filler {
      type: "constant"
      value: 1
    }
    pad_shape {
      dim: 1
      dim: 1
      dim: 1
    }
    kernel_shape {
      dim: 3
      dim: 3
      dim: 3
    }
    stride_shape {
      dim: 1
      dim: 1
      dim: 1
    }
  }
}
layer {
  name: "relu3a_neg"
  type: "ReLU"
  bottom: "conv3a_neg"
  top: "conv3a_neg"
}
layer {
  name: "pool3_neg"
  type: "NdPooling"
  bottom: "conv3a_neg"
  top: "pool3_neg"
  pooling_param {
    pool: MAX
    kernel_shape {
      dim: 2
      dim: 2
      dim: 2
    }
    stride_shape {
      dim: 2
      dim: 2
      dim: 2
    }
  }
}
layer {
  name: "conv4a_neg"
  type: "NdConvolution"
  bottom: "pool3_neg"
  top: "conv4a_neg"
  param {
    name: "conv4a_w"
    lr_mult: 1
    decay_mult: 1
  }
  param {
    name: "conv4a_b"
    lr_mult: 2
    decay_mult: 0
  }
  convolution_param {
    num_output: 256
    weight_filler {
      type: "gaussian"
      std: 0.01
    }
    bias_filler {
      type: "constant"
      value: 1
    }
    pad_shape {
      dim: 1
      dim: 1
      dim: 1
    }
    kernel_shape {
      dim: 3
      dim: 3
      dim: 3
    }
    stride_shape {
      dim: 1
      dim: 1
      dim: 1
    }
  }
}
layer {
  name: "relu4a_neg"
  type: "ReLU"
  bottom: "conv4a_neg"
  top: "conv4a_neg"
}
layer {
  name: "pool4_neg"
  type: "NdPooling"
  bottom: "conv4a_neg"
  top: "pool4_neg"
  pooling_param {
    pool: MAX
    kernel_shape {
      dim: 2
      dim: 2
      dim: 2
    }
    stride_shape {
      dim: 2
      dim: 2
      dim: 2
    }
  }
}
layer {
  name: "conv5a_neg"
  type: "NdConvolution"
  bottom: "pool4_neg"
  top: "conv5a_neg"
  param {
    name: "conv5a_w"
    lr_mult: 1
    decay_mult: 1
  }
  param {
    name: "conv5a_b"
    lr_mult: 2
    decay_mult: 0
  }
  convolution_param {
    num_output: 256
    weight_filler {
      type: "gaussian"
      std: 0.01
    }
    bias_filler {
      type: "constant"
      value: 1
    }
    pad_shape {
      dim: 1
      dim: 1
      dim: 1
    }
    kernel_shape {
      dim: 3
      dim: 3
      dim: 3
    }
    stride_shape {
      dim: 1
      dim: 1
      dim: 1
    }
  }
}
layer {
  name: "relu5a_neg"
  type: "ReLU"
  bottom: "conv5a_neg"
  top: "conv5a_neg"
}
layer {
  name: "pool5_neg"
  type: "NdPooling"
  bottom: "conv5a_neg"
  top: "pool5_neg"
  pooling_param {
    pool: MAX
    kernel_shape {
      dim: 2
      dim: 2
      dim: 2
    }
    stride_shape {
      dim: 2
      dim: 2
      dim: 2
    }
  }
}
layer {
  name: "fc6_neg"
  type: "InnerProduct"
  bottom: "pool5_neg"
  top: "fc6_neg"
  param {
    name: "fc6_w"
    lr_mult: 1
    decay_mult: 1
  }
  param {
    name: "fc6_b"
    lr_mult: 2
    decay_mult: 0
  }
  inner_product_param {
    num_output: 2048
    weight_filler {
      type: "gaussian"
      std: 0.005
    }
    bias_filler {
      type: "constant"
      value: 1
    }
  }
}
layer {
  name: "relu6_neg"
  type: "ReLU"
  bottom: "fc6_neg"
  top: "fc6_neg"
}
layer {
  name: "drop6_neg"
  type: "Dropout"
  bottom: "fc6_neg"
  top: "fc6_neg"
  dropout_param {
    dropout_ratio: 0.5
  }
}
layer {
  name: "fc7_neg"
  type: "InnerProduct"
  bottom: "fc6_neg"
  top: "fc7_neg"
  param {
    name: "fc7_w"
    lr_mult: 1
    decay_mult: 1
  }
  param {
    name: "fc7_b"
    lr_mult: 2
    decay_mult: 0
  }
  inner_product_param {
    num_output: 2048
    weight_filler {
      type: "gaussian"
      std: 0.005
    }
    bias_filler {
      type: "constant"
      value: 1
    }
  }
}
layer {
  name: "relu7_neg"
  type: "ReLU"
  bottom: "fc7_neg"
  top: "fc7_neg"
}
layer {
  name: "drop7_neg"
  type: "Dropout"
  bottom: "fc7_neg"
  top: "fc7_neg"
  dropout_param {
    dropout_ratio: 0.5
  }
}
layer {
  name: "loss"
  type: "TripletLoss"
  bottom: "fc7"
  bottom: "fc7_pos"
  bottom: "fc7_neg"
  top: "loss"
  threshold_param {
    threshold: 1
  }
}
I0502 21:16:49.143863 28586 layer_factory.hpp:77] Creating layer data
I0502 21:16:49.143929 28586 net.cpp:100] Creating Layer data
I0502 21:16:49.143937 28586 net.cpp:408] data -> triplet
I0502 21:16:49.162483 28612 db_lmdb.cpp:35] Opened lmdb /data/leo-data/Synthetic/LMDB/Triplets/val
I0502 21:16:49.166800 28586 data_layer.cpp:41] output data size: 1,144,112,112
I0502 21:16:49.185000 28586 net.cpp:150] Setting up data
I0502 21:16:49.185045 28586 net.cpp:157] Top shape: 1 144 112 112 (1806336)
I0502 21:16:49.185048 28586 net.cpp:165] Memory required for data: 7225344
I0502 21:16:49.185055 28586 layer_factory.hpp:77] Creating layer slicer
I0502 21:16:49.185071 28586 net.cpp:100] Creating Layer slicer
I0502 21:16:49.185075 28586 net.cpp:434] slicer <- triplet
I0502 21:16:49.185082 28586 net.cpp:408] slicer -> anchor_stacked
I0502 21:16:49.185092 28586 net.cpp:408] slicer -> positive_stacked
I0502 21:16:49.185101 28586 net.cpp:408] slicer -> negative_stacked
I0502 21:16:49.185241 28586 net.cpp:150] Setting up slicer
I0502 21:16:49.185250 28586 net.cpp:157] Top shape: 1 48 112 112 (602112)
I0502 21:16:49.185256 28586 net.cpp:157] Top shape: 1 48 112 112 (602112)
I0502 21:16:49.185258 28586 net.cpp:157] Top shape: 1 48 112 112 (602112)
I0502 21:16:49.185261 28586 net.cpp:165] Memory required for data: 14450688
I0502 21:16:49.185264 28586 layer_factory.hpp:77] Creating layer reshape_anchor
I0502 21:16:49.185273 28586 net.cpp:100] Creating Layer reshape_anchor
I0502 21:16:49.185278 28586 net.cpp:434] reshape_anchor <- anchor_stacked
I0502 21:16:49.185286 28586 net.cpp:408] reshape_anchor -> anchor
I0502 21:16:49.185379 28586 net.cpp:150] Setting up reshape_anchor
I0502 21:16:49.185389 28586 net.cpp:157] Top shape: 1 3 16 112 112 (602112)
I0502 21:16:49.185391 28586 net.cpp:165] Memory required for data: 16859136
I0502 21:16:49.185395 28586 layer_factory.hpp:77] Creating layer reshape_positive
I0502 21:16:49.185400 28586 net.cpp:100] Creating Layer reshape_positive
I0502 21:16:49.185403 28586 net.cpp:434] reshape_positive <- positive_stacked
I0502 21:16:49.185413 28586 net.cpp:408] reshape_positive -> positive
I0502 21:16:49.185446 28586 net.cpp:150] Setting up reshape_positive
I0502 21:16:49.185452 28586 net.cpp:157] Top shape: 1 3 16 112 112 (602112)
I0502 21:16:49.185456 28586 net.cpp:165] Memory required for data: 19267584
I0502 21:16:49.185458 28586 layer_factory.hpp:77] Creating layer reshape_negative
I0502 21:16:49.185464 28586 net.cpp:100] Creating Layer reshape_negative
I0502 21:16:49.185468 28586 net.cpp:434] reshape_negative <- negative_stacked
I0502 21:16:49.185473 28586 net.cpp:408] reshape_negative -> negative
I0502 21:16:49.185504 28586 net.cpp:150] Setting up reshape_negative
I0502 21:16:49.185510 28586 net.cpp:157] Top shape: 1 3 16 112 112 (602112)
I0502 21:16:49.185513 28586 net.cpp:165] Memory required for data: 21676032
I0502 21:16:49.185516 28586 layer_factory.hpp:77] Creating layer conv1a
I0502 21:16:49.185528 28586 net.cpp:100] Creating Layer conv1a
I0502 21:16:49.185533 28586 net.cpp:434] conv1a <- anchor
I0502 21:16:49.185541 28586 net.cpp:408] conv1a -> conv1a
I0502 21:16:49.192438 28586 net.cpp:150] Setting up conv1a
I0502 21:16:49.192453 28586 net.cpp:157] Top shape: 1 64 16 112 112 (12845056)
I0502 21:16:49.192457 28586 net.cpp:165] Memory required for data: 73056256
I0502 21:16:49.192507 28586 layer_factory.hpp:77] Creating layer relu1a
I0502 21:16:49.192517 28586 net.cpp:100] Creating Layer relu1a
I0502 21:16:49.192523 28586 net.cpp:434] relu1a <- conv1a
I0502 21:16:49.192526 28586 net.cpp:395] relu1a -> conv1a (in-place)
I0502 21:16:49.193393 28586 net.cpp:150] Setting up relu1a
I0502 21:16:49.193410 28586 net.cpp:157] Top shape: 1 64 16 112 112 (12845056)
I0502 21:16:49.193426 28586 net.cpp:165] Memory required for data: 124436480
I0502 21:16:49.193430 28586 layer_factory.hpp:77] Creating layer pool1
I0502 21:16:49.193439 28586 net.cpp:100] Creating Layer pool1
I0502 21:16:49.193444 28586 net.cpp:434] pool1 <- conv1a
I0502 21:16:49.193451 28586 net.cpp:408] pool1 -> pool1
I0502 21:16:49.194489 28586 net.cpp:150] Setting up pool1
I0502 21:16:49.194501 28586 net.cpp:157] Top shape: 1 64 16 56 56 (3211264)
I0502 21:16:49.194505 28586 net.cpp:165] Memory required for data: 137281536
I0502 21:16:49.194521 28586 layer_factory.hpp:77] Creating layer conv2a
I0502 21:16:49.194533 28586 net.cpp:100] Creating Layer conv2a
I0502 21:16:49.194537 28586 net.cpp:434] conv2a <- pool1
I0502 21:16:49.194556 28586 net.cpp:408] conv2a -> conv2a
I0502 21:16:49.202847 28586 net.cpp:150] Setting up conv2a
I0502 21:16:49.202860 28586 net.cpp:157] Top shape: 1 128 16 56 56 (6422528)
I0502 21:16:49.202864 28586 net.cpp:165] Memory required for data: 162971648
I0502 21:16:49.202885 28586 layer_factory.hpp:77] Creating layer relu2a
I0502 21:16:49.202893 28586 net.cpp:100] Creating Layer relu2a
I0502 21:16:49.202896 28586 net.cpp:434] relu2a <- conv2a
I0502 21:16:49.202921 28586 net.cpp:395] relu2a -> conv2a (in-place)
I0502 21:16:49.203848 28586 net.cpp:150] Setting up relu2a
I0502 21:16:49.203861 28586 net.cpp:157] Top shape: 1 128 16 56 56 (6422528)
I0502 21:16:49.203865 28586 net.cpp:165] Memory required for data: 188661760
I0502 21:16:49.203867 28586 layer_factory.hpp:77] Creating layer pool2
I0502 21:16:49.203886 28586 net.cpp:100] Creating Layer pool2
I0502 21:16:49.203889 28586 net.cpp:434] pool2 <- conv2a
I0502 21:16:49.203907 28586 net.cpp:408] pool2 -> pool2
I0502 21:16:49.204836 28586 net.cpp:150] Setting up pool2
I0502 21:16:49.204849 28586 net.cpp:157] Top shape: 1 128 8 28 28 (802816)
I0502 21:16:49.204852 28586 net.cpp:165] Memory required for data: 191873024
I0502 21:16:49.204855 28586 layer_factory.hpp:77] Creating layer conv3a
I0502 21:16:49.204875 28586 net.cpp:100] Creating Layer conv3a
I0502 21:16:49.204892 28586 net.cpp:434] conv3a <- pool2
I0502 21:16:49.204901 28586 net.cpp:408] conv3a -> conv3a
I0502 21:16:49.236460 28586 net.cpp:150] Setting up conv3a
I0502 21:16:49.236501 28586 net.cpp:157] Top shape: 1 256 8 28 28 (1605632)
I0502 21:16:49.236505 28586 net.cpp:165] Memory required for data: 198295552
I0502 21:16:49.236521 28586 layer_factory.hpp:77] Creating layer relu3a
I0502 21:16:49.236531 28586 net.cpp:100] Creating Layer relu3a
I0502 21:16:49.236536 28586 net.cpp:434] relu3a <- conv3a
I0502 21:16:49.236544 28586 net.cpp:395] relu3a -> conv3a (in-place)
I0502 21:16:49.237519 28586 net.cpp:150] Setting up relu3a
I0502 21:16:49.237530 28586 net.cpp:157] Top shape: 1 256 8 28 28 (1605632)
I0502 21:16:49.237545 28586 net.cpp:165] Memory required for data: 204718080
I0502 21:16:49.237548 28586 layer_factory.hpp:77] Creating layer pool3
I0502 21:16:49.237555 28586 net.cpp:100] Creating Layer pool3
I0502 21:16:49.237558 28586 net.cpp:434] pool3 <- conv3a
I0502 21:16:49.237566 28586 net.cpp:408] pool3 -> pool3
I0502 21:16:49.237820 28586 net.cpp:150] Setting up pool3
I0502 21:16:49.237830 28586 net.cpp:157] Top shape: 1 256 4 14 14 (200704)
I0502 21:16:49.237833 28586 net.cpp:165] Memory required for data: 205520896
I0502 21:16:49.237836 28586 layer_factory.hpp:77] Creating layer conv4a
I0502 21:16:49.237846 28586 net.cpp:100] Creating Layer conv4a
I0502 21:16:49.237850 28586 net.cpp:434] conv4a <- pool3
I0502 21:16:49.237856 28586 net.cpp:408] conv4a -> conv4a
I0502 21:16:49.293737 28586 net.cpp:150] Setting up conv4a
I0502 21:16:49.293777 28586 net.cpp:157] Top shape: 1 256 4 14 14 (200704)
I0502 21:16:49.293799 28586 net.cpp:165] Memory required for data: 206323712
I0502 21:16:49.293810 28586 layer_factory.hpp:77] Creating layer relu4a
I0502 21:16:49.293830 28586 net.cpp:100] Creating Layer relu4a
I0502 21:16:49.293834 28586 net.cpp:434] relu4a <- conv4a
I0502 21:16:49.293843 28586 net.cpp:395] relu4a -> conv4a (in-place)
I0502 21:16:49.294881 28586 net.cpp:150] Setting up relu4a
I0502 21:16:49.294894 28586 net.cpp:157] Top shape: 1 256 4 14 14 (200704)
I0502 21:16:49.294924 28586 net.cpp:165] Memory required for data: 207126528
I0502 21:16:49.294929 28586 layer_factory.hpp:77] Creating layer pool4
I0502 21:16:49.294955 28586 net.cpp:100] Creating Layer pool4
I0502 21:16:49.294957 28586 net.cpp:434] pool4 <- conv4a
I0502 21:16:49.294965 28586 net.cpp:408] pool4 -> pool4
I0502 21:16:49.295224 28586 net.cpp:150] Setting up pool4
I0502 21:16:49.295234 28586 net.cpp:157] Top shape: 1 256 2 7 7 (25088)
I0502 21:16:49.295238 28586 net.cpp:165] Memory required for data: 207226880
I0502 21:16:49.295240 28586 layer_factory.hpp:77] Creating layer conv5a
I0502 21:16:49.295253 28586 net.cpp:100] Creating Layer conv5a
I0502 21:16:49.295258 28586 net.cpp:434] conv5a <- pool4
I0502 21:16:49.295264 28586 net.cpp:408] conv5a -> conv5a
I0502 21:16:49.350149 28586 net.cpp:150] Setting up conv5a
I0502 21:16:49.350191 28586 net.cpp:157] Top shape: 1 256 2 7 7 (25088)
I0502 21:16:49.350196 28586 net.cpp:165] Memory required for data: 207327232
I0502 21:16:49.350210 28586 layer_factory.hpp:77] Creating layer relu5a
I0502 21:16:49.350221 28586 net.cpp:100] Creating Layer relu5a
I0502 21:16:49.350226 28586 net.cpp:434] relu5a <- conv5a
I0502 21:16:49.350232 28586 net.cpp:395] relu5a -> conv5a (in-place)
I0502 21:16:49.351196 28586 net.cpp:150] Setting up relu5a
I0502 21:16:49.351210 28586 net.cpp:157] Top shape: 1 256 2 7 7 (25088)
I0502 21:16:49.351213 28586 net.cpp:165] Memory required for data: 207427584
I0502 21:16:49.351217 28586 layer_factory.hpp:77] Creating layer pool5
I0502 21:16:49.351227 28586 net.cpp:100] Creating Layer pool5
I0502 21:16:49.351241 28586 net.cpp:434] pool5 <- conv5a
I0502 21:16:49.351251 28586 net.cpp:408] pool5 -> pool5
I0502 21:16:49.351506 28586 net.cpp:150] Setting up pool5
I0502 21:16:49.351518 28586 net.cpp:157] Top shape: 1 256 1 4 4 (4096)
I0502 21:16:49.351521 28586 net.cpp:165] Memory required for data: 207443968
I0502 21:16:49.351524 28586 layer_factory.hpp:77] Creating layer fc6
I0502 21:16:49.351534 28586 net.cpp:100] Creating Layer fc6
I0502 21:16:49.351537 28586 net.cpp:434] fc6 <- pool5
I0502 21:16:49.351544 28586 net.cpp:408] fc6 -> fc6
I0502 21:16:49.597417 28586 net.cpp:150] Setting up fc6
I0502 21:16:49.597460 28586 net.cpp:157] Top shape: 1 2048 (2048)
I0502 21:16:49.597465 28586 net.cpp:165] Memory required for data: 207452160
I0502 21:16:49.597478 28586 layer_factory.hpp:77] Creating layer relu6
I0502 21:16:49.597491 28586 net.cpp:100] Creating Layer relu6
I0502 21:16:49.597506 28586 net.cpp:434] relu6 <- fc6
I0502 21:16:49.597514 28586 net.cpp:395] relu6 -> fc6 (in-place)
I0502 21:16:49.598615 28586 net.cpp:150] Setting up relu6
I0502 21:16:49.598628 28586 net.cpp:157] Top shape: 1 2048 (2048)
I0502 21:16:49.598642 28586 net.cpp:165] Memory required for data: 207460352
I0502 21:16:49.598646 28586 layer_factory.hpp:77] Creating layer drop6
I0502 21:16:49.598652 28586 net.cpp:100] Creating Layer drop6
I0502 21:16:49.598655 28586 net.cpp:434] drop6 <- fc6
I0502 21:16:49.598662 28586 net.cpp:395] drop6 -> fc6 (in-place)
I0502 21:16:49.598707 28586 net.cpp:150] Setting up drop6
I0502 21:16:49.598714 28586 net.cpp:157] Top shape: 1 2048 (2048)
I0502 21:16:49.598717 28586 net.cpp:165] Memory required for data: 207468544
I0502 21:16:49.598721 28586 layer_factory.hpp:77] Creating layer fc7
I0502 21:16:49.598731 28586 net.cpp:100] Creating Layer fc7
I0502 21:16:49.598733 28586 net.cpp:434] fc7 <- fc6
I0502 21:16:49.598739 28586 net.cpp:408] fc7 -> fc7
I0502 21:16:49.763957 28586 net.cpp:150] Setting up fc7
I0502 21:16:49.763996 28586 net.cpp:157] Top shape: 1 2048 (2048)
I0502 21:16:49.764001 28586 net.cpp:165] Memory required for data: 207476736
I0502 21:16:49.764047 28586 layer_factory.hpp:77] Creating layer relu7
I0502 21:16:49.764070 28586 net.cpp:100] Creating Layer relu7
I0502 21:16:49.764077 28586 net.cpp:434] relu7 <- fc7
I0502 21:16:49.764091 28586 net.cpp:395] relu7 -> fc7 (in-place)
I0502 21:16:49.764417 28586 net.cpp:150] Setting up relu7
I0502 21:16:49.764431 28586 net.cpp:157] Top shape: 1 2048 (2048)
I0502 21:16:49.764436 28586 net.cpp:165] Memory required for data: 207484928
I0502 21:16:49.764439 28586 layer_factory.hpp:77] Creating layer drop7
I0502 21:16:49.764449 28586 net.cpp:100] Creating Layer drop7
I0502 21:16:49.764453 28586 net.cpp:434] drop7 <- fc7
I0502 21:16:49.764462 28586 net.cpp:395] drop7 -> fc7 (in-place)
I0502 21:16:49.764513 28586 net.cpp:150] Setting up drop7
I0502 21:16:49.764523 28586 net.cpp:157] Top shape: 1 2048 (2048)
I0502 21:16:49.764530 28586 net.cpp:165] Memory required for data: 207493120
I0502 21:16:49.764539 28586 layer_factory.hpp:77] Creating layer conv1a_pos
I0502 21:16:49.764559 28586 net.cpp:100] Creating Layer conv1a_pos
I0502 21:16:49.764565 28586 net.cpp:434] conv1a_pos <- positive
I0502 21:16:49.764581 28586 net.cpp:408] conv1a_pos -> conv1a_pos
I0502 21:16:49.773484 28586 net.cpp:150] Setting up conv1a_pos
I0502 21:16:49.773511 28586 net.cpp:157] Top shape: 1 64 16 112 112 (12845056)
I0502 21:16:49.773516 28586 net.cpp:165] Memory required for data: 258873344
I0502 21:16:49.773524 28586 net.cpp:493] Sharing parameters 'conv1a_w' owned by layer 'conv1a', param index 0
I0502 21:16:49.773531 28586 net.cpp:493] Sharing parameters 'conv1a_b' owned by layer 'conv1a', param index 1
I0502 21:16:49.773535 28586 layer_factory.hpp:77] Creating layer relu1a_pos
I0502 21:16:49.773546 28586 net.cpp:100] Creating Layer relu1a_pos
I0502 21:16:49.773552 28586 net.cpp:434] relu1a_pos <- conv1a_pos
I0502 21:16:49.773564 28586 net.cpp:395] relu1a_pos -> conv1a_pos (in-place)
I0502 21:16:49.774668 28586 net.cpp:150] Setting up relu1a_pos
I0502 21:16:49.774682 28586 net.cpp:157] Top shape: 1 64 16 112 112 (12845056)
I0502 21:16:49.774684 28586 net.cpp:165] Memory required for data: 310253568
I0502 21:16:49.774688 28586 layer_factory.hpp:77] Creating layer pool1_pos
I0502 21:16:49.774699 28586 net.cpp:100] Creating Layer pool1_pos
I0502 21:16:49.774703 28586 net.cpp:434] pool1_pos <- conv1a_pos
I0502 21:16:49.774708 28586 net.cpp:408] pool1_pos -> pool1_pos
I0502 21:16:49.775001 28586 net.cpp:150] Setting up pool1_pos
I0502 21:16:49.775015 28586 net.cpp:157] Top shape: 1 64 16 56 56 (3211264)
I0502 21:16:49.775019 28586 net.cpp:165] Memory required for data: 323098624
I0502 21:16:49.775022 28586 layer_factory.hpp:77] Creating layer conv2a_pos
I0502 21:16:49.775032 28586 net.cpp:100] Creating Layer conv2a_pos
I0502 21:16:49.775035 28586 net.cpp:434] conv2a_pos <- pool1_pos
I0502 21:16:49.775043 28586 net.cpp:408] conv2a_pos -> conv2a_pos
I0502 21:16:49.786312 28586 net.cpp:150] Setting up conv2a_pos
I0502 21:16:49.786341 28586 net.cpp:157] Top shape: 1 128 16 56 56 (6422528)
I0502 21:16:49.786345 28586 net.cpp:165] Memory required for data: 348788736
I0502 21:16:49.786355 28586 net.cpp:493] Sharing parameters 'conv2a_w' owned by layer 'conv2a', param index 0
I0502 21:16:49.786361 28586 net.cpp:493] Sharing parameters 'conv2a_b' owned by layer 'conv2a', param index 1
I0502 21:16:49.786365 28586 layer_factory.hpp:77] Creating layer relu2a_pos
I0502 21:16:49.786372 28586 net.cpp:100] Creating Layer relu2a_pos
I0502 21:16:49.786377 28586 net.cpp:434] relu2a_pos <- conv2a_pos
I0502 21:16:49.786386 28586 net.cpp:395] relu2a_pos -> conv2a_pos (in-place)
I0502 21:16:49.786590 28586 net.cpp:150] Setting up relu2a_pos
I0502 21:16:49.786602 28586 net.cpp:157] Top shape: 1 128 16 56 56 (6422528)
I0502 21:16:49.786605 28586 net.cpp:165] Memory required for data: 374478848
I0502 21:16:49.786610 28586 layer_factory.hpp:77] Creating layer pool2_pos
I0502 21:16:49.786618 28586 net.cpp:100] Creating Layer pool2_pos
I0502 21:16:49.786623 28586 net.cpp:434] pool2_pos <- conv2a_pos
I0502 21:16:49.786643 28586 net.cpp:408] pool2_pos -> pool2_pos
I0502 21:16:49.787694 28586 net.cpp:150] Setting up pool2_pos
I0502 21:16:49.787708 28586 net.cpp:157] Top shape: 1 128 8 28 28 (802816)
I0502 21:16:49.787710 28586 net.cpp:165] Memory required for data: 377690112
I0502 21:16:49.787714 28586 layer_factory.hpp:77] Creating layer conv3a_pos
I0502 21:16:49.787740 28586 net.cpp:100] Creating Layer conv3a_pos
I0502 21:16:49.787745 28586 net.cpp:434] conv3a_pos <- pool2_pos
I0502 21:16:49.787753 28586 net.cpp:408] conv3a_pos -> conv3a_pos
I0502 21:16:49.817867 28586 net.cpp:150] Setting up conv3a_pos
I0502 21:16:49.817901 28586 net.cpp:157] Top shape: 1 256 8 28 28 (1605632)
I0502 21:16:49.817905 28586 net.cpp:165] Memory required for data: 384112640
I0502 21:16:49.817910 28586 net.cpp:493] Sharing parameters 'conv3a_w' owned by layer 'conv3a', param index 0
I0502 21:16:49.817916 28586 net.cpp:493] Sharing parameters 'conv3a_b' owned by layer 'conv3a', param index 1
I0502 21:16:49.817920 28586 layer_factory.hpp:77] Creating layer relu3a_pos
I0502 21:16:49.817929 28586 net.cpp:100] Creating Layer relu3a_pos
I0502 21:16:49.817945 28586 net.cpp:434] relu3a_pos <- conv3a_pos
I0502 21:16:49.817951 28586 net.cpp:395] relu3a_pos -> conv3a_pos (in-place)
I0502 21:16:49.818148 28586 net.cpp:150] Setting up relu3a_pos
I0502 21:16:49.818161 28586 net.cpp:157] Top shape: 1 256 8 28 28 (1605632)
I0502 21:16:49.818166 28586 net.cpp:165] Memory required for data: 390535168
I0502 21:16:49.818171 28586 layer_factory.hpp:77] Creating layer pool3_pos
I0502 21:16:49.818184 28586 net.cpp:100] Creating Layer pool3_pos
I0502 21:16:49.818192 28586 net.cpp:434] pool3_pos <- conv3a_pos
I0502 21:16:49.818202 28586 net.cpp:408] pool3_pos -> pool3_pos
I0502 21:16:49.819277 28586 net.cpp:150] Setting up pool3_pos
I0502 21:16:49.819290 28586 net.cpp:157] Top shape: 1 256 4 14 14 (200704)
I0502 21:16:49.819295 28586 net.cpp:165] Memory required for data: 391337984
I0502 21:16:49.819300 28586 layer_factory.hpp:77] Creating layer conv4a_pos
I0502 21:16:49.819327 28586 net.cpp:100] Creating Layer conv4a_pos
I0502 21:16:49.819334 28586 net.cpp:434] conv4a_pos <- pool3_pos
I0502 21:16:49.819346 28586 net.cpp:408] conv4a_pos -> conv4a_pos
I0502 21:16:49.916544 28586 net.cpp:150] Setting up conv4a_pos
I0502 21:16:49.916575 28586 net.cpp:157] Top shape: 1 256 4 14 14 (200704)
I0502 21:16:49.916579 28586 net.cpp:165] Memory required for data: 392140800
I0502 21:16:49.916586 28586 net.cpp:493] Sharing parameters 'conv4a_w' owned by layer 'conv4a', param index 0
I0502 21:16:49.916592 28586 net.cpp:493] Sharing parameters 'conv4a_b' owned by layer 'conv4a', param index 1
I0502 21:16:49.916599 28586 layer_factory.hpp:77] Creating layer relu4a_pos
I0502 21:16:49.916606 28586 net.cpp:100] Creating Layer relu4a_pos
I0502 21:16:49.916611 28586 net.cpp:434] relu4a_pos <- conv4a_pos
I0502 21:16:49.916616 28586 net.cpp:395] relu4a_pos -> conv4a_pos (in-place)
I0502 21:16:49.916828 28586 net.cpp:150] Setting up relu4a_pos
I0502 21:16:49.916838 28586 net.cpp:157] Top shape: 1 256 4 14 14 (200704)
I0502 21:16:49.916841 28586 net.cpp:165] Memory required for data: 392943616
I0502 21:16:49.916873 28586 layer_factory.hpp:77] Creating layer pool4_pos
I0502 21:16:49.916882 28586 net.cpp:100] Creating Layer pool4_pos
I0502 21:16:49.916884 28586 net.cpp:434] pool4_pos <- conv4a_pos
I0502 21:16:49.916891 28586 net.cpp:408] pool4_pos -> pool4_pos
I0502 21:16:49.917875 28586 net.cpp:150] Setting up pool4_pos
I0502 21:16:49.917886 28586 net.cpp:157] Top shape: 1 256 2 7 7 (25088)
I0502 21:16:49.917888 28586 net.cpp:165] Memory required for data: 393043968
I0502 21:16:49.917892 28586 layer_factory.hpp:77] Creating layer conv5a_pos
I0502 21:16:49.917902 28586 net.cpp:100] Creating Layer conv5a_pos
I0502 21:16:49.917906 28586 net.cpp:434] conv5a_pos <- pool4_pos
I0502 21:16:49.917914 28586 net.cpp:408] conv5a_pos -> conv5a_pos
I0502 21:16:50.004631 28586 net.cpp:150] Setting up conv5a_pos
I0502 21:16:50.004663 28586 net.cpp:157] Top shape: 1 256 2 7 7 (25088)
I0502 21:16:50.004668 28586 net.cpp:165] Memory required for data: 393144320
I0502 21:16:50.004698 28586 net.cpp:493] Sharing parameters 'conv5a_w' owned by layer 'conv5a', param index 0
I0502 21:16:50.004709 28586 net.cpp:493] Sharing parameters 'conv5a_b' owned by layer 'conv5a', param index 1
I0502 21:16:50.004714 28586 layer_factory.hpp:77] Creating layer relu5a_pos
I0502 21:16:50.004727 28586 net.cpp:100] Creating Layer relu5a_pos
I0502 21:16:50.004734 28586 net.cpp:434] relu5a_pos <- conv5a_pos
I0502 21:16:50.004741 28586 net.cpp:395] relu5a_pos -> conv5a_pos (in-place)
I0502 21:16:50.007629 28586 net.cpp:150] Setting up relu5a_pos
I0502 21:16:50.007655 28586 net.cpp:157] Top shape: 1 256 2 7 7 (25088)
I0502 21:16:50.007673 28586 net.cpp:165] Memory required for data: 393244672
I0502 21:16:50.007680 28586 layer_factory.hpp:77] Creating layer pool5_pos
I0502 21:16:50.007699 28586 net.cpp:100] Creating Layer pool5_pos
I0502 21:16:50.007707 28586 net.cpp:434] pool5_pos <- conv5a_pos
I0502 21:16:50.007719 28586 net.cpp:408] pool5_pos -> pool5_pos
I0502 21:16:50.008826 28586 net.cpp:150] Setting up pool5_pos
I0502 21:16:50.008841 28586 net.cpp:157] Top shape: 1 256 1 4 4 (4096)
I0502 21:16:50.008846 28586 net.cpp:165] Memory required for data: 393261056
I0502 21:16:50.008852 28586 layer_factory.hpp:77] Creating layer fc6_pos
I0502 21:16:50.008865 28586 net.cpp:100] Creating Layer fc6_pos
I0502 21:16:50.008872 28586 net.cpp:434] fc6_pos <- pool5_pos
I0502 21:16:50.008883 28586 net.cpp:408] fc6_pos -> fc6_pos
I0502 21:16:50.263104 28586 net.cpp:150] Setting up fc6_pos
I0502 21:16:50.263140 28586 net.cpp:157] Top shape: 1 2048 (2048)
I0502 21:16:50.263145 28586 net.cpp:165] Memory required for data: 393269248
I0502 21:16:50.263156 28586 net.cpp:493] Sharing parameters 'fc6_w' owned by layer 'fc6', param index 0
I0502 21:16:50.263164 28586 net.cpp:493] Sharing parameters 'fc6_b' owned by layer 'fc6', param index 1
I0502 21:16:50.263180 28586 layer_factory.hpp:77] Creating layer relu6_pos
I0502 21:16:50.263196 28586 net.cpp:100] Creating Layer relu6_pos
I0502 21:16:50.263206 28586 net.cpp:434] relu6_pos <- fc6_pos
I0502 21:16:50.263218 28586 net.cpp:395] relu6_pos -> fc6_pos (in-place)
I0502 21:16:50.263525 28586 net.cpp:150] Setting up relu6_pos
I0502 21:16:50.263537 28586 net.cpp:157] Top shape: 1 2048 (2048)
I0502 21:16:50.263550 28586 net.cpp:165] Memory required for data: 393277440
I0502 21:16:50.263556 28586 layer_factory.hpp:77] Creating layer drop6_pos
I0502 21:16:50.263568 28586 net.cpp:100] Creating Layer drop6_pos
I0502 21:16:50.263576 28586 net.cpp:434] drop6_pos <- fc6_pos
I0502 21:16:50.263582 28586 net.cpp:395] drop6_pos -> fc6_pos (in-place)
I0502 21:16:50.263630 28586 net.cpp:150] Setting up drop6_pos
I0502 21:16:50.263639 28586 net.cpp:157] Top shape: 1 2048 (2048)
I0502 21:16:50.263644 28586 net.cpp:165] Memory required for data: 393285632
I0502 21:16:50.263649 28586 layer_factory.hpp:77] Creating layer fc7_pos
I0502 21:16:50.263671 28586 net.cpp:100] Creating Layer fc7_pos
I0502 21:16:50.263677 28586 net.cpp:434] fc7_pos <- fc6_pos
I0502 21:16:50.263689 28586 net.cpp:408] fc7_pos -> fc7_pos
I0502 21:16:50.395685 28586 net.cpp:150] Setting up fc7_pos
I0502 21:16:50.395714 28586 net.cpp:157] Top shape: 1 2048 (2048)
I0502 21:16:50.395720 28586 net.cpp:165] Memory required for data: 393293824
I0502 21:16:50.395731 28586 net.cpp:493] Sharing parameters 'fc7_w' owned by layer 'fc7', param index 0
I0502 21:16:50.395750 28586 net.cpp:493] Sharing parameters 'fc7_b' owned by layer 'fc7', param index 1
I0502 21:16:50.395756 28586 layer_factory.hpp:77] Creating layer relu7_pos
I0502 21:16:50.395768 28586 net.cpp:100] Creating Layer relu7_pos
I0502 21:16:50.395778 28586 net.cpp:434] relu7_pos <- fc7_pos
I0502 21:16:50.395792 28586 net.cpp:395] relu7_pos -> fc7_pos (in-place)
I0502 21:16:50.405148 28586 net.cpp:150] Setting up relu7_pos
I0502 21:16:50.405164 28586 net.cpp:157] Top shape: 1 2048 (2048)
I0502 21:16:50.405170 28586 net.cpp:165] Memory required for data: 393302016
I0502 21:16:50.405187 28586 layer_factory.hpp:77] Creating layer drop7_pos
I0502 21:16:50.405230 28586 net.cpp:100] Creating Layer drop7_pos
I0502 21:16:50.405239 28586 net.cpp:434] drop7_pos <- fc7_pos
I0502 21:16:50.405247 28586 net.cpp:395] drop7_pos -> fc7_pos (in-place)
I0502 21:16:50.405295 28586 net.cpp:150] Setting up drop7_pos
I0502 21:16:50.405305 28586 net.cpp:157] Top shape: 1 2048 (2048)
I0502 21:16:50.405310 28586 net.cpp:165] Memory required for data: 393310208
I0502 21:16:50.405316 28586 layer_factory.hpp:77] Creating layer conv1a_neg
I0502 21:16:50.405336 28586 net.cpp:100] Creating Layer conv1a_neg
I0502 21:16:50.405345 28586 net.cpp:434] conv1a_neg <- negative
I0502 21:16:50.405359 28586 net.cpp:408] conv1a_neg -> conv1a_neg
I0502 21:16:50.425781 28586 net.cpp:150] Setting up conv1a_neg
I0502 21:16:50.425797 28586 net.cpp:157] Top shape: 1 64 16 112 112 (12845056)
I0502 21:16:50.425802 28586 net.cpp:165] Memory required for data: 444690432
I0502 21:16:50.425809 28586 net.cpp:493] Sharing parameters 'conv1a_w' owned by layer 'conv1a', param index 0
I0502 21:16:50.425832 28586 net.cpp:493] Sharing parameters 'conv1a_b' owned by layer 'conv1a', param index 1
I0502 21:16:50.425839 28586 layer_factory.hpp:77] Creating layer relu1a_neg
I0502 21:16:50.425849 28586 net.cpp:100] Creating Layer relu1a_neg
I0502 21:16:50.425856 28586 net.cpp:434] relu1a_neg <- conv1a_neg
I0502 21:16:50.425864 28586 net.cpp:395] relu1a_neg -> conv1a_neg (in-place)
I0502 21:16:50.434849 28586 net.cpp:150] Setting up relu1a_neg
I0502 21:16:50.434882 28586 net.cpp:157] Top shape: 1 64 16 112 112 (12845056)
I0502 21:16:50.434890 28586 net.cpp:165] Memory required for data: 496070656
I0502 21:16:50.434896 28586 layer_factory.hpp:77] Creating layer pool1_neg
I0502 21:16:50.434938 28586 net.cpp:100] Creating Layer pool1_neg
I0502 21:16:50.434953 28586 net.cpp:434] pool1_neg <- conv1a_neg
I0502 21:16:50.434967 28586 net.cpp:408] pool1_neg -> pool1_neg
I0502 21:16:50.435382 28586 net.cpp:150] Setting up pool1_neg
I0502 21:16:50.435400 28586 net.cpp:157] Top shape: 1 64 16 56 56 (3211264)
I0502 21:16:50.435405 28586 net.cpp:165] Memory required for data: 508915712
I0502 21:16:50.435410 28586 layer_factory.hpp:77] Creating layer conv2a_neg
I0502 21:16:50.435420 28586 net.cpp:100] Creating Layer conv2a_neg
I0502 21:16:50.435425 28586 net.cpp:434] conv2a_neg <- pool1_neg
I0502 21:16:50.435436 28586 net.cpp:408] conv2a_neg -> conv2a_neg
I0502 21:16:50.455386 28586 net.cpp:150] Setting up conv2a_neg
I0502 21:16:50.455421 28586 net.cpp:157] Top shape: 1 128 16 56 56 (6422528)
I0502 21:16:50.455426 28586 net.cpp:165] Memory required for data: 534605824
I0502 21:16:50.455433 28586 net.cpp:493] Sharing parameters 'conv2a_w' owned by layer 'conv2a', param index 0
I0502 21:16:50.455441 28586 net.cpp:493] Sharing parameters 'conv2a_b' owned by layer 'conv2a', param index 1
I0502 21:16:50.455446 28586 layer_factory.hpp:77] Creating layer relu2a_neg
I0502 21:16:50.455456 28586 net.cpp:100] Creating Layer relu2a_neg
I0502 21:16:50.455467 28586 net.cpp:434] relu2a_neg <- conv2a_neg
I0502 21:16:50.455484 28586 net.cpp:395] relu2a_neg -> conv2a_neg (in-place)
I0502 21:16:50.456698 28586 net.cpp:150] Setting up relu2a_neg
I0502 21:16:50.456717 28586 net.cpp:157] Top shape: 1 128 16 56 56 (6422528)
I0502 21:16:50.456727 28586 net.cpp:165] Memory required for data: 560295936
I0502 21:16:50.456732 28586 layer_factory.hpp:77] Creating layer pool2_neg
I0502 21:16:50.456743 28586 net.cpp:100] Creating Layer pool2_neg
I0502 21:16:50.456748 28586 net.cpp:434] pool2_neg <- conv2a_neg
I0502 21:16:50.456760 28586 net.cpp:408] pool2_neg -> pool2_neg
I0502 21:16:50.457111 28586 net.cpp:150] Setting up pool2_neg
I0502 21:16:50.457125 28586 net.cpp:157] Top shape: 1 128 8 28 28 (802816)
I0502 21:16:50.457129 28586 net.cpp:165] Memory required for data: 563507200
I0502 21:16:50.457134 28586 layer_factory.hpp:77] Creating layer conv3a_neg
I0502 21:16:50.457145 28586 net.cpp:100] Creating Layer conv3a_neg
I0502 21:16:50.457150 28586 net.cpp:434] conv3a_neg <- pool2_neg
I0502 21:16:50.457162 28586 net.cpp:408] conv3a_neg -> conv3a_neg
I0502 21:16:50.505348 28586 net.cpp:150] Setting up conv3a_neg
I0502 21:16:50.505403 28586 net.cpp:157] Top shape: 1 256 8 28 28 (1605632)
I0502 21:16:50.505410 28586 net.cpp:165] Memory required for data: 569929728
I0502 21:16:50.505440 28586 net.cpp:493] Sharing parameters 'conv3a_w' owned by layer 'conv3a', param index 0
I0502 21:16:50.505450 28586 net.cpp:493] Sharing parameters 'conv3a_b' owned by layer 'conv3a', param index 1
I0502 21:16:50.505457 28586 layer_factory.hpp:77] Creating layer relu3a_neg
I0502 21:16:50.505477 28586 net.cpp:100] Creating Layer relu3a_neg
I0502 21:16:50.505488 28586 net.cpp:434] relu3a_neg <- conv3a_neg
I0502 21:16:50.505501 28586 net.cpp:395] relu3a_neg -> conv3a_neg (in-place)
I0502 21:16:50.507241 28586 net.cpp:150] Setting up relu3a_neg
I0502 21:16:50.507269 28586 net.cpp:157] Top shape: 1 256 8 28 28 (1605632)
I0502 21:16:50.507279 28586 net.cpp:165] Memory required for data: 576352256
I0502 21:16:50.507287 28586 layer_factory.hpp:77] Creating layer pool3_neg
I0502 21:16:50.507302 28586 net.cpp:100] Creating Layer pool3_neg
I0502 21:16:50.507309 28586 net.cpp:434] pool3_neg <- conv3a_neg
I0502 21:16:50.507324 28586 net.cpp:408] pool3_neg -> pool3_neg
I0502 21:16:50.507779 28586 net.cpp:150] Setting up pool3_neg
I0502 21:16:50.507798 28586 net.cpp:157] Top shape: 1 256 4 14 14 (200704)
I0502 21:16:50.507805 28586 net.cpp:165] Memory required for data: 577155072
I0502 21:16:50.507813 28586 layer_factory.hpp:77] Creating layer conv4a_neg
I0502 21:16:50.507832 28586 net.cpp:100] Creating Layer conv4a_neg
I0502 21:16:50.507838 28586 net.cpp:434] conv4a_neg <- pool3_neg
I0502 21:16:50.507854 28586 net.cpp:408] conv4a_neg -> conv4a_neg
I0502 21:16:50.596959 28586 net.cpp:150] Setting up conv4a_neg
I0502 21:16:50.596994 28586 net.cpp:157] Top shape: 1 256 4 14 14 (200704)
I0502 21:16:50.596999 28586 net.cpp:165] Memory required for data: 577957888
I0502 21:16:50.597017 28586 net.cpp:493] Sharing parameters 'conv4a_w' owned by layer 'conv4a', param index 0
I0502 21:16:50.597023 28586 net.cpp:493] Sharing parameters 'conv4a_b' owned by layer 'conv4a', param index 1
I0502 21:16:50.597030 28586 layer_factory.hpp:77] Creating layer relu4a_neg
I0502 21:16:50.597040 28586 net.cpp:100] Creating Layer relu4a_neg
I0502 21:16:50.597046 28586 net.cpp:434] relu4a_neg <- conv4a_neg
I0502 21:16:50.597056 28586 net.cpp:395] relu4a_neg -> conv4a_neg (in-place)
I0502 21:16:50.598227 28586 net.cpp:150] Setting up relu4a_neg
I0502 21:16:50.598242 28586 net.cpp:157] Top shape: 1 256 4 14 14 (200704)
I0502 21:16:50.598254 28586 net.cpp:165] Memory required for data: 578760704
I0502 21:16:50.598258 28586 layer_factory.hpp:77] Creating layer pool4_neg
I0502 21:16:50.598270 28586 net.cpp:100] Creating Layer pool4_neg
I0502 21:16:50.598275 28586 net.cpp:434] pool4_neg <- conv4a_neg
I0502 21:16:50.598289 28586 net.cpp:408] pool4_neg -> pool4_neg
I0502 21:16:50.598598 28586 net.cpp:150] Setting up pool4_neg
I0502 21:16:50.598610 28586 net.cpp:157] Top shape: 1 256 2 7 7 (25088)
I0502 21:16:50.598614 28586 net.cpp:165] Memory required for data: 578861056
I0502 21:16:50.598618 28586 layer_factory.hpp:77] Creating layer conv5a_neg
I0502 21:16:50.598633 28586 net.cpp:100] Creating Layer conv5a_neg
I0502 21:16:50.598639 28586 net.cpp:434] conv5a_neg <- pool4_neg
I0502 21:16:50.598649 28586 net.cpp:408] conv5a_neg -> conv5a_neg
I0502 21:16:50.676817 28586 net.cpp:150] Setting up conv5a_neg
I0502 21:16:50.676856 28586 net.cpp:157] Top shape: 1 256 2 7 7 (25088)
I0502 21:16:50.676862 28586 net.cpp:165] Memory required for data: 578961408
I0502 21:16:50.676872 28586 net.cpp:493] Sharing parameters 'conv5a_w' owned by layer 'conv5a', param index 0
I0502 21:16:50.676882 28586 net.cpp:493] Sharing parameters 'conv5a_b' owned by layer 'conv5a', param index 1
I0502 21:16:50.676888 28586 layer_factory.hpp:77] Creating layer relu5a_neg
I0502 21:16:50.676901 28586 net.cpp:100] Creating Layer relu5a_neg
I0502 21:16:50.676908 28586 net.cpp:434] relu5a_neg <- conv5a_neg
I0502 21:16:50.676919 28586 net.cpp:395] relu5a_neg -> conv5a_neg (in-place)
I0502 21:16:50.677258 28586 net.cpp:150] Setting up relu5a_neg
I0502 21:16:50.677273 28586 net.cpp:157] Top shape: 1 256 2 7 7 (25088)
I0502 21:16:50.677278 28586 net.cpp:165] Memory required for data: 579061760
I0502 21:16:50.677284 28586 layer_factory.hpp:77] Creating layer pool5_neg
I0502 21:16:50.677299 28586 net.cpp:100] Creating Layer pool5_neg
I0502 21:16:50.677305 28586 net.cpp:434] pool5_neg <- conv5a_neg
I0502 21:16:50.677315 28586 net.cpp:408] pool5_neg -> pool5_neg
I0502 21:16:50.678557 28586 net.cpp:150] Setting up pool5_neg
I0502 21:16:50.678575 28586 net.cpp:157] Top shape: 1 256 1 4 4 (4096)
I0502 21:16:50.678581 28586 net.cpp:165] Memory required for data: 579078144
I0502 21:16:50.678586 28586 layer_factory.hpp:77] Creating layer fc6_neg
I0502 21:16:50.678601 28586 net.cpp:100] Creating Layer fc6_neg
I0502 21:16:50.678613 28586 net.cpp:434] fc6_neg <- pool5_neg
I0502 21:16:50.678624 28586 net.cpp:408] fc6_neg -> fc6_neg
I0502 21:16:50.995472 28586 net.cpp:150] Setting up fc6_neg
I0502 21:16:50.995584 28586 net.cpp:157] Top shape: 1 2048 (2048)
I0502 21:16:50.995609 28586 net.cpp:165] Memory required for data: 579086336
I0502 21:16:50.995632 28586 net.cpp:493] Sharing parameters 'fc6_w' owned by layer 'fc6', param index 0
I0502 21:16:50.995647 28586 net.cpp:493] Sharing parameters 'fc6_b' owned by layer 'fc6', param index 1
I0502 21:16:50.995656 28586 layer_factory.hpp:77] Creating layer relu6_neg
I0502 21:16:50.995672 28586 net.cpp:100] Creating Layer relu6_neg
I0502 21:16:50.995694 28586 net.cpp:434] relu6_neg <- fc6_neg
I0502 21:16:50.995707 28586 net.cpp:395] relu6_neg -> fc6_neg (in-place)
I0502 21:16:50.996466 28586 net.cpp:150] Setting up relu6_neg
I0502 21:16:50.996479 28586 net.cpp:157] Top shape: 1 2048 (2048)
I0502 21:16:50.996482 28586 net.cpp:165] Memory required for data: 579094528
I0502 21:16:50.996486 28586 layer_factory.hpp:77] Creating layer drop6_neg
I0502 21:16:50.996512 28586 net.cpp:100] Creating Layer drop6_neg
I0502 21:16:50.996518 28586 net.cpp:434] drop6_neg <- fc6_neg
I0502 21:16:50.996526 28586 net.cpp:395] drop6_neg -> fc6_neg (in-place)
I0502 21:16:50.996567 28586 net.cpp:150] Setting up drop6_neg
I0502 21:16:50.996574 28586 net.cpp:157] Top shape: 1 2048 (2048)
I0502 21:16:50.996577 28586 net.cpp:165] Memory required for data: 579102720
I0502 21:16:50.996582 28586 layer_factory.hpp:77] Creating layer fc7_neg
I0502 21:16:50.996593 28586 net.cpp:100] Creating Layer fc7_neg
I0502 21:16:50.996603 28586 net.cpp:434] fc7_neg <- fc6_neg
I0502 21:16:50.996613 28586 net.cpp:408] fc7_neg -> fc7_neg
I0502 21:16:51.144624 28586 net.cpp:150] Setting up fc7_neg
I0502 21:16:51.144664 28586 net.cpp:157] Top shape: 1 2048 (2048)
I0502 21:16:51.144667 28586 net.cpp:165] Memory required for data: 579110912
I0502 21:16:51.144676 28586 net.cpp:493] Sharing parameters 'fc7_w' owned by layer 'fc7', param index 0
I0502 21:16:51.144685 28586 net.cpp:493] Sharing parameters 'fc7_b' owned by layer 'fc7', param index 1
I0502 21:16:51.144690 28586 layer_factory.hpp:77] Creating layer relu7_neg
I0502 21:16:51.144701 28586 net.cpp:100] Creating Layer relu7_neg
I0502 21:16:51.144706 28586 net.cpp:434] relu7_neg <- fc7_neg
I0502 21:16:51.144719 28586 net.cpp:395] relu7_neg -> fc7_neg (in-place)
I0502 21:16:51.151190 28586 net.cpp:150] Setting up relu7_neg
I0502 21:16:51.151207 28586 net.cpp:157] Top shape: 1 2048 (2048)
I0502 21:16:51.151211 28586 net.cpp:165] Memory required for data: 579119104
I0502 21:16:51.151216 28586 layer_factory.hpp:77] Creating layer drop7_neg
I0502 21:16:51.151224 28586 net.cpp:100] Creating Layer drop7_neg
I0502 21:16:51.151228 28586 net.cpp:434] drop7_neg <- fc7_neg
I0502 21:16:51.151235 28586 net.cpp:395] drop7_neg -> fc7_neg (in-place)
I0502 21:16:51.151278 28586 net.cpp:150] Setting up drop7_neg
I0502 21:16:51.151285 28586 net.cpp:157] Top shape: 1 2048 (2048)
I0502 21:16:51.151288 28586 net.cpp:165] Memory required for data: 579127296
I0502 21:16:51.151293 28586 layer_factory.hpp:77] Creating layer loss
I0502 21:16:51.151301 28586 net.cpp:100] Creating Layer loss
I0502 21:16:51.151305 28586 net.cpp:434] loss <- fc7
I0502 21:16:51.151332 28586 net.cpp:434] loss <- fc7_pos
I0502 21:16:51.151337 28586 net.cpp:434] loss <- fc7_neg
I0502 21:16:51.151342 28586 net.cpp:408] loss -> loss
…
