…
    mean_value: 65
    mean_value: 74
    mean_value: 92
    mean_value: 65
    mean_value: 74
    mean_value: 92
    mean_value: 65
    mean_value: 74
    mean_value: 92
    mean_value: 65
    mean_value: 74
    mean_value: 92
    mean_value: 65
    mean_value: 74
    mean_value: 92
    mean_value: 65
    mean_value: 74
    mean_value: 92
    mean_value: 65
    mean_value: 74
    mean_value: 92
    mean_value: 65
    mean_value: 74
    mean_value: 92
  }
  data_param {
    source: "/data/leo-data/Synthetic/LMDB/Triplets/train"
    batch_size: 17
    backend: LMDB
  }
}
layer {
  name: "slicer"
  type: "Slice"
  bottom: "triplet"
  top: "anchor_stacked"
  top: "positive_stacked"
  top: "negative_stacked"
  slice_param {
    slice_dim: 1
    slice_point: 48
    slice_point: 96
  }
}
layer {
  name: "reshape_anchor"
  type: "Reshape"
  bottom: "anchor_stacked"
  top: "anchor"
  reshape_param {
    shape {
      dim: 0
      dim: 3
      dim: 16
      dim: 112
      dim: 112
    }
  }
}
layer {
  name: "reshape_positive"
  type: "Reshape"
  bottom: "positive_stacked"
  top: "positive"
  reshape_param {
    shape {
      dim: 0
      dim: 3
      dim: 16
      dim: 112
      dim: 112
    }
  }
}
layer {
  name: "reshape_negative"
  type: "Reshape"
  bottom: "negative_stacked"
  top: "negative"
  reshape_param {
    shape {
      dim: 0
      dim: 3
      dim: 16
      dim: 112
      dim: 112
    }
  }
}
layer {
  name: "conv1a"
  type: "NdConvolution"
  bottom: "anchor"
  top: "conv1a"
  param {
    name: "conv1a_w"
    lr_mult: 1
    decay_mult: 1
  }
  param {
    name: "conv1a_b"
    lr_mult: 2
    decay_mult: 0
  }
  convolution_param {
    num_output: 64
    weight_filler {
      type: "gaussian"
      std: 0.01
    }
    bias_filler {
      type: "constant"
      value: 0
    }
    pad_shape {
      dim: 1
      dim: 1
      dim: 1
    }
    kernel_shape {
      dim: 3
      dim: 3
      dim: 3
    }
    stride_shape {
      dim: 1
      dim: 1
      dim: 1
    }
  }
}
layer {
  name: "relu1a"
  type: "ReLU"
  bottom: "conv1a"
  top: "conv1a"
}
layer {
  name: "pool1"
  type: "NdPooling"
  bottom: "conv1a"
  top: "pool1"
  pooling_param {
    pool: MAX
    kernel_shape {
      dim: 1
      dim: 2
      dim: 2
    }
    stride_shape {
      dim: 1
      dim: 2
      dim: 2
    }
  }
}
layer {
  name: "conv2a"
  type: "NdConvolution"
  bottom: "pool1"
  top: "conv2a"
  param {
    name: "conv2a_w"
    lr_mult: 1
    decay_mult: 1
  }
  param {
    name: "conv2a_b"
    lr_mult: 2
    decay_mult: 0
  }
  convolution_param {
    num_output: 128
    weight_filler {
      type: "gaussian"
      std: 0.01
    }
    bias_filler {
      type: "constant"
      value: 1
    }
    pad_shape {
      dim: 1
      dim: 1
      dim: 1
    }
    kernel_shape {
      dim: 3
      dim: 3
      dim: 3
    }
    stride_shape {
      dim: 1
      dim: 1
      dim: 1
    }
  }
}
layer {
  name: "relu2a"
  type: "ReLU"
  bottom: "conv2a"
  top: "conv2a"
}
layer {
  name: "pool2"
  type: "NdPooling"
  bottom: "conv2a"
  top: "pool2"
  pooling_param {
    pool: MAX
    kernel_shape {
      dim: 2
      dim: 2
      dim: 2
    }
    stride_shape {
      dim: 2
      dim: 2
      dim: 2
    }
  }
}
layer {
  name: "conv3a"
  type: "NdConvolution"
  bottom: "pool2"
  top: "conv3a"
  param {
    name: "conv3a_w"
    lr_mult: 1
    decay_mult: 1
  }
  param {
    name: "conv3a_b"
    lr_mult: 2
    decay_mult: 0
  }
  convolution_param {
    num_output: 256
    weight_filler {
      type: "gaussian"
      std: 0.01
    }
    bias_filler {
      type: "constant"
      value: 1
    }
    pad_shape {
      dim: 1
      dim: 1
      dim: 1
    }
    kernel_shape {
      dim: 3
      dim: 3
      dim: 3
    }
    stride_shape {
      dim: 1
      dim: 1
      dim: 1
    }
  }
}
layer {
  name: "relu3a"
  type: "ReLU"
  bottom: "conv3a"
  top: "conv3a"
}
layer {
  name: "pool3"
  type: "NdPooling"
  bottom: "conv3a"
  top: "pool3"
  pooling_param {
    pool: MAX
    kernel_shape {
      dim: 2
      dim: 2
      dim: 2
    }
    stride_shape {
      dim: 2
      dim: 2
      dim: 2
    }
  }
}
layer {
  name: "conv4a"
  type: "NdConvolution"
  bottom: "pool3"
  top: "conv4a"
  param {
    name: "conv4a_w"
    lr_mult: 1
    decay_mult: 1
  }
  param {
    name: "conv4a_b"
    lr_mult: 2
    decay_mult: 0
  }
  convolution_param {
    num_output: 256
    weight_filler {
      type: "gaussian"
      std: 0.01
    }
    bias_filler {
      type: "constant"
      value: 1
    }
    pad_shape {
      dim: 1
      dim: 1
      dim: 1
    }
    kernel_shape {
      dim: 3
      dim: 3
      dim: 3
    }
    stride_shape {
      dim: 1
      dim: 1
      dim: 1
    }
  }
}
layer {
  name: "relu4a"
  type: "ReLU"
  bottom: "conv4a"
  top: "conv4a"
}
layer {
  name: "pool4"
  type: "NdPooling"
  bottom: "conv4a"
  top: "pool4"
  pooling_param {
    pool: MAX
    kernel_shape {
      dim: 2
      dim: 2
      dim: 2
    }
    stride_shape {
      dim: 2
      dim: 2
      dim: 2
    }
  }
}
layer {
  name: "conv5a"
  type: "NdConvolution"
  bottom: "pool4"
  top: "conv5a"
  param {
    name: "conv5a_w"
    lr_mult: 1
    decay_mult: 1
  }
  param {
    name: "conv5a_b"
    lr_mult: 2
    decay_mult: 0
  }
  convolution_param {
    num_output: 256
    weight_filler {
      type: "gaussian"
      std: 0.01
    }
    bias_filler {
      type: "constant"
      value: 1
    }
    pad_shape {
      dim: 1
      dim: 1
      dim: 1
    }
    kernel_shape {
      dim: 3
      dim: 3
      dim: 3
    }
    stride_shape {
      dim: 1
      dim: 1
      dim: 1
    }
  }
}
layer {
  name: "relu5a"
  type: "ReLU"
  bottom: "conv5a"
  top: "conv5a"
}
layer {
  name: "pool5"
  type: "NdPooling"
  bottom: "conv5a"
  top: "pool5"
  pooling_param {
    pool: MAX
    kernel_shape {
      dim: 2
      dim: 2
      dim: 2
    }
    stride_shape {
      dim: 2
      dim: 2
      dim: 2
    }
  }
}
layer {
  name: "fc6"
  type: "InnerProduct"
  bottom: "pool5"
  top: "fc6"
  param {
    name: "fc6_w"
    lr_mult: 1
    decay_mult: 1
  }
  param {
    name: "fc6_b"
    lr_mult: 2
    decay_mult: 0
  }
  inner_product_param {
    num_output: 2048
    weight_filler {
      type: "gaussian"
      std: 0.005
    }
    bias_filler {
      type: "constant"
      value: 1
    }
  }
}
layer {
  name: "relu6"
  type: "ReLU"
  bottom: "fc6"
  top: "fc6"
}
layer {
  name: "drop6"
  type: "Dropout"
  bottom: "fc6"
  top: "fc6"
  dropout_param {
    dropout_ratio: 0.5
  }
}
layer {
  name: "fc7"
  type: "InnerProduct"
  bottom: "fc6"
  top: "fc7"
  param {
    name: "fc7_w"
    lr_mult: 1
    decay_mult: 1
  }
  param {
    name: "fc7_b"
    lr_mult: 2
    decay_mult: 0
  }
  inner_product_param {
    num_output: 2048
    weight_filler {
      type: "gaussian"
      std: 0.005
    }
    bias_filler {
      type: "constant"
      value: 1
    }
  }
}
layer {
  name: "relu7"
  type: "ReLU"
  bottom: "fc7"
  top: "fc7"
}
layer {
  name: "drop7"
  type: "Dropout"
  bottom: "fc7"
  top: "fc7"
  dropout_param {
    dropout_ratio: 0.5
  }
}
layer {
  name: "mvn"
  type: "Python"
  bottom: "fc7"
  top: "fc7_norm"
  python_param {
    module: "mvn"
    layer: "MVNLayer"
  }
}
layer {
  name: "conv1a_pos"
  type: "NdConvolution"
  bottom: "positive"
  top: "conv1a_pos"
  param {
    name: "conv1a_w"
    lr_mult: 1
    decay_mult: 1
  }
  param {
    name: "conv1a_b"
    lr_mult: 2
    decay_mult: 0
  }
  convolution_param {
    num_output: 64
    weight_filler {
      type: "gaussian"
      std: 0.01
    }
    bias_filler {
      type: "constant"
      value: 0
    }
    pad_shape {
      dim: 1
      dim: 1
      dim: 1
    }
    kernel_shape {
      dim: 3
      dim: 3
      dim: 3
    }
    stride_shape {
      dim: 1
      dim: 1
      dim: 1
    }
  }
}
layer {
  name: "relu1a_pos"
  type: "ReLU"
  bottom: "conv1a_pos"
  top: "conv1a_pos"
}
layer {
  name: "pool1_pos"
  type: "NdPooling"
  bottom: "conv1a_pos"
  top: "pool1_pos"
  pooling_param {
    pool: MAX
    kernel_shape {
      dim: 1
      dim: 2
      dim: 2
    }
    stride_shape {
      dim: 1
      dim: 2
      dim: 2
    }
  }
}
layer {
  name: "conv2a_pos"
  type: "NdConvolution"
  bottom: "pool1_pos"
  top: "conv2a_pos"
  param {
    name: "conv2a_w"
    lr_mult: 1
    decay_mult: 1
  }
  param {
    name: "conv2a_b"
    lr_mult: 2
    decay_mult: 0
  }
  convolution_param {
    num_output: 128
    weight_filler {
      type: "gaussian"
      std: 0.01
    }
    bias_filler {
      type: "constant"
      value: 1
    }
    pad_shape {
      dim: 1
      dim: 1
      dim: 1
    }
    kernel_shape {
      dim: 3
      dim: 3
      dim: 3
    }
    stride_shape {
      dim: 1
      dim: 1
      dim: 1
    }
  }
}
layer {
  name: "relu2a_pos"
  type: "ReLU"
  bottom: "conv2a_pos"
  top: "conv2a_pos"
}
layer {
  name: "pool2_pos"
  type: "NdPooling"
  bottom: "conv2a_pos"
  top: "pool2_pos"
  pooling_param {
    pool: MAX
    kernel_shape {
      dim: 2
      dim: 2
      dim: 2
    }
    stride_shape {
      dim: 2
      dim: 2
      dim: 2
    }
  }
}
layer {
  name: "conv3a_pos"
  type: "NdConvolution"
  bottom: "pool2_pos"
  top: "conv3a_pos"
  param {
    name: "conv3a_w"
    lr_mult: 1
    decay_mult: 1
  }
  param {
    name: "conv3a_b"
    lr_mult: 2
    decay_mult: 0
  }
  convolution_param {
    num_output: 256
    weight_filler {
      type: "gaussian"
      std: 0.01
    }
    bias_filler {
      type: "constant"
      value: 1
    }
    pad_shape {
      dim: 1
      dim: 1
      dim: 1
    }
    kernel_shape {
      dim: 3
      dim: 3
      dim: 3
    }
    stride_shape {
      dim: 1
      dim: 1
      dim: 1
    }
  }
}
layer {
  name: "relu3a_pos"
  type: "ReLU"
  bottom: "conv3a_pos"
  top: "conv3a_pos"
}
layer {
  name: "pool3_pos"
  type: "NdPooling"
  bottom: "conv3a_pos"
  top: "pool3_pos"
  pooling_param {
    pool: MAX
    kernel_shape {
      dim: 2
      dim: 2
      dim: 2
    }
    stride_shape {
      dim: 2
      dim: 2
      dim: 2
    }
  }
}
layer {
  name: "conv4a_pos"
  type: "NdConvolution"
  bottom: "pool3_pos"
  top: "conv4a_pos"
  param {
    name: "conv4a_w"
    lr_mult: 1
    decay_mult: 1
  }
  param {
    name: "conv4a_b"
    lr_mult: 2
    decay_mult: 0
  }
  convolution_param {
    num_output: 256
    weight_filler {
      type: "gaussian"
      std: 0.01
    }
    bias_filler {
      type: "constant"
      value: 1
    }
    pad_shape {
      dim: 1
      dim: 1
      dim: 1
    }
    kernel_shape {
      dim: 3
      dim: 3
      dim: 3
    }
    stride_shape {
      dim: 1
      dim: 1
      dim: 1
    }
  }
}
layer {
  name: "relu4a_pos"
  type: "ReLU"
  bottom: "conv4a_pos"
  top: "conv4a_pos"
}
layer {
  name: "pool4_pos"
  type: "NdPooling"
  bottom: "conv4a_pos"
  top: "pool4_pos"
  pooling_param {
    pool: MAX
    kernel_shape {
      dim: 2
      dim: 2
      dim: 2
    }
    stride_shape {
      dim: 2
      dim: 2
      dim: 2
    }
  }
}
layer {
  name: "conv5a_pos"
  type: "NdConvolution"
  bottom: "pool4_pos"
  top: "conv5a_pos"
  param {
    name: "conv5a_w"
    lr_mult: 1
    decay_mult: 1
  }
  param {
    name: "conv5a_b"
    lr_mult: 2
    decay_mult: 0
  }
  convolution_param {
    num_output: 256
    weight_filler {
      type: "gaussian"
      std: 0.01
    }
    bias_filler {
      type: "constant"
      value: 1
    }
    pad_shape {
      dim: 1
      dim: 1
      dim: 1
    }
    kernel_shape {
      dim: 3
      dim: 3
      dim: 3
    }
    stride_shape {
      dim: 1
      dim: 1
      dim: 1
    }
  }
}
layer {
  name: "relu5a_pos"
  type: "ReLU"
  bottom: "conv5a_pos"
  top: "conv5a_pos"
}
layer {
  name: "pool5_pos"
  type: "NdPooling"
  bottom: "conv5a_pos"
  top: "pool5_pos"
  pooling_param {
    pool: MAX
    kernel_shape {
      dim: 2
      dim: 2
      dim: 2
    }
    stride_shape {
      dim: 2
      dim: 2
      dim: 2
    }
  }
}
layer {
  name: "fc6_pos"
  type: "InnerProduct"
  bottom: "pool5_pos"
  top: "fc6_pos"
  param {
    name: "fc6_w"
    lr_mult: 1
    decay_mult: 1
  }
  param {
    name: "fc6_b"
    lr_mult: 2
    decay_mult: 0
  }
  inner_product_param {
    num_output: 2048
    weight_filler {
      type: "gaussian"
      std: 0.005
    }
    bias_filler {
      type: "constant"
      value: 1
    }
  }
}
layer {
  name: "relu6_pos"
  type: "ReLU"
  bottom: "fc6_pos"
  top: "fc6_pos"
}
layer {
  name: "drop6_pos"
  type: "Dropout"
  bottom: "fc6_pos"
  top: "fc6_pos"
  dropout_param {
    dropout_ratio: 0.5
  }
}
layer {
  name: "fc7_pos"
  type: "InnerProduct"
  bottom: "fc6_pos"
  top: "fc7_pos"
  param {
    name: "fc7_w"
    lr_mult: 1
    decay_mult: 1
  }
  param {
    name: "fc7_b"
    lr_mult: 2
    decay_mult: 0
  }
  inner_product_param {
    num_output: 2048
    weight_filler {
      type: "gaussian"
      std: 0.005
    }
    bias_filler {
      type: "constant"
      value: 1
    }
  }
}
layer {
  name: "relu7_pos"
  type: "ReLU"
  bottom: "fc7_pos"
  top: "fc7_pos"
}
layer {
  name: "drop7_pos"
  type: "Dropout"
  bottom: "fc7_pos"
  top: "fc7_pos"
  dropout_param {
    dropout_ratio: 0.5
  }
}
layer {
  name: "mvn_pos"
  type: "Python"
  bottom: "fc7_pos"
  top: "fc7_pos_norm"
  python_param {
    module: "mvn"
    layer: "MVNLayer"
  }
}
layer {
  name: "conv1a_neg"
  type: "NdConvolution"
  bottom: "negative"
  top: "conv1a_neg"
  param {
    name: "conv1a_w"
    lr_mult: 1
    decay_mult: 1
  }
  param {
    name: "conv1a_b"
    lr_mult: 2
    decay_mult: 0
  }
  convolution_param {
    num_output: 64
    weight_filler {
      type: "gaussian"
      std: 0.01
    }
    bias_filler {
      type: "constant"
      value: 0
    }
    pad_shape {
      dim: 1
      dim: 1
      dim: 1
    }
    kernel_shape {
      dim: 3
      dim: 3
      dim: 3
    }
    stride_shape {
      dim: 1
      dim: 1
      dim: 1
    }
  }
}
layer {
  name: "relu1a_neg"
  type: "ReLU"
  bottom: "conv1a_neg"
  top: "conv1a_neg"
}
layer {
  name: "pool1_neg"
  type: "NdPooling"
  bottom: "conv1a_neg"
  top: "pool1_neg"
  pooling_param {
    pool: MAX
    kernel_shape {
      dim: 1
      dim: 2
      dim: 2
    }
    stride_shape {
      dim: 1
      dim: 2
      dim: 2
    }
  }
}
layer {
  name: "conv2a_neg"
  type: "NdConvolution"
  bottom: "pool1_neg"
  top: "conv2a_neg"
  param {
    name: "conv2a_w"
    lr_mult: 1
    decay_mult: 1
  }
  param {
    name: "conv2a_b"
    lr_mult: 2
    decay_mult: 0
  }
  convolution_param {
    num_output: 128
    weight_filler {
      type: "gaussian"
      std: 0.01
    }
    bias_filler {
      type: "constant"
      value: 1
    }
    pad_shape {
      dim: 1
      dim: 1
      dim: 1
    }
    kernel_shape {
      dim: 3
      dim: 3
      dim: 3
    }
    stride_shape {
      dim: 1
      dim: 1
      dim: 1
    }
  }
}
layer {
  name: "relu2a_neg"
  type: "ReLU"
  bottom: "conv2a_neg"
  top: "conv2a_neg"
}
layer {
  name: "pool2_neg"
  type: "NdPooling"
  bottom: "conv2a_neg"
  top: "pool2_neg"
  pooling_param {
    pool: MAX
    kernel_shape {
      dim: 2
      dim: 2
      dim: 2
    }
    stride_shape {
      dim: 2
      dim: 2
      dim: 2
    }
  }
}
layer {
  name: "conv3a_neg"
  type: "NdConvolution"
  bottom: "pool2_neg"
  top: "conv3a_neg"
  param {
    name: "conv3a_w"
    lr_mult: 1
    decay_mult: 1
  }
  param {
    name: "conv3a_b"
    lr_mult: 2
    decay_mult: 0
  }
  convolution_param {
    num_output: 256
    weight_filler {
      type: "gaussian"
      std: 0.01
    }
    bias_filler {
      type: "constant"
      value: 1
    }
    pad_shape {
      dim: 1
      dim: 1
      dim: 1
    }
    kernel_shape {
      dim: 3
      dim: 3
      dim: 3
    }
    stride_shape {
      dim: 1
      dim: 1
      dim: 1
    }
  }
}
layer {
  name: "relu3a_neg"
  type: "ReLU"
  bottom: "conv3a_neg"
  top: "conv3a_neg"
}
layer {
  name: "pool3_neg"
  type: "NdPooling"
  bottom: "conv3a_neg"
  top: "pool3_neg"
  pooling_param {
    pool: MAX
    kernel_shape {
      dim: 2
      dim: 2
      dim: 2
    }
    stride_shape {
      dim: 2
      dim: 2
      dim: 2
    }
  }
}
layer {
  name: "conv4a_neg"
  type: "NdConvolution"
  bottom: "pool3_neg"
  top: "conv4a_neg"
  param {
    name: "conv4a_w"
    lr_mult: 1
    decay_mult: 1
  }
  param {
    name: "conv4a_b"
    lr_mult: 2
    decay_mult: 0
  }
  convolution_param {
    num_output: 256
    weight_filler {
      type: "gaussian"
      std: 0.01
    }
    bias_filler {
      type: "constant"
      value: 1
    }
    pad_shape {
      dim: 1
      dim: 1
      dim: 1
    }
    kernel_shape {
      dim: 3
      dim: 3
      dim: 3
    }
    stride_shape {
      dim: 1
      dim: 1
      dim: 1
    }
  }
}
layer {
  name: "relu4a_neg"
  type: "ReLU"
  bottom: "conv4a_neg"
  top: "conv4a_neg"
}
layer {
  name: "pool4_neg"
  type: "NdPooling"
  bottom: "conv4a_neg"
  top: "pool4_neg"
  pooling_param {
    pool: MAX
    kernel_shape {
      dim: 2
      dim: 2
      dim: 2
    }
    stride_shape {
      dim: 2
      dim: 2
      dim: 2
    }
  }
}
layer {
  name: "conv5a_neg"
  type: "NdConvolution"
  bottom: "pool4_neg"
  top: "conv5a_neg"
  param {
    name: "conv5a_w"
    lr_mult: 1
    decay_mult: 1
  }
  param {
    name: "conv5a_b"
    lr_mult: 2
    decay_mult: 0
  }
  convolution_param {
    num_output: 256
    weight_filler {
      type: "gaussian"
      std: 0.01
    }
    bias_filler {
      type: "constant"
      value: 1
    }
    pad_shape {
      dim: 1
      dim: 1
      dim: 1
    }
    kernel_shape {
      dim: 3
      dim: 3
      dim: 3
    }
    stride_shape {
      dim: 1
      dim: 1
      dim: 1
    }
  }
}
layer {
  name: "relu5a_neg"
  type: "ReLU"
  bottom: "conv5a_neg"
  top: "conv5a_neg"
}
layer {
  name: "pool5_neg"
  type: "NdPooling"
  bottom: "conv5a_neg"
  top: "pool5_neg"
  pooling_param {
    pool: MAX
    kernel_shape {
      dim: 2
      dim: 2
      dim: 2
    }
    stride_shape {
      dim: 2
      dim: 2
      dim: 2
    }
  }
}
layer {
  name: "fc6_neg"
  type: "InnerProduct"
  bottom: "pool5_neg"
  top: "fc6_neg"
  param {
    name: "fc6_w"
    lr_mult: 1
    decay_mult: 1
  }
  param {
    name: "fc6_b"
    lr_mult: 2
    decay_mult: 0
  }
  inner_product_param {
    num_output: 2048
    weight_filler {
      type: "gaussian"
      std: 0.005
    }
    bias_filler {
      type: "constant"
      value: 1
    }
  }
}
layer {
  name: "relu6_neg"
  type: "ReLU"
  bottom: "fc6_neg"
  top: "fc6_neg"
}
layer {
  name: "drop6_neg"
  type: "Dropout"
  bottom: "fc6_neg"
  top: "fc6_neg"
  dropout_param {
    dropout_ratio: 0.5
  }
}
layer {
  name: "fc7_neg"
  type: "InnerProduct"
  bottom: "fc6_neg"
  top: "fc7_neg"
  param {
    name: "fc7_w"
    lr_mult: 1
    decay_mult: 1
  }
  param {
    name: "fc7_b"
    lr_mult: 2
    decay_mult: 0
  }
  inner_product_param {
    num_output: 2048
    weight_filler {
      type: "gaussian"
      std: 0.005
    }
    bias_filler {
      type: "constant"
      value: 1
    }
  }
}
layer {
  name: "relu7_neg"
  type: "ReLU"
  bottom: "fc7_neg"
  top: "fc7_neg"
}
layer {
  name: "drop7_neg"
  type: "Dropout"
  bottom: "fc7_neg"
  top: "fc7_neg"
  dropout_param {
    dropout_ratio: 0.5
  }
}
layer {
  name: "mvn_neg"
  type: "Python"
  bottom: "fc7_neg"
  top: "fc7_neg_norm"
  python_param {
    module: "mvn"
    layer: "MVNLayer"
  }
}
layer {
  name: "loss"
  type: "TripletLoss"
  bottom: "fc7_norm"
  bottom: "fc7_pos_norm"
  bottom: "fc7_neg_norm"
  top: "loss"
  threshold_param {
    threshold: 0.054999541
  }
}
layer {
  name: "triplet_check"
  type: "Python"
  bottom: "fc7_norm"
  bottom: "fc7_pos_norm"
  bottom: "fc7_neg_norm"
  python_param {
    module: "triplet_check"
    layer: "TripletCheckLayer"
    param_str: "{\"n_samples\":\"35000\", \"filename\":\"../../features/triplet_loss_triplet_distance_\"}"
  }
}
I0520 12:25:24.121983  1794 layer_factory.hpp:77] Creating layer data
I0520 12:25:24.122634  1794 net.cpp:100] Creating Layer data
I0520 12:25:24.122654  1794 net.cpp:408] data -> triplet
I0520 12:25:24.141213  1809 db_lmdb.cpp:35] Opened lmdb /data/leo-data/Synthetic/LMDB/Triplets/train
I0520 12:25:24.395469  1794 data_layer.cpp:41] output data size: 17,144,112,112
I0520 12:25:24.889780  1794 net.cpp:150] Setting up data
I0520 12:25:24.889832  1794 net.cpp:157] Top shape: 17 144 112 112 (30707712)
I0520 12:25:24.889840  1794 net.cpp:165] Memory required for data: 122830848
I0520 12:25:24.889859  1794 layer_factory.hpp:77] Creating layer slicer
I0520 12:25:24.889883  1794 net.cpp:100] Creating Layer slicer
I0520 12:25:24.889891  1794 net.cpp:434] slicer <- triplet
I0520 12:25:24.889945  1794 net.cpp:408] slicer -> anchor_stacked
I0520 12:25:24.889969  1794 net.cpp:408] slicer -> positive_stacked
I0520 12:25:24.889982  1794 net.cpp:408] slicer -> negative_stacked
I0520 12:25:24.890076  1794 net.cpp:150] Setting up slicer
I0520 12:25:24.890095  1794 net.cpp:157] Top shape: 17 48 112 112 (10235904)
I0520 12:25:24.890102  1794 net.cpp:157] Top shape: 17 48 112 112 (10235904)
I0520 12:25:24.890108  1794 net.cpp:157] Top shape: 17 48 112 112 (10235904)
I0520 12:25:24.890112  1794 net.cpp:165] Memory required for data: 245661696
I0520 12:25:24.890116  1794 layer_factory.hpp:77] Creating layer reshape_anchor
I0520 12:25:24.890206  1794 net.cpp:100] Creating Layer reshape_anchor
I0520 12:25:24.890214  1794 net.cpp:434] reshape_anchor <- anchor_stacked
I0520 12:25:24.890239  1794 net.cpp:408] reshape_anchor -> anchor
I0520 12:25:24.890286  1794 net.cpp:150] Setting up reshape_anchor
I0520 12:25:24.890297  1794 net.cpp:157] Top shape: 17 3 16 112 112 (10235904)
I0520 12:25:24.890302  1794 net.cpp:165] Memory required for data: 286605312
I0520 12:25:24.890306  1794 layer_factory.hpp:77] Creating layer reshape_positive
I0520 12:25:24.890314  1794 net.cpp:100] Creating Layer reshape_positive
I0520 12:25:24.890318  1794 net.cpp:434] reshape_positive <- positive_stacked
I0520 12:25:24.890331  1794 net.cpp:408] reshape_positive -> positive
I0520 12:25:24.890362  1794 net.cpp:150] Setting up reshape_positive
I0520 12:25:24.890375  1794 net.cpp:157] Top shape: 17 3 16 112 112 (10235904)
I0520 12:25:24.890382  1794 net.cpp:165] Memory required for data: 327548928
I0520 12:25:24.890386  1794 layer_factory.hpp:77] Creating layer reshape_negative
I0520 12:25:24.890396  1794 net.cpp:100] Creating Layer reshape_negative
I0520 12:25:24.890403  1794 net.cpp:434] reshape_negative <- negative_stacked
I0520 12:25:24.890409  1794 net.cpp:408] reshape_negative -> negative
I0520 12:25:24.890437  1794 net.cpp:150] Setting up reshape_negative
I0520 12:25:24.890450  1794 net.cpp:157] Top shape: 17 3 16 112 112 (10235904)
I0520 12:25:24.890455  1794 net.cpp:165] Memory required for data: 368492544
I0520 12:25:24.890460  1794 layer_factory.hpp:77] Creating layer conv1a
I0520 12:25:24.890489  1794 net.cpp:100] Creating Layer conv1a
I0520 12:25:24.890496  1794 net.cpp:434] conv1a <- anchor
I0520 12:25:24.890506  1794 net.cpp:408] conv1a -> conv1a
I0520 12:25:24.988239  1813 blocking_queue.cpp:50] Waiting for data
I0520 12:25:27.101397  1794 net.cpp:150] Setting up conv1a
I0520 12:25:27.101456  1794 net.cpp:157] Top shape: 17 64 16 112 112 (218365952)
I0520 12:25:27.101465  1794 net.cpp:165] Memory required for data: 1241956352
I0520 12:25:27.101511  1794 layer_factory.hpp:77] Creating layer relu1a
I0520 12:25:27.101541  1794 net.cpp:100] Creating Layer relu1a
I0520 12:25:27.101552  1794 net.cpp:434] relu1a <- conv1a
I0520 12:25:27.101565  1794 net.cpp:395] relu1a -> conv1a (in-place)
I0520 12:25:27.101977  1794 net.cpp:150] Setting up relu1a
I0520 12:25:27.101996  1794 net.cpp:157] Top shape: 17 64 16 112 112 (218365952)
I0520 12:25:27.102016  1794 net.cpp:165] Memory required for data: 2115420160
I0520 12:25:27.102023  1794 layer_factory.hpp:77] Creating layer pool1
I0520 12:25:27.102044  1794 net.cpp:100] Creating Layer pool1
I0520 12:25:27.102051  1794 net.cpp:434] pool1 <- conv1a
I0520 12:25:27.102062  1794 net.cpp:408] pool1 -> pool1
I0520 12:25:27.104156  1794 net.cpp:150] Setting up pool1
I0520 12:25:27.104185  1794 net.cpp:157] Top shape: 17 64 16 56 56 (54591488)
I0520 12:25:27.104194  1794 net.cpp:165] Memory required for data: 2333786112
I0520 12:25:27.104203  1794 layer_factory.hpp:77] Creating layer conv2a
I0520 12:25:27.104231  1794 net.cpp:100] Creating Layer conv2a
I0520 12:25:27.104241  1794 net.cpp:434] conv2a <- pool1
I0520 12:25:27.104257  1794 net.cpp:408] conv2a -> conv2a
I0520 12:25:27.124984  1794 net.cpp:150] Setting up conv2a
I0520 12:25:27.125036  1794 net.cpp:157] Top shape: 17 128 16 56 56 (109182976)
I0520 12:25:27.125043  1794 net.cpp:165] Memory required for data: 2770518016
I0520 12:25:27.125071  1794 layer_factory.hpp:77] Creating layer relu2a
I0520 12:25:27.125085  1794 net.cpp:100] Creating Layer relu2a
I0520 12:25:27.125103  1794 net.cpp:434] relu2a <- conv2a
I0520 12:25:27.125118  1794 net.cpp:395] relu2a -> conv2a (in-place)
I0520 12:25:27.125509  1794 net.cpp:150] Setting up relu2a
I0520 12:25:27.125525  1794 net.cpp:157] Top shape: 17 128 16 56 56 (109182976)
I0520 12:25:27.125532  1794 net.cpp:165] Memory required for data: 3207249920
I0520 12:25:27.125550  1794 layer_factory.hpp:77] Creating layer pool2
I0520 12:25:27.125564  1794 net.cpp:100] Creating Layer pool2
I0520 12:25:27.125608  1794 net.cpp:434] pool2 <- conv2a
I0520 12:25:27.125630  1794 net.cpp:408] pool2 -> pool2
I0520 12:25:27.126019  1794 net.cpp:150] Setting up pool2
I0520 12:25:27.126046  1794 net.cpp:157] Top shape: 17 128 8 28 28 (13647872)
I0520 12:25:27.126055  1794 net.cpp:165] Memory required for data: 3261841408
I0520 12:25:27.126072  1794 layer_factory.hpp:77] Creating layer conv3a
I0520 12:25:27.126098  1794 net.cpp:100] Creating Layer conv3a
I0520 12:25:27.126109  1794 net.cpp:434] conv3a <- pool2
I0520 12:25:27.126129  1794 net.cpp:408] conv3a -> conv3a
I0520 12:25:27.189055  1794 net.cpp:150] Setting up conv3a
I0520 12:25:27.189101  1794 net.cpp:157] Top shape: 17 256 8 28 28 (27295744)
I0520 12:25:27.189110  1794 net.cpp:165] Memory required for data: 3371024384
I0520 12:25:27.189136  1794 layer_factory.hpp:77] Creating layer relu3a
I0520 12:25:27.189157  1794 net.cpp:100] Creating Layer relu3a
I0520 12:25:27.189172  1794 net.cpp:434] relu3a <- conv3a
I0520 12:25:27.189183  1794 net.cpp:395] relu3a -> conv3a (in-place)
I0520 12:25:27.189563  1794 net.cpp:150] Setting up relu3a
I0520 12:25:27.189581  1794 net.cpp:157] Top shape: 17 256 8 28 28 (27295744)
I0520 12:25:27.189587  1794 net.cpp:165] Memory required for data: 3480207360
I0520 12:25:27.189594  1794 layer_factory.hpp:77] Creating layer pool3
I0520 12:25:27.189611  1794 net.cpp:100] Creating Layer pool3
I0520 12:25:27.189618  1794 net.cpp:434] pool3 <- conv3a
I0520 12:25:27.189640  1794 net.cpp:408] pool3 -> pool3
I0520 12:25:27.190090  1794 net.cpp:150] Setting up pool3
I0520 12:25:27.190111  1794 net.cpp:157] Top shape: 17 256 4 14 14 (3411968)
I0520 12:25:27.190117  1794 net.cpp:165] Memory required for data: 3493855232
I0520 12:25:27.190124  1794 layer_factory.hpp:77] Creating layer conv4a
I0520 12:25:27.190168  1794 net.cpp:100] Creating Layer conv4a
I0520 12:25:27.190179  1794 net.cpp:434] conv4a <- pool3
I0520 12:25:27.190212  1794 net.cpp:408] conv4a -> conv4a
I0520 12:25:27.285519  1794 net.cpp:150] Setting up conv4a
I0520 12:25:27.285554  1794 net.cpp:157] Top shape: 17 256 4 14 14 (3411968)
I0520 12:25:27.285562  1794 net.cpp:165] Memory required for data: 3507503104
I0520 12:25:27.285593  1794 layer_factory.hpp:77] Creating layer relu4a
I0520 12:25:27.285624  1794 net.cpp:100] Creating Layer relu4a
I0520 12:25:27.285653  1794 net.cpp:434] relu4a <- conv4a
I0520 12:25:27.285676  1794 net.cpp:395] relu4a -> conv4a (in-place)
I0520 12:25:27.296568  1794 net.cpp:150] Setting up relu4a
I0520 12:25:27.296623  1794 net.cpp:157] Top shape: 17 256 4 14 14 (3411968)
I0520 12:25:27.296646  1794 net.cpp:165] Memory required for data: 3521150976
I0520 12:25:27.296667  1794 layer_factory.hpp:77] Creating layer pool4
I0520 12:25:27.296711  1794 net.cpp:100] Creating Layer pool4
I0520 12:25:27.296721  1794 net.cpp:434] pool4 <- conv4a
I0520 12:25:27.296732  1794 net.cpp:408] pool4 -> pool4
I0520 12:25:27.297061  1794 net.cpp:150] Setting up pool4
I0520 12:25:27.297092  1794 net.cpp:157] Top shape: 17 256 2 7 7 (426496)
I0520 12:25:27.297101  1794 net.cpp:165] Memory required for data: 3522856960
I0520 12:25:27.297112  1794 layer_factory.hpp:77] Creating layer conv5a
I0520 12:25:27.297127  1794 net.cpp:100] Creating Layer conv5a
I0520 12:25:27.297142  1794 net.cpp:434] conv5a <- pool4
I0520 12:25:27.297159  1794 net.cpp:408] conv5a -> conv5a
I0520 12:25:27.372078  1794 net.cpp:150] Setting up conv5a
I0520 12:25:27.372107  1794 net.cpp:157] Top shape: 17 256 2 7 7 (426496)
I0520 12:25:27.372112  1794 net.cpp:165] Memory required for data: 3524562944
I0520 12:25:27.372139  1794 layer_factory.hpp:77] Creating layer relu5a
I0520 12:25:27.372154  1794 net.cpp:100] Creating Layer relu5a
I0520 12:25:27.372162  1794 net.cpp:434] relu5a <- conv5a
I0520 12:25:27.372174  1794 net.cpp:395] relu5a -> conv5a (in-place)
I0520 12:25:27.372373  1794 net.cpp:150] Setting up relu5a
I0520 12:25:27.372387  1794 net.cpp:157] Top shape: 17 256 2 7 7 (426496)
I0520 12:25:27.372393  1794 net.cpp:165] Memory required for data: 3526268928
I0520 12:25:27.372400  1794 layer_factory.hpp:77] Creating layer pool5
I0520 12:25:27.372431  1794 net.cpp:100] Creating Layer pool5
I0520 12:25:27.372437  1794 net.cpp:434] pool5 <- conv5a
I0520 12:25:27.372448  1794 net.cpp:408] pool5 -> pool5
I0520 12:25:27.372699  1794 net.cpp:150] Setting up pool5
I0520 12:25:27.372712  1794 net.cpp:157] Top shape: 17 256 1 4 4 (69632)
I0520 12:25:27.372719  1794 net.cpp:165] Memory required for data: 3526547456
I0520 12:25:27.372723  1794 layer_factory.hpp:77] Creating layer fc6
I0520 12:25:27.372756  1794 net.cpp:100] Creating Layer fc6
I0520 12:25:27.372767  1794 net.cpp:434] fc6 <- pool5
I0520 12:25:27.372790  1794 net.cpp:408] fc6 -> fc6
I0520 12:25:27.678584  1794 net.cpp:150] Setting up fc6
I0520 12:25:27.678643  1794 net.cpp:157] Top shape: 17 2048 (34816)
I0520 12:25:27.678669  1794 net.cpp:165] Memory required for data: 3526686720
I0520 12:25:27.678700  1794 layer_factory.hpp:77] Creating layer relu6
I0520 12:25:27.678731  1794 net.cpp:100] Creating Layer relu6
I0520 12:25:27.678745  1794 net.cpp:434] relu6 <- fc6
I0520 12:25:27.678766  1794 net.cpp:395] relu6 -> fc6 (in-place)
I0520 12:25:27.680548  1794 net.cpp:150] Setting up relu6
I0520 12:25:27.680568  1794 net.cpp:157] Top shape: 17 2048 (34816)
I0520 12:25:27.680574  1794 net.cpp:165] Memory required for data: 3526825984
I0520 12:25:27.680579  1794 layer_factory.hpp:77] Creating layer drop6
I0520 12:25:27.680619  1794 net.cpp:100] Creating Layer drop6
I0520 12:25:27.680629  1794 net.cpp:434] drop6 <- fc6
I0520 12:25:27.680636  1794 net.cpp:395] drop6 -> fc6 (in-place)
I0520 12:25:27.680686  1794 net.cpp:150] Setting up drop6
I0520 12:25:27.680696  1794 net.cpp:157] Top shape: 17 2048 (34816)
I0520 12:25:27.680703  1794 net.cpp:165] Memory required for data: 3526965248
I0520 12:25:27.680714  1794 layer_factory.hpp:77] Creating layer fc7
I0520 12:25:27.680735  1794 net.cpp:100] Creating Layer fc7
I0520 12:25:27.680742  1794 net.cpp:434] fc7 <- fc6
I0520 12:25:27.680757  1794 net.cpp:408] fc7 -> fc7
I0520 12:25:27.830188  1794 net.cpp:150] Setting up fc7
I0520 12:25:27.830212  1794 net.cpp:157] Top shape: 17 2048 (34816)
I0520 12:25:27.830217  1794 net.cpp:165] Memory required for data: 3527104512
I0520 12:25:27.830230  1794 layer_factory.hpp:77] Creating layer relu7
I0520 12:25:27.830252  1794 net.cpp:100] Creating Layer relu7
I0520 12:25:27.830260  1794 net.cpp:434] relu7 <- fc7
I0520 12:25:27.830268  1794 net.cpp:395] relu7 -> fc7 (in-place)
I0520 12:25:27.830525  1794 net.cpp:150] Setting up relu7
I0520 12:25:27.830538  1794 net.cpp:157] Top shape: 17 2048 (34816)
I0520 12:25:27.830543  1794 net.cpp:165] Memory required for data: 3527243776
I0520 12:25:27.830548  1794 layer_factory.hpp:77] Creating layer drop7
I0520 12:25:27.830559  1794 net.cpp:100] Creating Layer drop7
I0520 12:25:27.830565  1794 net.cpp:434] drop7 <- fc7
I0520 12:25:27.830575  1794 net.cpp:395] drop7 -> fc7 (in-place)
I0520 12:25:27.830621  1794 net.cpp:150] Setting up drop7
I0520 12:25:27.830631  1794 net.cpp:157] Top shape: 17 2048 (34816)
I0520 12:25:27.830638  1794 net.cpp:165] Memory required for data: 3527383040
I0520 12:25:27.830643  1794 layer_factory.hpp:77] Creating layer mvn
I0520 12:25:30.426992  1794 net.cpp:100] Creating Layer mvn
I0520 12:25:30.427043  1794 net.cpp:434] mvn <- fc7
I0520 12:25:30.427064  1794 net.cpp:408] mvn -> fc7_norm
I0520 12:25:30.820152  1794 net.cpp:150] Setting up mvn
I0520 12:25:30.820269  1794 net.cpp:157] Top shape: 17 2048 (34816)
I0520 12:25:30.820300  1794 net.cpp:165] Memory required for data: 3527522304
I0520 12:25:30.820338  1794 layer_factory.hpp:77] Creating layer fc7_norm_mvn_0_split
I0520 12:25:30.820391  1794 net.cpp:100] Creating Layer fc7_norm_mvn_0_split
I0520 12:25:30.820430  1794 net.cpp:434] fc7_norm_mvn_0_split <- fc7_norm
I0520 12:25:30.820467  1794 net.cpp:408] fc7_norm_mvn_0_split -> fc7_norm_mvn_0_split_0
I0520 12:25:30.820503  1794 net.cpp:408] fc7_norm_mvn_0_split -> fc7_norm_mvn_0_split_1
I0520 12:25:30.820679  1794 net.cpp:150] Setting up fc7_norm_mvn_0_split
I0520 12:25:30.820703  1794 net.cpp:157] Top shape: 17 2048 (34816)
I0520 12:25:30.820758  1794 net.cpp:157] Top shape: 17 2048 (34816)
I0520 12:25:30.820766  1794 net.cpp:165] Memory required for data: 3527800832
I0520 12:25:30.820775  1794 layer_factory.hpp:77] Creating layer conv1a_pos
I0520 12:25:30.820797  1794 net.cpp:100] Creating Layer conv1a_pos
I0520 12:25:30.820818  1794 net.cpp:434] conv1a_pos <- positive
I0520 12:25:30.820838  1794 net.cpp:408] conv1a_pos -> conv1a_pos
I0520 12:25:30.835908  1794 net.cpp:150] Setting up conv1a_pos
I0520 12:25:30.835952  1794 net.cpp:157] Top shape: 17 64 16 112 112 (218365952)
I0520 12:25:30.835960  1794 net.cpp:165] Memory required for data: 4401264640
I0520 12:25:30.835974  1794 net.cpp:493] Sharing parameters 'conv1a_w' owned by layer 'conv1a', param index 0
I0520 12:25:30.835989  1794 net.cpp:493] Sharing parameters 'conv1a_b' owned by layer 'conv1a', param index 1
I0520 12:25:30.835997  1794 layer_factory.hpp:77] Creating layer relu1a_pos
I0520 12:25:30.836027  1794 net.cpp:100] Creating Layer relu1a_pos
I0520 12:25:30.836048  1794 net.cpp:434] relu1a_pos <- conv1a_pos
I0520 12:25:30.836060  1794 net.cpp:395] relu1a_pos -> conv1a_pos (in-place)
I0520 12:25:30.836568  1794 net.cpp:150] Setting up relu1a_pos
I0520 12:25:30.836585  1794 net.cpp:157] Top shape: 17 64 16 112 112 (218365952)
I0520 12:25:30.836592  1794 net.cpp:165] Memory required for data: 5274728448
I0520 12:25:30.836601  1794 layer_factory.hpp:77] Creating layer pool1_pos
I0520 12:25:30.836617  1794 net.cpp:100] Creating Layer pool1_pos
I0520 12:25:30.836625  1794 net.cpp:434] pool1_pos <- conv1a_pos
I0520 12:25:30.836647  1794 net.cpp:408] pool1_pos -> pool1_pos
I0520 12:25:30.841107  1794 net.cpp:150] Setting up pool1_pos
I0520 12:25:30.841141  1794 net.cpp:157] Top shape: 17 64 16 56 56 (54591488)
I0520 12:25:30.841161  1794 net.cpp:165] Memory required for data: 5493094400
I0520 12:25:30.841173  1794 layer_factory.hpp:77] Creating layer conv2a_pos
I0520 12:25:30.841207  1794 net.cpp:100] Creating Layer conv2a_pos
I0520 12:25:30.841222  1794 net.cpp:434] conv2a_pos <- pool1_pos
I0520 12:25:30.841245  1794 net.cpp:408] conv2a_pos -> conv2a_pos
I0520 12:25:30.865113  1794 net.cpp:150] Setting up conv2a_pos
I0520 12:25:30.865152  1794 net.cpp:157] Top shape: 17 128 16 56 56 (109182976)
I0520 12:25:30.865169  1794 net.cpp:165] Memory required for data: 5929826304
I0520 12:25:30.865188  1794 net.cpp:493] Sharing parameters 'conv2a_w' owned by layer 'conv2a', param index 0
I0520 12:25:30.865211  1794 net.cpp:493] Sharing parameters 'conv2a_b' owned by layer 'conv2a', param index 1
I0520 12:25:30.865221  1794 layer_factory.hpp:77] Creating layer relu2a_pos
I0520 12:25:30.865257  1794 net.cpp:100] Creating Layer relu2a_pos
I0520 12:25:30.865269  1794 net.cpp:434] relu2a_pos <- conv2a_pos
I0520 12:25:30.865284  1794 net.cpp:395] relu2a_pos -> conv2a_pos (in-place)
I0520 12:25:30.868271  1794 net.cpp:150] Setting up relu2a_pos
I0520 12:25:30.868299  1794 net.cpp:157] Top shape: 17 128 16 56 56 (109182976)
I0520 12:25:30.868319  1794 net.cpp:165] Memory required for data: 6366558208
I0520 12:25:30.868331  1794 layer_factory.hpp:77] Creating layer pool2_pos
I0520 12:25:30.868351  1794 net.cpp:100] Creating Layer pool2_pos
I0520 12:25:30.868362  1794 net.cpp:434] pool2_pos <- conv2a_pos
I0520 12:25:30.868382  1794 net.cpp:408] pool2_pos -> pool2_pos
I0520 12:25:30.868911  1794 net.cpp:150] Setting up pool2_pos
I0520 12:25:30.868942  1794 net.cpp:157] Top shape: 17 128 8 28 28 (13647872)
I0520 12:25:30.868955  1794 net.cpp:165] Memory required for data: 6421149696
I0520 12:25:30.868965  1794 layer_factory.hpp:77] Creating layer conv3a_pos
I0520 12:25:30.868988  1794 net.cpp:100] Creating Layer conv3a_pos
I0520 12:25:30.868999  1794 net.cpp:434] conv3a_pos <- pool2_pos
I0520 12:25:30.869021  1794 net.cpp:408] conv3a_pos -> conv3a_pos
I0520 12:25:30.916723  1794 net.cpp:150] Setting up conv3a_pos
I0520 12:25:30.916759  1794 net.cpp:157] Top shape: 17 256 8 28 28 (27295744)
I0520 12:25:30.916764  1794 net.cpp:165] Memory required for data: 6530332672
I0520 12:25:30.916774  1794 net.cpp:493] Sharing parameters 'conv3a_w' owned by layer 'conv3a', param index 0
I0520 12:25:30.916812  1794 net.cpp:493] Sharing parameters 'conv3a_b' owned by layer 'conv3a', param index 1
I0520 12:25:30.916817  1794 layer_factory.hpp:77] Creating layer relu3a_pos
I0520 12:25:30.916833  1794 net.cpp:100] Creating Layer relu3a_pos
I0520 12:25:30.916842  1794 net.cpp:434] relu3a_pos <- conv3a_pos
I0520 12:25:30.916849  1794 net.cpp:395] relu3a_pos -> conv3a_pos (in-place)
I0520 12:25:30.917107  1794 net.cpp:150] Setting up relu3a_pos
I0520 12:25:30.917120  1794 net.cpp:157] Top shape: 17 256 8 28 28 (27295744)
I0520 12:25:30.917129  1794 net.cpp:165] Memory required for data: 6639515648
I0520 12:25:30.917135  1794 layer_factory.hpp:77] Creating layer pool3_pos
I0520 12:25:30.917143  1794 net.cpp:100] Creating Layer pool3_pos
I0520 12:25:30.917152  1794 net.cpp:434] pool3_pos <- conv3a_pos
I0520 12:25:30.917160  1794 net.cpp:408] pool3_pos -> pool3_pos
I0520 12:25:30.917457  1794 net.cpp:150] Setting up pool3_pos
I0520 12:25:30.917470  1794 net.cpp:157] Top shape: 17 256 4 14 14 (3411968)
I0520 12:25:30.917474  1794 net.cpp:165] Memory required for data: 6653163520
I0520 12:25:30.917479  1794 layer_factory.hpp:77] Creating layer conv4a_pos
I0520 12:25:30.917492  1794 net.cpp:100] Creating Layer conv4a_pos
I0520 12:25:30.917498  1794 net.cpp:434] conv4a_pos <- pool3_pos
I0520 12:25:30.917508  1794 net.cpp:408] conv4a_pos -> conv4a_pos
I0520 12:25:31.001163  1794 net.cpp:150] Setting up conv4a_pos
I0520 12:25:31.001207  1794 net.cpp:157] Top shape: 17 256 4 14 14 (3411968)
I0520 12:25:31.001214  1794 net.cpp:165] Memory required for data: 6666811392
I0520 12:25:31.001222  1794 net.cpp:493] Sharing parameters 'conv4a_w' owned by layer 'conv4a', param index 0
I0520 12:25:31.001230  1794 net.cpp:493] Sharing parameters 'conv4a_b' owned by layer 'conv4a', param index 1
I0520 12:25:31.001240  1794 layer_factory.hpp:77] Creating layer relu4a_pos
I0520 12:25:31.001260  1794 net.cpp:100] Creating Layer relu4a_pos
I0520 12:25:31.001267  1794 net.cpp:434] relu4a_pos <- conv4a_pos
I0520 12:25:31.001276  1794 net.cpp:395] relu4a_pos -> conv4a_pos (in-place)
I0520 12:25:31.008831  1794 net.cpp:150] Setting up relu4a_pos
I0520 12:25:31.008872  1794 net.cpp:157] Top shape: 17 256 4 14 14 (3411968)
I0520 12:25:31.008877  1794 net.cpp:165] Memory required for data: 6680459264
I0520 12:25:31.008883  1794 layer_factory.hpp:77] Creating layer pool4_pos
I0520 12:25:31.008898  1794 net.cpp:100] Creating Layer pool4_pos
I0520 12:25:31.008908  1794 net.cpp:434] pool4_pos <- conv4a_pos
I0520 12:25:31.008918  1794 net.cpp:408] pool4_pos -> pool4_pos
I0520 12:25:31.009202  1794 net.cpp:150] Setting up pool4_pos
I0520 12:25:31.009214  1794 net.cpp:157] Top shape: 17 256 2 7 7 (426496)
I0520 12:25:31.009217  1794 net.cpp:165] Memory required for data: 6682165248
I0520 12:25:31.009220  1794 layer_factory.hpp:77] Creating layer conv5a_pos
I0520 12:25:31.009235  1794 net.cpp:100] Creating Layer conv5a_pos
I0520 12:25:31.009241  1794 net.cpp:434] conv5a_pos <- pool4_pos
I0520 12:25:31.009249  1794 net.cpp:408] conv5a_pos -> conv5a_pos
I0520 12:25:31.071903  1794 net.cpp:150] Setting up conv5a_pos
I0520 12:25:31.071939  1794 net.cpp:157] Top shape: 17 256 2 7 7 (426496)
I0520 12:25:31.071943  1794 net.cpp:165] Memory required for data: 6683871232
I0520 12:25:31.071950  1794 net.cpp:493] Sharing parameters 'conv5a_w' owned by layer 'conv5a', param index 0
I0520 12:25:31.071956  1794 net.cpp:493] Sharing parameters 'conv5a_b' owned by layer 'conv5a', param index 1
I0520 12:25:31.071960  1794 layer_factory.hpp:77] Creating layer relu5a_pos
I0520 12:25:31.071969  1794 net.cpp:100] Creating Layer relu5a_pos
I0520 12:25:31.071974  1794 net.cpp:434] relu5a_pos <- conv5a_pos
I0520 12:25:31.071981  1794 net.cpp:395] relu5a_pos -> conv5a_pos (in-place)
I0520 12:25:31.072199  1794 net.cpp:150] Setting up relu5a_pos
I0520 12:25:31.072211  1794 net.cpp:157] Top shape: 17 256 2 7 7 (426496)
I0520 12:25:31.072213  1794 net.cpp:165] Memory required for data: 6685577216
I0520 12:25:31.072250  1794 layer_factory.hpp:77] Creating layer pool5_pos
I0520 12:25:31.072273  1794 net.cpp:100] Creating Layer pool5_pos
I0520 12:25:31.072276  1794 net.cpp:434] pool5_pos <- conv5a_pos
I0520 12:25:31.072283  1794 net.cpp:408] pool5_pos -> pool5_pos
I0520 12:25:31.072551  1794 net.cpp:150] Setting up pool5_pos
I0520 12:25:31.072562  1794 net.cpp:157] Top shape: 17 256 1 4 4 (69632)
I0520 12:25:31.072566  1794 net.cpp:165] Memory required for data: 6685855744
I0520 12:25:31.072568  1794 layer_factory.hpp:77] Creating layer fc6_pos
I0520 12:25:31.072582  1794 net.cpp:100] Creating Layer fc6_pos
I0520 12:25:31.072588  1794 net.cpp:434] fc6_pos <- pool5_pos
I0520 12:25:31.072600  1794 net.cpp:408] fc6_pos -> fc6_pos
I0520 12:25:31.374251  1794 net.cpp:150] Setting up fc6_pos
I0520 12:25:31.374300  1794 net.cpp:157] Top shape: 17 2048 (34816)
I0520 12:25:31.374303  1794 net.cpp:165] Memory required for data: 6685995008
I0520 12:25:31.374315  1794 net.cpp:493] Sharing parameters 'fc6_w' owned by layer 'fc6', param index 0
I0520 12:25:31.374321  1794 net.cpp:493] Sharing parameters 'fc6_b' owned by layer 'fc6', param index 1
I0520 12:25:31.374326  1794 layer_factory.hpp:77] Creating layer relu6_pos
I0520 12:25:31.374344  1794 net.cpp:100] Creating Layer relu6_pos
I0520 12:25:31.374366  1794 net.cpp:434] relu6_pos <- fc6_pos
I0520 12:25:31.374374  1794 net.cpp:395] relu6_pos -> fc6_pos (in-place)
I0520 12:25:31.375778  1794 net.cpp:150] Setting up relu6_pos
I0520 12:25:31.375793  1794 net.cpp:157] Top shape: 17 2048 (34816)
I0520 12:25:31.375803  1794 net.cpp:165] Memory required for data: 6686134272
I0520 12:25:31.375808  1794 layer_factory.hpp:77] Creating layer drop6_pos
I0520 12:25:31.375818  1794 net.cpp:100] Creating Layer drop6_pos
I0520 12:25:31.375821  1794 net.cpp:434] drop6_pos <- fc6_pos
I0520 12:25:31.375828  1794 net.cpp:395] drop6_pos -> fc6_pos (in-place)
I0520 12:25:31.375877  1794 net.cpp:150] Setting up drop6_pos
I0520 12:25:31.375886  1794 net.cpp:157] Top shape: 17 2048 (34816)
I0520 12:25:31.375890  1794 net.cpp:165] Memory required for data: 6686273536
I0520 12:25:31.375896  1794 layer_factory.hpp:77] Creating layer fc7_pos
I0520 12:25:31.375910  1794 net.cpp:100] Creating Layer fc7_pos
I0520 12:25:31.375916  1794 net.cpp:434] fc7_pos <- fc6_pos
I0520 12:25:31.375927  1794 net.cpp:408] fc7_pos -> fc7_pos
I0520 12:25:31.517256  1794 net.cpp:150] Setting up fc7_pos
I0520 12:25:31.517302  1794 net.cpp:157] Top shape: 17 2048 (34816)
I0520 12:25:31.517308  1794 net.cpp:165] Memory required for data: 6686412800
I0520 12:25:31.517333  1794 net.cpp:493] Sharing parameters 'fc7_w' owned by layer 'fc7', param index 0
I0520 12:25:31.517349  1794 net.cpp:493] Sharing parameters 'fc7_b' owned by layer 'fc7', param index 1
I0520 12:25:31.517354  1794 layer_factory.hpp:77] Creating layer relu7_pos
I0520 12:25:31.517369  1794 net.cpp:100] Creating Layer relu7_pos
I0520 12:25:31.517386  1794 net.cpp:434] relu7_pos <- fc7_pos
I0520 12:25:31.517395  1794 net.cpp:395] relu7_pos -> fc7_pos (in-place)
I0520 12:25:31.518321  1794 net.cpp:150] Setting up relu7_pos
I0520 12:25:31.518334  1794 net.cpp:157] Top shape: 17 2048 (34816)
I0520 12:25:31.518338  1794 net.cpp:165] Memory required for data: 6686552064
I0520 12:25:31.518343  1794 layer_factory.hpp:77] Creating layer drop7_pos
I0520 12:25:31.518368  1794 net.cpp:100] Creating Layer drop7_pos
I0520 12:25:31.518375  1794 net.cpp:434] drop7_pos <- fc7_pos
I0520 12:25:31.518380  1794 net.cpp:395] drop7_pos -> fc7_pos (in-place)
I0520 12:25:31.518437  1794 net.cpp:150] Setting up drop7_pos
I0520 12:25:31.518445  1794 net.cpp:157] Top shape: 17 2048 (34816)
I0520 12:25:31.518450  1794 net.cpp:165] Memory required for data: 6686691328
I0520 12:25:31.518453  1794 layer_factory.hpp:77] Creating layer mvn_pos
I0520 12:25:31.518636  1794 net.cpp:100] Creating Layer mvn_pos
I0520 12:25:31.518646  1794 net.cpp:434] mvn_pos <- fc7_pos
I0520 12:25:31.518652  1794 net.cpp:408] mvn_pos -> fc7_pos_norm
I0520 12:25:31.519024  1794 net.cpp:150] Setting up mvn_pos
I0520 12:25:31.519039  1794 net.cpp:157] Top shape: 17 2048 (34816)
I0520 12:25:31.519085  1794 net.cpp:165] Memory required for data: 6686830592
I0520 12:25:31.519099  1794 layer_factory.hpp:77] Creating layer fc7_pos_norm_mvn_pos_0_split
I0520 12:25:31.519114  1794 net.cpp:100] Creating Layer fc7_pos_norm_mvn_pos_0_split
I0520 12:25:31.519117  1794 net.cpp:434] fc7_pos_norm_mvn_pos_0_split <- fc7_pos_norm
I0520 12:25:31.519122  1794 net.cpp:408] fc7_pos_norm_mvn_pos_0_split -> fc7_pos_norm_mvn_pos_0_split_0
I0520 12:25:31.519130  1794 net.cpp:408] fc7_pos_norm_mvn_pos_0_split -> fc7_pos_norm_mvn_pos_0_split_1
I0520 12:25:31.519181  1794 net.cpp:150] Setting up fc7_pos_norm_mvn_pos_0_split
I0520 12:25:31.519187  1794 net.cpp:157] Top shape: 17 2048 (34816)
I0520 12:25:31.519191  1794 net.cpp:157] Top shape: 17 2048 (34816)
I0520 12:25:31.519193  1794 net.cpp:165] Memory required for data: 6687109120
I0520 12:25:31.519197  1794 layer_factory.hpp:77] Creating layer conv1a_neg
I0520 12:25:31.519208  1794 net.cpp:100] Creating Layer conv1a_neg
I0520 12:25:31.519212  1794 net.cpp:434] conv1a_neg <- negative
I0520 12:25:31.519237  1794 net.cpp:408] conv1a_neg -> conv1a_neg
I0520 12:25:31.528542  1794 net.cpp:150] Setting up conv1a_neg
I0520 12:25:31.528563  1794 net.cpp:157] Top shape: 17 64 16 112 112 (218365952)
I0520 12:25:31.528565  1794 net.cpp:165] Memory required for data: 7560572928
I0520 12:25:31.528570  1794 net.cpp:493] Sharing parameters 'conv1a_w' owned by layer 'conv1a', param index 0
I0520 12:25:31.528584  1794 net.cpp:493] Sharing parameters 'conv1a_b' owned by layer 'conv1a', param index 1
I0520 12:25:31.528589  1794 layer_factory.hpp:77] Creating layer relu1a_neg
I0520 12:25:31.528605  1794 net.cpp:100] Creating Layer relu1a_neg
I0520 12:25:31.528615  1794 net.cpp:434] relu1a_neg <- conv1a_neg
I0520 12:25:31.528620  1794 net.cpp:395] relu1a_neg -> conv1a_neg (in-place)
I0520 12:25:31.528810  1794 net.cpp:150] Setting up relu1a_neg
I0520 12:25:31.528820  1794 net.cpp:157] Top shape: 17 64 16 112 112 (218365952)
I0520 12:25:31.528823  1794 net.cpp:165] Memory required for data: 8434036736
I0520 12:25:31.528831  1794 layer_factory.hpp:77] Creating layer pool1_neg
I0520 12:25:31.528841  1794 net.cpp:100] Creating Layer pool1_neg
I0520 12:25:31.528844  1794 net.cpp:434] pool1_neg <- conv1a_neg
I0520 12:25:31.528854  1794 net.cpp:408] pool1_neg -> pool1_neg
I0520 12:25:31.529080  1794 net.cpp:150] Setting up pool1_neg
I0520 12:25:31.529089  1794 net.cpp:157] Top shape: 17 64 16 56 56 (54591488)
I0520 12:25:31.529093  1794 net.cpp:165] Memory required for data: 8652402688
I0520 12:25:31.529095  1794 layer_factory.hpp:77] Creating layer conv2a_neg
I0520 12:25:31.529105  1794 net.cpp:100] Creating Layer conv2a_neg
I0520 12:25:31.529110  1794 net.cpp:434] conv2a_neg <- pool1_neg
I0520 12:25:31.529119  1794 net.cpp:408] conv2a_neg -> conv2a_neg
I0520 12:25:31.539254  1794 net.cpp:150] Setting up conv2a_neg
I0520 12:25:31.539273  1794 net.cpp:157] Top shape: 17 128 16 56 56 (109182976)
I0520 12:25:31.539276  1794 net.cpp:165] Memory required for data: 9089134592
I0520 12:25:31.539281  1794 net.cpp:493] Sharing parameters 'conv2a_w' owned by layer 'conv2a', param index 0
I0520 12:25:31.539288  1794 net.cpp:493] Sharing parameters 'conv2a_b' owned by layer 'conv2a', param index 1
I0520 12:25:31.539291  1794 layer_factory.hpp:77] Creating layer relu2a_neg
I0520 12:25:31.539305  1794 net.cpp:100] Creating Layer relu2a_neg
I0520 12:25:31.539315  1794 net.cpp:434] relu2a_neg <- conv2a_neg
I0520 12:25:31.539320  1794 net.cpp:395] relu2a_neg -> conv2a_neg (in-place)
I0520 12:25:31.539513  1794 net.cpp:150] Setting up relu2a_neg
I0520 12:25:31.539522  1794 net.cpp:157] Top shape: 17 128 16 56 56 (109182976)
I0520 12:25:31.539525  1794 net.cpp:165] Memory required for data: 9525866496
I0520 12:25:31.539535  1794 layer_factory.hpp:77] Creating layer pool2_neg
I0520 12:25:31.539542  1794 net.cpp:100] Creating Layer pool2_neg
I0520 12:25:31.539546  1794 net.cpp:434] pool2_neg <- conv2a_neg
I0520 12:25:31.539557  1794 net.cpp:408] pool2_neg -> pool2_neg
I0520 12:25:31.540927  1794 net.cpp:150] Setting up pool2_neg
I0520 12:25:31.540940  1794 net.cpp:157] Top shape: 17 128 8 28 28 (13647872)
I0520 12:25:31.540942  1794 net.cpp:165] Memory required for data: 9580457984
I0520 12:25:31.540946  1794 layer_factory.hpp:77] Creating layer conv3a_neg
I0520 12:25:31.540962  1794 net.cpp:100] Creating Layer conv3a_neg
I0520 12:25:31.540966  1794 net.cpp:434] conv3a_neg <- pool2_neg
I0520 12:25:31.540977  1794 net.cpp:408] conv3a_neg -> conv3a_neg
I0520 12:25:31.596066  1794 net.cpp:150] Setting up conv3a_neg
I0520 12:25:31.596120  1794 net.cpp:157] Top shape: 17 256 8 28 28 (27295744)
I0520 12:25:31.596130  1794 net.cpp:165] Memory required for data: 9689640960
I0520 12:25:31.596189  1794 net.cpp:493] Sharing parameters 'conv3a_w' owned by layer 'conv3a', param index 0
I0520 12:25:31.596206  1794 net.cpp:493] Sharing parameters 'conv3a_b' owned by layer 'conv3a', param index 1
I0520 12:25:31.596216  1794 layer_factory.hpp:77] Creating layer relu3a_neg
I0520 12:25:31.596241  1794 net.cpp:100] Creating Layer relu3a_neg
I0520 12:25:31.596256  1794 net.cpp:434] relu3a_neg <- conv3a_neg
I0520 12:25:31.596271  1794 net.cpp:395] relu3a_neg -> conv3a_neg (in-place)
I0520 12:25:31.596786  1794 net.cpp:150] Setting up relu3a_neg
I0520 12:25:31.596812  1794 net.cpp:157] Top shape: 17 256 8 28 28 (27295744)
I0520 12:25:31.596827  1794 net.cpp:165] Memory required for data: 9798823936
I0520 12:25:31.596835  1794 layer_factory.hpp:77] Creating layer pool3_neg
I0520 12:25:31.596858  1794 net.cpp:100] Creating Layer pool3_neg
I0520 12:25:31.596870  1794 net.cpp:434] pool3_neg <- conv3a_neg
I0520 12:25:31.596886  1794 net.cpp:408] pool3_neg -> pool3_neg
I0520 12:25:31.597441  1794 net.cpp:150] Setting up pool3_neg
I0520 12:25:31.597465  1794 net.cpp:157] Top shape: 17 256 4 14 14 (3411968)
I0520 12:25:31.597473  1794 net.cpp:165] Memory required for data: 9812471808
I0520 12:25:31.597483  1794 layer_factory.hpp:77] Creating layer conv4a_neg
I0520 12:25:31.597512  1794 net.cpp:100] Creating Layer conv4a_neg
I0520 12:25:31.597523  1794 net.cpp:434] conv4a_neg <- pool3_neg
I0520 12:25:31.597542  1794 net.cpp:408] conv4a_neg -> conv4a_neg
I0520 12:25:31.684566  1794 net.cpp:150] Setting up conv4a_neg
I0520 12:25:31.684599  1794 net.cpp:157] Top shape: 17 256 4 14 14 (3411968)
I0520 12:25:31.684604  1794 net.cpp:165] Memory required for data: 9826119680
I0520 12:25:31.684612  1794 net.cpp:493] Sharing parameters 'conv4a_w' owned by layer 'conv4a', param index 0
I0520 12:25:31.684619  1794 net.cpp:493] Sharing parameters 'conv4a_b' owned by layer 'conv4a', param index 1
I0520 12:25:31.684624  1794 layer_factory.hpp:77] Creating layer relu4a_neg
I0520 12:25:31.684633  1794 net.cpp:100] Creating Layer relu4a_neg
I0520 12:25:31.684641  1794 net.cpp:434] relu4a_neg <- conv4a_neg
I0520 12:25:31.684653  1794 net.cpp:395] relu4a_neg -> conv4a_neg (in-place)
I0520 12:25:31.684945  1794 net.cpp:150] Setting up relu4a_neg
I0520 12:25:31.684960  1794 net.cpp:157] Top shape: 17 256 4 14 14 (3411968)
I0520 12:25:31.684967  1794 net.cpp:165] Memory required for data: 9839767552
I0520 12:25:31.684970  1794 layer_factory.hpp:77] Creating layer pool4_neg
I0520 12:25:31.684983  1794 net.cpp:100] Creating Layer pool4_neg
I0520 12:25:31.684989  1794 net.cpp:434] pool4_neg <- conv4a_neg
I0520 12:25:31.684998  1794 net.cpp:408] pool4_neg -> pool4_neg
I0520 12:25:31.686324  1794 net.cpp:150] Setting up pool4_neg
I0520 12:25:31.686342  1794 net.cpp:157] Top shape: 17 256 2 7 7 (426496)
I0520 12:25:31.686347  1794 net.cpp:165] Memory required for data: 9841473536
I0520 12:25:31.686358  1794 layer_factory.hpp:77] Creating layer conv5a_neg
I0520 12:25:31.686374  1794 net.cpp:100] Creating Layer conv5a_neg
I0520 12:25:31.686380  1794 net.cpp:434] conv5a_neg <- pool4_neg
I0520 12:25:31.686390  1794 net.cpp:408] conv5a_neg -> conv5a_neg
I0520 12:25:31.751938  1794 net.cpp:150] Setting up conv5a_neg
I0520 12:25:31.751991  1794 net.cpp:157] Top shape: 17 256 2 7 7 (426496)
I0520 12:25:31.751996  1794 net.cpp:165] Memory required for data: 9843179520
I0520 12:25:31.752071  1794 net.cpp:493] Sharing parameters 'conv5a_w' owned by layer 'conv5a', param index 0
I0520 12:25:31.752080  1794 net.cpp:493] Sharing parameters 'conv5a_b' owned by layer 'conv5a', param index 1
I0520 12:25:31.752084  1794 layer_factory.hpp:77] Creating layer relu5a_neg
I0520 12:25:31.752180  1794 net.cpp:100] Creating Layer relu5a_neg
I0520 12:25:31.752188  1794 net.cpp:434] relu5a_neg <- conv5a_neg
I0520 12:25:31.752195  1794 net.cpp:395] relu5a_neg -> conv5a_neg (in-place)
I0520 12:25:31.753526  1794 net.cpp:150] Setting up relu5a_neg
I0520 12:25:31.753545  1794 net.cpp:157] Top shape: 17 256 2 7 7 (426496)
I0520 12:25:31.753548  1794 net.cpp:165] Memory required for data: 9844885504
I0520 12:25:31.753552  1794 layer_factory.hpp:77] Creating layer pool5_neg
I0520 12:25:31.753563  1794 net.cpp:100] Creating Layer pool5_neg
I0520 12:25:31.753568  1794 net.cpp:434] pool5_neg <- conv5a_neg
I0520 12:25:31.753576  1794 net.cpp:408] pool5_neg -> pool5_neg
I0520 12:25:31.753868  1794 net.cpp:150] Setting up pool5_neg
I0520 12:25:31.753881  1794 net.cpp:157] Top shape: 17 256 1 4 4 (69632)
I0520 12:25:31.753885  1794 net.cpp:165] Memory required for data: 9845164032
I0520 12:25:31.753888  1794 layer_factory.hpp:77] Creating layer fc6_neg
I0520 12:25:31.753902  1794 net.cpp:100] Creating Layer fc6_neg
I0520 12:25:31.753907  1794 net.cpp:434] fc6_neg <- pool5_neg
I0520 12:25:31.753916  1794 net.cpp:408] fc6_neg -> fc6_neg
I0520 12:25:32.060559  1794 net.cpp:150] Setting up fc6_neg
I0520 12:25:32.060598  1794 net.cpp:157] Top shape: 17 2048 (34816)
I0520 12:25:32.060603  1794 net.cpp:165] Memory required for data: 9845303296
I0520 12:25:32.060623  1794 net.cpp:493] Sharing parameters 'fc6_w' owned by layer 'fc6', param index 0
I0520 12:25:32.060631  1794 net.cpp:493] Sharing parameters 'fc6_b' owned by layer 'fc6', param index 1
I0520 12:25:32.060636  1794 layer_factory.hpp:77] Creating layer relu6_neg
I0520 12:25:32.060650  1794 net.cpp:100] Creating Layer relu6_neg
I0520 12:25:32.060668  1794 net.cpp:434] relu6_neg <- fc6_neg
I0520 12:25:32.060683  1794 net.cpp:395] relu6_neg -> fc6_neg (in-place)
I0520 12:25:32.061036  1794 net.cpp:150] Setting up relu6_neg
I0520 12:25:32.061049  1794 net.cpp:157] Top shape: 17 2048 (34816)
I0520 12:25:32.061054  1794 net.cpp:165] Memory required for data: 9845442560
I0520 12:25:32.061058  1794 layer_factory.hpp:77] Creating layer drop6_neg
I0520 12:25:32.061069  1794 net.cpp:100] Creating Layer drop6_neg
I0520 12:25:32.061075  1794 net.cpp:434] drop6_neg <- fc6_neg
I0520 12:25:32.061080  1794 net.cpp:395] drop6_neg -> fc6_neg (in-place)
I0520 12:25:32.061120  1794 net.cpp:150] Setting up drop6_neg
I0520 12:25:32.061128  1794 net.cpp:157] Top shape: 17 2048 (34816)
I0520 12:25:32.061133  1794 net.cpp:165] Memory required for data: 9845581824
I0520 12:25:32.061136  1794 layer_factory.hpp:77] Creating layer fc7_neg
I0520 12:25:32.061161  1794 net.cpp:100] Creating Layer fc7_neg
I0520 12:25:32.061167  1794 net.cpp:434] fc7_neg <- fc6_neg
I0520 12:25:32.061175  1794 net.cpp:408] fc7_neg -> fc7_neg
I0520 12:25:32.219976  1794 net.cpp:150] Setting up fc7_neg
I0520 12:25:32.220026  1794 net.cpp:157] Top shape: 17 2048 (34816)
I0520 12:25:32.220031  1794 net.cpp:165] Memory required for data: 9845721088
I0520 12:25:32.220070  1794 net.cpp:493] Sharing parameters 'fc7_w' owned by layer 'fc7', param index 0
I0520 12:25:32.220088  1794 net.cpp:493] Sharing parameters 'fc7_b' owned by layer 'fc7', param index 1
I0520 12:25:32.220129  1794 layer_factory.hpp:77] Creating layer relu7_neg
I0520 12:25:32.220144  1794 net.cpp:100] Creating Layer relu7_neg
I0520 12:25:32.220176  1794 net.cpp:434] relu7_neg <- fc7_neg
I0520 12:25:32.220192  1794 net.cpp:395] relu7_neg -> fc7_neg (in-place)
I0520 12:25:32.220883  1794 net.cpp:150] Setting up relu7_neg
I0520 12:25:32.220899  1794 net.cpp:157] Top shape: 17 2048 (34816)
I0520 12:25:32.220909  1794 net.cpp:165] Memory required for data: 9845860352
I0520 12:25:32.220916  1794 layer_factory.hpp:77] Creating layer drop7_neg
I0520 12:25:32.232786  1794 net.cpp:100] Creating Layer drop7_neg
I0520 12:25:32.232812  1794 net.cpp:434] drop7_neg <- fc7_neg
I0520 12:25:32.232826  1794 net.cpp:395] drop7_neg -> fc7_neg (in-place)
I0520 12:25:32.232954  1794 net.cpp:150] Setting up drop7_neg
I0520 12:25:32.232969  1794 net.cpp:157] Top shape: 17 2048 (34816)
I0520 12:25:32.232978  1794 net.cpp:165] Memory required for data: 9845999616
I0520 12:25:32.232986  1794 layer_factory.hpp:77] Creating layer mvn_neg
I0520 12:25:32.233499  1794 net.cpp:100] Creating Layer mvn_neg
I0520 12:25:32.233515  1794 net.cpp:434] mvn_neg <- fc7_neg
I0520 12:25:32.233530  1794 net.cpp:408] mvn_neg -> fc7_neg_norm
I0520 12:25:32.234402  1794 net.cpp:150] Setting up mvn_neg
I0520 12:25:32.234426  1794 net.cpp:157] Top shape: 17 2048 (34816)
I0520 12:25:32.234436  1794 net.cpp:165] Memory required for data: 9846138880
I0520 12:25:32.234442  1794 layer_factory.hpp:77] Creating layer fc7_neg_norm_mvn_neg_0_split
I0520 12:25:32.234458  1794 net.cpp:100] Creating Layer fc7_neg_norm_mvn_neg_0_split
I0520 12:25:32.234472  1794 net.cpp:434] fc7_neg_norm_mvn_neg_0_split <- fc7_neg_norm
I0520 12:25:32.234493  1794 net.cpp:408] fc7_neg_norm_mvn_neg_0_split -> fc7_neg_norm_mvn_neg_0_split_0
I0520 12:25:32.234518  1794 net.cpp:408] fc7_neg_norm_mvn_neg_0_split -> fc7_neg_norm_mvn_neg_0_split_1
I0520 12:25:32.234616  1794 net.cpp:150] Setting up fc7_neg_norm_mvn_neg_0_split
I0520 12:25:32.234629  1794 net.cpp:157] Top shape: 17 2048 (34816)
I0520 12:25:32.234639  1794 net.cpp:157] Top shape: 17 2048 (34816)
I0520 12:25:32.234647  1794 net.cpp:165] Memory required for data: 9846417408
I0520 12:25:32.234652  1794 layer_factory.hpp:77] Creating layer loss
I0520 12:25:32.234676  1794 net.cpp:100] Creating Layer loss
I0520 12:25:32.234685  1794 net.cpp:434] loss <- fc7_norm_mvn_0_split_0
I0520 12:25:32.234699  1794 net.cpp:434] loss <- fc7_pos_norm_mvn_pos_0_split_0
I0520 12:25:32.234710  1794 net.cpp:434] loss <- fc7_neg_norm_mvn_neg_0_split_0
…
    mean_value: 65
    mean_value: 74
    mean_value: 92
    mean_value: 65
    mean_value: 74
    mean_value: 92
    mean_value: 65
    mean_value: 74
    mean_value: 92
    mean_value: 65
    mean_value: 74
    mean_value: 92
    mean_value: 65
    mean_value: 74
    mean_value: 92
    mean_value: 65
    mean_value: 74
    mean_value: 92
    mean_value: 65
    mean_value: 74
    mean_value: 92
    mean_value: 65
    mean_value: 74
    mean_value: 92
  }
  data_param {
    source: "/data/leo-data/Synthetic/LMDB/Triplets/val"
    batch_size: 1
    backend: LMDB
  }
}
layer {
  name: "slicer"
  type: "Slice"
  bottom: "triplet"
  top: "anchor_stacked"
  top: "positive_stacked"
  top: "negative_stacked"
  slice_param {
    slice_dim: 1
    slice_point: 48
    slice_point: 96
  }
}
layer {
  name: "reshape_anchor"
  type: "Reshape"
  bottom: "anchor_stacked"
  top: "anchor"
  reshape_param {
    shape {
      dim: 0
      dim: 3
      dim: 16
      dim: 112
      dim: 112
    }
  }
}
layer {
  name: "reshape_positive"
  type: "Reshape"
  bottom: "positive_stacked"
  top: "positive"
  reshape_param {
    shape {
      dim: 0
      dim: 3
      dim: 16
      dim: 112
      dim: 112
    }
  }
}
layer {
  name: "reshape_negative"
  type: "Reshape"
  bottom: "negative_stacked"
  top: "negative"
  reshape_param {
    shape {
      dim: 0
      dim: 3
      dim: 16
      dim: 112
      dim: 112
    }
  }
}
layer {
  name: "conv1a"
  type: "NdConvolution"
  bottom: "anchor"
  top: "conv1a"
  param {
    name: "conv1a_w"
    lr_mult: 1
    decay_mult: 1
  }
  param {
    name: "conv1a_b"
    lr_mult: 2
    decay_mult: 0
  }
  convolution_param {
    num_output: 64
    weight_filler {
      type: "gaussian"
      std: 0.01
    }
    bias_filler {
      type: "constant"
      value: 0
    }
    pad_shape {
      dim: 1
      dim: 1
      dim: 1
    }
    kernel_shape {
      dim: 3
      dim: 3
      dim: 3
    }
    stride_shape {
      dim: 1
      dim: 1
      dim: 1
    }
  }
}
layer {
  name: "relu1a"
  type: "ReLU"
  bottom: "conv1a"
  top: "conv1a"
}
layer {
  name: "pool1"
  type: "NdPooling"
  bottom: "conv1a"
  top: "pool1"
  pooling_param {
    pool: MAX
    kernel_shape {
      dim: 1
      dim: 2
      dim: 2
    }
    stride_shape {
      dim: 1
      dim: 2
      dim: 2
    }
  }
}
layer {
  name: "conv2a"
  type: "NdConvolution"
  bottom: "pool1"
  top: "conv2a"
  param {
    name: "conv2a_w"
    lr_mult: 1
    decay_mult: 1
  }
  param {
    name: "conv2a_b"
    lr_mult: 2
    decay_mult: 0
  }
  convolution_param {
    num_output: 128
    weight_filler {
      type: "gaussian"
      std: 0.01
    }
    bias_filler {
      type: "constant"
      value: 1
    }
    pad_shape {
      dim: 1
      dim: 1
      dim: 1
    }
    kernel_shape {
      dim: 3
      dim: 3
      dim: 3
    }
    stride_shape {
      dim: 1
      dim: 1
      dim: 1
    }
  }
}
layer {
  name: "relu2a"
  type: "ReLU"
  bottom: "conv2a"
  top: "conv2a"
}
layer {
  name: "pool2"
  type: "NdPooling"
  bottom: "conv2a"
  top: "pool2"
  pooling_param {
    pool: MAX
    kernel_shape {
      dim: 2
      dim: 2
      dim: 2
    }
    stride_shape {
      dim: 2
      dim: 2
      dim: 2
    }
  }
}
layer {
  name: "conv3a"
  type: "NdConvolution"
  bottom: "pool2"
  top: "conv3a"
  param {
    name: "conv3a_w"
    lr_mult: 1
    decay_mult: 1
  }
  param {
    name: "conv3a_b"
    lr_mult: 2
    decay_mult: 0
  }
  convolution_param {
    num_output: 256
    weight_filler {
      type: "gaussian"
      std: 0.01
    }
    bias_filler {
      type: "constant"
      value: 1
    }
    pad_shape {
      dim: 1
      dim: 1
      dim: 1
    }
    kernel_shape {
      dim: 3
      dim: 3
      dim: 3
    }
    stride_shape {
      dim: 1
      dim: 1
      dim: 1
    }
  }
}
layer {
  name: "relu3a"
  type: "ReLU"
  bottom: "conv3a"
  top: "conv3a"
}
layer {
  name: "pool3"
  type: "NdPooling"
  bottom: "conv3a"
  top: "pool3"
  pooling_param {
    pool: MAX
    kernel_shape {
      dim: 2
      dim: 2
      dim: 2
    }
    stride_shape {
      dim: 2
      dim: 2
      dim: 2
    }
  }
}
layer {
  name: "conv4a"
  type: "NdConvolution"
  bottom: "pool3"
  top: "conv4a"
  param {
    name: "conv4a_w"
    lr_mult: 1
    decay_mult: 1
  }
  param {
    name: "conv4a_b"
    lr_mult: 2
    decay_mult: 0
  }
  convolution_param {
    num_output: 256
    weight_filler {
      type: "gaussian"
      std: 0.01
    }
    bias_filler {
      type: "constant"
      value: 1
    }
    pad_shape {
      dim: 1
      dim: 1
      dim: 1
    }
    kernel_shape {
      dim: 3
      dim: 3
      dim: 3
    }
    stride_shape {
      dim: 1
      dim: 1
      dim: 1
    }
  }
}
layer {
  name: "relu4a"
  type: "ReLU"
  bottom: "conv4a"
  top: "conv4a"
}
layer {
  name: "pool4"
  type: "NdPooling"
  bottom: "conv4a"
  top: "pool4"
  pooling_param {
    pool: MAX
    kernel_shape {
      dim: 2
      dim: 2
      dim: 2
    }
    stride_shape {
      dim: 2
      dim: 2
      dim: 2
    }
  }
}
layer {
  name: "conv5a"
  type: "NdConvolution"
  bottom: "pool4"
  top: "conv5a"
  param {
    name: "conv5a_w"
    lr_mult: 1
    decay_mult: 1
  }
  param {
    name: "conv5a_b"
    lr_mult: 2
    decay_mult: 0
  }
  convolution_param {
    num_output: 256
    weight_filler {
      type: "gaussian"
      std: 0.01
    }
    bias_filler {
      type: "constant"
      value: 1
    }
    pad_shape {
      dim: 1
      dim: 1
      dim: 1
    }
    kernel_shape {
      dim: 3
      dim: 3
      dim: 3
    }
    stride_shape {
      dim: 1
      dim: 1
      dim: 1
    }
  }
}
layer {
  name: "relu5a"
  type: "ReLU"
  bottom: "conv5a"
  top: "conv5a"
}
layer {
  name: "pool5"
  type: "NdPooling"
  bottom: "conv5a"
  top: "pool5"
  pooling_param {
    pool: MAX
    kernel_shape {
      dim: 2
      dim: 2
      dim: 2
    }
    stride_shape {
      dim: 2
      dim: 2
      dim: 2
    }
  }
}
layer {
  name: "fc6"
  type: "InnerProduct"
  bottom: "pool5"
  top: "fc6"
  param {
    name: "fc6_w"
    lr_mult: 1
    decay_mult: 1
  }
  param {
    name: "fc6_b"
    lr_mult: 2
    decay_mult: 0
  }
  inner_product_param {
    num_output: 2048
    weight_filler {
      type: "gaussian"
      std: 0.005
    }
    bias_filler {
      type: "constant"
      value: 1
    }
  }
}
layer {
  name: "relu6"
  type: "ReLU"
  bottom: "fc6"
  top: "fc6"
}
layer {
  name: "drop6"
  type: "Dropout"
  bottom: "fc6"
  top: "fc6"
  dropout_param {
    dropout_ratio: 0.5
  }
}
layer {
  name: "fc7"
  type: "InnerProduct"
  bottom: "fc6"
  top: "fc7"
  param {
    name: "fc7_w"
    lr_mult: 1
    decay_mult: 1
  }
  param {
    name: "fc7_b"
    lr_mult: 2
    decay_mult: 0
  }
  inner_product_param {
    num_output: 2048
    weight_filler {
      type: "gaussian"
      std: 0.005
    }
    bias_filler {
      type: "constant"
      value: 1
    }
  }
}
layer {
  name: "relu7"
  type: "ReLU"
  bottom: "fc7"
  top: "fc7"
}
layer {
  name: "drop7"
  type: "Dropout"
  bottom: "fc7"
  top: "fc7"
  dropout_param {
    dropout_ratio: 0.5
  }
}
layer {
  name: "mvn"
  type: "Python"
  bottom: "fc7"
  top: "fc7_norm"
  python_param {
    module: "mvn"
    layer: "MVNLayer"
  }
}
layer {
  name: "conv1a_pos"
  type: "NdConvolution"
  bottom: "positive"
  top: "conv1a_pos"
  param {
    name: "conv1a_w"
    lr_mult: 1
    decay_mult: 1
  }
  param {
    name: "conv1a_b"
    lr_mult: 2
    decay_mult: 0
  }
  convolution_param {
    num_output: 64
    weight_filler {
      type: "gaussian"
      std: 0.01
    }
    bias_filler {
      type: "constant"
      value: 0
    }
    pad_shape {
      dim: 1
      dim: 1
      dim: 1
    }
    kernel_shape {
      dim: 3
      dim: 3
      dim: 3
    }
    stride_shape {
      dim: 1
      dim: 1
      dim: 1
    }
  }
}
layer {
  name: "relu1a_pos"
  type: "ReLU"
  bottom: "conv1a_pos"
  top: "conv1a_pos"
}
layer {
  name: "pool1_pos"
  type: "NdPooling"
  bottom: "conv1a_pos"
  top: "pool1_pos"
  pooling_param {
    pool: MAX
    kernel_shape {
      dim: 1
      dim: 2
      dim: 2
    }
    stride_shape {
      dim: 1
      dim: 2
      dim: 2
    }
  }
}
layer {
  name: "conv2a_pos"
  type: "NdConvolution"
  bottom: "pool1_pos"
  top: "conv2a_pos"
  param {
    name: "conv2a_w"
    lr_mult: 1
    decay_mult: 1
  }
  param {
    name: "conv2a_b"
    lr_mult: 2
    decay_mult: 0
  }
  convolution_param {
    num_output: 128
    weight_filler {
      type: "gaussian"
      std: 0.01
    }
    bias_filler {
      type: "constant"
      value: 1
    }
    pad_shape {
      dim: 1
      dim: 1
      dim: 1
    }
    kernel_shape {
      dim: 3
      dim: 3
      dim: 3
    }
    stride_shape {
      dim: 1
      dim: 1
      dim: 1
    }
  }
}
layer {
  name: "relu2a_pos"
  type: "ReLU"
  bottom: "conv2a_pos"
  top: "conv2a_pos"
}
layer {
  name: "pool2_pos"
  type: "NdPooling"
  bottom: "conv2a_pos"
  top: "pool2_pos"
  pooling_param {
    pool: MAX
    kernel_shape {
      dim: 2
      dim: 2
      dim: 2
    }
    stride_shape {
      dim: 2
      dim: 2
      dim: 2
    }
  }
}
layer {
  name: "conv3a_pos"
  type: "NdConvolution"
  bottom: "pool2_pos"
  top: "conv3a_pos"
  param {
    name: "conv3a_w"
    lr_mult: 1
    decay_mult: 1
  }
  param {
    name: "conv3a_b"
    lr_mult: 2
    decay_mult: 0
  }
  convolution_param {
    num_output: 256
    weight_filler {
      type: "gaussian"
      std: 0.01
    }
    bias_filler {
      type: "constant"
      value: 1
    }
    pad_shape {
      dim: 1
      dim: 1
      dim: 1
    }
    kernel_shape {
      dim: 3
      dim: 3
      dim: 3
    }
    stride_shape {
      dim: 1
      dim: 1
      dim: 1
    }
  }
}
layer {
  name: "relu3a_pos"
  type: "ReLU"
  bottom: "conv3a_pos"
  top: "conv3a_pos"
}
layer {
  name: "pool3_pos"
  type: "NdPooling"
  bottom: "conv3a_pos"
  top: "pool3_pos"
  pooling_param {
    pool: MAX
    kernel_shape {
      dim: 2
      dim: 2
      dim: 2
    }
    stride_shape {
      dim: 2
      dim: 2
      dim: 2
    }
  }
}
layer {
  name: "conv4a_pos"
  type: "NdConvolution"
  bottom: "pool3_pos"
  top: "conv4a_pos"
  param {
    name: "conv4a_w"
    lr_mult: 1
    decay_mult: 1
  }
  param {
    name: "conv4a_b"
    lr_mult: 2
    decay_mult: 0
  }
  convolution_param {
    num_output: 256
    weight_filler {
      type: "gaussian"
      std: 0.01
    }
    bias_filler {
      type: "constant"
      value: 1
    }
    pad_shape {
      dim: 1
      dim: 1
      dim: 1
    }
    kernel_shape {
      dim: 3
      dim: 3
      dim: 3
    }
    stride_shape {
      dim: 1
      dim: 1
      dim: 1
    }
  }
}
layer {
  name: "relu4a_pos"
  type: "ReLU"
  bottom: "conv4a_pos"
  top: "conv4a_pos"
}
layer {
  name: "pool4_pos"
  type: "NdPooling"
  bottom: "conv4a_pos"
  top: "pool4_pos"
  pooling_param {
    pool: MAX
    kernel_shape {
      dim: 2
      dim: 2
      dim: 2
    }
    stride_shape {
      dim: 2
      dim: 2
      dim: 2
    }
  }
}
layer {
  name: "conv5a_pos"
  type: "NdConvolution"
  bottom: "pool4_pos"
  top: "conv5a_pos"
  param {
    name: "conv5a_w"
    lr_mult: 1
    decay_mult: 1
  }
  param {
    name: "conv5a_b"
    lr_mult: 2
    decay_mult: 0
  }
  convolution_param {
    num_output: 256
    weight_filler {
      type: "gaussian"
      std: 0.01
    }
    bias_filler {
      type: "constant"
      value: 1
    }
    pad_shape {
      dim: 1
      dim: 1
      dim: 1
    }
    kernel_shape {
      dim: 3
      dim: 3
      dim: 3
    }
    stride_shape {
      dim: 1
      dim: 1
      dim: 1
    }
  }
}
layer {
  name: "relu5a_pos"
  type: "ReLU"
  bottom: "conv5a_pos"
  top: "conv5a_pos"
}
layer {
  name: "pool5_pos"
  type: "NdPooling"
  bottom: "conv5a_pos"
  top: "pool5_pos"
  pooling_param {
    pool: MAX
    kernel_shape {
      dim: 2
      dim: 2
      dim: 2
    }
    stride_shape {
      dim: 2
      dim: 2
      dim: 2
    }
  }
}
layer {
  name: "fc6_pos"
  type: "InnerProduct"
  bottom: "pool5_pos"
  top: "fc6_pos"
  param {
    name: "fc6_w"
    lr_mult: 1
    decay_mult: 1
  }
  param {
    name: "fc6_b"
    lr_mult: 2
    decay_mult: 0
  }
  inner_product_param {
    num_output: 2048
    weight_filler {
      type: "gaussian"
      std: 0.005
    }
    bias_filler {
      type: "constant"
      value: 1
    }
  }
}
layer {
  name: "relu6_pos"
  type: "ReLU"
  bottom: "fc6_pos"
  top: "fc6_pos"
}
layer {
  name: "drop6_pos"
  type: "Dropout"
  bottom: "fc6_pos"
  top: "fc6_pos"
  dropout_param {
    dropout_ratio: 0.5
  }
}
layer {
  name: "fc7_pos"
  type: "InnerProduct"
  bottom: "fc6_pos"
  top: "fc7_pos"
  param {
    name: "fc7_w"
    lr_mult: 1
    decay_mult: 1
  }
  param {
    name: "fc7_b"
    lr_mult: 2
    decay_mult: 0
  }
  inner_product_param {
    num_output: 2048
    weight_filler {
      type: "gaussian"
      std: 0.005
    }
    bias_filler {
      type: "constant"
      value: 1
    }
  }
}
layer {
  name: "relu7_pos"
  type: "ReLU"
  bottom: "fc7_pos"
  top: "fc7_pos"
}
layer {
  name: "drop7_pos"
  type: "Dropout"
  bottom: "fc7_pos"
  top: "fc7_pos"
  dropout_param {
    dropout_ratio: 0.5
  }
}
layer {
  name: "mvn_pos"
  type: "Python"
  bottom: "fc7_pos"
  top: "fc7_pos_norm"
  python_param {
    module: "mvn"
    layer: "MVNLayer"
  }
}
layer {
  name: "conv1a_neg"
  type: "NdConvolution"
  bottom: "negative"
  top: "conv1a_neg"
  param {
    name: "conv1a_w"
    lr_mult: 1
    decay_mult: 1
  }
  param {
    name: "conv1a_b"
    lr_mult: 2
    decay_mult: 0
  }
  convolution_param {
    num_output: 64
    weight_filler {
      type: "gaussian"
      std: 0.01
    }
    bias_filler {
      type: "constant"
      value: 0
    }
    pad_shape {
      dim: 1
      dim: 1
      dim: 1
    }
    kernel_shape {
      dim: 3
      dim: 3
      dim: 3
    }
    stride_shape {
      dim: 1
      dim: 1
      dim: 1
    }
  }
}
layer {
  name: "relu1a_neg"
  type: "ReLU"
  bottom: "conv1a_neg"
  top: "conv1a_neg"
}
layer {
  name: "pool1_neg"
  type: "NdPooling"
  bottom: "conv1a_neg"
  top: "pool1_neg"
  pooling_param {
    pool: MAX
    kernel_shape {
      dim: 1
      dim: 2
      dim: 2
    }
    stride_shape {
      dim: 1
      dim: 2
      dim: 2
    }
  }
}
layer {
  name: "conv2a_neg"
  type: "NdConvolution"
  bottom: "pool1_neg"
  top: "conv2a_neg"
  param {
    name: "conv2a_w"
    lr_mult: 1
    decay_mult: 1
  }
  param {
    name: "conv2a_b"
    lr_mult: 2
    decay_mult: 0
  }
  convolution_param {
    num_output: 128
    weight_filler {
      type: "gaussian"
      std: 0.01
    }
    bias_filler {
      type: "constant"
      value: 1
    }
    pad_shape {
      dim: 1
      dim: 1
      dim: 1
    }
    kernel_shape {
      dim: 3
      dim: 3
      dim: 3
    }
    stride_shape {
      dim: 1
      dim: 1
      dim: 1
    }
  }
}
layer {
  name: "relu2a_neg"
  type: "ReLU"
  bottom: "conv2a_neg"
  top: "conv2a_neg"
}
layer {
  name: "pool2_neg"
  type: "NdPooling"
  bottom: "conv2a_neg"
  top: "pool2_neg"
  pooling_param {
    pool: MAX
    kernel_shape {
      dim: 2
      dim: 2
      dim: 2
    }
    stride_shape {
      dim: 2
      dim: 2
      dim: 2
    }
  }
}
layer {
  name: "conv3a_neg"
  type: "NdConvolution"
  bottom: "pool2_neg"
  top: "conv3a_neg"
  param {
    name: "conv3a_w"
    lr_mult: 1
    decay_mult: 1
  }
  param {
    name: "conv3a_b"
    lr_mult: 2
    decay_mult: 0
  }
  convolution_param {
    num_output: 256
    weight_filler {
      type: "gaussian"
      std: 0.01
    }
    bias_filler {
      type: "constant"
      value: 1
    }
    pad_shape {
      dim: 1
      dim: 1
      dim: 1
    }
    kernel_shape {
      dim: 3
      dim: 3
      dim: 3
    }
    stride_shape {
      dim: 1
      dim: 1
      dim: 1
    }
  }
}
layer {
  name: "relu3a_neg"
  type: "ReLU"
  bottom: "conv3a_neg"
  top: "conv3a_neg"
}
layer {
  name: "pool3_neg"
  type: "NdPooling"
  bottom: "conv3a_neg"
  top: "pool3_neg"
  pooling_param {
    pool: MAX
    kernel_shape {
      dim: 2
      dim: 2
      dim: 2
    }
    stride_shape {
      dim: 2
      dim: 2
      dim: 2
    }
  }
}
layer {
  name: "conv4a_neg"
  type: "NdConvolution"
  bottom: "pool3_neg"
  top: "conv4a_neg"
  param {
    name: "conv4a_w"
    lr_mult: 1
    decay_mult: 1
  }
  param {
    name: "conv4a_b"
    lr_mult: 2
    decay_mult: 0
  }
  convolution_param {
    num_output: 256
    weight_filler {
      type: "gaussian"
      std: 0.01
    }
    bias_filler {
      type: "constant"
      value: 1
    }
    pad_shape {
      dim: 1
      dim: 1
      dim: 1
    }
    kernel_shape {
      dim: 3
      dim: 3
      dim: 3
    }
    stride_shape {
      dim: 1
      dim: 1
      dim: 1
    }
  }
}
layer {
  name: "relu4a_neg"
  type: "ReLU"
  bottom: "conv4a_neg"
  top: "conv4a_neg"
}
layer {
  name: "pool4_neg"
  type: "NdPooling"
  bottom: "conv4a_neg"
  top: "pool4_neg"
  pooling_param {
    pool: MAX
    kernel_shape {
      dim: 2
      dim: 2
      dim: 2
    }
    stride_shape {
      dim: 2
      dim: 2
      dim: 2
    }
  }
}
layer {
  name: "conv5a_neg"
  type: "NdConvolution"
  bottom: "pool4_neg"
  top: "conv5a_neg"
  param {
    name: "conv5a_w"
    lr_mult: 1
    decay_mult: 1
  }
  param {
    name: "conv5a_b"
    lr_mult: 2
    decay_mult: 0
  }
  convolution_param {
    num_output: 256
    weight_filler {
      type: "gaussian"
      std: 0.01
    }
    bias_filler {
      type: "constant"
      value: 1
    }
    pad_shape {
      dim: 1
      dim: 1
      dim: 1
    }
    kernel_shape {
      dim: 3
      dim: 3
      dim: 3
    }
    stride_shape {
      dim: 1
      dim: 1
      dim: 1
    }
  }
}
layer {
  name: "relu5a_neg"
  type: "ReLU"
  bottom: "conv5a_neg"
  top: "conv5a_neg"
}
layer {
  name: "pool5_neg"
  type: "NdPooling"
  bottom: "conv5a_neg"
  top: "pool5_neg"
  pooling_param {
    pool: MAX
    kernel_shape {
      dim: 2
      dim: 2
      dim: 2
    }
    stride_shape {
      dim: 2
      dim: 2
      dim: 2
    }
  }
}
layer {
  name: "fc6_neg"
  type: "InnerProduct"
  bottom: "pool5_neg"
  top: "fc6_neg"
  param {
    name: "fc6_w"
    lr_mult: 1
    decay_mult: 1
  }
  param {
    name: "fc6_b"
    lr_mult: 2
    decay_mult: 0
  }
  inner_product_param {
    num_output: 2048
    weight_filler {
      type: "gaussian"
      std: 0.005
    }
    bias_filler {
      type: "constant"
      value: 1
    }
  }
}
layer {
  name: "relu6_neg"
  type: "ReLU"
  bottom: "fc6_neg"
  top: "fc6_neg"
}
layer {
  name: "drop6_neg"
  type: "Dropout"
  bottom: "fc6_neg"
  top: "fc6_neg"
  dropout_param {
    dropout_ratio: 0.5
  }
}
layer {
  name: "fc7_neg"
  type: "InnerProduct"
  bottom: "fc6_neg"
  top: "fc7_neg"
  param {
    name: "fc7_w"
    lr_mult: 1
    decay_mult: 1
  }
  param {
    name: "fc7_b"
    lr_mult: 2
    decay_mult: 0
  }
  inner_product_param {
    num_output: 2048
    weight_filler {
      type: "gaussian"
      std: 0.005
    }
    bias_filler {
      type: "constant"
      value: 1
    }
  }
}
layer {
  name: "relu7_neg"
  type: "ReLU"
  bottom: "fc7_neg"
  top: "fc7_neg"
}
layer {
  name: "drop7_neg"
  type: "Dropout"
  bottom: "fc7_neg"
  top: "fc7_neg"
  dropout_param {
    dropout_ratio: 0.5
  }
}
layer {
  name: "mvn_neg"
  type: "Python"
  bottom: "fc7_neg"
  top: "fc7_neg_norm"
  python_param {
    module: "mvn"
    layer: "MVNLayer"
  }
}
layer {
  name: "loss"
  type: "TripletLoss"
  bottom: "fc7_norm"
  bottom: "fc7_pos_norm"
  bottom: "fc7_neg_norm"
  top: "loss"
  threshold_param {
    threshold: 0.054999541
  }
}
layer {
  name: "triplet_check"
  type: "Python"
  bottom: "fc7_norm"
  bottom: "fc7_pos_norm"
  bottom: "fc7_neg_norm"
  python_param {
    module: "triplet_check"
    layer: "TripletCheckLayer"
    param_str: "{\"n_samples\":\"35000\", \"filename\":\"../../features/triplet_loss_triplet_distance_\"}"
  }
}
I0520 12:25:32.303180  1794 layer_factory.hpp:77] Creating layer data
I0520 12:25:32.303306  1794 net.cpp:100] Creating Layer data
I0520 12:25:32.303319  1794 net.cpp:408] data -> triplet
I0520 12:25:32.333901  1852 db_lmdb.cpp:35] Opened lmdb /data/leo-data/Synthetic/LMDB/Triplets/val
I0520 12:25:32.470522  1794 data_layer.cpp:41] output data size: 1,144,112,112
I0520 12:25:32.494092  1794 net.cpp:150] Setting up data
I0520 12:25:32.494138  1794 net.cpp:157] Top shape: 1 144 112 112 (1806336)
I0520 12:25:32.494145  1794 net.cpp:165] Memory required for data: 7225344
I0520 12:25:32.494156  1794 layer_factory.hpp:77] Creating layer slicer
I0520 12:25:32.494184  1794 net.cpp:100] Creating Layer slicer
I0520 12:25:32.494192  1794 net.cpp:434] slicer <- triplet
I0520 12:25:32.494212  1794 net.cpp:408] slicer -> anchor_stacked
I0520 12:25:32.494235  1794 net.cpp:408] slicer -> positive_stacked
I0520 12:25:32.494282  1794 net.cpp:408] slicer -> negative_stacked
I0520 12:25:32.494657  1794 net.cpp:150] Setting up slicer
I0520 12:25:32.494726  1794 net.cpp:157] Top shape: 1 48 112 112 (602112)
I0520 12:25:32.494743  1794 net.cpp:157] Top shape: 1 48 112 112 (602112)
I0520 12:25:32.494758  1794 net.cpp:157] Top shape: 1 48 112 112 (602112)
I0520 12:25:32.494770  1794 net.cpp:165] Memory required for data: 14450688
I0520 12:25:32.494781  1794 layer_factory.hpp:77] Creating layer reshape_anchor
I0520 12:25:32.494807  1794 net.cpp:100] Creating Layer reshape_anchor
I0520 12:25:32.494820  1794 net.cpp:434] reshape_anchor <- anchor_stacked
I0520 12:25:32.494838  1794 net.cpp:408] reshape_anchor -> anchor
I0520 12:25:32.495267  1794 net.cpp:150] Setting up reshape_anchor
I0520 12:25:32.495296  1794 net.cpp:157] Top shape: 1 3 16 112 112 (602112)
I0520 12:25:32.495308  1794 net.cpp:165] Memory required for data: 16859136
I0520 12:25:32.495318  1794 layer_factory.hpp:77] Creating layer reshape_positive
I0520 12:25:32.495347  1794 net.cpp:100] Creating Layer reshape_positive
I0520 12:25:32.495359  1794 net.cpp:434] reshape_positive <- positive_stacked
I0520 12:25:32.495381  1794 net.cpp:408] reshape_positive -> positive
I0520 12:25:32.495532  1794 net.cpp:150] Setting up reshape_positive
I0520 12:25:32.495554  1794 net.cpp:157] Top shape: 1 3 16 112 112 (602112)
I0520 12:25:32.495566  1794 net.cpp:165] Memory required for data: 19267584
I0520 12:25:32.495578  1794 layer_factory.hpp:77] Creating layer reshape_negative
I0520 12:25:32.495595  1794 net.cpp:100] Creating Layer reshape_negative
I0520 12:25:32.495607  1794 net.cpp:434] reshape_negative <- negative_stacked
I0520 12:25:32.495625  1794 net.cpp:408] reshape_negative -> negative
I0520 12:25:32.495718  1794 net.cpp:150] Setting up reshape_negative
I0520 12:25:32.495739  1794 net.cpp:157] Top shape: 1 3 16 112 112 (602112)
I0520 12:25:32.495751  1794 net.cpp:165] Memory required for data: 21676032
I0520 12:25:32.495760  1794 layer_factory.hpp:77] Creating layer conv1a
I0520 12:25:32.495787  1794 net.cpp:100] Creating Layer conv1a
I0520 12:25:32.495805  1794 net.cpp:434] conv1a <- anchor
I0520 12:25:32.495831  1794 net.cpp:408] conv1a -> conv1a
I0520 12:25:32.501996  1794 net.cpp:150] Setting up conv1a
I0520 12:25:32.502038  1794 net.cpp:157] Top shape: 1 64 16 112 112 (12845056)
I0520 12:25:32.502059  1794 net.cpp:165] Memory required for data: 73056256
I0520 12:25:32.502087  1794 layer_factory.hpp:77] Creating layer relu1a
I0520 12:25:32.502109  1794 net.cpp:100] Creating Layer relu1a
I0520 12:25:32.502125  1794 net.cpp:434] relu1a <- conv1a
I0520 12:25:32.502141  1794 net.cpp:395] relu1a -> conv1a (in-place)
I0520 12:25:32.510884  1794 net.cpp:150] Setting up relu1a
I0520 12:25:32.510957  1794 net.cpp:157] Top shape: 1 64 16 112 112 (12845056)
I0520 12:25:32.510968  1794 net.cpp:165] Memory required for data: 124436480
I0520 12:25:32.510982  1794 layer_factory.hpp:77] Creating layer pool1
I0520 12:25:32.511013  1794 net.cpp:100] Creating Layer pool1
I0520 12:25:32.511026  1794 net.cpp:434] pool1 <- conv1a
I0520 12:25:32.511049  1794 net.cpp:408] pool1 -> pool1
I0520 12:25:32.511692  1794 net.cpp:150] Setting up pool1
I0520 12:25:32.511723  1794 net.cpp:157] Top shape: 1 64 16 56 56 (3211264)
I0520 12:25:32.511734  1794 net.cpp:165] Memory required for data: 137281536
I0520 12:25:32.511744  1794 layer_factory.hpp:77] Creating layer conv2a
I0520 12:25:32.511775  1794 net.cpp:100] Creating Layer conv2a
I0520 12:25:32.511788  1794 net.cpp:434] conv2a <- pool1
I0520 12:25:32.511811  1794 net.cpp:408] conv2a -> conv2a
I0520 12:25:32.530768  1794 net.cpp:150] Setting up conv2a
I0520 12:25:32.530805  1794 net.cpp:157] Top shape: 1 128 16 56 56 (6422528)
I0520 12:25:32.530812  1794 net.cpp:165] Memory required for data: 162971648
I0520 12:25:32.530836  1794 layer_factory.hpp:77] Creating layer relu2a
I0520 12:25:32.530848  1794 net.cpp:100] Creating Layer relu2a
I0520 12:25:32.530874  1794 net.cpp:434] relu2a <- conv2a
I0520 12:25:32.530885  1794 net.cpp:395] relu2a -> conv2a (in-place)
I0520 12:25:32.531267  1794 net.cpp:150] Setting up relu2a
I0520 12:25:32.531287  1794 net.cpp:157] Top shape: 1 128 16 56 56 (6422528)
I0520 12:25:32.531322  1794 net.cpp:165] Memory required for data: 188661760
I0520 12:25:32.531327  1794 layer_factory.hpp:77] Creating layer pool2
I0520 12:25:32.531345  1794 net.cpp:100] Creating Layer pool2
I0520 12:25:32.531353  1794 net.cpp:434] pool2 <- conv2a
I0520 12:25:32.531361  1794 net.cpp:408] pool2 -> pool2
I0520 12:25:32.531740  1794 net.cpp:150] Setting up pool2
I0520 12:25:32.531757  1794 net.cpp:157] Top shape: 1 128 8 28 28 (802816)
I0520 12:25:32.531762  1794 net.cpp:165] Memory required for data: 191873024
I0520 12:25:32.531767  1794 layer_factory.hpp:77] Creating layer conv3a
I0520 12:25:32.531780  1794 net.cpp:100] Creating Layer conv3a
I0520 12:25:32.531785  1794 net.cpp:434] conv3a <- pool2
I0520 12:25:32.531797  1794 net.cpp:408] conv3a -> conv3a
I0520 12:25:32.588013  1794 net.cpp:150] Setting up conv3a
I0520 12:25:32.588057  1794 net.cpp:157] Top shape: 1 256 8 28 28 (1605632)
I0520 12:25:32.588063  1794 net.cpp:165] Memory required for data: 198295552
I0520 12:25:32.588078  1794 layer_factory.hpp:77] Creating layer relu3a
I0520 12:25:32.588090  1794 net.cpp:100] Creating Layer relu3a
I0520 12:25:32.588096  1794 net.cpp:434] relu3a <- conv3a
I0520 12:25:32.588105  1794 net.cpp:395] relu3a -> conv3a (in-place)
I0520 12:25:32.589628  1794 net.cpp:150] Setting up relu3a
I0520 12:25:32.589648  1794 net.cpp:157] Top shape: 1 256 8 28 28 (1605632)
I0520 12:25:32.589651  1794 net.cpp:165] Memory required for data: 204718080
I0520 12:25:32.589656  1794 layer_factory.hpp:77] Creating layer pool3
I0520 12:25:32.589668  1794 net.cpp:100] Creating Layer pool3
I0520 12:25:32.589673  1794 net.cpp:434] pool3 <- conv3a
I0520 12:25:32.589682  1794 net.cpp:408] pool3 -> pool3
I0520 12:25:32.589993  1794 net.cpp:150] Setting up pool3
I0520 12:25:32.590006  1794 net.cpp:157] Top shape: 1 256 4 14 14 (200704)
I0520 12:25:32.590010  1794 net.cpp:165] Memory required for data: 205520896
I0520 12:25:32.590014  1794 layer_factory.hpp:77] Creating layer conv4a
I0520 12:25:32.590032  1794 net.cpp:100] Creating Layer conv4a
I0520 12:25:32.590039  1794 net.cpp:434] conv4a <- pool3
I0520 12:25:32.590046  1794 net.cpp:408] conv4a -> conv4a
I0520 12:25:32.662087  1794 net.cpp:150] Setting up conv4a
I0520 12:25:32.662145  1794 net.cpp:157] Top shape: 1 256 4 14 14 (200704)
I0520 12:25:32.662153  1794 net.cpp:165] Memory required for data: 206323712
I0520 12:25:32.662175  1794 layer_factory.hpp:77] Creating layer relu4a
I0520 12:25:32.662199  1794 net.cpp:100] Creating Layer relu4a
I0520 12:25:32.662210  1794 net.cpp:434] relu4a <- conv4a
I0520 12:25:32.662230  1794 net.cpp:395] relu4a -> conv4a (in-place)
I0520 12:25:32.662636  1794 net.cpp:150] Setting up relu4a
I0520 12:25:32.662655  1794 net.cpp:157] Top shape: 1 256 4 14 14 (200704)
I0520 12:25:32.662664  1794 net.cpp:165] Memory required for data: 207126528
I0520 12:25:32.662672  1794 layer_factory.hpp:77] Creating layer pool4
I0520 12:25:32.662693  1794 net.cpp:100] Creating Layer pool4
I0520 12:25:32.662703  1794 net.cpp:434] pool4 <- conv4a
I0520 12:25:32.662716  1794 net.cpp:408] pool4 -> pool4
I0520 12:25:32.663199  1794 net.cpp:150] Setting up pool4
I0520 12:25:32.663223  1794 net.cpp:157] Top shape: 1 256 2 7 7 (25088)
I0520 12:25:32.663229  1794 net.cpp:165] Memory required for data: 207226880
I0520 12:25:32.663239  1794 layer_factory.hpp:77] Creating layer conv5a
I0520 12:25:32.663259  1794 net.cpp:100] Creating Layer conv5a
I0520 12:25:32.663269  1794 net.cpp:434] conv5a <- pool4
I0520 12:25:32.663282  1794 net.cpp:408] conv5a -> conv5a
I0520 12:25:32.764391  1794 net.cpp:150] Setting up conv5a
I0520 12:25:32.764432  1794 net.cpp:157] Top shape: 1 256 2 7 7 (25088)
I0520 12:25:32.764441  1794 net.cpp:165] Memory required for data: 207327232
I0520 12:25:32.764477  1794 layer_factory.hpp:77] Creating layer relu5a
I0520 12:25:32.764504  1794 net.cpp:100] Creating Layer relu5a
I0520 12:25:32.764518  1794 net.cpp:434] relu5a <- conv5a
I0520 12:25:32.764542  1794 net.cpp:395] relu5a -> conv5a (in-place)
I0520 12:25:32.764833  1794 net.cpp:150] Setting up relu5a
I0520 12:25:32.764863  1794 net.cpp:157] Top shape: 1 256 2 7 7 (25088)
I0520 12:25:32.764866  1794 net.cpp:165] Memory required for data: 207427584
I0520 12:25:32.764870  1794 layer_factory.hpp:77] Creating layer pool5
I0520 12:25:32.764888  1794 net.cpp:100] Creating Layer pool5
I0520 12:25:32.764894  1794 net.cpp:434] pool5 <- conv5a
I0520 12:25:32.764900  1794 net.cpp:408] pool5 -> pool5
I0520 12:25:32.766676  1794 net.cpp:150] Setting up pool5
I0520 12:25:32.766707  1794 net.cpp:157] Top shape: 1 256 1 4 4 (4096)
I0520 12:25:32.766715  1794 net.cpp:165] Memory required for data: 207443968
I0520 12:25:32.766726  1794 layer_factory.hpp:77] Creating layer fc6
I0520 12:25:32.766754  1794 net.cpp:100] Creating Layer fc6
I0520 12:25:32.766765  1794 net.cpp:434] fc6 <- pool5
I0520 12:25:32.766773  1794 net.cpp:408] fc6 -> fc6
I0520 12:25:33.166563  1794 net.cpp:150] Setting up fc6
I0520 12:25:33.166620  1794 net.cpp:157] Top shape: 1 2048 (2048)
I0520 12:25:33.166625  1794 net.cpp:165] Memory required for data: 207452160
I0520 12:25:33.166681  1794 layer_factory.hpp:77] Creating layer relu6
I0520 12:25:33.166709  1794 net.cpp:100] Creating Layer relu6
I0520 12:25:33.166730  1794 net.cpp:434] relu6 <- fc6
I0520 12:25:33.166741  1794 net.cpp:395] relu6 -> fc6 (in-place)
I0520 12:25:33.167768  1794 net.cpp:150] Setting up relu6
I0520 12:25:33.167790  1794 net.cpp:157] Top shape: 1 2048 (2048)
I0520 12:25:33.167794  1794 net.cpp:165] Memory required for data: 207460352
I0520 12:25:33.167800  1794 layer_factory.hpp:77] Creating layer drop6
I0520 12:25:33.167826  1794 net.cpp:100] Creating Layer drop6
I0520 12:25:33.167834  1794 net.cpp:434] drop6 <- fc6
I0520 12:25:33.167847  1794 net.cpp:395] drop6 -> fc6 (in-place)
I0520 12:25:33.167938  1794 net.cpp:150] Setting up drop6
I0520 12:25:33.167953  1794 net.cpp:157] Top shape: 1 2048 (2048)
I0520 12:25:33.167963  1794 net.cpp:165] Memory required for data: 207468544
I0520 12:25:33.167966  1794 layer_factory.hpp:77] Creating layer fc7
I0520 12:25:33.168009  1794 net.cpp:100] Creating Layer fc7
I0520 12:25:33.168018  1794 net.cpp:434] fc7 <- fc6
I0520 12:25:33.168041  1794 net.cpp:408] fc7 -> fc7
I0520 12:25:33.348577  1794 net.cpp:150] Setting up fc7
I0520 12:25:33.348623  1794 net.cpp:157] Top shape: 1 2048 (2048)
I0520 12:25:33.348628  1794 net.cpp:165] Memory required for data: 207476736
I0520 12:25:33.348642  1794 layer_factory.hpp:77] Creating layer relu7
I0520 12:25:33.348652  1794 net.cpp:100] Creating Layer relu7
I0520 12:25:33.348659  1794 net.cpp:434] relu7 <- fc7
I0520 12:25:33.348666  1794 net.cpp:395] relu7 -> fc7 (in-place)
I0520 12:25:33.349002  1794 net.cpp:150] Setting up relu7
I0520 12:25:33.349014  1794 net.cpp:157] Top shape: 1 2048 (2048)
I0520 12:25:33.349017  1794 net.cpp:165] Memory required for data: 207484928
I0520 12:25:33.349025  1794 layer_factory.hpp:77] Creating layer drop7
I0520 12:25:33.349036  1794 net.cpp:100] Creating Layer drop7
I0520 12:25:33.349040  1794 net.cpp:434] drop7 <- fc7
I0520 12:25:33.349046  1794 net.cpp:395] drop7 -> fc7 (in-place)
I0520 12:25:33.349084  1794 net.cpp:150] Setting up drop7
I0520 12:25:33.349092  1794 net.cpp:157] Top shape: 1 2048 (2048)
I0520 12:25:33.349094  1794 net.cpp:165] Memory required for data: 207493120
I0520 12:25:33.349097  1794 layer_factory.hpp:77] Creating layer mvn
I0520 12:25:33.349252  1794 net.cpp:100] Creating Layer mvn
I0520 12:25:33.349261  1794 net.cpp:434] mvn <- fc7
I0520 12:25:33.349268  1794 net.cpp:408] mvn -> fc7_norm
I0520 12:25:33.349591  1794 net.cpp:150] Setting up mvn
I0520 12:25:33.349603  1794 net.cpp:157] Top shape: 1 2048 (2048)
I0520 12:25:33.349606  1794 net.cpp:165] Memory required for data: 207501312
I0520 12:25:33.349614  1794 layer_factory.hpp:77] Creating layer fc7_norm_mvn_0_split
I0520 12:25:33.349637  1794 net.cpp:100] Creating Layer fc7_norm_mvn_0_split
I0520 12:25:33.349642  1794 net.cpp:434] fc7_norm_mvn_0_split <- fc7_norm
I0520 12:25:33.349649  1794 net.cpp:408] fc7_norm_mvn_0_split -> fc7_norm_mvn_0_split_0
I0520 12:25:33.349656  1794 net.cpp:408] fc7_norm_mvn_0_split -> fc7_norm_mvn_0_split_1
I0520 12:25:33.349737  1794 net.cpp:150] Setting up fc7_norm_mvn_0_split
I0520 12:25:33.349746  1794 net.cpp:157] Top shape: 1 2048 (2048)
I0520 12:25:33.349750  1794 net.cpp:157] Top shape: 1 2048 (2048)
I0520 12:25:33.349752  1794 net.cpp:165] Memory required for data: 207517696
I0520 12:25:33.349757  1794 layer_factory.hpp:77] Creating layer conv1a_pos
I0520 12:25:33.349771  1794 net.cpp:100] Creating Layer conv1a_pos
I0520 12:25:33.349783  1794 net.cpp:434] conv1a_pos <- positive
I0520 12:25:33.349794  1794 net.cpp:408] conv1a_pos -> conv1a_pos
I0520 12:25:33.353374  1794 net.cpp:150] Setting up conv1a_pos
I0520 12:25:33.353408  1794 net.cpp:157] Top shape: 1 64 16 112 112 (12845056)
I0520 12:25:33.353413  1794 net.cpp:165] Memory required for data: 258897920
I0520 12:25:33.353420  1794 net.cpp:493] Sharing parameters 'conv1a_w' owned by layer 'conv1a', param index 0
I0520 12:25:33.353425  1794 net.cpp:493] Sharing parameters 'conv1a_b' owned by layer 'conv1a', param index 1
I0520 12:25:33.353430  1794 layer_factory.hpp:77] Creating layer relu1a_pos
I0520 12:25:33.353437  1794 net.cpp:100] Creating Layer relu1a_pos
I0520 12:25:33.353441  1794 net.cpp:434] relu1a_pos <- conv1a_pos
I0520 12:25:33.353449  1794 net.cpp:395] relu1a_pos -> conv1a_pos (in-place)
I0520 12:25:33.353698  1794 net.cpp:150] Setting up relu1a_pos
I0520 12:25:33.353708  1794 net.cpp:157] Top shape: 1 64 16 112 112 (12845056)
I0520 12:25:33.353713  1794 net.cpp:165] Memory required for data: 310278144
I0520 12:25:33.353716  1794 layer_factory.hpp:77] Creating layer pool1_pos
I0520 12:25:33.353735  1794 net.cpp:100] Creating Layer pool1_pos
I0520 12:25:33.353740  1794 net.cpp:434] pool1_pos <- conv1a_pos
I0520 12:25:33.353752  1794 net.cpp:408] pool1_pos -> pool1_pos
I0520 12:25:33.355166  1794 net.cpp:150] Setting up pool1_pos
I0520 12:25:33.355185  1794 net.cpp:157] Top shape: 1 64 16 56 56 (3211264)
I0520 12:25:33.355188  1794 net.cpp:165] Memory required for data: 323123200
I0520 12:25:33.355193  1794 layer_factory.hpp:77] Creating layer conv2a_pos
I0520 12:25:33.355206  1794 net.cpp:100] Creating Layer conv2a_pos
I0520 12:25:33.355209  1794 net.cpp:434] conv2a_pos <- pool1_pos
I0520 12:25:33.355219  1794 net.cpp:408] conv2a_pos -> conv2a_pos
I0520 12:25:33.369292  1794 net.cpp:150] Setting up conv2a_pos
I0520 12:25:33.369385  1794 net.cpp:157] Top shape: 1 128 16 56 56 (6422528)
I0520 12:25:33.369406  1794 net.cpp:165] Memory required for data: 348813312
I0520 12:25:33.369460  1794 net.cpp:493] Sharing parameters 'conv2a_w' owned by layer 'conv2a', param index 0
I0520 12:25:33.369498  1794 net.cpp:493] Sharing parameters 'conv2a_b' owned by layer 'conv2a', param index 1
I0520 12:25:33.369508  1794 layer_factory.hpp:77] Creating layer relu2a_pos
I0520 12:25:33.369606  1794 net.cpp:100] Creating Layer relu2a_pos
I0520 12:25:33.369623  1794 net.cpp:434] relu2a_pos <- conv2a_pos
I0520 12:25:33.369645  1794 net.cpp:395] relu2a_pos -> conv2a_pos (in-place)
I0520 12:25:33.370374  1794 net.cpp:150] Setting up relu2a_pos
I0520 12:25:33.370393  1794 net.cpp:157] Top shape: 1 128 16 56 56 (6422528)
I0520 12:25:33.370404  1794 net.cpp:165] Memory required for data: 374503424
I0520 12:25:33.370424  1794 layer_factory.hpp:77] Creating layer pool2_pos
I0520 12:25:33.370446  1794 net.cpp:100] Creating Layer pool2_pos
I0520 12:25:33.370458  1794 net.cpp:434] pool2_pos <- conv2a_pos
I0520 12:25:33.370471  1794 net.cpp:408] pool2_pos -> pool2_pos
I0520 12:25:33.371045  1794 net.cpp:150] Setting up pool2_pos
I0520 12:25:33.371065  1794 net.cpp:157] Top shape: 1 128 8 28 28 (802816)
I0520 12:25:33.371073  1794 net.cpp:165] Memory required for data: 377714688
I0520 12:25:33.371081  1794 layer_factory.hpp:77] Creating layer conv3a_pos
I0520 12:25:33.371119  1794 net.cpp:100] Creating Layer conv3a_pos
I0520 12:25:33.371129  1794 net.cpp:434] conv3a_pos <- pool2_pos
I0520 12:25:33.371141  1794 net.cpp:408] conv3a_pos -> conv3a_pos
I0520 12:25:33.441201  1794 net.cpp:150] Setting up conv3a_pos
I0520 12:25:33.441241  1794 net.cpp:157] Top shape: 1 256 8 28 28 (1605632)
I0520 12:25:33.441273  1794 net.cpp:165] Memory required for data: 384137216
I0520 12:25:33.441284  1794 net.cpp:493] Sharing parameters 'conv3a_w' owned by layer 'conv3a', param index 0
I0520 12:25:33.441293  1794 net.cpp:493] Sharing parameters 'conv3a_b' owned by layer 'conv3a', param index 1
I0520 12:25:33.441313  1794 layer_factory.hpp:77] Creating layer relu3a_pos
I0520 12:25:33.441330  1794 net.cpp:100] Creating Layer relu3a_pos
I0520 12:25:33.441337  1794 net.cpp:434] relu3a_pos <- conv3a_pos
I0520 12:25:33.441349  1794 net.cpp:395] relu3a_pos -> conv3a_pos (in-place)
I0520 12:25:33.441635  1794 net.cpp:150] Setting up relu3a_pos
I0520 12:25:33.441648  1794 net.cpp:157] Top shape: 1 256 8 28 28 (1605632)
I0520 12:25:33.441653  1794 net.cpp:165] Memory required for data: 390559744
I0520 12:25:33.441658  1794 layer_factory.hpp:77] Creating layer pool3_pos
I0520 12:25:33.441670  1794 net.cpp:100] Creating Layer pool3_pos
I0520 12:25:33.441678  1794 net.cpp:434] pool3_pos <- conv3a_pos
I0520 12:25:33.441684  1794 net.cpp:408] pool3_pos -> pool3_pos
I0520 12:25:33.445377  1794 net.cpp:150] Setting up pool3_pos
I0520 12:25:33.445444  1794 net.cpp:157] Top shape: 1 256 4 14 14 (200704)
I0520 12:25:33.445456  1794 net.cpp:165] Memory required for data: 391362560
I0520 12:25:33.445467  1794 layer_factory.hpp:77] Creating layer conv4a_pos
I0520 12:25:33.445513  1794 net.cpp:100] Creating Layer conv4a_pos
I0520 12:25:33.445525  1794 net.cpp:434] conv4a_pos <- pool3_pos
I0520 12:25:33.445543  1794 net.cpp:408] conv4a_pos -> conv4a_pos
I0520 12:25:33.555940  1794 net.cpp:150] Setting up conv4a_pos
I0520 12:25:33.555982  1794 net.cpp:157] Top shape: 1 256 4 14 14 (200704)
I0520 12:25:33.555987  1794 net.cpp:165] Memory required for data: 392165376
I0520 12:25:33.556000  1794 net.cpp:493] Sharing parameters 'conv4a_w' owned by layer 'conv4a', param index 0
I0520 12:25:33.556016  1794 net.cpp:493] Sharing parameters 'conv4a_b' owned by layer 'conv4a', param index 1
I0520 12:25:33.556035  1794 layer_factory.hpp:77] Creating layer relu4a_pos
I0520 12:25:33.556047  1794 net.cpp:100] Creating Layer relu4a_pos
I0520 12:25:33.556052  1794 net.cpp:434] relu4a_pos <- conv4a_pos
I0520 12:25:33.556063  1794 net.cpp:395] relu4a_pos -> conv4a_pos (in-place)
I0520 12:25:33.557443  1794 net.cpp:150] Setting up relu4a_pos
I0520 12:25:33.557466  1794 net.cpp:157] Top shape: 1 256 4 14 14 (200704)
I0520 12:25:33.557469  1794 net.cpp:165] Memory required for data: 392968192
I0520 12:25:33.557473  1794 layer_factory.hpp:77] Creating layer pool4_pos
I0520 12:25:33.557502  1794 net.cpp:100] Creating Layer pool4_pos
I0520 12:25:33.557507  1794 net.cpp:434] pool4_pos <- conv4a_pos
I0520 12:25:33.557521  1794 net.cpp:408] pool4_pos -> pool4_pos
I0520 12:25:33.557919  1794 net.cpp:150] Setting up pool4_pos
I0520 12:25:33.557929  1794 net.cpp:157] Top shape: 1 256 2 7 7 (25088)
I0520 12:25:33.557932  1794 net.cpp:165] Memory required for data: 393068544
I0520 12:25:33.557935  1794 layer_factory.hpp:77] Creating layer conv5a_pos
I0520 12:25:33.557965  1794 net.cpp:100] Creating Layer conv5a_pos
I0520 12:25:33.557971  1794 net.cpp:434] conv5a_pos <- pool4_pos
I0520 12:25:33.557979  1794 net.cpp:408] conv5a_pos -> conv5a_pos
I0520 12:25:33.638137  1794 net.cpp:150] Setting up conv5a_pos
I0520 12:25:33.638180  1794 net.cpp:157] Top shape: 1 256 2 7 7 (25088)
I0520 12:25:33.638185  1794 net.cpp:165] Memory required for data: 393168896
I0520 12:25:33.638193  1794 net.cpp:493] Sharing parameters 'conv5a_w' owned by layer 'conv5a', param index 0
I0520 12:25:33.638200  1794 net.cpp:493] Sharing parameters 'conv5a_b' owned by layer 'conv5a', param index 1
I0520 12:25:33.638205  1794 layer_factory.hpp:77] Creating layer relu5a_pos
I0520 12:25:33.638222  1794 net.cpp:100] Creating Layer relu5a_pos
I0520 12:25:33.638228  1794 net.cpp:434] relu5a_pos <- conv5a_pos
I0520 12:25:33.638237  1794 net.cpp:395] relu5a_pos -> conv5a_pos (in-place)
I0520 12:25:33.638461  1794 net.cpp:150] Setting up relu5a_pos
I0520 12:25:33.638471  1794 net.cpp:157] Top shape: 1 256 2 7 7 (25088)
I0520 12:25:33.638495  1794 net.cpp:165] Memory required for data: 393269248
I0520 12:25:33.638507  1794 layer_factory.hpp:77] Creating layer pool5_pos
I0520 12:25:33.638523  1794 net.cpp:100] Creating Layer pool5_pos
I0520 12:25:33.638528  1794 net.cpp:434] pool5_pos <- conv5a_pos
I0520 12:25:33.638537  1794 net.cpp:408] pool5_pos -> pool5_pos
I0520 12:25:33.638823  1794 net.cpp:150] Setting up pool5_pos
I0520 12:25:33.638835  1794 net.cpp:157] Top shape: 1 256 1 4 4 (4096)
I0520 12:25:33.638839  1794 net.cpp:165] Memory required for data: 393285632
I0520 12:25:33.638844  1794 layer_factory.hpp:77] Creating layer fc6_pos
I0520 12:25:33.638857  1794 net.cpp:100] Creating Layer fc6_pos
I0520 12:25:33.638867  1794 net.cpp:434] fc6_pos <- pool5_pos
I0520 12:25:33.638877  1794 net.cpp:408] fc6_pos -> fc6_pos
I0520 12:25:33.963892  1794 net.cpp:150] Setting up fc6_pos
I0520 12:25:33.963938  1794 net.cpp:157] Top shape: 1 2048 (2048)
I0520 12:25:33.963943  1794 net.cpp:165] Memory required for data: 393293824
I0520 12:25:33.963958  1794 net.cpp:493] Sharing parameters 'fc6_w' owned by layer 'fc6', param index 0
I0520 12:25:33.963966  1794 net.cpp:493] Sharing parameters 'fc6_b' owned by layer 'fc6', param index 1
I0520 12:25:33.963973  1794 layer_factory.hpp:77] Creating layer relu6_pos
I0520 12:25:33.963999  1794 net.cpp:100] Creating Layer relu6_pos
I0520 12:25:33.964007  1794 net.cpp:434] relu6_pos <- fc6_pos
I0520 12:25:33.964025  1794 net.cpp:395] relu6_pos -> fc6_pos (in-place)
I0520 12:25:33.965502  1794 net.cpp:150] Setting up relu6_pos
I0520 12:25:33.965517  1794 net.cpp:157] Top shape: 1 2048 (2048)
I0520 12:25:33.965520  1794 net.cpp:165] Memory required for data: 393302016
I0520 12:25:33.965524  1794 layer_factory.hpp:77] Creating layer drop6_pos
I0520 12:25:33.965535  1794 net.cpp:100] Creating Layer drop6_pos
I0520 12:25:33.965540  1794 net.cpp:434] drop6_pos <- fc6_pos
I0520 12:25:33.965561  1794 net.cpp:395] drop6_pos -> fc6_pos (in-place)
I0520 12:25:33.965603  1794 net.cpp:150] Setting up drop6_pos
I0520 12:25:33.965618  1794 net.cpp:157] Top shape: 1 2048 (2048)
I0520 12:25:33.965625  1794 net.cpp:165] Memory required for data: 393310208
I0520 12:25:33.965628  1794 layer_factory.hpp:77] Creating layer fc7_pos
I0520 12:25:33.965651  1794 net.cpp:100] Creating Layer fc7_pos
I0520 12:25:33.965657  1794 net.cpp:434] fc7_pos <- fc6_pos
I0520 12:25:33.965675  1794 net.cpp:408] fc7_pos -> fc7_pos
I0520 12:25:34.153213  1794 net.cpp:150] Setting up fc7_pos
I0520 12:25:34.153249  1794 net.cpp:157] Top shape: 1 2048 (2048)
I0520 12:25:34.153254  1794 net.cpp:165] Memory required for data: 393318400
I0520 12:25:34.153271  1794 net.cpp:493] Sharing parameters 'fc7_w' owned by layer 'fc7', param index 0
I0520 12:25:34.153280  1794 net.cpp:493] Sharing parameters 'fc7_b' owned by layer 'fc7', param index 1
I0520 12:25:34.153285  1794 layer_factory.hpp:77] Creating layer relu7_pos
I0520 12:25:34.153302  1794 net.cpp:100] Creating Layer relu7_pos
I0520 12:25:34.153309  1794 net.cpp:434] relu7_pos <- fc7_pos
I0520 12:25:34.153321  1794 net.cpp:395] relu7_pos -> fc7_pos (in-place)
I0520 12:25:34.154057  1794 net.cpp:150] Setting up relu7_pos
I0520 12:25:34.154072  1794 net.cpp:157] Top shape: 1 2048 (2048)
I0520 12:25:34.154076  1794 net.cpp:165] Memory required for data: 393326592
I0520 12:25:34.154081  1794 layer_factory.hpp:77] Creating layer drop7_pos
I0520 12:25:34.154095  1794 net.cpp:100] Creating Layer drop7_pos
I0520 12:25:34.154099  1794 net.cpp:434] drop7_pos <- fc7_pos
I0520 12:25:34.154106  1794 net.cpp:395] drop7_pos -> fc7_pos (in-place)
I0520 12:25:34.154152  1794 net.cpp:150] Setting up drop7_pos
I0520 12:25:34.154162  1794 net.cpp:157] Top shape: 1 2048 (2048)
I0520 12:25:34.154166  1794 net.cpp:165] Memory required for data: 393334784
I0520 12:25:34.154170  1794 layer_factory.hpp:77] Creating layer mvn_pos
I0520 12:25:34.154594  1794 net.cpp:100] Creating Layer mvn_pos
I0520 12:25:34.154604  1794 net.cpp:434] mvn_pos <- fc7_pos
I0520 12:25:34.154610  1794 net.cpp:408] mvn_pos -> fc7_pos_norm
I0520 12:25:34.155159  1794 net.cpp:150] Setting up mvn_pos
I0520 12:25:34.155175  1794 net.cpp:157] Top shape: 1 2048 (2048)
I0520 12:25:34.155179  1794 net.cpp:165] Memory required for data: 393342976
I0520 12:25:34.155184  1794 layer_factory.hpp:77] Creating layer fc7_pos_norm_mvn_pos_0_split
I0520 12:25:34.155191  1794 net.cpp:100] Creating Layer fc7_pos_norm_mvn_pos_0_split
I0520 12:25:34.155195  1794 net.cpp:434] fc7_pos_norm_mvn_pos_0_split <- fc7_pos_norm
I0520 12:25:34.155205  1794 net.cpp:408] fc7_pos_norm_mvn_pos_0_split -> fc7_pos_norm_mvn_pos_0_split_0
I0520 12:25:34.155218  1794 net.cpp:408] fc7_pos_norm_mvn_pos_0_split -> fc7_pos_norm_mvn_pos_0_split_1
I0520 12:25:34.155280  1794 net.cpp:150] Setting up fc7_pos_norm_mvn_pos_0_split
I0520 12:25:34.155292  1794 net.cpp:157] Top shape: 1 2048 (2048)
I0520 12:25:34.155298  1794 net.cpp:157] Top shape: 1 2048 (2048)
I0520 12:25:34.155302  1794 net.cpp:165] Memory required for data: 393359360
I0520 12:25:34.155305  1794 layer_factory.hpp:77] Creating layer conv1a_neg
I0520 12:25:34.155316  1794 net.cpp:100] Creating Layer conv1a_neg
I0520 12:25:34.155325  1794 net.cpp:434] conv1a_neg <- negative
I0520 12:25:34.155349  1794 net.cpp:408] conv1a_neg -> conv1a_neg
I0520 12:25:34.159677  1794 net.cpp:150] Setting up conv1a_neg
I0520 12:25:34.159698  1794 net.cpp:157] Top shape: 1 64 16 112 112 (12845056)
I0520 12:25:34.159701  1794 net.cpp:165] Memory required for data: 444739584
I0520 12:25:34.159709  1794 net.cpp:493] Sharing parameters 'conv1a_w' owned by layer 'conv1a', param index 0
I0520 12:25:34.159716  1794 net.cpp:493] Sharing parameters 'conv1a_b' owned by layer 'conv1a', param index 1
I0520 12:25:34.159723  1794 layer_factory.hpp:77] Creating layer relu1a_neg
I0520 12:25:34.159731  1794 net.cpp:100] Creating Layer relu1a_neg
I0520 12:25:34.159735  1794 net.cpp:434] relu1a_neg <- conv1a_neg
I0520 12:25:34.159742  1794 net.cpp:395] relu1a_neg -> conv1a_neg (in-place)
I0520 12:25:34.160019  1794 net.cpp:150] Setting up relu1a_neg
I0520 12:25:34.160034  1794 net.cpp:157] Top shape: 1 64 16 112 112 (12845056)
I0520 12:25:34.160039  1794 net.cpp:165] Memory required for data: 496119808
I0520 12:25:34.160044  1794 layer_factory.hpp:77] Creating layer pool1_neg
I0520 12:25:34.160063  1794 net.cpp:100] Creating Layer pool1_neg
I0520 12:25:34.160070  1794 net.cpp:434] pool1_neg <- conv1a_neg
I0520 12:25:34.160091  1794 net.cpp:408] pool1_neg -> pool1_neg
I0520 12:25:34.160439  1794 net.cpp:150] Setting up pool1_neg
I0520 12:25:34.160454  1794 net.cpp:157] Top shape: 1 64 16 56 56 (3211264)
I0520 12:25:34.160468  1794 net.cpp:165] Memory required for data: 508964864
I0520 12:25:34.160473  1794 layer_factory.hpp:77] Creating layer conv2a_neg
I0520 12:25:34.160504  1794 net.cpp:100] Creating Layer conv2a_neg
I0520 12:25:34.160511  1794 net.cpp:434] conv2a_neg <- pool1_neg
I0520 12:25:34.160522  1794 net.cpp:408] conv2a_neg -> conv2a_neg
I0520 12:25:34.170472  1794 net.cpp:150] Setting up conv2a_neg
I0520 12:25:34.170488  1794 net.cpp:157] Top shape: 1 128 16 56 56 (6422528)
I0520 12:25:34.170492  1794 net.cpp:165] Memory required for data: 534654976
I0520 12:25:34.170497  1794 net.cpp:493] Sharing parameters 'conv2a_w' owned by layer 'conv2a', param index 0
I0520 12:25:34.170508  1794 net.cpp:493] Sharing parameters 'conv2a_b' owned by layer 'conv2a', param index 1
I0520 12:25:34.170519  1794 layer_factory.hpp:77] Creating layer relu2a_neg
I0520 12:25:34.170528  1794 net.cpp:100] Creating Layer relu2a_neg
I0520 12:25:34.170532  1794 net.cpp:434] relu2a_neg <- conv2a_neg
I0520 12:25:34.170537  1794 net.cpp:395] relu2a_neg -> conv2a_neg (in-place)
I0520 12:25:34.171777  1794 net.cpp:150] Setting up relu2a_neg
I0520 12:25:34.171793  1794 net.cpp:157] Top shape: 1 128 16 56 56 (6422528)
I0520 12:25:34.171797  1794 net.cpp:165] Memory required for data: 560345088
I0520 12:25:34.171803  1794 layer_factory.hpp:77] Creating layer pool2_neg
I0520 12:25:34.171811  1794 net.cpp:100] Creating Layer pool2_neg
I0520 12:25:34.171818  1794 net.cpp:434] pool2_neg <- conv2a_neg
I0520 12:25:34.171849  1794 net.cpp:408] pool2_neg -> pool2_neg
I0520 12:25:34.172150  1794 net.cpp:150] Setting up pool2_neg
I0520 12:25:34.172163  1794 net.cpp:157] Top shape: 1 128 8 28 28 (802816)
I0520 12:25:34.172166  1794 net.cpp:165] Memory required for data: 563556352
I0520 12:25:34.172170  1794 layer_factory.hpp:77] Creating layer conv3a_neg
I0520 12:25:34.172183  1794 net.cpp:100] Creating Layer conv3a_neg
I0520 12:25:34.172189  1794 net.cpp:434] conv3a_neg <- pool2_neg
I0520 12:25:34.172197  1794 net.cpp:408] conv3a_neg -> conv3a_neg
I0520 12:25:34.214057  1794 net.cpp:150] Setting up conv3a_neg
I0520 12:25:34.214090  1794 net.cpp:157] Top shape: 1 256 8 28 28 (1605632)
I0520 12:25:34.214094  1794 net.cpp:165] Memory required for data: 569978880
I0520 12:25:34.214123  1794 net.cpp:493] Sharing parameters 'conv3a_w' owned by layer 'conv3a', param index 0
I0520 12:25:34.214130  1794 net.cpp:493] Sharing parameters 'conv3a_b' owned by layer 'conv3a', param index 1
I0520 12:25:34.214140  1794 layer_factory.hpp:77] Creating layer relu3a_neg
I0520 12:25:34.214150  1794 net.cpp:100] Creating Layer relu3a_neg
I0520 12:25:34.214155  1794 net.cpp:434] relu3a_neg <- conv3a_neg
I0520 12:25:34.214172  1794 net.cpp:395] relu3a_neg -> conv3a_neg (in-place)
I0520 12:25:34.214555  1794 net.cpp:150] Setting up relu3a_neg
I0520 12:25:34.214574  1794 net.cpp:157] Top shape: 1 256 8 28 28 (1605632)
I0520 12:25:34.214583  1794 net.cpp:165] Memory required for data: 576401408
I0520 12:25:34.214597  1794 layer_factory.hpp:77] Creating layer pool3_neg
I0520 12:25:34.214627  1794 net.cpp:100] Creating Layer pool3_neg
I0520 12:25:34.214643  1794 net.cpp:434] pool3_neg <- conv3a_neg
I0520 12:25:34.214654  1794 net.cpp:408] pool3_neg -> pool3_neg
I0520 12:25:34.215050  1794 net.cpp:150] Setting up pool3_neg
I0520 12:25:34.215073  1794 net.cpp:157] Top shape: 1 256 4 14 14 (200704)
I0520 12:25:34.215085  1794 net.cpp:165] Memory required for data: 577204224
I0520 12:25:34.215090  1794 layer_factory.hpp:77] Creating layer conv4a_neg
I0520 12:25:34.215103  1794 net.cpp:100] Creating Layer conv4a_neg
I0520 12:25:34.215108  1794 net.cpp:434] conv4a_neg <- pool3_neg
I0520 12:25:34.215119  1794 net.cpp:408] conv4a_neg -> conv4a_neg
I0520 12:25:34.302651  1794 net.cpp:150] Setting up conv4a_neg
I0520 12:25:34.302685  1794 net.cpp:157] Top shape: 1 256 4 14 14 (200704)
I0520 12:25:34.302695  1794 net.cpp:165] Memory required for data: 578007040
I0520 12:25:34.302711  1794 net.cpp:493] Sharing parameters 'conv4a_w' owned by layer 'conv4a', param index 0
I0520 12:25:34.302718  1794 net.cpp:493] Sharing parameters 'conv4a_b' owned by layer 'conv4a', param index 1
I0520 12:25:34.302723  1794 layer_factory.hpp:77] Creating layer relu4a_neg
I0520 12:25:34.302732  1794 net.cpp:100] Creating Layer relu4a_neg
I0520 12:25:34.302738  1794 net.cpp:434] relu4a_neg <- conv4a_neg
I0520 12:25:34.302747  1794 net.cpp:395] relu4a_neg -> conv4a_neg (in-place)
I0520 12:25:34.303009  1794 net.cpp:150] Setting up relu4a_neg
I0520 12:25:34.303025  1794 net.cpp:157] Top shape: 1 256 4 14 14 (200704)
I0520 12:25:34.303038  1794 net.cpp:165] Memory required for data: 578809856
I0520 12:25:34.303048  1794 layer_factory.hpp:77] Creating layer pool4_neg
I0520 12:25:34.303059  1794 net.cpp:100] Creating Layer pool4_neg
I0520 12:25:34.303063  1794 net.cpp:434] pool4_neg <- conv4a_neg
I0520 12:25:34.303095  1794 net.cpp:408] pool4_neg -> pool4_neg
I0520 12:25:34.304814  1794 net.cpp:150] Setting up pool4_neg
I0520 12:25:34.304843  1794 net.cpp:157] Top shape: 1 256 2 7 7 (25088)
I0520 12:25:34.304847  1794 net.cpp:165] Memory required for data: 578910208
I0520 12:25:34.304852  1794 layer_factory.hpp:77] Creating layer conv5a_neg
I0520 12:25:34.304877  1794 net.cpp:100] Creating Layer conv5a_neg
I0520 12:25:34.304888  1794 net.cpp:434] conv5a_neg <- pool4_neg
I0520 12:25:34.304903  1794 net.cpp:408] conv5a_neg -> conv5a_neg
I0520 12:25:34.394536  1794 net.cpp:150] Setting up conv5a_neg
I0520 12:25:34.394573  1794 net.cpp:157] Top shape: 1 256 2 7 7 (25088)
I0520 12:25:34.394604  1794 net.cpp:165] Memory required for data: 579010560
I0520 12:25:34.394619  1794 net.cpp:493] Sharing parameters 'conv5a_w' owned by layer 'conv5a', param index 0
I0520 12:25:34.394626  1794 net.cpp:493] Sharing parameters 'conv5a_b' owned by layer 'conv5a', param index 1
I0520 12:25:34.394630  1794 layer_factory.hpp:77] Creating layer relu5a_neg
I0520 12:25:34.394687  1794 net.cpp:100] Creating Layer relu5a_neg
I0520 12:25:34.394696  1794 net.cpp:434] relu5a_neg <- conv5a_neg
I0520 12:25:34.394703  1794 net.cpp:395] relu5a_neg -> conv5a_neg (in-place)
I0520 12:25:34.394946  1794 net.cpp:150] Setting up relu5a_neg
I0520 12:25:34.394959  1794 net.cpp:157] Top shape: 1 256 2 7 7 (25088)
I0520 12:25:34.394963  1794 net.cpp:165] Memory required for data: 579110912
I0520 12:25:34.394968  1794 layer_factory.hpp:77] Creating layer pool5_neg
I0520 12:25:34.394978  1794 net.cpp:100] Creating Layer pool5_neg
I0520 12:25:34.394984  1794 net.cpp:434] pool5_neg <- conv5a_neg
I0520 12:25:34.394995  1794 net.cpp:408] pool5_neg -> pool5_neg
I0520 12:25:34.395356  1794 net.cpp:150] Setting up pool5_neg
I0520 12:25:34.395373  1794 net.cpp:157] Top shape: 1 256 1 4 4 (4096)
I0520 12:25:34.395376  1794 net.cpp:165] Memory required for data: 579127296
I0520 12:25:34.395381  1794 layer_factory.hpp:77] Creating layer fc6_neg
I0520 12:25:34.395398  1794 net.cpp:100] Creating Layer fc6_neg
I0520 12:25:34.395403  1794 net.cpp:434] fc6_neg <- pool5_neg
I0520 12:25:34.395413  1794 net.cpp:408] fc6_neg -> fc6_neg
I0520 12:25:34.807955  1794 net.cpp:150] Setting up fc6_neg
I0520 12:25:34.807998  1794 net.cpp:157] Top shape: 1 2048 (2048)
I0520 12:25:34.808002  1794 net.cpp:165] Memory required for data: 579135488
I0520 12:25:34.808012  1794 net.cpp:493] Sharing parameters 'fc6_w' owned by layer 'fc6', param index 0
I0520 12:25:34.808019  1794 net.cpp:493] Sharing parameters 'fc6_b' owned by layer 'fc6', param index 1
I0520 12:25:34.808025  1794 layer_factory.hpp:77] Creating layer relu6_neg
I0520 12:25:34.808042  1794 net.cpp:100] Creating Layer relu6_neg
I0520 12:25:34.808048  1794 net.cpp:434] relu6_neg <- fc6_neg
I0520 12:25:34.808055  1794 net.cpp:395] relu6_neg -> fc6_neg (in-place)
I0520 12:25:34.808426  1794 net.cpp:150] Setting up relu6_neg
I0520 12:25:34.808437  1794 net.cpp:157] Top shape: 1 2048 (2048)
I0520 12:25:34.808441  1794 net.cpp:165] Memory required for data: 579143680
I0520 12:25:34.808445  1794 layer_factory.hpp:77] Creating layer drop6_neg
I0520 12:25:34.808454  1794 net.cpp:100] Creating Layer drop6_neg
I0520 12:25:34.808457  1794 net.cpp:434] drop6_neg <- fc6_neg
I0520 12:25:34.808465  1794 net.cpp:395] drop6_neg -> fc6_neg (in-place)
I0520 12:25:34.808501  1794 net.cpp:150] Setting up drop6_neg
I0520 12:25:34.808509  1794 net.cpp:157] Top shape: 1 2048 (2048)
I0520 12:25:34.808512  1794 net.cpp:165] Memory required for data: 579151872
I0520 12:25:34.808516  1794 layer_factory.hpp:77] Creating layer fc7_neg
I0520 12:25:34.808528  1794 net.cpp:100] Creating Layer fc7_neg
I0520 12:25:34.808533  1794 net.cpp:434] fc7_neg <- fc6_neg
I0520 12:25:34.808540  1794 net.cpp:408] fc7_neg -> fc7_neg
I0520 12:25:34.965206  1794 net.cpp:150] Setting up fc7_neg
I0520 12:25:34.965270  1794 net.cpp:157] Top shape: 1 2048 (2048)
I0520 12:25:34.965286  1794 net.cpp:165] Memory required for data: 579160064
I0520 12:25:34.965306  1794 net.cpp:493] Sharing parameters 'fc7_w' owned by layer 'fc7', param index 0
I0520 12:25:34.965317  1794 net.cpp:493] Sharing parameters 'fc7_b' owned by layer 'fc7', param index 1
I0520 12:25:34.965330  1794 layer_factory.hpp:77] Creating layer relu7_neg
I0520 12:25:34.965354  1794 net.cpp:100] Creating Layer relu7_neg
I0520 12:25:34.965373  1794 net.cpp:434] relu7_neg <- fc7_neg
I0520 12:25:34.965394  1794 net.cpp:395] relu7_neg -> fc7_neg (in-place)
I0520 12:25:34.969041  1794 net.cpp:150] Setting up relu7_neg
I0520 12:25:34.969103  1794 net.cpp:157] Top shape: 1 2048 (2048)
I0520 12:25:34.969125  1794 net.cpp:165] Memory required for data: 579168256
I0520 12:25:34.969136  1794 layer_factory.hpp:77] Creating layer drop7_neg
I0520 12:25:34.969197  1794 net.cpp:100] Creating Layer drop7_neg
I0520 12:25:34.969210  1794 net.cpp:434] drop7_neg <- fc7_neg
I0520 12:25:34.969226  1794 net.cpp:395] drop7_neg -> fc7_neg (in-place)
I0520 12:25:34.969333  1794 net.cpp:150] Setting up drop7_neg
I0520 12:25:34.969350  1794 net.cpp:157] Top shape: 1 2048 (2048)
I0520 12:25:34.969358  1794 net.cpp:165] Memory required for data: 579176448
I0520 12:25:34.969364  1794 layer_factory.hpp:77] Creating layer mvn_neg
I0520 12:25:34.969570  1794 net.cpp:100] Creating Layer mvn_neg
I0520 12:25:34.969583  1794 net.cpp:434] mvn_neg <- fc7_neg
I0520 12:25:34.969595  1794 net.cpp:408] mvn_neg -> fc7_neg_norm
I0520 12:25:34.970019  1794 net.cpp:150] Setting up mvn_neg
I0520 12:25:34.970041  1794 net.cpp:157] Top shape: 1 2048 (2048)
I0520 12:25:34.970046  1794 net.cpp:165] Memory required for data: 579184640
I0520 12:25:34.970053  1794 layer_factory.hpp:77] Creating layer fc7_neg_norm_mvn_neg_0_split
I0520 12:25:34.970065  1794 net.cpp:100] Creating Layer fc7_neg_norm_mvn_neg_0_split
I0520 12:25:34.970074  1794 net.cpp:434] fc7_neg_norm_mvn_neg_0_split <- fc7_neg_norm
I0520 12:25:34.970084  1794 net.cpp:408] fc7_neg_norm_mvn_neg_0_split -> fc7_neg_norm_mvn_neg_0_split_0
I0520 12:25:34.970100  1794 net.cpp:408] fc7_neg_norm_mvn_neg_0_split -> fc7_neg_norm_mvn_neg_0_split_1
I0520 12:25:34.970203  1794 net.cpp:150] Setting up fc7_neg_norm_mvn_neg_0_split
I0520 12:25:34.970216  1794 net.cpp:157] Top shape: 1 2048 (2048)
I0520 12:25:34.970224  1794 net.cpp:157] Top shape: 1 2048 (2048)
I0520 12:25:34.970230  1794 net.cpp:165] Memory required for data: 579201024
I0520 12:25:34.970237  1794 layer_factory.hpp:77] Creating layer loss
I0520 12:25:34.970266  1794 net.cpp:100] Creating Layer loss
I0520 12:25:34.970276  1794 net.cpp:434] loss <- fc7_norm_mvn_0_split_0
I0520 12:25:34.970286  1794 net.cpp:434] loss <- fc7_pos_norm_mvn_pos_0_split_0
I0520 12:25:34.970294  1794 net.cpp:434] loss <- fc7_neg_norm_mvn_neg_0_split_0
…
