…
    mean_value: 65
    mean_value: 74
    mean_value: 92
    mean_value: 65
    mean_value: 74
    mean_value: 92
    mean_value: 65
    mean_value: 74
    mean_value: 92
    mean_value: 65
    mean_value: 74
    mean_value: 92
    mean_value: 65
    mean_value: 74
    mean_value: 92
    mean_value: 65
    mean_value: 74
    mean_value: 92
    mean_value: 65
    mean_value: 74
    mean_value: 92
    mean_value: 65
    mean_value: 74
    mean_value: 92
  }
  data_param {
    source: "/data/leo-data/Synthetic/LMDB/Triplets/train"
    batch_size: 18
    backend: LMDB
  }
}
layer {
  name: "slicer"
  type: "Slice"
  bottom: "triplet"
  top: "anchor_stacked"
  top: "positive_stacked"
  top: "negative_stacked"
  slice_param {
    slice_dim: 1
    slice_point: 48
    slice_point: 96
  }
}
layer {
  name: "reshape_anchor"
  type: "Reshape"
  bottom: "anchor_stacked"
  top: "anchor"
  reshape_param {
    shape {
      dim: 0
      dim: 3
      dim: 16
      dim: 112
      dim: 112
    }
  }
}
layer {
  name: "reshape_positive"
  type: "Reshape"
  bottom: "positive_stacked"
  top: "positive"
  reshape_param {
    shape {
      dim: 0
      dim: 3
      dim: 16
      dim: 112
      dim: 112
    }
  }
}
layer {
  name: "reshape_negative"
  type: "Reshape"
  bottom: "negative_stacked"
  top: "negative"
  reshape_param {
    shape {
      dim: 0
      dim: 3
      dim: 16
      dim: 112
      dim: 112
    }
  }
}
layer {
  name: "conv1a"
  type: "NdConvolution"
  bottom: "anchor"
  top: "conv1a"
  param {
    name: "conv1a_w"
    lr_mult: 1
    decay_mult: 1
  }
  param {
    name: "conv1a_b"
    lr_mult: 2
    decay_mult: 0
  }
  convolution_param {
    num_output: 64
    weight_filler {
      type: "gaussian"
      std: 0.01
    }
    bias_filler {
      type: "constant"
      value: 0
    }
    pad_shape {
      dim: 1
      dim: 1
      dim: 1
    }
    kernel_shape {
      dim: 3
      dim: 3
      dim: 3
    }
    stride_shape {
      dim: 1
      dim: 1
      dim: 1
    }
  }
}
layer {
  name: "relu1a"
  type: "ReLU"
  bottom: "conv1a"
  top: "conv1a"
}
layer {
  name: "pool1"
  type: "NdPooling"
  bottom: "conv1a"
  top: "pool1"
  pooling_param {
    pool: MAX
    kernel_shape {
      dim: 1
      dim: 2
      dim: 2
    }
    stride_shape {
      dim: 1
      dim: 2
      dim: 2
    }
  }
}
layer {
  name: "conv2a"
  type: "NdConvolution"
  bottom: "pool1"
  top: "conv2a"
  param {
    name: "conv2a_w"
    lr_mult: 1
    decay_mult: 1
  }
  param {
    name: "conv2a_b"
    lr_mult: 2
    decay_mult: 0
  }
  convolution_param {
    num_output: 128
    weight_filler {
      type: "gaussian"
      std: 0.01
    }
    bias_filler {
      type: "constant"
      value: 1
    }
    pad_shape {
      dim: 1
      dim: 1
      dim: 1
    }
    kernel_shape {
      dim: 3
      dim: 3
      dim: 3
    }
    stride_shape {
      dim: 1
      dim: 1
      dim: 1
    }
  }
}
layer {
  name: "relu2a"
  type: "ReLU"
  bottom: "conv2a"
  top: "conv2a"
}
layer {
  name: "pool2"
  type: "NdPooling"
  bottom: "conv2a"
  top: "pool2"
  pooling_param {
    pool: MAX
    kernel_shape {
      dim: 2
      dim: 2
      dim: 2
    }
    stride_shape {
      dim: 2
      dim: 2
      dim: 2
    }
  }
}
layer {
  name: "conv3a"
  type: "NdConvolution"
  bottom: "pool2"
  top: "conv3a"
  param {
    name: "conv3a_w"
    lr_mult: 1
    decay_mult: 1
  }
  param {
    name: "conv3a_b"
    lr_mult: 2
    decay_mult: 0
  }
  convolution_param {
    num_output: 256
    weight_filler {
      type: "gaussian"
      std: 0.01
    }
    bias_filler {
      type: "constant"
      value: 1
    }
    pad_shape {
      dim: 1
      dim: 1
      dim: 1
    }
    kernel_shape {
      dim: 3
      dim: 3
      dim: 3
    }
    stride_shape {
      dim: 1
      dim: 1
      dim: 1
    }
  }
}
layer {
  name: "relu3a"
  type: "ReLU"
  bottom: "conv3a"
  top: "conv3a"
}
layer {
  name: "pool3"
  type: "NdPooling"
  bottom: "conv3a"
  top: "pool3"
  pooling_param {
    pool: MAX
    kernel_shape {
      dim: 2
      dim: 2
      dim: 2
    }
    stride_shape {
      dim: 2
      dim: 2
      dim: 2
    }
  }
}
layer {
  name: "conv4a"
  type: "NdConvolution"
  bottom: "pool3"
  top: "conv4a"
  param {
    name: "conv4a_w"
    lr_mult: 1
    decay_mult: 1
  }
  param {
    name: "conv4a_b"
    lr_mult: 2
    decay_mult: 0
  }
  convolution_param {
    num_output: 256
    weight_filler {
      type: "gaussian"
      std: 0.01
    }
    bias_filler {
      type: "constant"
      value: 1
    }
    pad_shape {
      dim: 1
      dim: 1
      dim: 1
    }
    kernel_shape {
      dim: 3
      dim: 3
      dim: 3
    }
    stride_shape {
      dim: 1
      dim: 1
      dim: 1
    }
  }
}
layer {
  name: "relu4a"
  type: "ReLU"
  bottom: "conv4a"
  top: "conv4a"
}
layer {
  name: "pool4"
  type: "NdPooling"
  bottom: "conv4a"
  top: "pool4"
  pooling_param {
    pool: MAX
    kernel_shape {
      dim: 2
      dim: 2
      dim: 2
    }
    stride_shape {
      dim: 2
      dim: 2
      dim: 2
    }
  }
}
layer {
  name: "conv5a"
  type: "NdConvolution"
  bottom: "pool4"
  top: "conv5a"
  param {
    name: "conv5a_w"
    lr_mult: 1
    decay_mult: 1
  }
  param {
    name: "conv5a_b"
    lr_mult: 2
    decay_mult: 0
  }
  convolution_param {
    num_output: 256
    weight_filler {
      type: "gaussian"
      std: 0.01
    }
    bias_filler {
      type: "constant"
      value: 1
    }
    pad_shape {
      dim: 1
      dim: 1
      dim: 1
    }
    kernel_shape {
      dim: 3
      dim: 3
      dim: 3
    }
    stride_shape {
      dim: 1
      dim: 1
      dim: 1
    }
  }
}
layer {
  name: "relu5a"
  type: "ReLU"
  bottom: "conv5a"
  top: "conv5a"
}
layer {
  name: "pool5"
  type: "NdPooling"
  bottom: "conv5a"
  top: "pool5"
  pooling_param {
    pool: MAX
    kernel_shape {
      dim: 2
      dim: 2
      dim: 2
    }
    stride_shape {
      dim: 2
      dim: 2
      dim: 2
    }
  }
}
layer {
  name: "fc6"
  type: "InnerProduct"
  bottom: "pool5"
  top: "fc6"
  param {
    name: "fc6_w"
    lr_mult: 1
    decay_mult: 1
  }
  param {
    name: "fc6_b"
    lr_mult: 2
    decay_mult: 0
  }
  inner_product_param {
    num_output: 2048
    weight_filler {
      type: "gaussian"
      std: 0.005
    }
    bias_filler {
      type: "constant"
      value: 1
    }
  }
}
layer {
  name: "relu6"
  type: "ReLU"
  bottom: "fc6"
  top: "fc6"
}
layer {
  name: "drop6"
  type: "Dropout"
  bottom: "fc6"
  top: "fc6"
  dropout_param {
    dropout_ratio: 0.5
  }
}
layer {
  name: "fc7"
  type: "InnerProduct"
  bottom: "fc6"
  top: "fc7"
  param {
    name: "fc7_w"
    lr_mult: 1
    decay_mult: 1
  }
  param {
    name: "fc7_b"
    lr_mult: 2
    decay_mult: 0
  }
  inner_product_param {
    num_output: 2048
    weight_filler {
      type: "gaussian"
      std: 0.005
    }
    bias_filler {
      type: "constant"
      value: 1
    }
  }
}
layer {
  name: "relu7"
  type: "ReLU"
  bottom: "fc7"
  top: "fc7"
}
layer {
  name: "drop7"
  type: "Dropout"
  bottom: "fc7"
  top: "fc7"
  dropout_param {
    dropout_ratio: 0.5
  }
}
layer {
  name: "conv1a_pos"
  type: "NdConvolution"
  bottom: "positive"
  top: "conv1a_pos"
  param {
    name: "conv1a_w"
    lr_mult: 1
    decay_mult: 1
  }
  param {
    name: "conv1a_b"
    lr_mult: 2
    decay_mult: 0
  }
  convolution_param {
    num_output: 64
    weight_filler {
      type: "gaussian"
      std: 0.01
    }
    bias_filler {
      type: "constant"
      value: 0
    }
    pad_shape {
      dim: 1
      dim: 1
      dim: 1
    }
    kernel_shape {
      dim: 3
      dim: 3
      dim: 3
    }
    stride_shape {
      dim: 1
      dim: 1
      dim: 1
    }
  }
}
layer {
  name: "relu1a_pos"
  type: "ReLU"
  bottom: "conv1a_pos"
  top: "conv1a_pos"
}
layer {
  name: "pool1_pos"
  type: "NdPooling"
  bottom: "conv1a_pos"
  top: "pool1_pos"
  pooling_param {
    pool: MAX
    kernel_shape {
      dim: 1
      dim: 2
      dim: 2
    }
    stride_shape {
      dim: 1
      dim: 2
      dim: 2
    }
  }
}
layer {
  name: "conv2a_pos"
  type: "NdConvolution"
  bottom: "pool1_pos"
  top: "conv2a_pos"
  param {
    name: "conv2a_w"
    lr_mult: 1
    decay_mult: 1
  }
  param {
    name: "conv2a_b"
    lr_mult: 2
    decay_mult: 0
  }
  convolution_param {
    num_output: 128
    weight_filler {
      type: "gaussian"
      std: 0.01
    }
    bias_filler {
      type: "constant"
      value: 1
    }
    pad_shape {
      dim: 1
      dim: 1
      dim: 1
    }
    kernel_shape {
      dim: 3
      dim: 3
      dim: 3
    }
    stride_shape {
      dim: 1
      dim: 1
      dim: 1
    }
  }
}
layer {
  name: "relu2a_pos"
  type: "ReLU"
  bottom: "conv2a_pos"
  top: "conv2a_pos"
}
layer {
  name: "pool2_pos"
  type: "NdPooling"
  bottom: "conv2a_pos"
  top: "pool2_pos"
  pooling_param {
    pool: MAX
    kernel_shape {
      dim: 2
      dim: 2
      dim: 2
    }
    stride_shape {
      dim: 2
      dim: 2
      dim: 2
    }
  }
}
layer {
  name: "conv3a_pos"
  type: "NdConvolution"
  bottom: "pool2_pos"
  top: "conv3a_pos"
  param {
    name: "conv3a_w"
    lr_mult: 1
    decay_mult: 1
  }
  param {
    name: "conv3a_b"
    lr_mult: 2
    decay_mult: 0
  }
  convolution_param {
    num_output: 256
    weight_filler {
      type: "gaussian"
      std: 0.01
    }
    bias_filler {
      type: "constant"
      value: 1
    }
    pad_shape {
      dim: 1
      dim: 1
      dim: 1
    }
    kernel_shape {
      dim: 3
      dim: 3
      dim: 3
    }
    stride_shape {
      dim: 1
      dim: 1
      dim: 1
    }
  }
}
layer {
  name: "relu3a_pos"
  type: "ReLU"
  bottom: "conv3a_pos"
  top: "conv3a_pos"
}
layer {
  name: "pool3_pos"
  type: "NdPooling"
  bottom: "conv3a_pos"
  top: "pool3_pos"
  pooling_param {
    pool: MAX
    kernel_shape {
      dim: 2
      dim: 2
      dim: 2
    }
    stride_shape {
      dim: 2
      dim: 2
      dim: 2
    }
  }
}
layer {
  name: "conv4a_pos"
  type: "NdConvolution"
  bottom: "pool3_pos"
  top: "conv4a_pos"
  param {
    name: "conv4a_w"
    lr_mult: 1
    decay_mult: 1
  }
  param {
    name: "conv4a_b"
    lr_mult: 2
    decay_mult: 0
  }
  convolution_param {
    num_output: 256
    weight_filler {
      type: "gaussian"
      std: 0.01
    }
    bias_filler {
      type: "constant"
      value: 1
    }
    pad_shape {
      dim: 1
      dim: 1
      dim: 1
    }
    kernel_shape {
      dim: 3
      dim: 3
      dim: 3
    }
    stride_shape {
      dim: 1
      dim: 1
      dim: 1
    }
  }
}
layer {
  name: "relu4a_pos"
  type: "ReLU"
  bottom: "conv4a_pos"
  top: "conv4a_pos"
}
layer {
  name: "pool4_pos"
  type: "NdPooling"
  bottom: "conv4a_pos"
  top: "pool4_pos"
  pooling_param {
    pool: MAX
    kernel_shape {
      dim: 2
      dim: 2
      dim: 2
    }
    stride_shape {
      dim: 2
      dim: 2
      dim: 2
    }
  }
}
layer {
  name: "conv5a_pos"
  type: "NdConvolution"
  bottom: "pool4_pos"
  top: "conv5a_pos"
  param {
    name: "conv5a_w"
    lr_mult: 1
    decay_mult: 1
  }
  param {
    name: "conv5a_b"
    lr_mult: 2
    decay_mult: 0
  }
  convolution_param {
    num_output: 256
    weight_filler {
      type: "gaussian"
      std: 0.01
    }
    bias_filler {
      type: "constant"
      value: 1
    }
    pad_shape {
      dim: 1
      dim: 1
      dim: 1
    }
    kernel_shape {
      dim: 3
      dim: 3
      dim: 3
    }
    stride_shape {
      dim: 1
      dim: 1
      dim: 1
    }
  }
}
layer {
  name: "relu5a_pos"
  type: "ReLU"
  bottom: "conv5a_pos"
  top: "conv5a_pos"
}
layer {
  name: "pool5_pos"
  type: "NdPooling"
  bottom: "conv5a_pos"
  top: "pool5_pos"
  pooling_param {
    pool: MAX
    kernel_shape {
      dim: 2
      dim: 2
      dim: 2
    }
    stride_shape {
      dim: 2
      dim: 2
      dim: 2
    }
  }
}
layer {
  name: "fc6_pos"
  type: "InnerProduct"
  bottom: "pool5_pos"
  top: "fc6_pos"
  param {
    name: "fc6_w"
    lr_mult: 1
    decay_mult: 1
  }
  param {
    name: "fc6_b"
    lr_mult: 2
    decay_mult: 0
  }
  inner_product_param {
    num_output: 2048
    weight_filler {
      type: "gaussian"
      std: 0.005
    }
    bias_filler {
      type: "constant"
      value: 1
    }
  }
}
layer {
  name: "relu6_pos"
  type: "ReLU"
  bottom: "fc6_pos"
  top: "fc6_pos"
}
layer {
  name: "drop6_pos"
  type: "Dropout"
  bottom: "fc6_pos"
  top: "fc6_pos"
  dropout_param {
    dropout_ratio: 0.5
  }
}
layer {
  name: "fc7_pos"
  type: "InnerProduct"
  bottom: "fc6_pos"
  top: "fc7_pos"
  param {
    name: "fc7_w"
    lr_mult: 1
    decay_mult: 1
  }
  param {
    name: "fc7_b"
    lr_mult: 2
    decay_mult: 0
  }
  inner_product_param {
    num_output: 2048
    weight_filler {
      type: "gaussian"
      std: 0.005
    }
    bias_filler {
      type: "constant"
      value: 1
    }
  }
}
layer {
  name: "relu7_pos"
  type: "ReLU"
  bottom: "fc7_pos"
  top: "fc7_pos"
}
layer {
  name: "drop7_pos"
  type: "Dropout"
  bottom: "fc7_pos"
  top: "fc7_pos"
  dropout_param {
    dropout_ratio: 0.5
  }
}
layer {
  name: "conv1a_neg"
  type: "NdConvolution"
  bottom: "negative"
  top: "conv1a_neg"
  param {
    name: "conv1a_w"
    lr_mult: 1
    decay_mult: 1
  }
  param {
    name: "conv1a_b"
    lr_mult: 2
    decay_mult: 0
  }
  convolution_param {
    num_output: 64
    weight_filler {
      type: "gaussian"
      std: 0.01
    }
    bias_filler {
      type: "constant"
      value: 0
    }
    pad_shape {
      dim: 1
      dim: 1
      dim: 1
    }
    kernel_shape {
      dim: 3
      dim: 3
      dim: 3
    }
    stride_shape {
      dim: 1
      dim: 1
      dim: 1
    }
  }
}
layer {
  name: "relu1a_neg"
  type: "ReLU"
  bottom: "conv1a_neg"
  top: "conv1a_neg"
}
layer {
  name: "pool1_neg"
  type: "NdPooling"
  bottom: "conv1a_neg"
  top: "pool1_neg"
  pooling_param {
    pool: MAX
    kernel_shape {
      dim: 1
      dim: 2
      dim: 2
    }
    stride_shape {
      dim: 1
      dim: 2
      dim: 2
    }
  }
}
layer {
  name: "conv2a_neg"
  type: "NdConvolution"
  bottom: "pool1_neg"
  top: "conv2a_neg"
  param {
    name: "conv2a_w"
    lr_mult: 1
    decay_mult: 1
  }
  param {
    name: "conv2a_b"
    lr_mult: 2
    decay_mult: 0
  }
  convolution_param {
    num_output: 128
    weight_filler {
      type: "gaussian"
      std: 0.01
    }
    bias_filler {
      type: "constant"
      value: 1
    }
    pad_shape {
      dim: 1
      dim: 1
      dim: 1
    }
    kernel_shape {
      dim: 3
      dim: 3
      dim: 3
    }
    stride_shape {
      dim: 1
      dim: 1
      dim: 1
    }
  }
}
layer {
  name: "relu2a_neg"
  type: "ReLU"
  bottom: "conv2a_neg"
  top: "conv2a_neg"
}
layer {
  name: "pool2_neg"
  type: "NdPooling"
  bottom: "conv2a_neg"
  top: "pool2_neg"
  pooling_param {
    pool: MAX
    kernel_shape {
      dim: 2
      dim: 2
      dim: 2
    }
    stride_shape {
      dim: 2
      dim: 2
      dim: 2
    }
  }
}
layer {
  name: "conv3a_neg"
  type: "NdConvolution"
  bottom: "pool2_neg"
  top: "conv3a_neg"
  param {
    name: "conv3a_w"
    lr_mult: 1
    decay_mult: 1
  }
  param {
    name: "conv3a_b"
    lr_mult: 2
    decay_mult: 0
  }
  convolution_param {
    num_output: 256
    weight_filler {
      type: "gaussian"
      std: 0.01
    }
    bias_filler {
      type: "constant"
      value: 1
    }
    pad_shape {
      dim: 1
      dim: 1
      dim: 1
    }
    kernel_shape {
      dim: 3
      dim: 3
      dim: 3
    }
    stride_shape {
      dim: 1
      dim: 1
      dim: 1
    }
  }
}
layer {
  name: "relu3a_neg"
  type: "ReLU"
  bottom: "conv3a_neg"
  top: "conv3a_neg"
}
layer {
  name: "pool3_neg"
  type: "NdPooling"
  bottom: "conv3a_neg"
  top: "pool3_neg"
  pooling_param {
    pool: MAX
    kernel_shape {
      dim: 2
      dim: 2
      dim: 2
    }
    stride_shape {
      dim: 2
      dim: 2
      dim: 2
    }
  }
}
layer {
  name: "conv4a_neg"
  type: "NdConvolution"
  bottom: "pool3_neg"
  top: "conv4a_neg"
  param {
    name: "conv4a_w"
    lr_mult: 1
    decay_mult: 1
  }
  param {
    name: "conv4a_b"
    lr_mult: 2
    decay_mult: 0
  }
  convolution_param {
    num_output: 256
    weight_filler {
      type: "gaussian"
      std: 0.01
    }
    bias_filler {
      type: "constant"
      value: 1
    }
    pad_shape {
      dim: 1
      dim: 1
      dim: 1
    }
    kernel_shape {
      dim: 3
      dim: 3
      dim: 3
    }
    stride_shape {
      dim: 1
      dim: 1
      dim: 1
    }
  }
}
layer {
  name: "relu4a_neg"
  type: "ReLU"
  bottom: "conv4a_neg"
  top: "conv4a_neg"
}
layer {
  name: "pool4_neg"
  type: "NdPooling"
  bottom: "conv4a_neg"
  top: "pool4_neg"
  pooling_param {
    pool: MAX
    kernel_shape {
      dim: 2
      dim: 2
      dim: 2
    }
    stride_shape {
      dim: 2
      dim: 2
      dim: 2
    }
  }
}
layer {
  name: "conv5a_neg"
  type: "NdConvolution"
  bottom: "pool4_neg"
  top: "conv5a_neg"
  param {
    name: "conv5a_w"
    lr_mult: 1
    decay_mult: 1
  }
  param {
    name: "conv5a_b"
    lr_mult: 2
    decay_mult: 0
  }
  convolution_param {
    num_output: 256
    weight_filler {
      type: "gaussian"
      std: 0.01
    }
    bias_filler {
      type: "constant"
      value: 1
    }
    pad_shape {
      dim: 1
      dim: 1
      dim: 1
    }
    kernel_shape {
      dim: 3
      dim: 3
      dim: 3
    }
    stride_shape {
      dim: 1
      dim: 1
      dim: 1
    }
  }
}
layer {
  name: "relu5a_neg"
  type: "ReLU"
  bottom: "conv5a_neg"
  top: "conv5a_neg"
}
layer {
  name: "pool5_neg"
  type: "NdPooling"
  bottom: "conv5a_neg"
  top: "pool5_neg"
  pooling_param {
    pool: MAX
    kernel_shape {
      dim: 2
      dim: 2
      dim: 2
    }
    stride_shape {
      dim: 2
      dim: 2
      dim: 2
    }
  }
}
layer {
  name: "fc6_neg"
  type: "InnerProduct"
  bottom: "pool5_neg"
  top: "fc6_neg"
  param {
    name: "fc6_w"
    lr_mult: 1
    decay_mult: 1
  }
  param {
    name: "fc6_b"
    lr_mult: 2
    decay_mult: 0
  }
  inner_product_param {
    num_output: 2048
    weight_filler {
      type: "gaussian"
      std: 0.005
    }
    bias_filler {
      type: "constant"
      value: 1
    }
  }
}
layer {
  name: "relu6_neg"
  type: "ReLU"
  bottom: "fc6_neg"
  top: "fc6_neg"
}
layer {
  name: "drop6_neg"
  type: "Dropout"
  bottom: "fc6_neg"
  top: "fc6_neg"
  dropout_param {
    dropout_ratio: 0.5
  }
}
layer {
  name: "fc7_neg"
  type: "InnerProduct"
  bottom: "fc6_neg"
  top: "fc7_neg"
  param {
    name: "fc7_w"
    lr_mult: 1
    decay_mult: 1
  }
  param {
    name: "fc7_b"
    lr_mult: 2
    decay_mult: 0
  }
  inner_product_param {
    num_output: 2048
    weight_filler {
      type: "gaussian"
      std: 0.005
    }
    bias_filler {
      type: "constant"
      value: 1
    }
  }
}
layer {
  name: "relu7_neg"
  type: "ReLU"
  bottom: "fc7_neg"
  top: "fc7_neg"
}
layer {
  name: "drop7_neg"
  type: "Dropout"
  bottom: "fc7_neg"
  top: "fc7_neg"
  dropout_param {
    dropout_ratio: 0.5
  }
}
layer {
  name: "loss"
  type: "TripletLoss"
  bottom: "fc7"
  bottom: "fc7_pos"
  bottom: "fc7_neg"
  top: "loss"
  threshold_param {
    threshold: 1
  }
}
I0505 14:02:20.927716 26400 layer_factory.hpp:77] Creating layer data
I0505 14:02:20.928624 26400 net.cpp:100] Creating Layer data
I0505 14:02:20.928644 26400 net.cpp:408] data -> triplet
I0505 14:02:21.014539 26412 db_lmdb.cpp:35] Opened lmdb /data/leo-data/Synthetic/LMDB/Triplets/train
I0505 14:02:21.207231 26400 data_layer.cpp:41] output data size: 18,144,112,112
I0505 14:02:21.459167 26400 net.cpp:150] Setting up data
I0505 14:02:21.459255 26400 net.cpp:157] Top shape: 18 144 112 112 (32514048)
I0505 14:02:21.459267 26400 net.cpp:165] Memory required for data: 130056192
I0505 14:02:21.459293 26400 layer_factory.hpp:77] Creating layer slicer
I0505 14:02:21.459341 26400 net.cpp:100] Creating Layer slicer
I0505 14:02:21.459353 26400 net.cpp:434] slicer <- triplet
I0505 14:02:21.459372 26400 net.cpp:408] slicer -> anchor_stacked
I0505 14:02:21.459391 26400 net.cpp:408] slicer -> positive_stacked
I0505 14:02:21.459405 26400 net.cpp:408] slicer -> negative_stacked
I0505 14:02:21.461225 26400 net.cpp:150] Setting up slicer
I0505 14:02:21.461266 26400 net.cpp:157] Top shape: 18 48 112 112 (10838016)
I0505 14:02:21.461279 26400 net.cpp:157] Top shape: 18 48 112 112 (10838016)
I0505 14:02:21.461290 26400 net.cpp:157] Top shape: 18 48 112 112 (10838016)
I0505 14:02:21.461299 26400 net.cpp:165] Memory required for data: 260112384
I0505 14:02:21.461318 26400 layer_factory.hpp:77] Creating layer reshape_anchor
I0505 14:02:21.461367 26400 net.cpp:100] Creating Layer reshape_anchor
I0505 14:02:21.461386 26400 net.cpp:434] reshape_anchor <- anchor_stacked
I0505 14:02:21.461428 26400 net.cpp:408] reshape_anchor -> anchor
I0505 14:02:21.461499 26400 net.cpp:150] Setting up reshape_anchor
I0505 14:02:21.461519 26400 net.cpp:157] Top shape: 18 3 16 112 112 (10838016)
I0505 14:02:21.461529 26400 net.cpp:165] Memory required for data: 303464448
I0505 14:02:21.461541 26400 layer_factory.hpp:77] Creating layer reshape_positive
I0505 14:02:21.461565 26400 net.cpp:100] Creating Layer reshape_positive
I0505 14:02:21.461577 26400 net.cpp:434] reshape_positive <- positive_stacked
I0505 14:02:21.461594 26400 net.cpp:408] reshape_positive -> positive
I0505 14:02:21.461681 26400 net.cpp:150] Setting up reshape_positive
I0505 14:02:21.461699 26400 net.cpp:157] Top shape: 18 3 16 112 112 (10838016)
I0505 14:02:21.461711 26400 net.cpp:165] Memory required for data: 346816512
I0505 14:02:21.461724 26400 layer_factory.hpp:77] Creating layer reshape_negative
I0505 14:02:21.461750 26400 net.cpp:100] Creating Layer reshape_negative
I0505 14:02:21.461760 26400 net.cpp:434] reshape_negative <- negative_stacked
I0505 14:02:21.461776 26400 net.cpp:408] reshape_negative -> negative
I0505 14:02:21.461829 26400 net.cpp:150] Setting up reshape_negative
I0505 14:02:21.461848 26400 net.cpp:157] Top shape: 18 3 16 112 112 (10838016)
I0505 14:02:21.461863 26400 net.cpp:165] Memory required for data: 390168576
I0505 14:02:21.461870 26400 layer_factory.hpp:77] Creating layer conv1a
I0505 14:02:21.461899 26400 net.cpp:100] Creating Layer conv1a
I0505 14:02:21.461911 26400 net.cpp:434] conv1a <- anchor
I0505 14:02:21.461931 26400 net.cpp:408] conv1a -> conv1a
I0505 14:02:21.538411 26416 blocking_queue.cpp:50] Waiting for data
I0505 14:02:22.167281 26400 net.cpp:150] Setting up conv1a
I0505 14:02:22.167373 26400 net.cpp:157] Top shape: 18 64 16 112 112 (231211008)
I0505 14:02:22.167395 26400 net.cpp:165] Memory required for data: 1315012608
I0505 14:02:22.167430 26400 layer_factory.hpp:77] Creating layer relu1a
I0505 14:02:22.167485 26400 net.cpp:100] Creating Layer relu1a
I0505 14:02:22.167505 26400 net.cpp:434] relu1a <- conv1a
I0505 14:02:22.167533 26400 net.cpp:395] relu1a -> conv1a (in-place)
I0505 14:02:22.169823 26400 net.cpp:150] Setting up relu1a
I0505 14:02:22.169854 26400 net.cpp:157] Top shape: 18 64 16 112 112 (231211008)
I0505 14:02:22.169860 26400 net.cpp:165] Memory required for data: 2239856640
I0505 14:02:22.169867 26400 layer_factory.hpp:77] Creating layer pool1
I0505 14:02:22.169891 26400 net.cpp:100] Creating Layer pool1
I0505 14:02:22.169898 26400 net.cpp:434] pool1 <- conv1a
I0505 14:02:22.169908 26400 net.cpp:408] pool1 -> pool1
I0505 14:02:22.170280 26400 net.cpp:150] Setting up pool1
I0505 14:02:22.170297 26400 net.cpp:157] Top shape: 18 64 16 56 56 (57802752)
I0505 14:02:22.170303 26400 net.cpp:165] Memory required for data: 2471067648
I0505 14:02:22.170310 26400 layer_factory.hpp:77] Creating layer conv2a
I0505 14:02:22.170327 26400 net.cpp:100] Creating Layer conv2a
I0505 14:02:22.170336 26400 net.cpp:434] conv2a <- pool1
I0505 14:02:22.170347 26400 net.cpp:408] conv2a -> conv2a
I0505 14:02:22.189543 26400 net.cpp:150] Setting up conv2a
I0505 14:02:22.189586 26400 net.cpp:157] Top shape: 18 128 16 56 56 (115605504)
I0505 14:02:22.189590 26400 net.cpp:165] Memory required for data: 2933489664
I0505 14:02:22.189604 26400 layer_factory.hpp:77] Creating layer relu2a
I0505 14:02:22.189615 26400 net.cpp:100] Creating Layer relu2a
I0505 14:02:22.189620 26400 net.cpp:434] relu2a <- conv2a
I0505 14:02:22.189625 26400 net.cpp:395] relu2a -> conv2a (in-place)
I0505 14:02:22.190748 26400 net.cpp:150] Setting up relu2a
I0505 14:02:22.190762 26400 net.cpp:157] Top shape: 18 128 16 56 56 (115605504)
I0505 14:02:22.190764 26400 net.cpp:165] Memory required for data: 3395911680
I0505 14:02:22.190768 26400 layer_factory.hpp:77] Creating layer pool2
I0505 14:02:22.190781 26400 net.cpp:100] Creating Layer pool2
I0505 14:02:22.190784 26400 net.cpp:434] pool2 <- conv2a
I0505 14:02:22.190791 26400 net.cpp:408] pool2 -> pool2
I0505 14:02:22.191017 26400 net.cpp:150] Setting up pool2
I0505 14:02:22.191030 26400 net.cpp:157] Top shape: 18 128 8 28 28 (14450688)
I0505 14:02:22.191033 26400 net.cpp:165] Memory required for data: 3453714432
I0505 14:02:22.191037 26400 layer_factory.hpp:77] Creating layer conv3a
I0505 14:02:22.191048 26400 net.cpp:100] Creating Layer conv3a
I0505 14:02:22.191052 26400 net.cpp:434] conv3a <- pool2
I0505 14:02:22.191058 26400 net.cpp:408] conv3a -> conv3a
I0505 14:02:22.232178 26400 net.cpp:150] Setting up conv3a
I0505 14:02:22.232216 26400 net.cpp:157] Top shape: 18 256 8 28 28 (28901376)
I0505 14:02:22.232221 26400 net.cpp:165] Memory required for data: 3569319936
I0505 14:02:22.232267 26400 layer_factory.hpp:77] Creating layer relu3a
I0505 14:02:22.232280 26400 net.cpp:100] Creating Layer relu3a
I0505 14:02:22.232285 26400 net.cpp:434] relu3a <- conv3a
I0505 14:02:22.232291 26400 net.cpp:395] relu3a -> conv3a (in-place)
I0505 14:02:22.235085 26400 net.cpp:150] Setting up relu3a
I0505 14:02:22.235100 26400 net.cpp:157] Top shape: 18 256 8 28 28 (28901376)
I0505 14:02:22.235105 26400 net.cpp:165] Memory required for data: 3684925440
I0505 14:02:22.235108 26400 layer_factory.hpp:77] Creating layer pool3
I0505 14:02:22.235118 26400 net.cpp:100] Creating Layer pool3
I0505 14:02:22.235121 26400 net.cpp:434] pool3 <- conv3a
I0505 14:02:22.235128 26400 net.cpp:408] pool3 -> pool3
I0505 14:02:22.235353 26400 net.cpp:150] Setting up pool3
I0505 14:02:22.235363 26400 net.cpp:157] Top shape: 18 256 4 14 14 (3612672)
I0505 14:02:22.235366 26400 net.cpp:165] Memory required for data: 3699376128
I0505 14:02:22.235370 26400 layer_factory.hpp:77] Creating layer conv4a
I0505 14:02:22.235379 26400 net.cpp:100] Creating Layer conv4a
I0505 14:02:22.235383 26400 net.cpp:434] conv4a <- pool3
I0505 14:02:22.235389 26400 net.cpp:408] conv4a -> conv4a
I0505 14:02:22.297482 26400 net.cpp:150] Setting up conv4a
I0505 14:02:22.297510 26400 net.cpp:157] Top shape: 18 256 4 14 14 (3612672)
I0505 14:02:22.297514 26400 net.cpp:165] Memory required for data: 3713826816
I0505 14:02:22.297528 26400 layer_factory.hpp:77] Creating layer relu4a
I0505 14:02:22.297538 26400 net.cpp:100] Creating Layer relu4a
I0505 14:02:22.297544 26400 net.cpp:434] relu4a <- conv4a
I0505 14:02:22.297551 26400 net.cpp:395] relu4a -> conv4a (in-place)
I0505 14:02:22.297744 26400 net.cpp:150] Setting up relu4a
I0505 14:02:22.297754 26400 net.cpp:157] Top shape: 18 256 4 14 14 (3612672)
I0505 14:02:22.297756 26400 net.cpp:165] Memory required for data: 3728277504
I0505 14:02:22.297760 26400 layer_factory.hpp:77] Creating layer pool4
I0505 14:02:22.297772 26400 net.cpp:100] Creating Layer pool4
I0505 14:02:22.297776 26400 net.cpp:434] pool4 <- conv4a
I0505 14:02:22.297782 26400 net.cpp:408] pool4 -> pool4
I0505 14:02:22.298802 26400 net.cpp:150] Setting up pool4
I0505 14:02:22.298816 26400 net.cpp:157] Top shape: 18 256 2 7 7 (451584)
I0505 14:02:22.298820 26400 net.cpp:165] Memory required for data: 3730083840
I0505 14:02:22.298822 26400 layer_factory.hpp:77] Creating layer conv5a
I0505 14:02:22.298833 26400 net.cpp:100] Creating Layer conv5a
I0505 14:02:22.298836 26400 net.cpp:434] conv5a <- pool4
I0505 14:02:22.298846 26400 net.cpp:408] conv5a -> conv5a
I0505 14:02:22.378887 26400 net.cpp:150] Setting up conv5a
I0505 14:02:22.378945 26400 net.cpp:157] Top shape: 18 256 2 7 7 (451584)
I0505 14:02:22.378949 26400 net.cpp:165] Memory required for data: 3731890176
I0505 14:02:22.378968 26400 layer_factory.hpp:77] Creating layer relu5a
I0505 14:02:22.378980 26400 net.cpp:100] Creating Layer relu5a
I0505 14:02:22.378984 26400 net.cpp:434] relu5a <- conv5a
I0505 14:02:22.378993 26400 net.cpp:395] relu5a -> conv5a (in-place)
I0505 14:02:22.379190 26400 net.cpp:150] Setting up relu5a
I0505 14:02:22.379201 26400 net.cpp:157] Top shape: 18 256 2 7 7 (451584)
I0505 14:02:22.379204 26400 net.cpp:165] Memory required for data: 3733696512
I0505 14:02:22.379209 26400 layer_factory.hpp:77] Creating layer pool5
I0505 14:02:22.379217 26400 net.cpp:100] Creating Layer pool5
I0505 14:02:22.379222 26400 net.cpp:434] pool5 <- conv5a
I0505 14:02:22.379230 26400 net.cpp:408] pool5 -> pool5
I0505 14:02:22.380478 26400 net.cpp:150] Setting up pool5
I0505 14:02:22.380492 26400 net.cpp:157] Top shape: 18 256 1 4 4 (73728)
I0505 14:02:22.380496 26400 net.cpp:165] Memory required for data: 3733991424
I0505 14:02:22.380499 26400 layer_factory.hpp:77] Creating layer fc6
I0505 14:02:22.380533 26400 net.cpp:100] Creating Layer fc6
I0505 14:02:22.380538 26400 net.cpp:434] fc6 <- pool5
I0505 14:02:22.380547 26400 net.cpp:408] fc6 -> fc6
I0505 14:02:22.666035 26400 net.cpp:150] Setting up fc6
I0505 14:02:22.666079 26400 net.cpp:157] Top shape: 18 2048 (36864)
I0505 14:02:22.666106 26400 net.cpp:165] Memory required for data: 3734138880
I0505 14:02:22.666119 26400 layer_factory.hpp:77] Creating layer relu6
I0505 14:02:22.666132 26400 net.cpp:100] Creating Layer relu6
I0505 14:02:22.666138 26400 net.cpp:434] relu6 <- fc6
I0505 14:02:22.666144 26400 net.cpp:395] relu6 -> fc6 (in-place)
I0505 14:02:22.666421 26400 net.cpp:150] Setting up relu6
I0505 14:02:22.666434 26400 net.cpp:157] Top shape: 18 2048 (36864)
I0505 14:02:22.666436 26400 net.cpp:165] Memory required for data: 3734286336
I0505 14:02:22.666453 26400 layer_factory.hpp:77] Creating layer drop6
I0505 14:02:22.666468 26400 net.cpp:100] Creating Layer drop6
I0505 14:02:22.666484 26400 net.cpp:434] drop6 <- fc6
I0505 14:02:22.666489 26400 net.cpp:395] drop6 -> fc6 (in-place)
I0505 14:02:22.666535 26400 net.cpp:150] Setting up drop6
I0505 14:02:22.666544 26400 net.cpp:157] Top shape: 18 2048 (36864)
I0505 14:02:22.666548 26400 net.cpp:165] Memory required for data: 3734433792
I0505 14:02:22.666553 26400 layer_factory.hpp:77] Creating layer fc7
I0505 14:02:22.666574 26400 net.cpp:100] Creating Layer fc7
I0505 14:02:22.666607 26400 net.cpp:434] fc7 <- fc6
I0505 14:02:22.666617 26400 net.cpp:408] fc7 -> fc7
I0505 14:02:22.872300 26400 net.cpp:150] Setting up fc7
I0505 14:02:22.872344 26400 net.cpp:157] Top shape: 18 2048 (36864)
I0505 14:02:22.872351 26400 net.cpp:165] Memory required for data: 3734581248
I0505 14:02:22.872370 26400 layer_factory.hpp:77] Creating layer relu7
I0505 14:02:22.872385 26400 net.cpp:100] Creating Layer relu7
I0505 14:02:22.872391 26400 net.cpp:434] relu7 <- fc7
I0505 14:02:22.872404 26400 net.cpp:395] relu7 -> fc7 (in-place)
I0505 14:02:22.876298 26400 net.cpp:150] Setting up relu7
I0505 14:02:22.876324 26400 net.cpp:157] Top shape: 18 2048 (36864)
I0505 14:02:22.876333 26400 net.cpp:165] Memory required for data: 3734728704
I0505 14:02:22.876340 26400 layer_factory.hpp:77] Creating layer drop7
I0505 14:02:22.876353 26400 net.cpp:100] Creating Layer drop7
I0505 14:02:22.876359 26400 net.cpp:434] drop7 <- fc7
I0505 14:02:22.876389 26400 net.cpp:395] drop7 -> fc7 (in-place)
I0505 14:02:22.876441 26400 net.cpp:150] Setting up drop7
I0505 14:02:22.876451 26400 net.cpp:157] Top shape: 18 2048 (36864)
I0505 14:02:22.876456 26400 net.cpp:165] Memory required for data: 3734876160
I0505 14:02:22.876466 26400 layer_factory.hpp:77] Creating layer conv1a_pos
I0505 14:02:22.876484 26400 net.cpp:100] Creating Layer conv1a_pos
I0505 14:02:22.876492 26400 net.cpp:434] conv1a_pos <- positive
I0505 14:02:22.876502 26400 net.cpp:408] conv1a_pos -> conv1a_pos
I0505 14:02:22.880934 26400 net.cpp:150] Setting up conv1a_pos
I0505 14:02:22.880970 26400 net.cpp:157] Top shape: 18 64 16 112 112 (231211008)
I0505 14:02:22.880976 26400 net.cpp:165] Memory required for data: 4659720192
I0505 14:02:22.880985 26400 net.cpp:493] Sharing parameters 'conv1a_w' owned by layer 'conv1a', param index 0
I0505 14:02:22.880995 26400 net.cpp:493] Sharing parameters 'conv1a_b' owned by layer 'conv1a', param index 1
I0505 14:02:22.881000 26400 layer_factory.hpp:77] Creating layer relu1a_pos
I0505 14:02:22.881016 26400 net.cpp:100] Creating Layer relu1a_pos
I0505 14:02:22.881024 26400 net.cpp:434] relu1a_pos <- conv1a_pos
I0505 14:02:22.881034 26400 net.cpp:395] relu1a_pos -> conv1a_pos (in-place)
I0505 14:02:22.881362 26400 net.cpp:150] Setting up relu1a_pos
I0505 14:02:22.881378 26400 net.cpp:157] Top shape: 18 64 16 112 112 (231211008)
I0505 14:02:22.881384 26400 net.cpp:165] Memory required for data: 5584564224
I0505 14:02:22.881391 26400 layer_factory.hpp:77] Creating layer pool1_pos
I0505 14:02:22.881407 26400 net.cpp:100] Creating Layer pool1_pos
I0505 14:02:22.881414 26400 net.cpp:434] pool1_pos <- conv1a_pos
I0505 14:02:22.881424 26400 net.cpp:408] pool1_pos -> pool1_pos
I0505 14:02:22.882587 26400 net.cpp:150] Setting up pool1_pos
I0505 14:02:22.882604 26400 net.cpp:157] Top shape: 18 64 16 56 56 (57802752)
I0505 14:02:22.882611 26400 net.cpp:165] Memory required for data: 5815775232
I0505 14:02:22.882618 26400 layer_factory.hpp:77] Creating layer conv2a_pos
I0505 14:02:22.882664 26400 net.cpp:100] Creating Layer conv2a_pos
I0505 14:02:22.882673 26400 net.cpp:434] conv2a_pos <- pool1_pos
I0505 14:02:22.882684 26400 net.cpp:408] conv2a_pos -> conv2a_pos
I0505 14:02:22.902297 26400 net.cpp:150] Setting up conv2a_pos
I0505 14:02:22.902333 26400 net.cpp:157] Top shape: 18 128 16 56 56 (115605504)
I0505 14:02:22.902339 26400 net.cpp:165] Memory required for data: 6278197248
I0505 14:02:22.902357 26400 net.cpp:493] Sharing parameters 'conv2a_w' owned by layer 'conv2a', param index 0
I0505 14:02:22.902367 26400 net.cpp:493] Sharing parameters 'conv2a_b' owned by layer 'conv2a', param index 1
I0505 14:02:22.902374 26400 layer_factory.hpp:77] Creating layer relu2a_pos
I0505 14:02:22.902387 26400 net.cpp:100] Creating Layer relu2a_pos
I0505 14:02:22.902398 26400 net.cpp:434] relu2a_pos <- conv2a_pos
I0505 14:02:22.902408 26400 net.cpp:395] relu2a_pos -> conv2a_pos (in-place)
I0505 14:02:22.902705 26400 net.cpp:150] Setting up relu2a_pos
I0505 14:02:22.902721 26400 net.cpp:157] Top shape: 18 128 16 56 56 (115605504)
I0505 14:02:22.902727 26400 net.cpp:165] Memory required for data: 6740619264
I0505 14:02:22.902734 26400 layer_factory.hpp:77] Creating layer pool2_pos
I0505 14:02:22.902748 26400 net.cpp:100] Creating Layer pool2_pos
I0505 14:02:22.902755 26400 net.cpp:434] pool2_pos <- conv2a_pos
I0505 14:02:22.902765 26400 net.cpp:408] pool2_pos -> pool2_pos
I0505 14:02:22.904453 26400 net.cpp:150] Setting up pool2_pos
I0505 14:02:22.904472 26400 net.cpp:157] Top shape: 18 128 8 28 28 (14450688)
I0505 14:02:22.904479 26400 net.cpp:165] Memory required for data: 6798422016
I0505 14:02:22.904485 26400 layer_factory.hpp:77] Creating layer conv3a_pos
I0505 14:02:22.904532 26400 net.cpp:100] Creating Layer conv3a_pos
I0505 14:02:22.904541 26400 net.cpp:434] conv3a_pos <- pool2_pos
I0505 14:02:22.904557 26400 net.cpp:408] conv3a_pos -> conv3a_pos
I0505 14:02:22.948072 26400 net.cpp:150] Setting up conv3a_pos
I0505 14:02:22.948103 26400 net.cpp:157] Top shape: 18 256 8 28 28 (28901376)
I0505 14:02:22.948109 26400 net.cpp:165] Memory required for data: 6914027520
I0505 14:02:22.948120 26400 net.cpp:493] Sharing parameters 'conv3a_w' owned by layer 'conv3a', param index 0
I0505 14:02:22.948128 26400 net.cpp:493] Sharing parameters 'conv3a_b' owned by layer 'conv3a', param index 1
I0505 14:02:22.948135 26400 layer_factory.hpp:77] Creating layer relu3a_pos
I0505 14:02:22.948150 26400 net.cpp:100] Creating Layer relu3a_pos
I0505 14:02:22.948158 26400 net.cpp:434] relu3a_pos <- conv3a_pos
I0505 14:02:22.948168 26400 net.cpp:395] relu3a_pos -> conv3a_pos (in-place)
I0505 14:02:22.949334 26400 net.cpp:150] Setting up relu3a_pos
I0505 14:02:22.949352 26400 net.cpp:157] Top shape: 18 256 8 28 28 (28901376)
I0505 14:02:22.949357 26400 net.cpp:165] Memory required for data: 7029633024
I0505 14:02:22.949363 26400 layer_factory.hpp:77] Creating layer pool3_pos
I0505 14:02:22.949380 26400 net.cpp:100] Creating Layer pool3_pos
I0505 14:02:22.949388 26400 net.cpp:434] pool3_pos <- conv3a_pos
I0505 14:02:22.949398 26400 net.cpp:408] pool3_pos -> pool3_pos
I0505 14:02:22.952219 26400 net.cpp:150] Setting up pool3_pos
I0505 14:02:22.952253 26400 net.cpp:157] Top shape: 18 256 4 14 14 (3612672)
I0505 14:02:22.952260 26400 net.cpp:165] Memory required for data: 7044083712
I0505 14:02:22.952266 26400 layer_factory.hpp:77] Creating layer conv4a_pos
I0505 14:02:22.952301 26400 net.cpp:100] Creating Layer conv4a_pos
I0505 14:02:22.952311 26400 net.cpp:434] conv4a_pos <- pool3_pos
I0505 14:02:22.952322 26400 net.cpp:408] conv4a_pos -> conv4a_pos
I0505 14:02:23.017271 26400 net.cpp:150] Setting up conv4a_pos
I0505 14:02:23.017300 26400 net.cpp:157] Top shape: 18 256 4 14 14 (3612672)
I0505 14:02:23.017305 26400 net.cpp:165] Memory required for data: 7058534400
I0505 14:02:23.017313 26400 net.cpp:493] Sharing parameters 'conv4a_w' owned by layer 'conv4a', param index 0
I0505 14:02:23.017319 26400 net.cpp:493] Sharing parameters 'conv4a_b' owned by layer 'conv4a', param index 1
I0505 14:02:23.017323 26400 layer_factory.hpp:77] Creating layer relu4a_pos
I0505 14:02:23.017359 26400 net.cpp:100] Creating Layer relu4a_pos
I0505 14:02:23.017364 26400 net.cpp:434] relu4a_pos <- conv4a_pos
I0505 14:02:23.017370 26400 net.cpp:395] relu4a_pos -> conv4a_pos (in-place)
I0505 14:02:23.018635 26400 net.cpp:150] Setting up relu4a_pos
I0505 14:02:23.018649 26400 net.cpp:157] Top shape: 18 256 4 14 14 (3612672)
I0505 14:02:23.018653 26400 net.cpp:165] Memory required for data: 7072985088
I0505 14:02:23.018657 26400 layer_factory.hpp:77] Creating layer pool4_pos
I0505 14:02:23.018667 26400 net.cpp:100] Creating Layer pool4_pos
I0505 14:02:23.018673 26400 net.cpp:434] pool4_pos <- conv4a_pos
I0505 14:02:23.018678 26400 net.cpp:408] pool4_pos -> pool4_pos
I0505 14:02:23.018921 26400 net.cpp:150] Setting up pool4_pos
I0505 14:02:23.018931 26400 net.cpp:157] Top shape: 18 256 2 7 7 (451584)
I0505 14:02:23.018934 26400 net.cpp:165] Memory required for data: 7074791424
I0505 14:02:23.018937 26400 layer_factory.hpp:77] Creating layer conv5a_pos
I0505 14:02:23.018949 26400 net.cpp:100] Creating Layer conv5a_pos
I0505 14:02:23.018954 26400 net.cpp:434] conv5a_pos <- pool4_pos
I0505 14:02:23.018960 26400 net.cpp:408] conv5a_pos -> conv5a_pos
I0505 14:02:23.087405 26400 net.cpp:150] Setting up conv5a_pos
I0505 14:02:23.087448 26400 net.cpp:157] Top shape: 18 256 2 7 7 (451584)
I0505 14:02:23.087455 26400 net.cpp:165] Memory required for data: 7076597760
I0505 14:02:23.087466 26400 net.cpp:493] Sharing parameters 'conv5a_w' owned by layer 'conv5a', param index 0
I0505 14:02:23.087474 26400 net.cpp:493] Sharing parameters 'conv5a_b' owned by layer 'conv5a', param index 1
I0505 14:02:23.087481 26400 layer_factory.hpp:77] Creating layer relu5a_pos
I0505 14:02:23.087494 26400 net.cpp:100] Creating Layer relu5a_pos
I0505 14:02:23.087502 26400 net.cpp:434] relu5a_pos <- conv5a_pos
I0505 14:02:23.087512 26400 net.cpp:395] relu5a_pos -> conv5a_pos (in-place)
I0505 14:02:23.088893 26400 net.cpp:150] Setting up relu5a_pos
I0505 14:02:23.088912 26400 net.cpp:157] Top shape: 18 256 2 7 7 (451584)
I0505 14:02:23.088917 26400 net.cpp:165] Memory required for data: 7078404096
I0505 14:02:23.088922 26400 layer_factory.hpp:77] Creating layer pool5_pos
I0505 14:02:23.088938 26400 net.cpp:100] Creating Layer pool5_pos
I0505 14:02:23.088943 26400 net.cpp:434] pool5_pos <- conv5a_pos
I0505 14:02:23.088954 26400 net.cpp:408] pool5_pos -> pool5_pos
I0505 14:02:23.089280 26400 net.cpp:150] Setting up pool5_pos
I0505 14:02:23.089295 26400 net.cpp:157] Top shape: 18 256 1 4 4 (73728)
I0505 14:02:23.089301 26400 net.cpp:165] Memory required for data: 7078699008
I0505 14:02:23.089306 26400 layer_factory.hpp:77] Creating layer fc6_pos
I0505 14:02:23.089324 26400 net.cpp:100] Creating Layer fc6_pos
I0505 14:02:23.089330 26400 net.cpp:434] fc6_pos <- pool5_pos
I0505 14:02:23.089339 26400 net.cpp:408] fc6_pos -> fc6_pos
I0505 14:02:23.385787 26400 net.cpp:150] Setting up fc6_pos
I0505 14:02:23.385819 26400 net.cpp:157] Top shape: 18 2048 (36864)
I0505 14:02:23.385823 26400 net.cpp:165] Memory required for data: 7078846464
I0505 14:02:23.385831 26400 net.cpp:493] Sharing parameters 'fc6_w' owned by layer 'fc6', param index 0
I0505 14:02:23.385848 26400 net.cpp:493] Sharing parameters 'fc6_b' owned by layer 'fc6', param index 1
I0505 14:02:23.385854 26400 layer_factory.hpp:77] Creating layer relu6_pos
I0505 14:02:23.385864 26400 net.cpp:100] Creating Layer relu6_pos
I0505 14:02:23.385869 26400 net.cpp:434] relu6_pos <- fc6_pos
I0505 14:02:23.385877 26400 net.cpp:395] relu6_pos -> fc6_pos (in-place)
I0505 14:02:23.392220 26400 net.cpp:150] Setting up relu6_pos
I0505 14:02:23.392268 26400 net.cpp:157] Top shape: 18 2048 (36864)
I0505 14:02:23.392277 26400 net.cpp:165] Memory required for data: 7078993920
I0505 14:02:23.392294 26400 layer_factory.hpp:77] Creating layer drop6_pos
I0505 14:02:23.392313 26400 net.cpp:100] Creating Layer drop6_pos
I0505 14:02:23.392323 26400 net.cpp:434] drop6_pos <- fc6_pos
I0505 14:02:23.392335 26400 net.cpp:395] drop6_pos -> fc6_pos (in-place)
I0505 14:02:23.392442 26400 net.cpp:150] Setting up drop6_pos
I0505 14:02:23.392455 26400 net.cpp:157] Top shape: 18 2048 (36864)
I0505 14:02:23.392462 26400 net.cpp:165] Memory required for data: 7079141376
I0505 14:02:23.392468 26400 layer_factory.hpp:77] Creating layer fc7_pos
I0505 14:02:23.392488 26400 net.cpp:100] Creating Layer fc7_pos
I0505 14:02:23.392495 26400 net.cpp:434] fc7_pos <- fc6_pos
I0505 14:02:23.392508 26400 net.cpp:408] fc7_pos -> fc7_pos
I0505 14:02:23.555563 26400 net.cpp:150] Setting up fc7_pos
I0505 14:02:23.555606 26400 net.cpp:157] Top shape: 18 2048 (36864)
I0505 14:02:23.555610 26400 net.cpp:165] Memory required for data: 7079288832
I0505 14:02:23.555619 26400 net.cpp:493] Sharing parameters 'fc7_w' owned by layer 'fc7', param index 0
I0505 14:02:23.555626 26400 net.cpp:493] Sharing parameters 'fc7_b' owned by layer 'fc7', param index 1
I0505 14:02:23.555630 26400 layer_factory.hpp:77] Creating layer relu7_pos
I0505 14:02:23.555640 26400 net.cpp:100] Creating Layer relu7_pos
I0505 14:02:23.555645 26400 net.cpp:434] relu7_pos <- fc7_pos
I0505 14:02:23.555658 26400 net.cpp:395] relu7_pos -> fc7_pos (in-place)
I0505 14:02:23.555954 26400 net.cpp:150] Setting up relu7_pos
I0505 14:02:23.555966 26400 net.cpp:157] Top shape: 18 2048 (36864)
I0505 14:02:23.555974 26400 net.cpp:165] Memory required for data: 7079436288
I0505 14:02:23.555994 26400 layer_factory.hpp:77] Creating layer drop7_pos
I0505 14:02:23.556008 26400 net.cpp:100] Creating Layer drop7_pos
I0505 14:02:23.556015 26400 net.cpp:434] drop7_pos <- fc7_pos
I0505 14:02:23.556023 26400 net.cpp:395] drop7_pos -> fc7_pos (in-place)
I0505 14:02:23.556063 26400 net.cpp:150] Setting up drop7_pos
I0505 14:02:23.556071 26400 net.cpp:157] Top shape: 18 2048 (36864)
I0505 14:02:23.556078 26400 net.cpp:165] Memory required for data: 7079583744
I0505 14:02:23.556087 26400 layer_factory.hpp:77] Creating layer conv1a_neg
I0505 14:02:23.556102 26400 net.cpp:100] Creating Layer conv1a_neg
I0505 14:02:23.556112 26400 net.cpp:434] conv1a_neg <- negative
I0505 14:02:23.556125 26400 net.cpp:408] conv1a_neg -> conv1a_neg
I0505 14:02:23.559483 26400 net.cpp:150] Setting up conv1a_neg
I0505 14:02:23.559500 26400 net.cpp:157] Top shape: 18 64 16 112 112 (231211008)
I0505 14:02:23.559510 26400 net.cpp:165] Memory required for data: 8004427776
I0505 14:02:23.559515 26400 net.cpp:493] Sharing parameters 'conv1a_w' owned by layer 'conv1a', param index 0
I0505 14:02:23.559521 26400 net.cpp:493] Sharing parameters 'conv1a_b' owned by layer 'conv1a', param index 1
I0505 14:02:23.559525 26400 layer_factory.hpp:77] Creating layer relu1a_neg
I0505 14:02:23.559540 26400 net.cpp:100] Creating Layer relu1a_neg
I0505 14:02:23.559546 26400 net.cpp:434] relu1a_neg <- conv1a_neg
I0505 14:02:23.559556 26400 net.cpp:395] relu1a_neg -> conv1a_neg (in-place)
I0505 14:02:23.564595 26400 net.cpp:150] Setting up relu1a_neg
I0505 14:02:23.564635 26400 net.cpp:157] Top shape: 18 64 16 112 112 (231211008)
I0505 14:02:23.564643 26400 net.cpp:165] Memory required for data: 8929271808
I0505 14:02:23.564654 26400 layer_factory.hpp:77] Creating layer pool1_neg
I0505 14:02:23.564676 26400 net.cpp:100] Creating Layer pool1_neg
I0505 14:02:23.564685 26400 net.cpp:434] pool1_neg <- conv1a_neg
I0505 14:02:23.564697 26400 net.cpp:408] pool1_neg -> pool1_neg
I0505 14:02:23.565151 26400 net.cpp:150] Setting up pool1_neg
I0505 14:02:23.565171 26400 net.cpp:157] Top shape: 18 64 16 56 56 (57802752)
I0505 14:02:23.565178 26400 net.cpp:165] Memory required for data: 9160482816
I0505 14:02:23.565184 26400 layer_factory.hpp:77] Creating layer conv2a_neg
I0505 14:02:23.565201 26400 net.cpp:100] Creating Layer conv2a_neg
I0505 14:02:23.565209 26400 net.cpp:434] conv2a_neg <- pool1_neg
I0505 14:02:23.565230 26400 net.cpp:408] conv2a_neg -> conv2a_neg
I0505 14:02:23.579275 26400 net.cpp:150] Setting up conv2a_neg
I0505 14:02:23.579303 26400 net.cpp:157] Top shape: 18 128 16 56 56 (115605504)
I0505 14:02:23.579311 26400 net.cpp:165] Memory required for data: 9622904832
I0505 14:02:23.579321 26400 net.cpp:493] Sharing parameters 'conv2a_w' owned by layer 'conv2a', param index 0
I0505 14:02:23.579365 26400 net.cpp:493] Sharing parameters 'conv2a_b' owned by layer 'conv2a', param index 1
I0505 14:02:23.579373 26400 layer_factory.hpp:77] Creating layer relu2a_neg
I0505 14:02:23.579388 26400 net.cpp:100] Creating Layer relu2a_neg
I0505 14:02:23.579397 26400 net.cpp:434] relu2a_neg <- conv2a_neg
I0505 14:02:23.579411 26400 net.cpp:395] relu2a_neg -> conv2a_neg (in-place)
I0505 14:02:23.581070 26400 net.cpp:150] Setting up relu2a_neg
I0505 14:02:23.581094 26400 net.cpp:157] Top shape: 18 128 16 56 56 (115605504)
I0505 14:02:23.581104 26400 net.cpp:165] Memory required for data: 10085326848
I0505 14:02:23.581112 26400 layer_factory.hpp:77] Creating layer pool2_neg
I0505 14:02:23.581130 26400 net.cpp:100] Creating Layer pool2_neg
I0505 14:02:23.581140 26400 net.cpp:434] pool2_neg <- conv2a_neg
I0505 14:02:23.581151 26400 net.cpp:408] pool2_neg -> pool2_neg
I0505 14:02:23.581621 26400 net.cpp:150] Setting up pool2_neg
I0505 14:02:23.581641 26400 net.cpp:157] Top shape: 18 128 8 28 28 (14450688)
I0505 14:02:23.581650 26400 net.cpp:165] Memory required for data: 10143129600
I0505 14:02:23.581656 26400 layer_factory.hpp:77] Creating layer conv3a_neg
I0505 14:02:23.581676 26400 net.cpp:100] Creating Layer conv3a_neg
I0505 14:02:23.581686 26400 net.cpp:434] conv3a_neg <- pool2_neg
I0505 14:02:23.581697 26400 net.cpp:408] conv3a_neg -> conv3a_neg
I0505 14:02:23.636121 26400 net.cpp:150] Setting up conv3a_neg
I0505 14:02:23.636148 26400 net.cpp:157] Top shape: 18 256 8 28 28 (28901376)
I0505 14:02:23.636154 26400 net.cpp:165] Memory required for data: 10258735104
I0505 14:02:23.636168 26400 net.cpp:493] Sharing parameters 'conv3a_w' owned by layer 'conv3a', param index 0
I0505 14:02:23.636181 26400 net.cpp:493] Sharing parameters 'conv3a_b' owned by layer 'conv3a', param index 1
I0505 14:02:23.636188 26400 layer_factory.hpp:77] Creating layer relu3a_neg
I0505 14:02:23.636198 26400 net.cpp:100] Creating Layer relu3a_neg
I0505 14:02:23.636204 26400 net.cpp:434] relu3a_neg <- conv3a_neg
I0505 14:02:23.636212 26400 net.cpp:395] relu3a_neg -> conv3a_neg (in-place)
I0505 14:02:23.636504 26400 net.cpp:150] Setting up relu3a_neg
I0505 14:02:23.636521 26400 net.cpp:157] Top shape: 18 256 8 28 28 (28901376)
I0505 14:02:23.636526 26400 net.cpp:165] Memory required for data: 10374340608
I0505 14:02:23.636531 26400 layer_factory.hpp:77] Creating layer pool3_neg
I0505 14:02:23.636543 26400 net.cpp:100] Creating Layer pool3_neg
I0505 14:02:23.636549 26400 net.cpp:434] pool3_neg <- conv3a_neg
I0505 14:02:23.636559 26400 net.cpp:408] pool3_neg -> pool3_neg
I0505 14:02:23.640774 26400 net.cpp:150] Setting up pool3_neg
I0505 14:02:23.640790 26400 net.cpp:157] Top shape: 18 256 4 14 14 (3612672)
I0505 14:02:23.640794 26400 net.cpp:165] Memory required for data: 10388791296
I0505 14:02:23.640803 26400 layer_factory.hpp:77] Creating layer conv4a_neg
I0505 14:02:23.640815 26400 net.cpp:100] Creating Layer conv4a_neg
I0505 14:02:23.640818 26400 net.cpp:434] conv4a_neg <- pool3_neg
I0505 14:02:23.640826 26400 net.cpp:408] conv4a_neg -> conv4a_neg
I0505 14:02:23.704025 26400 net.cpp:150] Setting up conv4a_neg
I0505 14:02:23.704053 26400 net.cpp:157] Top shape: 18 256 4 14 14 (3612672)
I0505 14:02:23.704057 26400 net.cpp:165] Memory required for data: 10403241984
I0505 14:02:23.704066 26400 net.cpp:493] Sharing parameters 'conv4a_w' owned by layer 'conv4a', param index 0
I0505 14:02:23.704071 26400 net.cpp:493] Sharing parameters 'conv4a_b' owned by layer 'conv4a', param index 1
I0505 14:02:23.704075 26400 layer_factory.hpp:77] Creating layer relu4a_neg
I0505 14:02:23.704087 26400 net.cpp:100] Creating Layer relu4a_neg
I0505 14:02:23.704092 26400 net.cpp:434] relu4a_neg <- conv4a_neg
I0505 14:02:23.704107 26400 net.cpp:395] relu4a_neg -> conv4a_neg (in-place)
I0505 14:02:23.704298 26400 net.cpp:150] Setting up relu4a_neg
I0505 14:02:23.704308 26400 net.cpp:157] Top shape: 18 256 4 14 14 (3612672)
I0505 14:02:23.704311 26400 net.cpp:165] Memory required for data: 10417692672
I0505 14:02:23.704347 26400 layer_factory.hpp:77] Creating layer pool4_neg
I0505 14:02:23.704365 26400 net.cpp:100] Creating Layer pool4_neg
I0505 14:02:23.704383 26400 net.cpp:434] pool4_neg <- conv4a_neg
I0505 14:02:23.704391 26400 net.cpp:408] pool4_neg -> pool4_neg
I0505 14:02:23.705579 26400 net.cpp:150] Setting up pool4_neg
I0505 14:02:23.705592 26400 net.cpp:157] Top shape: 18 256 2 7 7 (451584)
I0505 14:02:23.705595 26400 net.cpp:165] Memory required for data: 10419499008
I0505 14:02:23.705600 26400 layer_factory.hpp:77] Creating layer conv5a_neg
I0505 14:02:23.705611 26400 net.cpp:100] Creating Layer conv5a_neg
I0505 14:02:23.705617 26400 net.cpp:434] conv5a_neg <- pool4_neg
I0505 14:02:23.705623 26400 net.cpp:408] conv5a_neg -> conv5a_neg
I0505 14:02:23.818276 26400 net.cpp:150] Setting up conv5a_neg
I0505 14:02:23.818318 26400 net.cpp:157] Top shape: 18 256 2 7 7 (451584)
I0505 14:02:23.818326 26400 net.cpp:165] Memory required for data: 10421305344
I0505 14:02:23.818341 26400 net.cpp:493] Sharing parameters 'conv5a_w' owned by layer 'conv5a', param index 0
I0505 14:02:23.818351 26400 net.cpp:493] Sharing parameters 'conv5a_b' owned by layer 'conv5a', param index 1
I0505 14:02:23.818358 26400 layer_factory.hpp:77] Creating layer relu5a_neg
I0505 14:02:23.818374 26400 net.cpp:100] Creating Layer relu5a_neg
I0505 14:02:23.818387 26400 net.cpp:434] relu5a_neg <- conv5a_neg
I0505 14:02:23.818400 26400 net.cpp:395] relu5a_neg -> conv5a_neg (in-place)
I0505 14:02:23.818825 26400 net.cpp:150] Setting up relu5a_neg
I0505 14:02:23.818842 26400 net.cpp:157] Top shape: 18 256 2 7 7 (451584)
I0505 14:02:23.818848 26400 net.cpp:165] Memory required for data: 10423111680
I0505 14:02:23.818855 26400 layer_factory.hpp:77] Creating layer pool5_neg
I0505 14:02:23.818871 26400 net.cpp:100] Creating Layer pool5_neg
I0505 14:02:23.818881 26400 net.cpp:434] pool5_neg <- conv5a_neg
I0505 14:02:23.818892 26400 net.cpp:408] pool5_neg -> pool5_neg
I0505 14:02:23.820359 26400 net.cpp:150] Setting up pool5_neg
I0505 14:02:23.820386 26400 net.cpp:157] Top shape: 18 256 1 4 4 (73728)
I0505 14:02:23.820397 26400 net.cpp:165] Memory required for data: 10423406592
I0505 14:02:23.820410 26400 layer_factory.hpp:77] Creating layer fc6_neg
I0505 14:02:23.820437 26400 net.cpp:100] Creating Layer fc6_neg
I0505 14:02:23.820448 26400 net.cpp:434] fc6_neg <- pool5_neg
I0505 14:02:23.820463 26400 net.cpp:408] fc6_neg -> fc6_neg
I0505 14:02:24.151684 26400 net.cpp:150] Setting up fc6_neg
I0505 14:02:24.151733 26400 net.cpp:157] Top shape: 18 2048 (36864)
I0505 14:02:24.151738 26400 net.cpp:165] Memory required for data: 10423554048
I0505 14:02:24.151752 26400 net.cpp:493] Sharing parameters 'fc6_w' owned by layer 'fc6', param index 0
I0505 14:02:24.151760 26400 net.cpp:493] Sharing parameters 'fc6_b' owned by layer 'fc6', param index 1
I0505 14:02:24.151765 26400 layer_factory.hpp:77] Creating layer relu6_neg
I0505 14:02:24.151778 26400 net.cpp:100] Creating Layer relu6_neg
I0505 14:02:24.151787 26400 net.cpp:434] relu6_neg <- fc6_neg
I0505 14:02:24.151794 26400 net.cpp:395] relu6_neg -> fc6_neg (in-place)
I0505 14:02:24.161353 26400 net.cpp:150] Setting up relu6_neg
I0505 14:02:24.161367 26400 net.cpp:157] Top shape: 18 2048 (36864)
I0505 14:02:24.161383 26400 net.cpp:165] Memory required for data: 10423701504
I0505 14:02:24.161387 26400 layer_factory.hpp:77] Creating layer drop6_neg
I0505 14:02:24.161418 26400 net.cpp:100] Creating Layer drop6_neg
I0505 14:02:24.161427 26400 net.cpp:434] drop6_neg <- fc6_neg
I0505 14:02:24.161433 26400 net.cpp:395] drop6_neg -> fc6_neg (in-place)
I0505 14:02:24.161475 26400 net.cpp:150] Setting up drop6_neg
I0505 14:02:24.161485 26400 net.cpp:157] Top shape: 18 2048 (36864)
I0505 14:02:24.161489 26400 net.cpp:165] Memory required for data: 10423848960
I0505 14:02:24.161495 26400 layer_factory.hpp:77] Creating layer fc7_neg
I0505 14:02:24.161514 26400 net.cpp:100] Creating Layer fc7_neg
I0505 14:02:24.161521 26400 net.cpp:434] fc7_neg <- fc6_neg
I0505 14:02:24.161533 26400 net.cpp:408] fc7_neg -> fc7_neg
I0505 14:02:24.367846 26400 net.cpp:150] Setting up fc7_neg
I0505 14:02:24.367913 26400 net.cpp:157] Top shape: 18 2048 (36864)
I0505 14:02:24.367919 26400 net.cpp:165] Memory required for data: 10423996416
I0505 14:02:24.367929 26400 net.cpp:493] Sharing parameters 'fc7_w' owned by layer 'fc7', param index 0
I0505 14:02:24.367938 26400 net.cpp:493] Sharing parameters 'fc7_b' owned by layer 'fc7', param index 1
I0505 14:02:24.367943 26400 layer_factory.hpp:77] Creating layer relu7_neg
I0505 14:02:24.367954 26400 net.cpp:100] Creating Layer relu7_neg
I0505 14:02:24.367959 26400 net.cpp:434] relu7_neg <- fc7_neg
I0505 14:02:24.367967 26400 net.cpp:395] relu7_neg -> fc7_neg (in-place)
I0505 14:02:24.374588 26400 net.cpp:150] Setting up relu7_neg
I0505 14:02:24.374608 26400 net.cpp:157] Top shape: 18 2048 (36864)
I0505 14:02:24.374617 26400 net.cpp:165] Memory required for data: 10424143872
I0505 14:02:24.374622 26400 layer_factory.hpp:77] Creating layer drop7_neg
I0505 14:02:24.374636 26400 net.cpp:100] Creating Layer drop7_neg
I0505 14:02:24.374641 26400 net.cpp:434] drop7_neg <- fc7_neg
I0505 14:02:24.374650 26400 net.cpp:395] drop7_neg -> fc7_neg (in-place)
I0505 14:02:24.374712 26400 net.cpp:150] Setting up drop7_neg
I0505 14:02:24.374722 26400 net.cpp:157] Top shape: 18 2048 (36864)
I0505 14:02:24.374727 26400 net.cpp:165] Memory required for data: 10424291328
I0505 14:02:24.374730 26400 layer_factory.hpp:77] Creating layer loss
I0505 14:02:24.375314 26400 net.cpp:100] Creating Layer loss
I0505 14:02:24.375331 26400 net.cpp:434] loss <- fc7
I0505 14:02:24.375339 26400 net.cpp:434] loss <- fc7_pos
I0505 14:02:24.375344 26400 net.cpp:434] loss <- fc7_neg
I0505 14:02:24.375358 26400 net.cpp:408] loss -> loss
…
    mean_value: 65
    mean_value: 74
    mean_value: 92
    mean_value: 65
    mean_value: 74
    mean_value: 92
    mean_value: 65
    mean_value: 74
    mean_value: 92
    mean_value: 65
    mean_value: 74
    mean_value: 92
    mean_value: 65
    mean_value: 74
    mean_value: 92
    mean_value: 65
    mean_value: 74
    mean_value: 92
    mean_value: 65
    mean_value: 74
    mean_value: 92
    mean_value: 65
    mean_value: 74
    mean_value: 92
  }
  data_param {
    source: "/data/leo-data/Synthetic/LMDB/Triplets/val"
    batch_size: 1
    backend: LMDB
  }
}
layer {
  name: "slicer"
  type: "Slice"
  bottom: "triplet"
  top: "anchor_stacked"
  top: "positive_stacked"
  top: "negative_stacked"
  slice_param {
    slice_dim: 1
    slice_point: 48
    slice_point: 96
  }
}
layer {
  name: "reshape_anchor"
  type: "Reshape"
  bottom: "anchor_stacked"
  top: "anchor"
  reshape_param {
    shape {
      dim: 0
      dim: 3
      dim: 16
      dim: 112
      dim: 112
    }
  }
}
layer {
  name: "reshape_positive"
  type: "Reshape"
  bottom: "positive_stacked"
  top: "positive"
  reshape_param {
    shape {
      dim: 0
      dim: 3
      dim: 16
      dim: 112
      dim: 112
    }
  }
}
layer {
  name: "reshape_negative"
  type: "Reshape"
  bottom: "negative_stacked"
  top: "negative"
  reshape_param {
    shape {
      dim: 0
      dim: 3
      dim: 16
      dim: 112
      dim: 112
    }
  }
}
layer {
  name: "conv1a"
  type: "NdConvolution"
  bottom: "anchor"
  top: "conv1a"
  param {
    name: "conv1a_w"
    lr_mult: 1
    decay_mult: 1
  }
  param {
    name: "conv1a_b"
    lr_mult: 2
    decay_mult: 0
  }
  convolution_param {
    num_output: 64
    weight_filler {
      type: "gaussian"
      std: 0.01
    }
    bias_filler {
      type: "constant"
      value: 0
    }
    pad_shape {
      dim: 1
      dim: 1
      dim: 1
    }
    kernel_shape {
      dim: 3
      dim: 3
      dim: 3
    }
    stride_shape {
      dim: 1
      dim: 1
      dim: 1
    }
  }
}
layer {
  name: "relu1a"
  type: "ReLU"
  bottom: "conv1a"
  top: "conv1a"
}
layer {
  name: "pool1"
  type: "NdPooling"
  bottom: "conv1a"
  top: "pool1"
  pooling_param {
    pool: MAX
    kernel_shape {
      dim: 1
      dim: 2
      dim: 2
    }
    stride_shape {
      dim: 1
      dim: 2
      dim: 2
    }
  }
}
layer {
  name: "conv2a"
  type: "NdConvolution"
  bottom: "pool1"
  top: "conv2a"
  param {
    name: "conv2a_w"
    lr_mult: 1
    decay_mult: 1
  }
  param {
    name: "conv2a_b"
    lr_mult: 2
    decay_mult: 0
  }
  convolution_param {
    num_output: 128
    weight_filler {
      type: "gaussian"
      std: 0.01
    }
    bias_filler {
      type: "constant"
      value: 1
    }
    pad_shape {
      dim: 1
      dim: 1
      dim: 1
    }
    kernel_shape {
      dim: 3
      dim: 3
      dim: 3
    }
    stride_shape {
      dim: 1
      dim: 1
      dim: 1
    }
  }
}
layer {
  name: "relu2a"
  type: "ReLU"
  bottom: "conv2a"
  top: "conv2a"
}
layer {
  name: "pool2"
  type: "NdPooling"
  bottom: "conv2a"
  top: "pool2"
  pooling_param {
    pool: MAX
    kernel_shape {
      dim: 2
      dim: 2
      dim: 2
    }
    stride_shape {
      dim: 2
      dim: 2
      dim: 2
    }
  }
}
layer {
  name: "conv3a"
  type: "NdConvolution"
  bottom: "pool2"
  top: "conv3a"
  param {
    name: "conv3a_w"
    lr_mult: 1
    decay_mult: 1
  }
  param {
    name: "conv3a_b"
    lr_mult: 2
    decay_mult: 0
  }
  convolution_param {
    num_output: 256
    weight_filler {
      type: "gaussian"
      std: 0.01
    }
    bias_filler {
      type: "constant"
      value: 1
    }
    pad_shape {
      dim: 1
      dim: 1
      dim: 1
    }
    kernel_shape {
      dim: 3
      dim: 3
      dim: 3
    }
    stride_shape {
      dim: 1
      dim: 1
      dim: 1
    }
  }
}
layer {
  name: "relu3a"
  type: "ReLU"
  bottom: "conv3a"
  top: "conv3a"
}
layer {
  name: "pool3"
  type: "NdPooling"
  bottom: "conv3a"
  top: "pool3"
  pooling_param {
    pool: MAX
    kernel_shape {
      dim: 2
      dim: 2
      dim: 2
    }
    stride_shape {
      dim: 2
      dim: 2
      dim: 2
    }
  }
}
layer {
  name: "conv4a"
  type: "NdConvolution"
  bottom: "pool3"
  top: "conv4a"
  param {
    name: "conv4a_w"
    lr_mult: 1
    decay_mult: 1
  }
  param {
    name: "conv4a_b"
    lr_mult: 2
    decay_mult: 0
  }
  convolution_param {
    num_output: 256
    weight_filler {
      type: "gaussian"
      std: 0.01
    }
    bias_filler {
      type: "constant"
      value: 1
    }
    pad_shape {
      dim: 1
      dim: 1
      dim: 1
    }
    kernel_shape {
      dim: 3
      dim: 3
      dim: 3
    }
    stride_shape {
      dim: 1
      dim: 1
      dim: 1
    }
  }
}
layer {
  name: "relu4a"
  type: "ReLU"
  bottom: "conv4a"
  top: "conv4a"
}
layer {
  name: "pool4"
  type: "NdPooling"
  bottom: "conv4a"
  top: "pool4"
  pooling_param {
    pool: MAX
    kernel_shape {
      dim: 2
      dim: 2
      dim: 2
    }
    stride_shape {
      dim: 2
      dim: 2
      dim: 2
    }
  }
}
layer {
  name: "conv5a"
  type: "NdConvolution"
  bottom: "pool4"
  top: "conv5a"
  param {
    name: "conv5a_w"
    lr_mult: 1
    decay_mult: 1
  }
  param {
    name: "conv5a_b"
    lr_mult: 2
    decay_mult: 0
  }
  convolution_param {
    num_output: 256
    weight_filler {
      type: "gaussian"
      std: 0.01
    }
    bias_filler {
      type: "constant"
      value: 1
    }
    pad_shape {
      dim: 1
      dim: 1
      dim: 1
    }
    kernel_shape {
      dim: 3
      dim: 3
      dim: 3
    }
    stride_shape {
      dim: 1
      dim: 1
      dim: 1
    }
  }
}
layer {
  name: "relu5a"
  type: "ReLU"
  bottom: "conv5a"
  top: "conv5a"
}
layer {
  name: "pool5"
  type: "NdPooling"
  bottom: "conv5a"
  top: "pool5"
  pooling_param {
    pool: MAX
    kernel_shape {
      dim: 2
      dim: 2
      dim: 2
    }
    stride_shape {
      dim: 2
      dim: 2
      dim: 2
    }
  }
}
layer {
  name: "fc6"
  type: "InnerProduct"
  bottom: "pool5"
  top: "fc6"
  param {
    name: "fc6_w"
    lr_mult: 1
    decay_mult: 1
  }
  param {
    name: "fc6_b"
    lr_mult: 2
    decay_mult: 0
  }
  inner_product_param {
    num_output: 2048
    weight_filler {
      type: "gaussian"
      std: 0.005
    }
    bias_filler {
      type: "constant"
      value: 1
    }
  }
}
layer {
  name: "relu6"
  type: "ReLU"
  bottom: "fc6"
  top: "fc6"
}
layer {
  name: "drop6"
  type: "Dropout"
  bottom: "fc6"
  top: "fc6"
  dropout_param {
    dropout_ratio: 0.5
  }
}
layer {
  name: "fc7"
  type: "InnerProduct"
  bottom: "fc6"
  top: "fc7"
  param {
    name: "fc7_w"
    lr_mult: 1
    decay_mult: 1
  }
  param {
    name: "fc7_b"
    lr_mult: 2
    decay_mult: 0
  }
  inner_product_param {
    num_output: 2048
    weight_filler {
      type: "gaussian"
      std: 0.005
    }
    bias_filler {
      type: "constant"
      value: 1
    }
  }
}
layer {
  name: "relu7"
  type: "ReLU"
  bottom: "fc7"
  top: "fc7"
}
layer {
  name: "drop7"
  type: "Dropout"
  bottom: "fc7"
  top: "fc7"
  dropout_param {
    dropout_ratio: 0.5
  }
}
layer {
  name: "conv1a_pos"
  type: "NdConvolution"
  bottom: "positive"
  top: "conv1a_pos"
  param {
    name: "conv1a_w"
    lr_mult: 1
    decay_mult: 1
  }
  param {
    name: "conv1a_b"
    lr_mult: 2
    decay_mult: 0
  }
  convolution_param {
    num_output: 64
    weight_filler {
      type: "gaussian"
      std: 0.01
    }
    bias_filler {
      type: "constant"
      value: 0
    }
    pad_shape {
      dim: 1
      dim: 1
      dim: 1
    }
    kernel_shape {
      dim: 3
      dim: 3
      dim: 3
    }
    stride_shape {
      dim: 1
      dim: 1
      dim: 1
    }
  }
}
layer {
  name: "relu1a_pos"
  type: "ReLU"
  bottom: "conv1a_pos"
  top: "conv1a_pos"
}
layer {
  name: "pool1_pos"
  type: "NdPooling"
  bottom: "conv1a_pos"
  top: "pool1_pos"
  pooling_param {
    pool: MAX
    kernel_shape {
      dim: 1
      dim: 2
      dim: 2
    }
    stride_shape {
      dim: 1
      dim: 2
      dim: 2
    }
  }
}
layer {
  name: "conv2a_pos"
  type: "NdConvolution"
  bottom: "pool1_pos"
  top: "conv2a_pos"
  param {
    name: "conv2a_w"
    lr_mult: 1
    decay_mult: 1
  }
  param {
    name: "conv2a_b"
    lr_mult: 2
    decay_mult: 0
  }
  convolution_param {
    num_output: 128
    weight_filler {
      type: "gaussian"
      std: 0.01
    }
    bias_filler {
      type: "constant"
      value: 1
    }
    pad_shape {
      dim: 1
      dim: 1
      dim: 1
    }
    kernel_shape {
      dim: 3
      dim: 3
      dim: 3
    }
    stride_shape {
      dim: 1
      dim: 1
      dim: 1
    }
  }
}
layer {
  name: "relu2a_pos"
  type: "ReLU"
  bottom: "conv2a_pos"
  top: "conv2a_pos"
}
layer {
  name: "pool2_pos"
  type: "NdPooling"
  bottom: "conv2a_pos"
  top: "pool2_pos"
  pooling_param {
    pool: MAX
    kernel_shape {
      dim: 2
      dim: 2
      dim: 2
    }
    stride_shape {
      dim: 2
      dim: 2
      dim: 2
    }
  }
}
layer {
  name: "conv3a_pos"
  type: "NdConvolution"
  bottom: "pool2_pos"
  top: "conv3a_pos"
  param {
    name: "conv3a_w"
    lr_mult: 1
    decay_mult: 1
  }
  param {
    name: "conv3a_b"
    lr_mult: 2
    decay_mult: 0
  }
  convolution_param {
    num_output: 256
    weight_filler {
      type: "gaussian"
      std: 0.01
    }
    bias_filler {
      type: "constant"
      value: 1
    }
    pad_shape {
      dim: 1
      dim: 1
      dim: 1
    }
    kernel_shape {
      dim: 3
      dim: 3
      dim: 3
    }
    stride_shape {
      dim: 1
      dim: 1
      dim: 1
    }
  }
}
layer {
  name: "relu3a_pos"
  type: "ReLU"
  bottom: "conv3a_pos"
  top: "conv3a_pos"
}
layer {
  name: "pool3_pos"
  type: "NdPooling"
  bottom: "conv3a_pos"
  top: "pool3_pos"
  pooling_param {
    pool: MAX
    kernel_shape {
      dim: 2
      dim: 2
      dim: 2
    }
    stride_shape {
      dim: 2
      dim: 2
      dim: 2
    }
  }
}
layer {
  name: "conv4a_pos"
  type: "NdConvolution"
  bottom: "pool3_pos"
  top: "conv4a_pos"
  param {
    name: "conv4a_w"
    lr_mult: 1
    decay_mult: 1
  }
  param {
    name: "conv4a_b"
    lr_mult: 2
    decay_mult: 0
  }
  convolution_param {
    num_output: 256
    weight_filler {
      type: "gaussian"
      std: 0.01
    }
    bias_filler {
      type: "constant"
      value: 1
    }
    pad_shape {
      dim: 1
      dim: 1
      dim: 1
    }
    kernel_shape {
      dim: 3
      dim: 3
      dim: 3
    }
    stride_shape {
      dim: 1
      dim: 1
      dim: 1
    }
  }
}
layer {
  name: "relu4a_pos"
  type: "ReLU"
  bottom: "conv4a_pos"
  top: "conv4a_pos"
}
layer {
  name: "pool4_pos"
  type: "NdPooling"
  bottom: "conv4a_pos"
  top: "pool4_pos"
  pooling_param {
    pool: MAX
    kernel_shape {
      dim: 2
      dim: 2
      dim: 2
    }
    stride_shape {
      dim: 2
      dim: 2
      dim: 2
    }
  }
}
layer {
  name: "conv5a_pos"
  type: "NdConvolution"
  bottom: "pool4_pos"
  top: "conv5a_pos"
  param {
    name: "conv5a_w"
    lr_mult: 1
    decay_mult: 1
  }
  param {
    name: "conv5a_b"
    lr_mult: 2
    decay_mult: 0
  }
  convolution_param {
    num_output: 256
    weight_filler {
      type: "gaussian"
      std: 0.01
    }
    bias_filler {
      type: "constant"
      value: 1
    }
    pad_shape {
      dim: 1
      dim: 1
      dim: 1
    }
    kernel_shape {
      dim: 3
      dim: 3
      dim: 3
    }
    stride_shape {
      dim: 1
      dim: 1
      dim: 1
    }
  }
}
layer {
  name: "relu5a_pos"
  type: "ReLU"
  bottom: "conv5a_pos"
  top: "conv5a_pos"
}
layer {
  name: "pool5_pos"
  type: "NdPooling"
  bottom: "conv5a_pos"
  top: "pool5_pos"
  pooling_param {
    pool: MAX
    kernel_shape {
      dim: 2
      dim: 2
      dim: 2
    }
    stride_shape {
      dim: 2
      dim: 2
      dim: 2
    }
  }
}
layer {
  name: "fc6_pos"
  type: "InnerProduct"
  bottom: "pool5_pos"
  top: "fc6_pos"
  param {
    name: "fc6_w"
    lr_mult: 1
    decay_mult: 1
  }
  param {
    name: "fc6_b"
    lr_mult: 2
    decay_mult: 0
  }
  inner_product_param {
    num_output: 2048
    weight_filler {
      type: "gaussian"
      std: 0.005
    }
    bias_filler {
      type: "constant"
      value: 1
    }
  }
}
layer {
  name: "relu6_pos"
  type: "ReLU"
  bottom: "fc6_pos"
  top: "fc6_pos"
}
layer {
  name: "drop6_pos"
  type: "Dropout"
  bottom: "fc6_pos"
  top: "fc6_pos"
  dropout_param {
    dropout_ratio: 0.5
  }
}
layer {
  name: "fc7_pos"
  type: "InnerProduct"
  bottom: "fc6_pos"
  top: "fc7_pos"
  param {
    name: "fc7_w"
    lr_mult: 1
    decay_mult: 1
  }
  param {
    name: "fc7_b"
    lr_mult: 2
    decay_mult: 0
  }
  inner_product_param {
    num_output: 2048
    weight_filler {
      type: "gaussian"
      std: 0.005
    }
    bias_filler {
      type: "constant"
      value: 1
    }
  }
}
layer {
  name: "relu7_pos"
  type: "ReLU"
  bottom: "fc7_pos"
  top: "fc7_pos"
}
layer {
  name: "drop7_pos"
  type: "Dropout"
  bottom: "fc7_pos"
  top: "fc7_pos"
  dropout_param {
    dropout_ratio: 0.5
  }
}
layer {
  name: "conv1a_neg"
  type: "NdConvolution"
  bottom: "negative"
  top: "conv1a_neg"
  param {
    name: "conv1a_w"
    lr_mult: 1
    decay_mult: 1
  }
  param {
    name: "conv1a_b"
    lr_mult: 2
    decay_mult: 0
  }
  convolution_param {
    num_output: 64
    weight_filler {
      type: "gaussian"
      std: 0.01
    }
    bias_filler {
      type: "constant"
      value: 0
    }
    pad_shape {
      dim: 1
      dim: 1
      dim: 1
    }
    kernel_shape {
      dim: 3
      dim: 3
      dim: 3
    }
    stride_shape {
      dim: 1
      dim: 1
      dim: 1
    }
  }
}
layer {
  name: "relu1a_neg"
  type: "ReLU"
  bottom: "conv1a_neg"
  top: "conv1a_neg"
}
layer {
  name: "pool1_neg"
  type: "NdPooling"
  bottom: "conv1a_neg"
  top: "pool1_neg"
  pooling_param {
    pool: MAX
    kernel_shape {
      dim: 1
      dim: 2
      dim: 2
    }
    stride_shape {
      dim: 1
      dim: 2
      dim: 2
    }
  }
}
layer {
  name: "conv2a_neg"
  type: "NdConvolution"
  bottom: "pool1_neg"
  top: "conv2a_neg"
  param {
    name: "conv2a_w"
    lr_mult: 1
    decay_mult: 1
  }
  param {
    name: "conv2a_b"
    lr_mult: 2
    decay_mult: 0
  }
  convolution_param {
    num_output: 128
    weight_filler {
      type: "gaussian"
      std: 0.01
    }
    bias_filler {
      type: "constant"
      value: 1
    }
    pad_shape {
      dim: 1
      dim: 1
      dim: 1
    }
    kernel_shape {
      dim: 3
      dim: 3
      dim: 3
    }
    stride_shape {
      dim: 1
      dim: 1
      dim: 1
    }
  }
}
layer {
  name: "relu2a_neg"
  type: "ReLU"
  bottom: "conv2a_neg"
  top: "conv2a_neg"
}
layer {
  name: "pool2_neg"
  type: "NdPooling"
  bottom: "conv2a_neg"
  top: "pool2_neg"
  pooling_param {
    pool: MAX
    kernel_shape {
      dim: 2
      dim: 2
      dim: 2
    }
    stride_shape {
      dim: 2
      dim: 2
      dim: 2
    }
  }
}
layer {
  name: "conv3a_neg"
  type: "NdConvolution"
  bottom: "pool2_neg"
  top: "conv3a_neg"
  param {
    name: "conv3a_w"
    lr_mult: 1
    decay_mult: 1
  }
  param {
    name: "conv3a_b"
    lr_mult: 2
    decay_mult: 0
  }
  convolution_param {
    num_output: 256
    weight_filler {
      type: "gaussian"
      std: 0.01
    }
    bias_filler {
      type: "constant"
      value: 1
    }
    pad_shape {
      dim: 1
      dim: 1
      dim: 1
    }
    kernel_shape {
      dim: 3
      dim: 3
      dim: 3
    }
    stride_shape {
      dim: 1
      dim: 1
      dim: 1
    }
  }
}
layer {
  name: "relu3a_neg"
  type: "ReLU"
  bottom: "conv3a_neg"
  top: "conv3a_neg"
}
layer {
  name: "pool3_neg"
  type: "NdPooling"
  bottom: "conv3a_neg"
  top: "pool3_neg"
  pooling_param {
    pool: MAX
    kernel_shape {
      dim: 2
      dim: 2
      dim: 2
    }
    stride_shape {
      dim: 2
      dim: 2
      dim: 2
    }
  }
}
layer {
  name: "conv4a_neg"
  type: "NdConvolution"
  bottom: "pool3_neg"
  top: "conv4a_neg"
  param {
    name: "conv4a_w"
    lr_mult: 1
    decay_mult: 1
  }
  param {
    name: "conv4a_b"
    lr_mult: 2
    decay_mult: 0
  }
  convolution_param {
    num_output: 256
    weight_filler {
      type: "gaussian"
      std: 0.01
    }
    bias_filler {
      type: "constant"
      value: 1
    }
    pad_shape {
      dim: 1
      dim: 1
      dim: 1
    }
    kernel_shape {
      dim: 3
      dim: 3
      dim: 3
    }
    stride_shape {
      dim: 1
      dim: 1
      dim: 1
    }
  }
}
layer {
  name: "relu4a_neg"
  type: "ReLU"
  bottom: "conv4a_neg"
  top: "conv4a_neg"
}
layer {
  name: "pool4_neg"
  type: "NdPooling"
  bottom: "conv4a_neg"
  top: "pool4_neg"
  pooling_param {
    pool: MAX
    kernel_shape {
      dim: 2
      dim: 2
      dim: 2
    }
    stride_shape {
      dim: 2
      dim: 2
      dim: 2
    }
  }
}
layer {
  name: "conv5a_neg"
  type: "NdConvolution"
  bottom: "pool4_neg"
  top: "conv5a_neg"
  param {
    name: "conv5a_w"
    lr_mult: 1
    decay_mult: 1
  }
  param {
    name: "conv5a_b"
    lr_mult: 2
    decay_mult: 0
  }
  convolution_param {
    num_output: 256
    weight_filler {
      type: "gaussian"
      std: 0.01
    }
    bias_filler {
      type: "constant"
      value: 1
    }
    pad_shape {
      dim: 1
      dim: 1
      dim: 1
    }
    kernel_shape {
      dim: 3
      dim: 3
      dim: 3
    }
    stride_shape {
      dim: 1
      dim: 1
      dim: 1
    }
  }
}
layer {
  name: "relu5a_neg"
  type: "ReLU"
  bottom: "conv5a_neg"
  top: "conv5a_neg"
}
layer {
  name: "pool5_neg"
  type: "NdPooling"
  bottom: "conv5a_neg"
  top: "pool5_neg"
  pooling_param {
    pool: MAX
    kernel_shape {
      dim: 2
      dim: 2
      dim: 2
    }
    stride_shape {
      dim: 2
      dim: 2
      dim: 2
    }
  }
}
layer {
  name: "fc6_neg"
  type: "InnerProduct"
  bottom: "pool5_neg"
  top: "fc6_neg"
  param {
    name: "fc6_w"
    lr_mult: 1
    decay_mult: 1
  }
  param {
    name: "fc6_b"
    lr_mult: 2
    decay_mult: 0
  }
  inner_product_param {
    num_output: 2048
    weight_filler {
      type: "gaussian"
      std: 0.005
    }
    bias_filler {
      type: "constant"
      value: 1
    }
  }
}
layer {
  name: "relu6_neg"
  type: "ReLU"
  bottom: "fc6_neg"
  top: "fc6_neg"
}
layer {
  name: "drop6_neg"
  type: "Dropout"
  bottom: "fc6_neg"
  top: "fc6_neg"
  dropout_param {
    dropout_ratio: 0.5
  }
}
layer {
  name: "fc7_neg"
  type: "InnerProduct"
  bottom: "fc6_neg"
  top: "fc7_neg"
  param {
    name: "fc7_w"
    lr_mult: 1
    decay_mult: 1
  }
  param {
    name: "fc7_b"
    lr_mult: 2
    decay_mult: 0
  }
  inner_product_param {
    num_output: 2048
    weight_filler {
      type: "gaussian"
      std: 0.005
    }
    bias_filler {
      type: "constant"
      value: 1
    }
  }
}
layer {
  name: "relu7_neg"
  type: "ReLU"
  bottom: "fc7_neg"
  top: "fc7_neg"
}
layer {
  name: "drop7_neg"
  type: "Dropout"
  bottom: "fc7_neg"
  top: "fc7_neg"
  dropout_param {
    dropout_ratio: 0.5
  }
}
layer {
  name: "loss"
  type: "TripletLoss"
  bottom: "fc7"
  bottom: "fc7_pos"
  bottom: "fc7_neg"
  top: "loss"
  threshold_param {
    threshold: 1
  }
}
I0505 14:02:24.503258 26400 layer_factory.hpp:77] Creating layer data
I0505 14:02:24.503373 26400 net.cpp:100] Creating Layer data
I0505 14:02:24.503391 26400 net.cpp:408] data -> triplet
I0505 14:02:24.548789 26429 db_lmdb.cpp:35] Opened lmdb /data/leo-data/Synthetic/LMDB/Triplets/val
I0505 14:02:24.683316 26400 data_layer.cpp:41] output data size: 1,144,112,112
I0505 14:02:24.716296 26400 net.cpp:150] Setting up data
I0505 14:02:24.716358 26400 net.cpp:157] Top shape: 1 144 112 112 (1806336)
I0505 14:02:24.716365 26400 net.cpp:165] Memory required for data: 7225344
I0505 14:02:24.716378 26400 layer_factory.hpp:77] Creating layer slicer
I0505 14:02:24.716405 26400 net.cpp:100] Creating Layer slicer
I0505 14:02:24.716415 26400 net.cpp:434] slicer <- triplet
I0505 14:02:24.716428 26400 net.cpp:408] slicer -> anchor_stacked
I0505 14:02:24.716444 26400 net.cpp:408] slicer -> positive_stacked
I0505 14:02:24.716454 26400 net.cpp:408] slicer -> negative_stacked
I0505 14:02:24.716675 26400 net.cpp:150] Setting up slicer
I0505 14:02:24.716689 26400 net.cpp:157] Top shape: 1 48 112 112 (602112)
I0505 14:02:24.716697 26400 net.cpp:157] Top shape: 1 48 112 112 (602112)
I0505 14:02:24.716707 26400 net.cpp:157] Top shape: 1 48 112 112 (602112)
I0505 14:02:24.716717 26400 net.cpp:165] Memory required for data: 14450688
I0505 14:02:24.716723 26400 layer_factory.hpp:77] Creating layer reshape_anchor
I0505 14:02:24.716738 26400 net.cpp:100] Creating Layer reshape_anchor
I0505 14:02:24.716747 26400 net.cpp:434] reshape_anchor <- anchor_stacked
I0505 14:02:24.716763 26400 net.cpp:408] reshape_anchor -> anchor
I0505 14:02:24.716830 26400 net.cpp:150] Setting up reshape_anchor
I0505 14:02:24.716843 26400 net.cpp:157] Top shape: 1 3 16 112 112 (602112)
I0505 14:02:24.716852 26400 net.cpp:165] Memory required for data: 16859136
I0505 14:02:24.716858 26400 layer_factory.hpp:77] Creating layer reshape_positive
I0505 14:02:24.716868 26400 net.cpp:100] Creating Layer reshape_positive
I0505 14:02:24.716874 26400 net.cpp:434] reshape_positive <- positive_stacked
I0505 14:02:24.716883 26400 net.cpp:408] reshape_positive -> positive
I0505 14:02:24.716948 26400 net.cpp:150] Setting up reshape_positive
I0505 14:02:24.716960 26400 net.cpp:157] Top shape: 1 3 16 112 112 (602112)
I0505 14:02:24.716967 26400 net.cpp:165] Memory required for data: 19267584
I0505 14:02:24.716974 26400 layer_factory.hpp:77] Creating layer reshape_negative
I0505 14:02:24.716987 26400 net.cpp:100] Creating Layer reshape_negative
I0505 14:02:24.716995 26400 net.cpp:434] reshape_negative <- negative_stacked
I0505 14:02:24.717005 26400 net.cpp:408] reshape_negative -> negative
I0505 14:02:24.717061 26400 net.cpp:150] Setting up reshape_negative
I0505 14:02:24.717073 26400 net.cpp:157] Top shape: 1 3 16 112 112 (602112)
I0505 14:02:24.717080 26400 net.cpp:165] Memory required for data: 21676032
I0505 14:02:24.717087 26400 layer_factory.hpp:77] Creating layer conv1a
I0505 14:02:24.717108 26400 net.cpp:100] Creating Layer conv1a
I0505 14:02:24.717114 26400 net.cpp:434] conv1a <- anchor
I0505 14:02:24.717126 26400 net.cpp:408] conv1a -> conv1a
I0505 14:02:24.723239 26400 net.cpp:150] Setting up conv1a
I0505 14:02:24.723266 26400 net.cpp:157] Top shape: 1 64 16 112 112 (12845056)
I0505 14:02:24.723273 26400 net.cpp:165] Memory required for data: 73056256
I0505 14:02:24.723323 26400 layer_factory.hpp:77] Creating layer relu1a
I0505 14:02:24.723340 26400 net.cpp:100] Creating Layer relu1a
I0505 14:02:24.723350 26400 net.cpp:434] relu1a <- conv1a
I0505 14:02:24.723357 26400 net.cpp:395] relu1a -> conv1a (in-place)
I0505 14:02:24.724334 26400 net.cpp:150] Setting up relu1a
I0505 14:02:24.724354 26400 net.cpp:157] Top shape: 1 64 16 112 112 (12845056)
I0505 14:02:24.724359 26400 net.cpp:165] Memory required for data: 124436480
I0505 14:02:24.724365 26400 layer_factory.hpp:77] Creating layer pool1
I0505 14:02:24.724381 26400 net.cpp:100] Creating Layer pool1
I0505 14:02:24.724388 26400 net.cpp:434] pool1 <- conv1a
I0505 14:02:24.724398 26400 net.cpp:408] pool1 -> pool1
I0505 14:02:24.725455 26400 net.cpp:150] Setting up pool1
I0505 14:02:24.725473 26400 net.cpp:157] Top shape: 1 64 16 56 56 (3211264)
I0505 14:02:24.725479 26400 net.cpp:165] Memory required for data: 137281536
I0505 14:02:24.725486 26400 layer_factory.hpp:77] Creating layer conv2a
I0505 14:02:24.725504 26400 net.cpp:100] Creating Layer conv2a
I0505 14:02:24.725512 26400 net.cpp:434] conv2a <- pool1
I0505 14:02:24.725533 26400 net.cpp:408] conv2a -> conv2a
I0505 14:02:24.746168 26400 net.cpp:150] Setting up conv2a
I0505 14:02:24.746209 26400 net.cpp:157] Top shape: 1 128 16 56 56 (6422528)
I0505 14:02:24.746217 26400 net.cpp:165] Memory required for data: 162971648
I0505 14:02:24.746238 26400 layer_factory.hpp:77] Creating layer relu2a
I0505 14:02:24.746258 26400 net.cpp:100] Creating Layer relu2a
I0505 14:02:24.746265 26400 net.cpp:434] relu2a <- conv2a
I0505 14:02:24.746276 26400 net.cpp:395] relu2a -> conv2a (in-place)
I0505 14:02:24.747388 26400 net.cpp:150] Setting up relu2a
I0505 14:02:24.747406 26400 net.cpp:157] Top shape: 1 128 16 56 56 (6422528)
I0505 14:02:24.747412 26400 net.cpp:165] Memory required for data: 188661760
I0505 14:02:24.747419 26400 layer_factory.hpp:77] Creating layer pool2
I0505 14:02:24.747437 26400 net.cpp:100] Creating Layer pool2
I0505 14:02:24.747443 26400 net.cpp:434] pool2 <- conv2a
I0505 14:02:24.747453 26400 net.cpp:408] pool2 -> pool2
I0505 14:02:24.748450 26400 net.cpp:150] Setting up pool2
I0505 14:02:24.748466 26400 net.cpp:157] Top shape: 1 128 8 28 28 (802816)
I0505 14:02:24.748472 26400 net.cpp:165] Memory required for data: 191873024
I0505 14:02:24.748479 26400 layer_factory.hpp:77] Creating layer conv3a
I0505 14:02:24.748500 26400 net.cpp:100] Creating Layer conv3a
I0505 14:02:24.748507 26400 net.cpp:434] conv3a <- pool2
I0505 14:02:24.748520 26400 net.cpp:408] conv3a -> conv3a
I0505 14:02:24.818163 26400 net.cpp:150] Setting up conv3a
I0505 14:02:24.818264 26400 net.cpp:157] Top shape: 1 256 8 28 28 (1605632)
I0505 14:02:24.818286 26400 net.cpp:165] Memory required for data: 198295552
I0505 14:02:24.818325 26400 layer_factory.hpp:77] Creating layer relu3a
I0505 14:02:24.818356 26400 net.cpp:100] Creating Layer relu3a
I0505 14:02:24.818374 26400 net.cpp:434] relu3a <- conv3a
I0505 14:02:24.818394 26400 net.cpp:395] relu3a -> conv3a (in-place)
I0505 14:02:24.819692 26400 net.cpp:150] Setting up relu3a
I0505 14:02:24.819716 26400 net.cpp:157] Top shape: 1 256 8 28 28 (1605632)
I0505 14:02:24.819723 26400 net.cpp:165] Memory required for data: 204718080
I0505 14:02:24.819730 26400 layer_factory.hpp:77] Creating layer pool3
I0505 14:02:24.819748 26400 net.cpp:100] Creating Layer pool3
I0505 14:02:24.819756 26400 net.cpp:434] pool3 <- conv3a
I0505 14:02:24.819769 26400 net.cpp:408] pool3 -> pool3
I0505 14:02:24.820143 26400 net.cpp:150] Setting up pool3
I0505 14:02:24.820160 26400 net.cpp:157] Top shape: 1 256 4 14 14 (200704)
I0505 14:02:24.820166 26400 net.cpp:165] Memory required for data: 205520896
I0505 14:02:24.820171 26400 layer_factory.hpp:77] Creating layer conv4a
I0505 14:02:24.820188 26400 net.cpp:100] Creating Layer conv4a
I0505 14:02:24.820214 26400 net.cpp:434] conv4a <- pool3
I0505 14:02:24.820240 26400 net.cpp:408] conv4a -> conv4a
I0505 14:02:24.892137 26400 net.cpp:150] Setting up conv4a
I0505 14:02:24.892225 26400 net.cpp:157] Top shape: 1 256 4 14 14 (200704)
I0505 14:02:24.892235 26400 net.cpp:165] Memory required for data: 206323712
I0505 14:02:24.892252 26400 layer_factory.hpp:77] Creating layer relu4a
I0505 14:02:24.892282 26400 net.cpp:100] Creating Layer relu4a
I0505 14:02:24.892292 26400 net.cpp:434] relu4a <- conv4a
I0505 14:02:24.892307 26400 net.cpp:395] relu4a -> conv4a (in-place)
I0505 14:02:24.893982 26400 net.cpp:150] Setting up relu4a
I0505 14:02:24.894008 26400 net.cpp:157] Top shape: 1 256 4 14 14 (200704)
I0505 14:02:24.894021 26400 net.cpp:165] Memory required for data: 207126528
I0505 14:02:24.894028 26400 layer_factory.hpp:77] Creating layer pool4
I0505 14:02:24.894057 26400 net.cpp:100] Creating Layer pool4
I0505 14:02:24.894067 26400 net.cpp:434] pool4 <- conv4a
I0505 14:02:24.894078 26400 net.cpp:408] pool4 -> pool4
I0505 14:02:24.894553 26400 net.cpp:150] Setting up pool4
I0505 14:02:24.894573 26400 net.cpp:157] Top shape: 1 256 2 7 7 (25088)
I0505 14:02:24.894582 26400 net.cpp:165] Memory required for data: 207226880
I0505 14:02:24.894588 26400 layer_factory.hpp:77] Creating layer conv5a
I0505 14:02:24.894608 26400 net.cpp:100] Creating Layer conv5a
I0505 14:02:24.894615 26400 net.cpp:434] conv5a <- pool4
I0505 14:02:24.894629 26400 net.cpp:408] conv5a -> conv5a
I0505 14:02:25.003520 26400 net.cpp:150] Setting up conv5a
I0505 14:02:25.003558 26400 net.cpp:157] Top shape: 1 256 2 7 7 (25088)
I0505 14:02:25.003564 26400 net.cpp:165] Memory required for data: 207327232
I0505 14:02:25.003592 26400 layer_factory.hpp:77] Creating layer relu5a
I0505 14:02:25.003609 26400 net.cpp:100] Creating Layer relu5a
I0505 14:02:25.003623 26400 net.cpp:434] relu5a <- conv5a
I0505 14:02:25.003638 26400 net.cpp:395] relu5a -> conv5a (in-place)
I0505 14:02:25.004715 26400 net.cpp:150] Setting up relu5a
I0505 14:02:25.004731 26400 net.cpp:157] Top shape: 1 256 2 7 7 (25088)
I0505 14:02:25.004736 26400 net.cpp:165] Memory required for data: 207427584
I0505 14:02:25.004740 26400 layer_factory.hpp:77] Creating layer pool5
I0505 14:02:25.004751 26400 net.cpp:100] Creating Layer pool5
I0505 14:02:25.004760 26400 net.cpp:434] pool5 <- conv5a
I0505 14:02:25.004767 26400 net.cpp:408] pool5 -> pool5
I0505 14:02:25.005074 26400 net.cpp:150] Setting up pool5
I0505 14:02:25.005089 26400 net.cpp:157] Top shape: 1 256 1 4 4 (4096)
I0505 14:02:25.005095 26400 net.cpp:165] Memory required for data: 207443968
I0505 14:02:25.005098 26400 layer_factory.hpp:77] Creating layer fc6
I0505 14:02:25.005110 26400 net.cpp:100] Creating Layer fc6
I0505 14:02:25.005116 26400 net.cpp:434] fc6 <- pool5
I0505 14:02:25.005131 26400 net.cpp:408] fc6 -> fc6
I0505 14:02:25.318255 26400 net.cpp:150] Setting up fc6
I0505 14:02:25.318296 26400 net.cpp:157] Top shape: 1 2048 (2048)
I0505 14:02:25.318301 26400 net.cpp:165] Memory required for data: 207452160
I0505 14:02:25.318315 26400 layer_factory.hpp:77] Creating layer relu6
I0505 14:02:25.318326 26400 net.cpp:100] Creating Layer relu6
I0505 14:02:25.318331 26400 net.cpp:434] relu6 <- fc6
I0505 14:02:25.318337 26400 net.cpp:395] relu6 -> fc6 (in-place)
I0505 14:02:25.320199 26400 net.cpp:150] Setting up relu6
I0505 14:02:25.320215 26400 net.cpp:157] Top shape: 1 2048 (2048)
I0505 14:02:25.320220 26400 net.cpp:165] Memory required for data: 207460352
I0505 14:02:25.320225 26400 layer_factory.hpp:77] Creating layer drop6
I0505 14:02:25.320232 26400 net.cpp:100] Creating Layer drop6
I0505 14:02:25.320236 26400 net.cpp:434] drop6 <- fc6
I0505 14:02:25.320243 26400 net.cpp:395] drop6 -> fc6 (in-place)
I0505 14:02:25.320281 26400 net.cpp:150] Setting up drop6
I0505 14:02:25.320288 26400 net.cpp:157] Top shape: 1 2048 (2048)
I0505 14:02:25.320297 26400 net.cpp:165] Memory required for data: 207468544
I0505 14:02:25.320302 26400 layer_factory.hpp:77] Creating layer fc7
I0505 14:02:25.320319 26400 net.cpp:100] Creating Layer fc7
I0505 14:02:25.320323 26400 net.cpp:434] fc7 <- fc6
I0505 14:02:25.320332 26400 net.cpp:408] fc7 -> fc7
I0505 14:02:25.471735 26400 net.cpp:150] Setting up fc7
I0505 14:02:25.471781 26400 net.cpp:157] Top shape: 1 2048 (2048)
I0505 14:02:25.471815 26400 net.cpp:165] Memory required for data: 207476736
I0505 14:02:25.471828 26400 layer_factory.hpp:77] Creating layer relu7
I0505 14:02:25.471838 26400 net.cpp:100] Creating Layer relu7
I0505 14:02:25.471843 26400 net.cpp:434] relu7 <- fc7
I0505 14:02:25.471853 26400 net.cpp:395] relu7 -> fc7 (in-place)
I0505 14:02:25.472131 26400 net.cpp:150] Setting up relu7
I0505 14:02:25.472144 26400 net.cpp:157] Top shape: 1 2048 (2048)
I0505 14:02:25.472148 26400 net.cpp:165] Memory required for data: 207484928
I0505 14:02:25.472151 26400 layer_factory.hpp:77] Creating layer drop7
I0505 14:02:25.472172 26400 net.cpp:100] Creating Layer drop7
I0505 14:02:25.472179 26400 net.cpp:434] drop7 <- fc7
I0505 14:02:25.472187 26400 net.cpp:395] drop7 -> fc7 (in-place)
I0505 14:02:25.472236 26400 net.cpp:150] Setting up drop7
I0505 14:02:25.472247 26400 net.cpp:157] Top shape: 1 2048 (2048)
I0505 14:02:25.472254 26400 net.cpp:165] Memory required for data: 207493120
I0505 14:02:25.472259 26400 layer_factory.hpp:77] Creating layer conv1a_pos
I0505 14:02:25.472285 26400 net.cpp:100] Creating Layer conv1a_pos
I0505 14:02:25.472295 26400 net.cpp:434] conv1a_pos <- positive
I0505 14:02:25.472312 26400 net.cpp:408] conv1a_pos -> conv1a_pos
I0505 14:02:25.476955 26400 net.cpp:150] Setting up conv1a_pos
I0505 14:02:25.476975 26400 net.cpp:157] Top shape: 1 64 16 112 112 (12845056)
I0505 14:02:25.476982 26400 net.cpp:165] Memory required for data: 258873344
I0505 14:02:25.476991 26400 net.cpp:493] Sharing parameters 'conv1a_w' owned by layer 'conv1a', param index 0
I0505 14:02:25.477004 26400 net.cpp:493] Sharing parameters 'conv1a_b' owned by layer 'conv1a', param index 1
I0505 14:02:25.477011 26400 layer_factory.hpp:77] Creating layer relu1a_pos
I0505 14:02:25.477023 26400 net.cpp:100] Creating Layer relu1a_pos
I0505 14:02:25.477032 26400 net.cpp:434] relu1a_pos <- conv1a_pos
I0505 14:02:25.477042 26400 net.cpp:395] relu1a_pos -> conv1a_pos (in-place)
I0505 14:02:25.477952 26400 net.cpp:150] Setting up relu1a_pos
I0505 14:02:25.477967 26400 net.cpp:157] Top shape: 1 64 16 112 112 (12845056)
I0505 14:02:25.477974 26400 net.cpp:165] Memory required for data: 310253568
I0505 14:02:25.477980 26400 layer_factory.hpp:77] Creating layer pool1_pos
I0505 14:02:25.477995 26400 net.cpp:100] Creating Layer pool1_pos
I0505 14:02:25.478003 26400 net.cpp:434] pool1_pos <- conv1a_pos
I0505 14:02:25.478013 26400 net.cpp:408] pool1_pos -> pool1_pos
I0505 14:02:25.478276 26400 net.cpp:150] Setting up pool1_pos
I0505 14:02:25.478291 26400 net.cpp:157] Top shape: 1 64 16 56 56 (3211264)
I0505 14:02:25.478296 26400 net.cpp:165] Memory required for data: 323098624
I0505 14:02:25.478302 26400 layer_factory.hpp:77] Creating layer conv2a_pos
I0505 14:02:25.478317 26400 net.cpp:100] Creating Layer conv2a_pos
I0505 14:02:25.478328 26400 net.cpp:434] conv2a_pos <- pool1_pos
I0505 14:02:25.478343 26400 net.cpp:408] conv2a_pos -> conv2a_pos
I0505 14:02:25.488029 26400 net.cpp:150] Setting up conv2a_pos
I0505 14:02:25.488066 26400 net.cpp:157] Top shape: 1 128 16 56 56 (6422528)
I0505 14:02:25.488072 26400 net.cpp:165] Memory required for data: 348788736
I0505 14:02:25.488101 26400 net.cpp:493] Sharing parameters 'conv2a_w' owned by layer 'conv2a', param index 0
I0505 14:02:25.488111 26400 net.cpp:493] Sharing parameters 'conv2a_b' owned by layer 'conv2a', param index 1
I0505 14:02:25.488121 26400 layer_factory.hpp:77] Creating layer relu2a_pos
I0505 14:02:25.488142 26400 net.cpp:100] Creating Layer relu2a_pos
I0505 14:02:25.488150 26400 net.cpp:434] relu2a_pos <- conv2a_pos
I0505 14:02:25.488162 26400 net.cpp:395] relu2a_pos -> conv2a_pos (in-place)
I0505 14:02:25.488376 26400 net.cpp:150] Setting up relu2a_pos
I0505 14:02:25.488391 26400 net.cpp:157] Top shape: 1 128 16 56 56 (6422528)
I0505 14:02:25.488397 26400 net.cpp:165] Memory required for data: 374478848
I0505 14:02:25.488404 26400 layer_factory.hpp:77] Creating layer pool2_pos
I0505 14:02:25.488420 26400 net.cpp:100] Creating Layer pool2_pos
I0505 14:02:25.488446 26400 net.cpp:434] pool2_pos <- conv2a_pos
I0505 14:02:25.488459 26400 net.cpp:408] pool2_pos -> pool2_pos
I0505 14:02:25.489440 26400 net.cpp:150] Setting up pool2_pos
I0505 14:02:25.489457 26400 net.cpp:157] Top shape: 1 128 8 28 28 (802816)
I0505 14:02:25.489464 26400 net.cpp:165] Memory required for data: 377690112
I0505 14:02:25.489470 26400 layer_factory.hpp:77] Creating layer conv3a_pos
I0505 14:02:25.489516 26400 net.cpp:100] Creating Layer conv3a_pos
I0505 14:02:25.489524 26400 net.cpp:434] conv3a_pos <- pool2_pos
I0505 14:02:25.490036 26400 net.cpp:408] conv3a_pos -> conv3a_pos
I0505 14:02:25.519507 26400 net.cpp:150] Setting up conv3a_pos
I0505 14:02:25.519547 26400 net.cpp:157] Top shape: 1 256 8 28 28 (1605632)
I0505 14:02:25.519553 26400 net.cpp:165] Memory required for data: 384112640
I0505 14:02:25.519564 26400 net.cpp:493] Sharing parameters 'conv3a_w' owned by layer 'conv3a', param index 0
I0505 14:02:25.519585 26400 net.cpp:493] Sharing parameters 'conv3a_b' owned by layer 'conv3a', param index 1
I0505 14:02:25.519592 26400 layer_factory.hpp:77] Creating layer relu3a_pos
I0505 14:02:25.519611 26400 net.cpp:100] Creating Layer relu3a_pos
I0505 14:02:25.519620 26400 net.cpp:434] relu3a_pos <- conv3a_pos
I0505 14:02:25.519634 26400 net.cpp:395] relu3a_pos -> conv3a_pos (in-place)
I0505 14:02:25.519850 26400 net.cpp:150] Setting up relu3a_pos
I0505 14:02:25.519865 26400 net.cpp:157] Top shape: 1 256 8 28 28 (1605632)
I0505 14:02:25.519870 26400 net.cpp:165] Memory required for data: 390535168
I0505 14:02:25.519877 26400 layer_factory.hpp:77] Creating layer pool3_pos
I0505 14:02:25.519892 26400 net.cpp:100] Creating Layer pool3_pos
I0505 14:02:25.519901 26400 net.cpp:434] pool3_pos <- conv3a_pos
I0505 14:02:25.519911 26400 net.cpp:408] pool3_pos -> pool3_pos
I0505 14:02:25.520889 26400 net.cpp:150] Setting up pool3_pos
I0505 14:02:25.520905 26400 net.cpp:157] Top shape: 1 256 4 14 14 (200704)
I0505 14:02:25.520911 26400 net.cpp:165] Memory required for data: 391337984
I0505 14:02:25.520917 26400 layer_factory.hpp:77] Creating layer conv4a_pos
I0505 14:02:25.520949 26400 net.cpp:100] Creating Layer conv4a_pos
I0505 14:02:25.520957 26400 net.cpp:434] conv4a_pos <- pool3_pos
I0505 14:02:25.520972 26400 net.cpp:408] conv4a_pos -> conv4a_pos
I0505 14:02:25.583343 26400 net.cpp:150] Setting up conv4a_pos
I0505 14:02:25.583380 26400 net.cpp:157] Top shape: 1 256 4 14 14 (200704)
I0505 14:02:25.583390 26400 net.cpp:165] Memory required for data: 392140800
I0505 14:02:25.583401 26400 net.cpp:493] Sharing parameters 'conv4a_w' owned by layer 'conv4a', param index 0
I0505 14:02:25.583422 26400 net.cpp:493] Sharing parameters 'conv4a_b' owned by layer 'conv4a', param index 1
I0505 14:02:25.583429 26400 layer_factory.hpp:77] Creating layer relu4a_pos
I0505 14:02:25.583444 26400 net.cpp:100] Creating Layer relu4a_pos
I0505 14:02:25.583456 26400 net.cpp:434] relu4a_pos <- conv4a_pos
I0505 14:02:25.583468 26400 net.cpp:395] relu4a_pos -> conv4a_pos (in-place)
I0505 14:02:25.583681 26400 net.cpp:150] Setting up relu4a_pos
I0505 14:02:25.583695 26400 net.cpp:157] Top shape: 1 256 4 14 14 (200704)
I0505 14:02:25.583701 26400 net.cpp:165] Memory required for data: 392943616
I0505 14:02:25.583709 26400 layer_factory.hpp:77] Creating layer pool4_pos
I0505 14:02:25.583721 26400 net.cpp:100] Creating Layer pool4_pos
I0505 14:02:25.583729 26400 net.cpp:434] pool4_pos <- conv4a_pos
I0505 14:02:25.583741 26400 net.cpp:408] pool4_pos -> pool4_pos
I0505 14:02:25.584723 26400 net.cpp:150] Setting up pool4_pos
I0505 14:02:25.584740 26400 net.cpp:157] Top shape: 1 256 2 7 7 (25088)
I0505 14:02:25.584746 26400 net.cpp:165] Memory required for data: 393043968
I0505 14:02:25.584753 26400 layer_factory.hpp:77] Creating layer conv5a_pos
I0505 14:02:25.584776 26400 net.cpp:100] Creating Layer conv5a_pos
I0505 14:02:25.584784 26400 net.cpp:434] conv5a_pos <- pool4_pos
I0505 14:02:25.584797 26400 net.cpp:408] conv5a_pos -> conv5a_pos
I0505 14:02:25.655325 26400 net.cpp:150] Setting up conv5a_pos
I0505 14:02:25.655375 26400 net.cpp:157] Top shape: 1 256 2 7 7 (25088)
I0505 14:02:25.655467 26400 net.cpp:165] Memory required for data: 393144320
I0505 14:02:25.655485 26400 net.cpp:493] Sharing parameters 'conv5a_w' owned by layer 'conv5a', param index 0
I0505 14:02:25.655511 26400 net.cpp:493] Sharing parameters 'conv5a_b' owned by layer 'conv5a', param index 1
I0505 14:02:25.655520 26400 layer_factory.hpp:77] Creating layer relu5a_pos
I0505 14:02:25.655542 26400 net.cpp:100] Creating Layer relu5a_pos
I0505 14:02:25.655551 26400 net.cpp:434] relu5a_pos <- conv5a_pos
I0505 14:02:25.655566 26400 net.cpp:395] relu5a_pos -> conv5a_pos (in-place)
I0505 14:02:25.656759 26400 net.cpp:150] Setting up relu5a_pos
I0505 14:02:25.656793 26400 net.cpp:157] Top shape: 1 256 2 7 7 (25088)
I0505 14:02:25.656800 26400 net.cpp:165] Memory required for data: 393244672
I0505 14:02:25.656807 26400 layer_factory.hpp:77] Creating layer pool5_pos
I0505 14:02:25.656826 26400 net.cpp:100] Creating Layer pool5_pos
I0505 14:02:25.656849 26400 net.cpp:434] pool5_pos <- conv5a_pos
I0505 14:02:25.656867 26400 net.cpp:408] pool5_pos -> pool5_pos
I0505 14:02:25.657992 26400 net.cpp:150] Setting up pool5_pos
I0505 14:02:25.658012 26400 net.cpp:157] Top shape: 1 256 1 4 4 (4096)
I0505 14:02:25.658017 26400 net.cpp:165] Memory required for data: 393261056
I0505 14:02:25.658025 26400 layer_factory.hpp:77] Creating layer fc6_pos
I0505 14:02:25.658043 26400 net.cpp:100] Creating Layer fc6_pos
I0505 14:02:25.658051 26400 net.cpp:434] fc6_pos <- pool5_pos
I0505 14:02:25.658066 26400 net.cpp:408] fc6_pos -> fc6_pos
I0505 14:02:26.086742 26400 net.cpp:150] Setting up fc6_pos
I0505 14:02:26.086781 26400 net.cpp:157] Top shape: 1 2048 (2048)
I0505 14:02:26.086786 26400 net.cpp:165] Memory required for data: 393269248
I0505 14:02:26.086794 26400 net.cpp:493] Sharing parameters 'fc6_w' owned by layer 'fc6', param index 0
I0505 14:02:26.086800 26400 net.cpp:493] Sharing parameters 'fc6_b' owned by layer 'fc6', param index 1
I0505 14:02:26.086805 26400 layer_factory.hpp:77] Creating layer relu6_pos
I0505 14:02:26.086825 26400 net.cpp:100] Creating Layer relu6_pos
I0505 14:02:26.086832 26400 net.cpp:434] relu6_pos <- fc6_pos
I0505 14:02:26.086839 26400 net.cpp:395] relu6_pos -> fc6_pos (in-place)
I0505 14:02:26.087122 26400 net.cpp:150] Setting up relu6_pos
I0505 14:02:26.087136 26400 net.cpp:157] Top shape: 1 2048 (2048)
I0505 14:02:26.087138 26400 net.cpp:165] Memory required for data: 393277440
I0505 14:02:26.087142 26400 layer_factory.hpp:77] Creating layer drop6_pos
I0505 14:02:26.087152 26400 net.cpp:100] Creating Layer drop6_pos
I0505 14:02:26.087157 26400 net.cpp:434] drop6_pos <- fc6_pos
I0505 14:02:26.087160 26400 net.cpp:395] drop6_pos -> fc6_pos (in-place)
I0505 14:02:26.087198 26400 net.cpp:150] Setting up drop6_pos
I0505 14:02:26.087203 26400 net.cpp:157] Top shape: 1 2048 (2048)
I0505 14:02:26.087206 26400 net.cpp:165] Memory required for data: 393285632
I0505 14:02:26.087209 26400 layer_factory.hpp:77] Creating layer fc7_pos
I0505 14:02:26.087218 26400 net.cpp:100] Creating Layer fc7_pos
I0505 14:02:26.087221 26400 net.cpp:434] fc7_pos <- fc6_pos
I0505 14:02:26.087230 26400 net.cpp:408] fc7_pos -> fc7_pos
I0505 14:02:26.264341 26400 net.cpp:150] Setting up fc7_pos
I0505 14:02:26.264379 26400 net.cpp:157] Top shape: 1 2048 (2048)
I0505 14:02:26.264381 26400 net.cpp:165] Memory required for data: 393293824
I0505 14:02:26.264391 26400 net.cpp:493] Sharing parameters 'fc7_w' owned by layer 'fc7', param index 0
I0505 14:02:26.264397 26400 net.cpp:493] Sharing parameters 'fc7_b' owned by layer 'fc7', param index 1
I0505 14:02:26.264401 26400 layer_factory.hpp:77] Creating layer relu7_pos
I0505 14:02:26.264412 26400 net.cpp:100] Creating Layer relu7_pos
I0505 14:02:26.264417 26400 net.cpp:434] relu7_pos <- fc7_pos
I0505 14:02:26.264425 26400 net.cpp:395] relu7_pos -> fc7_pos (in-place)
I0505 14:02:26.265547 26400 net.cpp:150] Setting up relu7_pos
I0505 14:02:26.265560 26400 net.cpp:157] Top shape: 1 2048 (2048)
I0505 14:02:26.265565 26400 net.cpp:165] Memory required for data: 393302016
I0505 14:02:26.265599 26400 layer_factory.hpp:77] Creating layer drop7_pos
I0505 14:02:26.265609 26400 net.cpp:100] Creating Layer drop7_pos
I0505 14:02:26.265614 26400 net.cpp:434] drop7_pos <- fc7_pos
I0505 14:02:26.265617 26400 net.cpp:395] drop7_pos -> fc7_pos (in-place)
I0505 14:02:26.265656 26400 net.cpp:150] Setting up drop7_pos
I0505 14:02:26.265663 26400 net.cpp:157] Top shape: 1 2048 (2048)
I0505 14:02:26.265666 26400 net.cpp:165] Memory required for data: 393310208
I0505 14:02:26.265668 26400 layer_factory.hpp:77] Creating layer conv1a_neg
I0505 14:02:26.265681 26400 net.cpp:100] Creating Layer conv1a_neg
I0505 14:02:26.265686 26400 net.cpp:434] conv1a_neg <- negative
I0505 14:02:26.265694 26400 net.cpp:408] conv1a_neg -> conv1a_neg
I0505 14:02:26.268232 26400 net.cpp:150] Setting up conv1a_neg
I0505 14:02:26.268247 26400 net.cpp:157] Top shape: 1 64 16 112 112 (12845056)
I0505 14:02:26.268251 26400 net.cpp:165] Memory required for data: 444690432
I0505 14:02:26.268257 26400 net.cpp:493] Sharing parameters 'conv1a_w' owned by layer 'conv1a', param index 0
I0505 14:02:26.268262 26400 net.cpp:493] Sharing parameters 'conv1a_b' owned by layer 'conv1a', param index 1
I0505 14:02:26.268266 26400 layer_factory.hpp:77] Creating layer relu1a_neg
I0505 14:02:26.268273 26400 net.cpp:100] Creating Layer relu1a_neg
I0505 14:02:26.268277 26400 net.cpp:434] relu1a_neg <- conv1a_neg
I0505 14:02:26.268282 26400 net.cpp:395] relu1a_neg -> conv1a_neg (in-place)
I0505 14:02:26.269132 26400 net.cpp:150] Setting up relu1a_neg
I0505 14:02:26.269145 26400 net.cpp:157] Top shape: 1 64 16 112 112 (12845056)
I0505 14:02:26.269148 26400 net.cpp:165] Memory required for data: 496070656
I0505 14:02:26.269152 26400 layer_factory.hpp:77] Creating layer pool1_neg
I0505 14:02:26.269166 26400 net.cpp:100] Creating Layer pool1_neg
I0505 14:02:26.269171 26400 net.cpp:434] pool1_neg <- conv1a_neg
I0505 14:02:26.269178 26400 net.cpp:408] pool1_neg -> pool1_neg
I0505 14:02:26.269418 26400 net.cpp:150] Setting up pool1_neg
I0505 14:02:26.269429 26400 net.cpp:157] Top shape: 1 64 16 56 56 (3211264)
I0505 14:02:26.269433 26400 net.cpp:165] Memory required for data: 508915712
I0505 14:02:26.269435 26400 layer_factory.hpp:77] Creating layer conv2a_neg
I0505 14:02:26.269446 26400 net.cpp:100] Creating Layer conv2a_neg
I0505 14:02:26.269451 26400 net.cpp:434] conv2a_neg <- pool1_neg
I0505 14:02:26.269459 26400 net.cpp:408] conv2a_neg -> conv2a_neg
I0505 14:02:26.290894 26400 net.cpp:150] Setting up conv2a_neg
I0505 14:02:26.290956 26400 net.cpp:157] Top shape: 1 128 16 56 56 (6422528)
I0505 14:02:26.290963 26400 net.cpp:165] Memory required for data: 534605824
I0505 14:02:26.290973 26400 net.cpp:493] Sharing parameters 'conv2a_w' owned by layer 'conv2a', param index 0
I0505 14:02:26.290982 26400 net.cpp:493] Sharing parameters 'conv2a_b' owned by layer 'conv2a', param index 1
I0505 14:02:26.290989 26400 layer_factory.hpp:77] Creating layer relu2a_neg
I0505 14:02:26.291003 26400 net.cpp:100] Creating Layer relu2a_neg
I0505 14:02:26.291012 26400 net.cpp:434] relu2a_neg <- conv2a_neg
I0505 14:02:26.291028 26400 net.cpp:395] relu2a_neg -> conv2a_neg (in-place)
I0505 14:02:26.292537 26400 net.cpp:150] Setting up relu2a_neg
I0505 14:02:26.292554 26400 net.cpp:157] Top shape: 1 128 16 56 56 (6422528)
I0505 14:02:26.292560 26400 net.cpp:165] Memory required for data: 560295936
I0505 14:02:26.292578 26400 layer_factory.hpp:77] Creating layer pool2_neg
I0505 14:02:26.292590 26400 net.cpp:100] Creating Layer pool2_neg
I0505 14:02:26.292600 26400 net.cpp:434] pool2_neg <- conv2a_neg
I0505 14:02:26.292609 26400 net.cpp:408] pool2_neg -> pool2_neg
I0505 14:02:26.292935 26400 net.cpp:150] Setting up pool2_neg
I0505 14:02:26.292949 26400 net.cpp:157] Top shape: 1 128 8 28 28 (802816)
I0505 14:02:26.292954 26400 net.cpp:165] Memory required for data: 563507200
I0505 14:02:26.292960 26400 layer_factory.hpp:77] Creating layer conv3a_neg
I0505 14:02:26.292976 26400 net.cpp:100] Creating Layer conv3a_neg
I0505 14:02:26.292984 26400 net.cpp:434] conv3a_neg <- pool2_neg
I0505 14:02:26.293021 26400 net.cpp:408] conv3a_neg -> conv3a_neg
I0505 14:02:26.325767 26400 net.cpp:150] Setting up conv3a_neg
I0505 14:02:26.325801 26400 net.cpp:157] Top shape: 1 256 8 28 28 (1605632)
I0505 14:02:26.325806 26400 net.cpp:165] Memory required for data: 569929728
I0505 14:02:26.325821 26400 net.cpp:493] Sharing parameters 'conv3a_w' owned by layer 'conv3a', param index 0
I0505 14:02:26.325829 26400 net.cpp:493] Sharing parameters 'conv3a_b' owned by layer 'conv3a', param index 1
I0505 14:02:26.325834 26400 layer_factory.hpp:77] Creating layer relu3a_neg
I0505 14:02:26.325845 26400 net.cpp:100] Creating Layer relu3a_neg
I0505 14:02:26.325850 26400 net.cpp:434] relu3a_neg <- conv3a_neg
I0505 14:02:26.325865 26400 net.cpp:395] relu3a_neg -> conv3a_neg (in-place)
I0505 14:02:26.327116 26400 net.cpp:150] Setting up relu3a_neg
I0505 14:02:26.327131 26400 net.cpp:157] Top shape: 1 256 8 28 28 (1605632)
I0505 14:02:26.327136 26400 net.cpp:165] Memory required for data: 576352256
I0505 14:02:26.327139 26400 layer_factory.hpp:77] Creating layer pool3_neg
I0505 14:02:26.327152 26400 net.cpp:100] Creating Layer pool3_neg
I0505 14:02:26.327157 26400 net.cpp:434] pool3_neg <- conv3a_neg
I0505 14:02:26.327162 26400 net.cpp:408] pool3_neg -> pool3_neg
I0505 14:02:26.327556 26400 net.cpp:150] Setting up pool3_neg
I0505 14:02:26.327577 26400 net.cpp:157] Top shape: 1 256 4 14 14 (200704)
I0505 14:02:26.327585 26400 net.cpp:165] Memory required for data: 577155072
I0505 14:02:26.327592 26400 layer_factory.hpp:77] Creating layer conv4a_neg
I0505 14:02:26.327616 26400 net.cpp:100] Creating Layer conv4a_neg
I0505 14:02:26.327626 26400 net.cpp:434] conv4a_neg <- pool3_neg
I0505 14:02:26.327642 26400 net.cpp:408] conv4a_neg -> conv4a_neg
I0505 14:02:26.419881 26400 net.cpp:150] Setting up conv4a_neg
I0505 14:02:26.419931 26400 net.cpp:157] Top shape: 1 256 4 14 14 (200704)
I0505 14:02:26.419939 26400 net.cpp:165] Memory required for data: 577957888
I0505 14:02:26.419950 26400 net.cpp:493] Sharing parameters 'conv4a_w' owned by layer 'conv4a', param index 0
I0505 14:02:26.419958 26400 net.cpp:493] Sharing parameters 'conv4a_b' owned by layer 'conv4a', param index 1
I0505 14:02:26.419965 26400 layer_factory.hpp:77] Creating layer relu4a_neg
I0505 14:02:26.419989 26400 net.cpp:100] Creating Layer relu4a_neg
I0505 14:02:26.419997 26400 net.cpp:434] relu4a_neg <- conv4a_neg
I0505 14:02:26.420030 26400 net.cpp:395] relu4a_neg -> conv4a_neg (in-place)
I0505 14:02:26.421447 26400 net.cpp:150] Setting up relu4a_neg
I0505 14:02:26.421470 26400 net.cpp:157] Top shape: 1 256 4 14 14 (200704)
I0505 14:02:26.421476 26400 net.cpp:165] Memory required for data: 578760704
I0505 14:02:26.421489 26400 layer_factory.hpp:77] Creating layer pool4_neg
I0505 14:02:26.421502 26400 net.cpp:100] Creating Layer pool4_neg
I0505 14:02:26.421509 26400 net.cpp:434] pool4_neg <- conv4a_neg
I0505 14:02:26.421528 26400 net.cpp:408] pool4_neg -> pool4_neg
I0505 14:02:26.421924 26400 net.cpp:150] Setting up pool4_neg
I0505 14:02:26.421952 26400 net.cpp:157] Top shape: 1 256 2 7 7 (25088)
I0505 14:02:26.421957 26400 net.cpp:165] Memory required for data: 578861056
I0505 14:02:26.421973 26400 layer_factory.hpp:77] Creating layer conv5a_neg
I0505 14:02:26.421998 26400 net.cpp:100] Creating Layer conv5a_neg
I0505 14:02:26.422013 26400 net.cpp:434] conv5a_neg <- pool4_neg
I0505 14:02:26.422040 26400 net.cpp:408] conv5a_neg -> conv5a_neg
I0505 14:02:26.513140 26400 net.cpp:150] Setting up conv5a_neg
I0505 14:02:26.513196 26400 net.cpp:157] Top shape: 1 256 2 7 7 (25088)
I0505 14:02:26.513203 26400 net.cpp:165] Memory required for data: 578961408
I0505 14:02:26.513219 26400 net.cpp:493] Sharing parameters 'conv5a_w' owned by layer 'conv5a', param index 0
I0505 14:02:26.513228 26400 net.cpp:493] Sharing parameters 'conv5a_b' owned by layer 'conv5a', param index 1
I0505 14:02:26.513238 26400 layer_factory.hpp:77] Creating layer relu5a_neg
I0505 14:02:26.513258 26400 net.cpp:100] Creating Layer relu5a_neg
I0505 14:02:26.513270 26400 net.cpp:434] relu5a_neg <- conv5a_neg
I0505 14:02:26.513319 26400 net.cpp:395] relu5a_neg -> conv5a_neg (in-place)
I0505 14:02:26.513653 26400 net.cpp:150] Setting up relu5a_neg
I0505 14:02:26.513671 26400 net.cpp:157] Top shape: 1 256 2 7 7 (25088)
I0505 14:02:26.513680 26400 net.cpp:165] Memory required for data: 579061760
I0505 14:02:26.513687 26400 layer_factory.hpp:77] Creating layer pool5_neg
I0505 14:02:26.513705 26400 net.cpp:100] Creating Layer pool5_neg
I0505 14:02:26.513713 26400 net.cpp:434] pool5_neg <- conv5a_neg
I0505 14:02:26.513725 26400 net.cpp:408] pool5_neg -> pool5_neg
I0505 14:02:26.517961 26400 net.cpp:150] Setting up pool5_neg
I0505 14:02:26.517992 26400 net.cpp:157] Top shape: 1 256 1 4 4 (4096)
I0505 14:02:26.518003 26400 net.cpp:165] Memory required for data: 579078144
I0505 14:02:26.518009 26400 layer_factory.hpp:77] Creating layer fc6_neg
I0505 14:02:26.518025 26400 net.cpp:100] Creating Layer fc6_neg
I0505 14:02:26.518031 26400 net.cpp:434] fc6_neg <- pool5_neg
I0505 14:02:26.518038 26400 net.cpp:408] fc6_neg -> fc6_neg
I0505 14:02:26.872123 26400 net.cpp:150] Setting up fc6_neg
I0505 14:02:26.872164 26400 net.cpp:157] Top shape: 1 2048 (2048)
I0505 14:02:26.872169 26400 net.cpp:165] Memory required for data: 579086336
I0505 14:02:26.872175 26400 net.cpp:493] Sharing parameters 'fc6_w' owned by layer 'fc6', param index 0
I0505 14:02:26.872184 26400 net.cpp:493] Sharing parameters 'fc6_b' owned by layer 'fc6', param index 1
I0505 14:02:26.872187 26400 layer_factory.hpp:77] Creating layer relu6_neg
I0505 14:02:26.872197 26400 net.cpp:100] Creating Layer relu6_neg
I0505 14:02:26.872202 26400 net.cpp:434] relu6_neg <- fc6_neg
I0505 14:02:26.872208 26400 net.cpp:395] relu6_neg -> fc6_neg (in-place)
I0505 14:02:26.872505 26400 net.cpp:150] Setting up relu6_neg
I0505 14:02:26.872515 26400 net.cpp:157] Top shape: 1 2048 (2048)
I0505 14:02:26.872519 26400 net.cpp:165] Memory required for data: 579094528
I0505 14:02:26.872522 26400 layer_factory.hpp:77] Creating layer drop6_neg
I0505 14:02:26.872544 26400 net.cpp:100] Creating Layer drop6_neg
I0505 14:02:26.872548 26400 net.cpp:434] drop6_neg <- fc6_neg
I0505 14:02:26.872555 26400 net.cpp:395] drop6_neg -> fc6_neg (in-place)
I0505 14:02:26.872593 26400 net.cpp:150] Setting up drop6_neg
I0505 14:02:26.872601 26400 net.cpp:157] Top shape: 1 2048 (2048)
I0505 14:02:26.872603 26400 net.cpp:165] Memory required for data: 579102720
I0505 14:02:26.872607 26400 layer_factory.hpp:77] Creating layer fc7_neg
I0505 14:02:26.872617 26400 net.cpp:100] Creating Layer fc7_neg
I0505 14:02:26.872620 26400 net.cpp:434] fc7_neg <- fc6_neg
I0505 14:02:26.872627 26400 net.cpp:408] fc7_neg -> fc7_neg
I0505 14:02:27.043823 26400 net.cpp:150] Setting up fc7_neg
I0505 14:02:27.043907 26400 net.cpp:157] Top shape: 1 2048 (2048)
I0505 14:02:27.043911 26400 net.cpp:165] Memory required for data: 579110912
I0505 14:02:27.043925 26400 net.cpp:493] Sharing parameters 'fc7_w' owned by layer 'fc7', param index 0
I0505 14:02:27.043936 26400 net.cpp:493] Sharing parameters 'fc7_b' owned by layer 'fc7', param index 1
I0505 14:02:27.043942 26400 layer_factory.hpp:77] Creating layer relu7_neg
I0505 14:02:27.043970 26400 net.cpp:100] Creating Layer relu7_neg
I0505 14:02:27.043985 26400 net.cpp:434] relu7_neg <- fc7_neg
I0505 14:02:27.043999 26400 net.cpp:395] relu7_neg -> fc7_neg (in-place)
I0505 14:02:27.057792 26400 net.cpp:150] Setting up relu7_neg
I0505 14:02:27.057819 26400 net.cpp:157] Top shape: 1 2048 (2048)
I0505 14:02:27.057823 26400 net.cpp:165] Memory required for data: 579119104
I0505 14:02:27.057828 26400 layer_factory.hpp:77] Creating layer drop7_neg
I0505 14:02:27.057840 26400 net.cpp:100] Creating Layer drop7_neg
I0505 14:02:27.057845 26400 net.cpp:434] drop7_neg <- fc7_neg
I0505 14:02:27.057850 26400 net.cpp:395] drop7_neg -> fc7_neg (in-place)
I0505 14:02:27.057904 26400 net.cpp:150] Setting up drop7_neg
I0505 14:02:27.057911 26400 net.cpp:157] Top shape: 1 2048 (2048)
I0505 14:02:27.057914 26400 net.cpp:165] Memory required for data: 579127296
I0505 14:02:27.057917 26400 layer_factory.hpp:77] Creating layer loss
I0505 14:02:27.057947 26400 net.cpp:100] Creating Layer loss
I0505 14:02:27.057951 26400 net.cpp:434] loss <- fc7
I0505 14:02:27.057955 26400 net.cpp:434] loss <- fc7_pos
I0505 14:02:27.057960 26400 net.cpp:434] loss <- fc7_neg
I0505 14:02:27.057965 26400 net.cpp:408] loss -> loss
…
