…
    mean_value: 65
    mean_value: 74
    mean_value: 92
    mean_value: 65
    mean_value: 74
    mean_value: 92
    mean_value: 65
    mean_value: 74
    mean_value: 92
    mean_value: 65
    mean_value: 74
    mean_value: 92
    mean_value: 65
    mean_value: 74
    mean_value: 92
    mean_value: 65
    mean_value: 74
    mean_value: 92
    mean_value: 65
    mean_value: 74
    mean_value: 92
    mean_value: 65
    mean_value: 74
    mean_value: 92
  }
  data_param {
    source: "/data/leo-data/Synthetic/LMDB/Triplets/train"
    batch_size: 18
    backend: LMDB
  }
}
layer {
  name: "slicer"
  type: "Slice"
  bottom: "triplet"
  top: "anchor_stacked"
  top: "positive_stacked"
  top: "negative_stacked"
  slice_param {
    slice_dim: 1
    slice_point: 48
    slice_point: 96
  }
}
layer {
  name: "reshape_anchor"
  type: "Reshape"
  bottom: "anchor_stacked"
  top: "anchor"
  reshape_param {
    shape {
      dim: 0
      dim: 3
      dim: 16
      dim: 112
      dim: 112
    }
  }
}
layer {
  name: "reshape_positive"
  type: "Reshape"
  bottom: "positive_stacked"
  top: "positive"
  reshape_param {
    shape {
      dim: 0
      dim: 3
      dim: 16
      dim: 112
      dim: 112
    }
  }
}
layer {
  name: "reshape_negative"
  type: "Reshape"
  bottom: "negative_stacked"
  top: "negative"
  reshape_param {
    shape {
      dim: 0
      dim: 3
      dim: 16
      dim: 112
      dim: 112
    }
  }
}
layer {
  name: "conv1a"
  type: "NdConvolution"
  bottom: "anchor"
  top: "conv1a"
  param {
    name: "conv1a_w"
    lr_mult: 1
    decay_mult: 1
  }
  param {
    name: "conv1a_b"
    lr_mult: 2
    decay_mult: 0
  }
  convolution_param {
    num_output: 64
    weight_filler {
      type: "gaussian"
      std: 0.01
    }
    bias_filler {
      type: "constant"
      value: 0
    }
    pad_shape {
      dim: 1
      dim: 1
      dim: 1
    }
    kernel_shape {
      dim: 3
      dim: 3
      dim: 3
    }
    stride_shape {
      dim: 1
      dim: 1
      dim: 1
    }
  }
}
layer {
  name: "relu1a"
  type: "ReLU"
  bottom: "conv1a"
  top: "conv1a"
}
layer {
  name: "pool1"
  type: "NdPooling"
  bottom: "conv1a"
  top: "pool1"
  pooling_param {
    pool: MAX
    kernel_shape {
      dim: 1
      dim: 2
      dim: 2
    }
    stride_shape {
      dim: 1
      dim: 2
      dim: 2
    }
  }
}
layer {
  name: "conv2a"
  type: "NdConvolution"
  bottom: "pool1"
  top: "conv2a"
  param {
    name: "conv2a_w"
    lr_mult: 1
    decay_mult: 1
  }
  param {
    name: "conv2a_b"
    lr_mult: 2
    decay_mult: 0
  }
  convolution_param {
    num_output: 128
    weight_filler {
      type: "gaussian"
      std: 0.01
    }
    bias_filler {
      type: "constant"
      value: 1
    }
    pad_shape {
      dim: 1
      dim: 1
      dim: 1
    }
    kernel_shape {
      dim: 3
      dim: 3
      dim: 3
    }
    stride_shape {
      dim: 1
      dim: 1
      dim: 1
    }
  }
}
layer {
  name: "relu2a"
  type: "ReLU"
  bottom: "conv2a"
  top: "conv2a"
}
layer {
  name: "pool2"
  type: "NdPooling"
  bottom: "conv2a"
  top: "pool2"
  pooling_param {
    pool: MAX
    kernel_shape {
      dim: 2
      dim: 2
      dim: 2
    }
    stride_shape {
      dim: 2
      dim: 2
      dim: 2
    }
  }
}
layer {
  name: "conv3a"
  type: "NdConvolution"
  bottom: "pool2"
  top: "conv3a"
  param {
    name: "conv3a_w"
    lr_mult: 1
    decay_mult: 1
  }
  param {
    name: "conv3a_b"
    lr_mult: 2
    decay_mult: 0
  }
  convolution_param {
    num_output: 256
    weight_filler {
      type: "gaussian"
      std: 0.01
    }
    bias_filler {
      type: "constant"
      value: 1
    }
    pad_shape {
      dim: 1
      dim: 1
      dim: 1
    }
    kernel_shape {
      dim: 3
      dim: 3
      dim: 3
    }
    stride_shape {
      dim: 1
      dim: 1
      dim: 1
    }
  }
}
layer {
  name: "relu3a"
  type: "ReLU"
  bottom: "conv3a"
  top: "conv3a"
}
layer {
  name: "pool3"
  type: "NdPooling"
  bottom: "conv3a"
  top: "pool3"
  pooling_param {
    pool: MAX
    kernel_shape {
      dim: 2
      dim: 2
      dim: 2
    }
    stride_shape {
      dim: 2
      dim: 2
      dim: 2
    }
  }
}
layer {
  name: "conv4a"
  type: "NdConvolution"
  bottom: "pool3"
  top: "conv4a"
  param {
    name: "conv4a_w"
    lr_mult: 1
    decay_mult: 1
  }
  param {
    name: "conv4a_b"
    lr_mult: 2
    decay_mult: 0
  }
  convolution_param {
    num_output: 256
    weight_filler {
      type: "gaussian"
      std: 0.01
    }
    bias_filler {
      type: "constant"
      value: 1
    }
    pad_shape {
      dim: 1
      dim: 1
      dim: 1
    }
    kernel_shape {
      dim: 3
      dim: 3
      dim: 3
    }
    stride_shape {
      dim: 1
      dim: 1
      dim: 1
    }
  }
}
layer {
  name: "relu4a"
  type: "ReLU"
  bottom: "conv4a"
  top: "conv4a"
}
layer {
  name: "pool4"
  type: "NdPooling"
  bottom: "conv4a"
  top: "pool4"
  pooling_param {
    pool: MAX
    kernel_shape {
      dim: 2
      dim: 2
      dim: 2
    }
    stride_shape {
      dim: 2
      dim: 2
      dim: 2
    }
  }
}
layer {
  name: "conv5a"
  type: "NdConvolution"
  bottom: "pool4"
  top: "conv5a"
  param {
    name: "conv5a_w"
    lr_mult: 1
    decay_mult: 1
  }
  param {
    name: "conv5a_b"
    lr_mult: 2
    decay_mult: 0
  }
  convolution_param {
    num_output: 256
    weight_filler {
      type: "gaussian"
      std: 0.01
    }
    bias_filler {
      type: "constant"
      value: 1
    }
    pad_shape {
      dim: 1
      dim: 1
      dim: 1
    }
    kernel_shape {
      dim: 3
      dim: 3
      dim: 3
    }
    stride_shape {
      dim: 1
      dim: 1
      dim: 1
    }
  }
}
layer {
  name: "relu5a"
  type: "ReLU"
  bottom: "conv5a"
  top: "conv5a"
}
layer {
  name: "pool5"
  type: "NdPooling"
  bottom: "conv5a"
  top: "pool5"
  pooling_param {
    pool: MAX
    kernel_shape {
      dim: 2
      dim: 2
      dim: 2
    }
    stride_shape {
      dim: 2
      dim: 2
      dim: 2
    }
  }
}
layer {
  name: "fc6"
  type: "InnerProduct"
  bottom: "pool5"
  top: "fc6"
  param {
    name: "fc6_w"
    lr_mult: 1
    decay_mult: 1
  }
  param {
    name: "fc6_b"
    lr_mult: 2
    decay_mult: 0
  }
  inner_product_param {
    num_output: 2048
    weight_filler {
      type: "gaussian"
      std: 0.005
    }
    bias_filler {
      type: "constant"
      value: 1
    }
  }
}
layer {
  name: "relu6"
  type: "ReLU"
  bottom: "fc6"
  top: "fc6"
}
layer {
  name: "drop6"
  type: "Dropout"
  bottom: "fc6"
  top: "fc6"
  dropout_param {
    dropout_ratio: 0.5
  }
}
layer {
  name: "fc7"
  type: "InnerProduct"
  bottom: "fc6"
  top: "fc7"
  param {
    name: "fc7_w"
    lr_mult: 1
    decay_mult: 1
  }
  param {
    name: "fc7_b"
    lr_mult: 2
    decay_mult: 0
  }
  inner_product_param {
    num_output: 2048
    weight_filler {
      type: "gaussian"
      std: 0.005
    }
    bias_filler {
      type: "constant"
      value: 1
    }
  }
}
layer {
  name: "relu7"
  type: "ReLU"
  bottom: "fc7"
  top: "fc7"
}
layer {
  name: "drop7"
  type: "Dropout"
  bottom: "fc7"
  top: "fc7"
  dropout_param {
    dropout_ratio: 0.5
  }
}
layer {
  name: "conv1a_pos"
  type: "NdConvolution"
  bottom: "positive"
  top: "conv1a_pos"
  param {
    name: "conv1a_w"
    lr_mult: 1
    decay_mult: 1
  }
  param {
    name: "conv1a_b"
    lr_mult: 2
    decay_mult: 0
  }
  convolution_param {
    num_output: 64
    weight_filler {
      type: "gaussian"
      std: 0.01
    }
    bias_filler {
      type: "constant"
      value: 0
    }
    pad_shape {
      dim: 1
      dim: 1
      dim: 1
    }
    kernel_shape {
      dim: 3
      dim: 3
      dim: 3
    }
    stride_shape {
      dim: 1
      dim: 1
      dim: 1
    }
  }
}
layer {
  name: "relu1a_pos"
  type: "ReLU"
  bottom: "conv1a_pos"
  top: "conv1a_pos"
}
layer {
  name: "pool1_pos"
  type: "NdPooling"
  bottom: "conv1a_pos"
  top: "pool1_pos"
  pooling_param {
    pool: MAX
    kernel_shape {
      dim: 1
      dim: 2
      dim: 2
    }
    stride_shape {
      dim: 1
      dim: 2
      dim: 2
    }
  }
}
layer {
  name: "conv2a_pos"
  type: "NdConvolution"
  bottom: "pool1_pos"
  top: "conv2a_pos"
  param {
    name: "conv2a_w"
    lr_mult: 1
    decay_mult: 1
  }
  param {
    name: "conv2a_b"
    lr_mult: 2
    decay_mult: 0
  }
  convolution_param {
    num_output: 128
    weight_filler {
      type: "gaussian"
      std: 0.01
    }
    bias_filler {
      type: "constant"
      value: 1
    }
    pad_shape {
      dim: 1
      dim: 1
      dim: 1
    }
    kernel_shape {
      dim: 3
      dim: 3
      dim: 3
    }
    stride_shape {
      dim: 1
      dim: 1
      dim: 1
    }
  }
}
layer {
  name: "relu2a_pos"
  type: "ReLU"
  bottom: "conv2a_pos"
  top: "conv2a_pos"
}
layer {
  name: "pool2_pos"
  type: "NdPooling"
  bottom: "conv2a_pos"
  top: "pool2_pos"
  pooling_param {
    pool: MAX
    kernel_shape {
      dim: 2
      dim: 2
      dim: 2
    }
    stride_shape {
      dim: 2
      dim: 2
      dim: 2
    }
  }
}
layer {
  name: "conv3a_pos"
  type: "NdConvolution"
  bottom: "pool2_pos"
  top: "conv3a_pos"
  param {
    name: "conv3a_w"
    lr_mult: 1
    decay_mult: 1
  }
  param {
    name: "conv3a_b"
    lr_mult: 2
    decay_mult: 0
  }
  convolution_param {
    num_output: 256
    weight_filler {
      type: "gaussian"
      std: 0.01
    }
    bias_filler {
      type: "constant"
      value: 1
    }
    pad_shape {
      dim: 1
      dim: 1
      dim: 1
    }
    kernel_shape {
      dim: 3
      dim: 3
      dim: 3
    }
    stride_shape {
      dim: 1
      dim: 1
      dim: 1
    }
  }
}
layer {
  name: "relu3a_pos"
  type: "ReLU"
  bottom: "conv3a_pos"
  top: "conv3a_pos"
}
layer {
  name: "pool3_pos"
  type: "NdPooling"
  bottom: "conv3a_pos"
  top: "pool3_pos"
  pooling_param {
    pool: MAX
    kernel_shape {
      dim: 2
      dim: 2
      dim: 2
    }
    stride_shape {
      dim: 2
      dim: 2
      dim: 2
    }
  }
}
layer {
  name: "conv4a_pos"
  type: "NdConvolution"
  bottom: "pool3_pos"
  top: "conv4a_pos"
  param {
    name: "conv4a_w"
    lr_mult: 1
    decay_mult: 1
  }
  param {
    name: "conv4a_b"
    lr_mult: 2
    decay_mult: 0
  }
  convolution_param {
    num_output: 256
    weight_filler {
      type: "gaussian"
      std: 0.01
    }
    bias_filler {
      type: "constant"
      value: 1
    }
    pad_shape {
      dim: 1
      dim: 1
      dim: 1
    }
    kernel_shape {
      dim: 3
      dim: 3
      dim: 3
    }
    stride_shape {
      dim: 1
      dim: 1
      dim: 1
    }
  }
}
layer {
  name: "relu4a_pos"
  type: "ReLU"
  bottom: "conv4a_pos"
  top: "conv4a_pos"
}
layer {
  name: "pool4_pos"
  type: "NdPooling"
  bottom: "conv4a_pos"
  top: "pool4_pos"
  pooling_param {
    pool: MAX
    kernel_shape {
      dim: 2
      dim: 2
      dim: 2
    }
    stride_shape {
      dim: 2
      dim: 2
      dim: 2
    }
  }
}
layer {
  name: "conv5a_pos"
  type: "NdConvolution"
  bottom: "pool4_pos"
  top: "conv5a_pos"
  param {
    name: "conv5a_w"
    lr_mult: 1
    decay_mult: 1
  }
  param {
    name: "conv5a_b"
    lr_mult: 2
    decay_mult: 0
  }
  convolution_param {
    num_output: 256
    weight_filler {
      type: "gaussian"
      std: 0.01
    }
    bias_filler {
      type: "constant"
      value: 1
    }
    pad_shape {
      dim: 1
      dim: 1
      dim: 1
    }
    kernel_shape {
      dim: 3
      dim: 3
      dim: 3
    }
    stride_shape {
      dim: 1
      dim: 1
      dim: 1
    }
  }
}
layer {
  name: "relu5a_pos"
  type: "ReLU"
  bottom: "conv5a_pos"
  top: "conv5a_pos"
}
layer {
  name: "pool5_pos"
  type: "NdPooling"
  bottom: "conv5a_pos"
  top: "pool5_pos"
  pooling_param {
    pool: MAX
    kernel_shape {
      dim: 2
      dim: 2
      dim: 2
    }
    stride_shape {
      dim: 2
      dim: 2
      dim: 2
    }
  }
}
layer {
  name: "fc6_pos"
  type: "InnerProduct"
  bottom: "pool5_pos"
  top: "fc6_pos"
  param {
    name: "fc6_w"
    lr_mult: 1
    decay_mult: 1
  }
  param {
    name: "fc6_b"
    lr_mult: 2
    decay_mult: 0
  }
  inner_product_param {
    num_output: 2048
    weight_filler {
      type: "gaussian"
      std: 0.005
    }
    bias_filler {
      type: "constant"
      value: 1
    }
  }
}
layer {
  name: "relu6_pos"
  type: "ReLU"
  bottom: "fc6_pos"
  top: "fc6_pos"
}
layer {
  name: "drop6_pos"
  type: "Dropout"
  bottom: "fc6_pos"
  top: "fc6_pos"
  dropout_param {
    dropout_ratio: 0.5
  }
}
layer {
  name: "fc7_pos"
  type: "InnerProduct"
  bottom: "fc6_pos"
  top: "fc7_pos"
  param {
    name: "fc7_w"
    lr_mult: 1
    decay_mult: 1
  }
  param {
    name: "fc7_b"
    lr_mult: 2
    decay_mult: 0
  }
  inner_product_param {
    num_output: 2048
    weight_filler {
      type: "gaussian"
      std: 0.005
    }
    bias_filler {
      type: "constant"
      value: 1
    }
  }
}
layer {
  name: "relu7_pos"
  type: "ReLU"
  bottom: "fc7_pos"
  top: "fc7_pos"
}
layer {
  name: "drop7_pos"
  type: "Dropout"
  bottom: "fc7_pos"
  top: "fc7_pos"
  dropout_param {
    dropout_ratio: 0.5
  }
}
layer {
  name: "conv1a_neg"
  type: "NdConvolution"
  bottom: "negative"
  top: "conv1a_neg"
  param {
    name: "conv1a_w"
    lr_mult: 1
    decay_mult: 1
  }
  param {
    name: "conv1a_b"
    lr_mult: 2
    decay_mult: 0
  }
  convolution_param {
    num_output: 64
    weight_filler {
      type: "gaussian"
      std: 0.01
    }
    bias_filler {
      type: "constant"
      value: 0
    }
    pad_shape {
      dim: 1
      dim: 1
      dim: 1
    }
    kernel_shape {
      dim: 3
      dim: 3
      dim: 3
    }
    stride_shape {
      dim: 1
      dim: 1
      dim: 1
    }
  }
}
layer {
  name: "relu1a_neg"
  type: "ReLU"
  bottom: "conv1a_neg"
  top: "conv1a_neg"
}
layer {
  name: "pool1_neg"
  type: "NdPooling"
  bottom: "conv1a_neg"
  top: "pool1_neg"
  pooling_param {
    pool: MAX
    kernel_shape {
      dim: 1
      dim: 2
      dim: 2
    }
    stride_shape {
      dim: 1
      dim: 2
      dim: 2
    }
  }
}
layer {
  name: "conv2a_neg"
  type: "NdConvolution"
  bottom: "pool1_neg"
  top: "conv2a_neg"
  param {
    name: "conv2a_w"
    lr_mult: 1
    decay_mult: 1
  }
  param {
    name: "conv2a_b"
    lr_mult: 2
    decay_mult: 0
  }
  convolution_param {
    num_output: 128
    weight_filler {
      type: "gaussian"
      std: 0.01
    }
    bias_filler {
      type: "constant"
      value: 1
    }
    pad_shape {
      dim: 1
      dim: 1
      dim: 1
    }
    kernel_shape {
      dim: 3
      dim: 3
      dim: 3
    }
    stride_shape {
      dim: 1
      dim: 1
      dim: 1
    }
  }
}
layer {
  name: "relu2a_neg"
  type: "ReLU"
  bottom: "conv2a_neg"
  top: "conv2a_neg"
}
layer {
  name: "pool2_neg"
  type: "NdPooling"
  bottom: "conv2a_neg"
  top: "pool2_neg"
  pooling_param {
    pool: MAX
    kernel_shape {
      dim: 2
      dim: 2
      dim: 2
    }
    stride_shape {
      dim: 2
      dim: 2
      dim: 2
    }
  }
}
layer {
  name: "conv3a_neg"
  type: "NdConvolution"
  bottom: "pool2_neg"
  top: "conv3a_neg"
  param {
    name: "conv3a_w"
    lr_mult: 1
    decay_mult: 1
  }
  param {
    name: "conv3a_b"
    lr_mult: 2
    decay_mult: 0
  }
  convolution_param {
    num_output: 256
    weight_filler {
      type: "gaussian"
      std: 0.01
    }
    bias_filler {
      type: "constant"
      value: 1
    }
    pad_shape {
      dim: 1
      dim: 1
      dim: 1
    }
    kernel_shape {
      dim: 3
      dim: 3
      dim: 3
    }
    stride_shape {
      dim: 1
      dim: 1
      dim: 1
    }
  }
}
layer {
  name: "relu3a_neg"
  type: "ReLU"
  bottom: "conv3a_neg"
  top: "conv3a_neg"
}
layer {
  name: "pool3_neg"
  type: "NdPooling"
  bottom: "conv3a_neg"
  top: "pool3_neg"
  pooling_param {
    pool: MAX
    kernel_shape {
      dim: 2
      dim: 2
      dim: 2
    }
    stride_shape {
      dim: 2
      dim: 2
      dim: 2
    }
  }
}
layer {
  name: "conv4a_neg"
  type: "NdConvolution"
  bottom: "pool3_neg"
  top: "conv4a_neg"
  param {
    name: "conv4a_w"
    lr_mult: 1
    decay_mult: 1
  }
  param {
    name: "conv4a_b"
    lr_mult: 2
    decay_mult: 0
  }
  convolution_param {
    num_output: 256
    weight_filler {
      type: "gaussian"
      std: 0.01
    }
    bias_filler {
      type: "constant"
      value: 1
    }
    pad_shape {
      dim: 1
      dim: 1
      dim: 1
    }
    kernel_shape {
      dim: 3
      dim: 3
      dim: 3
    }
    stride_shape {
      dim: 1
      dim: 1
      dim: 1
    }
  }
}
layer {
  name: "relu4a_neg"
  type: "ReLU"
  bottom: "conv4a_neg"
  top: "conv4a_neg"
}
layer {
  name: "pool4_neg"
  type: "NdPooling"
  bottom: "conv4a_neg"
  top: "pool4_neg"
  pooling_param {
    pool: MAX
    kernel_shape {
      dim: 2
      dim: 2
      dim: 2
    }
    stride_shape {
      dim: 2
      dim: 2
      dim: 2
    }
  }
}
layer {
  name: "conv5a_neg"
  type: "NdConvolution"
  bottom: "pool4_neg"
  top: "conv5a_neg"
  param {
    name: "conv5a_w"
    lr_mult: 1
    decay_mult: 1
  }
  param {
    name: "conv5a_b"
    lr_mult: 2
    decay_mult: 0
  }
  convolution_param {
    num_output: 256
    weight_filler {
      type: "gaussian"
      std: 0.01
    }
    bias_filler {
      type: "constant"
      value: 1
    }
    pad_shape {
      dim: 1
      dim: 1
      dim: 1
    }
    kernel_shape {
      dim: 3
      dim: 3
      dim: 3
    }
    stride_shape {
      dim: 1
      dim: 1
      dim: 1
    }
  }
}
layer {
  name: "relu5a_neg"
  type: "ReLU"
  bottom: "conv5a_neg"
  top: "conv5a_neg"
}
layer {
  name: "pool5_neg"
  type: "NdPooling"
  bottom: "conv5a_neg"
  top: "pool5_neg"
  pooling_param {
    pool: MAX
    kernel_shape {
      dim: 2
      dim: 2
      dim: 2
    }
    stride_shape {
      dim: 2
      dim: 2
      dim: 2
    }
  }
}
layer {
  name: "fc6_neg"
  type: "InnerProduct"
  bottom: "pool5_neg"
  top: "fc6_neg"
  param {
    name: "fc6_w"
    lr_mult: 1
    decay_mult: 1
  }
  param {
    name: "fc6_b"
    lr_mult: 2
    decay_mult: 0
  }
  inner_product_param {
    num_output: 2048
    weight_filler {
      type: "gaussian"
      std: 0.005
    }
    bias_filler {
      type: "constant"
      value: 1
    }
  }
}
layer {
  name: "relu6_neg"
  type: "ReLU"
  bottom: "fc6_neg"
  top: "fc6_neg"
}
layer {
  name: "drop6_neg"
  type: "Dropout"
  bottom: "fc6_neg"
  top: "fc6_neg"
  dropout_param {
    dropout_ratio: 0.5
  }
}
layer {
  name: "fc7_neg"
  type: "InnerProduct"
  bottom: "fc6_neg"
  top: "fc7_neg"
  param {
    name: "fc7_w"
    lr_mult: 1
    decay_mult: 1
  }
  param {
    name: "fc7_b"
    lr_mult: 2
    decay_mult: 0
  }
  inner_product_param {
    num_output: 2048
    weight_filler {
      type: "gaussian"
      std: 0.005
    }
    bias_filler {
      type: "constant"
      value: 1
    }
  }
}
layer {
  name: "relu7_neg"
  type: "ReLU"
  bottom: "fc7_neg"
  top: "fc7_neg"
}
layer {
  name: "drop7_neg"
  type: "Dropout"
  bottom: "fc7_neg"
  top: "fc7_neg"
  dropout_param {
    dropout_ratio: 0.5
  }
}
layer {
  name: "loss"
  type: "TripletLoss"
  bottom: "fc7"
  bottom: "fc7_pos"
  bottom: "fc7_neg"
  top: "loss"
  threshold_param {
    threshold: 1
  }
}
I0507 17:39:07.205736  5077 layer_factory.hpp:77] Creating layer data
I0507 17:39:07.207190  5077 net.cpp:100] Creating Layer data
I0507 17:39:07.207223  5077 net.cpp:408] data -> triplet
I0507 17:39:07.209429  5087 db_lmdb.cpp:35] Opened lmdb /data/leo-data/Synthetic/LMDB/Triplets/train
I0507 17:39:07.282196  5077 data_layer.cpp:41] output data size: 18,144,112,112
I0507 17:39:07.611075  5077 net.cpp:150] Setting up data
I0507 17:39:07.611147  5077 net.cpp:157] Top shape: 18 144 112 112 (32514048)
I0507 17:39:07.611158  5077 net.cpp:165] Memory required for data: 130056192
I0507 17:39:07.611191  5077 layer_factory.hpp:77] Creating layer slicer
I0507 17:39:07.611244  5077 net.cpp:100] Creating Layer slicer
I0507 17:39:07.611258  5077 net.cpp:434] slicer <- triplet
I0507 17:39:07.611277  5077 net.cpp:408] slicer -> anchor_stacked
I0507 17:39:07.611304  5077 net.cpp:408] slicer -> positive_stacked
I0507 17:39:07.611315  5077 net.cpp:408] slicer -> negative_stacked
I0507 17:39:07.611500  5077 net.cpp:150] Setting up slicer
I0507 17:39:07.611511  5077 net.cpp:157] Top shape: 18 48 112 112 (10838016)
I0507 17:39:07.611518  5077 net.cpp:157] Top shape: 18 48 112 112 (10838016)
I0507 17:39:07.611524  5077 net.cpp:157] Top shape: 18 48 112 112 (10838016)
I0507 17:39:07.611528  5077 net.cpp:165] Memory required for data: 260112384
I0507 17:39:07.611541  5077 layer_factory.hpp:77] Creating layer reshape_anchor
I0507 17:39:07.611570  5077 net.cpp:100] Creating Layer reshape_anchor
I0507 17:39:07.611578  5077 net.cpp:434] reshape_anchor <- anchor_stacked
I0507 17:39:07.611593  5077 net.cpp:408] reshape_anchor -> anchor
I0507 17:39:07.611644  5077 net.cpp:150] Setting up reshape_anchor
I0507 17:39:07.611655  5077 net.cpp:157] Top shape: 18 3 16 112 112 (10838016)
I0507 17:39:07.611660  5077 net.cpp:165] Memory required for data: 303464448
I0507 17:39:07.611665  5077 layer_factory.hpp:77] Creating layer reshape_positive
I0507 17:39:07.611672  5077 net.cpp:100] Creating Layer reshape_positive
I0507 17:39:07.611680  5077 net.cpp:434] reshape_positive <- positive_stacked
I0507 17:39:07.611687  5077 net.cpp:408] reshape_positive -> positive
I0507 17:39:07.611755  5077 net.cpp:150] Setting up reshape_positive
I0507 17:39:07.611765  5077 net.cpp:157] Top shape: 18 3 16 112 112 (10838016)
I0507 17:39:07.611769  5077 net.cpp:165] Memory required for data: 346816512
I0507 17:39:07.611774  5077 layer_factory.hpp:77] Creating layer reshape_negative
I0507 17:39:07.611784  5077 net.cpp:100] Creating Layer reshape_negative
I0507 17:39:07.611791  5077 net.cpp:434] reshape_negative <- negative_stacked
I0507 17:39:07.611800  5077 net.cpp:408] reshape_negative -> negative
I0507 17:39:07.611826  5077 net.cpp:150] Setting up reshape_negative
I0507 17:39:07.611835  5077 net.cpp:157] Top shape: 18 3 16 112 112 (10838016)
I0507 17:39:07.611840  5077 net.cpp:165] Memory required for data: 390168576
I0507 17:39:07.611845  5077 layer_factory.hpp:77] Creating layer conv1a
I0507 17:39:07.611861  5077 net.cpp:100] Creating Layer conv1a
I0507 17:39:07.611867  5077 net.cpp:434] conv1a <- anchor
I0507 17:39:07.611879  5077 net.cpp:408] conv1a -> conv1a
I0507 17:39:08.308497  5077 net.cpp:150] Setting up conv1a
I0507 17:39:08.308547  5077 net.cpp:157] Top shape: 18 64 16 112 112 (231211008)
I0507 17:39:08.308550  5077 net.cpp:165] Memory required for data: 1315012608
I0507 17:39:08.308571  5077 layer_factory.hpp:77] Creating layer relu1a
I0507 17:39:08.308588  5077 net.cpp:100] Creating Layer relu1a
I0507 17:39:08.308591  5077 net.cpp:434] relu1a <- conv1a
I0507 17:39:08.308598  5077 net.cpp:395] relu1a -> conv1a (in-place)
I0507 17:39:08.309506  5077 net.cpp:150] Setting up relu1a
I0507 17:39:08.309520  5077 net.cpp:157] Top shape: 18 64 16 112 112 (231211008)
I0507 17:39:08.309535  5077 net.cpp:165] Memory required for data: 2239856640
I0507 17:39:08.309540  5077 layer_factory.hpp:77] Creating layer pool1
I0507 17:39:08.309550  5077 net.cpp:100] Creating Layer pool1
I0507 17:39:08.309552  5077 net.cpp:434] pool1 <- conv1a
I0507 17:39:08.309558  5077 net.cpp:408] pool1 -> pool1
I0507 17:39:08.309810  5077 net.cpp:150] Setting up pool1
I0507 17:39:08.309823  5077 net.cpp:157] Top shape: 18 64 16 56 56 (57802752)
I0507 17:39:08.309825  5077 net.cpp:165] Memory required for data: 2471067648
I0507 17:39:08.309844  5077 layer_factory.hpp:77] Creating layer conv2a
I0507 17:39:08.309857  5077 net.cpp:100] Creating Layer conv2a
I0507 17:39:08.309862  5077 net.cpp:434] conv2a <- pool1
I0507 17:39:08.309870  5077 net.cpp:408] conv2a -> conv2a
I0507 17:39:08.319475  5077 net.cpp:150] Setting up conv2a
I0507 17:39:08.319504  5077 net.cpp:157] Top shape: 18 128 16 56 56 (115605504)
I0507 17:39:08.319507  5077 net.cpp:165] Memory required for data: 2933489664
I0507 17:39:08.319517  5077 layer_factory.hpp:77] Creating layer relu2a
I0507 17:39:08.319524  5077 net.cpp:100] Creating Layer relu2a
I0507 17:39:08.319527  5077 net.cpp:434] relu2a <- conv2a
I0507 17:39:08.319532  5077 net.cpp:395] relu2a -> conv2a (in-place)
I0507 17:39:08.320354  5077 net.cpp:150] Setting up relu2a
I0507 17:39:08.320369  5077 net.cpp:157] Top shape: 18 128 16 56 56 (115605504)
I0507 17:39:08.320384  5077 net.cpp:165] Memory required for data: 3395911680
I0507 17:39:08.320387  5077 layer_factory.hpp:77] Creating layer pool2
I0507 17:39:08.320394  5077 net.cpp:100] Creating Layer pool2
I0507 17:39:08.320399  5077 net.cpp:434] pool2 <- conv2a
I0507 17:39:08.320405  5077 net.cpp:408] pool2 -> pool2
I0507 17:39:08.320606  5077 net.cpp:150] Setting up pool2
I0507 17:39:08.320617  5077 net.cpp:157] Top shape: 18 128 8 28 28 (14450688)
I0507 17:39:08.320621  5077 net.cpp:165] Memory required for data: 3453714432
I0507 17:39:08.320624  5077 layer_factory.hpp:77] Creating layer conv3a
I0507 17:39:08.320636  5077 net.cpp:100] Creating Layer conv3a
I0507 17:39:08.320641  5077 net.cpp:434] conv3a <- pool2
I0507 17:39:08.320647  5077 net.cpp:408] conv3a -> conv3a
I0507 17:39:08.359324  5077 net.cpp:150] Setting up conv3a
I0507 17:39:08.359370  5077 net.cpp:157] Top shape: 18 256 8 28 28 (28901376)
I0507 17:39:08.359375  5077 net.cpp:165] Memory required for data: 3569319936
I0507 17:39:08.359391  5077 layer_factory.hpp:77] Creating layer relu3a
I0507 17:39:08.359432  5077 net.cpp:100] Creating Layer relu3a
I0507 17:39:08.359437  5077 net.cpp:434] relu3a <- conv3a
I0507 17:39:08.359443  5077 net.cpp:395] relu3a -> conv3a (in-place)
I0507 17:39:08.360280  5077 net.cpp:150] Setting up relu3a
I0507 17:39:08.360292  5077 net.cpp:157] Top shape: 18 256 8 28 28 (28901376)
I0507 17:39:08.360307  5077 net.cpp:165] Memory required for data: 3684925440
I0507 17:39:08.360311  5077 layer_factory.hpp:77] Creating layer pool3
I0507 17:39:08.360323  5077 net.cpp:100] Creating Layer pool3
I0507 17:39:08.360327  5077 net.cpp:434] pool3 <- conv3a
I0507 17:39:08.360332  5077 net.cpp:408] pool3 -> pool3
I0507 17:39:08.360560  5077 net.cpp:150] Setting up pool3
I0507 17:39:08.360571  5077 net.cpp:157] Top shape: 18 256 4 14 14 (3612672)
I0507 17:39:08.360574  5077 net.cpp:165] Memory required for data: 3699376128
I0507 17:39:08.360594  5077 layer_factory.hpp:77] Creating layer conv4a
I0507 17:39:08.360607  5077 net.cpp:100] Creating Layer conv4a
I0507 17:39:08.360612  5077 net.cpp:434] conv4a <- pool3
I0507 17:39:08.360620  5077 net.cpp:408] conv4a -> conv4a
I0507 17:39:08.427525  5077 net.cpp:150] Setting up conv4a
I0507 17:39:08.427572  5077 net.cpp:157] Top shape: 18 256 4 14 14 (3612672)
I0507 17:39:08.427577  5077 net.cpp:165] Memory required for data: 3713826816
I0507 17:39:08.427587  5077 layer_factory.hpp:77] Creating layer relu4a
I0507 17:39:08.427600  5077 net.cpp:100] Creating Layer relu4a
I0507 17:39:08.427604  5077 net.cpp:434] relu4a <- conv4a
I0507 17:39:08.427611  5077 net.cpp:395] relu4a -> conv4a (in-place)
I0507 17:39:08.427804  5077 net.cpp:150] Setting up relu4a
I0507 17:39:08.427816  5077 net.cpp:157] Top shape: 18 256 4 14 14 (3612672)
I0507 17:39:08.427820  5077 net.cpp:165] Memory required for data: 3728277504
I0507 17:39:08.427824  5077 layer_factory.hpp:77] Creating layer pool4
I0507 17:39:08.427839  5077 net.cpp:100] Creating Layer pool4
I0507 17:39:08.427842  5077 net.cpp:434] pool4 <- conv4a
I0507 17:39:08.427856  5077 net.cpp:408] pool4 -> pool4
I0507 17:39:08.428755  5077 net.cpp:150] Setting up pool4
I0507 17:39:08.428771  5077 net.cpp:157] Top shape: 18 256 2 7 7 (451584)
I0507 17:39:08.428777  5077 net.cpp:165] Memory required for data: 3730083840
I0507 17:39:08.428795  5077 layer_factory.hpp:77] Creating layer conv5a
I0507 17:39:08.428833  5077 net.cpp:100] Creating Layer conv5a
I0507 17:39:08.428839  5077 net.cpp:434] conv5a <- pool4
I0507 17:39:08.428851  5077 net.cpp:408] conv5a -> conv5a
I0507 17:39:08.496479  5077 net.cpp:150] Setting up conv5a
I0507 17:39:08.496520  5077 net.cpp:157] Top shape: 18 256 2 7 7 (451584)
I0507 17:39:08.496526  5077 net.cpp:165] Memory required for data: 3731890176
I0507 17:39:08.496549  5077 layer_factory.hpp:77] Creating layer relu5a
I0507 17:39:08.496567  5077 net.cpp:100] Creating Layer relu5a
I0507 17:39:08.496573  5077 net.cpp:434] relu5a <- conv5a
I0507 17:39:08.496582  5077 net.cpp:395] relu5a -> conv5a (in-place)
I0507 17:39:08.496829  5077 net.cpp:150] Setting up relu5a
I0507 17:39:08.496845  5077 net.cpp:157] Top shape: 18 256 2 7 7 (451584)
I0507 17:39:08.496850  5077 net.cpp:165] Memory required for data: 3733696512
I0507 17:39:08.496855  5077 layer_factory.hpp:77] Creating layer pool5
I0507 17:39:08.496872  5077 net.cpp:100] Creating Layer pool5
I0507 17:39:08.496881  5077 net.cpp:434] pool5 <- conv5a
I0507 17:39:08.496893  5077 net.cpp:408] pool5 -> pool5
I0507 17:39:08.500921  5077 net.cpp:150] Setting up pool5
I0507 17:39:08.500967  5077 net.cpp:157] Top shape: 18 256 1 4 4 (73728)
I0507 17:39:08.500972  5077 net.cpp:165] Memory required for data: 3733991424
I0507 17:39:08.500979  5077 layer_factory.hpp:77] Creating layer fc6
I0507 17:39:08.501041  5077 net.cpp:100] Creating Layer fc6
I0507 17:39:08.501049  5077 net.cpp:434] fc6 <- pool5
I0507 17:39:08.501065  5077 net.cpp:408] fc6 -> fc6
I0507 17:39:08.844204  5077 net.cpp:150] Setting up fc6
I0507 17:39:08.844236  5077 net.cpp:157] Top shape: 18 2048 (36864)
I0507 17:39:08.844243  5077 net.cpp:165] Memory required for data: 3734138880
I0507 17:39:08.844290  5077 layer_factory.hpp:77] Creating layer relu6
I0507 17:39:08.844305  5077 net.cpp:100] Creating Layer relu6
I0507 17:39:08.844311  5077 net.cpp:434] relu6 <- fc6
I0507 17:39:08.844321  5077 net.cpp:395] relu6 -> fc6 (in-place)
I0507 17:39:08.844616  5077 net.cpp:150] Setting up relu6
I0507 17:39:08.844626  5077 net.cpp:157] Top shape: 18 2048 (36864)
I0507 17:39:08.844630  5077 net.cpp:165] Memory required for data: 3734286336
I0507 17:39:08.844633  5077 layer_factory.hpp:77] Creating layer drop6
I0507 17:39:08.844643  5077 net.cpp:100] Creating Layer drop6
I0507 17:39:08.844647  5077 net.cpp:434] drop6 <- fc6
I0507 17:39:08.844655  5077 net.cpp:395] drop6 -> fc6 (in-place)
I0507 17:39:08.844686  5077 net.cpp:150] Setting up drop6
I0507 17:39:08.844692  5077 net.cpp:157] Top shape: 18 2048 (36864)
I0507 17:39:08.844696  5077 net.cpp:165] Memory required for data: 3734433792
I0507 17:39:08.844698  5077 layer_factory.hpp:77] Creating layer fc7
I0507 17:39:08.844709  5077 net.cpp:100] Creating Layer fc7
I0507 17:39:08.844714  5077 net.cpp:434] fc7 <- fc6
I0507 17:39:08.844720  5077 net.cpp:408] fc7 -> fc7
I0507 17:39:08.976377  5077 net.cpp:150] Setting up fc7
I0507 17:39:08.976420  5077 net.cpp:157] Top shape: 18 2048 (36864)
I0507 17:39:08.976428  5077 net.cpp:165] Memory required for data: 3734581248
I0507 17:39:08.976441  5077 layer_factory.hpp:77] Creating layer relu7
I0507 17:39:08.976454  5077 net.cpp:100] Creating Layer relu7
I0507 17:39:08.976459  5077 net.cpp:434] relu7 <- fc7
I0507 17:39:08.976464  5077 net.cpp:395] relu7 -> fc7 (in-place)
I0507 17:39:08.977429  5077 net.cpp:150] Setting up relu7
I0507 17:39:08.977442  5077 net.cpp:157] Top shape: 18 2048 (36864)
I0507 17:39:08.977457  5077 net.cpp:165] Memory required for data: 3734728704
I0507 17:39:08.977460  5077 layer_factory.hpp:77] Creating layer drop7
I0507 17:39:08.977470  5077 net.cpp:100] Creating Layer drop7
I0507 17:39:08.977474  5077 net.cpp:434] drop7 <- fc7
I0507 17:39:08.977479  5077 net.cpp:395] drop7 -> fc7 (in-place)
I0507 17:39:08.977510  5077 net.cpp:150] Setting up drop7
I0507 17:39:08.977516  5077 net.cpp:157] Top shape: 18 2048 (36864)
I0507 17:39:08.977519  5077 net.cpp:165] Memory required for data: 3734876160
I0507 17:39:08.977522  5077 layer_factory.hpp:77] Creating layer conv1a_pos
I0507 17:39:08.977533  5077 net.cpp:100] Creating Layer conv1a_pos
I0507 17:39:08.977548  5077 net.cpp:434] conv1a_pos <- positive
I0507 17:39:08.977560  5077 net.cpp:408] conv1a_pos -> conv1a_pos
I0507 17:39:08.981866  5077 net.cpp:150] Setting up conv1a_pos
I0507 17:39:08.981883  5077 net.cpp:157] Top shape: 18 64 16 112 112 (231211008)
I0507 17:39:08.981897  5077 net.cpp:165] Memory required for data: 4659720192
I0507 17:39:08.981901  5077 net.cpp:493] Sharing parameters 'conv1a_w' owned by layer 'conv1a', param index 0
I0507 17:39:08.981907  5077 net.cpp:493] Sharing parameters 'conv1a_b' owned by layer 'conv1a', param index 1
I0507 17:39:08.981910  5077 layer_factory.hpp:77] Creating layer relu1a_pos
I0507 17:39:08.981917  5077 net.cpp:100] Creating Layer relu1a_pos
I0507 17:39:08.981921  5077 net.cpp:434] relu1a_pos <- conv1a_pos
I0507 17:39:08.981946  5077 net.cpp:395] relu1a_pos -> conv1a_pos (in-place)
I0507 17:39:08.982146  5077 net.cpp:150] Setting up relu1a_pos
I0507 17:39:08.982156  5077 net.cpp:157] Top shape: 18 64 16 112 112 (231211008)
I0507 17:39:08.982161  5077 net.cpp:165] Memory required for data: 5584564224
I0507 17:39:08.982165  5077 layer_factory.hpp:77] Creating layer pool1_pos
I0507 17:39:08.982173  5077 net.cpp:100] Creating Layer pool1_pos
I0507 17:39:08.982177  5077 net.cpp:434] pool1_pos <- conv1a_pos
I0507 17:39:08.982185  5077 net.cpp:408] pool1_pos -> pool1_pos
I0507 17:39:08.984509  5077 net.cpp:150] Setting up pool1_pos
I0507 17:39:08.984557  5077 net.cpp:157] Top shape: 18 64 16 56 56 (57802752)
I0507 17:39:08.984565  5077 net.cpp:165] Memory required for data: 5815775232
I0507 17:39:08.984575  5077 layer_factory.hpp:77] Creating layer conv2a_pos
I0507 17:39:08.984597  5077 net.cpp:100] Creating Layer conv2a_pos
I0507 17:39:08.984639  5077 net.cpp:434] conv2a_pos <- pool1_pos
I0507 17:39:08.984659  5077 net.cpp:408] conv2a_pos -> conv2a_pos
I0507 17:39:08.995846  5077 net.cpp:150] Setting up conv2a_pos
I0507 17:39:08.995863  5077 net.cpp:157] Top shape: 18 128 16 56 56 (115605504)
I0507 17:39:08.995867  5077 net.cpp:165] Memory required for data: 6278197248
I0507 17:39:08.995877  5077 net.cpp:493] Sharing parameters 'conv2a_w' owned by layer 'conv2a', param index 0
I0507 17:39:08.995883  5077 net.cpp:493] Sharing parameters 'conv2a_b' owned by layer 'conv2a', param index 1
I0507 17:39:08.995887  5077 layer_factory.hpp:77] Creating layer relu2a_pos
I0507 17:39:08.995893  5077 net.cpp:100] Creating Layer relu2a_pos
I0507 17:39:08.995898  5077 net.cpp:434] relu2a_pos <- conv2a_pos
I0507 17:39:08.995903  5077 net.cpp:395] relu2a_pos -> conv2a_pos (in-place)
I0507 17:39:08.996089  5077 net.cpp:150] Setting up relu2a_pos
I0507 17:39:08.996099  5077 net.cpp:157] Top shape: 18 128 16 56 56 (115605504)
I0507 17:39:08.996103  5077 net.cpp:165] Memory required for data: 6740619264
I0507 17:39:08.996107  5077 layer_factory.hpp:77] Creating layer pool2_pos
I0507 17:39:08.996114  5077 net.cpp:100] Creating Layer pool2_pos
I0507 17:39:08.996119  5077 net.cpp:434] pool2_pos <- conv2a_pos
I0507 17:39:08.996126  5077 net.cpp:408] pool2_pos -> pool2_pos
I0507 17:39:08.996985  5077 net.cpp:150] Setting up pool2_pos
I0507 17:39:08.996999  5077 net.cpp:157] Top shape: 18 128 8 28 28 (14450688)
I0507 17:39:08.997004  5077 net.cpp:165] Memory required for data: 6798422016
I0507 17:39:08.997009  5077 layer_factory.hpp:77] Creating layer conv3a_pos
I0507 17:39:08.997026  5077 net.cpp:100] Creating Layer conv3a_pos
I0507 17:39:08.997031  5077 net.cpp:434] conv3a_pos <- pool2_pos
I0507 17:39:08.997040  5077 net.cpp:408] conv3a_pos -> conv3a_pos
I0507 17:39:09.026480  5077 net.cpp:150] Setting up conv3a_pos
I0507 17:39:09.026510  5077 net.cpp:157] Top shape: 18 256 8 28 28 (28901376)
I0507 17:39:09.026513  5077 net.cpp:165] Memory required for data: 6914027520
I0507 17:39:09.026520  5077 net.cpp:493] Sharing parameters 'conv3a_w' owned by layer 'conv3a', param index 0
I0507 17:39:09.026525  5077 net.cpp:493] Sharing parameters 'conv3a_b' owned by layer 'conv3a', param index 1
I0507 17:39:09.026530  5077 layer_factory.hpp:77] Creating layer relu3a_pos
I0507 17:39:09.026542  5077 net.cpp:100] Creating Layer relu3a_pos
I0507 17:39:09.026549  5077 net.cpp:434] relu3a_pos <- conv3a_pos
I0507 17:39:09.026556  5077 net.cpp:395] relu3a_pos -> conv3a_pos (in-place)
I0507 17:39:09.027395  5077 net.cpp:150] Setting up relu3a_pos
I0507 17:39:09.027408  5077 net.cpp:157] Top shape: 18 256 8 28 28 (28901376)
I0507 17:39:09.027423  5077 net.cpp:165] Memory required for data: 7029633024
I0507 17:39:09.027426  5077 layer_factory.hpp:77] Creating layer pool3_pos
I0507 17:39:09.027436  5077 net.cpp:100] Creating Layer pool3_pos
I0507 17:39:09.027439  5077 net.cpp:434] pool3_pos <- conv3a_pos
I0507 17:39:09.027446  5077 net.cpp:408] pool3_pos -> pool3_pos
I0507 17:39:09.028295  5077 net.cpp:150] Setting up pool3_pos
I0507 17:39:09.028308  5077 net.cpp:157] Top shape: 18 256 4 14 14 (3612672)
I0507 17:39:09.028311  5077 net.cpp:165] Memory required for data: 7044083712
I0507 17:39:09.028314  5077 layer_factory.hpp:77] Creating layer conv4a_pos
I0507 17:39:09.028327  5077 net.cpp:100] Creating Layer conv4a_pos
I0507 17:39:09.028332  5077 net.cpp:434] conv4a_pos <- pool3_pos
I0507 17:39:09.028340  5077 net.cpp:408] conv4a_pos -> conv4a_pos
I0507 17:39:09.097404  5077 net.cpp:150] Setting up conv4a_pos
I0507 17:39:09.097432  5077 net.cpp:157] Top shape: 18 256 4 14 14 (3612672)
I0507 17:39:09.097439  5077 net.cpp:165] Memory required for data: 7058534400
I0507 17:39:09.097457  5077 net.cpp:493] Sharing parameters 'conv4a_w' owned by layer 'conv4a', param index 0
I0507 17:39:09.097465  5077 net.cpp:493] Sharing parameters 'conv4a_b' owned by layer 'conv4a', param index 1
I0507 17:39:09.097470  5077 layer_factory.hpp:77] Creating layer relu4a_pos
I0507 17:39:09.097509  5077 net.cpp:100] Creating Layer relu4a_pos
I0507 17:39:09.097519  5077 net.cpp:434] relu4a_pos <- conv4a_pos
I0507 17:39:09.097532  5077 net.cpp:395] relu4a_pos -> conv4a_pos (in-place)
I0507 17:39:09.098392  5077 net.cpp:150] Setting up relu4a_pos
I0507 17:39:09.098408  5077 net.cpp:157] Top shape: 18 256 4 14 14 (3612672)
I0507 17:39:09.098413  5077 net.cpp:165] Memory required for data: 7072985088
I0507 17:39:09.098430  5077 layer_factory.hpp:77] Creating layer pool4_pos
I0507 17:39:09.098448  5077 net.cpp:100] Creating Layer pool4_pos
I0507 17:39:09.098453  5077 net.cpp:434] pool4_pos <- conv4a_pos
I0507 17:39:09.098462  5077 net.cpp:408] pool4_pos -> pool4_pos
I0507 17:39:09.098736  5077 net.cpp:150] Setting up pool4_pos
I0507 17:39:09.098749  5077 net.cpp:157] Top shape: 18 256 2 7 7 (451584)
I0507 17:39:09.098755  5077 net.cpp:165] Memory required for data: 7074791424
I0507 17:39:09.098760  5077 layer_factory.hpp:77] Creating layer conv5a_pos
I0507 17:39:09.098778  5077 net.cpp:100] Creating Layer conv5a_pos
I0507 17:39:09.098783  5077 net.cpp:434] conv5a_pos <- pool4_pos
I0507 17:39:09.098795  5077 net.cpp:408] conv5a_pos -> conv5a_pos
I0507 17:39:09.162782  5077 net.cpp:150] Setting up conv5a_pos
I0507 17:39:09.162827  5077 net.cpp:157] Top shape: 18 256 2 7 7 (451584)
I0507 17:39:09.162832  5077 net.cpp:165] Memory required for data: 7076597760
I0507 17:39:09.162843  5077 net.cpp:493] Sharing parameters 'conv5a_w' owned by layer 'conv5a', param index 0
I0507 17:39:09.162849  5077 net.cpp:493] Sharing parameters 'conv5a_b' owned by layer 'conv5a', param index 1
I0507 17:39:09.162853  5077 layer_factory.hpp:77] Creating layer relu5a_pos
I0507 17:39:09.162863  5077 net.cpp:100] Creating Layer relu5a_pos
I0507 17:39:09.162868  5077 net.cpp:434] relu5a_pos <- conv5a_pos
I0507 17:39:09.162876  5077 net.cpp:395] relu5a_pos -> conv5a_pos (in-place)
I0507 17:39:09.168107  5077 net.cpp:150] Setting up relu5a_pos
I0507 17:39:09.168143  5077 net.cpp:157] Top shape: 18 256 2 7 7 (451584)
I0507 17:39:09.168148  5077 net.cpp:165] Memory required for data: 7078404096
I0507 17:39:09.168154  5077 layer_factory.hpp:77] Creating layer pool5_pos
I0507 17:39:09.168167  5077 net.cpp:100] Creating Layer pool5_pos
I0507 17:39:09.168172  5077 net.cpp:434] pool5_pos <- conv5a_pos
I0507 17:39:09.168179  5077 net.cpp:408] pool5_pos -> pool5_pos
I0507 17:39:09.168440  5077 net.cpp:150] Setting up pool5_pos
I0507 17:39:09.168453  5077 net.cpp:157] Top shape: 18 256 1 4 4 (73728)
I0507 17:39:09.168457  5077 net.cpp:165] Memory required for data: 7078699008
I0507 17:39:09.168459  5077 layer_factory.hpp:77] Creating layer fc6_pos
I0507 17:39:09.168471  5077 net.cpp:100] Creating Layer fc6_pos
I0507 17:39:09.168476  5077 net.cpp:434] fc6_pos <- pool5_pos
I0507 17:39:09.168483  5077 net.cpp:408] fc6_pos -> fc6_pos
I0507 17:39:09.447149  5077 net.cpp:150] Setting up fc6_pos
I0507 17:39:09.447182  5077 net.cpp:157] Top shape: 18 2048 (36864)
I0507 17:39:09.447186  5077 net.cpp:165] Memory required for data: 7078846464
I0507 17:39:09.447196  5077 net.cpp:493] Sharing parameters 'fc6_w' owned by layer 'fc6', param index 0
I0507 17:39:09.447202  5077 net.cpp:493] Sharing parameters 'fc6_b' owned by layer 'fc6', param index 1
I0507 17:39:09.447207  5077 layer_factory.hpp:77] Creating layer relu6_pos
I0507 17:39:09.447222  5077 net.cpp:100] Creating Layer relu6_pos
I0507 17:39:09.447228  5077 net.cpp:434] relu6_pos <- fc6_pos
I0507 17:39:09.447234  5077 net.cpp:395] relu6_pos -> fc6_pos (in-place)
I0507 17:39:09.448709  5077 net.cpp:150] Setting up relu6_pos
I0507 17:39:09.448724  5077 net.cpp:157] Top shape: 18 2048 (36864)
I0507 17:39:09.448726  5077 net.cpp:165] Memory required for data: 7078993920
I0507 17:39:09.448730  5077 layer_factory.hpp:77] Creating layer drop6_pos
I0507 17:39:09.448740  5077 net.cpp:100] Creating Layer drop6_pos
I0507 17:39:09.448743  5077 net.cpp:434] drop6_pos <- fc6_pos
I0507 17:39:09.448747  5077 net.cpp:395] drop6_pos -> fc6_pos (in-place)
I0507 17:39:09.448784  5077 net.cpp:150] Setting up drop6_pos
I0507 17:39:09.448812  5077 net.cpp:157] Top shape: 18 2048 (36864)
I0507 17:39:09.448817  5077 net.cpp:165] Memory required for data: 7079141376
I0507 17:39:09.448819  5077 layer_factory.hpp:77] Creating layer fc7_pos
I0507 17:39:09.448830  5077 net.cpp:100] Creating Layer fc7_pos
I0507 17:39:09.448835  5077 net.cpp:434] fc7_pos <- fc6_pos
I0507 17:39:09.448843  5077 net.cpp:408] fc7_pos -> fc7_pos
I0507 17:39:09.583747  5077 net.cpp:150] Setting up fc7_pos
I0507 17:39:09.583788  5077 net.cpp:157] Top shape: 18 2048 (36864)
I0507 17:39:09.583792  5077 net.cpp:165] Memory required for data: 7079288832
I0507 17:39:09.583799  5077 net.cpp:493] Sharing parameters 'fc7_w' owned by layer 'fc7', param index 0
I0507 17:39:09.583806  5077 net.cpp:493] Sharing parameters 'fc7_b' owned by layer 'fc7', param index 1
I0507 17:39:09.583809  5077 layer_factory.hpp:77] Creating layer relu7_pos
I0507 17:39:09.583832  5077 net.cpp:100] Creating Layer relu7_pos
I0507 17:39:09.583837  5077 net.cpp:434] relu7_pos <- fc7_pos
I0507 17:39:09.583842  5077 net.cpp:395] relu7_pos -> fc7_pos (in-place)
I0507 17:39:09.584107  5077 net.cpp:150] Setting up relu7_pos
I0507 17:39:09.584120  5077 net.cpp:157] Top shape: 18 2048 (36864)
I0507 17:39:09.584123  5077 net.cpp:165] Memory required for data: 7079436288
I0507 17:39:09.584126  5077 layer_factory.hpp:77] Creating layer drop7_pos
I0507 17:39:09.584136  5077 net.cpp:100] Creating Layer drop7_pos
I0507 17:39:09.584141  5077 net.cpp:434] drop7_pos <- fc7_pos
I0507 17:39:09.584144  5077 net.cpp:395] drop7_pos -> fc7_pos (in-place)
I0507 17:39:09.584177  5077 net.cpp:150] Setting up drop7_pos
I0507 17:39:09.584183  5077 net.cpp:157] Top shape: 18 2048 (36864)
I0507 17:39:09.584187  5077 net.cpp:165] Memory required for data: 7079583744
I0507 17:39:09.584189  5077 layer_factory.hpp:77] Creating layer conv1a_neg
I0507 17:39:09.584208  5077 net.cpp:100] Creating Layer conv1a_neg
I0507 17:39:09.584213  5077 net.cpp:434] conv1a_neg <- negative
I0507 17:39:09.584220  5077 net.cpp:408] conv1a_neg -> conv1a_neg
I0507 17:39:09.592252  5077 net.cpp:150] Setting up conv1a_neg
I0507 17:39:09.592270  5077 net.cpp:157] Top shape: 18 64 16 112 112 (231211008)
I0507 17:39:09.592275  5077 net.cpp:165] Memory required for data: 8004427776
I0507 17:39:09.592280  5077 net.cpp:493] Sharing parameters 'conv1a_w' owned by layer 'conv1a', param index 0
I0507 17:39:09.592285  5077 net.cpp:493] Sharing parameters 'conv1a_b' owned by layer 'conv1a', param index 1
I0507 17:39:09.592291  5077 layer_factory.hpp:77] Creating layer relu1a_neg
I0507 17:39:09.592299  5077 net.cpp:100] Creating Layer relu1a_neg
I0507 17:39:09.592304  5077 net.cpp:434] relu1a_neg <- conv1a_neg
I0507 17:39:09.592310  5077 net.cpp:395] relu1a_neg -> conv1a_neg (in-place)
I0507 17:39:09.593154  5077 net.cpp:150] Setting up relu1a_neg
I0507 17:39:09.593168  5077 net.cpp:157] Top shape: 18 64 16 112 112 (231211008)
I0507 17:39:09.593173  5077 net.cpp:165] Memory required for data: 8929271808
I0507 17:39:09.593176  5077 layer_factory.hpp:77] Creating layer pool1_neg
I0507 17:39:09.593183  5077 net.cpp:100] Creating Layer pool1_neg
I0507 17:39:09.593189  5077 net.cpp:434] pool1_neg <- conv1a_neg
I0507 17:39:09.593195  5077 net.cpp:408] pool1_neg -> pool1_neg
I0507 17:39:09.593444  5077 net.cpp:150] Setting up pool1_neg
I0507 17:39:09.593457  5077 net.cpp:157] Top shape: 18 64 16 56 56 (57802752)
I0507 17:39:09.593462  5077 net.cpp:165] Memory required for data: 9160482816
I0507 17:39:09.593466  5077 layer_factory.hpp:77] Creating layer conv2a_neg
I0507 17:39:09.593477  5077 net.cpp:100] Creating Layer conv2a_neg
I0507 17:39:09.593482  5077 net.cpp:434] conv2a_neg <- pool1_neg
I0507 17:39:09.593492  5077 net.cpp:408] conv2a_neg -> conv2a_neg
I0507 17:39:09.612066  5077 net.cpp:150] Setting up conv2a_neg
I0507 17:39:09.612095  5077 net.cpp:157] Top shape: 18 128 16 56 56 (115605504)
I0507 17:39:09.612100  5077 net.cpp:165] Memory required for data: 9622904832
I0507 17:39:09.612110  5077 net.cpp:493] Sharing parameters 'conv2a_w' owned by layer 'conv2a', param index 0
I0507 17:39:09.612138  5077 net.cpp:493] Sharing parameters 'conv2a_b' owned by layer 'conv2a', param index 1
I0507 17:39:09.612143  5077 layer_factory.hpp:77] Creating layer relu2a_neg
I0507 17:39:09.612152  5077 net.cpp:100] Creating Layer relu2a_neg
I0507 17:39:09.612164  5077 net.cpp:434] relu2a_neg <- conv2a_neg
I0507 17:39:09.612171  5077 net.cpp:395] relu2a_neg -> conv2a_neg (in-place)
I0507 17:39:09.613030  5077 net.cpp:150] Setting up relu2a_neg
I0507 17:39:09.613044  5077 net.cpp:157] Top shape: 18 128 16 56 56 (115605504)
I0507 17:39:09.613047  5077 net.cpp:165] Memory required for data: 10085326848
I0507 17:39:09.613051  5077 layer_factory.hpp:77] Creating layer pool2_neg
I0507 17:39:09.613060  5077 net.cpp:100] Creating Layer pool2_neg
I0507 17:39:09.613065  5077 net.cpp:434] pool2_neg <- conv2a_neg
I0507 17:39:09.613073  5077 net.cpp:408] pool2_neg -> pool2_neg
I0507 17:39:09.613315  5077 net.cpp:150] Setting up pool2_neg
I0507 17:39:09.613327  5077 net.cpp:157] Top shape: 18 128 8 28 28 (14450688)
I0507 17:39:09.613330  5077 net.cpp:165] Memory required for data: 10143129600
I0507 17:39:09.613333  5077 layer_factory.hpp:77] Creating layer conv3a_neg
I0507 17:39:09.613344  5077 net.cpp:100] Creating Layer conv3a_neg
I0507 17:39:09.613349  5077 net.cpp:434] conv3a_neg <- pool2_neg
I0507 17:39:09.613363  5077 net.cpp:408] conv3a_neg -> conv3a_neg
I0507 17:39:09.649858  5077 net.cpp:150] Setting up conv3a_neg
I0507 17:39:09.649874  5077 net.cpp:157] Top shape: 18 256 8 28 28 (28901376)
I0507 17:39:09.649878  5077 net.cpp:165] Memory required for data: 10258735104
I0507 17:39:09.649912  5077 net.cpp:493] Sharing parameters 'conv3a_w' owned by layer 'conv3a', param index 0
I0507 17:39:09.649919  5077 net.cpp:493] Sharing parameters 'conv3a_b' owned by layer 'conv3a', param index 1
I0507 17:39:09.649925  5077 layer_factory.hpp:77] Creating layer relu3a_neg
I0507 17:39:09.649932  5077 net.cpp:100] Creating Layer relu3a_neg
I0507 17:39:09.649936  5077 net.cpp:434] relu3a_neg <- conv3a_neg
I0507 17:39:09.649943  5077 net.cpp:395] relu3a_neg -> conv3a_neg (in-place)
I0507 17:39:09.650141  5077 net.cpp:150] Setting up relu3a_neg
I0507 17:39:09.650151  5077 net.cpp:157] Top shape: 18 256 8 28 28 (28901376)
I0507 17:39:09.650154  5077 net.cpp:165] Memory required for data: 10374340608
I0507 17:39:09.650158  5077 layer_factory.hpp:77] Creating layer pool3_neg
I0507 17:39:09.650167  5077 net.cpp:100] Creating Layer pool3_neg
I0507 17:39:09.650174  5077 net.cpp:434] pool3_neg <- conv3a_neg
I0507 17:39:09.650179  5077 net.cpp:408] pool3_neg -> pool3_neg
I0507 17:39:09.651064  5077 net.cpp:150] Setting up pool3_neg
I0507 17:39:09.651080  5077 net.cpp:157] Top shape: 18 256 4 14 14 (3612672)
I0507 17:39:09.651084  5077 net.cpp:165] Memory required for data: 10388791296
I0507 17:39:09.651088  5077 layer_factory.hpp:77] Creating layer conv4a_neg
I0507 17:39:09.651098  5077 net.cpp:100] Creating Layer conv4a_neg
I0507 17:39:09.651103  5077 net.cpp:434] conv4a_neg <- pool3_neg
I0507 17:39:09.651110  5077 net.cpp:408] conv4a_neg -> conv4a_neg
I0507 17:39:09.712525  5077 net.cpp:150] Setting up conv4a_neg
I0507 17:39:09.712546  5077 net.cpp:157] Top shape: 18 256 4 14 14 (3612672)
I0507 17:39:09.712550  5077 net.cpp:165] Memory required for data: 10403241984
I0507 17:39:09.712554  5077 net.cpp:493] Sharing parameters 'conv4a_w' owned by layer 'conv4a', param index 0
I0507 17:39:09.712559  5077 net.cpp:493] Sharing parameters 'conv4a_b' owned by layer 'conv4a', param index 1
I0507 17:39:09.712563  5077 layer_factory.hpp:77] Creating layer relu4a_neg
I0507 17:39:09.712573  5077 net.cpp:100] Creating Layer relu4a_neg
I0507 17:39:09.712576  5077 net.cpp:434] relu4a_neg <- conv4a_neg
I0507 17:39:09.712581  5077 net.cpp:395] relu4a_neg -> conv4a_neg (in-place)
I0507 17:39:09.712774  5077 net.cpp:150] Setting up relu4a_neg
I0507 17:39:09.712787  5077 net.cpp:157] Top shape: 18 256 4 14 14 (3612672)
I0507 17:39:09.712791  5077 net.cpp:165] Memory required for data: 10417692672
I0507 17:39:09.712795  5077 layer_factory.hpp:77] Creating layer pool4_neg
I0507 17:39:09.712821  5077 net.cpp:100] Creating Layer pool4_neg
I0507 17:39:09.712826  5077 net.cpp:434] pool4_neg <- conv4a_neg
I0507 17:39:09.712834  5077 net.cpp:408] pool4_neg -> pool4_neg
I0507 17:39:09.713706  5077 net.cpp:150] Setting up pool4_neg
I0507 17:39:09.713719  5077 net.cpp:157] Top shape: 18 256 2 7 7 (451584)
I0507 17:39:09.713723  5077 net.cpp:165] Memory required for data: 10419499008
I0507 17:39:09.713726  5077 layer_factory.hpp:77] Creating layer conv5a_neg
I0507 17:39:09.713737  5077 net.cpp:100] Creating Layer conv5a_neg
I0507 17:39:09.713743  5077 net.cpp:434] conv5a_neg <- pool4_neg
I0507 17:39:09.713750  5077 net.cpp:408] conv5a_neg -> conv5a_neg
I0507 17:39:09.778830  5077 net.cpp:150] Setting up conv5a_neg
I0507 17:39:09.778861  5077 net.cpp:157] Top shape: 18 256 2 7 7 (451584)
I0507 17:39:09.778865  5077 net.cpp:165] Memory required for data: 10421305344
I0507 17:39:09.778872  5077 net.cpp:493] Sharing parameters 'conv5a_w' owned by layer 'conv5a', param index 0
I0507 17:39:09.778878  5077 net.cpp:493] Sharing parameters 'conv5a_b' owned by layer 'conv5a', param index 1
I0507 17:39:09.778882  5077 layer_factory.hpp:77] Creating layer relu5a_neg
I0507 17:39:09.778894  5077 net.cpp:100] Creating Layer relu5a_neg
I0507 17:39:09.778899  5077 net.cpp:434] relu5a_neg <- conv5a_neg
I0507 17:39:09.778909  5077 net.cpp:395] relu5a_neg -> conv5a_neg (in-place)
I0507 17:39:09.779105  5077 net.cpp:150] Setting up relu5a_neg
I0507 17:39:09.779116  5077 net.cpp:157] Top shape: 18 256 2 7 7 (451584)
I0507 17:39:09.779119  5077 net.cpp:165] Memory required for data: 10423111680
I0507 17:39:09.779126  5077 layer_factory.hpp:77] Creating layer pool5_neg
I0507 17:39:09.779142  5077 net.cpp:100] Creating Layer pool5_neg
I0507 17:39:09.779148  5077 net.cpp:434] pool5_neg <- conv5a_neg
I0507 17:39:09.779157  5077 net.cpp:408] pool5_neg -> pool5_neg
I0507 17:39:09.780055  5077 net.cpp:150] Setting up pool5_neg
I0507 17:39:09.780071  5077 net.cpp:157] Top shape: 18 256 1 4 4 (73728)
I0507 17:39:09.780076  5077 net.cpp:165] Memory required for data: 10423406592
I0507 17:39:09.780081  5077 layer_factory.hpp:77] Creating layer fc6_neg
I0507 17:39:09.780097  5077 net.cpp:100] Creating Layer fc6_neg
I0507 17:39:09.780103  5077 net.cpp:434] fc6_neg <- pool5_neg
I0507 17:39:09.780117  5077 net.cpp:408] fc6_neg -> fc6_neg
I0507 17:39:10.054239  5077 net.cpp:150] Setting up fc6_neg
I0507 17:39:10.054275  5077 net.cpp:157] Top shape: 18 2048 (36864)
I0507 17:39:10.054281  5077 net.cpp:165] Memory required for data: 10423554048
I0507 17:39:10.054298  5077 net.cpp:493] Sharing parameters 'fc6_w' owned by layer 'fc6', param index 0
I0507 17:39:10.054308  5077 net.cpp:493] Sharing parameters 'fc6_b' owned by layer 'fc6', param index 1
I0507 17:39:10.054318  5077 layer_factory.hpp:77] Creating layer relu6_neg
I0507 17:39:10.054342  5077 net.cpp:100] Creating Layer relu6_neg
I0507 17:39:10.054350  5077 net.cpp:434] relu6_neg <- fc6_neg
I0507 17:39:10.054361  5077 net.cpp:395] relu6_neg -> fc6_neg (in-place)
I0507 17:39:10.054735  5077 net.cpp:150] Setting up relu6_neg
I0507 17:39:10.054749  5077 net.cpp:157] Top shape: 18 2048 (36864)
I0507 17:39:10.054754  5077 net.cpp:165] Memory required for data: 10423701504
I0507 17:39:10.054759  5077 layer_factory.hpp:77] Creating layer drop6_neg
I0507 17:39:10.054811  5077 net.cpp:100] Creating Layer drop6_neg
I0507 17:39:10.054818  5077 net.cpp:434] drop6_neg <- fc6_neg
I0507 17:39:10.054826  5077 net.cpp:395] drop6_neg -> fc6_neg (in-place)
I0507 17:39:10.054872  5077 net.cpp:150] Setting up drop6_neg
I0507 17:39:10.054883  5077 net.cpp:157] Top shape: 18 2048 (36864)
I0507 17:39:10.054888  5077 net.cpp:165] Memory required for data: 10423848960
I0507 17:39:10.054893  5077 layer_factory.hpp:77] Creating layer fc7_neg
I0507 17:39:10.054919  5077 net.cpp:100] Creating Layer fc7_neg
I0507 17:39:10.054927  5077 net.cpp:434] fc7_neg <- fc6_neg
I0507 17:39:10.054939  5077 net.cpp:408] fc7_neg -> fc7_neg
I0507 17:39:10.197350  5077 net.cpp:150] Setting up fc7_neg
I0507 17:39:10.197381  5077 net.cpp:157] Top shape: 18 2048 (36864)
I0507 17:39:10.197420  5077 net.cpp:165] Memory required for data: 10423996416
I0507 17:39:10.197434  5077 net.cpp:493] Sharing parameters 'fc7_w' owned by layer 'fc7', param index 0
I0507 17:39:10.197444  5077 net.cpp:493] Sharing parameters 'fc7_b' owned by layer 'fc7', param index 1
I0507 17:39:10.197451  5077 layer_factory.hpp:77] Creating layer relu7_neg
I0507 17:39:10.197474  5077 net.cpp:100] Creating Layer relu7_neg
I0507 17:39:10.197482  5077 net.cpp:434] relu7_neg <- fc7_neg
I0507 17:39:10.197495  5077 net.cpp:395] relu7_neg -> fc7_neg (in-place)
I0507 17:39:10.199903  5077 net.cpp:150] Setting up relu7_neg
I0507 17:39:10.199920  5077 net.cpp:157] Top shape: 18 2048 (36864)
I0507 17:39:10.199926  5077 net.cpp:165] Memory required for data: 10424143872
I0507 17:39:10.199932  5077 layer_factory.hpp:77] Creating layer drop7_neg
I0507 17:39:10.199944  5077 net.cpp:100] Creating Layer drop7_neg
I0507 17:39:10.199983  5077 net.cpp:434] drop7_neg <- fc7_neg
I0507 17:39:10.199995  5077 net.cpp:395] drop7_neg -> fc7_neg (in-place)
I0507 17:39:10.200042  5077 net.cpp:150] Setting up drop7_neg
I0507 17:39:10.200054  5077 net.cpp:157] Top shape: 18 2048 (36864)
I0507 17:39:10.200059  5077 net.cpp:165] Memory required for data: 10424291328
I0507 17:39:10.200065  5077 layer_factory.hpp:77] Creating layer loss
I0507 17:39:10.200094  5077 net.cpp:100] Creating Layer loss
I0507 17:39:10.200101  5077 net.cpp:434] loss <- fc7
I0507 17:39:10.200109  5077 net.cpp:434] loss <- fc7_pos
I0507 17:39:10.200117  5077 net.cpp:434] loss <- fc7_neg
I0507 17:39:10.200127  5077 net.cpp:408] loss -> loss
…
    mean_value: 65
    mean_value: 74
    mean_value: 92
    mean_value: 65
    mean_value: 74
    mean_value: 92
    mean_value: 65
    mean_value: 74
    mean_value: 92
    mean_value: 65
    mean_value: 74
    mean_value: 92
    mean_value: 65
    mean_value: 74
    mean_value: 92
    mean_value: 65
    mean_value: 74
    mean_value: 92
    mean_value: 65
    mean_value: 74
    mean_value: 92
    mean_value: 65
    mean_value: 74
    mean_value: 92
  }
  data_param {
    source: "/data/leo-data/Synthetic/LMDB/Triplets/val"
    batch_size: 1
    backend: LMDB
  }
}
layer {
  name: "slicer"
  type: "Slice"
  bottom: "triplet"
  top: "anchor_stacked"
  top: "positive_stacked"
  top: "negative_stacked"
  slice_param {
    slice_dim: 1
    slice_point: 48
    slice_point: 96
  }
}
layer {
  name: "reshape_anchor"
  type: "Reshape"
  bottom: "anchor_stacked"
  top: "anchor"
  reshape_param {
    shape {
      dim: 0
      dim: 3
      dim: 16
      dim: 112
      dim: 112
    }
  }
}
layer {
  name: "reshape_positive"
  type: "Reshape"
  bottom: "positive_stacked"
  top: "positive"
  reshape_param {
    shape {
      dim: 0
      dim: 3
      dim: 16
      dim: 112
      dim: 112
    }
  }
}
layer {
  name: "reshape_negative"
  type: "Reshape"
  bottom: "negative_stacked"
  top: "negative"
  reshape_param {
    shape {
      dim: 0
      dim: 3
      dim: 16
      dim: 112
      dim: 112
    }
  }
}
layer {
  name: "conv1a"
  type: "NdConvolution"
  bottom: "anchor"
  top: "conv1a"
  param {
    name: "conv1a_w"
    lr_mult: 1
    decay_mult: 1
  }
  param {
    name: "conv1a_b"
    lr_mult: 2
    decay_mult: 0
  }
  convolution_param {
    num_output: 64
    weight_filler {
      type: "gaussian"
      std: 0.01
    }
    bias_filler {
      type: "constant"
      value: 0
    }
    pad_shape {
      dim: 1
      dim: 1
      dim: 1
    }
    kernel_shape {
      dim: 3
      dim: 3
      dim: 3
    }
    stride_shape {
      dim: 1
      dim: 1
      dim: 1
    }
  }
}
layer {
  name: "relu1a"
  type: "ReLU"
  bottom: "conv1a"
  top: "conv1a"
}
layer {
  name: "pool1"
  type: "NdPooling"
  bottom: "conv1a"
  top: "pool1"
  pooling_param {
    pool: MAX
    kernel_shape {
      dim: 1
      dim: 2
      dim: 2
    }
    stride_shape {
      dim: 1
      dim: 2
      dim: 2
    }
  }
}
layer {
  name: "conv2a"
  type: "NdConvolution"
  bottom: "pool1"
  top: "conv2a"
  param {
    name: "conv2a_w"
    lr_mult: 1
    decay_mult: 1
  }
  param {
    name: "conv2a_b"
    lr_mult: 2
    decay_mult: 0
  }
  convolution_param {
    num_output: 128
    weight_filler {
      type: "gaussian"
      std: 0.01
    }
    bias_filler {
      type: "constant"
      value: 1
    }
    pad_shape {
      dim: 1
      dim: 1
      dim: 1
    }
    kernel_shape {
      dim: 3
      dim: 3
      dim: 3
    }
    stride_shape {
      dim: 1
      dim: 1
      dim: 1
    }
  }
}
layer {
  name: "relu2a"
  type: "ReLU"
  bottom: "conv2a"
  top: "conv2a"
}
layer {
  name: "pool2"
  type: "NdPooling"
  bottom: "conv2a"
  top: "pool2"
  pooling_param {
    pool: MAX
    kernel_shape {
      dim: 2
      dim: 2
      dim: 2
    }
    stride_shape {
      dim: 2
      dim: 2
      dim: 2
    }
  }
}
layer {
  name: "conv3a"
  type: "NdConvolution"
  bottom: "pool2"
  top: "conv3a"
  param {
    name: "conv3a_w"
    lr_mult: 1
    decay_mult: 1
  }
  param {
    name: "conv3a_b"
    lr_mult: 2
    decay_mult: 0
  }
  convolution_param {
    num_output: 256
    weight_filler {
      type: "gaussian"
      std: 0.01
    }
    bias_filler {
      type: "constant"
      value: 1
    }
    pad_shape {
      dim: 1
      dim: 1
      dim: 1
    }
    kernel_shape {
      dim: 3
      dim: 3
      dim: 3
    }
    stride_shape {
      dim: 1
      dim: 1
      dim: 1
    }
  }
}
layer {
  name: "relu3a"
  type: "ReLU"
  bottom: "conv3a"
  top: "conv3a"
}
layer {
  name: "pool3"
  type: "NdPooling"
  bottom: "conv3a"
  top: "pool3"
  pooling_param {
    pool: MAX
    kernel_shape {
      dim: 2
      dim: 2
      dim: 2
    }
    stride_shape {
      dim: 2
      dim: 2
      dim: 2
    }
  }
}
layer {
  name: "conv4a"
  type: "NdConvolution"
  bottom: "pool3"
  top: "conv4a"
  param {
    name: "conv4a_w"
    lr_mult: 1
    decay_mult: 1
  }
  param {
    name: "conv4a_b"
    lr_mult: 2
    decay_mult: 0
  }
  convolution_param {
    num_output: 256
    weight_filler {
      type: "gaussian"
      std: 0.01
    }
    bias_filler {
      type: "constant"
      value: 1
    }
    pad_shape {
      dim: 1
      dim: 1
      dim: 1
    }
    kernel_shape {
      dim: 3
      dim: 3
      dim: 3
    }
    stride_shape {
      dim: 1
      dim: 1
      dim: 1
    }
  }
}
layer {
  name: "relu4a"
  type: "ReLU"
  bottom: "conv4a"
  top: "conv4a"
}
layer {
  name: "pool4"
  type: "NdPooling"
  bottom: "conv4a"
  top: "pool4"
  pooling_param {
    pool: MAX
    kernel_shape {
      dim: 2
      dim: 2
      dim: 2
    }
    stride_shape {
      dim: 2
      dim: 2
      dim: 2
    }
  }
}
layer {
  name: "conv5a"
  type: "NdConvolution"
  bottom: "pool4"
  top: "conv5a"
  param {
    name: "conv5a_w"
    lr_mult: 1
    decay_mult: 1
  }
  param {
    name: "conv5a_b"
    lr_mult: 2
    decay_mult: 0
  }
  convolution_param {
    num_output: 256
    weight_filler {
      type: "gaussian"
      std: 0.01
    }
    bias_filler {
      type: "constant"
      value: 1
    }
    pad_shape {
      dim: 1
      dim: 1
      dim: 1
    }
    kernel_shape {
      dim: 3
      dim: 3
      dim: 3
    }
    stride_shape {
      dim: 1
      dim: 1
      dim: 1
    }
  }
}
layer {
  name: "relu5a"
  type: "ReLU"
  bottom: "conv5a"
  top: "conv5a"
}
layer {
  name: "pool5"
  type: "NdPooling"
  bottom: "conv5a"
  top: "pool5"
  pooling_param {
    pool: MAX
    kernel_shape {
      dim: 2
      dim: 2
      dim: 2
    }
    stride_shape {
      dim: 2
      dim: 2
      dim: 2
    }
  }
}
layer {
  name: "fc6"
  type: "InnerProduct"
  bottom: "pool5"
  top: "fc6"
  param {
    name: "fc6_w"
    lr_mult: 1
    decay_mult: 1
  }
  param {
    name: "fc6_b"
    lr_mult: 2
    decay_mult: 0
  }
  inner_product_param {
    num_output: 2048
    weight_filler {
      type: "gaussian"
      std: 0.005
    }
    bias_filler {
      type: "constant"
      value: 1
    }
  }
}
layer {
  name: "relu6"
  type: "ReLU"
  bottom: "fc6"
  top: "fc6"
}
layer {
  name: "drop6"
  type: "Dropout"
  bottom: "fc6"
  top: "fc6"
  dropout_param {
    dropout_ratio: 0.5
  }
}
layer {
  name: "fc7"
  type: "InnerProduct"
  bottom: "fc6"
  top: "fc7"
  param {
    name: "fc7_w"
    lr_mult: 1
    decay_mult: 1
  }
  param {
    name: "fc7_b"
    lr_mult: 2
    decay_mult: 0
  }
  inner_product_param {
    num_output: 2048
    weight_filler {
      type: "gaussian"
      std: 0.005
    }
    bias_filler {
      type: "constant"
      value: 1
    }
  }
}
layer {
  name: "relu7"
  type: "ReLU"
  bottom: "fc7"
  top: "fc7"
}
layer {
  name: "drop7"
  type: "Dropout"
  bottom: "fc7"
  top: "fc7"
  dropout_param {
    dropout_ratio: 0.5
  }
}
layer {
  name: "conv1a_pos"
  type: "NdConvolution"
  bottom: "positive"
  top: "conv1a_pos"
  param {
    name: "conv1a_w"
    lr_mult: 1
    decay_mult: 1
  }
  param {
    name: "conv1a_b"
    lr_mult: 2
    decay_mult: 0
  }
  convolution_param {
    num_output: 64
    weight_filler {
      type: "gaussian"
      std: 0.01
    }
    bias_filler {
      type: "constant"
      value: 0
    }
    pad_shape {
      dim: 1
      dim: 1
      dim: 1
    }
    kernel_shape {
      dim: 3
      dim: 3
      dim: 3
    }
    stride_shape {
      dim: 1
      dim: 1
      dim: 1
    }
  }
}
layer {
  name: "relu1a_pos"
  type: "ReLU"
  bottom: "conv1a_pos"
  top: "conv1a_pos"
}
layer {
  name: "pool1_pos"
  type: "NdPooling"
  bottom: "conv1a_pos"
  top: "pool1_pos"
  pooling_param {
    pool: MAX
    kernel_shape {
      dim: 1
      dim: 2
      dim: 2
    }
    stride_shape {
      dim: 1
      dim: 2
      dim: 2
    }
  }
}
layer {
  name: "conv2a_pos"
  type: "NdConvolution"
  bottom: "pool1_pos"
  top: "conv2a_pos"
  param {
    name: "conv2a_w"
    lr_mult: 1
    decay_mult: 1
  }
  param {
    name: "conv2a_b"
    lr_mult: 2
    decay_mult: 0
  }
  convolution_param {
    num_output: 128
    weight_filler {
      type: "gaussian"
      std: 0.01
    }
    bias_filler {
      type: "constant"
      value: 1
    }
    pad_shape {
      dim: 1
      dim: 1
      dim: 1
    }
    kernel_shape {
      dim: 3
      dim: 3
      dim: 3
    }
    stride_shape {
      dim: 1
      dim: 1
      dim: 1
    }
  }
}
layer {
  name: "relu2a_pos"
  type: "ReLU"
  bottom: "conv2a_pos"
  top: "conv2a_pos"
}
layer {
  name: "pool2_pos"
  type: "NdPooling"
  bottom: "conv2a_pos"
  top: "pool2_pos"
  pooling_param {
    pool: MAX
    kernel_shape {
      dim: 2
      dim: 2
      dim: 2
    }
    stride_shape {
      dim: 2
      dim: 2
      dim: 2
    }
  }
}
layer {
  name: "conv3a_pos"
  type: "NdConvolution"
  bottom: "pool2_pos"
  top: "conv3a_pos"
  param {
    name: "conv3a_w"
    lr_mult: 1
    decay_mult: 1
  }
  param {
    name: "conv3a_b"
    lr_mult: 2
    decay_mult: 0
  }
  convolution_param {
    num_output: 256
    weight_filler {
      type: "gaussian"
      std: 0.01
    }
    bias_filler {
      type: "constant"
      value: 1
    }
    pad_shape {
      dim: 1
      dim: 1
      dim: 1
    }
    kernel_shape {
      dim: 3
      dim: 3
      dim: 3
    }
    stride_shape {
      dim: 1
      dim: 1
      dim: 1
    }
  }
}
layer {
  name: "relu3a_pos"
  type: "ReLU"
  bottom: "conv3a_pos"
  top: "conv3a_pos"
}
layer {
  name: "pool3_pos"
  type: "NdPooling"
  bottom: "conv3a_pos"
  top: "pool3_pos"
  pooling_param {
    pool: MAX
    kernel_shape {
      dim: 2
      dim: 2
      dim: 2
    }
    stride_shape {
      dim: 2
      dim: 2
      dim: 2
    }
  }
}
layer {
  name: "conv4a_pos"
  type: "NdConvolution"
  bottom: "pool3_pos"
  top: "conv4a_pos"
  param {
    name: "conv4a_w"
    lr_mult: 1
    decay_mult: 1
  }
  param {
    name: "conv4a_b"
    lr_mult: 2
    decay_mult: 0
  }
  convolution_param {
    num_output: 256
    weight_filler {
      type: "gaussian"
      std: 0.01
    }
    bias_filler {
      type: "constant"
      value: 1
    }
    pad_shape {
      dim: 1
      dim: 1
      dim: 1
    }
    kernel_shape {
      dim: 3
      dim: 3
      dim: 3
    }
    stride_shape {
      dim: 1
      dim: 1
      dim: 1
    }
  }
}
layer {
  name: "relu4a_pos"
  type: "ReLU"
  bottom: "conv4a_pos"
  top: "conv4a_pos"
}
layer {
  name: "pool4_pos"
  type: "NdPooling"
  bottom: "conv4a_pos"
  top: "pool4_pos"
  pooling_param {
    pool: MAX
    kernel_shape {
      dim: 2
      dim: 2
      dim: 2
    }
    stride_shape {
      dim: 2
      dim: 2
      dim: 2
    }
  }
}
layer {
  name: "conv5a_pos"
  type: "NdConvolution"
  bottom: "pool4_pos"
  top: "conv5a_pos"
  param {
    name: "conv5a_w"
    lr_mult: 1
    decay_mult: 1
  }
  param {
    name: "conv5a_b"
    lr_mult: 2
    decay_mult: 0
  }
  convolution_param {
    num_output: 256
    weight_filler {
      type: "gaussian"
      std: 0.01
    }
    bias_filler {
      type: "constant"
      value: 1
    }
    pad_shape {
      dim: 1
      dim: 1
      dim: 1
    }
    kernel_shape {
      dim: 3
      dim: 3
      dim: 3
    }
    stride_shape {
      dim: 1
      dim: 1
      dim: 1
    }
  }
}
layer {
  name: "relu5a_pos"
  type: "ReLU"
  bottom: "conv5a_pos"
  top: "conv5a_pos"
}
layer {
  name: "pool5_pos"
  type: "NdPooling"
  bottom: "conv5a_pos"
  top: "pool5_pos"
  pooling_param {
    pool: MAX
    kernel_shape {
      dim: 2
      dim: 2
      dim: 2
    }
    stride_shape {
      dim: 2
      dim: 2
      dim: 2
    }
  }
}
layer {
  name: "fc6_pos"
  type: "InnerProduct"
  bottom: "pool5_pos"
  top: "fc6_pos"
  param {
    name: "fc6_w"
    lr_mult: 1
    decay_mult: 1
  }
  param {
    name: "fc6_b"
    lr_mult: 2
    decay_mult: 0
  }
  inner_product_param {
    num_output: 2048
    weight_filler {
      type: "gaussian"
      std: 0.005
    }
    bias_filler {
      type: "constant"
      value: 1
    }
  }
}
layer {
  name: "relu6_pos"
  type: "ReLU"
  bottom: "fc6_pos"
  top: "fc6_pos"
}
layer {
  name: "drop6_pos"
  type: "Dropout"
  bottom: "fc6_pos"
  top: "fc6_pos"
  dropout_param {
    dropout_ratio: 0.5
  }
}
layer {
  name: "fc7_pos"
  type: "InnerProduct"
  bottom: "fc6_pos"
  top: "fc7_pos"
  param {
    name: "fc7_w"
    lr_mult: 1
    decay_mult: 1
  }
  param {
    name: "fc7_b"
    lr_mult: 2
    decay_mult: 0
  }
  inner_product_param {
    num_output: 2048
    weight_filler {
      type: "gaussian"
      std: 0.005
    }
    bias_filler {
      type: "constant"
      value: 1
    }
  }
}
layer {
  name: "relu7_pos"
  type: "ReLU"
  bottom: "fc7_pos"
  top: "fc7_pos"
}
layer {
  name: "drop7_pos"
  type: "Dropout"
  bottom: "fc7_pos"
  top: "fc7_pos"
  dropout_param {
    dropout_ratio: 0.5
  }
}
layer {
  name: "conv1a_neg"
  type: "NdConvolution"
  bottom: "negative"
  top: "conv1a_neg"
  param {
    name: "conv1a_w"
    lr_mult: 1
    decay_mult: 1
  }
  param {
    name: "conv1a_b"
    lr_mult: 2
    decay_mult: 0
  }
  convolution_param {
    num_output: 64
    weight_filler {
      type: "gaussian"
      std: 0.01
    }
    bias_filler {
      type: "constant"
      value: 0
    }
    pad_shape {
      dim: 1
      dim: 1
      dim: 1
    }
    kernel_shape {
      dim: 3
      dim: 3
      dim: 3
    }
    stride_shape {
      dim: 1
      dim: 1
      dim: 1
    }
  }
}
layer {
  name: "relu1a_neg"
  type: "ReLU"
  bottom: "conv1a_neg"
  top: "conv1a_neg"
}
layer {
  name: "pool1_neg"
  type: "NdPooling"
  bottom: "conv1a_neg"
  top: "pool1_neg"
  pooling_param {
    pool: MAX
    kernel_shape {
      dim: 1
      dim: 2
      dim: 2
    }
    stride_shape {
      dim: 1
      dim: 2
      dim: 2
    }
  }
}
layer {
  name: "conv2a_neg"
  type: "NdConvolution"
  bottom: "pool1_neg"
  top: "conv2a_neg"
  param {
    name: "conv2a_w"
    lr_mult: 1
    decay_mult: 1
  }
  param {
    name: "conv2a_b"
    lr_mult: 2
    decay_mult: 0
  }
  convolution_param {
    num_output: 128
    weight_filler {
      type: "gaussian"
      std: 0.01
    }
    bias_filler {
      type: "constant"
      value: 1
    }
    pad_shape {
      dim: 1
      dim: 1
      dim: 1
    }
    kernel_shape {
      dim: 3
      dim: 3
      dim: 3
    }
    stride_shape {
      dim: 1
      dim: 1
      dim: 1
    }
  }
}
layer {
  name: "relu2a_neg"
  type: "ReLU"
  bottom: "conv2a_neg"
  top: "conv2a_neg"
}
layer {
  name: "pool2_neg"
  type: "NdPooling"
  bottom: "conv2a_neg"
  top: "pool2_neg"
  pooling_param {
    pool: MAX
    kernel_shape {
      dim: 2
      dim: 2
      dim: 2
    }
    stride_shape {
      dim: 2
      dim: 2
      dim: 2
    }
  }
}
layer {
  name: "conv3a_neg"
  type: "NdConvolution"
  bottom: "pool2_neg"
  top: "conv3a_neg"
  param {
    name: "conv3a_w"
    lr_mult: 1
    decay_mult: 1
  }
  param {
    name: "conv3a_b"
    lr_mult: 2
    decay_mult: 0
  }
  convolution_param {
    num_output: 256
    weight_filler {
      type: "gaussian"
      std: 0.01
    }
    bias_filler {
      type: "constant"
      value: 1
    }
    pad_shape {
      dim: 1
      dim: 1
      dim: 1
    }
    kernel_shape {
      dim: 3
      dim: 3
      dim: 3
    }
    stride_shape {
      dim: 1
      dim: 1
      dim: 1
    }
  }
}
layer {
  name: "relu3a_neg"
  type: "ReLU"
  bottom: "conv3a_neg"
  top: "conv3a_neg"
}
layer {
  name: "pool3_neg"
  type: "NdPooling"
  bottom: "conv3a_neg"
  top: "pool3_neg"
  pooling_param {
    pool: MAX
    kernel_shape {
      dim: 2
      dim: 2
      dim: 2
    }
    stride_shape {
      dim: 2
      dim: 2
      dim: 2
    }
  }
}
layer {
  name: "conv4a_neg"
  type: "NdConvolution"
  bottom: "pool3_neg"
  top: "conv4a_neg"
  param {
    name: "conv4a_w"
    lr_mult: 1
    decay_mult: 1
  }
  param {
    name: "conv4a_b"
    lr_mult: 2
    decay_mult: 0
  }
  convolution_param {
    num_output: 256
    weight_filler {
      type: "gaussian"
      std: 0.01
    }
    bias_filler {
      type: "constant"
      value: 1
    }
    pad_shape {
      dim: 1
      dim: 1
      dim: 1
    }
    kernel_shape {
      dim: 3
      dim: 3
      dim: 3
    }
    stride_shape {
      dim: 1
      dim: 1
      dim: 1
    }
  }
}
layer {
  name: "relu4a_neg"
  type: "ReLU"
  bottom: "conv4a_neg"
  top: "conv4a_neg"
}
layer {
  name: "pool4_neg"
  type: "NdPooling"
  bottom: "conv4a_neg"
  top: "pool4_neg"
  pooling_param {
    pool: MAX
    kernel_shape {
      dim: 2
      dim: 2
      dim: 2
    }
    stride_shape {
      dim: 2
      dim: 2
      dim: 2
    }
  }
}
layer {
  name: "conv5a_neg"
  type: "NdConvolution"
  bottom: "pool4_neg"
  top: "conv5a_neg"
  param {
    name: "conv5a_w"
    lr_mult: 1
    decay_mult: 1
  }
  param {
    name: "conv5a_b"
    lr_mult: 2
    decay_mult: 0
  }
  convolution_param {
    num_output: 256
    weight_filler {
      type: "gaussian"
      std: 0.01
    }
    bias_filler {
      type: "constant"
      value: 1
    }
    pad_shape {
      dim: 1
      dim: 1
      dim: 1
    }
    kernel_shape {
      dim: 3
      dim: 3
      dim: 3
    }
    stride_shape {
      dim: 1
      dim: 1
      dim: 1
    }
  }
}
layer {
  name: "relu5a_neg"
  type: "ReLU"
  bottom: "conv5a_neg"
  top: "conv5a_neg"
}
layer {
  name: "pool5_neg"
  type: "NdPooling"
  bottom: "conv5a_neg"
  top: "pool5_neg"
  pooling_param {
    pool: MAX
    kernel_shape {
      dim: 2
      dim: 2
      dim: 2
    }
    stride_shape {
      dim: 2
      dim: 2
      dim: 2
    }
  }
}
layer {
  name: "fc6_neg"
  type: "InnerProduct"
  bottom: "pool5_neg"
  top: "fc6_neg"
  param {
    name: "fc6_w"
    lr_mult: 1
    decay_mult: 1
  }
  param {
    name: "fc6_b"
    lr_mult: 2
    decay_mult: 0
  }
  inner_product_param {
    num_output: 2048
    weight_filler {
      type: "gaussian"
      std: 0.005
    }
    bias_filler {
      type: "constant"
      value: 1
    }
  }
}
layer {
  name: "relu6_neg"
  type: "ReLU"
  bottom: "fc6_neg"
  top: "fc6_neg"
}
layer {
  name: "drop6_neg"
  type: "Dropout"
  bottom: "fc6_neg"
  top: "fc6_neg"
  dropout_param {
    dropout_ratio: 0.5
  }
}
layer {
  name: "fc7_neg"
  type: "InnerProduct"
  bottom: "fc6_neg"
  top: "fc7_neg"
  param {
    name: "fc7_w"
    lr_mult: 1
    decay_mult: 1
  }
  param {
    name: "fc7_b"
    lr_mult: 2
    decay_mult: 0
  }
  inner_product_param {
    num_output: 2048
    weight_filler {
      type: "gaussian"
      std: 0.005
    }
    bias_filler {
      type: "constant"
      value: 1
    }
  }
}
layer {
  name: "relu7_neg"
  type: "ReLU"
  bottom: "fc7_neg"
  top: "fc7_neg"
}
layer {
  name: "drop7_neg"
  type: "Dropout"
  bottom: "fc7_neg"
  top: "fc7_neg"
  dropout_param {
    dropout_ratio: 0.5
  }
}
layer {
  name: "loss"
  type: "TripletLoss"
  bottom: "fc7"
  bottom: "fc7_pos"
  bottom: "fc7_neg"
  top: "loss"
  threshold_param {
    threshold: 1
  }
}
I0507 17:39:10.243499  5077 layer_factory.hpp:77] Creating layer data
I0507 17:39:10.243607  5077 net.cpp:100] Creating Layer data
I0507 17:39:10.243618  5077 net.cpp:408] data -> triplet
I0507 17:39:10.251036  5104 db_lmdb.cpp:35] Opened lmdb /data/leo-data/Synthetic/LMDB/Triplets/val
I0507 17:39:10.264612  5077 data_layer.cpp:41] output data size: 1,144,112,112
I0507 17:39:10.293303  5077 net.cpp:150] Setting up data
I0507 17:39:10.293395  5077 net.cpp:157] Top shape: 1 144 112 112 (1806336)
I0507 17:39:10.293402  5077 net.cpp:165] Memory required for data: 7225344
I0507 17:39:10.293412  5077 layer_factory.hpp:77] Creating layer slicer
I0507 17:39:10.293434  5077 net.cpp:100] Creating Layer slicer
I0507 17:39:10.293442  5077 net.cpp:434] slicer <- triplet
I0507 17:39:10.293453  5077 net.cpp:408] slicer -> anchor_stacked
I0507 17:39:10.293469  5077 net.cpp:408] slicer -> positive_stacked
I0507 17:39:10.293479  5077 net.cpp:408] slicer -> negative_stacked
I0507 17:39:10.293648  5077 net.cpp:150] Setting up slicer
I0507 17:39:10.293663  5077 net.cpp:157] Top shape: 1 48 112 112 (602112)
I0507 17:39:10.293669  5077 net.cpp:157] Top shape: 1 48 112 112 (602112)
I0507 17:39:10.293675  5077 net.cpp:157] Top shape: 1 48 112 112 (602112)
I0507 17:39:10.293680  5077 net.cpp:165] Memory required for data: 14450688
I0507 17:39:10.293685  5077 layer_factory.hpp:77] Creating layer reshape_anchor
I0507 17:39:10.293700  5077 net.cpp:100] Creating Layer reshape_anchor
I0507 17:39:10.293705  5077 net.cpp:434] reshape_anchor <- anchor_stacked
I0507 17:39:10.293715  5077 net.cpp:408] reshape_anchor -> anchor
I0507 17:39:10.293781  5077 net.cpp:150] Setting up reshape_anchor
I0507 17:39:10.293793  5077 net.cpp:157] Top shape: 1 3 16 112 112 (602112)
I0507 17:39:10.293798  5077 net.cpp:165] Memory required for data: 16859136
I0507 17:39:10.293803  5077 layer_factory.hpp:77] Creating layer reshape_positive
I0507 17:39:10.293812  5077 net.cpp:100] Creating Layer reshape_positive
I0507 17:39:10.293818  5077 net.cpp:434] reshape_positive <- positive_stacked
I0507 17:39:10.293838  5077 net.cpp:408] reshape_positive -> positive
I0507 17:39:10.293923  5077 net.cpp:150] Setting up reshape_positive
I0507 17:39:10.293962  5077 net.cpp:157] Top shape: 1 3 16 112 112 (602112)
I0507 17:39:10.293979  5077 net.cpp:165] Memory required for data: 19267584
I0507 17:39:10.293997  5077 layer_factory.hpp:77] Creating layer reshape_negative
I0507 17:39:10.294018  5077 net.cpp:100] Creating Layer reshape_negative
I0507 17:39:10.294035  5077 net.cpp:434] reshape_negative <- negative_stacked
I0507 17:39:10.294057  5077 net.cpp:408] reshape_negative -> negative
I0507 17:39:10.294124  5077 net.cpp:150] Setting up reshape_negative
I0507 17:39:10.294150  5077 net.cpp:157] Top shape: 1 3 16 112 112 (602112)
I0507 17:39:10.294164  5077 net.cpp:165] Memory required for data: 21676032
I0507 17:39:10.294178  5077 layer_factory.hpp:77] Creating layer conv1a
I0507 17:39:10.294204  5077 net.cpp:100] Creating Layer conv1a
I0507 17:39:10.294219  5077 net.cpp:434] conv1a <- anchor
I0507 17:39:10.294239  5077 net.cpp:408] conv1a -> conv1a
I0507 17:39:10.310477  5077 net.cpp:150] Setting up conv1a
I0507 17:39:10.310520  5077 net.cpp:157] Top shape: 1 64 16 112 112 (12845056)
I0507 17:39:10.310524  5077 net.cpp:165] Memory required for data: 73056256
I0507 17:39:10.310681  5077 layer_factory.hpp:77] Creating layer relu1a
I0507 17:39:10.310696  5077 net.cpp:100] Creating Layer relu1a
I0507 17:39:10.310703  5077 net.cpp:434] relu1a <- conv1a
I0507 17:39:10.310714  5077 net.cpp:395] relu1a -> conv1a (in-place)
I0507 17:39:10.310997  5077 net.cpp:150] Setting up relu1a
I0507 17:39:10.311010  5077 net.cpp:157] Top shape: 1 64 16 112 112 (12845056)
I0507 17:39:10.311014  5077 net.cpp:165] Memory required for data: 124436480
I0507 17:39:10.311017  5077 layer_factory.hpp:77] Creating layer pool1
I0507 17:39:10.311027  5077 net.cpp:100] Creating Layer pool1
I0507 17:39:10.311031  5077 net.cpp:434] pool1 <- conv1a
I0507 17:39:10.311043  5077 net.cpp:408] pool1 -> pool1
I0507 17:39:10.312250  5077 net.cpp:150] Setting up pool1
I0507 17:39:10.312265  5077 net.cpp:157] Top shape: 1 64 16 56 56 (3211264)
I0507 17:39:10.312269  5077 net.cpp:165] Memory required for data: 137281536
I0507 17:39:10.312278  5077 layer_factory.hpp:77] Creating layer conv2a
I0507 17:39:10.312292  5077 net.cpp:100] Creating Layer conv2a
I0507 17:39:10.312299  5077 net.cpp:434] conv2a <- pool1
I0507 17:39:10.312312  5077 net.cpp:408] conv2a -> conv2a
I0507 17:39:10.322307  5077 net.cpp:150] Setting up conv2a
I0507 17:39:10.322330  5077 net.cpp:157] Top shape: 1 128 16 56 56 (6422528)
I0507 17:39:10.322341  5077 net.cpp:165] Memory required for data: 162971648
I0507 17:39:10.322352  5077 layer_factory.hpp:77] Creating layer relu2a
I0507 17:39:10.322365  5077 net.cpp:100] Creating Layer relu2a
I0507 17:39:10.322371  5077 net.cpp:434] relu2a <- conv2a
I0507 17:39:10.322381  5077 net.cpp:395] relu2a -> conv2a (in-place)
I0507 17:39:10.324002  5077 net.cpp:150] Setting up relu2a
I0507 17:39:10.324020  5077 net.cpp:157] Top shape: 1 128 16 56 56 (6422528)
I0507 17:39:10.324033  5077 net.cpp:165] Memory required for data: 188661760
I0507 17:39:10.324035  5077 layer_factory.hpp:77] Creating layer pool2
I0507 17:39:10.324045  5077 net.cpp:100] Creating Layer pool2
I0507 17:39:10.324049  5077 net.cpp:434] pool2 <- conv2a
I0507 17:39:10.324055  5077 net.cpp:408] pool2 -> pool2
I0507 17:39:10.331018  5077 net.cpp:150] Setting up pool2
I0507 17:39:10.331034  5077 net.cpp:157] Top shape: 1 128 8 28 28 (802816)
I0507 17:39:10.331038  5077 net.cpp:165] Memory required for data: 191873024
I0507 17:39:10.331043  5077 layer_factory.hpp:77] Creating layer conv3a
I0507 17:39:10.331054  5077 net.cpp:100] Creating Layer conv3a
I0507 17:39:10.331058  5077 net.cpp:434] conv3a <- pool2
I0507 17:39:10.331076  5077 net.cpp:408] conv3a -> conv3a
I0507 17:39:10.361006  5077 net.cpp:150] Setting up conv3a
I0507 17:39:10.361033  5077 net.cpp:157] Top shape: 1 256 8 28 28 (1605632)
I0507 17:39:10.361039  5077 net.cpp:165] Memory required for data: 198295552
I0507 17:39:10.361054  5077 layer_factory.hpp:77] Creating layer relu3a
I0507 17:39:10.361065  5077 net.cpp:100] Creating Layer relu3a
I0507 17:39:10.361070  5077 net.cpp:434] relu3a <- conv3a
I0507 17:39:10.361083  5077 net.cpp:395] relu3a -> conv3a (in-place)
I0507 17:39:10.362118  5077 net.cpp:150] Setting up relu3a
I0507 17:39:10.362140  5077 net.cpp:157] Top shape: 1 256 8 28 28 (1605632)
I0507 17:39:10.362146  5077 net.cpp:165] Memory required for data: 204718080
I0507 17:39:10.362152  5077 layer_factory.hpp:77] Creating layer pool3
I0507 17:39:10.362166  5077 net.cpp:100] Creating Layer pool3
I0507 17:39:10.362218  5077 net.cpp:434] pool3 <- conv3a
I0507 17:39:10.362243  5077 net.cpp:408] pool3 -> pool3
I0507 17:39:10.362515  5077 net.cpp:150] Setting up pool3
I0507 17:39:10.362529  5077 net.cpp:157] Top shape: 1 256 4 14 14 (200704)
I0507 17:39:10.362531  5077 net.cpp:165] Memory required for data: 205520896
I0507 17:39:10.362534  5077 layer_factory.hpp:77] Creating layer conv4a
I0507 17:39:10.362547  5077 net.cpp:100] Creating Layer conv4a
I0507 17:39:10.362565  5077 net.cpp:434] conv4a <- pool3
I0507 17:39:10.362571  5077 net.cpp:408] conv4a -> conv4a
I0507 17:39:10.439687  5077 net.cpp:150] Setting up conv4a
I0507 17:39:10.439731  5077 net.cpp:157] Top shape: 1 256 4 14 14 (200704)
I0507 17:39:10.439776  5077 net.cpp:165] Memory required for data: 206323712
I0507 17:39:10.439813  5077 layer_factory.hpp:77] Creating layer relu4a
I0507 17:39:10.439832  5077 net.cpp:100] Creating Layer relu4a
I0507 17:39:10.439842  5077 net.cpp:434] relu4a <- conv4a
I0507 17:39:10.439852  5077 net.cpp:395] relu4a -> conv4a (in-place)
I0507 17:39:10.441175  5077 net.cpp:150] Setting up relu4a
I0507 17:39:10.441192  5077 net.cpp:157] Top shape: 1 256 4 14 14 (200704)
I0507 17:39:10.441202  5077 net.cpp:165] Memory required for data: 207126528
I0507 17:39:10.441206  5077 layer_factory.hpp:77] Creating layer pool4
I0507 17:39:10.441218  5077 net.cpp:100] Creating Layer pool4
I0507 17:39:10.441226  5077 net.cpp:434] pool4 <- conv4a
I0507 17:39:10.441251  5077 net.cpp:408] pool4 -> pool4
I0507 17:39:10.441555  5077 net.cpp:150] Setting up pool4
I0507 17:39:10.441570  5077 net.cpp:157] Top shape: 1 256 2 7 7 (25088)
I0507 17:39:10.441578  5077 net.cpp:165] Memory required for data: 207226880
I0507 17:39:10.441584  5077 layer_factory.hpp:77] Creating layer conv5a
I0507 17:39:10.441601  5077 net.cpp:100] Creating Layer conv5a
I0507 17:39:10.441611  5077 net.cpp:434] conv5a <- pool4
I0507 17:39:10.441620  5077 net.cpp:408] conv5a -> conv5a
I0507 17:39:10.516708  5077 net.cpp:150] Setting up conv5a
I0507 17:39:10.516748  5077 net.cpp:157] Top shape: 1 256 2 7 7 (25088)
I0507 17:39:10.516753  5077 net.cpp:165] Memory required for data: 207327232
I0507 17:39:10.516772  5077 layer_factory.hpp:77] Creating layer relu5a
I0507 17:39:10.516783  5077 net.cpp:100] Creating Layer relu5a
I0507 17:39:10.516790  5077 net.cpp:434] relu5a <- conv5a
I0507 17:39:10.516805  5077 net.cpp:395] relu5a -> conv5a (in-place)
I0507 17:39:10.517709  5077 net.cpp:150] Setting up relu5a
I0507 17:39:10.517724  5077 net.cpp:157] Top shape: 1 256 2 7 7 (25088)
I0507 17:39:10.517735  5077 net.cpp:165] Memory required for data: 207427584
I0507 17:39:10.517740  5077 layer_factory.hpp:77] Creating layer pool5
I0507 17:39:10.517746  5077 net.cpp:100] Creating Layer pool5
I0507 17:39:10.517751  5077 net.cpp:434] pool5 <- conv5a
I0507 17:39:10.517763  5077 net.cpp:408] pool5 -> pool5
I0507 17:39:10.518059  5077 net.cpp:150] Setting up pool5
I0507 17:39:10.518074  5077 net.cpp:157] Top shape: 1 256 1 4 4 (4096)
I0507 17:39:10.518081  5077 net.cpp:165] Memory required for data: 207443968
I0507 17:39:10.518090  5077 layer_factory.hpp:77] Creating layer fc6
I0507 17:39:10.518105  5077 net.cpp:100] Creating Layer fc6
I0507 17:39:10.518110  5077 net.cpp:434] fc6 <- pool5
I0507 17:39:10.518121  5077 net.cpp:408] fc6 -> fc6
I0507 17:39:10.803905  5077 net.cpp:150] Setting up fc6
I0507 17:39:10.803946  5077 net.cpp:157] Top shape: 1 2048 (2048)
I0507 17:39:10.803951  5077 net.cpp:165] Memory required for data: 207452160
I0507 17:39:10.803984  5077 layer_factory.hpp:77] Creating layer relu6
I0507 17:39:10.804011  5077 net.cpp:100] Creating Layer relu6
I0507 17:39:10.804028  5077 net.cpp:434] relu6 <- fc6
I0507 17:39:10.804040  5077 net.cpp:395] relu6 -> fc6 (in-place)
I0507 17:39:10.810530  5077 net.cpp:150] Setting up relu6
I0507 17:39:10.810549  5077 net.cpp:157] Top shape: 1 2048 (2048)
I0507 17:39:10.810556  5077 net.cpp:165] Memory required for data: 207460352
I0507 17:39:10.810562  5077 layer_factory.hpp:77] Creating layer drop6
I0507 17:39:10.810583  5077 net.cpp:100] Creating Layer drop6
I0507 17:39:10.810592  5077 net.cpp:434] drop6 <- fc6
I0507 17:39:10.810601  5077 net.cpp:395] drop6 -> fc6 (in-place)
I0507 17:39:10.810652  5077 net.cpp:150] Setting up drop6
I0507 17:39:10.810667  5077 net.cpp:157] Top shape: 1 2048 (2048)
I0507 17:39:10.810672  5077 net.cpp:165] Memory required for data: 207468544
I0507 17:39:10.810678  5077 layer_factory.hpp:77] Creating layer fc7
I0507 17:39:10.810705  5077 net.cpp:100] Creating Layer fc7
I0507 17:39:10.810729  5077 net.cpp:434] fc7 <- fc6
I0507 17:39:10.810739  5077 net.cpp:408] fc7 -> fc7
I0507 17:39:10.955487  5077 net.cpp:150] Setting up fc7
I0507 17:39:10.955520  5077 net.cpp:157] Top shape: 1 2048 (2048)
I0507 17:39:10.955569  5077 net.cpp:165] Memory required for data: 207476736
I0507 17:39:10.955588  5077 layer_factory.hpp:77] Creating layer relu7
I0507 17:39:10.955605  5077 net.cpp:100] Creating Layer relu7
I0507 17:39:10.955612  5077 net.cpp:434] relu7 <- fc7
I0507 17:39:10.955622  5077 net.cpp:395] relu7 -> fc7 (in-place)
I0507 17:39:10.955938  5077 net.cpp:150] Setting up relu7
I0507 17:39:10.955953  5077 net.cpp:157] Top shape: 1 2048 (2048)
I0507 17:39:10.955958  5077 net.cpp:165] Memory required for data: 207484928
I0507 17:39:10.955974  5077 layer_factory.hpp:77] Creating layer drop7
I0507 17:39:10.955987  5077 net.cpp:100] Creating Layer drop7
I0507 17:39:10.955996  5077 net.cpp:434] drop7 <- fc7
I0507 17:39:10.956007  5077 net.cpp:395] drop7 -> fc7 (in-place)
I0507 17:39:10.956054  5077 net.cpp:150] Setting up drop7
I0507 17:39:10.956069  5077 net.cpp:157] Top shape: 1 2048 (2048)
I0507 17:39:10.956075  5077 net.cpp:165] Memory required for data: 207493120
I0507 17:39:10.956080  5077 layer_factory.hpp:77] Creating layer conv1a_pos
I0507 17:39:10.956095  5077 net.cpp:100] Creating Layer conv1a_pos
I0507 17:39:10.956111  5077 net.cpp:434] conv1a_pos <- positive
I0507 17:39:10.956146  5077 net.cpp:408] conv1a_pos -> conv1a_pos
I0507 17:39:10.959535  5077 net.cpp:150] Setting up conv1a_pos
I0507 17:39:10.959553  5077 net.cpp:157] Top shape: 1 64 16 112 112 (12845056)
I0507 17:39:10.959558  5077 net.cpp:165] Memory required for data: 258873344
I0507 17:39:10.959575  5077 net.cpp:493] Sharing parameters 'conv1a_w' owned by layer 'conv1a', param index 0
I0507 17:39:10.959588  5077 net.cpp:493] Sharing parameters 'conv1a_b' owned by layer 'conv1a', param index 1
I0507 17:39:10.959595  5077 layer_factory.hpp:77] Creating layer relu1a_pos
I0507 17:39:10.959605  5077 net.cpp:100] Creating Layer relu1a_pos
I0507 17:39:10.959612  5077 net.cpp:434] relu1a_pos <- conv1a_pos
I0507 17:39:10.959625  5077 net.cpp:395] relu1a_pos -> conv1a_pos (in-place)
I0507 17:39:10.960541  5077 net.cpp:150] Setting up relu1a_pos
I0507 17:39:10.960557  5077 net.cpp:157] Top shape: 1 64 16 112 112 (12845056)
I0507 17:39:10.960563  5077 net.cpp:165] Memory required for data: 310253568
I0507 17:39:10.960569  5077 layer_factory.hpp:77] Creating layer pool1_pos
I0507 17:39:10.960590  5077 net.cpp:100] Creating Layer pool1_pos
I0507 17:39:10.960598  5077 net.cpp:434] pool1_pos <- conv1a_pos
I0507 17:39:10.960609  5077 net.cpp:408] pool1_pos -> pool1_pos
I0507 17:39:10.960894  5077 net.cpp:150] Setting up pool1_pos
I0507 17:39:10.960909  5077 net.cpp:157] Top shape: 1 64 16 56 56 (3211264)
I0507 17:39:10.960914  5077 net.cpp:165] Memory required for data: 323098624
I0507 17:39:10.960927  5077 layer_factory.hpp:77] Creating layer conv2a_pos
I0507 17:39:10.960952  5077 net.cpp:100] Creating Layer conv2a_pos
I0507 17:39:10.960958  5077 net.cpp:434] conv2a_pos <- pool1_pos
I0507 17:39:10.960979  5077 net.cpp:408] conv2a_pos -> conv2a_pos
I0507 17:39:10.971113  5077 net.cpp:150] Setting up conv2a_pos
I0507 17:39:10.971132  5077 net.cpp:157] Top shape: 1 128 16 56 56 (6422528)
I0507 17:39:10.971138  5077 net.cpp:165] Memory required for data: 348788736
I0507 17:39:10.971153  5077 net.cpp:493] Sharing parameters 'conv2a_w' owned by layer 'conv2a', param index 0
I0507 17:39:10.971163  5077 net.cpp:493] Sharing parameters 'conv2a_b' owned by layer 'conv2a', param index 1
I0507 17:39:10.971169  5077 layer_factory.hpp:77] Creating layer relu2a_pos
I0507 17:39:10.971180  5077 net.cpp:100] Creating Layer relu2a_pos
I0507 17:39:10.971189  5077 net.cpp:434] relu2a_pos <- conv2a_pos
I0507 17:39:10.971197  5077 net.cpp:395] relu2a_pos -> conv2a_pos (in-place)
I0507 17:39:10.971472  5077 net.cpp:150] Setting up relu2a_pos
I0507 17:39:10.971487  5077 net.cpp:157] Top shape: 1 128 16 56 56 (6422528)
I0507 17:39:10.971491  5077 net.cpp:165] Memory required for data: 374478848
I0507 17:39:10.971498  5077 layer_factory.hpp:77] Creating layer pool2_pos
I0507 17:39:10.971508  5077 net.cpp:100] Creating Layer pool2_pos
I0507 17:39:10.971515  5077 net.cpp:434] pool2_pos <- conv2a_pos
I0507 17:39:10.971545  5077 net.cpp:408] pool2_pos -> pool2_pos
I0507 17:39:10.972492  5077 net.cpp:150] Setting up pool2_pos
I0507 17:39:10.972508  5077 net.cpp:157] Top shape: 1 128 8 28 28 (802816)
I0507 17:39:10.972514  5077 net.cpp:165] Memory required for data: 377690112
I0507 17:39:10.972522  5077 layer_factory.hpp:77] Creating layer conv3a_pos
I0507 17:39:10.972568  5077 net.cpp:100] Creating Layer conv3a_pos
I0507 17:39:10.972575  5077 net.cpp:434] conv3a_pos <- pool2_pos
I0507 17:39:10.972591  5077 net.cpp:408] conv3a_pos -> conv3a_pos
I0507 17:39:11.004338  5077 net.cpp:150] Setting up conv3a_pos
I0507 17:39:11.004356  5077 net.cpp:157] Top shape: 1 256 8 28 28 (1605632)
I0507 17:39:11.004362  5077 net.cpp:165] Memory required for data: 384112640
I0507 17:39:11.004370  5077 net.cpp:493] Sharing parameters 'conv3a_w' owned by layer 'conv3a', param index 0
I0507 17:39:11.004384  5077 net.cpp:493] Sharing parameters 'conv3a_b' owned by layer 'conv3a', param index 1
I0507 17:39:11.004392  5077 layer_factory.hpp:77] Creating layer relu3a_pos
I0507 17:39:11.004405  5077 net.cpp:100] Creating Layer relu3a_pos
I0507 17:39:11.004411  5077 net.cpp:434] relu3a_pos <- conv3a_pos
I0507 17:39:11.004420  5077 net.cpp:395] relu3a_pos -> conv3a_pos (in-place)
I0507 17:39:11.004638  5077 net.cpp:150] Setting up relu3a_pos
I0507 17:39:11.004652  5077 net.cpp:157] Top shape: 1 256 8 28 28 (1605632)
I0507 17:39:11.004658  5077 net.cpp:165] Memory required for data: 390535168
I0507 17:39:11.004663  5077 layer_factory.hpp:77] Creating layer pool3_pos
I0507 17:39:11.004676  5077 net.cpp:100] Creating Layer pool3_pos
I0507 17:39:11.004684  5077 net.cpp:434] pool3_pos <- conv3a_pos
I0507 17:39:11.004693  5077 net.cpp:408] pool3_pos -> pool3_pos
I0507 17:39:11.008369  5077 net.cpp:150] Setting up pool3_pos
I0507 17:39:11.008388  5077 net.cpp:157] Top shape: 1 256 4 14 14 (200704)
I0507 17:39:11.008394  5077 net.cpp:165] Memory required for data: 391337984
I0507 17:39:11.008400  5077 layer_factory.hpp:77] Creating layer conv4a_pos
I0507 17:39:11.008419  5077 net.cpp:100] Creating Layer conv4a_pos
I0507 17:39:11.008426  5077 net.cpp:434] conv4a_pos <- pool3_pos
I0507 17:39:11.008437  5077 net.cpp:408] conv4a_pos -> conv4a_pos
I0507 17:39:11.112717  5077 net.cpp:150] Setting up conv4a_pos
I0507 17:39:11.112758  5077 net.cpp:157] Top shape: 1 256 4 14 14 (200704)
I0507 17:39:11.112766  5077 net.cpp:165] Memory required for data: 392140800
I0507 17:39:11.112782  5077 net.cpp:493] Sharing parameters 'conv4a_w' owned by layer 'conv4a', param index 0
I0507 17:39:11.112793  5077 net.cpp:493] Sharing parameters 'conv4a_b' owned by layer 'conv4a', param index 1
I0507 17:39:11.112810  5077 layer_factory.hpp:77] Creating layer relu4a_pos
I0507 17:39:11.112835  5077 net.cpp:100] Creating Layer relu4a_pos
I0507 17:39:11.112854  5077 net.cpp:434] relu4a_pos <- conv4a_pos
I0507 17:39:11.112879  5077 net.cpp:395] relu4a_pos -> conv4a_pos (in-place)
I0507 17:39:11.113384  5077 net.cpp:150] Setting up relu4a_pos
I0507 17:39:11.113406  5077 net.cpp:157] Top shape: 1 256 4 14 14 (200704)
I0507 17:39:11.113420  5077 net.cpp:165] Memory required for data: 392943616
I0507 17:39:11.113435  5077 layer_factory.hpp:77] Creating layer pool4_pos
I0507 17:39:11.113466  5077 net.cpp:100] Creating Layer pool4_pos
I0507 17:39:11.113481  5077 net.cpp:434] pool4_pos <- conv4a_pos
I0507 17:39:11.113502  5077 net.cpp:408] pool4_pos -> pool4_pos
I0507 17:39:11.115249  5077 net.cpp:150] Setting up pool4_pos
I0507 17:39:11.115278  5077 net.cpp:157] Top shape: 1 256 2 7 7 (25088)
I0507 17:39:11.115290  5077 net.cpp:165] Memory required for data: 393043968
I0507 17:39:11.115304  5077 layer_factory.hpp:77] Creating layer conv5a_pos
I0507 17:39:11.115339  5077 net.cpp:100] Creating Layer conv5a_pos
I0507 17:39:11.115355  5077 net.cpp:434] conv5a_pos <- pool4_pos
I0507 17:39:11.115384  5077 net.cpp:408] conv5a_pos -> conv5a_pos
I0507 17:39:11.179553  5077 net.cpp:150] Setting up conv5a_pos
I0507 17:39:11.179581  5077 net.cpp:157] Top shape: 1 256 2 7 7 (25088)
I0507 17:39:11.179585  5077 net.cpp:165] Memory required for data: 393144320
I0507 17:39:11.179620  5077 net.cpp:493] Sharing parameters 'conv5a_w' owned by layer 'conv5a', param index 0
I0507 17:39:11.179632  5077 net.cpp:493] Sharing parameters 'conv5a_b' owned by layer 'conv5a', param index 1
I0507 17:39:11.179637  5077 layer_factory.hpp:77] Creating layer relu5a_pos
I0507 17:39:11.179651  5077 net.cpp:100] Creating Layer relu5a_pos
I0507 17:39:11.179659  5077 net.cpp:434] relu5a_pos <- conv5a_pos
I0507 17:39:11.179668  5077 net.cpp:395] relu5a_pos -> conv5a_pos (in-place)
I0507 17:39:11.180601  5077 net.cpp:150] Setting up relu5a_pos
I0507 17:39:11.180616  5077 net.cpp:157] Top shape: 1 256 2 7 7 (25088)
I0507 17:39:11.180620  5077 net.cpp:165] Memory required for data: 393244672
I0507 17:39:11.180625  5077 layer_factory.hpp:77] Creating layer pool5_pos
I0507 17:39:11.180639  5077 net.cpp:100] Creating Layer pool5_pos
I0507 17:39:11.180647  5077 net.cpp:434] pool5_pos <- conv5a_pos
I0507 17:39:11.180660  5077 net.cpp:408] pool5_pos -> pool5_pos
I0507 17:39:11.181633  5077 net.cpp:150] Setting up pool5_pos
I0507 17:39:11.181648  5077 net.cpp:157] Top shape: 1 256 1 4 4 (4096)
I0507 17:39:11.181651  5077 net.cpp:165] Memory required for data: 393261056
I0507 17:39:11.181659  5077 layer_factory.hpp:77] Creating layer fc6_pos
I0507 17:39:11.181673  5077 net.cpp:100] Creating Layer fc6_pos
I0507 17:39:11.181676  5077 net.cpp:434] fc6_pos <- pool5_pos
I0507 17:39:11.181686  5077 net.cpp:408] fc6_pos -> fc6_pos
I0507 17:39:11.482815  5077 net.cpp:150] Setting up fc6_pos
I0507 17:39:11.482849  5077 net.cpp:157] Top shape: 1 2048 (2048)
I0507 17:39:11.482853  5077 net.cpp:165] Memory required for data: 393269248
I0507 17:39:11.482866  5077 net.cpp:493] Sharing parameters 'fc6_w' owned by layer 'fc6', param index 0
I0507 17:39:11.482875  5077 net.cpp:493] Sharing parameters 'fc6_b' owned by layer 'fc6', param index 1
I0507 17:39:11.482882  5077 layer_factory.hpp:77] Creating layer relu6_pos
I0507 17:39:11.482900  5077 net.cpp:100] Creating Layer relu6_pos
I0507 17:39:11.482918  5077 net.cpp:434] relu6_pos <- fc6_pos
I0507 17:39:11.482930  5077 net.cpp:395] relu6_pos -> fc6_pos (in-place)
I0507 17:39:11.483371  5077 net.cpp:150] Setting up relu6_pos
I0507 17:39:11.483384  5077 net.cpp:157] Top shape: 1 2048 (2048)
I0507 17:39:11.483391  5077 net.cpp:165] Memory required for data: 393277440
I0507 17:39:11.483395  5077 layer_factory.hpp:77] Creating layer drop6_pos
I0507 17:39:11.483413  5077 net.cpp:100] Creating Layer drop6_pos
I0507 17:39:11.483419  5077 net.cpp:434] drop6_pos <- fc6_pos
I0507 17:39:11.483433  5077 net.cpp:395] drop6_pos -> fc6_pos (in-place)
I0507 17:39:11.483487  5077 net.cpp:150] Setting up drop6_pos
I0507 17:39:11.483499  5077 net.cpp:157] Top shape: 1 2048 (2048)
I0507 17:39:11.483508  5077 net.cpp:165] Memory required for data: 393285632
I0507 17:39:11.483513  5077 layer_factory.hpp:77] Creating layer fc7_pos
I0507 17:39:11.483538  5077 net.cpp:100] Creating Layer fc7_pos
I0507 17:39:11.483546  5077 net.cpp:434] fc7_pos <- fc6_pos
I0507 17:39:11.483558  5077 net.cpp:408] fc7_pos -> fc7_pos
I0507 17:39:11.646265  5077 net.cpp:150] Setting up fc7_pos
I0507 17:39:11.646309  5077 net.cpp:157] Top shape: 1 2048 (2048)
I0507 17:39:11.646313  5077 net.cpp:165] Memory required for data: 393293824
I0507 17:39:11.646325  5077 net.cpp:493] Sharing parameters 'fc7_w' owned by layer 'fc7', param index 0
I0507 17:39:11.646333  5077 net.cpp:493] Sharing parameters 'fc7_b' owned by layer 'fc7', param index 1
I0507 17:39:11.646338  5077 layer_factory.hpp:77] Creating layer relu7_pos
I0507 17:39:11.646351  5077 net.cpp:100] Creating Layer relu7_pos
I0507 17:39:11.646356  5077 net.cpp:434] relu7_pos <- fc7_pos
I0507 17:39:11.646363  5077 net.cpp:395] relu7_pos -> fc7_pos (in-place)
I0507 17:39:11.650637  5077 net.cpp:150] Setting up relu7_pos
I0507 17:39:11.650655  5077 net.cpp:157] Top shape: 1 2048 (2048)
I0507 17:39:11.650660  5077 net.cpp:165] Memory required for data: 393302016
I0507 17:39:11.650663  5077 layer_factory.hpp:77] Creating layer drop7_pos
I0507 17:39:11.650698  5077 net.cpp:100] Creating Layer drop7_pos
I0507 17:39:11.650713  5077 net.cpp:434] drop7_pos <- fc7_pos
I0507 17:39:11.650720  5077 net.cpp:395] drop7_pos -> fc7_pos (in-place)
I0507 17:39:11.650761  5077 net.cpp:150] Setting up drop7_pos
I0507 17:39:11.650768  5077 net.cpp:157] Top shape: 1 2048 (2048)
I0507 17:39:11.650771  5077 net.cpp:165] Memory required for data: 393310208
I0507 17:39:11.650774  5077 layer_factory.hpp:77] Creating layer conv1a_neg
I0507 17:39:11.650789  5077 net.cpp:100] Creating Layer conv1a_neg
I0507 17:39:11.650795  5077 net.cpp:434] conv1a_neg <- negative
I0507 17:39:11.650806  5077 net.cpp:408] conv1a_neg -> conv1a_neg
I0507 17:39:11.653205  5077 net.cpp:150] Setting up conv1a_neg
I0507 17:39:11.653220  5077 net.cpp:157] Top shape: 1 64 16 112 112 (12845056)
I0507 17:39:11.653223  5077 net.cpp:165] Memory required for data: 444690432
I0507 17:39:11.653230  5077 net.cpp:493] Sharing parameters 'conv1a_w' owned by layer 'conv1a', param index 0
I0507 17:39:11.653235  5077 net.cpp:493] Sharing parameters 'conv1a_b' owned by layer 'conv1a', param index 1
I0507 17:39:11.653239  5077 layer_factory.hpp:77] Creating layer relu1a_neg
I0507 17:39:11.653244  5077 net.cpp:100] Creating Layer relu1a_neg
I0507 17:39:11.653251  5077 net.cpp:434] relu1a_neg <- conv1a_neg
I0507 17:39:11.653256  5077 net.cpp:395] relu1a_neg -> conv1a_neg (in-place)
I0507 17:39:11.654110  5077 net.cpp:150] Setting up relu1a_neg
I0507 17:39:11.654124  5077 net.cpp:157] Top shape: 1 64 16 112 112 (12845056)
I0507 17:39:11.654127  5077 net.cpp:165] Memory required for data: 496070656
I0507 17:39:11.654131  5077 layer_factory.hpp:77] Creating layer pool1_neg
I0507 17:39:11.654139  5077 net.cpp:100] Creating Layer pool1_neg
I0507 17:39:11.654145  5077 net.cpp:434] pool1_neg <- conv1a_neg
I0507 17:39:11.654153  5077 net.cpp:408] pool1_neg -> pool1_neg
I0507 17:39:11.654415  5077 net.cpp:150] Setting up pool1_neg
I0507 17:39:11.654427  5077 net.cpp:157] Top shape: 1 64 16 56 56 (3211264)
I0507 17:39:11.654430  5077 net.cpp:165] Memory required for data: 508915712
I0507 17:39:11.654434  5077 layer_factory.hpp:77] Creating layer conv2a_neg
I0507 17:39:11.654443  5077 net.cpp:100] Creating Layer conv2a_neg
I0507 17:39:11.654448  5077 net.cpp:434] conv2a_neg <- pool1_neg
I0507 17:39:11.654456  5077 net.cpp:408] conv2a_neg -> conv2a_neg
I0507 17:39:11.665732  5077 net.cpp:150] Setting up conv2a_neg
I0507 17:39:11.665750  5077 net.cpp:157] Top shape: 1 128 16 56 56 (6422528)
I0507 17:39:11.665752  5077 net.cpp:165] Memory required for data: 534605824
I0507 17:39:11.665758  5077 net.cpp:493] Sharing parameters 'conv2a_w' owned by layer 'conv2a', param index 0
I0507 17:39:11.665765  5077 net.cpp:493] Sharing parameters 'conv2a_b' owned by layer 'conv2a', param index 1
I0507 17:39:11.665767  5077 layer_factory.hpp:77] Creating layer relu2a_neg
I0507 17:39:11.665774  5077 net.cpp:100] Creating Layer relu2a_neg
I0507 17:39:11.665781  5077 net.cpp:434] relu2a_neg <- conv2a_neg
I0507 17:39:11.665786  5077 net.cpp:395] relu2a_neg -> conv2a_neg (in-place)
I0507 17:39:11.666632  5077 net.cpp:150] Setting up relu2a_neg
I0507 17:39:11.666646  5077 net.cpp:157] Top shape: 1 128 16 56 56 (6422528)
I0507 17:39:11.666651  5077 net.cpp:165] Memory required for data: 560295936
I0507 17:39:11.666653  5077 layer_factory.hpp:77] Creating layer pool2_neg
I0507 17:39:11.666661  5077 net.cpp:100] Creating Layer pool2_neg
I0507 17:39:11.666666  5077 net.cpp:434] pool2_neg <- conv2a_neg
I0507 17:39:11.666671  5077 net.cpp:408] pool2_neg -> pool2_neg
I0507 17:39:11.666941  5077 net.cpp:150] Setting up pool2_neg
I0507 17:39:11.666954  5077 net.cpp:157] Top shape: 1 128 8 28 28 (802816)
I0507 17:39:11.666956  5077 net.cpp:165] Memory required for data: 563507200
I0507 17:39:11.666961  5077 layer_factory.hpp:77] Creating layer conv3a_neg
I0507 17:39:11.666970  5077 net.cpp:100] Creating Layer conv3a_neg
I0507 17:39:11.666980  5077 net.cpp:434] conv3a_neg <- pool2_neg
I0507 17:39:11.666988  5077 net.cpp:408] conv3a_neg -> conv3a_neg
I0507 17:39:11.703368  5077 net.cpp:150] Setting up conv3a_neg
I0507 17:39:11.703408  5077 net.cpp:157] Top shape: 1 256 8 28 28 (1605632)
I0507 17:39:11.703413  5077 net.cpp:165] Memory required for data: 569929728
I0507 17:39:11.703449  5077 net.cpp:493] Sharing parameters 'conv3a_w' owned by layer 'conv3a', param index 0
I0507 17:39:11.703459  5077 net.cpp:493] Sharing parameters 'conv3a_b' owned by layer 'conv3a', param index 1
I0507 17:39:11.703467  5077 layer_factory.hpp:77] Creating layer relu3a_neg
I0507 17:39:11.703485  5077 net.cpp:100] Creating Layer relu3a_neg
I0507 17:39:11.703493  5077 net.cpp:434] relu3a_neg <- conv3a_neg
I0507 17:39:11.703506  5077 net.cpp:395] relu3a_neg -> conv3a_neg (in-place)
I0507 17:39:11.704444  5077 net.cpp:150] Setting up relu3a_neg
I0507 17:39:11.704462  5077 net.cpp:157] Top shape: 1 256 8 28 28 (1605632)
I0507 17:39:11.704468  5077 net.cpp:165] Memory required for data: 576352256
I0507 17:39:11.704473  5077 layer_factory.hpp:77] Creating layer pool3_neg
I0507 17:39:11.704491  5077 net.cpp:100] Creating Layer pool3_neg
I0507 17:39:11.704500  5077 net.cpp:434] pool3_neg <- conv3a_neg
I0507 17:39:11.704514  5077 net.cpp:408] pool3_neg -> pool3_neg
I0507 17:39:11.704808  5077 net.cpp:150] Setting up pool3_neg
I0507 17:39:11.704823  5077 net.cpp:157] Top shape: 1 256 4 14 14 (200704)
I0507 17:39:11.704828  5077 net.cpp:165] Memory required for data: 577155072
I0507 17:39:11.704834  5077 layer_factory.hpp:77] Creating layer conv4a_neg
I0507 17:39:11.704879  5077 net.cpp:100] Creating Layer conv4a_neg
I0507 17:39:11.704886  5077 net.cpp:434] conv4a_neg <- pool3_neg
I0507 17:39:11.704900  5077 net.cpp:408] conv4a_neg -> conv4a_neg
I0507 17:39:11.765847  5077 net.cpp:150] Setting up conv4a_neg
I0507 17:39:11.765885  5077 net.cpp:157] Top shape: 1 256 4 14 14 (200704)
I0507 17:39:11.765892  5077 net.cpp:165] Memory required for data: 577957888
I0507 17:39:11.765902  5077 net.cpp:493] Sharing parameters 'conv4a_w' owned by layer 'conv4a', param index 0
I0507 17:39:11.765909  5077 net.cpp:493] Sharing parameters 'conv4a_b' owned by layer 'conv4a', param index 1
I0507 17:39:11.765915  5077 layer_factory.hpp:77] Creating layer relu4a_neg
I0507 17:39:11.765933  5077 net.cpp:100] Creating Layer relu4a_neg
I0507 17:39:11.765939  5077 net.cpp:434] relu4a_neg <- conv4a_neg
I0507 17:39:11.765949  5077 net.cpp:395] relu4a_neg -> conv4a_neg (in-place)
I0507 17:39:11.767246  5077 net.cpp:150] Setting up relu4a_neg
I0507 17:39:11.767269  5077 net.cpp:157] Top shape: 1 256 4 14 14 (200704)
I0507 17:39:11.767277  5077 net.cpp:165] Memory required for data: 578760704
I0507 17:39:11.767282  5077 layer_factory.hpp:77] Creating layer pool4_neg
I0507 17:39:11.767294  5077 net.cpp:100] Creating Layer pool4_neg
I0507 17:39:11.767300  5077 net.cpp:434] pool4_neg <- conv4a_neg
I0507 17:39:11.767313  5077 net.cpp:408] pool4_neg -> pool4_neg
I0507 17:39:11.767722  5077 net.cpp:150] Setting up pool4_neg
I0507 17:39:11.767737  5077 net.cpp:157] Top shape: 1 256 2 7 7 (25088)
I0507 17:39:11.767743  5077 net.cpp:165] Memory required for data: 578861056
I0507 17:39:11.767750  5077 layer_factory.hpp:77] Creating layer conv5a_neg
I0507 17:39:11.767769  5077 net.cpp:100] Creating Layer conv5a_neg
I0507 17:39:11.767776  5077 net.cpp:434] conv5a_neg <- pool4_neg
I0507 17:39:11.767789  5077 net.cpp:408] conv5a_neg -> conv5a_neg
I0507 17:39:11.827894  5077 net.cpp:150] Setting up conv5a_neg
I0507 17:39:11.827935  5077 net.cpp:157] Top shape: 1 256 2 7 7 (25088)
I0507 17:39:11.827941  5077 net.cpp:165] Memory required for data: 578961408
I0507 17:39:11.827963  5077 net.cpp:493] Sharing parameters 'conv5a_w' owned by layer 'conv5a', param index 0
I0507 17:39:11.827981  5077 net.cpp:493] Sharing parameters 'conv5a_b' owned by layer 'conv5a', param index 1
I0507 17:39:11.827988  5077 layer_factory.hpp:77] Creating layer relu5a_neg
I0507 17:39:11.828002  5077 net.cpp:100] Creating Layer relu5a_neg
I0507 17:39:11.828011  5077 net.cpp:434] relu5a_neg <- conv5a_neg
I0507 17:39:11.828022  5077 net.cpp:395] relu5a_neg -> conv5a_neg (in-place)
I0507 17:39:11.828307  5077 net.cpp:150] Setting up relu5a_neg
I0507 17:39:11.828322  5077 net.cpp:157] Top shape: 1 256 2 7 7 (25088)
I0507 17:39:11.828328  5077 net.cpp:165] Memory required for data: 579061760
I0507 17:39:11.828333  5077 layer_factory.hpp:77] Creating layer pool5_neg
I0507 17:39:11.828348  5077 net.cpp:100] Creating Layer pool5_neg
I0507 17:39:11.828356  5077 net.cpp:434] pool5_neg <- conv5a_neg
I0507 17:39:11.828364  5077 net.cpp:408] pool5_neg -> pool5_neg
I0507 17:39:11.834862  5077 net.cpp:150] Setting up pool5_neg
I0507 17:39:11.834903  5077 net.cpp:157] Top shape: 1 256 1 4 4 (4096)
I0507 17:39:11.834928  5077 net.cpp:165] Memory required for data: 579078144
I0507 17:39:11.834933  5077 layer_factory.hpp:77] Creating layer fc6_neg
I0507 17:39:11.834950  5077 net.cpp:100] Creating Layer fc6_neg
I0507 17:39:11.834981  5077 net.cpp:434] fc6_neg <- pool5_neg
I0507 17:39:11.834991  5077 net.cpp:408] fc6_neg -> fc6_neg
I0507 17:39:12.186733  5077 net.cpp:150] Setting up fc6_neg
I0507 17:39:12.186777  5077 net.cpp:157] Top shape: 1 2048 (2048)
I0507 17:39:12.186781  5077 net.cpp:165] Memory required for data: 579086336
I0507 17:39:12.186794  5077 net.cpp:493] Sharing parameters 'fc6_w' owned by layer 'fc6', param index 0
I0507 17:39:12.186802  5077 net.cpp:493] Sharing parameters 'fc6_b' owned by layer 'fc6', param index 1
I0507 17:39:12.186816  5077 layer_factory.hpp:77] Creating layer relu6_neg
I0507 17:39:12.186830  5077 net.cpp:100] Creating Layer relu6_neg
I0507 17:39:12.186837  5077 net.cpp:434] relu6_neg <- fc6_neg
I0507 17:39:12.186844  5077 net.cpp:395] relu6_neg -> fc6_neg (in-place)
I0507 17:39:12.187419  5077 net.cpp:150] Setting up relu6_neg
I0507 17:39:12.187433  5077 net.cpp:157] Top shape: 1 2048 (2048)
I0507 17:39:12.187438  5077 net.cpp:165] Memory required for data: 579094528
I0507 17:39:12.187446  5077 layer_factory.hpp:77] Creating layer drop6_neg
I0507 17:39:12.187503  5077 net.cpp:100] Creating Layer drop6_neg
I0507 17:39:12.187510  5077 net.cpp:434] drop6_neg <- fc6_neg
I0507 17:39:12.187517  5077 net.cpp:395] drop6_neg -> fc6_neg (in-place)
I0507 17:39:12.187566  5077 net.cpp:150] Setting up drop6_neg
I0507 17:39:12.187573  5077 net.cpp:157] Top shape: 1 2048 (2048)
I0507 17:39:12.187579  5077 net.cpp:165] Memory required for data: 579102720
I0507 17:39:12.187584  5077 layer_factory.hpp:77] Creating layer fc7_neg
I0507 17:39:12.187614  5077 net.cpp:100] Creating Layer fc7_neg
I0507 17:39:12.187619  5077 net.cpp:434] fc7_neg <- fc6_neg
I0507 17:39:12.187630  5077 net.cpp:408] fc7_neg -> fc7_neg
I0507 17:39:12.361894  5077 net.cpp:150] Setting up fc7_neg
I0507 17:39:12.361960  5077 net.cpp:157] Top shape: 1 2048 (2048)
I0507 17:39:12.361968  5077 net.cpp:165] Memory required for data: 579110912
I0507 17:39:12.361985  5077 net.cpp:493] Sharing parameters 'fc7_w' owned by layer 'fc7', param index 0
I0507 17:39:12.361994  5077 net.cpp:493] Sharing parameters 'fc7_b' owned by layer 'fc7', param index 1
I0507 17:39:12.362004  5077 layer_factory.hpp:77] Creating layer relu7_neg
I0507 17:39:12.362025  5077 net.cpp:100] Creating Layer relu7_neg
I0507 17:39:12.362035  5077 net.cpp:434] relu7_neg <- fc7_neg
I0507 17:39:12.362053  5077 net.cpp:395] relu7_neg -> fc7_neg (in-place)
I0507 17:39:12.363437  5077 net.cpp:150] Setting up relu7_neg
I0507 17:39:12.363458  5077 net.cpp:157] Top shape: 1 2048 (2048)
I0507 17:39:12.363483  5077 net.cpp:165] Memory required for data: 579119104
I0507 17:39:12.363494  5077 layer_factory.hpp:77] Creating layer drop7_neg
I0507 17:39:12.363507  5077 net.cpp:100] Creating Layer drop7_neg
I0507 17:39:12.363512  5077 net.cpp:434] drop7_neg <- fc7_neg
I0507 17:39:12.363525  5077 net.cpp:395] drop7_neg -> fc7_neg (in-place)
I0507 17:39:12.363611  5077 net.cpp:150] Setting up drop7_neg
I0507 17:39:12.363627  5077 net.cpp:157] Top shape: 1 2048 (2048)
I0507 17:39:12.363636  5077 net.cpp:165] Memory required for data: 579127296
I0507 17:39:12.363647  5077 layer_factory.hpp:77] Creating layer loss
I0507 17:39:12.363672  5077 net.cpp:100] Creating Layer loss
I0507 17:39:12.363715  5077 net.cpp:434] loss <- fc7
I0507 17:39:12.363731  5077 net.cpp:434] loss <- fc7_pos
I0507 17:39:12.363744  5077 net.cpp:434] loss <- fc7_neg
I0507 17:39:12.363761  5077 net.cpp:408] loss -> loss
…
