…
    mean_value: 65
    mean_value: 74
    mean_value: 92
    mean_value: 65
    mean_value: 74
    mean_value: 92
    mean_value: 65
    mean_value: 74
    mean_value: 92
    mean_value: 65
    mean_value: 74
    mean_value: 92
    mean_value: 65
    mean_value: 74
    mean_value: 92
    mean_value: 65
    mean_value: 74
    mean_value: 92
    mean_value: 65
    mean_value: 74
    mean_value: 92
    mean_value: 65
    mean_value: 74
    mean_value: 92
  }
  data_param {
    source: "/data/leo-data/Synthetic/LMDB/Triplets/train"
    batch_size: 17
    backend: LMDB
  }
}
layer {
  name: "slicer"
  type: "Slice"
  bottom: "triplet"
  top: "anchor_stacked"
  top: "positive_stacked"
  top: "negative_stacked"
  slice_param {
    slice_dim: 1
    slice_point: 48
    slice_point: 96
  }
}
layer {
  name: "reshape_anchor"
  type: "Reshape"
  bottom: "anchor_stacked"
  top: "anchor"
  reshape_param {
    shape {
      dim: 0
      dim: 3
      dim: 16
      dim: 112
      dim: 112
    }
  }
}
layer {
  name: "reshape_positive"
  type: "Reshape"
  bottom: "positive_stacked"
  top: "positive"
  reshape_param {
    shape {
      dim: 0
      dim: 3
      dim: 16
      dim: 112
      dim: 112
    }
  }
}
layer {
  name: "reshape_negative"
  type: "Reshape"
  bottom: "negative_stacked"
  top: "negative"
  reshape_param {
    shape {
      dim: 0
      dim: 3
      dim: 16
      dim: 112
      dim: 112
    }
  }
}
layer {
  name: "conv1a"
  type: "NdConvolution"
  bottom: "anchor"
  top: "conv1a"
  param {
    name: "conv1a_w"
    lr_mult: 1
    decay_mult: 1
  }
  param {
    name: "conv1a_b"
    lr_mult: 2
    decay_mult: 0
  }
  convolution_param {
    num_output: 64
    weight_filler {
      type: "gaussian"
      std: 0.01
    }
    bias_filler {
      type: "constant"
      value: 0
    }
    pad_shape {
      dim: 1
      dim: 1
      dim: 1
    }
    kernel_shape {
      dim: 3
      dim: 3
      dim: 3
    }
    stride_shape {
      dim: 1
      dim: 1
      dim: 1
    }
  }
}
layer {
  name: "relu1a"
  type: "ReLU"
  bottom: "conv1a"
  top: "conv1a"
}
layer {
  name: "pool1"
  type: "NdPooling"
  bottom: "conv1a"
  top: "pool1"
  pooling_param {
    pool: MAX
    kernel_shape {
      dim: 1
      dim: 2
      dim: 2
    }
    stride_shape {
      dim: 1
      dim: 2
      dim: 2
    }
  }
}
layer {
  name: "conv2a"
  type: "NdConvolution"
  bottom: "pool1"
  top: "conv2a"
  param {
    name: "conv2a_w"
    lr_mult: 1
    decay_mult: 1
  }
  param {
    name: "conv2a_b"
    lr_mult: 2
    decay_mult: 0
  }
  convolution_param {
    num_output: 128
    weight_filler {
      type: "gaussian"
      std: 0.01
    }
    bias_filler {
      type: "constant"
      value: 1
    }
    pad_shape {
      dim: 1
      dim: 1
      dim: 1
    }
    kernel_shape {
      dim: 3
      dim: 3
      dim: 3
    }
    stride_shape {
      dim: 1
      dim: 1
      dim: 1
    }
  }
}
layer {
  name: "relu2a"
  type: "ReLU"
  bottom: "conv2a"
  top: "conv2a"
}
layer {
  name: "pool2"
  type: "NdPooling"
  bottom: "conv2a"
  top: "pool2"
  pooling_param {
    pool: MAX
    kernel_shape {
      dim: 2
      dim: 2
      dim: 2
    }
    stride_shape {
      dim: 2
      dim: 2
      dim: 2
    }
  }
}
layer {
  name: "conv3a"
  type: "NdConvolution"
  bottom: "pool2"
  top: "conv3a"
  param {
    name: "conv3a_w"
    lr_mult: 1
    decay_mult: 1
  }
  param {
    name: "conv3a_b"
    lr_mult: 2
    decay_mult: 0
  }
  convolution_param {
    num_output: 256
    weight_filler {
      type: "gaussian"
      std: 0.01
    }
    bias_filler {
      type: "constant"
      value: 1
    }
    pad_shape {
      dim: 1
      dim: 1
      dim: 1
    }
    kernel_shape {
      dim: 3
      dim: 3
      dim: 3
    }
    stride_shape {
      dim: 1
      dim: 1
      dim: 1
    }
  }
}
layer {
  name: "relu3a"
  type: "ReLU"
  bottom: "conv3a"
  top: "conv3a"
}
layer {
  name: "pool3"
  type: "NdPooling"
  bottom: "conv3a"
  top: "pool3"
  pooling_param {
    pool: MAX
    kernel_shape {
      dim: 2
      dim: 2
      dim: 2
    }
    stride_shape {
      dim: 2
      dim: 2
      dim: 2
    }
  }
}
layer {
  name: "conv4a"
  type: "NdConvolution"
  bottom: "pool3"
  top: "conv4a"
  param {
    name: "conv4a_w"
    lr_mult: 1
    decay_mult: 1
  }
  param {
    name: "conv4a_b"
    lr_mult: 2
    decay_mult: 0
  }
  convolution_param {
    num_output: 256
    weight_filler {
      type: "gaussian"
      std: 0.01
    }
    bias_filler {
      type: "constant"
      value: 1
    }
    pad_shape {
      dim: 1
      dim: 1
      dim: 1
    }
    kernel_shape {
      dim: 3
      dim: 3
      dim: 3
    }
    stride_shape {
      dim: 1
      dim: 1
      dim: 1
    }
  }
}
layer {
  name: "relu4a"
  type: "ReLU"
  bottom: "conv4a"
  top: "conv4a"
}
layer {
  name: "pool4"
  type: "NdPooling"
  bottom: "conv4a"
  top: "pool4"
  pooling_param {
    pool: MAX
    kernel_shape {
      dim: 2
      dim: 2
      dim: 2
    }
    stride_shape {
      dim: 2
      dim: 2
      dim: 2
    }
  }
}
layer {
  name: "conv5a"
  type: "NdConvolution"
  bottom: "pool4"
  top: "conv5a"
  param {
    name: "conv5a_w"
    lr_mult: 1
    decay_mult: 1
  }
  param {
    name: "conv5a_b"
    lr_mult: 2
    decay_mult: 0
  }
  convolution_param {
    num_output: 256
    weight_filler {
      type: "gaussian"
      std: 0.01
    }
    bias_filler {
      type: "constant"
      value: 1
    }
    pad_shape {
      dim: 1
      dim: 1
      dim: 1
    }
    kernel_shape {
      dim: 3
      dim: 3
      dim: 3
    }
    stride_shape {
      dim: 1
      dim: 1
      dim: 1
    }
  }
}
layer {
  name: "relu5a"
  type: "ReLU"
  bottom: "conv5a"
  top: "conv5a"
}
layer {
  name: "pool5"
  type: "NdPooling"
  bottom: "conv5a"
  top: "pool5"
  pooling_param {
    pool: MAX
    kernel_shape {
      dim: 2
      dim: 2
      dim: 2
    }
    stride_shape {
      dim: 2
      dim: 2
      dim: 2
    }
  }
}
layer {
  name: "fc6"
  type: "InnerProduct"
  bottom: "pool5"
  top: "fc6"
  param {
    name: "fc6_w"
    lr_mult: 1
    decay_mult: 1
  }
  param {
    name: "fc6_b"
    lr_mult: 2
    decay_mult: 0
  }
  inner_product_param {
    num_output: 2048
    weight_filler {
      type: "gaussian"
      std: 0.005
    }
    bias_filler {
      type: "constant"
      value: 1
    }
  }
}
layer {
  name: "relu6"
  type: "ReLU"
  bottom: "fc6"
  top: "fc6"
}
layer {
  name: "drop6"
  type: "Dropout"
  bottom: "fc6"
  top: "fc6"
  dropout_param {
    dropout_ratio: 0.5
  }
}
layer {
  name: "fc7"
  type: "InnerProduct"
  bottom: "fc6"
  top: "fc7"
  param {
    name: "fc7_w"
    lr_mult: 1
    decay_mult: 1
  }
  param {
    name: "fc7_b"
    lr_mult: 2
    decay_mult: 0
  }
  inner_product_param {
    num_output: 2048
    weight_filler {
      type: "gaussian"
      std: 0.005
    }
    bias_filler {
      type: "constant"
      value: 1
    }
  }
}
layer {
  name: "relu7"
  type: "ReLU"
  bottom: "fc7"
  top: "fc7"
}
layer {
  name: "drop7"
  type: "Dropout"
  bottom: "fc7"
  top: "fc7"
  dropout_param {
    dropout_ratio: 0.5
  }
}
layer {
  name: "mvn"
  type: "Python"
  bottom: "fc7"
  top: "fc7_norm"
  python_param {
    module: "mvn"
    layer: "MVNLayer"
  }
}
layer {
  name: "conv1a_pos"
  type: "NdConvolution"
  bottom: "positive"
  top: "conv1a_pos"
  param {
    name: "conv1a_w"
    lr_mult: 1
    decay_mult: 1
  }
  param {
    name: "conv1a_b"
    lr_mult: 2
    decay_mult: 0
  }
  convolution_param {
    num_output: 64
    weight_filler {
      type: "gaussian"
      std: 0.01
    }
    bias_filler {
      type: "constant"
      value: 0
    }
    pad_shape {
      dim: 1
      dim: 1
      dim: 1
    }
    kernel_shape {
      dim: 3
      dim: 3
      dim: 3
    }
    stride_shape {
      dim: 1
      dim: 1
      dim: 1
    }
  }
}
layer {
  name: "relu1a_pos"
  type: "ReLU"
  bottom: "conv1a_pos"
  top: "conv1a_pos"
}
layer {
  name: "pool1_pos"
  type: "NdPooling"
  bottom: "conv1a_pos"
  top: "pool1_pos"
  pooling_param {
    pool: MAX
    kernel_shape {
      dim: 1
      dim: 2
      dim: 2
    }
    stride_shape {
      dim: 1
      dim: 2
      dim: 2
    }
  }
}
layer {
  name: "conv2a_pos"
  type: "NdConvolution"
  bottom: "pool1_pos"
  top: "conv2a_pos"
  param {
    name: "conv2a_w"
    lr_mult: 1
    decay_mult: 1
  }
  param {
    name: "conv2a_b"
    lr_mult: 2
    decay_mult: 0
  }
  convolution_param {
    num_output: 128
    weight_filler {
      type: "gaussian"
      std: 0.01
    }
    bias_filler {
      type: "constant"
      value: 1
    }
    pad_shape {
      dim: 1
      dim: 1
      dim: 1
    }
    kernel_shape {
      dim: 3
      dim: 3
      dim: 3
    }
    stride_shape {
      dim: 1
      dim: 1
      dim: 1
    }
  }
}
layer {
  name: "relu2a_pos"
  type: "ReLU"
  bottom: "conv2a_pos"
  top: "conv2a_pos"
}
layer {
  name: "pool2_pos"
  type: "NdPooling"
  bottom: "conv2a_pos"
  top: "pool2_pos"
  pooling_param {
    pool: MAX
    kernel_shape {
      dim: 2
      dim: 2
      dim: 2
    }
    stride_shape {
      dim: 2
      dim: 2
      dim: 2
    }
  }
}
layer {
  name: "conv3a_pos"
  type: "NdConvolution"
  bottom: "pool2_pos"
  top: "conv3a_pos"
  param {
    name: "conv3a_w"
    lr_mult: 1
    decay_mult: 1
  }
  param {
    name: "conv3a_b"
    lr_mult: 2
    decay_mult: 0
  }
  convolution_param {
    num_output: 256
    weight_filler {
      type: "gaussian"
      std: 0.01
    }
    bias_filler {
      type: "constant"
      value: 1
    }
    pad_shape {
      dim: 1
      dim: 1
      dim: 1
    }
    kernel_shape {
      dim: 3
      dim: 3
      dim: 3
    }
    stride_shape {
      dim: 1
      dim: 1
      dim: 1
    }
  }
}
layer {
  name: "relu3a_pos"
  type: "ReLU"
  bottom: "conv3a_pos"
  top: "conv3a_pos"
}
layer {
  name: "pool3_pos"
  type: "NdPooling"
  bottom: "conv3a_pos"
  top: "pool3_pos"
  pooling_param {
    pool: MAX
    kernel_shape {
      dim: 2
      dim: 2
      dim: 2
    }
    stride_shape {
      dim: 2
      dim: 2
      dim: 2
    }
  }
}
layer {
  name: "conv4a_pos"
  type: "NdConvolution"
  bottom: "pool3_pos"
  top: "conv4a_pos"
  param {
    name: "conv4a_w"
    lr_mult: 1
    decay_mult: 1
  }
  param {
    name: "conv4a_b"
    lr_mult: 2
    decay_mult: 0
  }
  convolution_param {
    num_output: 256
    weight_filler {
      type: "gaussian"
      std: 0.01
    }
    bias_filler {
      type: "constant"
      value: 1
    }
    pad_shape {
      dim: 1
      dim: 1
      dim: 1
    }
    kernel_shape {
      dim: 3
      dim: 3
      dim: 3
    }
    stride_shape {
      dim: 1
      dim: 1
      dim: 1
    }
  }
}
layer {
  name: "relu4a_pos"
  type: "ReLU"
  bottom: "conv4a_pos"
  top: "conv4a_pos"
}
layer {
  name: "pool4_pos"
  type: "NdPooling"
  bottom: "conv4a_pos"
  top: "pool4_pos"
  pooling_param {
    pool: MAX
    kernel_shape {
      dim: 2
      dim: 2
      dim: 2
    }
    stride_shape {
      dim: 2
      dim: 2
      dim: 2
    }
  }
}
layer {
  name: "conv5a_pos"
  type: "NdConvolution"
  bottom: "pool4_pos"
  top: "conv5a_pos"
  param {
    name: "conv5a_w"
    lr_mult: 1
    decay_mult: 1
  }
  param {
    name: "conv5a_b"
    lr_mult: 2
    decay_mult: 0
  }
  convolution_param {
    num_output: 256
    weight_filler {
      type: "gaussian"
      std: 0.01
    }
    bias_filler {
      type: "constant"
      value: 1
    }
    pad_shape {
      dim: 1
      dim: 1
      dim: 1
    }
    kernel_shape {
      dim: 3
      dim: 3
      dim: 3
    }
    stride_shape {
      dim: 1
      dim: 1
      dim: 1
    }
  }
}
layer {
  name: "relu5a_pos"
  type: "ReLU"
  bottom: "conv5a_pos"
  top: "conv5a_pos"
}
layer {
  name: "pool5_pos"
  type: "NdPooling"
  bottom: "conv5a_pos"
  top: "pool5_pos"
  pooling_param {
    pool: MAX
    kernel_shape {
      dim: 2
      dim: 2
      dim: 2
    }
    stride_shape {
      dim: 2
      dim: 2
      dim: 2
    }
  }
}
layer {
  name: "fc6_pos"
  type: "InnerProduct"
  bottom: "pool5_pos"
  top: "fc6_pos"
  param {
    name: "fc6_w"
    lr_mult: 1
    decay_mult: 1
  }
  param {
    name: "fc6_b"
    lr_mult: 2
    decay_mult: 0
  }
  inner_product_param {
    num_output: 2048
    weight_filler {
      type: "gaussian"
      std: 0.005
    }
    bias_filler {
      type: "constant"
      value: 1
    }
  }
}
layer {
  name: "relu6_pos"
  type: "ReLU"
  bottom: "fc6_pos"
  top: "fc6_pos"
}
layer {
  name: "drop6_pos"
  type: "Dropout"
  bottom: "fc6_pos"
  top: "fc6_pos"
  dropout_param {
    dropout_ratio: 0.5
  }
}
layer {
  name: "fc7_pos"
  type: "InnerProduct"
  bottom: "fc6_pos"
  top: "fc7_pos"
  param {
    name: "fc7_w"
    lr_mult: 1
    decay_mult: 1
  }
  param {
    name: "fc7_b"
    lr_mult: 2
    decay_mult: 0
  }
  inner_product_param {
    num_output: 2048
    weight_filler {
      type: "gaussian"
      std: 0.005
    }
    bias_filler {
      type: "constant"
      value: 1
    }
  }
}
layer {
  name: "relu7_pos"
  type: "ReLU"
  bottom: "fc7_pos"
  top: "fc7_pos"
}
layer {
  name: "drop7_pos"
  type: "Dropout"
  bottom: "fc7_pos"
  top: "fc7_pos"
  dropout_param {
    dropout_ratio: 0.5
  }
}
layer {
  name: "mvn_pos"
  type: "Python"
  bottom: "fc7_pos"
  top: "fc7_pos_norm"
  python_param {
    module: "mvn"
    layer: "MVNLayer"
  }
}
layer {
  name: "conv1a_neg"
  type: "NdConvolution"
  bottom: "negative"
  top: "conv1a_neg"
  param {
    name: "conv1a_w"
    lr_mult: 1
    decay_mult: 1
  }
  param {
    name: "conv1a_b"
    lr_mult: 2
    decay_mult: 0
  }
  convolution_param {
    num_output: 64
    weight_filler {
      type: "gaussian"
      std: 0.01
    }
    bias_filler {
      type: "constant"
      value: 0
    }
    pad_shape {
      dim: 1
      dim: 1
      dim: 1
    }
    kernel_shape {
      dim: 3
      dim: 3
      dim: 3
    }
    stride_shape {
      dim: 1
      dim: 1
      dim: 1
    }
  }
}
layer {
  name: "relu1a_neg"
  type: "ReLU"
  bottom: "conv1a_neg"
  top: "conv1a_neg"
}
layer {
  name: "pool1_neg"
  type: "NdPooling"
  bottom: "conv1a_neg"
  top: "pool1_neg"
  pooling_param {
    pool: MAX
    kernel_shape {
      dim: 1
      dim: 2
      dim: 2
    }
    stride_shape {
      dim: 1
      dim: 2
      dim: 2
    }
  }
}
layer {
  name: "conv2a_neg"
  type: "NdConvolution"
  bottom: "pool1_neg"
  top: "conv2a_neg"
  param {
    name: "conv2a_w"
    lr_mult: 1
    decay_mult: 1
  }
  param {
    name: "conv2a_b"
    lr_mult: 2
    decay_mult: 0
  }
  convolution_param {
    num_output: 128
    weight_filler {
      type: "gaussian"
      std: 0.01
    }
    bias_filler {
      type: "constant"
      value: 1
    }
    pad_shape {
      dim: 1
      dim: 1
      dim: 1
    }
    kernel_shape {
      dim: 3
      dim: 3
      dim: 3
    }
    stride_shape {
      dim: 1
      dim: 1
      dim: 1
    }
  }
}
layer {
  name: "relu2a_neg"
  type: "ReLU"
  bottom: "conv2a_neg"
  top: "conv2a_neg"
}
layer {
  name: "pool2_neg"
  type: "NdPooling"
  bottom: "conv2a_neg"
  top: "pool2_neg"
  pooling_param {
    pool: MAX
    kernel_shape {
      dim: 2
      dim: 2
      dim: 2
    }
    stride_shape {
      dim: 2
      dim: 2
      dim: 2
    }
  }
}
layer {
  name: "conv3a_neg"
  type: "NdConvolution"
  bottom: "pool2_neg"
  top: "conv3a_neg"
  param {
    name: "conv3a_w"
    lr_mult: 1
    decay_mult: 1
  }
  param {
    name: "conv3a_b"
    lr_mult: 2
    decay_mult: 0
  }
  convolution_param {
    num_output: 256
    weight_filler {
      type: "gaussian"
      std: 0.01
    }
    bias_filler {
      type: "constant"
      value: 1
    }
    pad_shape {
      dim: 1
      dim: 1
      dim: 1
    }
    kernel_shape {
      dim: 3
      dim: 3
      dim: 3
    }
    stride_shape {
      dim: 1
      dim: 1
      dim: 1
    }
  }
}
layer {
  name: "relu3a_neg"
  type: "ReLU"
  bottom: "conv3a_neg"
  top: "conv3a_neg"
}
layer {
  name: "pool3_neg"
  type: "NdPooling"
  bottom: "conv3a_neg"
  top: "pool3_neg"
  pooling_param {
    pool: MAX
    kernel_shape {
      dim: 2
      dim: 2
      dim: 2
    }
    stride_shape {
      dim: 2
      dim: 2
      dim: 2
    }
  }
}
layer {
  name: "conv4a_neg"
  type: "NdConvolution"
  bottom: "pool3_neg"
  top: "conv4a_neg"
  param {
    name: "conv4a_w"
    lr_mult: 1
    decay_mult: 1
  }
  param {
    name: "conv4a_b"
    lr_mult: 2
    decay_mult: 0
  }
  convolution_param {
    num_output: 256
    weight_filler {
      type: "gaussian"
      std: 0.01
    }
    bias_filler {
      type: "constant"
      value: 1
    }
    pad_shape {
      dim: 1
      dim: 1
      dim: 1
    }
    kernel_shape {
      dim: 3
      dim: 3
      dim: 3
    }
    stride_shape {
      dim: 1
      dim: 1
      dim: 1
    }
  }
}
layer {
  name: "relu4a_neg"
  type: "ReLU"
  bottom: "conv4a_neg"
  top: "conv4a_neg"
}
layer {
  name: "pool4_neg"
  type: "NdPooling"
  bottom: "conv4a_neg"
  top: "pool4_neg"
  pooling_param {
    pool: MAX
    kernel_shape {
      dim: 2
      dim: 2
      dim: 2
    }
    stride_shape {
      dim: 2
      dim: 2
      dim: 2
    }
  }
}
layer {
  name: "conv5a_neg"
  type: "NdConvolution"
  bottom: "pool4_neg"
  top: "conv5a_neg"
  param {
    name: "conv5a_w"
    lr_mult: 1
    decay_mult: 1
  }
  param {
    name: "conv5a_b"
    lr_mult: 2
    decay_mult: 0
  }
  convolution_param {
    num_output: 256
    weight_filler {
      type: "gaussian"
      std: 0.01
    }
    bias_filler {
      type: "constant"
      value: 1
    }
    pad_shape {
      dim: 1
      dim: 1
      dim: 1
    }
    kernel_shape {
      dim: 3
      dim: 3
      dim: 3
    }
    stride_shape {
      dim: 1
      dim: 1
      dim: 1
    }
  }
}
layer {
  name: "relu5a_neg"
  type: "ReLU"
  bottom: "conv5a_neg"
  top: "conv5a_neg"
}
layer {
  name: "pool5_neg"
  type: "NdPooling"
  bottom: "conv5a_neg"
  top: "pool5_neg"
  pooling_param {
    pool: MAX
    kernel_shape {
      dim: 2
      dim: 2
      dim: 2
    }
    stride_shape {
      dim: 2
      dim: 2
      dim: 2
    }
  }
}
layer {
  name: "fc6_neg"
  type: "InnerProduct"
  bottom: "pool5_neg"
  top: "fc6_neg"
  param {
    name: "fc6_w"
    lr_mult: 1
    decay_mult: 1
  }
  param {
    name: "fc6_b"
    lr_mult: 2
    decay_mult: 0
  }
  inner_product_param {
    num_output: 2048
    weight_filler {
      type: "gaussian"
      std: 0.005
    }
    bias_filler {
      type: "constant"
      value: 1
    }
  }
}
layer {
  name: "relu6_neg"
  type: "ReLU"
  bottom: "fc6_neg"
  top: "fc6_neg"
}
layer {
  name: "drop6_neg"
  type: "Dropout"
  bottom: "fc6_neg"
  top: "fc6_neg"
  dropout_param {
    dropout_ratio: 0.5
  }
}
layer {
  name: "fc7_neg"
  type: "InnerProduct"
  bottom: "fc6_neg"
  top: "fc7_neg"
  param {
    name: "fc7_w"
    lr_mult: 1
    decay_mult: 1
  }
  param {
    name: "fc7_b"
    lr_mult: 2
    decay_mult: 0
  }
  inner_product_param {
    num_output: 2048
    weight_filler {
      type: "gaussian"
      std: 0.005
    }
    bias_filler {
      type: "constant"
      value: 1
    }
  }
}
layer {
  name: "relu7_neg"
  type: "ReLU"
  bottom: "fc7_neg"
  top: "fc7_neg"
}
layer {
  name: "drop7_neg"
  type: "Dropout"
  bottom: "fc7_neg"
  top: "fc7_neg"
  dropout_param {
    dropout_ratio: 0.5
  }
}
layer {
  name: "mvn_neg"
  type: "Python"
  bottom: "fc7_neg"
  top: "fc7_neg_norm"
  python_param {
    module: "mvn"
    layer: "MVNLayer"
  }
}
layer {
  name: "loss"
  type: "TripletLoss"
  bottom: "fc7_norm"
  bottom: "fc7_pos_norm"
  bottom: "fc7_neg_norm"
  top: "loss"
  threshold_param {
    threshold: 0.054999541
  }
}
layer {
  name: "triplet_check"
  type: "Python"
  bottom: "fc7_norm"
  bottom: "fc7_pos_norm"
  bottom: "fc7_neg_norm"
  python_param {
    module: "triplet_check"
    layer: "TripletCheckLayer"
    param_str: "{\"n_samples\":\"35000\", \"filename\":\"../../features/triplet_loss_triplet_distance_\"}"
  }
}
I0518 06:24:09.661643 31019 layer_factory.hpp:77] Creating layer data
I0518 06:24:09.663090 31019 net.cpp:100] Creating Layer data
I0518 06:24:09.663118 31019 net.cpp:408] data -> triplet
I0518 06:24:09.710999 31035 db_lmdb.cpp:35] Opened lmdb /data/leo-data/Synthetic/LMDB/Triplets/train
I0518 06:24:09.807945 31019 data_layer.cpp:41] output data size: 17,144,112,112
I0518 06:24:10.069294 31019 net.cpp:150] Setting up data
I0518 06:24:10.069339 31019 net.cpp:157] Top shape: 17 144 112 112 (30707712)
I0518 06:24:10.069344 31019 net.cpp:165] Memory required for data: 122830848
I0518 06:24:10.069357 31019 layer_factory.hpp:77] Creating layer slicer
I0518 06:24:10.069382 31019 net.cpp:100] Creating Layer slicer
I0518 06:24:10.069391 31019 net.cpp:434] slicer <- triplet
I0518 06:24:10.069402 31019 net.cpp:408] slicer -> anchor_stacked
I0518 06:24:10.069416 31019 net.cpp:408] slicer -> positive_stacked
I0518 06:24:10.069422 31019 net.cpp:408] slicer -> negative_stacked
I0518 06:24:10.069680 31019 net.cpp:150] Setting up slicer
I0518 06:24:10.069720 31019 net.cpp:157] Top shape: 17 48 112 112 (10235904)
I0518 06:24:10.069730 31019 net.cpp:157] Top shape: 17 48 112 112 (10235904)
I0518 06:24:10.069736 31019 net.cpp:157] Top shape: 17 48 112 112 (10235904)
I0518 06:24:10.069739 31019 net.cpp:165] Memory required for data: 245661696
I0518 06:24:10.069746 31019 layer_factory.hpp:77] Creating layer reshape_anchor
I0518 06:24:10.081204 31019 net.cpp:100] Creating Layer reshape_anchor
I0518 06:24:10.081233 31019 net.cpp:434] reshape_anchor <- anchor_stacked
I0518 06:24:10.081260 31019 net.cpp:408] reshape_anchor -> anchor
I0518 06:24:10.081348 31019 net.cpp:150] Setting up reshape_anchor
I0518 06:24:10.081367 31019 net.cpp:157] Top shape: 17 3 16 112 112 (10235904)
I0518 06:24:10.081374 31019 net.cpp:165] Memory required for data: 286605312
I0518 06:24:10.081382 31019 layer_factory.hpp:77] Creating layer reshape_positive
I0518 06:24:10.081393 31019 net.cpp:100] Creating Layer reshape_positive
I0518 06:24:10.081398 31019 net.cpp:434] reshape_positive <- positive_stacked
I0518 06:24:10.081408 31019 net.cpp:408] reshape_positive -> positive
I0518 06:24:10.081452 31019 net.cpp:150] Setting up reshape_positive
I0518 06:24:10.081467 31019 net.cpp:157] Top shape: 17 3 16 112 112 (10235904)
I0518 06:24:10.081473 31019 net.cpp:165] Memory required for data: 327548928
I0518 06:24:10.081480 31019 layer_factory.hpp:77] Creating layer reshape_negative
I0518 06:24:10.081493 31019 net.cpp:100] Creating Layer reshape_negative
I0518 06:24:10.081499 31019 net.cpp:434] reshape_negative <- negative_stacked
I0518 06:24:10.081508 31019 net.cpp:408] reshape_negative -> negative
I0518 06:24:10.081547 31019 net.cpp:150] Setting up reshape_negative
I0518 06:24:10.081559 31019 net.cpp:157] Top shape: 17 3 16 112 112 (10235904)
I0518 06:24:10.081564 31019 net.cpp:165] Memory required for data: 368492544
I0518 06:24:10.081570 31019 layer_factory.hpp:77] Creating layer conv1a
I0518 06:24:10.081606 31019 net.cpp:100] Creating Layer conv1a
I0518 06:24:10.081615 31019 net.cpp:434] conv1a <- anchor
I0518 06:24:10.081629 31019 net.cpp:408] conv1a -> conv1a
I0518 06:24:10.177778 31039 blocking_queue.cpp:50] Waiting for data
I0518 06:24:11.366127 31019 net.cpp:150] Setting up conv1a
I0518 06:24:11.366178 31019 net.cpp:157] Top shape: 17 64 16 112 112 (218365952)
I0518 06:24:11.366184 31019 net.cpp:165] Memory required for data: 1241956352
I0518 06:24:11.366215 31019 layer_factory.hpp:77] Creating layer relu1a
I0518 06:24:11.366235 31019 net.cpp:100] Creating Layer relu1a
I0518 06:24:11.366248 31019 net.cpp:434] relu1a <- conv1a
I0518 06:24:11.366259 31019 net.cpp:395] relu1a -> conv1a (in-place)
I0518 06:24:11.366601 31019 net.cpp:150] Setting up relu1a
I0518 06:24:11.366618 31019 net.cpp:157] Top shape: 17 64 16 112 112 (218365952)
I0518 06:24:11.366631 31019 net.cpp:165] Memory required for data: 2115420160
I0518 06:24:11.366636 31019 layer_factory.hpp:77] Creating layer pool1
I0518 06:24:11.366649 31019 net.cpp:100] Creating Layer pool1
I0518 06:24:11.366657 31019 net.cpp:434] pool1 <- conv1a
I0518 06:24:11.366672 31019 net.cpp:408] pool1 -> pool1
I0518 06:24:11.425072 31019 net.cpp:150] Setting up pool1
I0518 06:24:11.425118 31019 net.cpp:157] Top shape: 17 64 16 56 56 (54591488)
I0518 06:24:11.425125 31019 net.cpp:165] Memory required for data: 2333786112
I0518 06:24:11.425133 31019 layer_factory.hpp:77] Creating layer conv2a
I0518 06:24:11.425171 31019 net.cpp:100] Creating Layer conv2a
I0518 06:24:11.425181 31019 net.cpp:434] conv2a <- pool1
I0518 06:24:11.425202 31019 net.cpp:408] conv2a -> conv2a
I0518 06:24:11.442418 31019 net.cpp:150] Setting up conv2a
I0518 06:24:11.442447 31019 net.cpp:157] Top shape: 17 128 16 56 56 (109182976)
I0518 06:24:11.442452 31019 net.cpp:165] Memory required for data: 2770518016
I0518 06:24:11.442467 31019 layer_factory.hpp:77] Creating layer relu2a
I0518 06:24:11.442478 31019 net.cpp:100] Creating Layer relu2a
I0518 06:24:11.442482 31019 net.cpp:434] relu2a <- conv2a
I0518 06:24:11.442497 31019 net.cpp:395] relu2a -> conv2a (in-place)
I0518 06:24:11.442713 31019 net.cpp:150] Setting up relu2a
I0518 06:24:11.442724 31019 net.cpp:157] Top shape: 17 128 16 56 56 (109182976)
I0518 06:24:11.442728 31019 net.cpp:165] Memory required for data: 3207249920
I0518 06:24:11.442733 31019 layer_factory.hpp:77] Creating layer pool2
I0518 06:24:11.442742 31019 net.cpp:100] Creating Layer pool2
I0518 06:24:11.442770 31019 net.cpp:434] pool2 <- conv2a
I0518 06:24:11.442776 31019 net.cpp:408] pool2 -> pool2
I0518 06:24:11.443030 31019 net.cpp:150] Setting up pool2
I0518 06:24:11.443042 31019 net.cpp:157] Top shape: 17 128 8 28 28 (13647872)
I0518 06:24:11.443045 31019 net.cpp:165] Memory required for data: 3261841408
I0518 06:24:11.443048 31019 layer_factory.hpp:77] Creating layer conv3a
I0518 06:24:11.443061 31019 net.cpp:100] Creating Layer conv3a
I0518 06:24:11.443066 31019 net.cpp:434] conv3a <- pool2
I0518 06:24:11.443074 31019 net.cpp:408] conv3a -> conv3a
I0518 06:24:11.474474 31019 net.cpp:150] Setting up conv3a
I0518 06:24:11.474503 31019 net.cpp:157] Top shape: 17 256 8 28 28 (27295744)
I0518 06:24:11.474506 31019 net.cpp:165] Memory required for data: 3371024384
I0518 06:24:11.474522 31019 layer_factory.hpp:77] Creating layer relu3a
I0518 06:24:11.474534 31019 net.cpp:100] Creating Layer relu3a
I0518 06:24:11.474539 31019 net.cpp:434] relu3a <- conv3a
I0518 06:24:11.474547 31019 net.cpp:395] relu3a -> conv3a (in-place)
I0518 06:24:11.474737 31019 net.cpp:150] Setting up relu3a
I0518 06:24:11.474748 31019 net.cpp:157] Top shape: 17 256 8 28 28 (27295744)
I0518 06:24:11.474752 31019 net.cpp:165] Memory required for data: 3480207360
I0518 06:24:11.474757 31019 layer_factory.hpp:77] Creating layer pool3
I0518 06:24:11.474771 31019 net.cpp:100] Creating Layer pool3
I0518 06:24:11.474776 31019 net.cpp:434] pool3 <- conv3a
I0518 06:24:11.474783 31019 net.cpp:408] pool3 -> pool3
I0518 06:24:11.475029 31019 net.cpp:150] Setting up pool3
I0518 06:24:11.475041 31019 net.cpp:157] Top shape: 17 256 4 14 14 (3411968)
I0518 06:24:11.475045 31019 net.cpp:165] Memory required for data: 3493855232
I0518 06:24:11.475049 31019 layer_factory.hpp:77] Creating layer conv4a
I0518 06:24:11.475059 31019 net.cpp:100] Creating Layer conv4a
I0518 06:24:11.475064 31019 net.cpp:434] conv4a <- pool3
I0518 06:24:11.475072 31019 net.cpp:408] conv4a -> conv4a
I0518 06:24:11.634290 31019 net.cpp:150] Setting up conv4a
I0518 06:24:11.634335 31019 net.cpp:157] Top shape: 17 256 4 14 14 (3411968)
I0518 06:24:11.634343 31019 net.cpp:165] Memory required for data: 3507503104
I0518 06:24:11.634361 31019 layer_factory.hpp:77] Creating layer relu4a
I0518 06:24:11.634378 31019 net.cpp:100] Creating Layer relu4a
I0518 06:24:11.634387 31019 net.cpp:434] relu4a <- conv4a
I0518 06:24:11.634397 31019 net.cpp:395] relu4a -> conv4a (in-place)
I0518 06:24:11.636297 31019 net.cpp:150] Setting up relu4a
I0518 06:24:11.636323 31019 net.cpp:157] Top shape: 17 256 4 14 14 (3411968)
I0518 06:24:11.636332 31019 net.cpp:165] Memory required for data: 3521150976
I0518 06:24:11.636337 31019 layer_factory.hpp:77] Creating layer pool4
I0518 06:24:11.636363 31019 net.cpp:100] Creating Layer pool4
I0518 06:24:11.636369 31019 net.cpp:434] pool4 <- conv4a
I0518 06:24:11.636381 31019 net.cpp:408] pool4 -> pool4
I0518 06:24:11.636818 31019 net.cpp:150] Setting up pool4
I0518 06:24:11.636838 31019 net.cpp:157] Top shape: 17 256 2 7 7 (426496)
I0518 06:24:11.636845 31019 net.cpp:165] Memory required for data: 3522856960
I0518 06:24:11.636852 31019 layer_factory.hpp:77] Creating layer conv5a
I0518 06:24:11.636875 31019 net.cpp:100] Creating Layer conv5a
I0518 06:24:11.636883 31019 net.cpp:434] conv5a <- pool4
I0518 06:24:11.636900 31019 net.cpp:408] conv5a -> conv5a
I0518 06:24:11.722314 31019 net.cpp:150] Setting up conv5a
I0518 06:24:11.722359 31019 net.cpp:157] Top shape: 17 256 2 7 7 (426496)
I0518 06:24:11.722364 31019 net.cpp:165] Memory required for data: 3524562944
I0518 06:24:11.722383 31019 layer_factory.hpp:77] Creating layer relu5a
I0518 06:24:11.722395 31019 net.cpp:100] Creating Layer relu5a
I0518 06:24:11.722407 31019 net.cpp:434] relu5a <- conv5a
I0518 06:24:11.722414 31019 net.cpp:395] relu5a -> conv5a (in-place)
I0518 06:24:11.722650 31019 net.cpp:150] Setting up relu5a
I0518 06:24:11.722662 31019 net.cpp:157] Top shape: 17 256 2 7 7 (426496)
I0518 06:24:11.722667 31019 net.cpp:165] Memory required for data: 3526268928
I0518 06:24:11.722671 31019 layer_factory.hpp:77] Creating layer pool5
I0518 06:24:11.722709 31019 net.cpp:100] Creating Layer pool5
I0518 06:24:11.722714 31019 net.cpp:434] pool5 <- conv5a
I0518 06:24:11.722721 31019 net.cpp:408] pool5 -> pool5
I0518 06:24:11.723011 31019 net.cpp:150] Setting up pool5
I0518 06:24:11.723026 31019 net.cpp:157] Top shape: 17 256 1 4 4 (69632)
I0518 06:24:11.723029 31019 net.cpp:165] Memory required for data: 3526547456
I0518 06:24:11.723033 31019 layer_factory.hpp:77] Creating layer fc6
I0518 06:24:11.734295 31019 net.cpp:100] Creating Layer fc6
I0518 06:24:11.734339 31019 net.cpp:434] fc6 <- pool5
I0518 06:24:11.734361 31019 net.cpp:408] fc6 -> fc6
I0518 06:24:12.132401 31019 net.cpp:150] Setting up fc6
I0518 06:24:12.132453 31019 net.cpp:157] Top shape: 17 2048 (34816)
I0518 06:24:12.132458 31019 net.cpp:165] Memory required for data: 3526686720
I0518 06:24:12.132485 31019 layer_factory.hpp:77] Creating layer relu6
I0518 06:24:12.132501 31019 net.cpp:100] Creating Layer relu6
I0518 06:24:12.132508 31019 net.cpp:434] relu6 <- fc6
I0518 06:24:12.132519 31019 net.cpp:395] relu6 -> fc6 (in-place)
I0518 06:24:12.133932 31019 net.cpp:150] Setting up relu6
I0518 06:24:12.133965 31019 net.cpp:157] Top shape: 17 2048 (34816)
I0518 06:24:12.133970 31019 net.cpp:165] Memory required for data: 3526825984
I0518 06:24:12.133977 31019 layer_factory.hpp:77] Creating layer drop6
I0518 06:24:12.134001 31019 net.cpp:100] Creating Layer drop6
I0518 06:24:12.134013 31019 net.cpp:434] drop6 <- fc6
I0518 06:24:12.134022 31019 net.cpp:395] drop6 -> fc6 (in-place)
I0518 06:24:12.134075 31019 net.cpp:150] Setting up drop6
I0518 06:24:12.134083 31019 net.cpp:157] Top shape: 17 2048 (34816)
I0518 06:24:12.134086 31019 net.cpp:165] Memory required for data: 3526965248
I0518 06:24:12.134090 31019 layer_factory.hpp:77] Creating layer fc7
I0518 06:24:12.134104 31019 net.cpp:100] Creating Layer fc7
I0518 06:24:12.134106 31019 net.cpp:434] fc7 <- fc6
I0518 06:24:12.134114 31019 net.cpp:408] fc7 -> fc7
I0518 06:24:12.362269 31019 net.cpp:150] Setting up fc7
I0518 06:24:12.362321 31019 net.cpp:157] Top shape: 17 2048 (34816)
I0518 06:24:12.362327 31019 net.cpp:165] Memory required for data: 3527104512
I0518 06:24:12.362344 31019 layer_factory.hpp:77] Creating layer relu7
I0518 06:24:12.362356 31019 net.cpp:100] Creating Layer relu7
I0518 06:24:12.362363 31019 net.cpp:434] relu7 <- fc7
I0518 06:24:12.362376 31019 net.cpp:395] relu7 -> fc7 (in-place)
I0518 06:24:12.362746 31019 net.cpp:150] Setting up relu7
I0518 06:24:12.362763 31019 net.cpp:157] Top shape: 17 2048 (34816)
I0518 06:24:12.362768 31019 net.cpp:165] Memory required for data: 3527243776
I0518 06:24:12.362773 31019 layer_factory.hpp:77] Creating layer drop7
I0518 06:24:12.362785 31019 net.cpp:100] Creating Layer drop7
I0518 06:24:12.362790 31019 net.cpp:434] drop7 <- fc7
I0518 06:24:12.362798 31019 net.cpp:395] drop7 -> fc7 (in-place)
I0518 06:24:12.362848 31019 net.cpp:150] Setting up drop7
I0518 06:24:12.362864 31019 net.cpp:157] Top shape: 17 2048 (34816)
I0518 06:24:12.362875 31019 net.cpp:165] Memory required for data: 3527383040
I0518 06:24:12.362882 31019 layer_factory.hpp:77] Creating layer mvn
I0518 06:24:13.595262 31019 net.cpp:100] Creating Layer mvn
I0518 06:24:13.595289 31019 net.cpp:434] mvn <- fc7
I0518 06:24:13.595299 31019 net.cpp:408] mvn -> fc7_norm
I0518 06:24:13.896858 31019 net.cpp:150] Setting up mvn
I0518 06:24:13.896906 31019 net.cpp:157] Top shape: 17 2048 (34816)
I0518 06:24:13.896914 31019 net.cpp:165] Memory required for data: 3527522304
I0518 06:24:13.896924 31019 layer_factory.hpp:77] Creating layer fc7_norm_mvn_0_split
I0518 06:24:13.896967 31019 net.cpp:100] Creating Layer fc7_norm_mvn_0_split
I0518 06:24:13.896977 31019 net.cpp:434] fc7_norm_mvn_0_split <- fc7_norm
I0518 06:24:13.896997 31019 net.cpp:408] fc7_norm_mvn_0_split -> fc7_norm_mvn_0_split_0
I0518 06:24:13.897012 31019 net.cpp:408] fc7_norm_mvn_0_split -> fc7_norm_mvn_0_split_1
I0518 06:24:13.897085 31019 net.cpp:150] Setting up fc7_norm_mvn_0_split
I0518 06:24:13.897097 31019 net.cpp:157] Top shape: 17 2048 (34816)
I0518 06:24:13.897140 31019 net.cpp:157] Top shape: 17 2048 (34816)
I0518 06:24:13.897146 31019 net.cpp:165] Memory required for data: 3527800832
I0518 06:24:13.897153 31019 layer_factory.hpp:77] Creating layer conv1a_pos
I0518 06:24:13.897171 31019 net.cpp:100] Creating Layer conv1a_pos
I0518 06:24:13.897178 31019 net.cpp:434] conv1a_pos <- positive
I0518 06:24:13.897189 31019 net.cpp:408] conv1a_pos -> conv1a_pos
I0518 06:24:13.910667 31019 net.cpp:150] Setting up conv1a_pos
I0518 06:24:13.910758 31019 net.cpp:157] Top shape: 17 64 16 112 112 (218365952)
I0518 06:24:13.910763 31019 net.cpp:165] Memory required for data: 4401264640
I0518 06:24:13.910799 31019 net.cpp:493] Sharing parameters 'conv1a_w' owned by layer 'conv1a', param index 0
I0518 06:24:13.910816 31019 net.cpp:493] Sharing parameters 'conv1a_b' owned by layer 'conv1a', param index 1
I0518 06:24:13.910823 31019 layer_factory.hpp:77] Creating layer relu1a_pos
I0518 06:24:13.910852 31019 net.cpp:100] Creating Layer relu1a_pos
I0518 06:24:13.910861 31019 net.cpp:434] relu1a_pos <- conv1a_pos
I0518 06:24:13.910881 31019 net.cpp:395] relu1a_pos -> conv1a_pos (in-place)
I0518 06:24:13.911391 31019 net.cpp:150] Setting up relu1a_pos
I0518 06:24:13.911420 31019 net.cpp:157] Top shape: 17 64 16 112 112 (218365952)
I0518 06:24:13.911437 31019 net.cpp:165] Memory required for data: 5274728448
I0518 06:24:13.911449 31019 layer_factory.hpp:77] Creating layer pool1_pos
I0518 06:24:13.911471 31019 net.cpp:100] Creating Layer pool1_pos
I0518 06:24:13.911478 31019 net.cpp:434] pool1_pos <- conv1a_pos
I0518 06:24:13.911495 31019 net.cpp:408] pool1_pos -> pool1_pos
I0518 06:24:13.915127 31019 net.cpp:150] Setting up pool1_pos
I0518 06:24:13.915220 31019 net.cpp:157] Top shape: 17 64 16 56 56 (54591488)
I0518 06:24:13.915225 31019 net.cpp:165] Memory required for data: 5493094400
I0518 06:24:13.915241 31019 layer_factory.hpp:77] Creating layer conv2a_pos
I0518 06:24:13.915282 31019 net.cpp:100] Creating Layer conv2a_pos
I0518 06:24:13.915297 31019 net.cpp:434] conv2a_pos <- pool1_pos
I0518 06:24:13.915330 31019 net.cpp:408] conv2a_pos -> conv2a_pos
I0518 06:24:13.923763 31019 net.cpp:150] Setting up conv2a_pos
I0518 06:24:13.923815 31019 net.cpp:157] Top shape: 17 128 16 56 56 (109182976)
I0518 06:24:13.923820 31019 net.cpp:165] Memory required for data: 5929826304
I0518 06:24:13.923833 31019 net.cpp:493] Sharing parameters 'conv2a_w' owned by layer 'conv2a', param index 0
I0518 06:24:13.923841 31019 net.cpp:493] Sharing parameters 'conv2a_b' owned by layer 'conv2a', param index 1
I0518 06:24:13.923847 31019 layer_factory.hpp:77] Creating layer relu2a_pos
I0518 06:24:13.923883 31019 net.cpp:100] Creating Layer relu2a_pos
I0518 06:24:13.923892 31019 net.cpp:434] relu2a_pos <- conv2a_pos
I0518 06:24:13.923904 31019 net.cpp:395] relu2a_pos -> conv2a_pos (in-place)
I0518 06:24:13.925914 31019 net.cpp:150] Setting up relu2a_pos
I0518 06:24:13.925956 31019 net.cpp:157] Top shape: 17 128 16 56 56 (109182976)
I0518 06:24:13.925961 31019 net.cpp:165] Memory required for data: 6366558208
I0518 06:24:13.925971 31019 layer_factory.hpp:77] Creating layer pool2_pos
I0518 06:24:13.925987 31019 net.cpp:100] Creating Layer pool2_pos
I0518 06:24:13.925992 31019 net.cpp:434] pool2_pos <- conv2a_pos
I0518 06:24:13.926010 31019 net.cpp:408] pool2_pos -> pool2_pos
I0518 06:24:13.926285 31019 net.cpp:150] Setting up pool2_pos
I0518 06:24:13.926297 31019 net.cpp:157] Top shape: 17 128 8 28 28 (13647872)
I0518 06:24:13.926301 31019 net.cpp:165] Memory required for data: 6421149696
I0518 06:24:13.926304 31019 layer_factory.hpp:77] Creating layer conv3a_pos
I0518 06:24:13.926318 31019 net.cpp:100] Creating Layer conv3a_pos
I0518 06:24:13.926323 31019 net.cpp:434] conv3a_pos <- pool2_pos
I0518 06:24:13.926331 31019 net.cpp:408] conv3a_pos -> conv3a_pos
I0518 06:24:13.959451 31019 net.cpp:150] Setting up conv3a_pos
I0518 06:24:13.959493 31019 net.cpp:157] Top shape: 17 256 8 28 28 (27295744)
I0518 06:24:13.959498 31019 net.cpp:165] Memory required for data: 6530332672
I0518 06:24:13.959506 31019 net.cpp:493] Sharing parameters 'conv3a_w' owned by layer 'conv3a', param index 0
I0518 06:24:13.959547 31019 net.cpp:493] Sharing parameters 'conv3a_b' owned by layer 'conv3a', param index 1
I0518 06:24:13.959553 31019 layer_factory.hpp:77] Creating layer relu3a_pos
I0518 06:24:13.959565 31019 net.cpp:100] Creating Layer relu3a_pos
I0518 06:24:13.959573 31019 net.cpp:434] relu3a_pos <- conv3a_pos
I0518 06:24:13.959579 31019 net.cpp:395] relu3a_pos -> conv3a_pos (in-place)
I0518 06:24:13.959802 31019 net.cpp:150] Setting up relu3a_pos
I0518 06:24:13.959813 31019 net.cpp:157] Top shape: 17 256 8 28 28 (27295744)
I0518 06:24:13.959816 31019 net.cpp:165] Memory required for data: 6639515648
I0518 06:24:13.959822 31019 layer_factory.hpp:77] Creating layer pool3_pos
I0518 06:24:13.959830 31019 net.cpp:100] Creating Layer pool3_pos
I0518 06:24:13.959837 31019 net.cpp:434] pool3_pos <- conv3a_pos
I0518 06:24:13.959842 31019 net.cpp:408] pool3_pos -> pool3_pos
I0518 06:24:13.960131 31019 net.cpp:150] Setting up pool3_pos
I0518 06:24:13.960142 31019 net.cpp:157] Top shape: 17 256 4 14 14 (3411968)
I0518 06:24:13.960145 31019 net.cpp:165] Memory required for data: 6653163520
I0518 06:24:13.960150 31019 layer_factory.hpp:77] Creating layer conv4a_pos
I0518 06:24:13.960162 31019 net.cpp:100] Creating Layer conv4a_pos
I0518 06:24:13.960167 31019 net.cpp:434] conv4a_pos <- pool3_pos
I0518 06:24:13.960175 31019 net.cpp:408] conv4a_pos -> conv4a_pos
I0518 06:24:14.027550 31019 net.cpp:150] Setting up conv4a_pos
I0518 06:24:14.027593 31019 net.cpp:157] Top shape: 17 256 4 14 14 (3411968)
I0518 06:24:14.027598 31019 net.cpp:165] Memory required for data: 6666811392
I0518 06:24:14.027607 31019 net.cpp:493] Sharing parameters 'conv4a_w' owned by layer 'conv4a', param index 0
I0518 06:24:14.027614 31019 net.cpp:493] Sharing parameters 'conv4a_b' owned by layer 'conv4a', param index 1
I0518 06:24:14.027631 31019 layer_factory.hpp:77] Creating layer relu4a_pos
I0518 06:24:14.027644 31019 net.cpp:100] Creating Layer relu4a_pos
I0518 06:24:14.027650 31019 net.cpp:434] relu4a_pos <- conv4a_pos
I0518 06:24:14.027657 31019 net.cpp:395] relu4a_pos -> conv4a_pos (in-place)
I0518 06:24:14.028604 31019 net.cpp:150] Setting up relu4a_pos
I0518 06:24:14.028617 31019 net.cpp:157] Top shape: 17 256 4 14 14 (3411968)
I0518 06:24:14.028632 31019 net.cpp:165] Memory required for data: 6680459264
I0518 06:24:14.028648 31019 layer_factory.hpp:77] Creating layer pool4_pos
I0518 06:24:14.028676 31019 net.cpp:100] Creating Layer pool4_pos
I0518 06:24:14.028681 31019 net.cpp:434] pool4_pos <- conv4a_pos
I0518 06:24:14.028689 31019 net.cpp:408] pool4_pos -> pool4_pos
I0518 06:24:14.028928 31019 net.cpp:150] Setting up pool4_pos
I0518 06:24:14.028939 31019 net.cpp:157] Top shape: 17 256 2 7 7 (426496)
I0518 06:24:14.028941 31019 net.cpp:165] Memory required for data: 6682165248
I0518 06:24:14.028944 31019 layer_factory.hpp:77] Creating layer conv5a_pos
I0518 06:24:14.028959 31019 net.cpp:100] Creating Layer conv5a_pos
I0518 06:24:14.028964 31019 net.cpp:434] conv5a_pos <- pool4_pos
I0518 06:24:14.028971 31019 net.cpp:408] conv5a_pos -> conv5a_pos
I0518 06:24:14.084305 31019 net.cpp:150] Setting up conv5a_pos
I0518 06:24:14.084352 31019 net.cpp:157] Top shape: 17 256 2 7 7 (426496)
I0518 06:24:14.084357 31019 net.cpp:165] Memory required for data: 6683871232
I0518 06:24:14.084365 31019 net.cpp:493] Sharing parameters 'conv5a_w' owned by layer 'conv5a', param index 0
I0518 06:24:14.084370 31019 net.cpp:493] Sharing parameters 'conv5a_b' owned by layer 'conv5a', param index 1
I0518 06:24:14.084374 31019 layer_factory.hpp:77] Creating layer relu5a_pos
I0518 06:24:14.084396 31019 net.cpp:100] Creating Layer relu5a_pos
I0518 06:24:14.084401 31019 net.cpp:434] relu5a_pos <- conv5a_pos
I0518 06:24:14.084409 31019 net.cpp:395] relu5a_pos -> conv5a_pos (in-place)
I0518 06:24:14.084604 31019 net.cpp:150] Setting up relu5a_pos
I0518 06:24:14.084615 31019 net.cpp:157] Top shape: 17 256 2 7 7 (426496)
I0518 06:24:14.084619 31019 net.cpp:165] Memory required for data: 6685577216
I0518 06:24:14.084642 31019 layer_factory.hpp:77] Creating layer pool5_pos
I0518 06:24:14.084669 31019 net.cpp:100] Creating Layer pool5_pos
I0518 06:24:14.084674 31019 net.cpp:434] pool5_pos <- conv5a_pos
I0518 06:24:14.084681 31019 net.cpp:408] pool5_pos -> pool5_pos
I0518 06:24:14.084942 31019 net.cpp:150] Setting up pool5_pos
I0518 06:24:14.084952 31019 net.cpp:157] Top shape: 17 256 1 4 4 (69632)
I0518 06:24:14.084955 31019 net.cpp:165] Memory required for data: 6685855744
I0518 06:24:14.084959 31019 layer_factory.hpp:77] Creating layer fc6_pos
I0518 06:24:14.084969 31019 net.cpp:100] Creating Layer fc6_pos
I0518 06:24:14.084974 31019 net.cpp:434] fc6_pos <- pool5_pos
I0518 06:24:14.084981 31019 net.cpp:408] fc6_pos -> fc6_pos
I0518 06:24:14.363682 31019 net.cpp:150] Setting up fc6_pos
I0518 06:24:14.363719 31019 net.cpp:157] Top shape: 17 2048 (34816)
I0518 06:24:14.363724 31019 net.cpp:165] Memory required for data: 6685995008
I0518 06:24:14.363746 31019 net.cpp:493] Sharing parameters 'fc6_w' owned by layer 'fc6', param index 0
I0518 06:24:14.363754 31019 net.cpp:493] Sharing parameters 'fc6_b' owned by layer 'fc6', param index 1
I0518 06:24:14.363760 31019 layer_factory.hpp:77] Creating layer relu6_pos
I0518 06:24:14.363772 31019 net.cpp:100] Creating Layer relu6_pos
I0518 06:24:14.363796 31019 net.cpp:434] relu6_pos <- fc6_pos
I0518 06:24:14.363809 31019 net.cpp:395] relu6_pos -> fc6_pos (in-place)
I0518 06:24:14.367017 31019 net.cpp:150] Setting up relu6_pos
I0518 06:24:14.367063 31019 net.cpp:157] Top shape: 17 2048 (34816)
I0518 06:24:14.367072 31019 net.cpp:165] Memory required for data: 6686134272
I0518 06:24:14.367081 31019 layer_factory.hpp:77] Creating layer drop6_pos
I0518 06:24:14.367102 31019 net.cpp:100] Creating Layer drop6_pos
I0518 06:24:14.367115 31019 net.cpp:434] drop6_pos <- fc6_pos
I0518 06:24:14.367130 31019 net.cpp:395] drop6_pos -> fc6_pos (in-place)
I0518 06:24:14.367218 31019 net.cpp:150] Setting up drop6_pos
I0518 06:24:14.367231 31019 net.cpp:157] Top shape: 17 2048 (34816)
I0518 06:24:14.367238 31019 net.cpp:165] Memory required for data: 6686273536
I0518 06:24:14.367245 31019 layer_factory.hpp:77] Creating layer fc7_pos
I0518 06:24:14.367260 31019 net.cpp:100] Creating Layer fc7_pos
I0518 06:24:14.367269 31019 net.cpp:434] fc7_pos <- fc6_pos
I0518 06:24:14.367292 31019 net.cpp:408] fc7_pos -> fc7_pos
I0518 06:24:14.544884 31019 net.cpp:150] Setting up fc7_pos
I0518 06:24:14.544934 31019 net.cpp:157] Top shape: 17 2048 (34816)
I0518 06:24:14.544939 31019 net.cpp:165] Memory required for data: 6686412800
I0518 06:24:14.544958 31019 net.cpp:493] Sharing parameters 'fc7_w' owned by layer 'fc7', param index 0
I0518 06:24:14.544965 31019 net.cpp:493] Sharing parameters 'fc7_b' owned by layer 'fc7', param index 1
I0518 06:24:14.544968 31019 layer_factory.hpp:77] Creating layer relu7_pos
I0518 06:24:14.544980 31019 net.cpp:100] Creating Layer relu7_pos
I0518 06:24:14.544986 31019 net.cpp:434] relu7_pos <- fc7_pos
I0518 06:24:14.544991 31019 net.cpp:395] relu7_pos -> fc7_pos (in-place)
I0518 06:24:14.545295 31019 net.cpp:150] Setting up relu7_pos
I0518 06:24:14.545303 31019 net.cpp:157] Top shape: 17 2048 (34816)
I0518 06:24:14.545320 31019 net.cpp:165] Memory required for data: 6686552064
I0518 06:24:14.545322 31019 layer_factory.hpp:77] Creating layer drop7_pos
I0518 06:24:14.545332 31019 net.cpp:100] Creating Layer drop7_pos
I0518 06:24:14.545336 31019 net.cpp:434] drop7_pos <- fc7_pos
I0518 06:24:14.545339 31019 net.cpp:395] drop7_pos -> fc7_pos (in-place)
I0518 06:24:14.545374 31019 net.cpp:150] Setting up drop7_pos
I0518 06:24:14.545380 31019 net.cpp:157] Top shape: 17 2048 (34816)
I0518 06:24:14.545383 31019 net.cpp:165] Memory required for data: 6686691328
I0518 06:24:14.545387 31019 layer_factory.hpp:77] Creating layer mvn_pos
I0518 06:24:14.545456 31019 net.cpp:100] Creating Layer mvn_pos
I0518 06:24:14.545464 31019 net.cpp:434] mvn_pos <- fc7_pos
I0518 06:24:14.545469 31019 net.cpp:408] mvn_pos -> fc7_pos_norm
I0518 06:24:14.545706 31019 net.cpp:150] Setting up mvn_pos
I0518 06:24:14.545717 31019 net.cpp:157] Top shape: 17 2048 (34816)
I0518 06:24:14.545739 31019 net.cpp:165] Memory required for data: 6686830592
I0518 06:24:14.545744 31019 layer_factory.hpp:77] Creating layer fc7_pos_norm_mvn_pos_0_split
I0518 06:24:14.545753 31019 net.cpp:100] Creating Layer fc7_pos_norm_mvn_pos_0_split
I0518 06:24:14.545756 31019 net.cpp:434] fc7_pos_norm_mvn_pos_0_split <- fc7_pos_norm
I0518 06:24:14.545761 31019 net.cpp:408] fc7_pos_norm_mvn_pos_0_split -> fc7_pos_norm_mvn_pos_0_split_0
I0518 06:24:14.545768 31019 net.cpp:408] fc7_pos_norm_mvn_pos_0_split -> fc7_pos_norm_mvn_pos_0_split_1
I0518 06:24:14.545816 31019 net.cpp:150] Setting up fc7_pos_norm_mvn_pos_0_split
I0518 06:24:14.545825 31019 net.cpp:157] Top shape: 17 2048 (34816)
I0518 06:24:14.545831 31019 net.cpp:157] Top shape: 17 2048 (34816)
I0518 06:24:14.545836 31019 net.cpp:165] Memory required for data: 6687109120
I0518 06:24:14.545841 31019 layer_factory.hpp:77] Creating layer conv1a_neg
I0518 06:24:14.545856 31019 net.cpp:100] Creating Layer conv1a_neg
I0518 06:24:14.545862 31019 net.cpp:434] conv1a_neg <- negative
I0518 06:24:14.545898 31019 net.cpp:408] conv1a_neg -> conv1a_neg
I0518 06:24:14.549197 31019 net.cpp:150] Setting up conv1a_neg
I0518 06:24:14.549237 31019 net.cpp:157] Top shape: 17 64 16 112 112 (218365952)
I0518 06:24:14.549242 31019 net.cpp:165] Memory required for data: 7560572928
I0518 06:24:14.549263 31019 net.cpp:493] Sharing parameters 'conv1a_w' owned by layer 'conv1a', param index 0
I0518 06:24:14.549273 31019 net.cpp:493] Sharing parameters 'conv1a_b' owned by layer 'conv1a', param index 1
I0518 06:24:14.549278 31019 layer_factory.hpp:77] Creating layer relu1a_neg
I0518 06:24:14.549298 31019 net.cpp:100] Creating Layer relu1a_neg
I0518 06:24:14.549306 31019 net.cpp:434] relu1a_neg <- conv1a_neg
I0518 06:24:14.549316 31019 net.cpp:395] relu1a_neg -> conv1a_neg (in-place)
I0518 06:24:14.549595 31019 net.cpp:150] Setting up relu1a_neg
I0518 06:24:14.549607 31019 net.cpp:157] Top shape: 17 64 16 112 112 (218365952)
I0518 06:24:14.549613 31019 net.cpp:165] Memory required for data: 8434036736
I0518 06:24:14.549619 31019 layer_factory.hpp:77] Creating layer pool1_neg
I0518 06:24:14.549633 31019 net.cpp:100] Creating Layer pool1_neg
I0518 06:24:14.549639 31019 net.cpp:434] pool1_neg <- conv1a_neg
I0518 06:24:14.549649 31019 net.cpp:408] pool1_neg -> pool1_neg
I0518 06:24:14.549903 31019 net.cpp:150] Setting up pool1_neg
I0518 06:24:14.549916 31019 net.cpp:157] Top shape: 17 64 16 56 56 (54591488)
I0518 06:24:14.549921 31019 net.cpp:165] Memory required for data: 8652402688
I0518 06:24:14.549926 31019 layer_factory.hpp:77] Creating layer conv2a_neg
I0518 06:24:14.549942 31019 net.cpp:100] Creating Layer conv2a_neg
I0518 06:24:14.549948 31019 net.cpp:434] conv2a_neg <- pool1_neg
I0518 06:24:14.549967 31019 net.cpp:408] conv2a_neg -> conv2a_neg
I0518 06:24:14.559018 31019 net.cpp:150] Setting up conv2a_neg
I0518 06:24:14.559057 31019 net.cpp:157] Top shape: 17 128 16 56 56 (109182976)
I0518 06:24:14.559063 31019 net.cpp:165] Memory required for data: 9089134592
I0518 06:24:14.559074 31019 net.cpp:493] Sharing parameters 'conv2a_w' owned by layer 'conv2a', param index 0
I0518 06:24:14.559082 31019 net.cpp:493] Sharing parameters 'conv2a_b' owned by layer 'conv2a', param index 1
I0518 06:24:14.559088 31019 layer_factory.hpp:77] Creating layer relu2a_neg
I0518 06:24:14.559110 31019 net.cpp:100] Creating Layer relu2a_neg
I0518 06:24:14.559121 31019 net.cpp:434] relu2a_neg <- conv2a_neg
I0518 06:24:14.559132 31019 net.cpp:395] relu2a_neg -> conv2a_neg (in-place)
I0518 06:24:14.559367 31019 net.cpp:150] Setting up relu2a_neg
I0518 06:24:14.559381 31019 net.cpp:157] Top shape: 17 128 16 56 56 (109182976)
I0518 06:24:14.559386 31019 net.cpp:165] Memory required for data: 9525866496
I0518 06:24:14.559392 31019 layer_factory.hpp:77] Creating layer pool2_neg
I0518 06:24:14.559406 31019 net.cpp:100] Creating Layer pool2_neg
I0518 06:24:14.559412 31019 net.cpp:434] pool2_neg <- conv2a_neg
I0518 06:24:14.559422 31019 net.cpp:408] pool2_neg -> pool2_neg
I0518 06:24:14.560573 31019 net.cpp:150] Setting up pool2_neg
I0518 06:24:14.560591 31019 net.cpp:157] Top shape: 17 128 8 28 28 (13647872)
I0518 06:24:14.560596 31019 net.cpp:165] Memory required for data: 9580457984
I0518 06:24:14.560601 31019 layer_factory.hpp:77] Creating layer conv3a_neg
I0518 06:24:14.560631 31019 net.cpp:100] Creating Layer conv3a_neg
I0518 06:24:14.560638 31019 net.cpp:434] conv3a_neg <- pool2_neg
I0518 06:24:14.560652 31019 net.cpp:408] conv3a_neg -> conv3a_neg
I0518 06:24:14.589082 31019 net.cpp:150] Setting up conv3a_neg
I0518 06:24:14.589118 31019 net.cpp:157] Top shape: 17 256 8 28 28 (27295744)
I0518 06:24:14.589123 31019 net.cpp:165] Memory required for data: 9689640960
I0518 06:24:14.589154 31019 net.cpp:493] Sharing parameters 'conv3a_w' owned by layer 'conv3a', param index 0
I0518 06:24:14.589172 31019 net.cpp:493] Sharing parameters 'conv3a_b' owned by layer 'conv3a', param index 1
I0518 06:24:14.589181 31019 layer_factory.hpp:77] Creating layer relu3a_neg
I0518 06:24:14.589197 31019 net.cpp:100] Creating Layer relu3a_neg
I0518 06:24:14.589205 31019 net.cpp:434] relu3a_neg <- conv3a_neg
I0518 06:24:14.589216 31019 net.cpp:395] relu3a_neg -> conv3a_neg (in-place)
I0518 06:24:14.589418 31019 net.cpp:150] Setting up relu3a_neg
I0518 06:24:14.589431 31019 net.cpp:157] Top shape: 17 256 8 28 28 (27295744)
I0518 06:24:14.589435 31019 net.cpp:165] Memory required for data: 9798823936
I0518 06:24:14.589443 31019 layer_factory.hpp:77] Creating layer pool3_neg
I0518 06:24:14.589459 31019 net.cpp:100] Creating Layer pool3_neg
I0518 06:24:14.589465 31019 net.cpp:434] pool3_neg <- conv3a_neg
I0518 06:24:14.589476 31019 net.cpp:408] pool3_neg -> pool3_neg
I0518 06:24:14.589707 31019 net.cpp:150] Setting up pool3_neg
I0518 06:24:14.589720 31019 net.cpp:157] Top shape: 17 256 4 14 14 (3411968)
I0518 06:24:14.589725 31019 net.cpp:165] Memory required for data: 9812471808
I0518 06:24:14.589730 31019 layer_factory.hpp:77] Creating layer conv4a_neg
I0518 06:24:14.589746 31019 net.cpp:100] Creating Layer conv4a_neg
I0518 06:24:14.589752 31019 net.cpp:434] conv4a_neg <- pool3_neg
I0518 06:24:14.589764 31019 net.cpp:408] conv4a_neg -> conv4a_neg
I0518 06:24:14.645241 31019 net.cpp:150] Setting up conv4a_neg
I0518 06:24:14.645278 31019 net.cpp:157] Top shape: 17 256 4 14 14 (3411968)
I0518 06:24:14.645283 31019 net.cpp:165] Memory required for data: 9826119680
I0518 06:24:14.645305 31019 net.cpp:493] Sharing parameters 'conv4a_w' owned by layer 'conv4a', param index 0
I0518 06:24:14.645313 31019 net.cpp:493] Sharing parameters 'conv4a_b' owned by layer 'conv4a', param index 1
I0518 06:24:14.645318 31019 layer_factory.hpp:77] Creating layer relu4a_neg
I0518 06:24:14.645332 31019 net.cpp:100] Creating Layer relu4a_neg
I0518 06:24:14.645349 31019 net.cpp:434] relu4a_neg <- conv4a_neg
I0518 06:24:14.645361 31019 net.cpp:395] relu4a_neg -> conv4a_neg (in-place)
I0518 06:24:14.645560 31019 net.cpp:150] Setting up relu4a_neg
I0518 06:24:14.645573 31019 net.cpp:157] Top shape: 17 256 4 14 14 (3411968)
I0518 06:24:14.645578 31019 net.cpp:165] Memory required for data: 9839767552
I0518 06:24:14.645583 31019 layer_factory.hpp:77] Creating layer pool4_neg
I0518 06:24:14.645602 31019 net.cpp:100] Creating Layer pool4_neg
I0518 06:24:14.645608 31019 net.cpp:434] pool4_neg <- conv4a_neg
I0518 06:24:14.645619 31019 net.cpp:408] pool4_neg -> pool4_neg
I0518 06:24:14.646773 31019 net.cpp:150] Setting up pool4_neg
I0518 06:24:14.646792 31019 net.cpp:157] Top shape: 17 256 2 7 7 (426496)
I0518 06:24:14.646796 31019 net.cpp:165] Memory required for data: 9841473536
I0518 06:24:14.646813 31019 layer_factory.hpp:77] Creating layer conv5a_neg
I0518 06:24:14.646832 31019 net.cpp:100] Creating Layer conv5a_neg
I0518 06:24:14.646841 31019 net.cpp:434] conv5a_neg <- pool4_neg
I0518 06:24:14.646852 31019 net.cpp:408] conv5a_neg -> conv5a_neg
I0518 06:24:14.702085 31019 net.cpp:150] Setting up conv5a_neg
I0518 06:24:14.702127 31019 net.cpp:157] Top shape: 17 256 2 7 7 (426496)
I0518 06:24:14.702133 31019 net.cpp:165] Memory required for data: 9843179520
I0518 06:24:14.702188 31019 net.cpp:493] Sharing parameters 'conv5a_w' owned by layer 'conv5a', param index 0
I0518 06:24:14.702199 31019 net.cpp:493] Sharing parameters 'conv5a_b' owned by layer 'conv5a', param index 1
I0518 06:24:14.702208 31019 layer_factory.hpp:77] Creating layer relu5a_neg
I0518 06:24:14.702239 31019 net.cpp:100] Creating Layer relu5a_neg
I0518 06:24:14.702247 31019 net.cpp:434] relu5a_neg <- conv5a_neg
I0518 06:24:14.702261 31019 net.cpp:395] relu5a_neg -> conv5a_neg (in-place)
I0518 06:24:14.703588 31019 net.cpp:150] Setting up relu5a_neg
I0518 06:24:14.703621 31019 net.cpp:157] Top shape: 17 256 2 7 7 (426496)
I0518 06:24:14.703627 31019 net.cpp:165] Memory required for data: 9844885504
I0518 06:24:14.703646 31019 layer_factory.hpp:77] Creating layer pool5_neg
I0518 06:24:14.703677 31019 net.cpp:100] Creating Layer pool5_neg
I0518 06:24:14.703687 31019 net.cpp:434] pool5_neg <- conv5a_neg
I0518 06:24:14.703703 31019 net.cpp:408] pool5_neg -> pool5_neg
I0518 06:24:14.704005 31019 net.cpp:150] Setting up pool5_neg
I0518 06:24:14.704018 31019 net.cpp:157] Top shape: 17 256 1 4 4 (69632)
I0518 06:24:14.704023 31019 net.cpp:165] Memory required for data: 9845164032
I0518 06:24:14.704032 31019 layer_factory.hpp:77] Creating layer fc6_neg
I0518 06:24:14.704048 31019 net.cpp:100] Creating Layer fc6_neg
I0518 06:24:14.704056 31019 net.cpp:434] fc6_neg <- pool5_neg
I0518 06:24:14.704066 31019 net.cpp:408] fc6_neg -> fc6_neg
I0518 06:24:14.966940 31019 net.cpp:150] Setting up fc6_neg
I0518 06:24:14.966982 31019 net.cpp:157] Top shape: 17 2048 (34816)
I0518 06:24:14.966987 31019 net.cpp:165] Memory required for data: 9845303296
I0518 06:24:14.967010 31019 net.cpp:493] Sharing parameters 'fc6_w' owned by layer 'fc6', param index 0
I0518 06:24:14.967025 31019 net.cpp:493] Sharing parameters 'fc6_b' owned by layer 'fc6', param index 1
I0518 06:24:14.967072 31019 layer_factory.hpp:77] Creating layer relu6_neg
I0518 06:24:14.967087 31019 net.cpp:100] Creating Layer relu6_neg
I0518 06:24:14.967114 31019 net.cpp:434] relu6_neg <- fc6_neg
I0518 06:24:14.967129 31019 net.cpp:395] relu6_neg -> fc6_neg (in-place)
I0518 06:24:14.967617 31019 net.cpp:150] Setting up relu6_neg
I0518 06:24:14.967629 31019 net.cpp:157] Top shape: 17 2048 (34816)
I0518 06:24:14.967634 31019 net.cpp:165] Memory required for data: 9845442560
I0518 06:24:14.967640 31019 layer_factory.hpp:77] Creating layer drop6_neg
I0518 06:24:14.967664 31019 net.cpp:100] Creating Layer drop6_neg
I0518 06:24:14.967672 31019 net.cpp:434] drop6_neg <- fc6_neg
I0518 06:24:14.967680 31019 net.cpp:395] drop6_neg -> fc6_neg (in-place)
I0518 06:24:14.967730 31019 net.cpp:150] Setting up drop6_neg
I0518 06:24:14.967741 31019 net.cpp:157] Top shape: 17 2048 (34816)
I0518 06:24:14.967746 31019 net.cpp:165] Memory required for data: 9845581824
I0518 06:24:14.967751 31019 layer_factory.hpp:77] Creating layer fc7_neg
I0518 06:24:14.967764 31019 net.cpp:100] Creating Layer fc7_neg
I0518 06:24:14.967770 31019 net.cpp:434] fc7_neg <- fc6_neg
I0518 06:24:14.967785 31019 net.cpp:408] fc7_neg -> fc7_neg
I0518 06:24:15.100024 31019 net.cpp:150] Setting up fc7_neg
I0518 06:24:15.100061 31019 net.cpp:157] Top shape: 17 2048 (34816)
I0518 06:24:15.100066 31019 net.cpp:165] Memory required for data: 9845721088
I0518 06:24:15.100076 31019 net.cpp:493] Sharing parameters 'fc7_w' owned by layer 'fc7', param index 0
I0518 06:24:15.100095 31019 net.cpp:493] Sharing parameters 'fc7_b' owned by layer 'fc7', param index 1
I0518 06:24:15.100101 31019 layer_factory.hpp:77] Creating layer relu7_neg
I0518 06:24:15.100114 31019 net.cpp:100] Creating Layer relu7_neg
I0518 06:24:15.100126 31019 net.cpp:434] relu7_neg <- fc7_neg
I0518 06:24:15.100142 31019 net.cpp:395] relu7_neg -> fc7_neg (in-place)
I0518 06:24:15.100426 31019 net.cpp:150] Setting up relu7_neg
I0518 06:24:15.100440 31019 net.cpp:157] Top shape: 17 2048 (34816)
I0518 06:24:15.100445 31019 net.cpp:165] Memory required for data: 9845860352
I0518 06:24:15.100450 31019 layer_factory.hpp:77] Creating layer drop7_neg
I0518 06:24:15.100483 31019 net.cpp:100] Creating Layer drop7_neg
I0518 06:24:15.100492 31019 net.cpp:434] drop7_neg <- fc7_neg
I0518 06:24:15.100503 31019 net.cpp:395] drop7_neg -> fc7_neg (in-place)
I0518 06:24:15.100553 31019 net.cpp:150] Setting up drop7_neg
I0518 06:24:15.100565 31019 net.cpp:157] Top shape: 17 2048 (34816)
I0518 06:24:15.100570 31019 net.cpp:165] Memory required for data: 9845999616
I0518 06:24:15.100574 31019 layer_factory.hpp:77] Creating layer mvn_neg
I0518 06:24:15.100720 31019 net.cpp:100] Creating Layer mvn_neg
I0518 06:24:15.100729 31019 net.cpp:434] mvn_neg <- fc7_neg
I0518 06:24:15.100741 31019 net.cpp:408] mvn_neg -> fc7_neg_norm
I0518 06:24:15.101076 31019 net.cpp:150] Setting up mvn_neg
I0518 06:24:15.101090 31019 net.cpp:157] Top shape: 17 2048 (34816)
I0518 06:24:15.101094 31019 net.cpp:165] Memory required for data: 9846138880
I0518 06:24:15.101100 31019 layer_factory.hpp:77] Creating layer fc7_neg_norm_mvn_neg_0_split
I0518 06:24:15.101119 31019 net.cpp:100] Creating Layer fc7_neg_norm_mvn_neg_0_split
I0518 06:24:15.101127 31019 net.cpp:434] fc7_neg_norm_mvn_neg_0_split <- fc7_neg_norm
I0518 06:24:15.101138 31019 net.cpp:408] fc7_neg_norm_mvn_neg_0_split -> fc7_neg_norm_mvn_neg_0_split_0
I0518 06:24:15.101155 31019 net.cpp:408] fc7_neg_norm_mvn_neg_0_split -> fc7_neg_norm_mvn_neg_0_split_1
I0518 06:24:15.101214 31019 net.cpp:150] Setting up fc7_neg_norm_mvn_neg_0_split
I0518 06:24:15.101224 31019 net.cpp:157] Top shape: 17 2048 (34816)
I0518 06:24:15.101231 31019 net.cpp:157] Top shape: 17 2048 (34816)
I0518 06:24:15.101235 31019 net.cpp:165] Memory required for data: 9846417408
I0518 06:24:15.101241 31019 layer_factory.hpp:77] Creating layer loss
I0518 06:24:15.112414 31019 net.cpp:100] Creating Layer loss
I0518 06:24:15.112447 31019 net.cpp:434] loss <- fc7_norm_mvn_0_split_0
I0518 06:24:15.112490 31019 net.cpp:434] loss <- fc7_pos_norm_mvn_pos_0_split_0
I0518 06:24:15.112500 31019 net.cpp:434] loss <- fc7_neg_norm_mvn_neg_0_split_0
…
    mean_value: 65
    mean_value: 74
    mean_value: 92
    mean_value: 65
    mean_value: 74
    mean_value: 92
    mean_value: 65
    mean_value: 74
    mean_value: 92
    mean_value: 65
    mean_value: 74
    mean_value: 92
    mean_value: 65
    mean_value: 74
    mean_value: 92
    mean_value: 65
    mean_value: 74
    mean_value: 92
    mean_value: 65
    mean_value: 74
    mean_value: 92
    mean_value: 65
    mean_value: 74
    mean_value: 92
  }
  data_param {
    source: "/data/leo-data/Synthetic/LMDB/Triplets/val"
    batch_size: 1
    backend: LMDB
  }
}
layer {
  name: "slicer"
  type: "Slice"
  bottom: "triplet"
  top: "anchor_stacked"
  top: "positive_stacked"
  top: "negative_stacked"
  slice_param {
    slice_dim: 1
    slice_point: 48
    slice_point: 96
  }
}
layer {
  name: "reshape_anchor"
  type: "Reshape"
  bottom: "anchor_stacked"
  top: "anchor"
  reshape_param {
    shape {
      dim: 0
      dim: 3
      dim: 16
      dim: 112
      dim: 112
    }
  }
}
layer {
  name: "reshape_positive"
  type: "Reshape"
  bottom: "positive_stacked"
  top: "positive"
  reshape_param {
    shape {
      dim: 0
      dim: 3
      dim: 16
      dim: 112
      dim: 112
    }
  }
}
layer {
  name: "reshape_negative"
  type: "Reshape"
  bottom: "negative_stacked"
  top: "negative"
  reshape_param {
    shape {
      dim: 0
      dim: 3
      dim: 16
      dim: 112
      dim: 112
    }
  }
}
layer {
  name: "conv1a"
  type: "NdConvolution"
  bottom: "anchor"
  top: "conv1a"
  param {
    name: "conv1a_w"
    lr_mult: 1
    decay_mult: 1
  }
  param {
    name: "conv1a_b"
    lr_mult: 2
    decay_mult: 0
  }
  convolution_param {
    num_output: 64
    weight_filler {
      type: "gaussian"
      std: 0.01
    }
    bias_filler {
      type: "constant"
      value: 0
    }
    pad_shape {
      dim: 1
      dim: 1
      dim: 1
    }
    kernel_shape {
      dim: 3
      dim: 3
      dim: 3
    }
    stride_shape {
      dim: 1
      dim: 1
      dim: 1
    }
  }
}
layer {
  name: "relu1a"
  type: "ReLU"
  bottom: "conv1a"
  top: "conv1a"
}
layer {
  name: "pool1"
  type: "NdPooling"
  bottom: "conv1a"
  top: "pool1"
  pooling_param {
    pool: MAX
    kernel_shape {
      dim: 1
      dim: 2
      dim: 2
    }
    stride_shape {
      dim: 1
      dim: 2
      dim: 2
    }
  }
}
layer {
  name: "conv2a"
  type: "NdConvolution"
  bottom: "pool1"
  top: "conv2a"
  param {
    name: "conv2a_w"
    lr_mult: 1
    decay_mult: 1
  }
  param {
    name: "conv2a_b"
    lr_mult: 2
    decay_mult: 0
  }
  convolution_param {
    num_output: 128
    weight_filler {
      type: "gaussian"
      std: 0.01
    }
    bias_filler {
      type: "constant"
      value: 1
    }
    pad_shape {
      dim: 1
      dim: 1
      dim: 1
    }
    kernel_shape {
      dim: 3
      dim: 3
      dim: 3
    }
    stride_shape {
      dim: 1
      dim: 1
      dim: 1
    }
  }
}
layer {
  name: "relu2a"
  type: "ReLU"
  bottom: "conv2a"
  top: "conv2a"
}
layer {
  name: "pool2"
  type: "NdPooling"
  bottom: "conv2a"
  top: "pool2"
  pooling_param {
    pool: MAX
    kernel_shape {
      dim: 2
      dim: 2
      dim: 2
    }
    stride_shape {
      dim: 2
      dim: 2
      dim: 2
    }
  }
}
layer {
  name: "conv3a"
  type: "NdConvolution"
  bottom: "pool2"
  top: "conv3a"
  param {
    name: "conv3a_w"
    lr_mult: 1
    decay_mult: 1
  }
  param {
    name: "conv3a_b"
    lr_mult: 2
    decay_mult: 0
  }
  convolution_param {
    num_output: 256
    weight_filler {
      type: "gaussian"
      std: 0.01
    }
    bias_filler {
      type: "constant"
      value: 1
    }
    pad_shape {
      dim: 1
      dim: 1
      dim: 1
    }
    kernel_shape {
      dim: 3
      dim: 3
      dim: 3
    }
    stride_shape {
      dim: 1
      dim: 1
      dim: 1
    }
  }
}
layer {
  name: "relu3a"
  type: "ReLU"
  bottom: "conv3a"
  top: "conv3a"
}
layer {
  name: "pool3"
  type: "NdPooling"
  bottom: "conv3a"
  top: "pool3"
  pooling_param {
    pool: MAX
    kernel_shape {
      dim: 2
      dim: 2
      dim: 2
    }
    stride_shape {
      dim: 2
      dim: 2
      dim: 2
    }
  }
}
layer {
  name: "conv4a"
  type: "NdConvolution"
  bottom: "pool3"
  top: "conv4a"
  param {
    name: "conv4a_w"
    lr_mult: 1
    decay_mult: 1
  }
  param {
    name: "conv4a_b"
    lr_mult: 2
    decay_mult: 0
  }
  convolution_param {
    num_output: 256
    weight_filler {
      type: "gaussian"
      std: 0.01
    }
    bias_filler {
      type: "constant"
      value: 1
    }
    pad_shape {
      dim: 1
      dim: 1
      dim: 1
    }
    kernel_shape {
      dim: 3
      dim: 3
      dim: 3
    }
    stride_shape {
      dim: 1
      dim: 1
      dim: 1
    }
  }
}
layer {
  name: "relu4a"
  type: "ReLU"
  bottom: "conv4a"
  top: "conv4a"
}
layer {
  name: "pool4"
  type: "NdPooling"
  bottom: "conv4a"
  top: "pool4"
  pooling_param {
    pool: MAX
    kernel_shape {
      dim: 2
      dim: 2
      dim: 2
    }
    stride_shape {
      dim: 2
      dim: 2
      dim: 2
    }
  }
}
layer {
  name: "conv5a"
  type: "NdConvolution"
  bottom: "pool4"
  top: "conv5a"
  param {
    name: "conv5a_w"
    lr_mult: 1
    decay_mult: 1
  }
  param {
    name: "conv5a_b"
    lr_mult: 2
    decay_mult: 0
  }
  convolution_param {
    num_output: 256
    weight_filler {
      type: "gaussian"
      std: 0.01
    }
    bias_filler {
      type: "constant"
      value: 1
    }
    pad_shape {
      dim: 1
      dim: 1
      dim: 1
    }
    kernel_shape {
      dim: 3
      dim: 3
      dim: 3
    }
    stride_shape {
      dim: 1
      dim: 1
      dim: 1
    }
  }
}
layer {
  name: "relu5a"
  type: "ReLU"
  bottom: "conv5a"
  top: "conv5a"
}
layer {
  name: "pool5"
  type: "NdPooling"
  bottom: "conv5a"
  top: "pool5"
  pooling_param {
    pool: MAX
    kernel_shape {
      dim: 2
      dim: 2
      dim: 2
    }
    stride_shape {
      dim: 2
      dim: 2
      dim: 2
    }
  }
}
layer {
  name: "fc6"
  type: "InnerProduct"
  bottom: "pool5"
  top: "fc6"
  param {
    name: "fc6_w"
    lr_mult: 1
    decay_mult: 1
  }
  param {
    name: "fc6_b"
    lr_mult: 2
    decay_mult: 0
  }
  inner_product_param {
    num_output: 2048
    weight_filler {
      type: "gaussian"
      std: 0.005
    }
    bias_filler {
      type: "constant"
      value: 1
    }
  }
}
layer {
  name: "relu6"
  type: "ReLU"
  bottom: "fc6"
  top: "fc6"
}
layer {
  name: "drop6"
  type: "Dropout"
  bottom: "fc6"
  top: "fc6"
  dropout_param {
    dropout_ratio: 0.5
  }
}
layer {
  name: "fc7"
  type: "InnerProduct"
  bottom: "fc6"
  top: "fc7"
  param {
    name: "fc7_w"
    lr_mult: 1
    decay_mult: 1
  }
  param {
    name: "fc7_b"
    lr_mult: 2
    decay_mult: 0
  }
  inner_product_param {
    num_output: 2048
    weight_filler {
      type: "gaussian"
      std: 0.005
    }
    bias_filler {
      type: "constant"
      value: 1
    }
  }
}
layer {
  name: "relu7"
  type: "ReLU"
  bottom: "fc7"
  top: "fc7"
}
layer {
  name: "drop7"
  type: "Dropout"
  bottom: "fc7"
  top: "fc7"
  dropout_param {
    dropout_ratio: 0.5
  }
}
layer {
  name: "mvn"
  type: "Python"
  bottom: "fc7"
  top: "fc7_norm"
  python_param {
    module: "mvn"
    layer: "MVNLayer"
  }
}
layer {
  name: "conv1a_pos"
  type: "NdConvolution"
  bottom: "positive"
  top: "conv1a_pos"
  param {
    name: "conv1a_w"
    lr_mult: 1
    decay_mult: 1
  }
  param {
    name: "conv1a_b"
    lr_mult: 2
    decay_mult: 0
  }
  convolution_param {
    num_output: 64
    weight_filler {
      type: "gaussian"
      std: 0.01
    }
    bias_filler {
      type: "constant"
      value: 0
    }
    pad_shape {
      dim: 1
      dim: 1
      dim: 1
    }
    kernel_shape {
      dim: 3
      dim: 3
      dim: 3
    }
    stride_shape {
      dim: 1
      dim: 1
      dim: 1
    }
  }
}
layer {
  name: "relu1a_pos"
  type: "ReLU"
  bottom: "conv1a_pos"
  top: "conv1a_pos"
}
layer {
  name: "pool1_pos"
  type: "NdPooling"
  bottom: "conv1a_pos"
  top: "pool1_pos"
  pooling_param {
    pool: MAX
    kernel_shape {
      dim: 1
      dim: 2
      dim: 2
    }
    stride_shape {
      dim: 1
      dim: 2
      dim: 2
    }
  }
}
layer {
  name: "conv2a_pos"
  type: "NdConvolution"
  bottom: "pool1_pos"
  top: "conv2a_pos"
  param {
    name: "conv2a_w"
    lr_mult: 1
    decay_mult: 1
  }
  param {
    name: "conv2a_b"
    lr_mult: 2
    decay_mult: 0
  }
  convolution_param {
    num_output: 128
    weight_filler {
      type: "gaussian"
      std: 0.01
    }
    bias_filler {
      type: "constant"
      value: 1
    }
    pad_shape {
      dim: 1
      dim: 1
      dim: 1
    }
    kernel_shape {
      dim: 3
      dim: 3
      dim: 3
    }
    stride_shape {
      dim: 1
      dim: 1
      dim: 1
    }
  }
}
layer {
  name: "relu2a_pos"
  type: "ReLU"
  bottom: "conv2a_pos"
  top: "conv2a_pos"
}
layer {
  name: "pool2_pos"
  type: "NdPooling"
  bottom: "conv2a_pos"
  top: "pool2_pos"
  pooling_param {
    pool: MAX
    kernel_shape {
      dim: 2
      dim: 2
      dim: 2
    }
    stride_shape {
      dim: 2
      dim: 2
      dim: 2
    }
  }
}
layer {
  name: "conv3a_pos"
  type: "NdConvolution"
  bottom: "pool2_pos"
  top: "conv3a_pos"
  param {
    name: "conv3a_w"
    lr_mult: 1
    decay_mult: 1
  }
  param {
    name: "conv3a_b"
    lr_mult: 2
    decay_mult: 0
  }
  convolution_param {
    num_output: 256
    weight_filler {
      type: "gaussian"
      std: 0.01
    }
    bias_filler {
      type: "constant"
      value: 1
    }
    pad_shape {
      dim: 1
      dim: 1
      dim: 1
    }
    kernel_shape {
      dim: 3
      dim: 3
      dim: 3
    }
    stride_shape {
      dim: 1
      dim: 1
      dim: 1
    }
  }
}
layer {
  name: "relu3a_pos"
  type: "ReLU"
  bottom: "conv3a_pos"
  top: "conv3a_pos"
}
layer {
  name: "pool3_pos"
  type: "NdPooling"
  bottom: "conv3a_pos"
  top: "pool3_pos"
  pooling_param {
    pool: MAX
    kernel_shape {
      dim: 2
      dim: 2
      dim: 2
    }
    stride_shape {
      dim: 2
      dim: 2
      dim: 2
    }
  }
}
layer {
  name: "conv4a_pos"
  type: "NdConvolution"
  bottom: "pool3_pos"
  top: "conv4a_pos"
  param {
    name: "conv4a_w"
    lr_mult: 1
    decay_mult: 1
  }
  param {
    name: "conv4a_b"
    lr_mult: 2
    decay_mult: 0
  }
  convolution_param {
    num_output: 256
    weight_filler {
      type: "gaussian"
      std: 0.01
    }
    bias_filler {
      type: "constant"
      value: 1
    }
    pad_shape {
      dim: 1
      dim: 1
      dim: 1
    }
    kernel_shape {
      dim: 3
      dim: 3
      dim: 3
    }
    stride_shape {
      dim: 1
      dim: 1
      dim: 1
    }
  }
}
layer {
  name: "relu4a_pos"
  type: "ReLU"
  bottom: "conv4a_pos"
  top: "conv4a_pos"
}
layer {
  name: "pool4_pos"
  type: "NdPooling"
  bottom: "conv4a_pos"
  top: "pool4_pos"
  pooling_param {
    pool: MAX
    kernel_shape {
      dim: 2
      dim: 2
      dim: 2
    }
    stride_shape {
      dim: 2
      dim: 2
      dim: 2
    }
  }
}
layer {
  name: "conv5a_pos"
  type: "NdConvolution"
  bottom: "pool4_pos"
  top: "conv5a_pos"
  param {
    name: "conv5a_w"
    lr_mult: 1
    decay_mult: 1
  }
  param {
    name: "conv5a_b"
    lr_mult: 2
    decay_mult: 0
  }
  convolution_param {
    num_output: 256
    weight_filler {
      type: "gaussian"
      std: 0.01
    }
    bias_filler {
      type: "constant"
      value: 1
    }
    pad_shape {
      dim: 1
      dim: 1
      dim: 1
    }
    kernel_shape {
      dim: 3
      dim: 3
      dim: 3
    }
    stride_shape {
      dim: 1
      dim: 1
      dim: 1
    }
  }
}
layer {
  name: "relu5a_pos"
  type: "ReLU"
  bottom: "conv5a_pos"
  top: "conv5a_pos"
}
layer {
  name: "pool5_pos"
  type: "NdPooling"
  bottom: "conv5a_pos"
  top: "pool5_pos"
  pooling_param {
    pool: MAX
    kernel_shape {
      dim: 2
      dim: 2
      dim: 2
    }
    stride_shape {
      dim: 2
      dim: 2
      dim: 2
    }
  }
}
layer {
  name: "fc6_pos"
  type: "InnerProduct"
  bottom: "pool5_pos"
  top: "fc6_pos"
  param {
    name: "fc6_w"
    lr_mult: 1
    decay_mult: 1
  }
  param {
    name: "fc6_b"
    lr_mult: 2
    decay_mult: 0
  }
  inner_product_param {
    num_output: 2048
    weight_filler {
      type: "gaussian"
      std: 0.005
    }
    bias_filler {
      type: "constant"
      value: 1
    }
  }
}
layer {
  name: "relu6_pos"
  type: "ReLU"
  bottom: "fc6_pos"
  top: "fc6_pos"
}
layer {
  name: "drop6_pos"
  type: "Dropout"
  bottom: "fc6_pos"
  top: "fc6_pos"
  dropout_param {
    dropout_ratio: 0.5
  }
}
layer {
  name: "fc7_pos"
  type: "InnerProduct"
  bottom: "fc6_pos"
  top: "fc7_pos"
  param {
    name: "fc7_w"
    lr_mult: 1
    decay_mult: 1
  }
  param {
    name: "fc7_b"
    lr_mult: 2
    decay_mult: 0
  }
  inner_product_param {
    num_output: 2048
    weight_filler {
      type: "gaussian"
      std: 0.005
    }
    bias_filler {
      type: "constant"
      value: 1
    }
  }
}
layer {
  name: "relu7_pos"
  type: "ReLU"
  bottom: "fc7_pos"
  top: "fc7_pos"
}
layer {
  name: "drop7_pos"
  type: "Dropout"
  bottom: "fc7_pos"
  top: "fc7_pos"
  dropout_param {
    dropout_ratio: 0.5
  }
}
layer {
  name: "mvn_pos"
  type: "Python"
  bottom: "fc7_pos"
  top: "fc7_pos_norm"
  python_param {
    module: "mvn"
    layer: "MVNLayer"
  }
}
layer {
  name: "conv1a_neg"
  type: "NdConvolution"
  bottom: "negative"
  top: "conv1a_neg"
  param {
    name: "conv1a_w"
    lr_mult: 1
    decay_mult: 1
  }
  param {
    name: "conv1a_b"
    lr_mult: 2
    decay_mult: 0
  }
  convolution_param {
    num_output: 64
    weight_filler {
      type: "gaussian"
      std: 0.01
    }
    bias_filler {
      type: "constant"
      value: 0
    }
    pad_shape {
      dim: 1
      dim: 1
      dim: 1
    }
    kernel_shape {
      dim: 3
      dim: 3
      dim: 3
    }
    stride_shape {
      dim: 1
      dim: 1
      dim: 1
    }
  }
}
layer {
  name: "relu1a_neg"
  type: "ReLU"
  bottom: "conv1a_neg"
  top: "conv1a_neg"
}
layer {
  name: "pool1_neg"
  type: "NdPooling"
  bottom: "conv1a_neg"
  top: "pool1_neg"
  pooling_param {
    pool: MAX
    kernel_shape {
      dim: 1
      dim: 2
      dim: 2
    }
    stride_shape {
      dim: 1
      dim: 2
      dim: 2
    }
  }
}
layer {
  name: "conv2a_neg"
  type: "NdConvolution"
  bottom: "pool1_neg"
  top: "conv2a_neg"
  param {
    name: "conv2a_w"
    lr_mult: 1
    decay_mult: 1
  }
  param {
    name: "conv2a_b"
    lr_mult: 2
    decay_mult: 0
  }
  convolution_param {
    num_output: 128
    weight_filler {
      type: "gaussian"
      std: 0.01
    }
    bias_filler {
      type: "constant"
      value: 1
    }
    pad_shape {
      dim: 1
      dim: 1
      dim: 1
    }
    kernel_shape {
      dim: 3
      dim: 3
      dim: 3
    }
    stride_shape {
      dim: 1
      dim: 1
      dim: 1
    }
  }
}
layer {
  name: "relu2a_neg"
  type: "ReLU"
  bottom: "conv2a_neg"
  top: "conv2a_neg"
}
layer {
  name: "pool2_neg"
  type: "NdPooling"
  bottom: "conv2a_neg"
  top: "pool2_neg"
  pooling_param {
    pool: MAX
    kernel_shape {
      dim: 2
      dim: 2
      dim: 2
    }
    stride_shape {
      dim: 2
      dim: 2
      dim: 2
    }
  }
}
layer {
  name: "conv3a_neg"
  type: "NdConvolution"
  bottom: "pool2_neg"
  top: "conv3a_neg"
  param {
    name: "conv3a_w"
    lr_mult: 1
    decay_mult: 1
  }
  param {
    name: "conv3a_b"
    lr_mult: 2
    decay_mult: 0
  }
  convolution_param {
    num_output: 256
    weight_filler {
      type: "gaussian"
      std: 0.01
    }
    bias_filler {
      type: "constant"
      value: 1
    }
    pad_shape {
      dim: 1
      dim: 1
      dim: 1
    }
    kernel_shape {
      dim: 3
      dim: 3
      dim: 3
    }
    stride_shape {
      dim: 1
      dim: 1
      dim: 1
    }
  }
}
layer {
  name: "relu3a_neg"
  type: "ReLU"
  bottom: "conv3a_neg"
  top: "conv3a_neg"
}
layer {
  name: "pool3_neg"
  type: "NdPooling"
  bottom: "conv3a_neg"
  top: "pool3_neg"
  pooling_param {
    pool: MAX
    kernel_shape {
      dim: 2
      dim: 2
      dim: 2
    }
    stride_shape {
      dim: 2
      dim: 2
      dim: 2
    }
  }
}
layer {
  name: "conv4a_neg"
  type: "NdConvolution"
  bottom: "pool3_neg"
  top: "conv4a_neg"
  param {
    name: "conv4a_w"
    lr_mult: 1
    decay_mult: 1
  }
  param {
    name: "conv4a_b"
    lr_mult: 2
    decay_mult: 0
  }
  convolution_param {
    num_output: 256
    weight_filler {
      type: "gaussian"
      std: 0.01
    }
    bias_filler {
      type: "constant"
      value: 1
    }
    pad_shape {
      dim: 1
      dim: 1
      dim: 1
    }
    kernel_shape {
      dim: 3
      dim: 3
      dim: 3
    }
    stride_shape {
      dim: 1
      dim: 1
      dim: 1
    }
  }
}
layer {
  name: "relu4a_neg"
  type: "ReLU"
  bottom: "conv4a_neg"
  top: "conv4a_neg"
}
layer {
  name: "pool4_neg"
  type: "NdPooling"
  bottom: "conv4a_neg"
  top: "pool4_neg"
  pooling_param {
    pool: MAX
    kernel_shape {
      dim: 2
      dim: 2
      dim: 2
    }
    stride_shape {
      dim: 2
      dim: 2
      dim: 2
    }
  }
}
layer {
  name: "conv5a_neg"
  type: "NdConvolution"
  bottom: "pool4_neg"
  top: "conv5a_neg"
  param {
    name: "conv5a_w"
    lr_mult: 1
    decay_mult: 1
  }
  param {
    name: "conv5a_b"
    lr_mult: 2
    decay_mult: 0
  }
  convolution_param {
    num_output: 256
    weight_filler {
      type: "gaussian"
      std: 0.01
    }
    bias_filler {
      type: "constant"
      value: 1
    }
    pad_shape {
      dim: 1
      dim: 1
      dim: 1
    }
    kernel_shape {
      dim: 3
      dim: 3
      dim: 3
    }
    stride_shape {
      dim: 1
      dim: 1
      dim: 1
    }
  }
}
layer {
  name: "relu5a_neg"
  type: "ReLU"
  bottom: "conv5a_neg"
  top: "conv5a_neg"
}
layer {
  name: "pool5_neg"
  type: "NdPooling"
  bottom: "conv5a_neg"
  top: "pool5_neg"
  pooling_param {
    pool: MAX
    kernel_shape {
      dim: 2
      dim: 2
      dim: 2
    }
    stride_shape {
      dim: 2
      dim: 2
      dim: 2
    }
  }
}
layer {
  name: "fc6_neg"
  type: "InnerProduct"
  bottom: "pool5_neg"
  top: "fc6_neg"
  param {
    name: "fc6_w"
    lr_mult: 1
    decay_mult: 1
  }
  param {
    name: "fc6_b"
    lr_mult: 2
    decay_mult: 0
  }
  inner_product_param {
    num_output: 2048
    weight_filler {
      type: "gaussian"
      std: 0.005
    }
    bias_filler {
      type: "constant"
      value: 1
    }
  }
}
layer {
  name: "relu6_neg"
  type: "ReLU"
  bottom: "fc6_neg"
  top: "fc6_neg"
}
layer {
  name: "drop6_neg"
  type: "Dropout"
  bottom: "fc6_neg"
  top: "fc6_neg"
  dropout_param {
    dropout_ratio: 0.5
  }
}
layer {
  name: "fc7_neg"
  type: "InnerProduct"
  bottom: "fc6_neg"
  top: "fc7_neg"
  param {
    name: "fc7_w"
    lr_mult: 1
    decay_mult: 1
  }
  param {
    name: "fc7_b"
    lr_mult: 2
    decay_mult: 0
  }
  inner_product_param {
    num_output: 2048
    weight_filler {
      type: "gaussian"
      std: 0.005
    }
    bias_filler {
      type: "constant"
      value: 1
    }
  }
}
layer {
  name: "relu7_neg"
  type: "ReLU"
  bottom: "fc7_neg"
  top: "fc7_neg"
}
layer {
  name: "drop7_neg"
  type: "Dropout"
  bottom: "fc7_neg"
  top: "fc7_neg"
  dropout_param {
    dropout_ratio: 0.5
  }
}
layer {
  name: "mvn_neg"
  type: "Python"
  bottom: "fc7_neg"
  top: "fc7_neg_norm"
  python_param {
    module: "mvn"
    layer: "MVNLayer"
  }
}
layer {
  name: "loss"
  type: "TripletLoss"
  bottom: "fc7_norm"
  bottom: "fc7_pos_norm"
  bottom: "fc7_neg_norm"
  top: "loss"
  threshold_param {
    threshold: 0.054999541
  }
}
layer {
  name: "triplet_check"
  type: "Python"
  bottom: "fc7_norm"
  bottom: "fc7_pos_norm"
  bottom: "fc7_neg_norm"
  python_param {
    module: "triplet_check"
    layer: "TripletCheckLayer"
    param_str: "{\"n_samples\":\"35000\", \"filename\":\"../../features/triplet_loss_triplet_distance_\"}"
  }
}
I0518 06:24:15.177634 31019 layer_factory.hpp:77] Creating layer data
I0518 06:24:15.177726 31019 net.cpp:100] Creating Layer data
I0518 06:24:15.177737 31019 net.cpp:408] data -> triplet
I0518 06:24:15.202242 31066 db_lmdb.cpp:35] Opened lmdb /data/leo-data/Synthetic/LMDB/Triplets/val
I0518 06:24:15.353152 31019 data_layer.cpp:41] output data size: 1,144,112,112
I0518 06:24:15.380113 31019 net.cpp:150] Setting up data
I0518 06:24:15.380159 31019 net.cpp:157] Top shape: 1 144 112 112 (1806336)
I0518 06:24:15.380168 31019 net.cpp:165] Memory required for data: 7225344
I0518 06:24:15.380178 31019 layer_factory.hpp:77] Creating layer slicer
I0518 06:24:15.380208 31019 net.cpp:100] Creating Layer slicer
I0518 06:24:15.380223 31019 net.cpp:434] slicer <- triplet
I0518 06:24:15.380244 31019 net.cpp:408] slicer -> anchor_stacked
I0518 06:24:15.380266 31019 net.cpp:408] slicer -> positive_stacked
I0518 06:24:15.380285 31019 net.cpp:408] slicer -> negative_stacked
I0518 06:24:15.380691 31019 net.cpp:150] Setting up slicer
I0518 06:24:15.380770 31019 net.cpp:157] Top shape: 1 48 112 112 (602112)
I0518 06:24:15.380780 31019 net.cpp:157] Top shape: 1 48 112 112 (602112)
I0518 06:24:15.380786 31019 net.cpp:157] Top shape: 1 48 112 112 (602112)
I0518 06:24:15.380790 31019 net.cpp:165] Memory required for data: 14450688
I0518 06:24:15.380798 31019 layer_factory.hpp:77] Creating layer reshape_anchor
I0518 06:24:15.380820 31019 net.cpp:100] Creating Layer reshape_anchor
I0518 06:24:15.380827 31019 net.cpp:434] reshape_anchor <- anchor_stacked
I0518 06:24:15.380839 31019 net.cpp:408] reshape_anchor -> anchor
I0518 06:24:15.381100 31019 net.cpp:150] Setting up reshape_anchor
I0518 06:24:15.381114 31019 net.cpp:157] Top shape: 1 3 16 112 112 (602112)
I0518 06:24:15.381119 31019 net.cpp:165] Memory required for data: 16859136
I0518 06:24:15.381125 31019 layer_factory.hpp:77] Creating layer reshape_positive
I0518 06:24:15.381135 31019 net.cpp:100] Creating Layer reshape_positive
I0518 06:24:15.381142 31019 net.cpp:434] reshape_positive <- positive_stacked
I0518 06:24:15.381151 31019 net.cpp:408] reshape_positive -> positive
I0518 06:24:15.381214 31019 net.cpp:150] Setting up reshape_positive
I0518 06:24:15.381225 31019 net.cpp:157] Top shape: 1 3 16 112 112 (602112)
I0518 06:24:15.381229 31019 net.cpp:165] Memory required for data: 19267584
I0518 06:24:15.381234 31019 layer_factory.hpp:77] Creating layer reshape_negative
I0518 06:24:15.381247 31019 net.cpp:100] Creating Layer reshape_negative
I0518 06:24:15.381254 31019 net.cpp:434] reshape_negative <- negative_stacked
I0518 06:24:15.381263 31019 net.cpp:408] reshape_negative -> negative
I0518 06:24:15.381316 31019 net.cpp:150] Setting up reshape_negative
I0518 06:24:15.381326 31019 net.cpp:157] Top shape: 1 3 16 112 112 (602112)
I0518 06:24:15.381330 31019 net.cpp:165] Memory required for data: 21676032
I0518 06:24:15.381335 31019 layer_factory.hpp:77] Creating layer conv1a
I0518 06:24:15.381352 31019 net.cpp:100] Creating Layer conv1a
I0518 06:24:15.381358 31019 net.cpp:434] conv1a <- anchor
I0518 06:24:15.381371 31019 net.cpp:408] conv1a -> conv1a
I0518 06:24:15.386308 31019 net.cpp:150] Setting up conv1a
I0518 06:24:15.386332 31019 net.cpp:157] Top shape: 1 64 16 112 112 (12845056)
I0518 06:24:15.386340 31019 net.cpp:165] Memory required for data: 73056256
I0518 06:24:15.386354 31019 layer_factory.hpp:77] Creating layer relu1a
I0518 06:24:15.386370 31019 net.cpp:100] Creating Layer relu1a
I0518 06:24:15.386379 31019 net.cpp:434] relu1a <- conv1a
I0518 06:24:15.386389 31019 net.cpp:395] relu1a -> conv1a (in-place)
I0518 06:24:15.388404 31019 net.cpp:150] Setting up relu1a
I0518 06:24:15.388427 31019 net.cpp:157] Top shape: 1 64 16 112 112 (12845056)
I0518 06:24:15.388434 31019 net.cpp:165] Memory required for data: 124436480
I0518 06:24:15.388439 31019 layer_factory.hpp:77] Creating layer pool1
I0518 06:24:15.388454 31019 net.cpp:100] Creating Layer pool1
I0518 06:24:15.388461 31019 net.cpp:434] pool1 <- conv1a
I0518 06:24:15.388470 31019 net.cpp:408] pool1 -> pool1
I0518 06:24:15.388834 31019 net.cpp:150] Setting up pool1
I0518 06:24:15.388849 31019 net.cpp:157] Top shape: 1 64 16 56 56 (3211264)
I0518 06:24:15.388856 31019 net.cpp:165] Memory required for data: 137281536
I0518 06:24:15.388860 31019 layer_factory.hpp:77] Creating layer conv2a
I0518 06:24:15.388878 31019 net.cpp:100] Creating Layer conv2a
I0518 06:24:15.388885 31019 net.cpp:434] conv2a <- pool1
I0518 06:24:15.388896 31019 net.cpp:408] conv2a -> conv2a
I0518 06:24:15.402204 31019 net.cpp:150] Setting up conv2a
I0518 06:24:15.402243 31019 net.cpp:157] Top shape: 1 128 16 56 56 (6422528)
I0518 06:24:15.402251 31019 net.cpp:165] Memory required for data: 162971648
I0518 06:24:15.402268 31019 layer_factory.hpp:77] Creating layer relu2a
I0518 06:24:15.402281 31019 net.cpp:100] Creating Layer relu2a
I0518 06:24:15.402289 31019 net.cpp:434] relu2a <- conv2a
I0518 06:24:15.402300 31019 net.cpp:395] relu2a -> conv2a (in-place)
I0518 06:24:15.402577 31019 net.cpp:150] Setting up relu2a
I0518 06:24:15.402590 31019 net.cpp:157] Top shape: 1 128 16 56 56 (6422528)
I0518 06:24:15.402626 31019 net.cpp:165] Memory required for data: 188661760
I0518 06:24:15.402631 31019 layer_factory.hpp:77] Creating layer pool2
I0518 06:24:15.402644 31019 net.cpp:100] Creating Layer pool2
I0518 06:24:15.402650 31019 net.cpp:434] pool2 <- conv2a
I0518 06:24:15.402658 31019 net.cpp:408] pool2 -> pool2
I0518 06:24:15.403002 31019 net.cpp:150] Setting up pool2
I0518 06:24:15.403015 31019 net.cpp:157] Top shape: 1 128 8 28 28 (802816)
I0518 06:24:15.403019 31019 net.cpp:165] Memory required for data: 191873024
I0518 06:24:15.403024 31019 layer_factory.hpp:77] Creating layer conv3a
I0518 06:24:15.403038 31019 net.cpp:100] Creating Layer conv3a
I0518 06:24:15.403045 31019 net.cpp:434] conv3a <- pool2
I0518 06:24:15.403059 31019 net.cpp:408] conv3a -> conv3a
I0518 06:24:15.444010 31019 net.cpp:150] Setting up conv3a
I0518 06:24:15.444044 31019 net.cpp:157] Top shape: 1 256 8 28 28 (1605632)
I0518 06:24:15.444056 31019 net.cpp:165] Memory required for data: 198295552
I0518 06:24:15.444072 31019 layer_factory.hpp:77] Creating layer relu3a
I0518 06:24:15.444084 31019 net.cpp:100] Creating Layer relu3a
I0518 06:24:15.444092 31019 net.cpp:434] relu3a <- conv3a
I0518 06:24:15.444099 31019 net.cpp:395] relu3a -> conv3a (in-place)
I0518 06:24:15.446316 31019 net.cpp:150] Setting up relu3a
I0518 06:24:15.446346 31019 net.cpp:157] Top shape: 1 256 8 28 28 (1605632)
I0518 06:24:15.446351 31019 net.cpp:165] Memory required for data: 204718080
I0518 06:24:15.446355 31019 layer_factory.hpp:77] Creating layer pool3
I0518 06:24:15.446367 31019 net.cpp:100] Creating Layer pool3
I0518 06:24:15.446372 31019 net.cpp:434] pool3 <- conv3a
I0518 06:24:15.446379 31019 net.cpp:408] pool3 -> pool3
I0518 06:24:15.446687 31019 net.cpp:150] Setting up pool3
I0518 06:24:15.446701 31019 net.cpp:157] Top shape: 1 256 4 14 14 (200704)
I0518 06:24:15.446703 31019 net.cpp:165] Memory required for data: 205520896
I0518 06:24:15.446707 31019 layer_factory.hpp:77] Creating layer conv4a
I0518 06:24:15.446723 31019 net.cpp:100] Creating Layer conv4a
I0518 06:24:15.446729 31019 net.cpp:434] conv4a <- pool3
I0518 06:24:15.446735 31019 net.cpp:408] conv4a -> conv4a
I0518 06:24:15.524456 31019 net.cpp:150] Setting up conv4a
I0518 06:24:15.524495 31019 net.cpp:157] Top shape: 1 256 4 14 14 (200704)
I0518 06:24:15.524499 31019 net.cpp:165] Memory required for data: 206323712
I0518 06:24:15.524511 31019 layer_factory.hpp:77] Creating layer relu4a
I0518 06:24:15.524523 31019 net.cpp:100] Creating Layer relu4a
I0518 06:24:15.524528 31019 net.cpp:434] relu4a <- conv4a
I0518 06:24:15.524544 31019 net.cpp:395] relu4a -> conv4a (in-place)
I0518 06:24:15.524762 31019 net.cpp:150] Setting up relu4a
I0518 06:24:15.524775 31019 net.cpp:157] Top shape: 1 256 4 14 14 (200704)
I0518 06:24:15.524778 31019 net.cpp:165] Memory required for data: 207126528
I0518 06:24:15.524781 31019 layer_factory.hpp:77] Creating layer pool4
I0518 06:24:15.524796 31019 net.cpp:100] Creating Layer pool4
I0518 06:24:15.524801 31019 net.cpp:434] pool4 <- conv4a
I0518 06:24:15.524809 31019 net.cpp:408] pool4 -> pool4
I0518 06:24:15.525724 31019 net.cpp:150] Setting up pool4
I0518 06:24:15.525740 31019 net.cpp:157] Top shape: 1 256 2 7 7 (25088)
I0518 06:24:15.525744 31019 net.cpp:165] Memory required for data: 207226880
I0518 06:24:15.525748 31019 layer_factory.hpp:77] Creating layer conv5a
I0518 06:24:15.525761 31019 net.cpp:100] Creating Layer conv5a
I0518 06:24:15.525765 31019 net.cpp:434] conv5a <- pool4
I0518 06:24:15.525774 31019 net.cpp:408] conv5a -> conv5a
I0518 06:24:15.607802 31019 net.cpp:150] Setting up conv5a
I0518 06:24:15.607846 31019 net.cpp:157] Top shape: 1 256 2 7 7 (25088)
I0518 06:24:15.607853 31019 net.cpp:165] Memory required for data: 207327232
I0518 06:24:15.607884 31019 layer_factory.hpp:77] Creating layer relu5a
I0518 06:24:15.607899 31019 net.cpp:100] Creating Layer relu5a
I0518 06:24:15.607908 31019 net.cpp:434] relu5a <- conv5a
I0518 06:24:15.607918 31019 net.cpp:395] relu5a -> conv5a (in-place)
I0518 06:24:15.608281 31019 net.cpp:150] Setting up relu5a
I0518 06:24:15.608319 31019 net.cpp:157] Top shape: 1 256 2 7 7 (25088)
I0518 06:24:15.608325 31019 net.cpp:165] Memory required for data: 207427584
I0518 06:24:15.608331 31019 layer_factory.hpp:77] Creating layer pool5
I0518 06:24:15.608346 31019 net.cpp:100] Creating Layer pool5
I0518 06:24:15.608355 31019 net.cpp:434] pool5 <- conv5a
I0518 06:24:15.608364 31019 net.cpp:408] pool5 -> pool5
I0518 06:24:15.610101 31019 net.cpp:150] Setting up pool5
I0518 06:24:15.610126 31019 net.cpp:157] Top shape: 1 256 1 4 4 (4096)
I0518 06:24:15.610132 31019 net.cpp:165] Memory required for data: 207443968
I0518 06:24:15.610138 31019 layer_factory.hpp:77] Creating layer fc6
I0518 06:24:15.610160 31019 net.cpp:100] Creating Layer fc6
I0518 06:24:15.610177 31019 net.cpp:434] fc6 <- pool5
I0518 06:24:15.610189 31019 net.cpp:408] fc6 -> fc6
I0518 06:24:15.952929 31019 net.cpp:150] Setting up fc6
I0518 06:24:15.952968 31019 net.cpp:157] Top shape: 1 2048 (2048)
I0518 06:24:15.952973 31019 net.cpp:165] Memory required for data: 207452160
I0518 06:24:15.952986 31019 layer_factory.hpp:77] Creating layer relu6
I0518 06:24:15.952999 31019 net.cpp:100] Creating Layer relu6
I0518 06:24:15.953004 31019 net.cpp:434] relu6 <- fc6
I0518 06:24:15.953011 31019 net.cpp:395] relu6 -> fc6 (in-place)
I0518 06:24:15.953330 31019 net.cpp:150] Setting up relu6
I0518 06:24:15.953341 31019 net.cpp:157] Top shape: 1 2048 (2048)
I0518 06:24:15.953344 31019 net.cpp:165] Memory required for data: 207460352
I0518 06:24:15.953347 31019 layer_factory.hpp:77] Creating layer drop6
I0518 06:24:15.953357 31019 net.cpp:100] Creating Layer drop6
I0518 06:24:15.953361 31019 net.cpp:434] drop6 <- fc6
I0518 06:24:15.953366 31019 net.cpp:395] drop6 -> fc6 (in-place)
I0518 06:24:15.953402 31019 net.cpp:150] Setting up drop6
I0518 06:24:15.953409 31019 net.cpp:157] Top shape: 1 2048 (2048)
I0518 06:24:15.953413 31019 net.cpp:165] Memory required for data: 207468544
I0518 06:24:15.953415 31019 layer_factory.hpp:77] Creating layer fc7
I0518 06:24:15.953428 31019 net.cpp:100] Creating Layer fc7
I0518 06:24:15.953431 31019 net.cpp:434] fc7 <- fc6
I0518 06:24:15.953436 31019 net.cpp:408] fc7 -> fc7
I0518 06:24:16.094496 31019 net.cpp:150] Setting up fc7
I0518 06:24:16.094534 31019 net.cpp:157] Top shape: 1 2048 (2048)
I0518 06:24:16.094538 31019 net.cpp:165] Memory required for data: 207476736
I0518 06:24:16.094552 31019 layer_factory.hpp:77] Creating layer relu7
I0518 06:24:16.094563 31019 net.cpp:100] Creating Layer relu7
I0518 06:24:16.094568 31019 net.cpp:434] relu7 <- fc7
I0518 06:24:16.094576 31019 net.cpp:395] relu7 -> fc7 (in-place)
I0518 06:24:16.094877 31019 net.cpp:150] Setting up relu7
I0518 06:24:16.094888 31019 net.cpp:157] Top shape: 1 2048 (2048)
I0518 06:24:16.094892 31019 net.cpp:165] Memory required for data: 207484928
I0518 06:24:16.094895 31019 layer_factory.hpp:77] Creating layer drop7
I0518 06:24:16.094914 31019 net.cpp:100] Creating Layer drop7
I0518 06:24:16.094918 31019 net.cpp:434] drop7 <- fc7
I0518 06:24:16.094925 31019 net.cpp:395] drop7 -> fc7 (in-place)
I0518 06:24:16.094961 31019 net.cpp:150] Setting up drop7
I0518 06:24:16.094969 31019 net.cpp:157] Top shape: 1 2048 (2048)
I0518 06:24:16.094972 31019 net.cpp:165] Memory required for data: 207493120
I0518 06:24:16.094975 31019 layer_factory.hpp:77] Creating layer mvn
I0518 06:24:16.095043 31019 net.cpp:100] Creating Layer mvn
I0518 06:24:16.095051 31019 net.cpp:434] mvn <- fc7
I0518 06:24:16.095062 31019 net.cpp:408] mvn -> fc7_norm
I0518 06:24:16.095296 31019 net.cpp:150] Setting up mvn
I0518 06:24:16.095307 31019 net.cpp:157] Top shape: 1 2048 (2048)
I0518 06:24:16.095311 31019 net.cpp:165] Memory required for data: 207501312
I0518 06:24:16.095315 31019 layer_factory.hpp:77] Creating layer fc7_norm_mvn_0_split
I0518 06:24:16.095321 31019 net.cpp:100] Creating Layer fc7_norm_mvn_0_split
I0518 06:24:16.095325 31019 net.cpp:434] fc7_norm_mvn_0_split <- fc7_norm
I0518 06:24:16.095332 31019 net.cpp:408] fc7_norm_mvn_0_split -> fc7_norm_mvn_0_split_0
I0518 06:24:16.095338 31019 net.cpp:408] fc7_norm_mvn_0_split -> fc7_norm_mvn_0_split_1
I0518 06:24:16.095407 31019 net.cpp:150] Setting up fc7_norm_mvn_0_split
I0518 06:24:16.095414 31019 net.cpp:157] Top shape: 1 2048 (2048)
I0518 06:24:16.095418 31019 net.cpp:157] Top shape: 1 2048 (2048)
I0518 06:24:16.095422 31019 net.cpp:165] Memory required for data: 207517696
I0518 06:24:16.095424 31019 layer_factory.hpp:77] Creating layer conv1a_pos
I0518 06:24:16.095435 31019 net.cpp:100] Creating Layer conv1a_pos
I0518 06:24:16.095441 31019 net.cpp:434] conv1a_pos <- positive
I0518 06:24:16.095448 31019 net.cpp:408] conv1a_pos -> conv1a_pos
I0518 06:24:16.098639 31019 net.cpp:150] Setting up conv1a_pos
I0518 06:24:16.098659 31019 net.cpp:157] Top shape: 1 64 16 112 112 (12845056)
I0518 06:24:16.098664 31019 net.cpp:165] Memory required for data: 258897920
I0518 06:24:16.098672 31019 net.cpp:493] Sharing parameters 'conv1a_w' owned by layer 'conv1a', param index 0
I0518 06:24:16.098680 31019 net.cpp:493] Sharing parameters 'conv1a_b' owned by layer 'conv1a', param index 1
I0518 06:24:16.098685 31019 layer_factory.hpp:77] Creating layer relu1a_pos
I0518 06:24:16.098693 31019 net.cpp:100] Creating Layer relu1a_pos
I0518 06:24:16.098698 31019 net.cpp:434] relu1a_pos <- conv1a_pos
I0518 06:24:16.098709 31019 net.cpp:395] relu1a_pos -> conv1a_pos (in-place)
I0518 06:24:16.098958 31019 net.cpp:150] Setting up relu1a_pos
I0518 06:24:16.098971 31019 net.cpp:157] Top shape: 1 64 16 112 112 (12845056)
I0518 06:24:16.098975 31019 net.cpp:165] Memory required for data: 310278144
I0518 06:24:16.098978 31019 layer_factory.hpp:77] Creating layer pool1_pos
I0518 06:24:16.098987 31019 net.cpp:100] Creating Layer pool1_pos
I0518 06:24:16.098991 31019 net.cpp:434] pool1_pos <- conv1a_pos
I0518 06:24:16.098997 31019 net.cpp:408] pool1_pos -> pool1_pos
I0518 06:24:16.100095 31019 net.cpp:150] Setting up pool1_pos
I0518 06:24:16.100111 31019 net.cpp:157] Top shape: 1 64 16 56 56 (3211264)
I0518 06:24:16.100113 31019 net.cpp:165] Memory required for data: 323123200
I0518 06:24:16.100117 31019 layer_factory.hpp:77] Creating layer conv2a_pos
I0518 06:24:16.100136 31019 net.cpp:100] Creating Layer conv2a_pos
I0518 06:24:16.100142 31019 net.cpp:434] conv2a_pos <- pool1_pos
I0518 06:24:16.100150 31019 net.cpp:408] conv2a_pos -> conv2a_pos
I0518 06:24:16.110133 31019 net.cpp:150] Setting up conv2a_pos
I0518 06:24:16.110174 31019 net.cpp:157] Top shape: 1 128 16 56 56 (6422528)
I0518 06:24:16.110183 31019 net.cpp:165] Memory required for data: 348813312
I0518 06:24:16.110203 31019 net.cpp:493] Sharing parameters 'conv2a_w' owned by layer 'conv2a', param index 0
I0518 06:24:16.110213 31019 net.cpp:493] Sharing parameters 'conv2a_b' owned by layer 'conv2a', param index 1
I0518 06:24:16.110219 31019 layer_factory.hpp:77] Creating layer relu2a_pos
I0518 06:24:16.110240 31019 net.cpp:100] Creating Layer relu2a_pos
I0518 06:24:16.110250 31019 net.cpp:434] relu2a_pos <- conv2a_pos
I0518 06:24:16.110265 31019 net.cpp:395] relu2a_pos -> conv2a_pos (in-place)
I0518 06:24:16.110653 31019 net.cpp:150] Setting up relu2a_pos
I0518 06:24:16.110671 31019 net.cpp:157] Top shape: 1 128 16 56 56 (6422528)
I0518 06:24:16.110677 31019 net.cpp:165] Memory required for data: 374503424
I0518 06:24:16.110682 31019 layer_factory.hpp:77] Creating layer pool2_pos
I0518 06:24:16.110697 31019 net.cpp:100] Creating Layer pool2_pos
I0518 06:24:16.110703 31019 net.cpp:434] pool2_pos <- conv2a_pos
I0518 06:24:16.110713 31019 net.cpp:408] pool2_pos -> pool2_pos
I0518 06:24:16.111199 31019 net.cpp:150] Setting up pool2_pos
I0518 06:24:16.111227 31019 net.cpp:157] Top shape: 1 128 8 28 28 (802816)
I0518 06:24:16.111234 31019 net.cpp:165] Memory required for data: 377714688
I0518 06:24:16.111241 31019 layer_factory.hpp:77] Creating layer conv3a_pos
I0518 06:24:16.111263 31019 net.cpp:100] Creating Layer conv3a_pos
I0518 06:24:16.111269 31019 net.cpp:434] conv3a_pos <- pool2_pos
I0518 06:24:16.111280 31019 net.cpp:408] conv3a_pos -> conv3a_pos
I0518 06:24:16.162458 31019 net.cpp:150] Setting up conv3a_pos
I0518 06:24:16.162503 31019 net.cpp:157] Top shape: 1 256 8 28 28 (1605632)
I0518 06:24:16.162541 31019 net.cpp:165] Memory required for data: 384137216
I0518 06:24:16.162551 31019 net.cpp:493] Sharing parameters 'conv3a_w' owned by layer 'conv3a', param index 0
I0518 06:24:16.162559 31019 net.cpp:493] Sharing parameters 'conv3a_b' owned by layer 'conv3a', param index 1
I0518 06:24:16.162564 31019 layer_factory.hpp:77] Creating layer relu3a_pos
I0518 06:24:16.162575 31019 net.cpp:100] Creating Layer relu3a_pos
I0518 06:24:16.162583 31019 net.cpp:434] relu3a_pos <- conv3a_pos
I0518 06:24:16.162591 31019 net.cpp:395] relu3a_pos -> conv3a_pos (in-place)
I0518 06:24:16.162935 31019 net.cpp:150] Setting up relu3a_pos
I0518 06:24:16.162951 31019 net.cpp:157] Top shape: 1 256 8 28 28 (1605632)
I0518 06:24:16.162956 31019 net.cpp:165] Memory required for data: 390559744
I0518 06:24:16.162961 31019 layer_factory.hpp:77] Creating layer pool3_pos
I0518 06:24:16.162976 31019 net.cpp:100] Creating Layer pool3_pos
I0518 06:24:16.162981 31019 net.cpp:434] pool3_pos <- conv3a_pos
I0518 06:24:16.162991 31019 net.cpp:408] pool3_pos -> pool3_pos
I0518 06:24:16.164440 31019 net.cpp:150] Setting up pool3_pos
I0518 06:24:16.164460 31019 net.cpp:157] Top shape: 1 256 4 14 14 (200704)
I0518 06:24:16.164469 31019 net.cpp:165] Memory required for data: 391362560
I0518 06:24:16.164474 31019 layer_factory.hpp:77] Creating layer conv4a_pos
I0518 06:24:16.164489 31019 net.cpp:100] Creating Layer conv4a_pos
I0518 06:24:16.164495 31019 net.cpp:434] conv4a_pos <- pool3_pos
I0518 06:24:16.164512 31019 net.cpp:408] conv4a_pos -> conv4a_pos
I0518 06:24:16.248044 31019 net.cpp:150] Setting up conv4a_pos
I0518 06:24:16.248086 31019 net.cpp:157] Top shape: 1 256 4 14 14 (200704)
I0518 06:24:16.248091 31019 net.cpp:165] Memory required for data: 392165376
I0518 06:24:16.248100 31019 net.cpp:493] Sharing parameters 'conv4a_w' owned by layer 'conv4a', param index 0
I0518 06:24:16.248106 31019 net.cpp:493] Sharing parameters 'conv4a_b' owned by layer 'conv4a', param index 1
I0518 06:24:16.248111 31019 layer_factory.hpp:77] Creating layer relu4a_pos
I0518 06:24:16.248121 31019 net.cpp:100] Creating Layer relu4a_pos
I0518 06:24:16.248127 31019 net.cpp:434] relu4a_pos <- conv4a_pos
I0518 06:24:16.248134 31019 net.cpp:395] relu4a_pos -> conv4a_pos (in-place)
I0518 06:24:16.249290 31019 net.cpp:150] Setting up relu4a_pos
I0518 06:24:16.249306 31019 net.cpp:157] Top shape: 1 256 4 14 14 (200704)
I0518 06:24:16.249318 31019 net.cpp:165] Memory required for data: 392968192
I0518 06:24:16.249322 31019 layer_factory.hpp:77] Creating layer pool4_pos
I0518 06:24:16.249332 31019 net.cpp:100] Creating Layer pool4_pos
I0518 06:24:16.249336 31019 net.cpp:434] pool4_pos <- conv4a_pos
I0518 06:24:16.249346 31019 net.cpp:408] pool4_pos -> pool4_pos
I0518 06:24:16.249624 31019 net.cpp:150] Setting up pool4_pos
I0518 06:24:16.249635 31019 net.cpp:157] Top shape: 1 256 2 7 7 (25088)
I0518 06:24:16.249639 31019 net.cpp:165] Memory required for data: 393068544
I0518 06:24:16.249644 31019 layer_factory.hpp:77] Creating layer conv5a_pos
I0518 06:24:16.249655 31019 net.cpp:100] Creating Layer conv5a_pos
I0518 06:24:16.249660 31019 net.cpp:434] conv5a_pos <- pool4_pos
I0518 06:24:16.249668 31019 net.cpp:408] conv5a_pos -> conv5a_pos
I0518 06:24:16.318828 31019 net.cpp:150] Setting up conv5a_pos
I0518 06:24:16.318878 31019 net.cpp:157] Top shape: 1 256 2 7 7 (25088)
I0518 06:24:16.318886 31019 net.cpp:165] Memory required for data: 393168896
I0518 06:24:16.318897 31019 net.cpp:493] Sharing parameters 'conv5a_w' owned by layer 'conv5a', param index 0
I0518 06:24:16.318935 31019 net.cpp:493] Sharing parameters 'conv5a_b' owned by layer 'conv5a', param index 1
I0518 06:24:16.318943 31019 layer_factory.hpp:77] Creating layer relu5a_pos
I0518 06:24:16.318958 31019 net.cpp:100] Creating Layer relu5a_pos
I0518 06:24:16.318966 31019 net.cpp:434] relu5a_pos <- conv5a_pos
I0518 06:24:16.318982 31019 net.cpp:395] relu5a_pos -> conv5a_pos (in-place)
I0518 06:24:16.319375 31019 net.cpp:150] Setting up relu5a_pos
I0518 06:24:16.319396 31019 net.cpp:157] Top shape: 1 256 2 7 7 (25088)
I0518 06:24:16.319429 31019 net.cpp:165] Memory required for data: 393269248
I0518 06:24:16.319437 31019 layer_factory.hpp:77] Creating layer pool5_pos
I0518 06:24:16.319450 31019 net.cpp:100] Creating Layer pool5_pos
I0518 06:24:16.319458 31019 net.cpp:434] pool5_pos <- conv5a_pos
I0518 06:24:16.319471 31019 net.cpp:408] pool5_pos -> pool5_pos
I0518 06:24:16.319967 31019 net.cpp:150] Setting up pool5_pos
I0518 06:24:16.319985 31019 net.cpp:157] Top shape: 1 256 1 4 4 (4096)
I0518 06:24:16.319993 31019 net.cpp:165] Memory required for data: 393285632
I0518 06:24:16.319998 31019 layer_factory.hpp:77] Creating layer fc6_pos
I0518 06:24:16.320016 31019 net.cpp:100] Creating Layer fc6_pos
I0518 06:24:16.320024 31019 net.cpp:434] fc6_pos <- pool5_pos
I0518 06:24:16.320039 31019 net.cpp:408] fc6_pos -> fc6_pos
I0518 06:24:16.665472 31019 net.cpp:150] Setting up fc6_pos
I0518 06:24:16.665510 31019 net.cpp:157] Top shape: 1 2048 (2048)
I0518 06:24:16.665515 31019 net.cpp:165] Memory required for data: 393293824
I0518 06:24:16.665524 31019 net.cpp:493] Sharing parameters 'fc6_w' owned by layer 'fc6', param index 0
I0518 06:24:16.665530 31019 net.cpp:493] Sharing parameters 'fc6_b' owned by layer 'fc6', param index 1
I0518 06:24:16.665535 31019 layer_factory.hpp:77] Creating layer relu6_pos
I0518 06:24:16.665545 31019 net.cpp:100] Creating Layer relu6_pos
I0518 06:24:16.665551 31019 net.cpp:434] relu6_pos <- fc6_pos
I0518 06:24:16.665560 31019 net.cpp:395] relu6_pos -> fc6_pos (in-place)
I0518 06:24:16.666834 31019 net.cpp:150] Setting up relu6_pos
I0518 06:24:16.666849 31019 net.cpp:157] Top shape: 1 2048 (2048)
I0518 06:24:16.666852 31019 net.cpp:165] Memory required for data: 393302016
I0518 06:24:16.666857 31019 layer_factory.hpp:77] Creating layer drop6_pos
I0518 06:24:16.666864 31019 net.cpp:100] Creating Layer drop6_pos
I0518 06:24:16.666868 31019 net.cpp:434] drop6_pos <- fc6_pos
I0518 06:24:16.666875 31019 net.cpp:395] drop6_pos -> fc6_pos (in-place)
I0518 06:24:16.666920 31019 net.cpp:150] Setting up drop6_pos
I0518 06:24:16.666927 31019 net.cpp:157] Top shape: 1 2048 (2048)
I0518 06:24:16.666940 31019 net.cpp:165] Memory required for data: 393310208
I0518 06:24:16.666944 31019 layer_factory.hpp:77] Creating layer fc7_pos
I0518 06:24:16.666952 31019 net.cpp:100] Creating Layer fc7_pos
I0518 06:24:16.666956 31019 net.cpp:434] fc7_pos <- fc6_pos
I0518 06:24:16.666967 31019 net.cpp:408] fc7_pos -> fc7_pos
I0518 06:24:16.809695 31019 net.cpp:150] Setting up fc7_pos
I0518 06:24:16.809736 31019 net.cpp:157] Top shape: 1 2048 (2048)
I0518 06:24:16.809741 31019 net.cpp:165] Memory required for data: 393318400
I0518 06:24:16.809748 31019 net.cpp:493] Sharing parameters 'fc7_w' owned by layer 'fc7', param index 0
I0518 06:24:16.809756 31019 net.cpp:493] Sharing parameters 'fc7_b' owned by layer 'fc7', param index 1
I0518 06:24:16.809761 31019 layer_factory.hpp:77] Creating layer relu7_pos
I0518 06:24:16.809772 31019 net.cpp:100] Creating Layer relu7_pos
I0518 06:24:16.809777 31019 net.cpp:434] relu7_pos <- fc7_pos
I0518 06:24:16.809785 31019 net.cpp:395] relu7_pos -> fc7_pos (in-place)
I0518 06:24:16.810108 31019 net.cpp:150] Setting up relu7_pos
I0518 06:24:16.810120 31019 net.cpp:157] Top shape: 1 2048 (2048)
I0518 06:24:16.810125 31019 net.cpp:165] Memory required for data: 393326592
I0518 06:24:16.810129 31019 layer_factory.hpp:77] Creating layer drop7_pos
I0518 06:24:16.810139 31019 net.cpp:100] Creating Layer drop7_pos
I0518 06:24:16.810143 31019 net.cpp:434] drop7_pos <- fc7_pos
I0518 06:24:16.810148 31019 net.cpp:395] drop7_pos -> fc7_pos (in-place)
I0518 06:24:16.810184 31019 net.cpp:150] Setting up drop7_pos
I0518 06:24:16.810192 31019 net.cpp:157] Top shape: 1 2048 (2048)
I0518 06:24:16.810195 31019 net.cpp:165] Memory required for data: 393334784
I0518 06:24:16.810199 31019 layer_factory.hpp:77] Creating layer mvn_pos
I0518 06:24:16.810262 31019 net.cpp:100] Creating Layer mvn_pos
I0518 06:24:16.810269 31019 net.cpp:434] mvn_pos <- fc7_pos
I0518 06:24:16.810276 31019 net.cpp:408] mvn_pos -> fc7_pos_norm
I0518 06:24:16.810503 31019 net.cpp:150] Setting up mvn_pos
I0518 06:24:16.810514 31019 net.cpp:157] Top shape: 1 2048 (2048)
I0518 06:24:16.810518 31019 net.cpp:165] Memory required for data: 393342976
I0518 06:24:16.810521 31019 layer_factory.hpp:77] Creating layer fc7_pos_norm_mvn_pos_0_split
I0518 06:24:16.810530 31019 net.cpp:100] Creating Layer fc7_pos_norm_mvn_pos_0_split
I0518 06:24:16.810537 31019 net.cpp:434] fc7_pos_norm_mvn_pos_0_split <- fc7_pos_norm
I0518 06:24:16.810545 31019 net.cpp:408] fc7_pos_norm_mvn_pos_0_split -> fc7_pos_norm_mvn_pos_0_split_0
I0518 06:24:16.810552 31019 net.cpp:408] fc7_pos_norm_mvn_pos_0_split -> fc7_pos_norm_mvn_pos_0_split_1
I0518 06:24:16.810606 31019 net.cpp:150] Setting up fc7_pos_norm_mvn_pos_0_split
I0518 06:24:16.810612 31019 net.cpp:157] Top shape: 1 2048 (2048)
I0518 06:24:16.810617 31019 net.cpp:157] Top shape: 1 2048 (2048)
I0518 06:24:16.810621 31019 net.cpp:165] Memory required for data: 393359360
I0518 06:24:16.810626 31019 layer_factory.hpp:77] Creating layer conv1a_neg
I0518 06:24:16.810645 31019 net.cpp:100] Creating Layer conv1a_neg
I0518 06:24:16.810650 31019 net.cpp:434] conv1a_neg <- negative
I0518 06:24:16.810658 31019 net.cpp:408] conv1a_neg -> conv1a_neg
I0518 06:24:16.817051 31019 net.cpp:150] Setting up conv1a_neg
I0518 06:24:16.817075 31019 net.cpp:157] Top shape: 1 64 16 112 112 (12845056)
I0518 06:24:16.817078 31019 net.cpp:165] Memory required for data: 444739584
I0518 06:24:16.817085 31019 net.cpp:493] Sharing parameters 'conv1a_w' owned by layer 'conv1a', param index 0
I0518 06:24:16.817090 31019 net.cpp:493] Sharing parameters 'conv1a_b' owned by layer 'conv1a', param index 1
I0518 06:24:16.817095 31019 layer_factory.hpp:77] Creating layer relu1a_neg
I0518 06:24:16.817108 31019 net.cpp:100] Creating Layer relu1a_neg
I0518 06:24:16.817113 31019 net.cpp:434] relu1a_neg <- conv1a_neg
I0518 06:24:16.817119 31019 net.cpp:395] relu1a_neg -> conv1a_neg (in-place)
I0518 06:24:16.817349 31019 net.cpp:150] Setting up relu1a_neg
I0518 06:24:16.817361 31019 net.cpp:157] Top shape: 1 64 16 112 112 (12845056)
I0518 06:24:16.817365 31019 net.cpp:165] Memory required for data: 496119808
I0518 06:24:16.817369 31019 layer_factory.hpp:77] Creating layer pool1_neg
I0518 06:24:16.817379 31019 net.cpp:100] Creating Layer pool1_neg
I0518 06:24:16.817386 31019 net.cpp:434] pool1_neg <- conv1a_neg
I0518 06:24:16.817394 31019 net.cpp:408] pool1_neg -> pool1_neg
I0518 06:24:16.817663 31019 net.cpp:150] Setting up pool1_neg
I0518 06:24:16.817674 31019 net.cpp:157] Top shape: 1 64 16 56 56 (3211264)
I0518 06:24:16.817678 31019 net.cpp:165] Memory required for data: 508964864
I0518 06:24:16.817682 31019 layer_factory.hpp:77] Creating layer conv2a_neg
I0518 06:24:16.817695 31019 net.cpp:100] Creating Layer conv2a_neg
I0518 06:24:16.817703 31019 net.cpp:434] conv2a_neg <- pool1_neg
I0518 06:24:16.817713 31019 net.cpp:408] conv2a_neg -> conv2a_neg
I0518 06:24:16.826684 31019 net.cpp:150] Setting up conv2a_neg
I0518 06:24:16.826711 31019 net.cpp:157] Top shape: 1 128 16 56 56 (6422528)
I0518 06:24:16.826715 31019 net.cpp:165] Memory required for data: 534654976
I0518 06:24:16.826722 31019 net.cpp:493] Sharing parameters 'conv2a_w' owned by layer 'conv2a', param index 0
I0518 06:24:16.826728 31019 net.cpp:493] Sharing parameters 'conv2a_b' owned by layer 'conv2a', param index 1
I0518 06:24:16.826732 31019 layer_factory.hpp:77] Creating layer relu2a_neg
I0518 06:24:16.826742 31019 net.cpp:100] Creating Layer relu2a_neg
I0518 06:24:16.826748 31019 net.cpp:434] relu2a_neg <- conv2a_neg
I0518 06:24:16.826755 31019 net.cpp:395] relu2a_neg -> conv2a_neg (in-place)
I0518 06:24:16.827867 31019 net.cpp:150] Setting up relu2a_neg
I0518 06:24:16.827883 31019 net.cpp:157] Top shape: 1 128 16 56 56 (6422528)
I0518 06:24:16.827888 31019 net.cpp:165] Memory required for data: 560345088
I0518 06:24:16.827891 31019 layer_factory.hpp:77] Creating layer pool2_neg
I0518 06:24:16.827903 31019 net.cpp:100] Creating Layer pool2_neg
I0518 06:24:16.827906 31019 net.cpp:434] pool2_neg <- conv2a_neg
I0518 06:24:16.827945 31019 net.cpp:408] pool2_neg -> pool2_neg
I0518 06:24:16.828210 31019 net.cpp:150] Setting up pool2_neg
I0518 06:24:16.828222 31019 net.cpp:157] Top shape: 1 128 8 28 28 (802816)
I0518 06:24:16.828227 31019 net.cpp:165] Memory required for data: 563556352
I0518 06:24:16.828230 31019 layer_factory.hpp:77] Creating layer conv3a_neg
I0518 06:24:16.828243 31019 net.cpp:100] Creating Layer conv3a_neg
I0518 06:24:16.828249 31019 net.cpp:434] conv3a_neg <- pool2_neg
I0518 06:24:16.828259 31019 net.cpp:408] conv3a_neg -> conv3a_neg
I0518 06:24:16.884368 31019 net.cpp:150] Setting up conv3a_neg
I0518 06:24:16.884418 31019 net.cpp:157] Top shape: 1 256 8 28 28 (1605632)
I0518 06:24:16.884424 31019 net.cpp:165] Memory required for data: 569978880
I0518 06:24:16.884446 31019 net.cpp:493] Sharing parameters 'conv3a_w' owned by layer 'conv3a', param index 0
I0518 06:24:16.884464 31019 net.cpp:493] Sharing parameters 'conv3a_b' owned by layer 'conv3a', param index 1
I0518 06:24:16.884470 31019 layer_factory.hpp:77] Creating layer relu3a_neg
I0518 06:24:16.884485 31019 net.cpp:100] Creating Layer relu3a_neg
I0518 06:24:16.884501 31019 net.cpp:434] relu3a_neg <- conv3a_neg
I0518 06:24:16.884511 31019 net.cpp:395] relu3a_neg -> conv3a_neg (in-place)
I0518 06:24:16.884825 31019 net.cpp:150] Setting up relu3a_neg
I0518 06:24:16.884840 31019 net.cpp:157] Top shape: 1 256 8 28 28 (1605632)
I0518 06:24:16.884845 31019 net.cpp:165] Memory required for data: 576401408
I0518 06:24:16.884850 31019 layer_factory.hpp:77] Creating layer pool3_neg
I0518 06:24:16.884865 31019 net.cpp:100] Creating Layer pool3_neg
I0518 06:24:16.884871 31019 net.cpp:434] pool3_neg <- conv3a_neg
I0518 06:24:16.884881 31019 net.cpp:408] pool3_neg -> pool3_neg
I0518 06:24:16.885267 31019 net.cpp:150] Setting up pool3_neg
I0518 06:24:16.885283 31019 net.cpp:157] Top shape: 1 256 4 14 14 (200704)
I0518 06:24:16.885295 31019 net.cpp:165] Memory required for data: 577204224
I0518 06:24:16.885300 31019 layer_factory.hpp:77] Creating layer conv4a_neg
I0518 06:24:16.885315 31019 net.cpp:100] Creating Layer conv4a_neg
I0518 06:24:16.885321 31019 net.cpp:434] conv4a_neg <- pool3_neg
I0518 06:24:16.885339 31019 net.cpp:408] conv4a_neg -> conv4a_neg
I0518 06:24:16.961546 31019 net.cpp:150] Setting up conv4a_neg
I0518 06:24:16.961587 31019 net.cpp:157] Top shape: 1 256 4 14 14 (200704)
I0518 06:24:16.961591 31019 net.cpp:165] Memory required for data: 578007040
I0518 06:24:16.961599 31019 net.cpp:493] Sharing parameters 'conv4a_w' owned by layer 'conv4a', param index 0
I0518 06:24:16.961606 31019 net.cpp:493] Sharing parameters 'conv4a_b' owned by layer 'conv4a', param index 1
I0518 06:24:16.961609 31019 layer_factory.hpp:77] Creating layer relu4a_neg
I0518 06:24:16.961622 31019 net.cpp:100] Creating Layer relu4a_neg
I0518 06:24:16.961628 31019 net.cpp:434] relu4a_neg <- conv4a_neg
I0518 06:24:16.961637 31019 net.cpp:395] relu4a_neg -> conv4a_neg (in-place)
I0518 06:24:16.961855 31019 net.cpp:150] Setting up relu4a_neg
I0518 06:24:16.961869 31019 net.cpp:157] Top shape: 1 256 4 14 14 (200704)
I0518 06:24:16.961874 31019 net.cpp:165] Memory required for data: 578809856
I0518 06:24:16.961876 31019 layer_factory.hpp:77] Creating layer pool4_neg
I0518 06:24:16.961886 31019 net.cpp:100] Creating Layer pool4_neg
I0518 06:24:16.961890 31019 net.cpp:434] pool4_neg <- conv4a_neg
I0518 06:24:16.961899 31019 net.cpp:408] pool4_neg -> pool4_neg
I0518 06:24:16.964365 31019 net.cpp:150] Setting up pool4_neg
I0518 06:24:16.964392 31019 net.cpp:157] Top shape: 1 256 2 7 7 (25088)
I0518 06:24:16.964396 31019 net.cpp:165] Memory required for data: 578910208
I0518 06:24:16.964401 31019 layer_factory.hpp:77] Creating layer conv5a_neg
I0518 06:24:16.964414 31019 net.cpp:100] Creating Layer conv5a_neg
I0518 06:24:16.964418 31019 net.cpp:434] conv5a_neg <- pool4_neg
I0518 06:24:16.964427 31019 net.cpp:408] conv5a_neg -> conv5a_neg
I0518 06:24:17.035064 31019 net.cpp:150] Setting up conv5a_neg
I0518 06:24:17.035101 31019 net.cpp:157] Top shape: 1 256 2 7 7 (25088)
I0518 06:24:17.035131 31019 net.cpp:165] Memory required for data: 579010560
I0518 06:24:17.035140 31019 net.cpp:493] Sharing parameters 'conv5a_w' owned by layer 'conv5a', param index 0
I0518 06:24:17.035146 31019 net.cpp:493] Sharing parameters 'conv5a_b' owned by layer 'conv5a', param index 1
I0518 06:24:17.035151 31019 layer_factory.hpp:77] Creating layer relu5a_neg
I0518 06:24:17.035176 31019 net.cpp:100] Creating Layer relu5a_neg
I0518 06:24:17.035184 31019 net.cpp:434] relu5a_neg <- conv5a_neg
I0518 06:24:17.035192 31019 net.cpp:395] relu5a_neg -> conv5a_neg (in-place)
I0518 06:24:17.035429 31019 net.cpp:150] Setting up relu5a_neg
I0518 06:24:17.035440 31019 net.cpp:157] Top shape: 1 256 2 7 7 (25088)
I0518 06:24:17.035444 31019 net.cpp:165] Memory required for data: 579110912
I0518 06:24:17.035449 31019 layer_factory.hpp:77] Creating layer pool5_neg
I0518 06:24:17.035459 31019 net.cpp:100] Creating Layer pool5_neg
I0518 06:24:17.035471 31019 net.cpp:434] pool5_neg <- conv5a_neg
I0518 06:24:17.035477 31019 net.cpp:408] pool5_neg -> pool5_neg
I0518 06:24:17.035742 31019 net.cpp:150] Setting up pool5_neg
I0518 06:24:17.035754 31019 net.cpp:157] Top shape: 1 256 1 4 4 (4096)
I0518 06:24:17.035758 31019 net.cpp:165] Memory required for data: 579127296
I0518 06:24:17.035760 31019 layer_factory.hpp:77] Creating layer fc6_neg
I0518 06:24:17.035769 31019 net.cpp:100] Creating Layer fc6_neg
I0518 06:24:17.035774 31019 net.cpp:434] fc6_neg <- pool5_neg
I0518 06:24:17.035784 31019 net.cpp:408] fc6_neg -> fc6_neg
I0518 06:24:17.368981 31019 net.cpp:150] Setting up fc6_neg
I0518 06:24:17.369021 31019 net.cpp:157] Top shape: 1 2048 (2048)
I0518 06:24:17.369026 31019 net.cpp:165] Memory required for data: 579135488
I0518 06:24:17.369035 31019 net.cpp:493] Sharing parameters 'fc6_w' owned by layer 'fc6', param index 0
I0518 06:24:17.369041 31019 net.cpp:493] Sharing parameters 'fc6_b' owned by layer 'fc6', param index 1
I0518 06:24:17.369046 31019 layer_factory.hpp:77] Creating layer relu6_neg
I0518 06:24:17.369058 31019 net.cpp:100] Creating Layer relu6_neg
I0518 06:24:17.369065 31019 net.cpp:434] relu6_neg <- fc6_neg
I0518 06:24:17.369079 31019 net.cpp:395] relu6_neg -> fc6_neg (in-place)
I0518 06:24:17.369452 31019 net.cpp:150] Setting up relu6_neg
I0518 06:24:17.369464 31019 net.cpp:157] Top shape: 1 2048 (2048)
I0518 06:24:17.369468 31019 net.cpp:165] Memory required for data: 579143680
I0518 06:24:17.369472 31019 layer_factory.hpp:77] Creating layer drop6_neg
I0518 06:24:17.369479 31019 net.cpp:100] Creating Layer drop6_neg
I0518 06:24:17.369482 31019 net.cpp:434] drop6_neg <- fc6_neg
I0518 06:24:17.369489 31019 net.cpp:395] drop6_neg -> fc6_neg (in-place)
I0518 06:24:17.369534 31019 net.cpp:150] Setting up drop6_neg
I0518 06:24:17.369541 31019 net.cpp:157] Top shape: 1 2048 (2048)
I0518 06:24:17.369544 31019 net.cpp:165] Memory required for data: 579151872
I0518 06:24:17.369547 31019 layer_factory.hpp:77] Creating layer fc7_neg
I0518 06:24:17.369557 31019 net.cpp:100] Creating Layer fc7_neg
I0518 06:24:17.369561 31019 net.cpp:434] fc7_neg <- fc6_neg
I0518 06:24:17.369568 31019 net.cpp:408] fc7_neg -> fc7_neg
I0518 06:24:17.512877 31019 net.cpp:150] Setting up fc7_neg
I0518 06:24:17.512929 31019 net.cpp:157] Top shape: 1 2048 (2048)
I0518 06:24:17.512934 31019 net.cpp:165] Memory required for data: 579160064
I0518 06:24:17.512953 31019 net.cpp:493] Sharing parameters 'fc7_w' owned by layer 'fc7', param index 0
I0518 06:24:17.512961 31019 net.cpp:493] Sharing parameters 'fc7_b' owned by layer 'fc7', param index 1
I0518 06:24:17.512967 31019 layer_factory.hpp:77] Creating layer relu7_neg
I0518 06:24:17.512979 31019 net.cpp:100] Creating Layer relu7_neg
I0518 06:24:17.512989 31019 net.cpp:434] relu7_neg <- fc7_neg
I0518 06:24:17.513001 31019 net.cpp:395] relu7_neg -> fc7_neg (in-place)
I0518 06:24:17.514349 31019 net.cpp:150] Setting up relu7_neg
I0518 06:24:17.514364 31019 net.cpp:157] Top shape: 1 2048 (2048)
I0518 06:24:17.514369 31019 net.cpp:165] Memory required for data: 579168256
I0518 06:24:17.514374 31019 layer_factory.hpp:77] Creating layer drop7_neg
I0518 06:24:17.514405 31019 net.cpp:100] Creating Layer drop7_neg
I0518 06:24:17.514410 31019 net.cpp:434] drop7_neg <- fc7_neg
I0518 06:24:17.514417 31019 net.cpp:395] drop7_neg -> fc7_neg (in-place)
I0518 06:24:17.514458 31019 net.cpp:150] Setting up drop7_neg
I0518 06:24:17.514467 31019 net.cpp:157] Top shape: 1 2048 (2048)
I0518 06:24:17.514470 31019 net.cpp:165] Memory required for data: 579176448
I0518 06:24:17.514474 31019 layer_factory.hpp:77] Creating layer mvn_neg
I0518 06:24:17.514590 31019 net.cpp:100] Creating Layer mvn_neg
I0518 06:24:17.514597 31019 net.cpp:434] mvn_neg <- fc7_neg
I0518 06:24:17.514603 31019 net.cpp:408] mvn_neg -> fc7_neg_norm
I0518 06:24:17.514842 31019 net.cpp:150] Setting up mvn_neg
I0518 06:24:17.514853 31019 net.cpp:157] Top shape: 1 2048 (2048)
I0518 06:24:17.514856 31019 net.cpp:165] Memory required for data: 579184640
I0518 06:24:17.514860 31019 layer_factory.hpp:77] Creating layer fc7_neg_norm_mvn_neg_0_split
I0518 06:24:17.514866 31019 net.cpp:100] Creating Layer fc7_neg_norm_mvn_neg_0_split
I0518 06:24:17.514870 31019 net.cpp:434] fc7_neg_norm_mvn_neg_0_split <- fc7_neg_norm
I0518 06:24:17.514878 31019 net.cpp:408] fc7_neg_norm_mvn_neg_0_split -> fc7_neg_norm_mvn_neg_0_split_0
I0518 06:24:17.514884 31019 net.cpp:408] fc7_neg_norm_mvn_neg_0_split -> fc7_neg_norm_mvn_neg_0_split_1
I0518 06:24:17.514950 31019 net.cpp:150] Setting up fc7_neg_norm_mvn_neg_0_split
I0518 06:24:17.514957 31019 net.cpp:157] Top shape: 1 2048 (2048)
I0518 06:24:17.514961 31019 net.cpp:157] Top shape: 1 2048 (2048)
I0518 06:24:17.514963 31019 net.cpp:165] Memory required for data: 579201024
I0518 06:24:17.514966 31019 layer_factory.hpp:77] Creating layer loss
I0518 06:24:17.514976 31019 net.cpp:100] Creating Layer loss
I0518 06:24:17.514979 31019 net.cpp:434] loss <- fc7_norm_mvn_0_split_0
I0518 06:24:17.514984 31019 net.cpp:434] loss <- fc7_pos_norm_mvn_pos_0_split_0
I0518 06:24:17.514988 31019 net.cpp:434] loss <- fc7_neg_norm_mvn_neg_0_split_0
…
