…
    mean_value: 65
    mean_value: 74
    mean_value: 92
    mean_value: 65
    mean_value: 74
    mean_value: 92
    mean_value: 65
    mean_value: 74
    mean_value: 92
    mean_value: 65
    mean_value: 74
    mean_value: 92
    mean_value: 65
    mean_value: 74
    mean_value: 92
    mean_value: 65
    mean_value: 74
    mean_value: 92
    mean_value: 65
    mean_value: 74
    mean_value: 92
    mean_value: 65
    mean_value: 74
    mean_value: 92
  }
  data_param {
    source: "/data/leo-data/Synthetic/LMDB/Triplets/test"
    batch_size: 10
    backend: LMDB
  }
}
layer {
  name: "slicer"
  type: "Slice"
  bottom: "triplet"
  top: "anchor_stacked"
  top: "positive_stacked"
  top: "negative_stacked"
  slice_param {
    slice_dim: 1
    slice_point: 48
    slice_point: 96
  }
}
layer {
  name: "reshape_anchor"
  type: "Reshape"
  bottom: "anchor_stacked"
  top: "anchor"
  reshape_param {
    shape {
      dim: 0
      dim: 3
      dim: 16
      dim: 112
      dim: 112
    }
  }
}
layer {
  name: "reshape_positive"
  type: "Reshape"
  bottom: "positive_stacked"
  top: "positive"
  reshape_param {
    shape {
      dim: 0
      dim: 3
      dim: 16
      dim: 112
      dim: 112
    }
  }
}
layer {
  name: "reshape_negative"
  type: "Reshape"
  bottom: "negative_stacked"
  top: "negative"
  reshape_param {
    shape {
      dim: 0
      dim: 3
      dim: 16
      dim: 112
      dim: 112
    }
  }
}
layer {
  name: "conv1a"
  type: "NdConvolution"
  bottom: "anchor"
  top: "conv1a"
  param {
    name: "conv1a_w"
    lr_mult: 1
    decay_mult: 1
  }
  param {
    name: "conv1a_b"
    lr_mult: 2
    decay_mult: 0
  }
  convolution_param {
    num_output: 64
    weight_filler {
      type: "gaussian"
      std: 0.01
    }
    bias_filler {
      type: "constant"
      value: 0
    }
    pad_shape {
      dim: 1
      dim: 1
      dim: 1
    }
    kernel_shape {
      dim: 3
      dim: 3
      dim: 3
    }
    stride_shape {
      dim: 1
      dim: 1
      dim: 1
    }
  }
}
layer {
  name: "relu1a"
  type: "ReLU"
  bottom: "conv1a"
  top: "conv1a"
}
layer {
  name: "pool1"
  type: "NdPooling"
  bottom: "conv1a"
  top: "pool1"
  pooling_param {
    pool: MAX
    kernel_shape {
      dim: 1
      dim: 2
      dim: 2
    }
    stride_shape {
      dim: 1
      dim: 2
      dim: 2
    }
  }
}
layer {
  name: "conv2a"
  type: "NdConvolution"
  bottom: "pool1"
  top: "conv2a"
  param {
    name: "conv2a_w"
    lr_mult: 1
    decay_mult: 1
  }
  param {
    name: "conv2a_b"
    lr_mult: 2
    decay_mult: 0
  }
  convolution_param {
    num_output: 128
    weight_filler {
      type: "gaussian"
      std: 0.01
    }
    bias_filler {
      type: "constant"
      value: 1
    }
    pad_shape {
      dim: 1
      dim: 1
      dim: 1
    }
    kernel_shape {
      dim: 3
      dim: 3
      dim: 3
    }
    stride_shape {
      dim: 1
      dim: 1
      dim: 1
    }
  }
}
layer {
  name: "relu2a"
  type: "ReLU"
  bottom: "conv2a"
  top: "conv2a"
}
layer {
  name: "pool2"
  type: "NdPooling"
  bottom: "conv2a"
  top: "pool2"
  pooling_param {
    pool: MAX
    kernel_shape {
      dim: 2
      dim: 2
      dim: 2
    }
    stride_shape {
      dim: 2
      dim: 2
      dim: 2
    }
  }
}
layer {
  name: "conv3a"
  type: "NdConvolution"
  bottom: "pool2"
  top: "conv3a"
  param {
    name: "conv3a_w"
    lr_mult: 1
    decay_mult: 1
  }
  param {
    name: "conv3a_b"
    lr_mult: 2
    decay_mult: 0
  }
  convolution_param {
    num_output: 256
    weight_filler {
      type: "gaussian"
      std: 0.01
    }
    bias_filler {
      type: "constant"
      value: 1
    }
    pad_shape {
      dim: 1
      dim: 1
      dim: 1
    }
    kernel_shape {
      dim: 3
      dim: 3
      dim: 3
    }
    stride_shape {
      dim: 1
      dim: 1
      dim: 1
    }
  }
}
layer {
  name: "relu3a"
  type: "ReLU"
  bottom: "conv3a"
  top: "conv3a"
}
layer {
  name: "pool3"
  type: "NdPooling"
  bottom: "conv3a"
  top: "pool3"
  pooling_param {
    pool: MAX
    kernel_shape {
      dim: 2
      dim: 2
      dim: 2
    }
    stride_shape {
      dim: 2
      dim: 2
      dim: 2
    }
  }
}
layer {
  name: "conv4a"
  type: "NdConvolution"
  bottom: "pool3"
  top: "conv4a"
  param {
    name: "conv4a_w"
    lr_mult: 1
    decay_mult: 1
  }
  param {
    name: "conv4a_b"
    lr_mult: 2
    decay_mult: 0
  }
  convolution_param {
    num_output: 256
    weight_filler {
      type: "gaussian"
      std: 0.01
    }
    bias_filler {
      type: "constant"
      value: 1
    }
    pad_shape {
      dim: 1
      dim: 1
      dim: 1
    }
    kernel_shape {
      dim: 3
      dim: 3
      dim: 3
    }
    stride_shape {
      dim: 1
      dim: 1
      dim: 1
    }
  }
}
layer {
  name: "relu4a"
  type: "ReLU"
  bottom: "conv4a"
  top: "conv4a"
}
layer {
  name: "pool4"
  type: "NdPooling"
  bottom: "conv4a"
  top: "pool4"
  pooling_param {
    pool: MAX
    kernel_shape {
      dim: 2
      dim: 2
      dim: 2
    }
    stride_shape {
      dim: 2
      dim: 2
      dim: 2
    }
  }
}
layer {
  name: "conv5a"
  type: "NdConvolution"
  bottom: "pool4"
  top: "conv5a"
  param {
    name: "conv5a_w"
    lr_mult: 1
    decay_mult: 1
  }
  param {
    name: "conv5a_b"
    lr_mult: 2
    decay_mult: 0
  }
  convolution_param {
    num_output: 256
    weight_filler {
      type: "gaussian"
      std: 0.01
    }
    bias_filler {
      type: "constant"
      value: 1
    }
    pad_shape {
      dim: 1
      dim: 1
      dim: 1
    }
    kernel_shape {
      dim: 3
      dim: 3
      dim: 3
    }
    stride_shape {
      dim: 1
      dim: 1
      dim: 1
    }
  }
}
layer {
  name: "relu5a"
  type: "ReLU"
  bottom: "conv5a"
  top: "conv5a"
}
layer {
  name: "pool5"
  type: "NdPooling"
  bottom: "conv5a"
  top: "pool5"
  pooling_param {
    pool: MAX
    kernel_shape {
      dim: 2
      dim: 2
      dim: 2
    }
    stride_shape {
      dim: 2
      dim: 2
      dim: 2
    }
  }
}
layer {
  name: "fc6"
  type: "InnerProduct"
  bottom: "pool5"
  top: "fc6"
  param {
    name: "fc6_w"
    lr_mult: 1
    decay_mult: 1
  }
  param {
    name: "fc6_b"
    lr_mult: 2
    decay_mult: 0
  }
  inner_product_param {
    num_output: 2048
    weight_filler {
      type: "gaussian"
      std: 0.005
    }
    bias_filler {
      type: "constant"
      value: 1
    }
  }
}
layer {
  name: "relu6"
  type: "ReLU"
  bottom: "fc6"
  top: "fc6"
}
layer {
  name: "drop6"
  type: "Dropout"
  bottom: "fc6"
  top: "fc6"
  dropout_param {
    dropout_ratio: 0.5
  }
}
layer {
  name: "fc7"
  type: "InnerProduct"
  bottom: "fc6"
  top: "fc7"
  param {
    name: "fc7_w"
    lr_mult: 1
    decay_mult: 1
  }
  param {
    name: "fc7_b"
    lr_mult: 2
    decay_mult: 0
  }
  inner_product_param {
    num_output: 2048
    weight_filler {
      type: "gaussian"
      std: 0.005
    }
    bias_filler {
      type: "constant"
      value: 1
    }
  }
}
layer {
  name: "relu7"
  type: "ReLU"
  bottom: "fc7"
  top: "fc7"
}
layer {
  name: "drop7"
  type: "Dropout"
  bottom: "fc7"
  top: "fc7"
  dropout_param {
    dropout_ratio: 0.5
  }
}
layer {
  name: "mvn"
  type: "Python"
  bottom: "fc7"
  top: "fc7_norm"
  python_param {
    module: "mvn"
    layer: "MVNLayer"
  }
}
layer {
  name: "conv1a_pos"
  type: "NdConvolution"
  bottom: "positive"
  top: "conv1a_pos"
  param {
    name: "conv1a_w"
    lr_mult: 1
    decay_mult: 1
  }
  param {
    name: "conv1a_b"
    lr_mult: 2
    decay_mult: 0
  }
  convolution_param {
    num_output: 64
    weight_filler {
      type: "gaussian"
      std: 0.01
    }
    bias_filler {
      type: "constant"
      value: 0
    }
    pad_shape {
      dim: 1
      dim: 1
      dim: 1
    }
    kernel_shape {
      dim: 3
      dim: 3
      dim: 3
    }
    stride_shape {
      dim: 1
      dim: 1
      dim: 1
    }
  }
}
layer {
  name: "relu1a_pos"
  type: "ReLU"
  bottom: "conv1a_pos"
  top: "conv1a_pos"
}
layer {
  name: "pool1_pos"
  type: "NdPooling"
  bottom: "conv1a_pos"
  top: "pool1_pos"
  pooling_param {
    pool: MAX
    kernel_shape {
      dim: 1
      dim: 2
      dim: 2
    }
    stride_shape {
      dim: 1
      dim: 2
      dim: 2
    }
  }
}
layer {
  name: "conv2a_pos"
  type: "NdConvolution"
  bottom: "pool1_pos"
  top: "conv2a_pos"
  param {
    name: "conv2a_w"
    lr_mult: 1
    decay_mult: 1
  }
  param {
    name: "conv2a_b"
    lr_mult: 2
    decay_mult: 0
  }
  convolution_param {
    num_output: 128
    weight_filler {
      type: "gaussian"
      std: 0.01
    }
    bias_filler {
      type: "constant"
      value: 1
    }
    pad_shape {
      dim: 1
      dim: 1
      dim: 1
    }
    kernel_shape {
      dim: 3
      dim: 3
      dim: 3
    }
    stride_shape {
      dim: 1
      dim: 1
      dim: 1
    }
  }
}
layer {
  name: "relu2a_pos"
  type: "ReLU"
  bottom: "conv2a_pos"
  top: "conv2a_pos"
}
layer {
  name: "pool2_pos"
  type: "NdPooling"
  bottom: "conv2a_pos"
  top: "pool2_pos"
  pooling_param {
    pool: MAX
    kernel_shape {
      dim: 2
      dim: 2
      dim: 2
    }
    stride_shape {
      dim: 2
      dim: 2
      dim: 2
    }
  }
}
layer {
  name: "conv3a_pos"
  type: "NdConvolution"
  bottom: "pool2_pos"
  top: "conv3a_pos"
  param {
    name: "conv3a_w"
    lr_mult: 1
    decay_mult: 1
  }
  param {
    name: "conv3a_b"
    lr_mult: 2
    decay_mult: 0
  }
  convolution_param {
    num_output: 256
    weight_filler {
      type: "gaussian"
      std: 0.01
    }
    bias_filler {
      type: "constant"
      value: 1
    }
    pad_shape {
      dim: 1
      dim: 1
      dim: 1
    }
    kernel_shape {
      dim: 3
      dim: 3
      dim: 3
    }
    stride_shape {
      dim: 1
      dim: 1
      dim: 1
    }
  }
}
layer {
  name: "relu3a_pos"
  type: "ReLU"
  bottom: "conv3a_pos"
  top: "conv3a_pos"
}
layer {
  name: "pool3_pos"
  type: "NdPooling"
  bottom: "conv3a_pos"
  top: "pool3_pos"
  pooling_param {
    pool: MAX
    kernel_shape {
      dim: 2
      dim: 2
      dim: 2
    }
    stride_shape {
      dim: 2
      dim: 2
      dim: 2
    }
  }
}
layer {
  name: "conv4a_pos"
  type: "NdConvolution"
  bottom: "pool3_pos"
  top: "conv4a_pos"
  param {
    name: "conv4a_w"
    lr_mult: 1
    decay_mult: 1
  }
  param {
    name: "conv4a_b"
    lr_mult: 2
    decay_mult: 0
  }
  convolution_param {
    num_output: 256
    weight_filler {
      type: "gaussian"
      std: 0.01
    }
    bias_filler {
      type: "constant"
      value: 1
    }
    pad_shape {
      dim: 1
      dim: 1
      dim: 1
    }
    kernel_shape {
      dim: 3
      dim: 3
      dim: 3
    }
    stride_shape {
      dim: 1
      dim: 1
      dim: 1
    }
  }
}
layer {
  name: "relu4a_pos"
  type: "ReLU"
  bottom: "conv4a_pos"
  top: "conv4a_pos"
}
layer {
  name: "pool4_pos"
  type: "NdPooling"
  bottom: "conv4a_pos"
  top: "pool4_pos"
  pooling_param {
    pool: MAX
    kernel_shape {
      dim: 2
      dim: 2
      dim: 2
    }
    stride_shape {
      dim: 2
      dim: 2
      dim: 2
    }
  }
}
layer {
  name: "conv5a_pos"
  type: "NdConvolution"
  bottom: "pool4_pos"
  top: "conv5a_pos"
  param {
    name: "conv5a_w"
    lr_mult: 1
    decay_mult: 1
  }
  param {
    name: "conv5a_b"
    lr_mult: 2
    decay_mult: 0
  }
  convolution_param {
    num_output: 256
    weight_filler {
      type: "gaussian"
      std: 0.01
    }
    bias_filler {
      type: "constant"
      value: 1
    }
    pad_shape {
      dim: 1
      dim: 1
      dim: 1
    }
    kernel_shape {
      dim: 3
      dim: 3
      dim: 3
    }
    stride_shape {
      dim: 1
      dim: 1
      dim: 1
    }
  }
}
layer {
  name: "relu5a_pos"
  type: "ReLU"
  bottom: "conv5a_pos"
  top: "conv5a_pos"
}
layer {
  name: "pool5_pos"
  type: "NdPooling"
  bottom: "conv5a_pos"
  top: "pool5_pos"
  pooling_param {
    pool: MAX
    kernel_shape {
      dim: 2
      dim: 2
      dim: 2
    }
    stride_shape {
      dim: 2
      dim: 2
      dim: 2
    }
  }
}
layer {
  name: "fc6_pos"
  type: "InnerProduct"
  bottom: "pool5_pos"
  top: "fc6_pos"
  param {
    name: "fc6_w"
    lr_mult: 1
    decay_mult: 1
  }
  param {
    name: "fc6_b"
    lr_mult: 2
    decay_mult: 0
  }
  inner_product_param {
    num_output: 2048
    weight_filler {
      type: "gaussian"
      std: 0.005
    }
    bias_filler {
      type: "constant"
      value: 1
    }
  }
}
layer {
  name: "relu6_pos"
  type: "ReLU"
  bottom: "fc6_pos"
  top: "fc6_pos"
}
layer {
  name: "drop6_pos"
  type: "Dropout"
  bottom: "fc6_pos"
  top: "fc6_pos"
  dropout_param {
    dropout_ratio: 0.5
  }
}
layer {
  name: "fc7_pos"
  type: "InnerProduct"
  bottom: "fc6_pos"
  top: "fc7_pos"
  param {
    name: "fc7_w"
    lr_mult: 1
    decay_mult: 1
  }
  param {
    name: "fc7_b"
    lr_mult: 2
    decay_mult: 0
  }
  inner_product_param {
    num_output: 2048
    weight_filler {
      type: "gaussian"
      std: 0.005
    }
    bias_filler {
      type: "constant"
      value: 1
    }
  }
}
layer {
  name: "relu7_pos"
  type: "ReLU"
  bottom: "fc7_pos"
  top: "fc7_pos"
}
layer {
  name: "drop7_pos"
  type: "Dropout"
  bottom: "fc7_pos"
  top: "fc7_pos"
  dropout_param {
    dropout_ratio: 0.5
  }
}
layer {
  name: "mvn_pos"
  type: "Python"
  bottom: "fc7_pos"
  top: "fc7_pos_norm"
  python_param {
    module: "mvn"
    layer: "MVNLayer"
  }
}
layer {
  name: "conv1a_neg"
  type: "NdConvolution"
  bottom: "negative"
  top: "conv1a_neg"
  param {
    name: "conv1a_w"
    lr_mult: 1
    decay_mult: 1
  }
  param {
    name: "conv1a_b"
    lr_mult: 2
    decay_mult: 0
  }
  convolution_param {
    num_output: 64
    weight_filler {
      type: "gaussian"
      std: 0.01
    }
    bias_filler {
      type: "constant"
      value: 0
    }
    pad_shape {
      dim: 1
      dim: 1
      dim: 1
    }
    kernel_shape {
      dim: 3
      dim: 3
      dim: 3
    }
    stride_shape {
      dim: 1
      dim: 1
      dim: 1
    }
  }
}
layer {
  name: "relu1a_neg"
  type: "ReLU"
  bottom: "conv1a_neg"
  top: "conv1a_neg"
}
layer {
  name: "pool1_neg"
  type: "NdPooling"
  bottom: "conv1a_neg"
  top: "pool1_neg"
  pooling_param {
    pool: MAX
    kernel_shape {
      dim: 1
      dim: 2
      dim: 2
    }
    stride_shape {
      dim: 1
      dim: 2
      dim: 2
    }
  }
}
layer {
  name: "conv2a_neg"
  type: "NdConvolution"
  bottom: "pool1_neg"
  top: "conv2a_neg"
  param {
    name: "conv2a_w"
    lr_mult: 1
    decay_mult: 1
  }
  param {
    name: "conv2a_b"
    lr_mult: 2
    decay_mult: 0
  }
  convolution_param {
    num_output: 128
    weight_filler {
      type: "gaussian"
      std: 0.01
    }
    bias_filler {
      type: "constant"
      value: 1
    }
    pad_shape {
      dim: 1
      dim: 1
      dim: 1
    }
    kernel_shape {
      dim: 3
      dim: 3
      dim: 3
    }
    stride_shape {
      dim: 1
      dim: 1
      dim: 1
    }
  }
}
layer {
  name: "relu2a_neg"
  type: "ReLU"
  bottom: "conv2a_neg"
  top: "conv2a_neg"
}
layer {
  name: "pool2_neg"
  type: "NdPooling"
  bottom: "conv2a_neg"
  top: "pool2_neg"
  pooling_param {
    pool: MAX
    kernel_shape {
      dim: 2
      dim: 2
      dim: 2
    }
    stride_shape {
      dim: 2
      dim: 2
      dim: 2
    }
  }
}
layer {
  name: "conv3a_neg"
  type: "NdConvolution"
  bottom: "pool2_neg"
  top: "conv3a_neg"
  param {
    name: "conv3a_w"
    lr_mult: 1
    decay_mult: 1
  }
  param {
    name: "conv3a_b"
    lr_mult: 2
    decay_mult: 0
  }
  convolution_param {
    num_output: 256
    weight_filler {
      type: "gaussian"
      std: 0.01
    }
    bias_filler {
      type: "constant"
      value: 1
    }
    pad_shape {
      dim: 1
      dim: 1
      dim: 1
    }
    kernel_shape {
      dim: 3
      dim: 3
      dim: 3
    }
    stride_shape {
      dim: 1
      dim: 1
      dim: 1
    }
  }
}
layer {
  name: "relu3a_neg"
  type: "ReLU"
  bottom: "conv3a_neg"
  top: "conv3a_neg"
}
layer {
  name: "pool3_neg"
  type: "NdPooling"
  bottom: "conv3a_neg"
  top: "pool3_neg"
  pooling_param {
    pool: MAX
    kernel_shape {
      dim: 2
      dim: 2
      dim: 2
    }
    stride_shape {
      dim: 2
      dim: 2
      dim: 2
    }
  }
}
layer {
  name: "conv4a_neg"
  type: "NdConvolution"
  bottom: "pool3_neg"
  top: "conv4a_neg"
  param {
    name: "conv4a_w"
    lr_mult: 1
    decay_mult: 1
  }
  param {
    name: "conv4a_b"
    lr_mult: 2
    decay_mult: 0
  }
  convolution_param {
    num_output: 256
    weight_filler {
      type: "gaussian"
      std: 0.01
    }
    bias_filler {
      type: "constant"
      value: 1
    }
    pad_shape {
      dim: 1
      dim: 1
      dim: 1
    }
    kernel_shape {
      dim: 3
      dim: 3
      dim: 3
    }
    stride_shape {
      dim: 1
      dim: 1
      dim: 1
    }
  }
}
layer {
  name: "relu4a_neg"
  type: "ReLU"
  bottom: "conv4a_neg"
  top: "conv4a_neg"
}
layer {
  name: "pool4_neg"
  type: "NdPooling"
  bottom: "conv4a_neg"
  top: "pool4_neg"
  pooling_param {
    pool: MAX
    kernel_shape {
      dim: 2
      dim: 2
      dim: 2
    }
    stride_shape {
      dim: 2
      dim: 2
      dim: 2
    }
  }
}
layer {
  name: "conv5a_neg"
  type: "NdConvolution"
  bottom: "pool4_neg"
  top: "conv5a_neg"
  param {
    name: "conv5a_w"
    lr_mult: 1
    decay_mult: 1
  }
  param {
    name: "conv5a_b"
    lr_mult: 2
    decay_mult: 0
  }
  convolution_param {
    num_output: 256
    weight_filler {
      type: "gaussian"
      std: 0.01
    }
    bias_filler {
      type: "constant"
      value: 1
    }
    pad_shape {
      dim: 1
      dim: 1
      dim: 1
    }
    kernel_shape {
      dim: 3
      dim: 3
      dim: 3
    }
    stride_shape {
      dim: 1
      dim: 1
      dim: 1
    }
  }
}
layer {
  name: "relu5a_neg"
  type: "ReLU"
  bottom: "conv5a_neg"
  top: "conv5a_neg"
}
layer {
  name: "pool5_neg"
  type: "NdPooling"
  bottom: "conv5a_neg"
  top: "pool5_neg"
  pooling_param {
    pool: MAX
    kernel_shape {
      dim: 2
      dim: 2
      dim: 2
    }
    stride_shape {
      dim: 2
      dim: 2
      dim: 2
    }
  }
}
layer {
  name: "fc6_neg"
  type: "InnerProduct"
  bottom: "pool5_neg"
  top: "fc6_neg"
  param {
    name: "fc6_w"
    lr_mult: 1
    decay_mult: 1
  }
  param {
    name: "fc6_b"
    lr_mult: 2
    decay_mult: 0
  }
  inner_product_param {
    num_output: 2048
    weight_filler {
      type: "gaussian"
      std: 0.005
    }
    bias_filler {
      type: "constant"
      value: 1
    }
  }
}
layer {
  name: "relu6_neg"
  type: "ReLU"
  bottom: "fc6_neg"
  top: "fc6_neg"
}
layer {
  name: "drop6_neg"
  type: "Dropout"
  bottom: "fc6_neg"
  top: "fc6_neg"
  dropout_param {
    dropout_ratio: 0.5
  }
}
layer {
  name: "fc7_neg"
  type: "InnerProduct"
  bottom: "fc6_neg"
  top: "fc7_neg"
  param {
    name: "fc7_w"
    lr_mult: 1
    decay_mult: 1
  }
  param {
    name: "fc7_b"
    lr_mult: 2
    decay_mult: 0
  }
  inner_product_param {
    num_output: 2048
    weight_filler {
      type: "gaussian"
      std: 0.005
    }
    bias_filler {
      type: "constant"
      value: 1
    }
  }
}
layer {
  name: "relu7_neg"
  type: "ReLU"
  bottom: "fc7_neg"
  top: "fc7_neg"
}
layer {
  name: "drop7_neg"
  type: "Dropout"
  bottom: "fc7_neg"
  top: "fc7_neg"
  dropout_param {
    dropout_ratio: 0.5
  }
}
layer {
  name: "mvn_neg"
  type: "Python"
  bottom: "fc7_neg"
  top: "fc7_neg_norm"
  python_param {
    module: "mvn"
    layer: "MVNLayer"
  }
}
layer {
  name: "save"
  type: "Python"
  bottom: "fc7_norm"
  bottom: "fc7_pos_norm"
  bottom: "fc7_neg_norm"
  python_param {
    module: "save_features"
    layer: "SaveFeaturesLayer"
    param_str: "{\"n_samples\":\"10000\", \"filename\":\"../../features/features_triplet_loss_mvn_test.npz\"}"
  }
}
I0521 15:30:42.340620  2161 layer_factory.hpp:77] Creating layer data
I0521 15:30:42.341451  2161 net.cpp:100] Creating Layer data
I0521 15:30:42.341477  2161 net.cpp:408] data -> triplet
I0521 15:30:42.384019  2173 db_lmdb.cpp:35] Opened lmdb /data/leo-data/Synthetic/LMDB/Triplets/test
I0521 15:30:42.503861  2161 data_layer.cpp:41] output data size: 10,144,112,112
I0521 15:30:42.735504  2161 net.cpp:150] Setting up data
I0521 15:30:42.735601  2161 net.cpp:157] Top shape: 10 144 112 112 (18063360)
I0521 15:30:42.735610  2161 net.cpp:165] Memory required for data: 72253440
I0521 15:30:42.735631  2161 layer_factory.hpp:77] Creating layer slicer
I0521 15:30:42.735716  2161 net.cpp:100] Creating Layer slicer
I0521 15:30:42.735728  2161 net.cpp:434] slicer <- triplet
I0521 15:30:42.735747  2161 net.cpp:408] slicer -> anchor_stacked
I0521 15:30:42.735766  2161 net.cpp:408] slicer -> positive_stacked
I0521 15:30:42.735790  2161 net.cpp:408] slicer -> negative_stacked
I0521 15:30:42.736044  2161 net.cpp:150] Setting up slicer
I0521 15:30:42.736059  2161 net.cpp:157] Top shape: 10 48 112 112 (6021120)
I0521 15:30:42.736068  2161 net.cpp:157] Top shape: 10 48 112 112 (6021120)
I0521 15:30:42.736073  2161 net.cpp:157] Top shape: 10 48 112 112 (6021120)
I0521 15:30:42.736080  2161 net.cpp:165] Memory required for data: 144506880
I0521 15:30:42.736086  2161 layer_factory.hpp:77] Creating layer reshape_anchor
I0521 15:30:42.736119  2161 net.cpp:100] Creating Layer reshape_anchor
I0521 15:30:42.736127  2161 net.cpp:434] reshape_anchor <- anchor_stacked
I0521 15:30:42.736145  2161 net.cpp:408] reshape_anchor -> anchor
I0521 15:30:42.736199  2161 net.cpp:150] Setting up reshape_anchor
I0521 15:30:42.736215  2161 net.cpp:157] Top shape: 10 3 16 112 112 (6021120)
I0521 15:30:42.736222  2161 net.cpp:165] Memory required for data: 168591360
I0521 15:30:42.736227  2161 layer_factory.hpp:77] Creating layer reshape_positive
I0521 15:30:42.736241  2161 net.cpp:100] Creating Layer reshape_positive
I0521 15:30:42.736248  2161 net.cpp:434] reshape_positive <- positive_stacked
I0521 15:30:42.736258  2161 net.cpp:408] reshape_positive -> positive
I0521 15:30:42.736366  2161 net.cpp:150] Setting up reshape_positive
I0521 15:30:42.736393  2161 net.cpp:157] Top shape: 10 3 16 112 112 (6021120)
I0521 15:30:42.736399  2161 net.cpp:165] Memory required for data: 192675840
I0521 15:30:42.736426  2161 layer_factory.hpp:77] Creating layer reshape_negative
I0521 15:30:42.736443  2161 net.cpp:100] Creating Layer reshape_negative
I0521 15:30:42.736450  2161 net.cpp:434] reshape_negative <- negative_stacked
I0521 15:30:42.736461  2161 net.cpp:408] reshape_negative -> negative
I0521 15:30:42.736510  2161 net.cpp:150] Setting up reshape_negative
I0521 15:30:42.736517  2161 net.cpp:157] Top shape: 10 3 16 112 112 (6021120)
I0521 15:30:42.736521  2161 net.cpp:165] Memory required for data: 216760320
I0521 15:30:42.736523  2161 layer_factory.hpp:77] Creating layer conv1a
I0521 15:30:42.736546  2161 net.cpp:100] Creating Layer conv1a
I0521 15:30:42.736551  2161 net.cpp:434] conv1a <- anchor
I0521 15:30:42.736568  2161 net.cpp:408] conv1a -> conv1a
I0521 15:30:42.873375  2174 blocking_queue.cpp:50] Waiting for data
I0521 15:30:43.368299  2161 net.cpp:150] Setting up conv1a
I0521 15:30:43.368356  2161 net.cpp:157] Top shape: 10 64 16 112 112 (128450560)
I0521 15:30:43.368360  2161 net.cpp:165] Memory required for data: 730562560
I0521 15:30:43.368398  2161 layer_factory.hpp:77] Creating layer relu1a
I0521 15:30:43.368436  2161 net.cpp:100] Creating Layer relu1a
I0521 15:30:43.368446  2161 net.cpp:434] relu1a <- conv1a
I0521 15:30:43.368455  2161 net.cpp:395] relu1a -> conv1a (in-place)
I0521 15:30:43.368677  2161 net.cpp:150] Setting up relu1a
I0521 15:30:43.368690  2161 net.cpp:157] Top shape: 10 64 16 112 112 (128450560)
I0521 15:30:43.368693  2161 net.cpp:165] Memory required for data: 1244364800
I0521 15:30:43.368697  2161 layer_factory.hpp:77] Creating layer pool1
I0521 15:30:43.368706  2161 net.cpp:100] Creating Layer pool1
I0521 15:30:43.368710  2161 net.cpp:434] pool1 <- conv1a
I0521 15:30:43.368716  2161 net.cpp:408] pool1 -> pool1
I0521 15:30:43.369874  2161 net.cpp:150] Setting up pool1
I0521 15:30:43.369887  2161 net.cpp:157] Top shape: 10 64 16 56 56 (32112640)
I0521 15:30:43.369890  2161 net.cpp:165] Memory required for data: 1372815360
I0521 15:30:43.369894  2161 layer_factory.hpp:77] Creating layer conv2a
I0521 15:30:43.369920  2161 net.cpp:100] Creating Layer conv2a
I0521 15:30:43.369925  2161 net.cpp:434] conv2a <- pool1
I0521 15:30:43.369931  2161 net.cpp:408] conv2a -> conv2a
I0521 15:30:43.378677  2161 net.cpp:150] Setting up conv2a
I0521 15:30:43.378703  2161 net.cpp:157] Top shape: 10 128 16 56 56 (64225280)
I0521 15:30:43.378706  2161 net.cpp:165] Memory required for data: 1629716480
I0521 15:30:43.378717  2161 layer_factory.hpp:77] Creating layer relu2a
I0521 15:30:43.378734  2161 net.cpp:100] Creating Layer relu2a
I0521 15:30:43.378738  2161 net.cpp:434] relu2a <- conv2a
I0521 15:30:43.378743  2161 net.cpp:395] relu2a -> conv2a (in-place)
I0521 15:30:43.378926  2161 net.cpp:150] Setting up relu2a
I0521 15:30:43.378935  2161 net.cpp:157] Top shape: 10 128 16 56 56 (64225280)
I0521 15:30:43.378938  2161 net.cpp:165] Memory required for data: 1886617600
I0521 15:30:43.378942  2161 layer_factory.hpp:77] Creating layer pool2
I0521 15:30:43.378948  2161 net.cpp:100] Creating Layer pool2
I0521 15:30:43.378952  2161 net.cpp:434] pool2 <- conv2a
I0521 15:30:43.378957  2161 net.cpp:408] pool2 -> pool2
I0521 15:30:43.379145  2161 net.cpp:150] Setting up pool2
I0521 15:30:43.379155  2161 net.cpp:157] Top shape: 10 128 8 28 28 (8028160)
I0521 15:30:43.379158  2161 net.cpp:165] Memory required for data: 1918730240
I0521 15:30:43.379161  2161 layer_factory.hpp:77] Creating layer conv3a
I0521 15:30:43.379175  2161 net.cpp:100] Creating Layer conv3a
I0521 15:30:43.379179  2161 net.cpp:434] conv3a <- pool2
I0521 15:30:43.379186  2161 net.cpp:408] conv3a -> conv3a
I0521 15:30:43.406862  2161 net.cpp:150] Setting up conv3a
I0521 15:30:43.406884  2161 net.cpp:157] Top shape: 10 256 8 28 28 (16056320)
I0521 15:30:43.406888  2161 net.cpp:165] Memory required for data: 1982955520
I0521 15:30:43.406899  2161 layer_factory.hpp:77] Creating layer relu3a
I0521 15:30:43.406927  2161 net.cpp:100] Creating Layer relu3a
I0521 15:30:43.406932  2161 net.cpp:434] relu3a <- conv3a
I0521 15:30:43.406965  2161 net.cpp:395] relu3a -> conv3a (in-place)
I0521 15:30:43.407137  2161 net.cpp:150] Setting up relu3a
I0521 15:30:43.407146  2161 net.cpp:157] Top shape: 10 256 8 28 28 (16056320)
I0521 15:30:43.407150  2161 net.cpp:165] Memory required for data: 2047180800
I0521 15:30:43.407152  2161 layer_factory.hpp:77] Creating layer pool3
I0521 15:30:43.407165  2161 net.cpp:100] Creating Layer pool3
I0521 15:30:43.407168  2161 net.cpp:434] pool3 <- conv3a
I0521 15:30:43.407173  2161 net.cpp:408] pool3 -> pool3
I0521 15:30:43.407374  2161 net.cpp:150] Setting up pool3
I0521 15:30:43.407383  2161 net.cpp:157] Top shape: 10 256 4 14 14 (2007040)
I0521 15:30:43.407387  2161 net.cpp:165] Memory required for data: 2055208960
I0521 15:30:43.407390  2161 layer_factory.hpp:77] Creating layer conv4a
I0521 15:30:43.407400  2161 net.cpp:100] Creating Layer conv4a
I0521 15:30:43.407404  2161 net.cpp:434] conv4a <- pool3
I0521 15:30:43.407409  2161 net.cpp:408] conv4a -> conv4a
I0521 15:30:43.465095  2161 net.cpp:150] Setting up conv4a
I0521 15:30:43.465128  2161 net.cpp:157] Top shape: 10 256 4 14 14 (2007040)
I0521 15:30:43.465132  2161 net.cpp:165] Memory required for data: 2063237120
I0521 15:30:43.465142  2161 layer_factory.hpp:77] Creating layer relu4a
I0521 15:30:43.465154  2161 net.cpp:100] Creating Layer relu4a
I0521 15:30:43.465171  2161 net.cpp:434] relu4a <- conv4a
I0521 15:30:43.465180  2161 net.cpp:395] relu4a -> conv4a (in-place)
I0521 15:30:43.466148  2161 net.cpp:150] Setting up relu4a
I0521 15:30:43.466172  2161 net.cpp:157] Top shape: 10 256 4 14 14 (2007040)
I0521 15:30:43.466176  2161 net.cpp:165] Memory required for data: 2071265280
I0521 15:30:43.466178  2161 layer_factory.hpp:77] Creating layer pool4
I0521 15:30:43.466192  2161 net.cpp:100] Creating Layer pool4
I0521 15:30:43.466207  2161 net.cpp:434] pool4 <- conv4a
I0521 15:30:43.466217  2161 net.cpp:408] pool4 -> pool4
I0521 15:30:43.466430  2161 net.cpp:150] Setting up pool4
I0521 15:30:43.466441  2161 net.cpp:157] Top shape: 10 256 2 7 7 (250880)
I0521 15:30:43.466447  2161 net.cpp:165] Memory required for data: 2072268800
I0521 15:30:43.466450  2161 layer_factory.hpp:77] Creating layer conv5a
I0521 15:30:43.466460  2161 net.cpp:100] Creating Layer conv5a
I0521 15:30:43.466465  2161 net.cpp:434] conv5a <- pool4
I0521 15:30:43.466472  2161 net.cpp:408] conv5a -> conv5a
I0521 15:30:43.523315  2161 net.cpp:150] Setting up conv5a
I0521 15:30:43.523360  2161 net.cpp:157] Top shape: 10 256 2 7 7 (250880)
I0521 15:30:43.523368  2161 net.cpp:165] Memory required for data: 2073272320
I0521 15:30:43.523396  2161 layer_factory.hpp:77] Creating layer relu5a
I0521 15:30:43.523412  2161 net.cpp:100] Creating Layer relu5a
I0521 15:30:43.523422  2161 net.cpp:434] relu5a <- conv5a
I0521 15:30:43.523437  2161 net.cpp:395] relu5a -> conv5a (in-place)
I0521 15:30:43.523782  2161 net.cpp:150] Setting up relu5a
I0521 15:30:43.523798  2161 net.cpp:157] Top shape: 10 256 2 7 7 (250880)
I0521 15:30:43.523804  2161 net.cpp:165] Memory required for data: 2074275840
I0521 15:30:43.523880  2161 layer_factory.hpp:77] Creating layer pool5
I0521 15:30:43.523912  2161 net.cpp:100] Creating Layer pool5
I0521 15:30:43.523919  2161 net.cpp:434] pool5 <- conv5a
I0521 15:30:43.523929  2161 net.cpp:408] pool5 -> pool5
I0521 15:30:43.524230  2161 net.cpp:150] Setting up pool5
I0521 15:30:43.524245  2161 net.cpp:157] Top shape: 10 256 1 4 4 (40960)
I0521 15:30:43.524258  2161 net.cpp:165] Memory required for data: 2074439680
I0521 15:30:43.524262  2161 layer_factory.hpp:77] Creating layer fc6
I0521 15:30:43.524278  2161 net.cpp:100] Creating Layer fc6
I0521 15:30:43.524283  2161 net.cpp:434] fc6 <- pool5
I0521 15:30:43.524291  2161 net.cpp:408] fc6 -> fc6
I0521 15:30:43.822340  2161 net.cpp:150] Setting up fc6
I0521 15:30:43.822381  2161 net.cpp:157] Top shape: 10 2048 (20480)
I0521 15:30:43.822386  2161 net.cpp:165] Memory required for data: 2074521600
I0521 15:30:43.822398  2161 layer_factory.hpp:77] Creating layer relu6
I0521 15:30:43.822412  2161 net.cpp:100] Creating Layer relu6
I0521 15:30:43.822446  2161 net.cpp:434] relu6 <- fc6
I0521 15:30:43.822454  2161 net.cpp:395] relu6 -> fc6 (in-place)
I0521 15:30:43.823781  2161 net.cpp:150] Setting up relu6
I0521 15:30:43.823801  2161 net.cpp:157] Top shape: 10 2048 (20480)
I0521 15:30:43.823807  2161 net.cpp:165] Memory required for data: 2074603520
I0521 15:30:43.823813  2161 layer_factory.hpp:77] Creating layer drop6
I0521 15:30:43.823846  2161 net.cpp:100] Creating Layer drop6
I0521 15:30:43.823894  2161 net.cpp:434] drop6 <- fc6
I0521 15:30:43.823905  2161 net.cpp:395] drop6 -> fc6 (in-place)
I0521 15:30:43.823954  2161 net.cpp:150] Setting up drop6
I0521 15:30:43.823966  2161 net.cpp:157] Top shape: 10 2048 (20480)
I0521 15:30:43.823971  2161 net.cpp:165] Memory required for data: 2074685440
I0521 15:30:43.823976  2161 layer_factory.hpp:77] Creating layer fc7
I0521 15:30:43.823994  2161 net.cpp:100] Creating Layer fc7
I0521 15:30:43.824003  2161 net.cpp:434] fc7 <- fc6
I0521 15:30:43.824015  2161 net.cpp:408] fc7 -> fc7
I0521 15:30:43.963183  2161 net.cpp:150] Setting up fc7
I0521 15:30:43.963290  2161 net.cpp:157] Top shape: 10 2048 (20480)
I0521 15:30:43.963320  2161 net.cpp:165] Memory required for data: 2074767360
I0521 15:30:43.963342  2161 layer_factory.hpp:77] Creating layer relu7
I0521 15:30:43.963376  2161 net.cpp:100] Creating Layer relu7
I0521 15:30:43.963388  2161 net.cpp:434] relu7 <- fc7
I0521 15:30:43.963402  2161 net.cpp:395] relu7 -> fc7 (in-place)
I0521 15:30:43.963907  2161 net.cpp:150] Setting up relu7
I0521 15:30:43.963927  2161 net.cpp:157] Top shape: 10 2048 (20480)
I0521 15:30:43.963934  2161 net.cpp:165] Memory required for data: 2074849280
I0521 15:30:43.963942  2161 layer_factory.hpp:77] Creating layer drop7
I0521 15:30:43.964015  2161 net.cpp:100] Creating Layer drop7
I0521 15:30:43.964031  2161 net.cpp:434] drop7 <- fc7
I0521 15:30:43.964040  2161 net.cpp:395] drop7 -> fc7 (in-place)
I0521 15:30:43.964094  2161 net.cpp:150] Setting up drop7
I0521 15:30:43.964105  2161 net.cpp:157] Top shape: 10 2048 (20480)
I0521 15:30:43.964109  2161 net.cpp:165] Memory required for data: 2074931200
I0521 15:30:43.964115  2161 layer_factory.hpp:77] Creating layer mvn
I0521 15:30:45.146975  2161 net.cpp:100] Creating Layer mvn
I0521 15:30:45.147019  2161 net.cpp:434] mvn <- fc7
I0521 15:30:45.147034  2161 net.cpp:408] mvn -> fc7_norm
I0521 15:30:45.896507  2161 net.cpp:150] Setting up mvn
I0521 15:30:45.896561  2161 net.cpp:157] Top shape: 10 2048 (20480)
I0521 15:30:45.896569  2161 net.cpp:165] Memory required for data: 2075013120
I0521 15:30:45.896577  2161 layer_factory.hpp:77] Creating layer conv1a_pos
I0521 15:30:45.896608  2161 net.cpp:100] Creating Layer conv1a_pos
I0521 15:30:45.896620  2161 net.cpp:434] conv1a_pos <- positive
I0521 15:30:45.896636  2161 net.cpp:408] conv1a_pos -> conv1a_pos
I0521 15:30:45.901232  2161 net.cpp:150] Setting up conv1a_pos
I0521 15:30:45.901262  2161 net.cpp:157] Top shape: 10 64 16 112 112 (128450560)
I0521 15:30:45.901268  2161 net.cpp:165] Memory required for data: 2588815360
I0521 15:30:45.901275  2161 net.cpp:493] Sharing parameters 'conv1a_w' owned by layer 'conv1a', param index 0
I0521 15:30:45.901283  2161 net.cpp:493] Sharing parameters 'conv1a_b' owned by layer 'conv1a', param index 1
I0521 15:30:45.901288  2161 layer_factory.hpp:77] Creating layer relu1a_pos
I0521 15:30:45.901306  2161 net.cpp:100] Creating Layer relu1a_pos
I0521 15:30:45.901315  2161 net.cpp:434] relu1a_pos <- conv1a_pos
I0521 15:30:45.901324  2161 net.cpp:395] relu1a_pos -> conv1a_pos (in-place)
I0521 15:30:45.901612  2161 net.cpp:150] Setting up relu1a_pos
I0521 15:30:45.901626  2161 net.cpp:157] Top shape: 10 64 16 112 112 (128450560)
I0521 15:30:45.901633  2161 net.cpp:165] Memory required for data: 3102617600
I0521 15:30:45.901638  2161 layer_factory.hpp:77] Creating layer pool1_pos
I0521 15:30:45.901649  2161 net.cpp:100] Creating Layer pool1_pos
I0521 15:30:45.901654  2161 net.cpp:434] pool1_pos <- conv1a_pos
I0521 15:30:45.901666  2161 net.cpp:408] pool1_pos -> pool1_pos
I0521 15:30:45.903415  2161 net.cpp:150] Setting up pool1_pos
I0521 15:30:45.903434  2161 net.cpp:157] Top shape: 10 64 16 56 56 (32112640)
I0521 15:30:45.903440  2161 net.cpp:165] Memory required for data: 3231068160
I0521 15:30:45.903450  2161 layer_factory.hpp:77] Creating layer conv2a_pos
I0521 15:30:45.903465  2161 net.cpp:100] Creating Layer conv2a_pos
I0521 15:30:45.903470  2161 net.cpp:434] conv2a_pos <- pool1_pos
I0521 15:30:45.903481  2161 net.cpp:408] conv2a_pos -> conv2a_pos
I0521 15:30:45.913692  2161 net.cpp:150] Setting up conv2a_pos
I0521 15:30:45.913710  2161 net.cpp:157] Top shape: 10 128 16 56 56 (64225280)
I0521 15:30:45.913715  2161 net.cpp:165] Memory required for data: 3487969280
I0521 15:30:45.913743  2161 net.cpp:493] Sharing parameters 'conv2a_w' owned by layer 'conv2a', param index 0
I0521 15:30:45.913750  2161 net.cpp:493] Sharing parameters 'conv2a_b' owned by layer 'conv2a', param index 1
I0521 15:30:45.913756  2161 layer_factory.hpp:77] Creating layer relu2a_pos
I0521 15:30:45.913765  2161 net.cpp:100] Creating Layer relu2a_pos
I0521 15:30:45.913770  2161 net.cpp:434] relu2a_pos <- conv2a_pos
I0521 15:30:45.913777  2161 net.cpp:395] relu2a_pos -> conv2a_pos (in-place)
I0521 15:30:45.915164  2161 net.cpp:150] Setting up relu2a_pos
I0521 15:30:45.915181  2161 net.cpp:157] Top shape: 10 128 16 56 56 (64225280)
I0521 15:30:45.915187  2161 net.cpp:165] Memory required for data: 3744870400
I0521 15:30:45.915192  2161 layer_factory.hpp:77] Creating layer pool2_pos
I0521 15:30:45.915226  2161 net.cpp:100] Creating Layer pool2_pos
I0521 15:30:45.915233  2161 net.cpp:434] pool2_pos <- conv2a_pos
I0521 15:30:45.915241  2161 net.cpp:408] pool2_pos -> pool2_pos
I0521 15:30:45.915537  2161 net.cpp:150] Setting up pool2_pos
I0521 15:30:45.915560  2161 net.cpp:157] Top shape: 10 128 8 28 28 (8028160)
I0521 15:30:45.915565  2161 net.cpp:165] Memory required for data: 3776983040
I0521 15:30:45.915575  2161 layer_factory.hpp:77] Creating layer conv3a_pos
I0521 15:30:45.915590  2161 net.cpp:100] Creating Layer conv3a_pos
I0521 15:30:45.915596  2161 net.cpp:434] conv3a_pos <- pool2_pos
I0521 15:30:45.915606  2161 net.cpp:408] conv3a_pos -> conv3a_pos
I0521 15:30:45.952848  2161 net.cpp:150] Setting up conv3a_pos
I0521 15:30:45.952875  2161 net.cpp:157] Top shape: 10 256 8 28 28 (16056320)
I0521 15:30:45.952880  2161 net.cpp:165] Memory required for data: 3841208320
I0521 15:30:45.952888  2161 net.cpp:493] Sharing parameters 'conv3a_w' owned by layer 'conv3a', param index 0
I0521 15:30:45.952893  2161 net.cpp:493] Sharing parameters 'conv3a_b' owned by layer 'conv3a', param index 1
I0521 15:30:45.952900  2161 layer_factory.hpp:77] Creating layer relu3a_pos
I0521 15:30:45.952908  2161 net.cpp:100] Creating Layer relu3a_pos
I0521 15:30:45.952914  2161 net.cpp:434] relu3a_pos <- conv3a_pos
I0521 15:30:45.952924  2161 net.cpp:395] relu3a_pos -> conv3a_pos (in-place)
I0521 15:30:45.953146  2161 net.cpp:150] Setting up relu3a_pos
I0521 15:30:45.953157  2161 net.cpp:157] Top shape: 10 256 8 28 28 (16056320)
I0521 15:30:45.953162  2161 net.cpp:165] Memory required for data: 3905433600
I0521 15:30:45.953166  2161 layer_factory.hpp:77] Creating layer pool3_pos
I0521 15:30:45.953176  2161 net.cpp:100] Creating Layer pool3_pos
I0521 15:30:45.953182  2161 net.cpp:434] pool3_pos <- conv3a_pos
I0521 15:30:45.953188  2161 net.cpp:408] pool3_pos -> pool3_pos
I0521 15:30:45.953456  2161 net.cpp:150] Setting up pool3_pos
I0521 15:30:45.953469  2161 net.cpp:157] Top shape: 10 256 4 14 14 (2007040)
I0521 15:30:45.953472  2161 net.cpp:165] Memory required for data: 3913461760
I0521 15:30:45.953476  2161 layer_factory.hpp:77] Creating layer conv4a_pos
I0521 15:30:45.953495  2161 net.cpp:100] Creating Layer conv4a_pos
I0521 15:30:45.953500  2161 net.cpp:434] conv4a_pos <- pool3_pos
I0521 15:30:45.953510  2161 net.cpp:408] conv4a_pos -> conv4a_pos
I0521 15:30:46.011692  2161 net.cpp:150] Setting up conv4a_pos
I0521 15:30:46.011716  2161 net.cpp:157] Top shape: 10 256 4 14 14 (2007040)
I0521 15:30:46.011720  2161 net.cpp:165] Memory required for data: 3921489920
I0521 15:30:46.011754  2161 net.cpp:493] Sharing parameters 'conv4a_w' owned by layer 'conv4a', param index 0
I0521 15:30:46.011762  2161 net.cpp:493] Sharing parameters 'conv4a_b' owned by layer 'conv4a', param index 1
I0521 15:30:46.011766  2161 layer_factory.hpp:77] Creating layer relu4a_pos
I0521 15:30:46.011775  2161 net.cpp:100] Creating Layer relu4a_pos
I0521 15:30:46.011780  2161 net.cpp:434] relu4a_pos <- conv4a_pos
I0521 15:30:46.011788  2161 net.cpp:395] relu4a_pos -> conv4a_pos (in-place)
I0521 15:30:46.012866  2161 net.cpp:150] Setting up relu4a_pos
I0521 15:30:46.012879  2161 net.cpp:157] Top shape: 10 256 4 14 14 (2007040)
I0521 15:30:46.012902  2161 net.cpp:165] Memory required for data: 3929518080
I0521 15:30:46.012904  2161 layer_factory.hpp:77] Creating layer pool4_pos
I0521 15:30:46.012915  2161 net.cpp:100] Creating Layer pool4_pos
I0521 15:30:46.012920  2161 net.cpp:434] pool4_pos <- conv4a_pos
I0521 15:30:46.012926  2161 net.cpp:408] pool4_pos -> pool4_pos
I0521 15:30:46.013166  2161 net.cpp:150] Setting up pool4_pos
I0521 15:30:46.013176  2161 net.cpp:157] Top shape: 10 256 2 7 7 (250880)
I0521 15:30:46.013181  2161 net.cpp:165] Memory required for data: 3930521600
I0521 15:30:46.013185  2161 layer_factory.hpp:77] Creating layer conv5a_pos
I0521 15:30:46.013267  2161 net.cpp:100] Creating Layer conv5a_pos
I0521 15:30:46.013280  2161 net.cpp:434] conv5a_pos <- pool4_pos
I0521 15:30:46.013290  2161 net.cpp:408] conv5a_pos -> conv5a_pos
I0521 15:30:46.124723  2161 net.cpp:150] Setting up conv5a_pos
I0521 15:30:46.124768  2161 net.cpp:157] Top shape: 10 256 2 7 7 (250880)
I0521 15:30:46.124773  2161 net.cpp:165] Memory required for data: 3931525120
I0521 15:30:46.124783  2161 net.cpp:493] Sharing parameters 'conv5a_w' owned by layer 'conv5a', param index 0
I0521 15:30:46.124790  2161 net.cpp:493] Sharing parameters 'conv5a_b' owned by layer 'conv5a', param index 1
I0521 15:30:46.124796  2161 layer_factory.hpp:77] Creating layer relu5a_pos
I0521 15:30:46.124819  2161 net.cpp:100] Creating Layer relu5a_pos
I0521 15:30:46.124825  2161 net.cpp:434] relu5a_pos <- conv5a_pos
I0521 15:30:46.124835  2161 net.cpp:395] relu5a_pos -> conv5a_pos (in-place)
I0521 15:30:46.125133  2161 net.cpp:150] Setting up relu5a_pos
I0521 15:30:46.125149  2161 net.cpp:157] Top shape: 10 256 2 7 7 (250880)
I0521 15:30:46.125154  2161 net.cpp:165] Memory required for data: 3932528640
I0521 15:30:46.125159  2161 layer_factory.hpp:77] Creating layer pool5_pos
I0521 15:30:46.125177  2161 net.cpp:100] Creating Layer pool5_pos
I0521 15:30:46.125183  2161 net.cpp:434] pool5_pos <- conv5a_pos
I0521 15:30:46.125195  2161 net.cpp:408] pool5_pos -> pool5_pos
I0521 15:30:46.125560  2161 net.cpp:150] Setting up pool5_pos
I0521 15:30:46.125574  2161 net.cpp:157] Top shape: 10 256 1 4 4 (40960)
I0521 15:30:46.125583  2161 net.cpp:165] Memory required for data: 3932692480
I0521 15:30:46.125587  2161 layer_factory.hpp:77] Creating layer fc6_pos
I0521 15:30:46.125604  2161 net.cpp:100] Creating Layer fc6_pos
I0521 15:30:46.125610  2161 net.cpp:434] fc6_pos <- pool5_pos
I0521 15:30:46.125620  2161 net.cpp:408] fc6_pos -> fc6_pos
I0521 15:30:46.485657  2161 net.cpp:150] Setting up fc6_pos
I0521 15:30:46.485702  2161 net.cpp:157] Top shape: 10 2048 (20480)
I0521 15:30:46.485707  2161 net.cpp:165] Memory required for data: 3932774400
I0521 15:30:46.485715  2161 net.cpp:493] Sharing parameters 'fc6_w' owned by layer 'fc6', param index 0
I0521 15:30:46.485723  2161 net.cpp:493] Sharing parameters 'fc6_b' owned by layer 'fc6', param index 1
I0521 15:30:46.485728  2161 layer_factory.hpp:77] Creating layer relu6_pos
I0521 15:30:46.485743  2161 net.cpp:100] Creating Layer relu6_pos
I0521 15:30:46.485749  2161 net.cpp:434] relu6_pos <- fc6_pos
I0521 15:30:46.485764  2161 net.cpp:395] relu6_pos -> fc6_pos (in-place)
I0521 15:30:46.487202  2161 net.cpp:150] Setting up relu6_pos
I0521 15:30:46.487217  2161 net.cpp:157] Top shape: 10 2048 (20480)
I0521 15:30:46.487227  2161 net.cpp:165] Memory required for data: 3932856320
I0521 15:30:46.487231  2161 layer_factory.hpp:77] Creating layer drop6_pos
I0521 15:30:46.487270  2161 net.cpp:100] Creating Layer drop6_pos
I0521 15:30:46.487274  2161 net.cpp:434] drop6_pos <- fc6_pos
I0521 15:30:46.487282  2161 net.cpp:395] drop6_pos -> fc6_pos (in-place)
I0521 15:30:46.487318  2161 net.cpp:150] Setting up drop6_pos
I0521 15:30:46.487329  2161 net.cpp:157] Top shape: 10 2048 (20480)
I0521 15:30:46.487331  2161 net.cpp:165] Memory required for data: 3932938240
I0521 15:30:46.487335  2161 layer_factory.hpp:77] Creating layer fc7_pos
I0521 15:30:46.487344  2161 net.cpp:100] Creating Layer fc7_pos
I0521 15:30:46.487349  2161 net.cpp:434] fc7_pos <- fc6_pos
I0521 15:30:46.487355  2161 net.cpp:408] fc7_pos -> fc7_pos
I0521 15:30:46.628461  2161 net.cpp:150] Setting up fc7_pos
I0521 15:30:46.628501  2161 net.cpp:157] Top shape: 10 2048 (20480)
I0521 15:30:46.628505  2161 net.cpp:165] Memory required for data: 3933020160
I0521 15:30:46.628515  2161 net.cpp:493] Sharing parameters 'fc7_w' owned by layer 'fc7', param index 0
I0521 15:30:46.628522  2161 net.cpp:493] Sharing parameters 'fc7_b' owned by layer 'fc7', param index 1
I0521 15:30:46.628526  2161 layer_factory.hpp:77] Creating layer relu7_pos
I0521 15:30:46.628542  2161 net.cpp:100] Creating Layer relu7_pos
I0521 15:30:46.628548  2161 net.cpp:434] relu7_pos <- fc7_pos
I0521 15:30:46.628561  2161 net.cpp:395] relu7_pos -> fc7_pos (in-place)
I0521 15:30:46.628891  2161 net.cpp:150] Setting up relu7_pos
I0521 15:30:46.628902  2161 net.cpp:157] Top shape: 10 2048 (20480)
I0521 15:30:46.628906  2161 net.cpp:165] Memory required for data: 3933102080
I0521 15:30:46.628909  2161 layer_factory.hpp:77] Creating layer drop7_pos
I0521 15:30:46.628919  2161 net.cpp:100] Creating Layer drop7_pos
I0521 15:30:46.628922  2161 net.cpp:434] drop7_pos <- fc7_pos
I0521 15:30:46.628927  2161 net.cpp:395] drop7_pos -> fc7_pos (in-place)
I0521 15:30:46.628968  2161 net.cpp:150] Setting up drop7_pos
I0521 15:30:46.628973  2161 net.cpp:157] Top shape: 10 2048 (20480)
I0521 15:30:46.628976  2161 net.cpp:165] Memory required for data: 3933184000
I0521 15:30:46.628980  2161 layer_factory.hpp:77] Creating layer mvn_pos
I0521 15:30:46.629075  2161 net.cpp:100] Creating Layer mvn_pos
I0521 15:30:46.629082  2161 net.cpp:434] mvn_pos <- fc7_pos
I0521 15:30:46.629089  2161 net.cpp:408] mvn_pos -> fc7_pos_norm
I0521 15:30:46.629302  2161 net.cpp:150] Setting up mvn_pos
I0521 15:30:46.629315  2161 net.cpp:157] Top shape: 10 2048 (20480)
I0521 15:30:46.629319  2161 net.cpp:165] Memory required for data: 3933265920
I0521 15:30:46.629323  2161 layer_factory.hpp:77] Creating layer conv1a_neg
I0521 15:30:46.629335  2161 net.cpp:100] Creating Layer conv1a_neg
I0521 15:30:46.629343  2161 net.cpp:434] conv1a_neg <- negative
I0521 15:30:46.629353  2161 net.cpp:408] conv1a_neg -> conv1a_neg
I0521 15:30:46.633018  2161 net.cpp:150] Setting up conv1a_neg
I0521 15:30:46.633033  2161 net.cpp:157] Top shape: 10 64 16 112 112 (128450560)
I0521 15:30:46.633036  2161 net.cpp:165] Memory required for data: 4447068160
I0521 15:30:46.633041  2161 net.cpp:493] Sharing parameters 'conv1a_w' owned by layer 'conv1a', param index 0
I0521 15:30:46.633047  2161 net.cpp:493] Sharing parameters 'conv1a_b' owned by layer 'conv1a', param index 1
I0521 15:30:46.633059  2161 layer_factory.hpp:77] Creating layer relu1a_neg
I0521 15:30:46.633065  2161 net.cpp:100] Creating Layer relu1a_neg
I0521 15:30:46.633069  2161 net.cpp:434] relu1a_neg <- conv1a_neg
I0521 15:30:46.633076  2161 net.cpp:395] relu1a_neg -> conv1a_neg (in-place)
I0521 15:30:46.633296  2161 net.cpp:150] Setting up relu1a_neg
I0521 15:30:46.633306  2161 net.cpp:157] Top shape: 10 64 16 112 112 (128450560)
I0521 15:30:46.633309  2161 net.cpp:165] Memory required for data: 4960870400
I0521 15:30:46.633313  2161 layer_factory.hpp:77] Creating layer pool1_neg
I0521 15:30:46.633322  2161 net.cpp:100] Creating Layer pool1_neg
I0521 15:30:46.633327  2161 net.cpp:434] pool1_neg <- conv1a_neg
I0521 15:30:46.633332  2161 net.cpp:408] pool1_neg -> pool1_neg
I0521 15:30:46.633580  2161 net.cpp:150] Setting up pool1_neg
I0521 15:30:46.633605  2161 net.cpp:157] Top shape: 10 64 16 56 56 (32112640)
I0521 15:30:46.633608  2161 net.cpp:165] Memory required for data: 5089320960
I0521 15:30:46.633611  2161 layer_factory.hpp:77] Creating layer conv2a_neg
I0521 15:30:46.633622  2161 net.cpp:100] Creating Layer conv2a_neg
I0521 15:30:46.633626  2161 net.cpp:434] conv2a_neg <- pool1_neg
I0521 15:30:46.633638  2161 net.cpp:408] conv2a_neg -> conv2a_neg
I0521 15:30:46.643373  2161 net.cpp:150] Setting up conv2a_neg
I0521 15:30:46.643388  2161 net.cpp:157] Top shape: 10 128 16 56 56 (64225280)
I0521 15:30:46.643393  2161 net.cpp:165] Memory required for data: 5346222080
I0521 15:30:46.643396  2161 net.cpp:493] Sharing parameters 'conv2a_w' owned by layer 'conv2a', param index 0
I0521 15:30:46.643402  2161 net.cpp:493] Sharing parameters 'conv2a_b' owned by layer 'conv2a', param index 1
I0521 15:30:46.643414  2161 layer_factory.hpp:77] Creating layer relu2a_neg
I0521 15:30:46.643420  2161 net.cpp:100] Creating Layer relu2a_neg
I0521 15:30:46.643424  2161 net.cpp:434] relu2a_neg <- conv2a_neg
I0521 15:30:46.643430  2161 net.cpp:395] relu2a_neg -> conv2a_neg (in-place)
I0521 15:30:46.643642  2161 net.cpp:150] Setting up relu2a_neg
I0521 15:30:46.643654  2161 net.cpp:157] Top shape: 10 128 16 56 56 (64225280)
I0521 15:30:46.643657  2161 net.cpp:165] Memory required for data: 5603123200
I0521 15:30:46.643661  2161 layer_factory.hpp:77] Creating layer pool2_neg
I0521 15:30:46.643669  2161 net.cpp:100] Creating Layer pool2_neg
I0521 15:30:46.643673  2161 net.cpp:434] pool2_neg <- conv2a_neg
I0521 15:30:46.643682  2161 net.cpp:408] pool2_neg -> pool2_neg
I0521 15:30:46.644883  2161 net.cpp:150] Setting up pool2_neg
I0521 15:30:46.644897  2161 net.cpp:157] Top shape: 10 128 8 28 28 (8028160)
I0521 15:30:46.644901  2161 net.cpp:165] Memory required for data: 5635235840
I0521 15:30:46.644906  2161 layer_factory.hpp:77] Creating layer conv3a_neg
I0521 15:30:46.644917  2161 net.cpp:100] Creating Layer conv3a_neg
I0521 15:30:46.644922  2161 net.cpp:434] conv3a_neg <- pool2_neg
I0521 15:30:46.644930  2161 net.cpp:408] conv3a_neg -> conv3a_neg
I0521 15:30:46.676517  2161 net.cpp:150] Setting up conv3a_neg
I0521 15:30:46.676534  2161 net.cpp:157] Top shape: 10 256 8 28 28 (16056320)
I0521 15:30:46.676538  2161 net.cpp:165] Memory required for data: 5699461120
I0521 15:30:46.676549  2161 net.cpp:493] Sharing parameters 'conv3a_w' owned by layer 'conv3a', param index 0
I0521 15:30:46.676555  2161 net.cpp:493] Sharing parameters 'conv3a_b' owned by layer 'conv3a', param index 1
I0521 15:30:46.676559  2161 layer_factory.hpp:77] Creating layer relu3a_neg
I0521 15:30:46.676568  2161 net.cpp:100] Creating Layer relu3a_neg
I0521 15:30:46.676571  2161 net.cpp:434] relu3a_neg <- conv3a_neg
I0521 15:30:46.676578  2161 net.cpp:395] relu3a_neg -> conv3a_neg (in-place)
I0521 15:30:46.676782  2161 net.cpp:150] Setting up relu3a_neg
I0521 15:30:46.676793  2161 net.cpp:157] Top shape: 10 256 8 28 28 (16056320)
I0521 15:30:46.676797  2161 net.cpp:165] Memory required for data: 5763686400
I0521 15:30:46.676800  2161 layer_factory.hpp:77] Creating layer pool3_neg
I0521 15:30:46.676810  2161 net.cpp:100] Creating Layer pool3_neg
I0521 15:30:46.676813  2161 net.cpp:434] pool3_neg <- conv3a_neg
I0521 15:30:46.676818  2161 net.cpp:408] pool3_neg -> pool3_neg
I0521 15:30:46.677053  2161 net.cpp:150] Setting up pool3_neg
I0521 15:30:46.677063  2161 net.cpp:157] Top shape: 10 256 4 14 14 (2007040)
I0521 15:30:46.677067  2161 net.cpp:165] Memory required for data: 5771714560
I0521 15:30:46.677070  2161 layer_factory.hpp:77] Creating layer conv4a_neg
I0521 15:30:46.677081  2161 net.cpp:100] Creating Layer conv4a_neg
I0521 15:30:46.677085  2161 net.cpp:434] conv4a_neg <- pool3_neg
I0521 15:30:46.677094  2161 net.cpp:408] conv4a_neg -> conv4a_neg
I0521 15:30:46.739100  2161 net.cpp:150] Setting up conv4a_neg
I0521 15:30:46.739132  2161 net.cpp:157] Top shape: 10 256 4 14 14 (2007040)
I0521 15:30:46.739138  2161 net.cpp:165] Memory required for data: 5779742720
I0521 15:30:46.739166  2161 net.cpp:493] Sharing parameters 'conv4a_w' owned by layer 'conv4a', param index 0
I0521 15:30:46.739173  2161 net.cpp:493] Sharing parameters 'conv4a_b' owned by layer 'conv4a', param index 1
I0521 15:30:46.739177  2161 layer_factory.hpp:77] Creating layer relu4a_neg
I0521 15:30:46.739187  2161 net.cpp:100] Creating Layer relu4a_neg
I0521 15:30:46.739192  2161 net.cpp:434] relu4a_neg <- conv4a_neg
I0521 15:30:46.739202  2161 net.cpp:395] relu4a_neg -> conv4a_neg (in-place)
I0521 15:30:46.739416  2161 net.cpp:150] Setting up relu4a_neg
I0521 15:30:46.739428  2161 net.cpp:157] Top shape: 10 256 4 14 14 (2007040)
I0521 15:30:46.739430  2161 net.cpp:165] Memory required for data: 5787770880
I0521 15:30:46.739436  2161 layer_factory.hpp:77] Creating layer pool4_neg
I0521 15:30:46.739449  2161 net.cpp:100] Creating Layer pool4_neg
I0521 15:30:46.739454  2161 net.cpp:434] pool4_neg <- conv4a_neg
I0521 15:30:46.739461  2161 net.cpp:408] pool4_neg -> pool4_neg
I0521 15:30:46.740676  2161 net.cpp:150] Setting up pool4_neg
I0521 15:30:46.740690  2161 net.cpp:157] Top shape: 10 256 2 7 7 (250880)
I0521 15:30:46.740694  2161 net.cpp:165] Memory required for data: 5788774400
I0521 15:30:46.740697  2161 layer_factory.hpp:77] Creating layer conv5a_neg
I0521 15:30:46.740708  2161 net.cpp:100] Creating Layer conv5a_neg
I0521 15:30:46.740711  2161 net.cpp:434] conv5a_neg <- pool4_neg
I0521 15:30:46.740721  2161 net.cpp:408] conv5a_neg -> conv5a_neg
I0521 15:30:46.825964  2161 net.cpp:150] Setting up conv5a_neg
I0521 15:30:46.826015  2161 net.cpp:157] Top shape: 10 256 2 7 7 (250880)
I0521 15:30:46.826020  2161 net.cpp:165] Memory required for data: 5789777920
I0521 15:30:46.826028  2161 net.cpp:493] Sharing parameters 'conv5a_w' owned by layer 'conv5a', param index 0
I0521 15:30:46.826035  2161 net.cpp:493] Sharing parameters 'conv5a_b' owned by layer 'conv5a', param index 1
I0521 15:30:46.826040  2161 layer_factory.hpp:77] Creating layer relu5a_neg
I0521 15:30:46.826053  2161 net.cpp:100] Creating Layer relu5a_neg
I0521 15:30:46.826061  2161 net.cpp:434] relu5a_neg <- conv5a_neg
I0521 15:30:46.826067  2161 net.cpp:395] relu5a_neg -> conv5a_neg (in-place)
I0521 15:30:46.827898  2161 net.cpp:150] Setting up relu5a_neg
I0521 15:30:46.827915  2161 net.cpp:157] Top shape: 10 256 2 7 7 (250880)
I0521 15:30:46.827927  2161 net.cpp:165] Memory required for data: 5790781440
I0521 15:30:46.827934  2161 layer_factory.hpp:77] Creating layer pool5_neg
I0521 15:30:46.827944  2161 net.cpp:100] Creating Layer pool5_neg
I0521 15:30:46.827949  2161 net.cpp:434] pool5_neg <- conv5a_neg
I0521 15:30:46.827957  2161 net.cpp:408] pool5_neg -> pool5_neg
I0521 15:30:46.828263  2161 net.cpp:150] Setting up pool5_neg
I0521 15:30:46.828284  2161 net.cpp:157] Top shape: 10 256 1 4 4 (40960)
I0521 15:30:46.828287  2161 net.cpp:165] Memory required for data: 5790945280
I0521 15:30:46.828290  2161 layer_factory.hpp:77] Creating layer fc6_neg
I0521 15:30:46.828330  2161 net.cpp:100] Creating Layer fc6_neg
I0521 15:30:46.828335  2161 net.cpp:434] fc6_neg <- pool5_neg
I0521 15:30:46.828349  2161 net.cpp:408] fc6_neg -> fc6_neg
I0521 15:30:47.210510  2161 net.cpp:150] Setting up fc6_neg
I0521 15:30:47.210549  2161 net.cpp:157] Top shape: 10 2048 (20480)
I0521 15:30:47.210554  2161 net.cpp:165] Memory required for data: 5791027200
I0521 15:30:47.210562  2161 net.cpp:493] Sharing parameters 'fc6_w' owned by layer 'fc6', param index 0
I0521 15:30:47.210567  2161 net.cpp:493] Sharing parameters 'fc6_b' owned by layer 'fc6', param index 1
I0521 15:30:47.210572  2161 layer_factory.hpp:77] Creating layer relu6_neg
I0521 15:30:47.210587  2161 net.cpp:100] Creating Layer relu6_neg
I0521 15:30:47.210592  2161 net.cpp:434] relu6_neg <- fc6_neg
I0521 15:30:47.210605  2161 net.cpp:395] relu6_neg -> fc6_neg (in-place)
I0521 15:30:47.210929  2161 net.cpp:150] Setting up relu6_neg
I0521 15:30:47.210949  2161 net.cpp:157] Top shape: 10 2048 (20480)
I0521 15:30:47.210952  2161 net.cpp:165] Memory required for data: 5791109120
I0521 15:30:47.210957  2161 layer_factory.hpp:77] Creating layer drop6_neg
I0521 15:30:47.210986  2161 net.cpp:100] Creating Layer drop6_neg
I0521 15:30:47.210990  2161 net.cpp:434] drop6_neg <- fc6_neg
I0521 15:30:47.210997  2161 net.cpp:395] drop6_neg -> fc6_neg (in-place)
I0521 15:30:47.211042  2161 net.cpp:150] Setting up drop6_neg
I0521 15:30:47.211050  2161 net.cpp:157] Top shape: 10 2048 (20480)
I0521 15:30:47.211053  2161 net.cpp:165] Memory required for data: 5791191040
I0521 15:30:47.211057  2161 layer_factory.hpp:77] Creating layer fc7_neg
I0521 15:30:47.211071  2161 net.cpp:100] Creating Layer fc7_neg
I0521 15:30:47.211076  2161 net.cpp:434] fc7_neg <- fc6_neg
I0521 15:30:47.211082  2161 net.cpp:408] fc7_neg -> fc7_neg
I0521 15:30:47.351819  2161 net.cpp:150] Setting up fc7_neg
I0521 15:30:47.351856  2161 net.cpp:157] Top shape: 10 2048 (20480)
I0521 15:30:47.351861  2161 net.cpp:165] Memory required for data: 5791272960
I0521 15:30:47.351867  2161 net.cpp:493] Sharing parameters 'fc7_w' owned by layer 'fc7', param index 0
I0521 15:30:47.351873  2161 net.cpp:493] Sharing parameters 'fc7_b' owned by layer 'fc7', param index 1
I0521 15:30:47.351877  2161 layer_factory.hpp:77] Creating layer relu7_neg
I0521 15:30:47.351889  2161 net.cpp:100] Creating Layer relu7_neg
I0521 15:30:47.351894  2161 net.cpp:434] relu7_neg <- fc7_neg
I0521 15:30:47.351908  2161 net.cpp:395] relu7_neg -> fc7_neg (in-place)
I0521 15:30:47.352195  2161 net.cpp:150] Setting up relu7_neg
I0521 15:30:47.352205  2161 net.cpp:157] Top shape: 10 2048 (20480)
I0521 15:30:47.352216  2161 net.cpp:165] Memory required for data: 5791354880
I0521 15:30:47.352218  2161 layer_factory.hpp:77] Creating layer drop7_neg
I0521 15:30:47.352226  2161 net.cpp:100] Creating Layer drop7_neg
I0521 15:30:47.352231  2161 net.cpp:434] drop7_neg <- fc7_neg
I0521 15:30:47.352236  2161 net.cpp:395] drop7_neg -> fc7_neg (in-place)
I0521 15:30:47.352279  2161 net.cpp:150] Setting up drop7_neg
I0521 15:30:47.352288  2161 net.cpp:157] Top shape: 10 2048 (20480)
I0521 15:30:47.352291  2161 net.cpp:165] Memory required for data: 5791436800
I0521 15:30:47.352294  2161 layer_factory.hpp:77] Creating layer mvn_neg
I0521 15:30:47.352350  2161 net.cpp:100] Creating Layer mvn_neg
I0521 15:30:47.352357  2161 net.cpp:434] mvn_neg <- fc7_neg
I0521 15:30:47.352363  2161 net.cpp:408] mvn_neg -> fc7_neg_norm
I0521 15:30:47.352522  2161 net.cpp:150] Setting up mvn_neg
I0521 15:30:47.352535  2161 net.cpp:157] Top shape: 10 2048 (20480)
I0521 15:30:47.352537  2161 net.cpp:165] Memory required for data: 5791518720
I0521 15:30:47.352540  2161 layer_factory.hpp:77] Creating layer save
I0521 15:30:47.369261  2161 net.cpp:100] Creating Layer save
I0521 15:30:47.369276  2161 net.cpp:434] save <- fc7_norm
I0521 15:30:47.369287  2161 net.cpp:434] save <- fc7_pos_norm
I0521 15:30:47.369290  2161 net.cpp:434] save <- fc7_neg_norm
…
