…
    mean_value: 65
    mean_value: 74
    mean_value: 92
    mean_value: 65
    mean_value: 74
    mean_value: 92
    mean_value: 65
    mean_value: 74
    mean_value: 92
    mean_value: 65
    mean_value: 74
    mean_value: 92
    mean_value: 65
    mean_value: 74
    mean_value: 92
    mean_value: 65
    mean_value: 74
    mean_value: 92
    mean_value: 65
    mean_value: 74
    mean_value: 92
    mean_value: 65
    mean_value: 74
    mean_value: 92
  }
  data_param {
    source: "/data/leo-data/Synthetic/LMDB/Triplets/train"
    batch_size: 10
    backend: LMDB
  }
}
layer {
  name: "slicer"
  type: "Slice"
  bottom: "triplet"
  top: "anchor_stacked"
  top: "positive_stacked"
  top: "negative_stacked"
  slice_param {
    slice_dim: 1
    slice_point: 48
    slice_point: 96
  }
}
layer {
  name: "reshape_anchor"
  type: "Reshape"
  bottom: "anchor_stacked"
  top: "anchor"
  reshape_param {
    shape {
      dim: 0
      dim: 3
      dim: 16
      dim: 112
      dim: 112
    }
  }
}
layer {
  name: "reshape_positive"
  type: "Reshape"
  bottom: "positive_stacked"
  top: "positive"
  reshape_param {
    shape {
      dim: 0
      dim: 3
      dim: 16
      dim: 112
      dim: 112
    }
  }
}
layer {
  name: "reshape_negative"
  type: "Reshape"
  bottom: "negative_stacked"
  top: "negative"
  reshape_param {
    shape {
      dim: 0
      dim: 3
      dim: 16
      dim: 112
      dim: 112
    }
  }
}
layer {
  name: "conv1a"
  type: "NdConvolution"
  bottom: "anchor"
  top: "conv1a"
  param {
    name: "conv1a_w"
    lr_mult: 1
    decay_mult: 1
  }
  param {
    name: "conv1a_b"
    lr_mult: 2
    decay_mult: 0
  }
  convolution_param {
    num_output: 64
    weight_filler {
      type: "gaussian"
      std: 0.01
    }
    bias_filler {
      type: "constant"
      value: 0
    }
    pad_shape {
      dim: 1
      dim: 1
      dim: 1
    }
    kernel_shape {
      dim: 3
      dim: 3
      dim: 3
    }
    stride_shape {
      dim: 1
      dim: 1
      dim: 1
    }
  }
}
layer {
  name: "relu1a"
  type: "ReLU"
  bottom: "conv1a"
  top: "conv1a"
}
layer {
  name: "pool1"
  type: "NdPooling"
  bottom: "conv1a"
  top: "pool1"
  pooling_param {
    pool: MAX
    kernel_shape {
      dim: 1
      dim: 2
      dim: 2
    }
    stride_shape {
      dim: 1
      dim: 2
      dim: 2
    }
  }
}
layer {
  name: "conv2a"
  type: "NdConvolution"
  bottom: "pool1"
  top: "conv2a"
  param {
    name: "conv2a_w"
    lr_mult: 1
    decay_mult: 1
  }
  param {
    name: "conv2a_b"
    lr_mult: 2
    decay_mult: 0
  }
  convolution_param {
    num_output: 128
    weight_filler {
      type: "gaussian"
      std: 0.01
    }
    bias_filler {
      type: "constant"
      value: 1
    }
    pad_shape {
      dim: 1
      dim: 1
      dim: 1
    }
    kernel_shape {
      dim: 3
      dim: 3
      dim: 3
    }
    stride_shape {
      dim: 1
      dim: 1
      dim: 1
    }
  }
}
layer {
  name: "relu2a"
  type: "ReLU"
  bottom: "conv2a"
  top: "conv2a"
}
layer {
  name: "pool2"
  type: "NdPooling"
  bottom: "conv2a"
  top: "pool2"
  pooling_param {
    pool: MAX
    kernel_shape {
      dim: 2
      dim: 2
      dim: 2
    }
    stride_shape {
      dim: 2
      dim: 2
      dim: 2
    }
  }
}
layer {
  name: "conv3a"
  type: "NdConvolution"
  bottom: "pool2"
  top: "conv3a"
  param {
    name: "conv3a_w"
    lr_mult: 1
    decay_mult: 1
  }
  param {
    name: "conv3a_b"
    lr_mult: 2
    decay_mult: 0
  }
  convolution_param {
    num_output: 256
    weight_filler {
      type: "gaussian"
      std: 0.01
    }
    bias_filler {
      type: "constant"
      value: 1
    }
    pad_shape {
      dim: 1
      dim: 1
      dim: 1
    }
    kernel_shape {
      dim: 3
      dim: 3
      dim: 3
    }
    stride_shape {
      dim: 1
      dim: 1
      dim: 1
    }
  }
}
layer {
  name: "relu3a"
  type: "ReLU"
  bottom: "conv3a"
  top: "conv3a"
}
layer {
  name: "pool3"
  type: "NdPooling"
  bottom: "conv3a"
  top: "pool3"
  pooling_param {
    pool: MAX
    kernel_shape {
      dim: 2
      dim: 2
      dim: 2
    }
    stride_shape {
      dim: 2
      dim: 2
      dim: 2
    }
  }
}
layer {
  name: "conv4a"
  type: "NdConvolution"
  bottom: "pool3"
  top: "conv4a"
  param {
    name: "conv4a_w"
    lr_mult: 1
    decay_mult: 1
  }
  param {
    name: "conv4a_b"
    lr_mult: 2
    decay_mult: 0
  }
  convolution_param {
    num_output: 256
    weight_filler {
      type: "gaussian"
      std: 0.01
    }
    bias_filler {
      type: "constant"
      value: 1
    }
    pad_shape {
      dim: 1
      dim: 1
      dim: 1
    }
    kernel_shape {
      dim: 3
      dim: 3
      dim: 3
    }
    stride_shape {
      dim: 1
      dim: 1
      dim: 1
    }
  }
}
layer {
  name: "relu4a"
  type: "ReLU"
  bottom: "conv4a"
  top: "conv4a"
}
layer {
  name: "pool4"
  type: "NdPooling"
  bottom: "conv4a"
  top: "pool4"
  pooling_param {
    pool: MAX
    kernel_shape {
      dim: 2
      dim: 2
      dim: 2
    }
    stride_shape {
      dim: 2
      dim: 2
      dim: 2
    }
  }
}
layer {
  name: "conv5a"
  type: "NdConvolution"
  bottom: "pool4"
  top: "conv5a"
  param {
    name: "conv5a_w"
    lr_mult: 1
    decay_mult: 1
  }
  param {
    name: "conv5a_b"
    lr_mult: 2
    decay_mult: 0
  }
  convolution_param {
    num_output: 256
    weight_filler {
      type: "gaussian"
      std: 0.01
    }
    bias_filler {
      type: "constant"
      value: 1
    }
    pad_shape {
      dim: 1
      dim: 1
      dim: 1
    }
    kernel_shape {
      dim: 3
      dim: 3
      dim: 3
    }
    stride_shape {
      dim: 1
      dim: 1
      dim: 1
    }
  }
}
layer {
  name: "relu5a"
  type: "ReLU"
  bottom: "conv5a"
  top: "conv5a"
}
layer {
  name: "pool5"
  type: "NdPooling"
  bottom: "conv5a"
  top: "pool5"
  pooling_param {
    pool: MAX
    kernel_shape {
      dim: 2
      dim: 2
      dim: 2
    }
    stride_shape {
      dim: 2
      dim: 2
      dim: 2
    }
  }
}
layer {
  name: "fc6"
  type: "InnerProduct"
  bottom: "pool5"
  top: "fc6"
  param {
    name: "fc6_w"
    lr_mult: 1
    decay_mult: 1
  }
  param {
    name: "fc6_b"
    lr_mult: 2
    decay_mult: 0
  }
  inner_product_param {
    num_output: 2048
    weight_filler {
      type: "gaussian"
      std: 0.005
    }
    bias_filler {
      type: "constant"
      value: 1
    }
  }
}
layer {
  name: "relu6"
  type: "ReLU"
  bottom: "fc6"
  top: "fc6"
}
layer {
  name: "drop6"
  type: "Dropout"
  bottom: "fc6"
  top: "fc6"
  dropout_param {
    dropout_ratio: 0.5
  }
}
layer {
  name: "fc7"
  type: "InnerProduct"
  bottom: "fc6"
  top: "fc7"
  param {
    name: "fc7_w"
    lr_mult: 1
    decay_mult: 1
  }
  param {
    name: "fc7_b"
    lr_mult: 2
    decay_mult: 0
  }
  inner_product_param {
    num_output: 2048
    weight_filler {
      type: "gaussian"
      std: 0.005
    }
    bias_filler {
      type: "constant"
      value: 1
    }
  }
}
layer {
  name: "relu7"
  type: "ReLU"
  bottom: "fc7"
  top: "fc7"
}
layer {
  name: "drop7"
  type: "Dropout"
  bottom: "fc7"
  top: "fc7"
  dropout_param {
    dropout_ratio: 0.5
  }
}
layer {
  name: "mvn"
  type: "Python"
  bottom: "fc7"
  top: "fc7_norm"
  python_param {
    module: "mvn"
    layer: "MVNLayer"
  }
}
layer {
  name: "conv1a_pos"
  type: "NdConvolution"
  bottom: "positive"
  top: "conv1a_pos"
  param {
    name: "conv1a_w"
    lr_mult: 1
    decay_mult: 1
  }
  param {
    name: "conv1a_b"
    lr_mult: 2
    decay_mult: 0
  }
  convolution_param {
    num_output: 64
    weight_filler {
      type: "gaussian"
      std: 0.01
    }
    bias_filler {
      type: "constant"
      value: 0
    }
    pad_shape {
      dim: 1
      dim: 1
      dim: 1
    }
    kernel_shape {
      dim: 3
      dim: 3
      dim: 3
    }
    stride_shape {
      dim: 1
      dim: 1
      dim: 1
    }
  }
}
layer {
  name: "relu1a_pos"
  type: "ReLU"
  bottom: "conv1a_pos"
  top: "conv1a_pos"
}
layer {
  name: "pool1_pos"
  type: "NdPooling"
  bottom: "conv1a_pos"
  top: "pool1_pos"
  pooling_param {
    pool: MAX
    kernel_shape {
      dim: 1
      dim: 2
      dim: 2
    }
    stride_shape {
      dim: 1
      dim: 2
      dim: 2
    }
  }
}
layer {
  name: "conv2a_pos"
  type: "NdConvolution"
  bottom: "pool1_pos"
  top: "conv2a_pos"
  param {
    name: "conv2a_w"
    lr_mult: 1
    decay_mult: 1
  }
  param {
    name: "conv2a_b"
    lr_mult: 2
    decay_mult: 0
  }
  convolution_param {
    num_output: 128
    weight_filler {
      type: "gaussian"
      std: 0.01
    }
    bias_filler {
      type: "constant"
      value: 1
    }
    pad_shape {
      dim: 1
      dim: 1
      dim: 1
    }
    kernel_shape {
      dim: 3
      dim: 3
      dim: 3
    }
    stride_shape {
      dim: 1
      dim: 1
      dim: 1
    }
  }
}
layer {
  name: "relu2a_pos"
  type: "ReLU"
  bottom: "conv2a_pos"
  top: "conv2a_pos"
}
layer {
  name: "pool2_pos"
  type: "NdPooling"
  bottom: "conv2a_pos"
  top: "pool2_pos"
  pooling_param {
    pool: MAX
    kernel_shape {
      dim: 2
      dim: 2
      dim: 2
    }
    stride_shape {
      dim: 2
      dim: 2
      dim: 2
    }
  }
}
layer {
  name: "conv3a_pos"
  type: "NdConvolution"
  bottom: "pool2_pos"
  top: "conv3a_pos"
  param {
    name: "conv3a_w"
    lr_mult: 1
    decay_mult: 1
  }
  param {
    name: "conv3a_b"
    lr_mult: 2
    decay_mult: 0
  }
  convolution_param {
    num_output: 256
    weight_filler {
      type: "gaussian"
      std: 0.01
    }
    bias_filler {
      type: "constant"
      value: 1
    }
    pad_shape {
      dim: 1
      dim: 1
      dim: 1
    }
    kernel_shape {
      dim: 3
      dim: 3
      dim: 3
    }
    stride_shape {
      dim: 1
      dim: 1
      dim: 1
    }
  }
}
layer {
  name: "relu3a_pos"
  type: "ReLU"
  bottom: "conv3a_pos"
  top: "conv3a_pos"
}
layer {
  name: "pool3_pos"
  type: "NdPooling"
  bottom: "conv3a_pos"
  top: "pool3_pos"
  pooling_param {
    pool: MAX
    kernel_shape {
      dim: 2
      dim: 2
      dim: 2
    }
    stride_shape {
      dim: 2
      dim: 2
      dim: 2
    }
  }
}
layer {
  name: "conv4a_pos"
  type: "NdConvolution"
  bottom: "pool3_pos"
  top: "conv4a_pos"
  param {
    name: "conv4a_w"
    lr_mult: 1
    decay_mult: 1
  }
  param {
    name: "conv4a_b"
    lr_mult: 2
    decay_mult: 0
  }
  convolution_param {
    num_output: 256
    weight_filler {
      type: "gaussian"
      std: 0.01
    }
    bias_filler {
      type: "constant"
      value: 1
    }
    pad_shape {
      dim: 1
      dim: 1
      dim: 1
    }
    kernel_shape {
      dim: 3
      dim: 3
      dim: 3
    }
    stride_shape {
      dim: 1
      dim: 1
      dim: 1
    }
  }
}
layer {
  name: "relu4a_pos"
  type: "ReLU"
  bottom: "conv4a_pos"
  top: "conv4a_pos"
}
layer {
  name: "pool4_pos"
  type: "NdPooling"
  bottom: "conv4a_pos"
  top: "pool4_pos"
  pooling_param {
    pool: MAX
    kernel_shape {
      dim: 2
      dim: 2
      dim: 2
    }
    stride_shape {
      dim: 2
      dim: 2
      dim: 2
    }
  }
}
layer {
  name: "conv5a_pos"
  type: "NdConvolution"
  bottom: "pool4_pos"
  top: "conv5a_pos"
  param {
    name: "conv5a_w"
    lr_mult: 1
    decay_mult: 1
  }
  param {
    name: "conv5a_b"
    lr_mult: 2
    decay_mult: 0
  }
  convolution_param {
    num_output: 256
    weight_filler {
      type: "gaussian"
      std: 0.01
    }
    bias_filler {
      type: "constant"
      value: 1
    }
    pad_shape {
      dim: 1
      dim: 1
      dim: 1
    }
    kernel_shape {
      dim: 3
      dim: 3
      dim: 3
    }
    stride_shape {
      dim: 1
      dim: 1
      dim: 1
    }
  }
}
layer {
  name: "relu5a_pos"
  type: "ReLU"
  bottom: "conv5a_pos"
  top: "conv5a_pos"
}
layer {
  name: "pool5_pos"
  type: "NdPooling"
  bottom: "conv5a_pos"
  top: "pool5_pos"
  pooling_param {
    pool: MAX
    kernel_shape {
      dim: 2
      dim: 2
      dim: 2
    }
    stride_shape {
      dim: 2
      dim: 2
      dim: 2
    }
  }
}
layer {
  name: "fc6_pos"
  type: "InnerProduct"
  bottom: "pool5_pos"
  top: "fc6_pos"
  param {
    name: "fc6_w"
    lr_mult: 1
    decay_mult: 1
  }
  param {
    name: "fc6_b"
    lr_mult: 2
    decay_mult: 0
  }
  inner_product_param {
    num_output: 2048
    weight_filler {
      type: "gaussian"
      std: 0.005
    }
    bias_filler {
      type: "constant"
      value: 1
    }
  }
}
layer {
  name: "relu6_pos"
  type: "ReLU"
  bottom: "fc6_pos"
  top: "fc6_pos"
}
layer {
  name: "drop6_pos"
  type: "Dropout"
  bottom: "fc6_pos"
  top: "fc6_pos"
  dropout_param {
    dropout_ratio: 0.5
  }
}
layer {
  name: "fc7_pos"
  type: "InnerProduct"
  bottom: "fc6_pos"
  top: "fc7_pos"
  param {
    name: "fc7_w"
    lr_mult: 1
    decay_mult: 1
  }
  param {
    name: "fc7_b"
    lr_mult: 2
    decay_mult: 0
  }
  inner_product_param {
    num_output: 2048
    weight_filler {
      type: "gaussian"
      std: 0.005
    }
    bias_filler {
      type: "constant"
      value: 1
    }
  }
}
layer {
  name: "relu7_pos"
  type: "ReLU"
  bottom: "fc7_pos"
  top: "fc7_pos"
}
layer {
  name: "drop7_pos"
  type: "Dropout"
  bottom: "fc7_pos"
  top: "fc7_pos"
  dropout_param {
    dropout_ratio: 0.5
  }
}
layer {
  name: "mvn_pos"
  type: "Python"
  bottom: "fc7_pos"
  top: "fc7_pos_norm"
  python_param {
    module: "mvn"
    layer: "MVNLayer"
  }
}
layer {
  name: "conv1a_neg"
  type: "NdConvolution"
  bottom: "negative"
  top: "conv1a_neg"
  param {
    name: "conv1a_w"
    lr_mult: 1
    decay_mult: 1
  }
  param {
    name: "conv1a_b"
    lr_mult: 2
    decay_mult: 0
  }
  convolution_param {
    num_output: 64
    weight_filler {
      type: "gaussian"
      std: 0.01
    }
    bias_filler {
      type: "constant"
      value: 0
    }
    pad_shape {
      dim: 1
      dim: 1
      dim: 1
    }
    kernel_shape {
      dim: 3
      dim: 3
      dim: 3
    }
    stride_shape {
      dim: 1
      dim: 1
      dim: 1
    }
  }
}
layer {
  name: "relu1a_neg"
  type: "ReLU"
  bottom: "conv1a_neg"
  top: "conv1a_neg"
}
layer {
  name: "pool1_neg"
  type: "NdPooling"
  bottom: "conv1a_neg"
  top: "pool1_neg"
  pooling_param {
    pool: MAX
    kernel_shape {
      dim: 1
      dim: 2
      dim: 2
    }
    stride_shape {
      dim: 1
      dim: 2
      dim: 2
    }
  }
}
layer {
  name: "conv2a_neg"
  type: "NdConvolution"
  bottom: "pool1_neg"
  top: "conv2a_neg"
  param {
    name: "conv2a_w"
    lr_mult: 1
    decay_mult: 1
  }
  param {
    name: "conv2a_b"
    lr_mult: 2
    decay_mult: 0
  }
  convolution_param {
    num_output: 128
    weight_filler {
      type: "gaussian"
      std: 0.01
    }
    bias_filler {
      type: "constant"
      value: 1
    }
    pad_shape {
      dim: 1
      dim: 1
      dim: 1
    }
    kernel_shape {
      dim: 3
      dim: 3
      dim: 3
    }
    stride_shape {
      dim: 1
      dim: 1
      dim: 1
    }
  }
}
layer {
  name: "relu2a_neg"
  type: "ReLU"
  bottom: "conv2a_neg"
  top: "conv2a_neg"
}
layer {
  name: "pool2_neg"
  type: "NdPooling"
  bottom: "conv2a_neg"
  top: "pool2_neg"
  pooling_param {
    pool: MAX
    kernel_shape {
      dim: 2
      dim: 2
      dim: 2
    }
    stride_shape {
      dim: 2
      dim: 2
      dim: 2
    }
  }
}
layer {
  name: "conv3a_neg"
  type: "NdConvolution"
  bottom: "pool2_neg"
  top: "conv3a_neg"
  param {
    name: "conv3a_w"
    lr_mult: 1
    decay_mult: 1
  }
  param {
    name: "conv3a_b"
    lr_mult: 2
    decay_mult: 0
  }
  convolution_param {
    num_output: 256
    weight_filler {
      type: "gaussian"
      std: 0.01
    }
    bias_filler {
      type: "constant"
      value: 1
    }
    pad_shape {
      dim: 1
      dim: 1
      dim: 1
    }
    kernel_shape {
      dim: 3
      dim: 3
      dim: 3
    }
    stride_shape {
      dim: 1
      dim: 1
      dim: 1
    }
  }
}
layer {
  name: "relu3a_neg"
  type: "ReLU"
  bottom: "conv3a_neg"
  top: "conv3a_neg"
}
layer {
  name: "pool3_neg"
  type: "NdPooling"
  bottom: "conv3a_neg"
  top: "pool3_neg"
  pooling_param {
    pool: MAX
    kernel_shape {
      dim: 2
      dim: 2
      dim: 2
    }
    stride_shape {
      dim: 2
      dim: 2
      dim: 2
    }
  }
}
layer {
  name: "conv4a_neg"
  type: "NdConvolution"
  bottom: "pool3_neg"
  top: "conv4a_neg"
  param {
    name: "conv4a_w"
    lr_mult: 1
    decay_mult: 1
  }
  param {
    name: "conv4a_b"
    lr_mult: 2
    decay_mult: 0
  }
  convolution_param {
    num_output: 256
    weight_filler {
      type: "gaussian"
      std: 0.01
    }
    bias_filler {
      type: "constant"
      value: 1
    }
    pad_shape {
      dim: 1
      dim: 1
      dim: 1
    }
    kernel_shape {
      dim: 3
      dim: 3
      dim: 3
    }
    stride_shape {
      dim: 1
      dim: 1
      dim: 1
    }
  }
}
layer {
  name: "relu4a_neg"
  type: "ReLU"
  bottom: "conv4a_neg"
  top: "conv4a_neg"
}
layer {
  name: "pool4_neg"
  type: "NdPooling"
  bottom: "conv4a_neg"
  top: "pool4_neg"
  pooling_param {
    pool: MAX
    kernel_shape {
      dim: 2
      dim: 2
      dim: 2
    }
    stride_shape {
      dim: 2
      dim: 2
      dim: 2
    }
  }
}
layer {
  name: "conv5a_neg"
  type: "NdConvolution"
  bottom: "pool4_neg"
  top: "conv5a_neg"
  param {
    name: "conv5a_w"
    lr_mult: 1
    decay_mult: 1
  }
  param {
    name: "conv5a_b"
    lr_mult: 2
    decay_mult: 0
  }
  convolution_param {
    num_output: 256
    weight_filler {
      type: "gaussian"
      std: 0.01
    }
    bias_filler {
      type: "constant"
      value: 1
    }
    pad_shape {
      dim: 1
      dim: 1
      dim: 1
    }
    kernel_shape {
      dim: 3
      dim: 3
      dim: 3
    }
    stride_shape {
      dim: 1
      dim: 1
      dim: 1
    }
  }
}
layer {
  name: "relu5a_neg"
  type: "ReLU"
  bottom: "conv5a_neg"
  top: "conv5a_neg"
}
layer {
  name: "pool5_neg"
  type: "NdPooling"
  bottom: "conv5a_neg"
  top: "pool5_neg"
  pooling_param {
    pool: MAX
    kernel_shape {
      dim: 2
      dim: 2
      dim: 2
    }
    stride_shape {
      dim: 2
      dim: 2
      dim: 2
    }
  }
}
layer {
  name: "fc6_neg"
  type: "InnerProduct"
  bottom: "pool5_neg"
  top: "fc6_neg"
  param {
    name: "fc6_w"
    lr_mult: 1
    decay_mult: 1
  }
  param {
    name: "fc6_b"
    lr_mult: 2
    decay_mult: 0
  }
  inner_product_param {
    num_output: 2048
    weight_filler {
      type: "gaussian"
      std: 0.005
    }
    bias_filler {
      type: "constant"
      value: 1
    }
  }
}
layer {
  name: "relu6_neg"
  type: "ReLU"
  bottom: "fc6_neg"
  top: "fc6_neg"
}
layer {
  name: "drop6_neg"
  type: "Dropout"
  bottom: "fc6_neg"
  top: "fc6_neg"
  dropout_param {
    dropout_ratio: 0.5
  }
}
layer {
  name: "fc7_neg"
  type: "InnerProduct"
  bottom: "fc6_neg"
  top: "fc7_neg"
  param {
    name: "fc7_w"
    lr_mult: 1
    decay_mult: 1
  }
  param {
    name: "fc7_b"
    lr_mult: 2
    decay_mult: 0
  }
  inner_product_param {
    num_output: 2048
    weight_filler {
      type: "gaussian"
      std: 0.005
    }
    bias_filler {
      type: "constant"
      value: 1
    }
  }
}
layer {
  name: "relu7_neg"
  type: "ReLU"
  bottom: "fc7_neg"
  top: "fc7_neg"
}
layer {
  name: "drop7_neg"
  type: "Dropout"
  bottom: "fc7_neg"
  top: "fc7_neg"
  dropout_param {
    dropout_ratio: 0.5
  }
}
layer {
  name: "mvn_neg"
  type: "Python"
  bottom: "fc7_neg"
  top: "fc7_neg_norm"
  python_param {
    module: "mvn"
    layer: "MVNLayer"
  }
}
layer {
  name: "save"
  type: "Python"
  bottom: "fc7_norm"
  bottom: "fc7_pos_norm"
  bottom: "fc7_neg_norm"
  python_param {
    module: "save_features"
    layer: "SaveFeaturesLayer"
    param_str: "{\"n_samples\":\"35000\", \"filename\":\"../../features/features_triplet_loss_mvn_train.npz\"}"
  }
}
I0518 06:59:21.556648  9901 layer_factory.hpp:77] Creating layer data
I0518 06:59:21.657054  9901 net.cpp:100] Creating Layer data
I0518 06:59:21.657105  9901 net.cpp:408] data -> triplet
I0518 06:59:21.660200  9914 db_lmdb.cpp:35] Opened lmdb /data/leo-data/Synthetic/LMDB/Triplets/train
I0518 06:59:21.736217  9901 data_layer.cpp:41] output data size: 10,144,112,112
I0518 06:59:21.971746  9901 net.cpp:150] Setting up data
I0518 06:59:21.971848  9901 net.cpp:157] Top shape: 10 144 112 112 (18063360)
I0518 06:59:21.971854  9901 net.cpp:165] Memory required for data: 72253440
I0518 06:59:21.971870  9901 layer_factory.hpp:77] Creating layer slicer
I0518 06:59:21.971891  9901 net.cpp:100] Creating Layer slicer
I0518 06:59:21.971900  9901 net.cpp:434] slicer <- triplet
I0518 06:59:21.971916  9901 net.cpp:408] slicer -> anchor_stacked
I0518 06:59:21.971943  9901 net.cpp:408] slicer -> positive_stacked
I0518 06:59:21.971954  9901 net.cpp:408] slicer -> negative_stacked
I0518 06:59:21.972064  9901 net.cpp:150] Setting up slicer
I0518 06:59:21.972076  9901 net.cpp:157] Top shape: 10 48 112 112 (6021120)
I0518 06:59:21.972084  9901 net.cpp:157] Top shape: 10 48 112 112 (6021120)
I0518 06:59:21.972091  9901 net.cpp:157] Top shape: 10 48 112 112 (6021120)
I0518 06:59:21.972098  9901 net.cpp:165] Memory required for data: 144506880
I0518 06:59:21.972105  9901 layer_factory.hpp:77] Creating layer reshape_anchor
I0518 06:59:21.972132  9901 net.cpp:100] Creating Layer reshape_anchor
I0518 06:59:21.972139  9901 net.cpp:434] reshape_anchor <- anchor_stacked
I0518 06:59:21.972157  9901 net.cpp:408] reshape_anchor -> anchor
I0518 06:59:21.972205  9901 net.cpp:150] Setting up reshape_anchor
I0518 06:59:21.972216  9901 net.cpp:157] Top shape: 10 3 16 112 112 (6021120)
I0518 06:59:21.972223  9901 net.cpp:165] Memory required for data: 168591360
I0518 06:59:21.972229  9901 layer_factory.hpp:77] Creating layer reshape_positive
I0518 06:59:21.972240  9901 net.cpp:100] Creating Layer reshape_positive
I0518 06:59:21.972249  9901 net.cpp:434] reshape_positive <- positive_stacked
I0518 06:59:21.972259  9901 net.cpp:408] reshape_positive -> positive
I0518 06:59:21.972292  9901 net.cpp:150] Setting up reshape_positive
I0518 06:59:21.972302  9901 net.cpp:157] Top shape: 10 3 16 112 112 (6021120)
I0518 06:59:21.972333  9901 net.cpp:165] Memory required for data: 192675840
I0518 06:59:21.972340  9901 layer_factory.hpp:77] Creating layer reshape_negative
I0518 06:59:21.972352  9901 net.cpp:100] Creating Layer reshape_negative
I0518 06:59:21.972359  9901 net.cpp:434] reshape_negative <- negative_stacked
I0518 06:59:21.972371  9901 net.cpp:408] reshape_negative -> negative
I0518 06:59:21.972400  9901 net.cpp:150] Setting up reshape_negative
I0518 06:59:21.972414  9901 net.cpp:157] Top shape: 10 3 16 112 112 (6021120)
I0518 06:59:21.972420  9901 net.cpp:165] Memory required for data: 216760320
I0518 06:59:21.972425  9901 layer_factory.hpp:77] Creating layer conv1a
I0518 06:59:21.972455  9901 net.cpp:100] Creating Layer conv1a
I0518 06:59:21.972460  9901 net.cpp:434] conv1a <- anchor
I0518 06:59:21.972473  9901 net.cpp:408] conv1a -> conv1a
I0518 06:59:22.044368  9915 blocking_queue.cpp:50] Waiting for data
I0518 06:59:23.400490  9901 net.cpp:150] Setting up conv1a
I0518 06:59:23.400537  9901 net.cpp:157] Top shape: 10 64 16 112 112 (128450560)
I0518 06:59:23.400542  9901 net.cpp:165] Memory required for data: 730562560
I0518 06:59:23.400810  9901 layer_factory.hpp:77] Creating layer relu1a
I0518 06:59:23.400835  9901 net.cpp:100] Creating Layer relu1a
I0518 06:59:23.400845  9901 net.cpp:434] relu1a <- conv1a
I0518 06:59:23.400857  9901 net.cpp:395] relu1a -> conv1a (in-place)
I0518 06:59:23.401111  9901 net.cpp:150] Setting up relu1a
I0518 06:59:23.401124  9901 net.cpp:157] Top shape: 10 64 16 112 112 (128450560)
I0518 06:59:23.401131  9901 net.cpp:165] Memory required for data: 1244364800
I0518 06:59:23.401139  9901 layer_factory.hpp:77] Creating layer pool1
I0518 06:59:23.401157  9901 net.cpp:100] Creating Layer pool1
I0518 06:59:23.401165  9901 net.cpp:434] pool1 <- conv1a
I0518 06:59:23.401178  9901 net.cpp:408] pool1 -> pool1
I0518 06:59:23.402613  9901 net.cpp:150] Setting up pool1
I0518 06:59:23.402631  9901 net.cpp:157] Top shape: 10 64 16 56 56 (32112640)
I0518 06:59:23.402638  9901 net.cpp:165] Memory required for data: 1372815360
I0518 06:59:23.402647  9901 layer_factory.hpp:77] Creating layer conv2a
I0518 06:59:23.402670  9901 net.cpp:100] Creating Layer conv2a
I0518 06:59:23.402679  9901 net.cpp:434] conv2a <- pool1
I0518 06:59:23.402694  9901 net.cpp:408] conv2a -> conv2a
I0518 06:59:23.415465  9901 net.cpp:150] Setting up conv2a
I0518 06:59:23.415506  9901 net.cpp:157] Top shape: 10 128 16 56 56 (64225280)
I0518 06:59:23.415511  9901 net.cpp:165] Memory required for data: 1629716480
I0518 06:59:23.415535  9901 layer_factory.hpp:77] Creating layer relu2a
I0518 06:59:23.415554  9901 net.cpp:100] Creating Layer relu2a
I0518 06:59:23.415560  9901 net.cpp:434] relu2a <- conv2a
I0518 06:59:23.415572  9901 net.cpp:395] relu2a -> conv2a (in-place)
I0518 06:59:23.415796  9901 net.cpp:150] Setting up relu2a
I0518 06:59:23.415807  9901 net.cpp:157] Top shape: 10 128 16 56 56 (64225280)
I0518 06:59:23.415814  9901 net.cpp:165] Memory required for data: 1886617600
I0518 06:59:23.415827  9901 layer_factory.hpp:77] Creating layer pool2
I0518 06:59:23.415843  9901 net.cpp:100] Creating Layer pool2
I0518 06:59:23.415851  9901 net.cpp:434] pool2 <- conv2a
I0518 06:59:23.415864  9901 net.cpp:408] pool2 -> pool2
I0518 06:59:23.416095  9901 net.cpp:150] Setting up pool2
I0518 06:59:23.416107  9901 net.cpp:157] Top shape: 10 128 8 28 28 (8028160)
I0518 06:59:23.416113  9901 net.cpp:165] Memory required for data: 1918730240
I0518 06:59:23.416121  9901 layer_factory.hpp:77] Creating layer conv3a
I0518 06:59:23.416139  9901 net.cpp:100] Creating Layer conv3a
I0518 06:59:23.416146  9901 net.cpp:434] conv3a <- pool2
I0518 06:59:23.416159  9901 net.cpp:408] conv3a -> conv3a
I0518 06:59:23.447937  9901 net.cpp:150] Setting up conv3a
I0518 06:59:23.447973  9901 net.cpp:157] Top shape: 10 256 8 28 28 (16056320)
I0518 06:59:23.447978  9901 net.cpp:165] Memory required for data: 1982955520
I0518 06:59:23.448006  9901 layer_factory.hpp:77] Creating layer relu3a
I0518 06:59:23.448025  9901 net.cpp:100] Creating Layer relu3a
I0518 06:59:23.448035  9901 net.cpp:434] relu3a <- conv3a
I0518 06:59:23.448074  9901 net.cpp:395] relu3a -> conv3a (in-place)
I0518 06:59:23.448276  9901 net.cpp:150] Setting up relu3a
I0518 06:59:23.448285  9901 net.cpp:157] Top shape: 10 256 8 28 28 (16056320)
I0518 06:59:23.448292  9901 net.cpp:165] Memory required for data: 2047180800
I0518 06:59:23.448300  9901 layer_factory.hpp:77] Creating layer pool3
I0518 06:59:23.448318  9901 net.cpp:100] Creating Layer pool3
I0518 06:59:23.448324  9901 net.cpp:434] pool3 <- conv3a
I0518 06:59:23.448338  9901 net.cpp:408] pool3 -> pool3
I0518 06:59:23.448573  9901 net.cpp:150] Setting up pool3
I0518 06:59:23.448585  9901 net.cpp:157] Top shape: 10 256 4 14 14 (2007040)
I0518 06:59:23.448592  9901 net.cpp:165] Memory required for data: 2055208960
I0518 06:59:23.448599  9901 layer_factory.hpp:77] Creating layer conv4a
I0518 06:59:23.448618  9901 net.cpp:100] Creating Layer conv4a
I0518 06:59:23.448626  9901 net.cpp:434] conv4a <- pool3
I0518 06:59:23.448639  9901 net.cpp:408] conv4a -> conv4a
I0518 06:59:23.512657  9901 net.cpp:150] Setting up conv4a
I0518 06:59:23.512701  9901 net.cpp:157] Top shape: 10 256 4 14 14 (2007040)
I0518 06:59:23.512706  9901 net.cpp:165] Memory required for data: 2063237120
I0518 06:59:23.512717  9901 layer_factory.hpp:77] Creating layer relu4a
I0518 06:59:23.512737  9901 net.cpp:100] Creating Layer relu4a
I0518 06:59:23.512743  9901 net.cpp:434] relu4a <- conv4a
I0518 06:59:23.512758  9901 net.cpp:395] relu4a -> conv4a (in-place)
I0518 06:59:23.513763  9901 net.cpp:150] Setting up relu4a
I0518 06:59:23.513778  9901 net.cpp:157] Top shape: 10 256 4 14 14 (2007040)
I0518 06:59:23.513788  9901 net.cpp:165] Memory required for data: 2071265280
I0518 06:59:23.513792  9901 layer_factory.hpp:77] Creating layer pool4
I0518 06:59:23.513809  9901 net.cpp:100] Creating Layer pool4
I0518 06:59:23.513818  9901 net.cpp:434] pool4 <- conv4a
I0518 06:59:23.513830  9901 net.cpp:408] pool4 -> pool4
I0518 06:59:23.514073  9901 net.cpp:150] Setting up pool4
I0518 06:59:23.514086  9901 net.cpp:157] Top shape: 10 256 2 7 7 (250880)
I0518 06:59:23.514091  9901 net.cpp:165] Memory required for data: 2072268800
I0518 06:59:23.514098  9901 layer_factory.hpp:77] Creating layer conv5a
I0518 06:59:23.514116  9901 net.cpp:100] Creating Layer conv5a
I0518 06:59:23.514123  9901 net.cpp:434] conv5a <- pool4
I0518 06:59:23.514137  9901 net.cpp:408] conv5a -> conv5a
I0518 06:59:23.579154  9901 net.cpp:150] Setting up conv5a
I0518 06:59:23.579190  9901 net.cpp:157] Top shape: 10 256 2 7 7 (250880)
I0518 06:59:23.579195  9901 net.cpp:165] Memory required for data: 2073272320
I0518 06:59:23.579217  9901 layer_factory.hpp:77] Creating layer relu5a
I0518 06:59:23.579249  9901 net.cpp:100] Creating Layer relu5a
I0518 06:59:23.579259  9901 net.cpp:434] relu5a <- conv5a
I0518 06:59:23.579272  9901 net.cpp:395] relu5a -> conv5a (in-place)
I0518 06:59:23.579484  9901 net.cpp:150] Setting up relu5a
I0518 06:59:23.579496  9901 net.cpp:157] Top shape: 10 256 2 7 7 (250880)
I0518 06:59:23.579502  9901 net.cpp:165] Memory required for data: 2074275840
I0518 06:59:23.579509  9901 layer_factory.hpp:77] Creating layer pool5
I0518 06:59:23.579526  9901 net.cpp:100] Creating Layer pool5
I0518 06:59:23.579535  9901 net.cpp:434] pool5 <- conv5a
I0518 06:59:23.579547  9901 net.cpp:408] pool5 -> pool5
I0518 06:59:23.579792  9901 net.cpp:150] Setting up pool5
I0518 06:59:23.579804  9901 net.cpp:157] Top shape: 10 256 1 4 4 (40960)
I0518 06:59:23.579809  9901 net.cpp:165] Memory required for data: 2074439680
I0518 06:59:23.579818  9901 layer_factory.hpp:77] Creating layer fc6
I0518 06:59:23.579845  9901 net.cpp:100] Creating Layer fc6
I0518 06:59:23.579854  9901 net.cpp:434] fc6 <- pool5
I0518 06:59:23.579864  9901 net.cpp:408] fc6 -> fc6
I0518 06:59:24.000218  9901 net.cpp:150] Setting up fc6
I0518 06:59:24.000272  9901 net.cpp:157] Top shape: 10 2048 (20480)
I0518 06:59:24.000279  9901 net.cpp:165] Memory required for data: 2074521600
I0518 06:59:24.000300  9901 layer_factory.hpp:77] Creating layer relu6
I0518 06:59:24.000320  9901 net.cpp:100] Creating Layer relu6
I0518 06:59:24.000358  9901 net.cpp:434] relu6 <- fc6
I0518 06:59:24.000371  9901 net.cpp:395] relu6 -> fc6 (in-place)
I0518 06:59:24.003394  9901 net.cpp:150] Setting up relu6
I0518 06:59:24.003437  9901 net.cpp:157] Top shape: 10 2048 (20480)
I0518 06:59:24.003443  9901 net.cpp:165] Memory required for data: 2074603520
I0518 06:59:24.003450  9901 layer_factory.hpp:77] Creating layer drop6
I0518 06:59:24.003465  9901 net.cpp:100] Creating Layer drop6
I0518 06:59:24.003471  9901 net.cpp:434] drop6 <- fc6
I0518 06:59:24.003480  9901 net.cpp:395] drop6 -> fc6 (in-place)
I0518 06:59:24.003552  9901 net.cpp:150] Setting up drop6
I0518 06:59:24.003564  9901 net.cpp:157] Top shape: 10 2048 (20480)
I0518 06:59:24.003569  9901 net.cpp:165] Memory required for data: 2074685440
I0518 06:59:24.003574  9901 layer_factory.hpp:77] Creating layer fc7
I0518 06:59:24.003599  9901 net.cpp:100] Creating Layer fc7
I0518 06:59:24.003607  9901 net.cpp:434] fc7 <- fc6
I0518 06:59:24.003617  9901 net.cpp:408] fc7 -> fc7
I0518 06:59:24.215273  9901 net.cpp:150] Setting up fc7
I0518 06:59:24.215314  9901 net.cpp:157] Top shape: 10 2048 (20480)
I0518 06:59:24.215318  9901 net.cpp:165] Memory required for data: 2074767360
I0518 06:59:24.215343  9901 layer_factory.hpp:77] Creating layer relu7
I0518 06:59:24.215359  9901 net.cpp:100] Creating Layer relu7
I0518 06:59:24.215364  9901 net.cpp:434] relu7 <- fc7
I0518 06:59:24.215374  9901 net.cpp:395] relu7 -> fc7 (in-place)
I0518 06:59:24.215648  9901 net.cpp:150] Setting up relu7
I0518 06:59:24.215658  9901 net.cpp:157] Top shape: 10 2048 (20480)
I0518 06:59:24.215662  9901 net.cpp:165] Memory required for data: 2074849280
I0518 06:59:24.215667  9901 layer_factory.hpp:77] Creating layer drop7
I0518 06:59:24.215678  9901 net.cpp:100] Creating Layer drop7
I0518 06:59:24.215683  9901 net.cpp:434] drop7 <- fc7
I0518 06:59:24.215688  9901 net.cpp:395] drop7 -> fc7 (in-place)
I0518 06:59:24.215719  9901 net.cpp:150] Setting up drop7
I0518 06:59:24.215726  9901 net.cpp:157] Top shape: 10 2048 (20480)
I0518 06:59:24.215729  9901 net.cpp:165] Memory required for data: 2074931200
I0518 06:59:24.215734  9901 layer_factory.hpp:77] Creating layer mvn
I0518 06:59:25.095662  9901 net.cpp:100] Creating Layer mvn
I0518 06:59:25.095698  9901 net.cpp:434] mvn <- fc7
I0518 06:59:25.095712  9901 net.cpp:408] mvn -> fc7_norm
I0518 06:59:26.025538  9901 net.cpp:150] Setting up mvn
I0518 06:59:26.025576  9901 net.cpp:157] Top shape: 10 2048 (20480)
I0518 06:59:26.025583  9901 net.cpp:165] Memory required for data: 2075013120
I0518 06:59:26.025607  9901 layer_factory.hpp:77] Creating layer conv1a_pos
I0518 06:59:26.025643  9901 net.cpp:100] Creating Layer conv1a_pos
I0518 06:59:26.025671  9901 net.cpp:434] conv1a_pos <- positive
I0518 06:59:26.025688  9901 net.cpp:408] conv1a_pos -> conv1a_pos
I0518 06:59:26.032130  9901 net.cpp:150] Setting up conv1a_pos
I0518 06:59:26.032176  9901 net.cpp:157] Top shape: 10 64 16 112 112 (128450560)
I0518 06:59:26.032179  9901 net.cpp:165] Memory required for data: 2588815360
I0518 06:59:26.032192  9901 net.cpp:493] Sharing parameters 'conv1a_w' owned by layer 'conv1a', param index 0
I0518 06:59:26.032199  9901 net.cpp:493] Sharing parameters 'conv1a_b' owned by layer 'conv1a', param index 1
I0518 06:59:26.032204  9901 layer_factory.hpp:77] Creating layer relu1a_pos
I0518 06:59:26.032227  9901 net.cpp:100] Creating Layer relu1a_pos
I0518 06:59:26.032238  9901 net.cpp:434] relu1a_pos <- conv1a_pos
I0518 06:59:26.032248  9901 net.cpp:395] relu1a_pos -> conv1a_pos (in-place)
I0518 06:59:26.032696  9901 net.cpp:150] Setting up relu1a_pos
I0518 06:59:26.032727  9901 net.cpp:157] Top shape: 10 64 16 112 112 (128450560)
I0518 06:59:26.032742  9901 net.cpp:165] Memory required for data: 3102617600
I0518 06:59:26.032745  9901 layer_factory.hpp:77] Creating layer pool1_pos
I0518 06:59:26.032786  9901 net.cpp:100] Creating Layer pool1_pos
I0518 06:59:26.032799  9901 net.cpp:434] pool1_pos <- conv1a_pos
I0518 06:59:26.032815  9901 net.cpp:408] pool1_pos -> pool1_pos
I0518 06:59:26.034772  9901 net.cpp:150] Setting up pool1_pos
I0518 06:59:26.034807  9901 net.cpp:157] Top shape: 10 64 16 56 56 (32112640)
I0518 06:59:26.034812  9901 net.cpp:165] Memory required for data: 3231068160
I0518 06:59:26.034829  9901 layer_factory.hpp:77] Creating layer conv2a_pos
I0518 06:59:26.034858  9901 net.cpp:100] Creating Layer conv2a_pos
I0518 06:59:26.034864  9901 net.cpp:434] conv2a_pos <- pool1_pos
I0518 06:59:26.034886  9901 net.cpp:408] conv2a_pos -> conv2a_pos
I0518 06:59:26.050001  9901 net.cpp:150] Setting up conv2a_pos
I0518 06:59:26.050045  9901 net.cpp:157] Top shape: 10 128 16 56 56 (64225280)
I0518 06:59:26.050050  9901 net.cpp:165] Memory required for data: 3487969280
I0518 06:59:26.050086  9901 net.cpp:493] Sharing parameters 'conv2a_w' owned by layer 'conv2a', param index 0
I0518 06:59:26.050099  9901 net.cpp:493] Sharing parameters 'conv2a_b' owned by layer 'conv2a', param index 1
I0518 06:59:26.050104  9901 layer_factory.hpp:77] Creating layer relu2a_pos
I0518 06:59:26.050128  9901 net.cpp:100] Creating Layer relu2a_pos
I0518 06:59:26.050135  9901 net.cpp:434] relu2a_pos <- conv2a_pos
I0518 06:59:26.050143  9901 net.cpp:395] relu2a_pos -> conv2a_pos (in-place)
I0518 06:59:26.051905  9901 net.cpp:150] Setting up relu2a_pos
I0518 06:59:26.051939  9901 net.cpp:157] Top shape: 10 128 16 56 56 (64225280)
I0518 06:59:26.051949  9901 net.cpp:165] Memory required for data: 3744870400
I0518 06:59:26.051954  9901 layer_factory.hpp:77] Creating layer pool2_pos
I0518 06:59:26.052021  9901 net.cpp:100] Creating Layer pool2_pos
I0518 06:59:26.052031  9901 net.cpp:434] pool2_pos <- conv2a_pos
I0518 06:59:26.052045  9901 net.cpp:408] pool2_pos -> pool2_pos
I0518 06:59:26.052543  9901 net.cpp:150] Setting up pool2_pos
I0518 06:59:26.052577  9901 net.cpp:157] Top shape: 10 128 8 28 28 (8028160)
I0518 06:59:26.052582  9901 net.cpp:165] Memory required for data: 3776983040
I0518 06:59:26.052597  9901 layer_factory.hpp:77] Creating layer conv3a_pos
I0518 06:59:26.052629  9901 net.cpp:100] Creating Layer conv3a_pos
I0518 06:59:26.052641  9901 net.cpp:434] conv3a_pos <- pool2_pos
I0518 06:59:26.052659  9901 net.cpp:408] conv3a_pos -> conv3a_pos
I0518 06:59:26.102888  9901 net.cpp:150] Setting up conv3a_pos
I0518 06:59:26.103029  9901 net.cpp:157] Top shape: 10 256 8 28 28 (16056320)
I0518 06:59:26.103049  9901 net.cpp:165] Memory required for data: 3841208320
I0518 06:59:26.103118  9901 net.cpp:493] Sharing parameters 'conv3a_w' owned by layer 'conv3a', param index 0
I0518 06:59:26.103143  9901 net.cpp:493] Sharing parameters 'conv3a_b' owned by layer 'conv3a', param index 1
I0518 06:59:26.103157  9901 layer_factory.hpp:77] Creating layer relu3a_pos
I0518 06:59:26.103180  9901 net.cpp:100] Creating Layer relu3a_pos
I0518 06:59:26.103199  9901 net.cpp:434] relu3a_pos <- conv3a_pos
I0518 06:59:26.103224  9901 net.cpp:395] relu3a_pos -> conv3a_pos (in-place)
I0518 06:59:26.103695  9901 net.cpp:150] Setting up relu3a_pos
I0518 06:59:26.103725  9901 net.cpp:157] Top shape: 10 256 8 28 28 (16056320)
I0518 06:59:26.103735  9901 net.cpp:165] Memory required for data: 3905433600
I0518 06:59:26.103759  9901 layer_factory.hpp:77] Creating layer pool3_pos
I0518 06:59:26.103787  9901 net.cpp:100] Creating Layer pool3_pos
I0518 06:59:26.103808  9901 net.cpp:434] pool3_pos <- conv3a_pos
I0518 06:59:26.103829  9901 net.cpp:408] pool3_pos -> pool3_pos
I0518 06:59:26.104414  9901 net.cpp:150] Setting up pool3_pos
I0518 06:59:26.104467  9901 net.cpp:157] Top shape: 10 256 4 14 14 (2007040)
I0518 06:59:26.104490  9901 net.cpp:165] Memory required for data: 3913461760
I0518 06:59:26.104516  9901 layer_factory.hpp:77] Creating layer conv4a_pos
I0518 06:59:26.104568  9901 net.cpp:100] Creating Layer conv4a_pos
I0518 06:59:26.104596  9901 net.cpp:434] conv4a_pos <- pool3_pos
I0518 06:59:26.104640  9901 net.cpp:408] conv4a_pos -> conv4a_pos
I0518 06:59:26.203564  9901 net.cpp:150] Setting up conv4a_pos
I0518 06:59:26.203621  9901 net.cpp:157] Top shape: 10 256 4 14 14 (2007040)
I0518 06:59:26.203629  9901 net.cpp:165] Memory required for data: 3921489920
I0518 06:59:26.203691  9901 net.cpp:493] Sharing parameters 'conv4a_w' owned by layer 'conv4a', param index 0
I0518 06:59:26.203701  9901 net.cpp:493] Sharing parameters 'conv4a_b' owned by layer 'conv4a', param index 1
I0518 06:59:26.203709  9901 layer_factory.hpp:77] Creating layer relu4a_pos
I0518 06:59:26.203724  9901 net.cpp:100] Creating Layer relu4a_pos
I0518 06:59:26.203733  9901 net.cpp:434] relu4a_pos <- conv4a_pos
I0518 06:59:26.203744  9901 net.cpp:395] relu4a_pos -> conv4a_pos (in-place)
I0518 06:59:26.205276  9901 net.cpp:150] Setting up relu4a_pos
I0518 06:59:26.205305  9901 net.cpp:157] Top shape: 10 256 4 14 14 (2007040)
I0518 06:59:26.205312  9901 net.cpp:165] Memory required for data: 3929518080
I0518 06:59:26.205318  9901 layer_factory.hpp:77] Creating layer pool4_pos
I0518 06:59:26.205337  9901 net.cpp:100] Creating Layer pool4_pos
I0518 06:59:26.205343  9901 net.cpp:434] pool4_pos <- conv4a_pos
I0518 06:59:26.205355  9901 net.cpp:408] pool4_pos -> pool4_pos
I0518 06:59:26.205690  9901 net.cpp:150] Setting up pool4_pos
I0518 06:59:26.205704  9901 net.cpp:157] Top shape: 10 256 2 7 7 (250880)
I0518 06:59:26.205708  9901 net.cpp:165] Memory required for data: 3930521600
I0518 06:59:26.205711  9901 layer_factory.hpp:77] Creating layer conv5a_pos
I0518 06:59:26.205729  9901 net.cpp:100] Creating Layer conv5a_pos
I0518 06:59:26.205734  9901 net.cpp:434] conv5a_pos <- pool4_pos
I0518 06:59:26.205740  9901 net.cpp:408] conv5a_pos -> conv5a_pos
I0518 06:59:26.285894  9901 net.cpp:150] Setting up conv5a_pos
I0518 06:59:26.285931  9901 net.cpp:157] Top shape: 10 256 2 7 7 (250880)
I0518 06:59:26.285935  9901 net.cpp:165] Memory required for data: 3931525120
I0518 06:59:26.285943  9901 net.cpp:493] Sharing parameters 'conv5a_w' owned by layer 'conv5a', param index 0
I0518 06:59:26.285951  9901 net.cpp:493] Sharing parameters 'conv5a_b' owned by layer 'conv5a', param index 1
I0518 06:59:26.285955  9901 layer_factory.hpp:77] Creating layer relu5a_pos
I0518 06:59:26.285967  9901 net.cpp:100] Creating Layer relu5a_pos
I0518 06:59:26.285972  9901 net.cpp:434] relu5a_pos <- conv5a_pos
I0518 06:59:26.285981  9901 net.cpp:395] relu5a_pos -> conv5a_pos (in-place)
I0518 06:59:26.286206  9901 net.cpp:150] Setting up relu5a_pos
I0518 06:59:26.286217  9901 net.cpp:157] Top shape: 10 256 2 7 7 (250880)
I0518 06:59:26.286221  9901 net.cpp:165] Memory required for data: 3932528640
I0518 06:59:26.286224  9901 layer_factory.hpp:77] Creating layer pool5_pos
I0518 06:59:26.286234  9901 net.cpp:100] Creating Layer pool5_pos
I0518 06:59:26.286239  9901 net.cpp:434] pool5_pos <- conv5a_pos
I0518 06:59:26.286247  9901 net.cpp:408] pool5_pos -> pool5_pos
I0518 06:59:26.286546  9901 net.cpp:150] Setting up pool5_pos
I0518 06:59:26.286558  9901 net.cpp:157] Top shape: 10 256 1 4 4 (40960)
I0518 06:59:26.286561  9901 net.cpp:165] Memory required for data: 3932692480
I0518 06:59:26.286564  9901 layer_factory.hpp:77] Creating layer fc6_pos
I0518 06:59:26.286578  9901 net.cpp:100] Creating Layer fc6_pos
I0518 06:59:26.286583  9901 net.cpp:434] fc6_pos <- pool5_pos
I0518 06:59:26.286590  9901 net.cpp:408] fc6_pos -> fc6_pos
I0518 06:59:26.742316  9901 net.cpp:150] Setting up fc6_pos
I0518 06:59:26.742355  9901 net.cpp:157] Top shape: 10 2048 (20480)
I0518 06:59:26.742359  9901 net.cpp:165] Memory required for data: 3932774400
I0518 06:59:26.742367  9901 net.cpp:493] Sharing parameters 'fc6_w' owned by layer 'fc6', param index 0
I0518 06:59:26.742374  9901 net.cpp:493] Sharing parameters 'fc6_b' owned by layer 'fc6', param index 1
I0518 06:59:26.742378  9901 layer_factory.hpp:77] Creating layer relu6_pos
I0518 06:59:26.742390  9901 net.cpp:100] Creating Layer relu6_pos
I0518 06:59:26.742398  9901 net.cpp:434] relu6_pos <- fc6_pos
I0518 06:59:26.742409  9901 net.cpp:395] relu6_pos -> fc6_pos (in-place)
I0518 06:59:26.744022  9901 net.cpp:150] Setting up relu6_pos
I0518 06:59:26.744041  9901 net.cpp:157] Top shape: 10 2048 (20480)
I0518 06:59:26.744045  9901 net.cpp:165] Memory required for data: 3932856320
I0518 06:59:26.744055  9901 layer_factory.hpp:77] Creating layer drop6_pos
I0518 06:59:26.744089  9901 net.cpp:100] Creating Layer drop6_pos
I0518 06:59:26.744101  9901 net.cpp:434] drop6_pos <- fc6_pos
I0518 06:59:26.744120  9901 net.cpp:395] drop6_pos -> fc6_pos (in-place)
I0518 06:59:26.744175  9901 net.cpp:150] Setting up drop6_pos
I0518 06:59:26.744190  9901 net.cpp:157] Top shape: 10 2048 (20480)
I0518 06:59:26.744195  9901 net.cpp:165] Memory required for data: 3932938240
I0518 06:59:26.744200  9901 layer_factory.hpp:77] Creating layer fc7_pos
I0518 06:59:26.744216  9901 net.cpp:100] Creating Layer fc7_pos
I0518 06:59:26.744223  9901 net.cpp:434] fc7_pos <- fc6_pos
I0518 06:59:26.744244  9901 net.cpp:408] fc7_pos -> fc7_pos
I0518 06:59:26.936975  9901 net.cpp:150] Setting up fc7_pos
I0518 06:59:26.937028  9901 net.cpp:157] Top shape: 10 2048 (20480)
I0518 06:59:26.937036  9901 net.cpp:165] Memory required for data: 3933020160
I0518 06:59:26.937072  9901 net.cpp:493] Sharing parameters 'fc7_w' owned by layer 'fc7', param index 0
I0518 06:59:26.937119  9901 net.cpp:493] Sharing parameters 'fc7_b' owned by layer 'fc7', param index 1
I0518 06:59:26.937136  9901 layer_factory.hpp:77] Creating layer relu7_pos
I0518 06:59:26.937180  9901 net.cpp:100] Creating Layer relu7_pos
I0518 06:59:26.937193  9901 net.cpp:434] relu7_pos <- fc7_pos
I0518 06:59:26.937207  9901 net.cpp:395] relu7_pos -> fc7_pos (in-place)
I0518 06:59:26.937760  9901 net.cpp:150] Setting up relu7_pos
I0518 06:59:26.937775  9901 net.cpp:157] Top shape: 10 2048 (20480)
I0518 06:59:26.937785  9901 net.cpp:165] Memory required for data: 3933102080
I0518 06:59:26.937793  9901 layer_factory.hpp:77] Creating layer drop7_pos
I0518 06:59:26.937814  9901 net.cpp:100] Creating Layer drop7_pos
I0518 06:59:26.937820  9901 net.cpp:434] drop7_pos <- fc7_pos
I0518 06:59:26.937827  9901 net.cpp:395] drop7_pos -> fc7_pos (in-place)
I0518 06:59:26.937883  9901 net.cpp:150] Setting up drop7_pos
I0518 06:59:26.937897  9901 net.cpp:157] Top shape: 10 2048 (20480)
I0518 06:59:26.937902  9901 net.cpp:165] Memory required for data: 3933184000
I0518 06:59:26.937907  9901 layer_factory.hpp:77] Creating layer mvn_pos
I0518 06:59:26.938076  9901 net.cpp:100] Creating Layer mvn_pos
I0518 06:59:26.938086  9901 net.cpp:434] mvn_pos <- fc7_pos
I0518 06:59:26.938096  9901 net.cpp:408] mvn_pos -> fc7_pos_norm
I0518 06:59:26.938515  9901 net.cpp:150] Setting up mvn_pos
I0518 06:59:26.938540  9901 net.cpp:157] Top shape: 10 2048 (20480)
I0518 06:59:26.938552  9901 net.cpp:165] Memory required for data: 3933265920
I0518 06:59:26.938558  9901 layer_factory.hpp:77] Creating layer conv1a_neg
I0518 06:59:26.938578  9901 net.cpp:100] Creating Layer conv1a_neg
I0518 06:59:26.938585  9901 net.cpp:434] conv1a_neg <- negative
I0518 06:59:26.938608  9901 net.cpp:408] conv1a_neg -> conv1a_neg
I0518 06:59:26.943503  9901 net.cpp:150] Setting up conv1a_neg
I0518 06:59:26.943558  9901 net.cpp:157] Top shape: 10 64 16 112 112 (128450560)
I0518 06:59:26.943564  9901 net.cpp:165] Memory required for data: 4447068160
I0518 06:59:26.943575  9901 net.cpp:493] Sharing parameters 'conv1a_w' owned by layer 'conv1a', param index 0
I0518 06:59:26.943585  9901 net.cpp:493] Sharing parameters 'conv1a_b' owned by layer 'conv1a', param index 1
I0518 06:59:26.943608  9901 layer_factory.hpp:77] Creating layer relu1a_neg
I0518 06:59:26.943626  9901 net.cpp:100] Creating Layer relu1a_neg
I0518 06:59:26.943635  9901 net.cpp:434] relu1a_neg <- conv1a_neg
I0518 06:59:26.943647  9901 net.cpp:395] relu1a_neg -> conv1a_neg (in-place)
I0518 06:59:26.944036  9901 net.cpp:150] Setting up relu1a_neg
I0518 06:59:26.944058  9901 net.cpp:157] Top shape: 10 64 16 112 112 (128450560)
I0518 06:59:26.944068  9901 net.cpp:165] Memory required for data: 4960870400
I0518 06:59:26.944075  9901 layer_factory.hpp:77] Creating layer pool1_neg
I0518 06:59:26.944089  9901 net.cpp:100] Creating Layer pool1_neg
I0518 06:59:26.944097  9901 net.cpp:434] pool1_neg <- conv1a_neg
I0518 06:59:26.944113  9901 net.cpp:408] pool1_neg -> pool1_neg
I0518 06:59:26.944524  9901 net.cpp:150] Setting up pool1_neg
I0518 06:59:26.944563  9901 net.cpp:157] Top shape: 10 64 16 56 56 (32112640)
I0518 06:59:26.944571  9901 net.cpp:165] Memory required for data: 5089320960
I0518 06:59:26.944576  9901 layer_factory.hpp:77] Creating layer conv2a_neg
I0518 06:59:26.944597  9901 net.cpp:100] Creating Layer conv2a_neg
I0518 06:59:26.944603  9901 net.cpp:434] conv2a_neg <- pool1_neg
I0518 06:59:26.944622  9901 net.cpp:408] conv2a_neg -> conv2a_neg
I0518 06:59:26.960433  9901 net.cpp:150] Setting up conv2a_neg
I0518 06:59:26.960479  9901 net.cpp:157] Top shape: 10 128 16 56 56 (64225280)
I0518 06:59:26.960486  9901 net.cpp:165] Memory required for data: 5346222080
I0518 06:59:26.960497  9901 net.cpp:493] Sharing parameters 'conv2a_w' owned by layer 'conv2a', param index 0
I0518 06:59:26.960510  9901 net.cpp:493] Sharing parameters 'conv2a_b' owned by layer 'conv2a', param index 1
I0518 06:59:26.960528  9901 layer_factory.hpp:77] Creating layer relu2a_neg
I0518 06:59:26.960546  9901 net.cpp:100] Creating Layer relu2a_neg
I0518 06:59:26.960557  9901 net.cpp:434] relu2a_neg <- conv2a_neg
I0518 06:59:26.960573  9901 net.cpp:395] relu2a_neg -> conv2a_neg (in-place)
I0518 06:59:26.960898  9901 net.cpp:150] Setting up relu2a_neg
I0518 06:59:26.960912  9901 net.cpp:157] Top shape: 10 128 16 56 56 (64225280)
I0518 06:59:26.960923  9901 net.cpp:165] Memory required for data: 5603123200
I0518 06:59:26.960930  9901 layer_factory.hpp:77] Creating layer pool2_neg
I0518 06:59:26.960949  9901 net.cpp:100] Creating Layer pool2_neg
I0518 06:59:26.960958  9901 net.cpp:434] pool2_neg <- conv2a_neg
I0518 06:59:26.960971  9901 net.cpp:408] pool2_neg -> pool2_neg
I0518 06:59:26.963850  9901 net.cpp:150] Setting up pool2_neg
I0518 06:59:26.963877  9901 net.cpp:157] Top shape: 10 128 8 28 28 (8028160)
I0518 06:59:26.963883  9901 net.cpp:165] Memory required for data: 5635235840
I0518 06:59:26.963891  9901 layer_factory.hpp:77] Creating layer conv3a_neg
I0518 06:59:26.963907  9901 net.cpp:100] Creating Layer conv3a_neg
I0518 06:59:26.963914  9901 net.cpp:434] conv3a_neg <- pool2_neg
I0518 06:59:26.963925  9901 net.cpp:408] conv3a_neg -> conv3a_neg
I0518 06:59:26.996755  9901 net.cpp:150] Setting up conv3a_neg
I0518 06:59:26.996784  9901 net.cpp:157] Top shape: 10 256 8 28 28 (16056320)
I0518 06:59:26.996789  9901 net.cpp:165] Memory required for data: 5699461120
I0518 06:59:26.996814  9901 net.cpp:493] Sharing parameters 'conv3a_w' owned by layer 'conv3a', param index 0
I0518 06:59:26.996824  9901 net.cpp:493] Sharing parameters 'conv3a_b' owned by layer 'conv3a', param index 1
I0518 06:59:26.996829  9901 layer_factory.hpp:77] Creating layer relu3a_neg
I0518 06:59:26.996840  9901 net.cpp:100] Creating Layer relu3a_neg
I0518 06:59:26.996846  9901 net.cpp:434] relu3a_neg <- conv3a_neg
I0518 06:59:26.996853  9901 net.cpp:395] relu3a_neg -> conv3a_neg (in-place)
I0518 06:59:26.997066  9901 net.cpp:150] Setting up relu3a_neg
I0518 06:59:26.997076  9901 net.cpp:157] Top shape: 10 256 8 28 28 (16056320)
I0518 06:59:26.997081  9901 net.cpp:165] Memory required for data: 5763686400
I0518 06:59:26.997083  9901 layer_factory.hpp:77] Creating layer pool3_neg
I0518 06:59:26.997093  9901 net.cpp:100] Creating Layer pool3_neg
I0518 06:59:26.997098  9901 net.cpp:434] pool3_neg <- conv3a_neg
I0518 06:59:26.997107  9901 net.cpp:408] pool3_neg -> pool3_neg
I0518 06:59:26.997352  9901 net.cpp:150] Setting up pool3_neg
I0518 06:59:26.997364  9901 net.cpp:157] Top shape: 10 256 4 14 14 (2007040)
I0518 06:59:26.997366  9901 net.cpp:165] Memory required for data: 5771714560
I0518 06:59:26.997370  9901 layer_factory.hpp:77] Creating layer conv4a_neg
I0518 06:59:26.997380  9901 net.cpp:100] Creating Layer conv4a_neg
I0518 06:59:26.997387  9901 net.cpp:434] conv4a_neg <- pool3_neg
I0518 06:59:26.997395  9901 net.cpp:408] conv4a_neg -> conv4a_neg
I0518 06:59:27.100227  9901 net.cpp:150] Setting up conv4a_neg
I0518 06:59:27.100275  9901 net.cpp:157] Top shape: 10 256 4 14 14 (2007040)
I0518 06:59:27.100281  9901 net.cpp:165] Memory required for data: 5779742720
I0518 06:59:27.100325  9901 net.cpp:493] Sharing parameters 'conv4a_w' owned by layer 'conv4a', param index 0
I0518 06:59:27.100334  9901 net.cpp:493] Sharing parameters 'conv4a_b' owned by layer 'conv4a', param index 1
I0518 06:59:27.100343  9901 layer_factory.hpp:77] Creating layer relu4a_neg
I0518 06:59:27.100359  9901 net.cpp:100] Creating Layer relu4a_neg
I0518 06:59:27.100368  9901 net.cpp:434] relu4a_neg <- conv4a_neg
I0518 06:59:27.100376  9901 net.cpp:395] relu4a_neg -> conv4a_neg (in-place)
I0518 06:59:27.100656  9901 net.cpp:150] Setting up relu4a_neg
I0518 06:59:27.100670  9901 net.cpp:157] Top shape: 10 256 4 14 14 (2007040)
I0518 06:59:27.100675  9901 net.cpp:165] Memory required for data: 5787770880
I0518 06:59:27.100690  9901 layer_factory.hpp:77] Creating layer pool4_neg
I0518 06:59:27.100705  9901 net.cpp:100] Creating Layer pool4_neg
I0518 06:59:27.100710  9901 net.cpp:434] pool4_neg <- conv4a_neg
I0518 06:59:27.100720  9901 net.cpp:408] pool4_neg -> pool4_neg
I0518 06:59:27.102227  9901 net.cpp:150] Setting up pool4_neg
I0518 06:59:27.102258  9901 net.cpp:157] Top shape: 10 256 2 7 7 (250880)
I0518 06:59:27.102263  9901 net.cpp:165] Memory required for data: 5788774400
I0518 06:59:27.102268  9901 layer_factory.hpp:77] Creating layer conv5a_neg
I0518 06:59:27.102283  9901 net.cpp:100] Creating Layer conv5a_neg
I0518 06:59:27.102288  9901 net.cpp:434] conv5a_neg <- pool4_neg
I0518 06:59:27.102299  9901 net.cpp:408] conv5a_neg -> conv5a_neg
I0518 06:59:27.184080  9901 net.cpp:150] Setting up conv5a_neg
I0518 06:59:27.184118  9901 net.cpp:157] Top shape: 10 256 2 7 7 (250880)
I0518 06:59:27.184123  9901 net.cpp:165] Memory required for data: 5789777920
I0518 06:59:27.184136  9901 net.cpp:493] Sharing parameters 'conv5a_w' owned by layer 'conv5a', param index 0
I0518 06:59:27.184144  9901 net.cpp:493] Sharing parameters 'conv5a_b' owned by layer 'conv5a', param index 1
I0518 06:59:27.184150  9901 layer_factory.hpp:77] Creating layer relu5a_neg
I0518 06:59:27.184166  9901 net.cpp:100] Creating Layer relu5a_neg
I0518 06:59:27.184172  9901 net.cpp:434] relu5a_neg <- conv5a_neg
I0518 06:59:27.184182  9901 net.cpp:395] relu5a_neg -> conv5a_neg (in-place)
I0518 06:59:27.185333  9901 net.cpp:150] Setting up relu5a_neg
I0518 06:59:27.185348  9901 net.cpp:157] Top shape: 10 256 2 7 7 (250880)
I0518 06:59:27.185351  9901 net.cpp:165] Memory required for data: 5790781440
I0518 06:59:27.185364  9901 layer_factory.hpp:77] Creating layer pool5_neg
I0518 06:59:27.185375  9901 net.cpp:100] Creating Layer pool5_neg
I0518 06:59:27.185381  9901 net.cpp:434] pool5_neg <- conv5a_neg
I0518 06:59:27.185389  9901 net.cpp:408] pool5_neg -> pool5_neg
I0518 06:59:27.185650  9901 net.cpp:150] Setting up pool5_neg
I0518 06:59:27.185662  9901 net.cpp:157] Top shape: 10 256 1 4 4 (40960)
I0518 06:59:27.185665  9901 net.cpp:165] Memory required for data: 5790945280
I0518 06:59:27.185669  9901 layer_factory.hpp:77] Creating layer fc6_neg
I0518 06:59:27.185735  9901 net.cpp:100] Creating Layer fc6_neg
I0518 06:59:27.185741  9901 net.cpp:434] fc6_neg <- pool5_neg
I0518 06:59:27.185750  9901 net.cpp:408] fc6_neg -> fc6_neg
I0518 06:59:27.536844  9901 net.cpp:150] Setting up fc6_neg
I0518 06:59:27.536891  9901 net.cpp:157] Top shape: 10 2048 (20480)
I0518 06:59:27.536895  9901 net.cpp:165] Memory required for data: 5791027200
I0518 06:59:27.536906  9901 net.cpp:493] Sharing parameters 'fc6_w' owned by layer 'fc6', param index 0
I0518 06:59:27.536912  9901 net.cpp:493] Sharing parameters 'fc6_b' owned by layer 'fc6', param index 1
I0518 06:59:27.536924  9901 layer_factory.hpp:77] Creating layer relu6_neg
I0518 06:59:27.536939  9901 net.cpp:100] Creating Layer relu6_neg
I0518 06:59:27.536958  9901 net.cpp:434] relu6_neg <- fc6_neg
I0518 06:59:27.536967  9901 net.cpp:395] relu6_neg -> fc6_neg (in-place)
I0518 06:59:27.537559  9901 net.cpp:150] Setting up relu6_neg
I0518 06:59:27.537583  9901 net.cpp:157] Top shape: 10 2048 (20480)
I0518 06:59:27.537592  9901 net.cpp:165] Memory required for data: 5791109120
I0518 06:59:27.537602  9901 layer_factory.hpp:77] Creating layer drop6_neg
I0518 06:59:27.537679  9901 net.cpp:100] Creating Layer drop6_neg
I0518 06:59:27.537693  9901 net.cpp:434] drop6_neg <- fc6_neg
I0518 06:59:27.537705  9901 net.cpp:395] drop6_neg -> fc6_neg (in-place)
I0518 06:59:27.537786  9901 net.cpp:150] Setting up drop6_neg
I0518 06:59:27.537793  9901 net.cpp:157] Top shape: 10 2048 (20480)
I0518 06:59:27.537801  9901 net.cpp:165] Memory required for data: 5791191040
I0518 06:59:27.537811  9901 layer_factory.hpp:77] Creating layer fc7_neg
I0518 06:59:27.537822  9901 net.cpp:100] Creating Layer fc7_neg
I0518 06:59:27.537827  9901 net.cpp:434] fc7_neg <- fc6_neg
I0518 06:59:27.537833  9901 net.cpp:408] fc7_neg -> fc7_neg
I0518 06:59:27.720465  9901 net.cpp:150] Setting up fc7_neg
I0518 06:59:27.720530  9901 net.cpp:157] Top shape: 10 2048 (20480)
I0518 06:59:27.720537  9901 net.cpp:165] Memory required for data: 5791272960
I0518 06:59:27.720556  9901 net.cpp:493] Sharing parameters 'fc7_w' owned by layer 'fc7', param index 0
I0518 06:59:27.720571  9901 net.cpp:493] Sharing parameters 'fc7_b' owned by layer 'fc7', param index 1
I0518 06:59:27.720582  9901 layer_factory.hpp:77] Creating layer relu7_neg
I0518 06:59:27.720629  9901 net.cpp:100] Creating Layer relu7_neg
I0518 06:59:27.720639  9901 net.cpp:434] relu7_neg <- fc7_neg
I0518 06:59:27.720650  9901 net.cpp:395] relu7_neg -> fc7_neg (in-place)
I0518 06:59:27.721220  9901 net.cpp:150] Setting up relu7_neg
I0518 06:59:27.721237  9901 net.cpp:157] Top shape: 10 2048 (20480)
I0518 06:59:27.721241  9901 net.cpp:165] Memory required for data: 5791354880
I0518 06:59:27.721248  9901 layer_factory.hpp:77] Creating layer drop7_neg
I0518 06:59:27.721262  9901 net.cpp:100] Creating Layer drop7_neg
I0518 06:59:27.721273  9901 net.cpp:434] drop7_neg <- fc7_neg
I0518 06:59:27.721283  9901 net.cpp:395] drop7_neg -> fc7_neg (in-place)
I0518 06:59:27.721343  9901 net.cpp:150] Setting up drop7_neg
I0518 06:59:27.721354  9901 net.cpp:157] Top shape: 10 2048 (20480)
I0518 06:59:27.721359  9901 net.cpp:165] Memory required for data: 5791436800
I0518 06:59:27.721365  9901 layer_factory.hpp:77] Creating layer mvn_neg
I0518 06:59:27.721540  9901 net.cpp:100] Creating Layer mvn_neg
I0518 06:59:27.721551  9901 net.cpp:434] mvn_neg <- fc7_neg
I0518 06:59:27.721557  9901 net.cpp:408] mvn_neg -> fc7_neg_norm
I0518 06:59:27.722298  9901 net.cpp:150] Setting up mvn_neg
I0518 06:59:27.722317  9901 net.cpp:157] Top shape: 10 2048 (20480)
I0518 06:59:27.722323  9901 net.cpp:165] Memory required for data: 5791518720
I0518 06:59:27.722327  9901 layer_factory.hpp:77] Creating layer save
I0518 06:59:27.739787  9901 net.cpp:100] Creating Layer save
I0518 06:59:27.739851  9901 net.cpp:434] save <- fc7_norm
I0518 06:59:27.739907  9901 net.cpp:434] save <- fc7_pos_norm
I0518 06:59:27.739922  9901 net.cpp:434] save <- fc7_neg_norm
…
