…
    mean_value: 65
    mean_value: 74
    mean_value: 92
    mean_value: 65
    mean_value: 74
    mean_value: 92
    mean_value: 65
    mean_value: 74
    mean_value: 92
    mean_value: 65
    mean_value: 74
    mean_value: 92
    mean_value: 65
    mean_value: 74
    mean_value: 92
    mean_value: 65
    mean_value: 74
    mean_value: 92
    mean_value: 65
    mean_value: 74
    mean_value: 92
    mean_value: 65
    mean_value: 74
    mean_value: 92
  }
  data_param {
    source: "/data/leo-data/Synthetic/LMDB/Triplets/test"
    batch_size: 10
    backend: LMDB
  }
}
layer {
  name: "slicer"
  type: "Slice"
  bottom: "triplet"
  top: "anchor_stacked"
  top: "positive_stacked"
  top: "negative_stacked"
  slice_param {
    slice_dim: 1
    slice_point: 48
    slice_point: 96
  }
}
layer {
  name: "reshape_anchor"
  type: "Reshape"
  bottom: "anchor_stacked"
  top: "anchor"
  reshape_param {
    shape {
      dim: 0
      dim: 3
      dim: 16
      dim: 112
      dim: 112
    }
  }
}
layer {
  name: "reshape_positive"
  type: "Reshape"
  bottom: "positive_stacked"
  top: "positive"
  reshape_param {
    shape {
      dim: 0
      dim: 3
      dim: 16
      dim: 112
      dim: 112
    }
  }
}
layer {
  name: "reshape_negative"
  type: "Reshape"
  bottom: "negative_stacked"
  top: "negative"
  reshape_param {
    shape {
      dim: 0
      dim: 3
      dim: 16
      dim: 112
      dim: 112
    }
  }
}
layer {
  name: "conv1a"
  type: "NdConvolution"
  bottom: "anchor"
  top: "conv1a"
  param {
    name: "conv1a_w"
    lr_mult: 1
    decay_mult: 1
  }
  param {
    name: "conv1a_b"
    lr_mult: 2
    decay_mult: 0
  }
  convolution_param {
    num_output: 64
    weight_filler {
      type: "gaussian"
      std: 0.01
    }
    bias_filler {
      type: "constant"
      value: 0
    }
    pad_shape {
      dim: 1
      dim: 1
      dim: 1
    }
    kernel_shape {
      dim: 3
      dim: 3
      dim: 3
    }
    stride_shape {
      dim: 1
      dim: 1
      dim: 1
    }
  }
}
layer {
  name: "relu1a"
  type: "ReLU"
  bottom: "conv1a"
  top: "conv1a"
}
layer {
  name: "pool1"
  type: "NdPooling"
  bottom: "conv1a"
  top: "pool1"
  pooling_param {
    pool: MAX
    kernel_shape {
      dim: 1
      dim: 2
      dim: 2
    }
    stride_shape {
      dim: 1
      dim: 2
      dim: 2
    }
  }
}
layer {
  name: "conv2a"
  type: "NdConvolution"
  bottom: "pool1"
  top: "conv2a"
  param {
    name: "conv2a_w"
    lr_mult: 1
    decay_mult: 1
  }
  param {
    name: "conv2a_b"
    lr_mult: 2
    decay_mult: 0
  }
  convolution_param {
    num_output: 128
    weight_filler {
      type: "gaussian"
      std: 0.01
    }
    bias_filler {
      type: "constant"
      value: 1
    }
    pad_shape {
      dim: 1
      dim: 1
      dim: 1
    }
    kernel_shape {
      dim: 3
      dim: 3
      dim: 3
    }
    stride_shape {
      dim: 1
      dim: 1
      dim: 1
    }
  }
}
layer {
  name: "relu2a"
  type: "ReLU"
  bottom: "conv2a"
  top: "conv2a"
}
layer {
  name: "pool2"
  type: "NdPooling"
  bottom: "conv2a"
  top: "pool2"
  pooling_param {
    pool: MAX
    kernel_shape {
      dim: 2
      dim: 2
      dim: 2
    }
    stride_shape {
      dim: 2
      dim: 2
      dim: 2
    }
  }
}
layer {
  name: "conv3a"
  type: "NdConvolution"
  bottom: "pool2"
  top: "conv3a"
  param {
    name: "conv3a_w"
    lr_mult: 1
    decay_mult: 1
  }
  param {
    name: "conv3a_b"
    lr_mult: 2
    decay_mult: 0
  }
  convolution_param {
    num_output: 256
    weight_filler {
      type: "gaussian"
      std: 0.01
    }
    bias_filler {
      type: "constant"
      value: 1
    }
    pad_shape {
      dim: 1
      dim: 1
      dim: 1
    }
    kernel_shape {
      dim: 3
      dim: 3
      dim: 3
    }
    stride_shape {
      dim: 1
      dim: 1
      dim: 1
    }
  }
}
layer {
  name: "relu3a"
  type: "ReLU"
  bottom: "conv3a"
  top: "conv3a"
}
layer {
  name: "pool3"
  type: "NdPooling"
  bottom: "conv3a"
  top: "pool3"
  pooling_param {
    pool: MAX
    kernel_shape {
      dim: 2
      dim: 2
      dim: 2
    }
    stride_shape {
      dim: 2
      dim: 2
      dim: 2
    }
  }
}
layer {
  name: "conv4a"
  type: "NdConvolution"
  bottom: "pool3"
  top: "conv4a"
  param {
    name: "conv4a_w"
    lr_mult: 1
    decay_mult: 1
  }
  param {
    name: "conv4a_b"
    lr_mult: 2
    decay_mult: 0
  }
  convolution_param {
    num_output: 256
    weight_filler {
      type: "gaussian"
      std: 0.01
    }
    bias_filler {
      type: "constant"
      value: 1
    }
    pad_shape {
      dim: 1
      dim: 1
      dim: 1
    }
    kernel_shape {
      dim: 3
      dim: 3
      dim: 3
    }
    stride_shape {
      dim: 1
      dim: 1
      dim: 1
    }
  }
}
layer {
  name: "relu4a"
  type: "ReLU"
  bottom: "conv4a"
  top: "conv4a"
}
layer {
  name: "pool4"
  type: "NdPooling"
  bottom: "conv4a"
  top: "pool4"
  pooling_param {
    pool: MAX
    kernel_shape {
      dim: 2
      dim: 2
      dim: 2
    }
    stride_shape {
      dim: 2
      dim: 2
      dim: 2
    }
  }
}
layer {
  name: "conv5a"
  type: "NdConvolution"
  bottom: "pool4"
  top: "conv5a"
  param {
    name: "conv5a_w"
    lr_mult: 1
    decay_mult: 1
  }
  param {
    name: "conv5a_b"
    lr_mult: 2
    decay_mult: 0
  }
  convolution_param {
    num_output: 256
    weight_filler {
      type: "gaussian"
      std: 0.01
    }
    bias_filler {
      type: "constant"
      value: 1
    }
    pad_shape {
      dim: 1
      dim: 1
      dim: 1
    }
    kernel_shape {
      dim: 3
      dim: 3
      dim: 3
    }
    stride_shape {
      dim: 1
      dim: 1
      dim: 1
    }
  }
}
layer {
  name: "relu5a"
  type: "ReLU"
  bottom: "conv5a"
  top: "conv5a"
}
layer {
  name: "pool5"
  type: "NdPooling"
  bottom: "conv5a"
  top: "pool5"
  pooling_param {
    pool: MAX
    kernel_shape {
      dim: 2
      dim: 2
      dim: 2
    }
    stride_shape {
      dim: 2
      dim: 2
      dim: 2
    }
  }
}
layer {
  name: "fc6"
  type: "InnerProduct"
  bottom: "pool5"
  top: "fc6"
  param {
    name: "fc6_w"
    lr_mult: 1
    decay_mult: 1
  }
  param {
    name: "fc6_b"
    lr_mult: 2
    decay_mult: 0
  }
  inner_product_param {
    num_output: 2048
    weight_filler {
      type: "gaussian"
      std: 0.005
    }
    bias_filler {
      type: "constant"
      value: 1
    }
  }
}
layer {
  name: "relu6"
  type: "ReLU"
  bottom: "fc6"
  top: "fc6"
}
layer {
  name: "drop6"
  type: "Dropout"
  bottom: "fc6"
  top: "fc6"
  dropout_param {
    dropout_ratio: 0.5
  }
}
layer {
  name: "fc7"
  type: "InnerProduct"
  bottom: "fc6"
  top: "fc7"
  param {
    name: "fc7_w"
    lr_mult: 1
    decay_mult: 1
  }
  param {
    name: "fc7_b"
    lr_mult: 2
    decay_mult: 0
  }
  inner_product_param {
    num_output: 2048
    weight_filler {
      type: "gaussian"
      std: 0.005
    }
    bias_filler {
      type: "constant"
      value: 1
    }
  }
}
layer {
  name: "relu7"
  type: "ReLU"
  bottom: "fc7"
  top: "fc7"
}
layer {
  name: "drop7"
  type: "Dropout"
  bottom: "fc7"
  top: "fc7"
  dropout_param {
    dropout_ratio: 0.5
  }
}
layer {
  name: "mvn"
  type: "Python"
  bottom: "fc7"
  top: "fc7_norm"
  python_param {
    module: "mvn"
    layer: "MVNLayer"
  }
}
layer {
  name: "conv1a_pos"
  type: "NdConvolution"
  bottom: "positive"
  top: "conv1a_pos"
  param {
    name: "conv1a_w"
    lr_mult: 1
    decay_mult: 1
  }
  param {
    name: "conv1a_b"
    lr_mult: 2
    decay_mult: 0
  }
  convolution_param {
    num_output: 64
    weight_filler {
      type: "gaussian"
      std: 0.01
    }
    bias_filler {
      type: "constant"
      value: 0
    }
    pad_shape {
      dim: 1
      dim: 1
      dim: 1
    }
    kernel_shape {
      dim: 3
      dim: 3
      dim: 3
    }
    stride_shape {
      dim: 1
      dim: 1
      dim: 1
    }
  }
}
layer {
  name: "relu1a_pos"
  type: "ReLU"
  bottom: "conv1a_pos"
  top: "conv1a_pos"
}
layer {
  name: "pool1_pos"
  type: "NdPooling"
  bottom: "conv1a_pos"
  top: "pool1_pos"
  pooling_param {
    pool: MAX
    kernel_shape {
      dim: 1
      dim: 2
      dim: 2
    }
    stride_shape {
      dim: 1
      dim: 2
      dim: 2
    }
  }
}
layer {
  name: "conv2a_pos"
  type: "NdConvolution"
  bottom: "pool1_pos"
  top: "conv2a_pos"
  param {
    name: "conv2a_w"
    lr_mult: 1
    decay_mult: 1
  }
  param {
    name: "conv2a_b"
    lr_mult: 2
    decay_mult: 0
  }
  convolution_param {
    num_output: 128
    weight_filler {
      type: "gaussian"
      std: 0.01
    }
    bias_filler {
      type: "constant"
      value: 1
    }
    pad_shape {
      dim: 1
      dim: 1
      dim: 1
    }
    kernel_shape {
      dim: 3
      dim: 3
      dim: 3
    }
    stride_shape {
      dim: 1
      dim: 1
      dim: 1
    }
  }
}
layer {
  name: "relu2a_pos"
  type: "ReLU"
  bottom: "conv2a_pos"
  top: "conv2a_pos"
}
layer {
  name: "pool2_pos"
  type: "NdPooling"
  bottom: "conv2a_pos"
  top: "pool2_pos"
  pooling_param {
    pool: MAX
    kernel_shape {
      dim: 2
      dim: 2
      dim: 2
    }
    stride_shape {
      dim: 2
      dim: 2
      dim: 2
    }
  }
}
layer {
  name: "conv3a_pos"
  type: "NdConvolution"
  bottom: "pool2_pos"
  top: "conv3a_pos"
  param {
    name: "conv3a_w"
    lr_mult: 1
    decay_mult: 1
  }
  param {
    name: "conv3a_b"
    lr_mult: 2
    decay_mult: 0
  }
  convolution_param {
    num_output: 256
    weight_filler {
      type: "gaussian"
      std: 0.01
    }
    bias_filler {
      type: "constant"
      value: 1
    }
    pad_shape {
      dim: 1
      dim: 1
      dim: 1
    }
    kernel_shape {
      dim: 3
      dim: 3
      dim: 3
    }
    stride_shape {
      dim: 1
      dim: 1
      dim: 1
    }
  }
}
layer {
  name: "relu3a_pos"
  type: "ReLU"
  bottom: "conv3a_pos"
  top: "conv3a_pos"
}
layer {
  name: "pool3_pos"
  type: "NdPooling"
  bottom: "conv3a_pos"
  top: "pool3_pos"
  pooling_param {
    pool: MAX
    kernel_shape {
      dim: 2
      dim: 2
      dim: 2
    }
    stride_shape {
      dim: 2
      dim: 2
      dim: 2
    }
  }
}
layer {
  name: "conv4a_pos"
  type: "NdConvolution"
  bottom: "pool3_pos"
  top: "conv4a_pos"
  param {
    name: "conv4a_w"
    lr_mult: 1
    decay_mult: 1
  }
  param {
    name: "conv4a_b"
    lr_mult: 2
    decay_mult: 0
  }
  convolution_param {
    num_output: 256
    weight_filler {
      type: "gaussian"
      std: 0.01
    }
    bias_filler {
      type: "constant"
      value: 1
    }
    pad_shape {
      dim: 1
      dim: 1
      dim: 1
    }
    kernel_shape {
      dim: 3
      dim: 3
      dim: 3
    }
    stride_shape {
      dim: 1
      dim: 1
      dim: 1
    }
  }
}
layer {
  name: "relu4a_pos"
  type: "ReLU"
  bottom: "conv4a_pos"
  top: "conv4a_pos"
}
layer {
  name: "pool4_pos"
  type: "NdPooling"
  bottom: "conv4a_pos"
  top: "pool4_pos"
  pooling_param {
    pool: MAX
    kernel_shape {
      dim: 2
      dim: 2
      dim: 2
    }
    stride_shape {
      dim: 2
      dim: 2
      dim: 2
    }
  }
}
layer {
  name: "conv5a_pos"
  type: "NdConvolution"
  bottom: "pool4_pos"
  top: "conv5a_pos"
  param {
    name: "conv5a_w"
    lr_mult: 1
    decay_mult: 1
  }
  param {
    name: "conv5a_b"
    lr_mult: 2
    decay_mult: 0
  }
  convolution_param {
    num_output: 256
    weight_filler {
      type: "gaussian"
      std: 0.01
    }
    bias_filler {
      type: "constant"
      value: 1
    }
    pad_shape {
      dim: 1
      dim: 1
      dim: 1
    }
    kernel_shape {
      dim: 3
      dim: 3
      dim: 3
    }
    stride_shape {
      dim: 1
      dim: 1
      dim: 1
    }
  }
}
layer {
  name: "relu5a_pos"
  type: "ReLU"
  bottom: "conv5a_pos"
  top: "conv5a_pos"
}
layer {
  name: "pool5_pos"
  type: "NdPooling"
  bottom: "conv5a_pos"
  top: "pool5_pos"
  pooling_param {
    pool: MAX
    kernel_shape {
      dim: 2
      dim: 2
      dim: 2
    }
    stride_shape {
      dim: 2
      dim: 2
      dim: 2
    }
  }
}
layer {
  name: "fc6_pos"
  type: "InnerProduct"
  bottom: "pool5_pos"
  top: "fc6_pos"
  param {
    name: "fc6_w"
    lr_mult: 1
    decay_mult: 1
  }
  param {
    name: "fc6_b"
    lr_mult: 2
    decay_mult: 0
  }
  inner_product_param {
    num_output: 2048
    weight_filler {
      type: "gaussian"
      std: 0.005
    }
    bias_filler {
      type: "constant"
      value: 1
    }
  }
}
layer {
  name: "relu6_pos"
  type: "ReLU"
  bottom: "fc6_pos"
  top: "fc6_pos"
}
layer {
  name: "drop6_pos"
  type: "Dropout"
  bottom: "fc6_pos"
  top: "fc6_pos"
  dropout_param {
    dropout_ratio: 0.5
  }
}
layer {
  name: "fc7_pos"
  type: "InnerProduct"
  bottom: "fc6_pos"
  top: "fc7_pos"
  param {
    name: "fc7_w"
    lr_mult: 1
    decay_mult: 1
  }
  param {
    name: "fc7_b"
    lr_mult: 2
    decay_mult: 0
  }
  inner_product_param {
    num_output: 2048
    weight_filler {
      type: "gaussian"
      std: 0.005
    }
    bias_filler {
      type: "constant"
      value: 1
    }
  }
}
layer {
  name: "relu7_pos"
  type: "ReLU"
  bottom: "fc7_pos"
  top: "fc7_pos"
}
layer {
  name: "drop7_pos"
  type: "Dropout"
  bottom: "fc7_pos"
  top: "fc7_pos"
  dropout_param {
    dropout_ratio: 0.5
  }
}
layer {
  name: "mvn_pos"
  type: "Python"
  bottom: "fc7_pos"
  top: "fc7_pos_norm"
  python_param {
    module: "mvn"
    layer: "MVNLayer"
  }
}
layer {
  name: "conv1a_neg"
  type: "NdConvolution"
  bottom: "negative"
  top: "conv1a_neg"
  param {
    name: "conv1a_w"
    lr_mult: 1
    decay_mult: 1
  }
  param {
    name: "conv1a_b"
    lr_mult: 2
    decay_mult: 0
  }
  convolution_param {
    num_output: 64
    weight_filler {
      type: "gaussian"
      std: 0.01
    }
    bias_filler {
      type: "constant"
      value: 0
    }
    pad_shape {
      dim: 1
      dim: 1
      dim: 1
    }
    kernel_shape {
      dim: 3
      dim: 3
      dim: 3
    }
    stride_shape {
      dim: 1
      dim: 1
      dim: 1
    }
  }
}
layer {
  name: "relu1a_neg"
  type: "ReLU"
  bottom: "conv1a_neg"
  top: "conv1a_neg"
}
layer {
  name: "pool1_neg"
  type: "NdPooling"
  bottom: "conv1a_neg"
  top: "pool1_neg"
  pooling_param {
    pool: MAX
    kernel_shape {
      dim: 1
      dim: 2
      dim: 2
    }
    stride_shape {
      dim: 1
      dim: 2
      dim: 2
    }
  }
}
layer {
  name: "conv2a_neg"
  type: "NdConvolution"
  bottom: "pool1_neg"
  top: "conv2a_neg"
  param {
    name: "conv2a_w"
    lr_mult: 1
    decay_mult: 1
  }
  param {
    name: "conv2a_b"
    lr_mult: 2
    decay_mult: 0
  }
  convolution_param {
    num_output: 128
    weight_filler {
      type: "gaussian"
      std: 0.01
    }
    bias_filler {
      type: "constant"
      value: 1
    }
    pad_shape {
      dim: 1
      dim: 1
      dim: 1
    }
    kernel_shape {
      dim: 3
      dim: 3
      dim: 3
    }
    stride_shape {
      dim: 1
      dim: 1
      dim: 1
    }
  }
}
layer {
  name: "relu2a_neg"
  type: "ReLU"
  bottom: "conv2a_neg"
  top: "conv2a_neg"
}
layer {
  name: "pool2_neg"
  type: "NdPooling"
  bottom: "conv2a_neg"
  top: "pool2_neg"
  pooling_param {
    pool: MAX
    kernel_shape {
      dim: 2
      dim: 2
      dim: 2
    }
    stride_shape {
      dim: 2
      dim: 2
      dim: 2
    }
  }
}
layer {
  name: "conv3a_neg"
  type: "NdConvolution"
  bottom: "pool2_neg"
  top: "conv3a_neg"
  param {
    name: "conv3a_w"
    lr_mult: 1
    decay_mult: 1
  }
  param {
    name: "conv3a_b"
    lr_mult: 2
    decay_mult: 0
  }
  convolution_param {
    num_output: 256
    weight_filler {
      type: "gaussian"
      std: 0.01
    }
    bias_filler {
      type: "constant"
      value: 1
    }
    pad_shape {
      dim: 1
      dim: 1
      dim: 1
    }
    kernel_shape {
      dim: 3
      dim: 3
      dim: 3
    }
    stride_shape {
      dim: 1
      dim: 1
      dim: 1
    }
  }
}
layer {
  name: "relu3a_neg"
  type: "ReLU"
  bottom: "conv3a_neg"
  top: "conv3a_neg"
}
layer {
  name: "pool3_neg"
  type: "NdPooling"
  bottom: "conv3a_neg"
  top: "pool3_neg"
  pooling_param {
    pool: MAX
    kernel_shape {
      dim: 2
      dim: 2
      dim: 2
    }
    stride_shape {
      dim: 2
      dim: 2
      dim: 2
    }
  }
}
layer {
  name: "conv4a_neg"
  type: "NdConvolution"
  bottom: "pool3_neg"
  top: "conv4a_neg"
  param {
    name: "conv4a_w"
    lr_mult: 1
    decay_mult: 1
  }
  param {
    name: "conv4a_b"
    lr_mult: 2
    decay_mult: 0
  }
  convolution_param {
    num_output: 256
    weight_filler {
      type: "gaussian"
      std: 0.01
    }
    bias_filler {
      type: "constant"
      value: 1
    }
    pad_shape {
      dim: 1
      dim: 1
      dim: 1
    }
    kernel_shape {
      dim: 3
      dim: 3
      dim: 3
    }
    stride_shape {
      dim: 1
      dim: 1
      dim: 1
    }
  }
}
layer {
  name: "relu4a_neg"
  type: "ReLU"
  bottom: "conv4a_neg"
  top: "conv4a_neg"
}
layer {
  name: "pool4_neg"
  type: "NdPooling"
  bottom: "conv4a_neg"
  top: "pool4_neg"
  pooling_param {
    pool: MAX
    kernel_shape {
      dim: 2
      dim: 2
      dim: 2
    }
    stride_shape {
      dim: 2
      dim: 2
      dim: 2
    }
  }
}
layer {
  name: "conv5a_neg"
  type: "NdConvolution"
  bottom: "pool4_neg"
  top: "conv5a_neg"
  param {
    name: "conv5a_w"
    lr_mult: 1
    decay_mult: 1
  }
  param {
    name: "conv5a_b"
    lr_mult: 2
    decay_mult: 0
  }
  convolution_param {
    num_output: 256
    weight_filler {
      type: "gaussian"
      std: 0.01
    }
    bias_filler {
      type: "constant"
      value: 1
    }
    pad_shape {
      dim: 1
      dim: 1
      dim: 1
    }
    kernel_shape {
      dim: 3
      dim: 3
      dim: 3
    }
    stride_shape {
      dim: 1
      dim: 1
      dim: 1
    }
  }
}
layer {
  name: "relu5a_neg"
  type: "ReLU"
  bottom: "conv5a_neg"
  top: "conv5a_neg"
}
layer {
  name: "pool5_neg"
  type: "NdPooling"
  bottom: "conv5a_neg"
  top: "pool5_neg"
  pooling_param {
    pool: MAX
    kernel_shape {
      dim: 2
      dim: 2
      dim: 2
    }
    stride_shape {
      dim: 2
      dim: 2
      dim: 2
    }
  }
}
layer {
  name: "fc6_neg"
  type: "InnerProduct"
  bottom: "pool5_neg"
  top: "fc6_neg"
  param {
    name: "fc6_w"
    lr_mult: 1
    decay_mult: 1
  }
  param {
    name: "fc6_b"
    lr_mult: 2
    decay_mult: 0
  }
  inner_product_param {
    num_output: 2048
    weight_filler {
      type: "gaussian"
      std: 0.005
    }
    bias_filler {
      type: "constant"
      value: 1
    }
  }
}
layer {
  name: "relu6_neg"
  type: "ReLU"
  bottom: "fc6_neg"
  top: "fc6_neg"
}
layer {
  name: "drop6_neg"
  type: "Dropout"
  bottom: "fc6_neg"
  top: "fc6_neg"
  dropout_param {
    dropout_ratio: 0.5
  }
}
layer {
  name: "fc7_neg"
  type: "InnerProduct"
  bottom: "fc6_neg"
  top: "fc7_neg"
  param {
    name: "fc7_w"
    lr_mult: 1
    decay_mult: 1
  }
  param {
    name: "fc7_b"
    lr_mult: 2
    decay_mult: 0
  }
  inner_product_param {
    num_output: 2048
    weight_filler {
      type: "gaussian"
      std: 0.005
    }
    bias_filler {
      type: "constant"
      value: 1
    }
  }
}
layer {
  name: "relu7_neg"
  type: "ReLU"
  bottom: "fc7_neg"
  top: "fc7_neg"
}
layer {
  name: "drop7_neg"
  type: "Dropout"
  bottom: "fc7_neg"
  top: "fc7_neg"
  dropout_param {
    dropout_ratio: 0.5
  }
}
layer {
  name: "mvn_neg"
  type: "Python"
  bottom: "fc7_neg"
  top: "fc7_neg_norm"
  python_param {
    module: "mvn"
    layer: "MVNLayer"
  }
}
layer {
  name: "save"
  type: "Python"
  bottom: "fc7_norm"
  bottom: "fc7_pos_norm"
  bottom: "fc7_neg_norm"
  python_param {
    module: "save_features"
    layer: "SaveFeaturesLayer"
    param_str: "{\"n_samples\":\"10000\", \"filename\":\"../../features/features_triplet_loss_mvn_test.npz\"}"
  }
}
I0522 15:52:04.639353  3445 layer_factory.hpp:77] Creating layer data
I0522 15:52:04.640033  3445 net.cpp:100] Creating Layer data
I0522 15:52:04.640048  3445 net.cpp:408] data -> triplet
I0522 15:52:04.642115  3466 db_lmdb.cpp:35] Opened lmdb /data/leo-data/Synthetic/LMDB/Triplets/test
I0522 15:52:05.370321  3445 data_layer.cpp:41] output data size: 10,144,112,112
I0522 15:52:05.533373  3445 net.cpp:150] Setting up data
I0522 15:52:05.533437  3445 net.cpp:157] Top shape: 10 144 112 112 (18063360)
I0522 15:52:05.533442  3445 net.cpp:165] Memory required for data: 72253440
I0522 15:52:05.533460  3445 layer_factory.hpp:77] Creating layer slicer
I0522 15:52:05.533485  3445 net.cpp:100] Creating Layer slicer
I0522 15:52:05.533493  3445 net.cpp:434] slicer <- triplet
I0522 15:52:05.533502  3445 net.cpp:408] slicer -> anchor_stacked
I0522 15:52:05.533514  3445 net.cpp:408] slicer -> positive_stacked
I0522 15:52:05.533526  3445 net.cpp:408] slicer -> negative_stacked
I0522 15:52:05.533612  3445 net.cpp:150] Setting up slicer
I0522 15:52:05.533619  3445 net.cpp:157] Top shape: 10 48 112 112 (6021120)
I0522 15:52:05.533623  3445 net.cpp:157] Top shape: 10 48 112 112 (6021120)
I0522 15:52:05.533627  3445 net.cpp:157] Top shape: 10 48 112 112 (6021120)
I0522 15:52:05.533630  3445 net.cpp:165] Memory required for data: 144506880
I0522 15:52:05.533635  3445 layer_factory.hpp:77] Creating layer reshape_anchor
I0522 15:52:05.533651  3445 net.cpp:100] Creating Layer reshape_anchor
I0522 15:52:05.533655  3445 net.cpp:434] reshape_anchor <- anchor_stacked
I0522 15:52:05.533668  3445 net.cpp:408] reshape_anchor -> anchor
I0522 15:52:05.533706  3445 net.cpp:150] Setting up reshape_anchor
I0522 15:52:05.533722  3445 net.cpp:157] Top shape: 10 3 16 112 112 (6021120)
I0522 15:52:05.533725  3445 net.cpp:165] Memory required for data: 168591360
I0522 15:52:05.533728  3445 layer_factory.hpp:77] Creating layer reshape_positive
I0522 15:52:05.533735  3445 net.cpp:100] Creating Layer reshape_positive
I0522 15:52:05.533738  3445 net.cpp:434] reshape_positive <- positive_stacked
I0522 15:52:05.533745  3445 net.cpp:408] reshape_positive -> positive
I0522 15:52:05.533766  3445 net.cpp:150] Setting up reshape_positive
I0522 15:52:05.533771  3445 net.cpp:157] Top shape: 10 3 16 112 112 (6021120)
I0522 15:52:05.533797  3445 net.cpp:165] Memory required for data: 192675840
I0522 15:52:05.533800  3445 layer_factory.hpp:77] Creating layer reshape_negative
I0522 15:52:05.533808  3445 net.cpp:100] Creating Layer reshape_negative
I0522 15:52:05.533812  3445 net.cpp:434] reshape_negative <- negative_stacked
I0522 15:52:05.533826  3445 net.cpp:408] reshape_negative -> negative
I0522 15:52:05.533849  3445 net.cpp:150] Setting up reshape_negative
I0522 15:52:05.533859  3445 net.cpp:157] Top shape: 10 3 16 112 112 (6021120)
I0522 15:52:05.533861  3445 net.cpp:165] Memory required for data: 216760320
I0522 15:52:05.533864  3445 layer_factory.hpp:77] Creating layer conv1a
I0522 15:52:05.533880  3445 net.cpp:100] Creating Layer conv1a
I0522 15:52:05.533885  3445 net.cpp:434] conv1a <- anchor
I0522 15:52:05.533895  3445 net.cpp:408] conv1a -> conv1a
I0522 15:52:08.044714  3445 net.cpp:150] Setting up conv1a
I0522 15:52:08.044781  3445 net.cpp:157] Top shape: 10 64 16 112 112 (128450560)
I0522 15:52:08.044788  3445 net.cpp:165] Memory required for data: 730562560
I0522 15:52:08.044839  3445 layer_factory.hpp:77] Creating layer relu1a
I0522 15:52:08.044875  3445 net.cpp:100] Creating Layer relu1a
I0522 15:52:08.044895  3445 net.cpp:434] relu1a <- conv1a
I0522 15:52:08.044911  3445 net.cpp:395] relu1a -> conv1a (in-place)
I0522 15:52:08.046555  3445 net.cpp:150] Setting up relu1a
I0522 15:52:08.046576  3445 net.cpp:157] Top shape: 10 64 16 112 112 (128450560)
I0522 15:52:08.046582  3445 net.cpp:165] Memory required for data: 1244364800
I0522 15:52:08.046588  3445 layer_factory.hpp:77] Creating layer pool1
I0522 15:52:08.046615  3445 net.cpp:100] Creating Layer pool1
I0522 15:52:08.046624  3445 net.cpp:434] pool1 <- conv1a
I0522 15:52:08.046640  3445 net.cpp:408] pool1 -> pool1
I0522 15:52:08.048970  3445 net.cpp:150] Setting up pool1
I0522 15:52:08.049002  3445 net.cpp:157] Top shape: 10 64 16 56 56 (32112640)
I0522 15:52:08.049011  3445 net.cpp:165] Memory required for data: 1372815360
I0522 15:52:08.049019  3445 layer_factory.hpp:77] Creating layer conv2a
I0522 15:52:08.049089  3445 net.cpp:100] Creating Layer conv2a
I0522 15:52:08.049100  3445 net.cpp:434] conv2a <- pool1
I0522 15:52:08.049116  3445 net.cpp:408] conv2a -> conv2a
I0522 15:52:08.073420  3445 net.cpp:150] Setting up conv2a
I0522 15:52:08.073464  3445 net.cpp:157] Top shape: 10 128 16 56 56 (64225280)
I0522 15:52:08.073473  3445 net.cpp:165] Memory required for data: 1629716480
I0522 15:52:08.073498  3445 layer_factory.hpp:77] Creating layer relu2a
I0522 15:52:08.073515  3445 net.cpp:100] Creating Layer relu2a
I0522 15:52:08.073524  3445 net.cpp:434] relu2a <- conv2a
I0522 15:52:08.073537  3445 net.cpp:395] relu2a -> conv2a (in-place)
I0522 15:52:08.075106  3445 net.cpp:150] Setting up relu2a
I0522 15:52:08.075130  3445 net.cpp:157] Top shape: 10 128 16 56 56 (64225280)
I0522 15:52:08.075160  3445 net.cpp:165] Memory required for data: 1886617600
I0522 15:52:08.075166  3445 layer_factory.hpp:77] Creating layer pool2
I0522 15:52:08.075273  3445 net.cpp:100] Creating Layer pool2
I0522 15:52:08.075315  3445 net.cpp:434] pool2 <- conv2a
I0522 15:52:08.075340  3445 net.cpp:408] pool2 -> pool2
I0522 15:52:08.076943  3445 net.cpp:150] Setting up pool2
I0522 15:52:08.076987  3445 net.cpp:157] Top shape: 10 128 8 28 28 (8028160)
I0522 15:52:08.077002  3445 net.cpp:165] Memory required for data: 1918730240
I0522 15:52:08.077015  3445 layer_factory.hpp:77] Creating layer conv3a
I0522 15:52:08.077047  3445 net.cpp:100] Creating Layer conv3a
I0522 15:52:08.077064  3445 net.cpp:434] conv3a <- pool2
I0522 15:52:08.077085  3445 net.cpp:408] conv3a -> conv3a
I0522 15:52:08.140355  3445 net.cpp:150] Setting up conv3a
I0522 15:52:08.140389  3445 net.cpp:157] Top shape: 10 256 8 28 28 (16056320)
I0522 15:52:08.140403  3445 net.cpp:165] Memory required for data: 1982955520
I0522 15:52:08.140421  3445 layer_factory.hpp:77] Creating layer relu3a
I0522 15:52:08.140435  3445 net.cpp:100] Creating Layer relu3a
I0522 15:52:08.140442  3445 net.cpp:434] relu3a <- conv3a
I0522 15:52:08.140457  3445 net.cpp:395] relu3a -> conv3a (in-place)
I0522 15:52:08.143460  3445 net.cpp:150] Setting up relu3a
I0522 15:52:08.143479  3445 net.cpp:157] Top shape: 10 256 8 28 28 (16056320)
I0522 15:52:08.143491  3445 net.cpp:165] Memory required for data: 2047180800
I0522 15:52:08.143496  3445 layer_factory.hpp:77] Creating layer pool3
I0522 15:52:08.143513  3445 net.cpp:100] Creating Layer pool3
I0522 15:52:08.143518  3445 net.cpp:434] pool3 <- conv3a
I0522 15:52:08.143527  3445 net.cpp:408] pool3 -> pool3
I0522 15:52:08.145917  3445 net.cpp:150] Setting up pool3
I0522 15:52:08.145931  3445 net.cpp:157] Top shape: 10 256 4 14 14 (2007040)
I0522 15:52:08.145936  3445 net.cpp:165] Memory required for data: 2055208960
I0522 15:52:08.145944  3445 layer_factory.hpp:77] Creating layer conv4a
I0522 15:52:08.145958  3445 net.cpp:100] Creating Layer conv4a
I0522 15:52:08.145963  3445 net.cpp:434] conv4a <- pool3
I0522 15:52:08.145972  3445 net.cpp:408] conv4a -> conv4a
I0522 15:52:08.225862  3445 net.cpp:150] Setting up conv4a
I0522 15:52:08.225899  3445 net.cpp:157] Top shape: 10 256 4 14 14 (2007040)
I0522 15:52:08.225903  3445 net.cpp:165] Memory required for data: 2063237120
I0522 15:52:08.225915  3445 layer_factory.hpp:77] Creating layer relu4a
I0522 15:52:08.225927  3445 net.cpp:100] Creating Layer relu4a
I0522 15:52:08.225932  3445 net.cpp:434] relu4a <- conv4a
I0522 15:52:08.225939  3445 net.cpp:395] relu4a -> conv4a (in-place)
I0522 15:52:08.229565  3445 net.cpp:150] Setting up relu4a
I0522 15:52:08.229579  3445 net.cpp:157] Top shape: 10 256 4 14 14 (2007040)
I0522 15:52:08.229583  3445 net.cpp:165] Memory required for data: 2071265280
I0522 15:52:08.229588  3445 layer_factory.hpp:77] Creating layer pool4
I0522 15:52:08.229602  3445 net.cpp:100] Creating Layer pool4
I0522 15:52:08.229605  3445 net.cpp:434] pool4 <- conv4a
I0522 15:52:08.229611  3445 net.cpp:408] pool4 -> pool4
I0522 15:52:08.234056  3445 net.cpp:150] Setting up pool4
I0522 15:52:08.234071  3445 net.cpp:157] Top shape: 10 256 2 7 7 (250880)
I0522 15:52:08.234079  3445 net.cpp:165] Memory required for data: 2072268800
I0522 15:52:08.234083  3445 layer_factory.hpp:77] Creating layer conv5a
I0522 15:52:08.234097  3445 net.cpp:100] Creating Layer conv5a
I0522 15:52:08.234102  3445 net.cpp:434] conv5a <- pool4
I0522 15:52:08.234107  3445 net.cpp:408] conv5a -> conv5a
I0522 15:52:08.304486  3445 net.cpp:150] Setting up conv5a
I0522 15:52:08.304518  3445 net.cpp:157] Top shape: 10 256 2 7 7 (250880)
I0522 15:52:08.304522  3445 net.cpp:165] Memory required for data: 2073272320
I0522 15:52:08.304538  3445 layer_factory.hpp:77] Creating layer relu5a
I0522 15:52:08.304550  3445 net.cpp:100] Creating Layer relu5a
I0522 15:52:08.304555  3445 net.cpp:434] relu5a <- conv5a
I0522 15:52:08.304561  3445 net.cpp:395] relu5a -> conv5a (in-place)
I0522 15:52:08.307394  3445 net.cpp:150] Setting up relu5a
I0522 15:52:08.307405  3445 net.cpp:157] Top shape: 10 256 2 7 7 (250880)
I0522 15:52:08.307409  3445 net.cpp:165] Memory required for data: 2074275840
I0522 15:52:08.307412  3445 layer_factory.hpp:77] Creating layer pool5
I0522 15:52:08.307425  3445 net.cpp:100] Creating Layer pool5
I0522 15:52:08.307435  3445 net.cpp:434] pool5 <- conv5a
I0522 15:52:08.307440  3445 net.cpp:408] pool5 -> pool5
I0522 15:52:08.309020  3445 net.cpp:150] Setting up pool5
I0522 15:52:08.309037  3445 net.cpp:157] Top shape: 10 256 1 4 4 (40960)
I0522 15:52:08.309046  3445 net.cpp:165] Memory required for data: 2074439680
I0522 15:52:08.309051  3445 layer_factory.hpp:77] Creating layer fc6
I0522 15:52:08.309070  3445 net.cpp:100] Creating Layer fc6
I0522 15:52:08.309074  3445 net.cpp:434] fc6 <- pool5
I0522 15:52:08.309085  3445 net.cpp:408] fc6 -> fc6
I0522 15:52:08.607529  3445 net.cpp:150] Setting up fc6
I0522 15:52:08.607560  3445 net.cpp:157] Top shape: 10 2048 (20480)
I0522 15:52:08.607564  3445 net.cpp:165] Memory required for data: 2074521600
I0522 15:52:08.607581  3445 layer_factory.hpp:77] Creating layer relu6
I0522 15:52:08.607599  3445 net.cpp:100] Creating Layer relu6
I0522 15:52:08.607604  3445 net.cpp:434] relu6 <- fc6
I0522 15:52:08.607632  3445 net.cpp:395] relu6 -> fc6 (in-place)
I0522 15:52:08.607919  3445 net.cpp:150] Setting up relu6
I0522 15:52:08.607930  3445 net.cpp:157] Top shape: 10 2048 (20480)
I0522 15:52:08.607933  3445 net.cpp:165] Memory required for data: 2074603520
I0522 15:52:08.607938  3445 layer_factory.hpp:77] Creating layer drop6
I0522 15:52:08.607947  3445 net.cpp:100] Creating Layer drop6
I0522 15:52:08.607950  3445 net.cpp:434] drop6 <- fc6
I0522 15:52:08.607955  3445 net.cpp:395] drop6 -> fc6 (in-place)
I0522 15:52:08.607990  3445 net.cpp:150] Setting up drop6
I0522 15:52:08.607996  3445 net.cpp:157] Top shape: 10 2048 (20480)
I0522 15:52:08.608000  3445 net.cpp:165] Memory required for data: 2074685440
I0522 15:52:08.608002  3445 layer_factory.hpp:77] Creating layer fc7
I0522 15:52:08.608012  3445 net.cpp:100] Creating Layer fc7
I0522 15:52:08.608016  3445 net.cpp:434] fc7 <- fc6
I0522 15:52:08.608021  3445 net.cpp:408] fc7 -> fc7
I0522 15:52:08.759174  3445 net.cpp:150] Setting up fc7
I0522 15:52:08.759212  3445 net.cpp:157] Top shape: 10 2048 (20480)
I0522 15:52:08.759217  3445 net.cpp:165] Memory required for data: 2074767360
I0522 15:52:08.759230  3445 layer_factory.hpp:77] Creating layer relu7
I0522 15:52:08.759248  3445 net.cpp:100] Creating Layer relu7
I0522 15:52:08.759253  3445 net.cpp:434] relu7 <- fc7
I0522 15:52:08.759260  3445 net.cpp:395] relu7 -> fc7 (in-place)
I0522 15:52:08.760502  3445 net.cpp:150] Setting up relu7
I0522 15:52:08.760516  3445 net.cpp:157] Top shape: 10 2048 (20480)
I0522 15:52:08.760519  3445 net.cpp:165] Memory required for data: 2074849280
I0522 15:52:08.760530  3445 layer_factory.hpp:77] Creating layer drop7
I0522 15:52:08.760538  3445 net.cpp:100] Creating Layer drop7
I0522 15:52:08.760542  3445 net.cpp:434] drop7 <- fc7
I0522 15:52:08.760550  3445 net.cpp:395] drop7 -> fc7 (in-place)
I0522 15:52:08.760588  3445 net.cpp:150] Setting up drop7
I0522 15:52:08.760596  3445 net.cpp:157] Top shape: 10 2048 (20480)
I0522 15:52:08.760601  3445 net.cpp:165] Memory required for data: 2074931200
I0522 15:52:08.760603  3445 layer_factory.hpp:77] Creating layer mvn
I0522 15:52:09.516454  3445 net.cpp:100] Creating Layer mvn
I0522 15:52:09.516491  3445 net.cpp:434] mvn <- fc7
I0522 15:52:09.516501  3445 net.cpp:408] mvn -> fc7_norm
I0522 15:52:11.260193  3445 net.cpp:150] Setting up mvn
I0522 15:52:11.260237  3445 net.cpp:157] Top shape: 10 2048 (20480)
I0522 15:52:11.260243  3445 net.cpp:165] Memory required for data: 2075013120
I0522 15:52:11.260267  3445 layer_factory.hpp:77] Creating layer conv1a_pos
I0522 15:52:11.260293  3445 net.cpp:100] Creating Layer conv1a_pos
I0522 15:52:11.260304  3445 net.cpp:434] conv1a_pos <- positive
I0522 15:52:11.260323  3445 net.cpp:408] conv1a_pos -> conv1a_pos
I0522 15:52:11.269417  3445 net.cpp:150] Setting up conv1a_pos
I0522 15:52:11.269433  3445 net.cpp:157] Top shape: 10 64 16 112 112 (128450560)
I0522 15:52:11.269439  3445 net.cpp:165] Memory required for data: 2588815360
I0522 15:52:11.269467  3445 net.cpp:493] Sharing parameters 'conv1a_w' owned by layer 'conv1a', param index 0
I0522 15:52:11.269477  3445 net.cpp:493] Sharing parameters 'conv1a_b' owned by layer 'conv1a', param index 1
I0522 15:52:11.269485  3445 layer_factory.hpp:77] Creating layer relu1a_pos
I0522 15:52:11.269500  3445 net.cpp:100] Creating Layer relu1a_pos
I0522 15:52:11.269505  3445 net.cpp:434] relu1a_pos <- conv1a_pos
I0522 15:52:11.269513  3445 net.cpp:395] relu1a_pos -> conv1a_pos (in-place)
I0522 15:52:11.271435  3445 net.cpp:150] Setting up relu1a_pos
I0522 15:52:11.271450  3445 net.cpp:157] Top shape: 10 64 16 112 112 (128450560)
I0522 15:52:11.271456  3445 net.cpp:165] Memory required for data: 3102617600
I0522 15:52:11.271463  3445 layer_factory.hpp:77] Creating layer pool1_pos
I0522 15:52:11.271476  3445 net.cpp:100] Creating Layer pool1_pos
I0522 15:52:11.271483  3445 net.cpp:434] pool1_pos <- conv1a_pos
I0522 15:52:11.271497  3445 net.cpp:408] pool1_pos -> pool1_pos
I0522 15:52:11.271919  3445 net.cpp:150] Setting up pool1_pos
I0522 15:52:11.271952  3445 net.cpp:157] Top shape: 10 64 16 56 56 (32112640)
I0522 15:52:11.271958  3445 net.cpp:165] Memory required for data: 3231068160
I0522 15:52:11.271963  3445 layer_factory.hpp:77] Creating layer conv2a_pos
I0522 15:52:11.271980  3445 net.cpp:100] Creating Layer conv2a_pos
I0522 15:52:11.271986  3445 net.cpp:434] conv2a_pos <- pool1_pos
I0522 15:52:11.271997  3445 net.cpp:408] conv2a_pos -> conv2a_pos
I0522 15:52:11.286640  3445 net.cpp:150] Setting up conv2a_pos
I0522 15:52:11.286658  3445 net.cpp:157] Top shape: 10 128 16 56 56 (64225280)
I0522 15:52:11.286664  3445 net.cpp:165] Memory required for data: 3487969280
I0522 15:52:11.286692  3445 net.cpp:493] Sharing parameters 'conv2a_w' owned by layer 'conv2a', param index 0
I0522 15:52:11.286700  3445 net.cpp:493] Sharing parameters 'conv2a_b' owned by layer 'conv2a', param index 1
I0522 15:52:11.286707  3445 layer_factory.hpp:77] Creating layer relu2a_pos
I0522 15:52:11.286718  3445 net.cpp:100] Creating Layer relu2a_pos
I0522 15:52:11.286725  3445 net.cpp:434] relu2a_pos <- conv2a_pos
I0522 15:52:11.286732  3445 net.cpp:395] relu2a_pos -> conv2a_pos (in-place)
I0522 15:52:11.288480  3445 net.cpp:150] Setting up relu2a_pos
I0522 15:52:11.288496  3445 net.cpp:157] Top shape: 10 128 16 56 56 (64225280)
I0522 15:52:11.288502  3445 net.cpp:165] Memory required for data: 3744870400
I0522 15:52:11.288509  3445 layer_factory.hpp:77] Creating layer pool2_pos
I0522 15:52:11.288532  3445 net.cpp:100] Creating Layer pool2_pos
I0522 15:52:11.288537  3445 net.cpp:434] pool2_pos <- conv2a_pos
I0522 15:52:11.288547  3445 net.cpp:408] pool2_pos -> pool2_pos
I0522 15:52:11.290331  3445 net.cpp:150] Setting up pool2_pos
I0522 15:52:11.290349  3445 net.cpp:157] Top shape: 10 128 8 28 28 (8028160)
I0522 15:52:11.290354  3445 net.cpp:165] Memory required for data: 3776983040
I0522 15:52:11.290360  3445 layer_factory.hpp:77] Creating layer conv3a_pos
I0522 15:52:11.290375  3445 net.cpp:100] Creating Layer conv3a_pos
I0522 15:52:11.290381  3445 net.cpp:434] conv3a_pos <- pool2_pos
I0522 15:52:11.290393  3445 net.cpp:408] conv3a_pos -> conv3a_pos
I0522 15:52:11.328596  3445 net.cpp:150] Setting up conv3a_pos
I0522 15:52:11.328616  3445 net.cpp:157] Top shape: 10 256 8 28 28 (16056320)
I0522 15:52:11.328621  3445 net.cpp:165] Memory required for data: 3841208320
I0522 15:52:11.328640  3445 net.cpp:493] Sharing parameters 'conv3a_w' owned by layer 'conv3a', param index 0
I0522 15:52:11.328667  3445 net.cpp:493] Sharing parameters 'conv3a_b' owned by layer 'conv3a', param index 1
I0522 15:52:11.328675  3445 layer_factory.hpp:77] Creating layer relu3a_pos
I0522 15:52:11.328685  3445 net.cpp:100] Creating Layer relu3a_pos
I0522 15:52:11.328692  3445 net.cpp:434] relu3a_pos <- conv3a_pos
I0522 15:52:11.328701  3445 net.cpp:395] relu3a_pos -> conv3a_pos (in-place)
I0522 15:52:11.329566  3445 net.cpp:150] Setting up relu3a_pos
I0522 15:52:11.329578  3445 net.cpp:157] Top shape: 10 256 8 28 28 (16056320)
I0522 15:52:11.329583  3445 net.cpp:165] Memory required for data: 3905433600
I0522 15:52:11.329591  3445 layer_factory.hpp:77] Creating layer pool3_pos
I0522 15:52:11.329601  3445 net.cpp:100] Creating Layer pool3_pos
I0522 15:52:11.329607  3445 net.cpp:434] pool3_pos <- conv3a_pos
I0522 15:52:11.329617  3445 net.cpp:408] pool3_pos -> pool3_pos
I0522 15:52:11.331835  3445 net.cpp:150] Setting up pool3_pos
I0522 15:52:11.331851  3445 net.cpp:157] Top shape: 10 256 4 14 14 (2007040)
I0522 15:52:11.331856  3445 net.cpp:165] Memory required for data: 3913461760
I0522 15:52:11.331862  3445 layer_factory.hpp:77] Creating layer conv4a_pos
I0522 15:52:11.331877  3445 net.cpp:100] Creating Layer conv4a_pos
I0522 15:52:11.331883  3445 net.cpp:434] conv4a_pos <- pool3_pos
I0522 15:52:11.331895  3445 net.cpp:408] conv4a_pos -> conv4a_pos
I0522 15:52:11.388958  3445 net.cpp:150] Setting up conv4a_pos
I0522 15:52:11.388979  3445 net.cpp:157] Top shape: 10 256 4 14 14 (2007040)
I0522 15:52:11.388985  3445 net.cpp:165] Memory required for data: 3921489920
I0522 15:52:11.389004  3445 net.cpp:493] Sharing parameters 'conv4a_w' owned by layer 'conv4a', param index 0
I0522 15:52:11.389042  3445 net.cpp:493] Sharing parameters 'conv4a_b' owned by layer 'conv4a', param index 1
I0522 15:52:11.389050  3445 layer_factory.hpp:77] Creating layer relu4a_pos
I0522 15:52:11.389067  3445 net.cpp:100] Creating Layer relu4a_pos
I0522 15:52:11.389075  3445 net.cpp:434] relu4a_pos <- conv4a_pos
I0522 15:52:11.389083  3445 net.cpp:395] relu4a_pos -> conv4a_pos (in-place)
I0522 15:52:11.390149  3445 net.cpp:150] Setting up relu4a_pos
I0522 15:52:11.390162  3445 net.cpp:157] Top shape: 10 256 4 14 14 (2007040)
I0522 15:52:11.390167  3445 net.cpp:165] Memory required for data: 3929518080
I0522 15:52:11.390184  3445 layer_factory.hpp:77] Creating layer pool4_pos
I0522 15:52:11.390200  3445 net.cpp:100] Creating Layer pool4_pos
I0522 15:52:11.390206  3445 net.cpp:434] pool4_pos <- conv4a_pos
I0522 15:52:11.390215  3445 net.cpp:408] pool4_pos -> pool4_pos
I0522 15:52:11.391463  3445 net.cpp:150] Setting up pool4_pos
I0522 15:52:11.391479  3445 net.cpp:157] Top shape: 10 256 2 7 7 (250880)
I0522 15:52:11.391484  3445 net.cpp:165] Memory required for data: 3930521600
I0522 15:52:11.391489  3445 layer_factory.hpp:77] Creating layer conv5a_pos
I0522 15:52:11.391507  3445 net.cpp:100] Creating Layer conv5a_pos
I0522 15:52:11.391513  3445 net.cpp:434] conv5a_pos <- pool4_pos
I0522 15:52:11.391525  3445 net.cpp:408] conv5a_pos -> conv5a_pos
I0522 15:52:11.474414  3445 net.cpp:150] Setting up conv5a_pos
I0522 15:52:11.474452  3445 net.cpp:157] Top shape: 10 256 2 7 7 (250880)
I0522 15:52:11.474459  3445 net.cpp:165] Memory required for data: 3931525120
I0522 15:52:11.474469  3445 net.cpp:493] Sharing parameters 'conv5a_w' owned by layer 'conv5a', param index 0
I0522 15:52:11.474478  3445 net.cpp:493] Sharing parameters 'conv5a_b' owned by layer 'conv5a', param index 1
I0522 15:52:11.474484  3445 layer_factory.hpp:77] Creating layer relu5a_pos
I0522 15:52:11.474504  3445 net.cpp:100] Creating Layer relu5a_pos
I0522 15:52:11.474534  3445 net.cpp:434] relu5a_pos <- conv5a_pos
I0522 15:52:11.474570  3445 net.cpp:395] relu5a_pos -> conv5a_pos (in-place)
I0522 15:52:11.478384  3445 net.cpp:150] Setting up relu5a_pos
I0522 15:52:11.478411  3445 net.cpp:157] Top shape: 10 256 2 7 7 (250880)
I0522 15:52:11.478415  3445 net.cpp:165] Memory required for data: 3932528640
I0522 15:52:11.478420  3445 layer_factory.hpp:77] Creating layer pool5_pos
I0522 15:52:11.478430  3445 net.cpp:100] Creating Layer pool5_pos
I0522 15:52:11.478433  3445 net.cpp:434] pool5_pos <- conv5a_pos
I0522 15:52:11.478440  3445 net.cpp:408] pool5_pos -> pool5_pos
I0522 15:52:11.482553  3445 net.cpp:150] Setting up pool5_pos
I0522 15:52:11.482571  3445 net.cpp:157] Top shape: 10 256 1 4 4 (40960)
I0522 15:52:11.482576  3445 net.cpp:165] Memory required for data: 3932692480
I0522 15:52:11.482581  3445 layer_factory.hpp:77] Creating layer fc6_pos
I0522 15:52:11.482601  3445 net.cpp:100] Creating Layer fc6_pos
I0522 15:52:11.482607  3445 net.cpp:434] fc6_pos <- pool5_pos
I0522 15:52:11.482619  3445 net.cpp:408] fc6_pos -> fc6_pos
I0522 15:52:11.810807  3445 net.cpp:150] Setting up fc6_pos
I0522 15:52:11.810843  3445 net.cpp:157] Top shape: 10 2048 (20480)
I0522 15:52:11.810847  3445 net.cpp:165] Memory required for data: 3932774400
I0522 15:52:11.810855  3445 net.cpp:493] Sharing parameters 'fc6_w' owned by layer 'fc6', param index 0
I0522 15:52:11.810861  3445 net.cpp:493] Sharing parameters 'fc6_b' owned by layer 'fc6', param index 1
I0522 15:52:11.810865  3445 layer_factory.hpp:77] Creating layer relu6_pos
I0522 15:52:11.810886  3445 net.cpp:100] Creating Layer relu6_pos
I0522 15:52:11.810891  3445 net.cpp:434] relu6_pos <- fc6_pos
I0522 15:52:11.810900  3445 net.cpp:395] relu6_pos -> fc6_pos (in-place)
I0522 15:52:11.811269  3445 net.cpp:150] Setting up relu6_pos
I0522 15:52:11.811281  3445 net.cpp:157] Top shape: 10 2048 (20480)
I0522 15:52:11.811285  3445 net.cpp:165] Memory required for data: 3932856320
I0522 15:52:11.811290  3445 layer_factory.hpp:77] Creating layer drop6_pos
I0522 15:52:11.811331  3445 net.cpp:100] Creating Layer drop6_pos
I0522 15:52:11.811341  3445 net.cpp:434] drop6_pos <- fc6_pos
I0522 15:52:11.811348  3445 net.cpp:395] drop6_pos -> fc6_pos (in-place)
I0522 15:52:11.811411  3445 net.cpp:150] Setting up drop6_pos
I0522 15:52:11.811424  3445 net.cpp:157] Top shape: 10 2048 (20480)
I0522 15:52:11.811429  3445 net.cpp:165] Memory required for data: 3932938240
I0522 15:52:11.811434  3445 layer_factory.hpp:77] Creating layer fc7_pos
I0522 15:52:11.811444  3445 net.cpp:100] Creating Layer fc7_pos
I0522 15:52:11.811447  3445 net.cpp:434] fc7_pos <- fc6_pos
I0522 15:52:11.811455  3445 net.cpp:408] fc7_pos -> fc7_pos
I0522 15:52:11.961874  3445 net.cpp:150] Setting up fc7_pos
I0522 15:52:11.961901  3445 net.cpp:157] Top shape: 10 2048 (20480)
I0522 15:52:11.961906  3445 net.cpp:165] Memory required for data: 3933020160
I0522 15:52:11.961922  3445 net.cpp:493] Sharing parameters 'fc7_w' owned by layer 'fc7', param index 0
I0522 15:52:11.961928  3445 net.cpp:493] Sharing parameters 'fc7_b' owned by layer 'fc7', param index 1
I0522 15:52:11.961932  3445 layer_factory.hpp:77] Creating layer relu7_pos
I0522 15:52:11.961949  3445 net.cpp:100] Creating Layer relu7_pos
I0522 15:52:11.961958  3445 net.cpp:434] relu7_pos <- fc7_pos
I0522 15:52:11.961971  3445 net.cpp:395] relu7_pos -> fc7_pos (in-place)
I0522 15:52:11.971875  3445 net.cpp:150] Setting up relu7_pos
I0522 15:52:11.971915  3445 net.cpp:157] Top shape: 10 2048 (20480)
I0522 15:52:11.971925  3445 net.cpp:165] Memory required for data: 3933102080
I0522 15:52:11.971936  3445 layer_factory.hpp:77] Creating layer drop7_pos
I0522 15:52:11.971956  3445 net.cpp:100] Creating Layer drop7_pos
I0522 15:52:11.971966  3445 net.cpp:434] drop7_pos <- fc7_pos
I0522 15:52:11.971976  3445 net.cpp:395] drop7_pos -> fc7_pos (in-place)
I0522 15:52:11.972070  3445 net.cpp:150] Setting up drop7_pos
I0522 15:52:11.972081  3445 net.cpp:157] Top shape: 10 2048 (20480)
I0522 15:52:11.972087  3445 net.cpp:165] Memory required for data: 3933184000
I0522 15:52:11.972092  3445 layer_factory.hpp:77] Creating layer mvn_pos
I0522 15:52:11.972234  3445 net.cpp:100] Creating Layer mvn_pos
I0522 15:52:11.972244  3445 net.cpp:434] mvn_pos <- fc7_pos
I0522 15:52:11.972259  3445 net.cpp:408] mvn_pos -> fc7_pos_norm
I0522 15:52:11.972493  3445 net.cpp:150] Setting up mvn_pos
I0522 15:52:11.972507  3445 net.cpp:157] Top shape: 10 2048 (20480)
I0522 15:52:11.972514  3445 net.cpp:165] Memory required for data: 3933265920
I0522 15:52:11.972522  3445 layer_factory.hpp:77] Creating layer conv1a_neg
I0522 15:52:11.972544  3445 net.cpp:100] Creating Layer conv1a_neg
I0522 15:52:11.972549  3445 net.cpp:434] conv1a_neg <- negative
I0522 15:52:11.972558  3445 net.cpp:408] conv1a_neg -> conv1a_neg
I0522 15:52:12.010422  3445 net.cpp:150] Setting up conv1a_neg
I0522 15:52:12.010437  3445 net.cpp:157] Top shape: 10 64 16 112 112 (128450560)
I0522 15:52:12.010453  3445 net.cpp:165] Memory required for data: 4447068160
I0522 15:52:12.010458  3445 net.cpp:493] Sharing parameters 'conv1a_w' owned by layer 'conv1a', param index 0
I0522 15:52:12.010474  3445 net.cpp:493] Sharing parameters 'conv1a_b' owned by layer 'conv1a', param index 1
I0522 15:52:12.010478  3445 layer_factory.hpp:77] Creating layer relu1a_neg
I0522 15:52:12.010485  3445 net.cpp:100] Creating Layer relu1a_neg
I0522 15:52:12.010489  3445 net.cpp:434] relu1a_neg <- conv1a_neg
I0522 15:52:12.010494  3445 net.cpp:395] relu1a_neg -> conv1a_neg (in-place)
I0522 15:52:12.010741  3445 net.cpp:150] Setting up relu1a_neg
I0522 15:52:12.010753  3445 net.cpp:157] Top shape: 10 64 16 112 112 (128450560)
I0522 15:52:12.010757  3445 net.cpp:165] Memory required for data: 4960870400
I0522 15:52:12.010761  3445 layer_factory.hpp:77] Creating layer pool1_neg
I0522 15:52:12.010772  3445 net.cpp:100] Creating Layer pool1_neg
I0522 15:52:12.010776  3445 net.cpp:434] pool1_neg <- conv1a_neg
I0522 15:52:12.010783  3445 net.cpp:408] pool1_neg -> pool1_neg
I0522 15:52:12.015769  3445 net.cpp:150] Setting up pool1_neg
I0522 15:52:12.015782  3445 net.cpp:157] Top shape: 10 64 16 56 56 (32112640)
I0522 15:52:12.015815  3445 net.cpp:165] Memory required for data: 5089320960
I0522 15:52:12.015818  3445 layer_factory.hpp:77] Creating layer conv2a_neg
I0522 15:52:12.015844  3445 net.cpp:100] Creating Layer conv2a_neg
I0522 15:52:12.015848  3445 net.cpp:434] conv2a_neg <- pool1_neg
I0522 15:52:12.015857  3445 net.cpp:408] conv2a_neg -> conv2a_neg
I0522 15:52:12.036344  3445 net.cpp:150] Setting up conv2a_neg
I0522 15:52:12.036368  3445 net.cpp:157] Top shape: 10 128 16 56 56 (64225280)
I0522 15:52:12.036371  3445 net.cpp:165] Memory required for data: 5346222080
I0522 15:52:12.036376  3445 net.cpp:493] Sharing parameters 'conv2a_w' owned by layer 'conv2a', param index 0
I0522 15:52:12.036381  3445 net.cpp:493] Sharing parameters 'conv2a_b' owned by layer 'conv2a', param index 1
I0522 15:52:12.036383  3445 layer_factory.hpp:77] Creating layer relu2a_neg
I0522 15:52:12.036391  3445 net.cpp:100] Creating Layer relu2a_neg
I0522 15:52:12.036393  3445 net.cpp:434] relu2a_neg <- conv2a_neg
I0522 15:52:12.036409  3445 net.cpp:395] relu2a_neg -> conv2a_neg (in-place)
I0522 15:52:12.039580  3445 net.cpp:150] Setting up relu2a_neg
I0522 15:52:12.039594  3445 net.cpp:157] Top shape: 10 128 16 56 56 (64225280)
I0522 15:52:12.039608  3445 net.cpp:165] Memory required for data: 5603123200
I0522 15:52:12.039613  3445 layer_factory.hpp:77] Creating layer pool2_neg
I0522 15:52:12.039619  3445 net.cpp:100] Creating Layer pool2_neg
I0522 15:52:12.039623  3445 net.cpp:434] pool2_neg <- conv2a_neg
I0522 15:52:12.039628  3445 net.cpp:408] pool2_neg -> pool2_neg
I0522 15:52:12.043704  3445 net.cpp:150] Setting up pool2_neg
I0522 15:52:12.043720  3445 net.cpp:157] Top shape: 10 128 8 28 28 (8028160)
I0522 15:52:12.043723  3445 net.cpp:165] Memory required for data: 5635235840
I0522 15:52:12.043727  3445 layer_factory.hpp:77] Creating layer conv3a_neg
I0522 15:52:12.043736  3445 net.cpp:100] Creating Layer conv3a_neg
I0522 15:52:12.043740  3445 net.cpp:434] conv3a_neg <- pool2_neg
I0522 15:52:12.043759  3445 net.cpp:408] conv3a_neg -> conv3a_neg
I0522 15:52:12.079613  3445 net.cpp:150] Setting up conv3a_neg
I0522 15:52:12.079629  3445 net.cpp:157] Top shape: 10 256 8 28 28 (16056320)
I0522 15:52:12.079633  3445 net.cpp:165] Memory required for data: 5699461120
I0522 15:52:12.079655  3445 net.cpp:493] Sharing parameters 'conv3a_w' owned by layer 'conv3a', param index 0
I0522 15:52:12.079663  3445 net.cpp:493] Sharing parameters 'conv3a_b' owned by layer 'conv3a', param index 1
I0522 15:52:12.079666  3445 layer_factory.hpp:77] Creating layer relu3a_neg
I0522 15:52:12.079676  3445 net.cpp:100] Creating Layer relu3a_neg
I0522 15:52:12.079680  3445 net.cpp:434] relu3a_neg <- conv3a_neg
I0522 15:52:12.079685  3445 net.cpp:395] relu3a_neg -> conv3a_neg (in-place)
I0522 15:52:12.084172  3445 net.cpp:150] Setting up relu3a_neg
I0522 15:52:12.084185  3445 net.cpp:157] Top shape: 10 256 8 28 28 (16056320)
I0522 15:52:12.084189  3445 net.cpp:165] Memory required for data: 5763686400
I0522 15:52:12.084192  3445 layer_factory.hpp:77] Creating layer pool3_neg
I0522 15:52:12.084211  3445 net.cpp:100] Creating Layer pool3_neg
I0522 15:52:12.084216  3445 net.cpp:434] pool3_neg <- conv3a_neg
I0522 15:52:12.084223  3445 net.cpp:408] pool3_neg -> pool3_neg
I0522 15:52:12.088857  3445 net.cpp:150] Setting up pool3_neg
I0522 15:52:12.088867  3445 net.cpp:157] Top shape: 10 256 4 14 14 (2007040)
I0522 15:52:12.088871  3445 net.cpp:165] Memory required for data: 5771714560
I0522 15:52:12.088884  3445 layer_factory.hpp:77] Creating layer conv4a_neg
I0522 15:52:12.088896  3445 net.cpp:100] Creating Layer conv4a_neg
I0522 15:52:12.088899  3445 net.cpp:434] conv4a_neg <- pool3_neg
I0522 15:52:12.088906  3445 net.cpp:408] conv4a_neg -> conv4a_neg
I0522 15:52:12.149029  3445 net.cpp:150] Setting up conv4a_neg
I0522 15:52:12.149063  3445 net.cpp:157] Top shape: 10 256 4 14 14 (2007040)
I0522 15:52:12.149067  3445 net.cpp:165] Memory required for data: 5779742720
I0522 15:52:12.149073  3445 net.cpp:493] Sharing parameters 'conv4a_w' owned by layer 'conv4a', param index 0
I0522 15:52:12.149106  3445 net.cpp:493] Sharing parameters 'conv4a_b' owned by layer 'conv4a', param index 1
I0522 15:52:12.149109  3445 layer_factory.hpp:77] Creating layer relu4a_neg
I0522 15:52:12.149117  3445 net.cpp:100] Creating Layer relu4a_neg
I0522 15:52:12.149122  3445 net.cpp:434] relu4a_neg <- conv4a_neg
I0522 15:52:12.149127  3445 net.cpp:395] relu4a_neg -> conv4a_neg (in-place)
I0522 15:52:12.150408  3445 net.cpp:150] Setting up relu4a_neg
I0522 15:52:12.150420  3445 net.cpp:157] Top shape: 10 256 4 14 14 (2007040)
I0522 15:52:12.150435  3445 net.cpp:165] Memory required for data: 5787770880
I0522 15:52:12.150439  3445 layer_factory.hpp:77] Creating layer pool4_neg
I0522 15:52:12.150445  3445 net.cpp:100] Creating Layer pool4_neg
I0522 15:52:12.150450  3445 net.cpp:434] pool4_neg <- conv4a_neg
I0522 15:52:12.150455  3445 net.cpp:408] pool4_neg -> pool4_neg
I0522 15:52:12.152753  3445 net.cpp:150] Setting up pool4_neg
I0522 15:52:12.152765  3445 net.cpp:157] Top shape: 10 256 2 7 7 (250880)
I0522 15:52:12.152778  3445 net.cpp:165] Memory required for data: 5788774400
I0522 15:52:12.152781  3445 layer_factory.hpp:77] Creating layer conv5a_neg
I0522 15:52:12.152793  3445 net.cpp:100] Creating Layer conv5a_neg
I0522 15:52:12.152796  3445 net.cpp:434] conv5a_neg <- pool4_neg
I0522 15:52:12.152803  3445 net.cpp:408] conv5a_neg -> conv5a_neg
I0522 15:52:12.215620  3445 net.cpp:150] Setting up conv5a_neg
I0522 15:52:12.215659  3445 net.cpp:157] Top shape: 10 256 2 7 7 (250880)
I0522 15:52:12.215663  3445 net.cpp:165] Memory required for data: 5789777920
I0522 15:52:12.215672  3445 net.cpp:493] Sharing parameters 'conv5a_w' owned by layer 'conv5a', param index 0
I0522 15:52:12.215677  3445 net.cpp:493] Sharing parameters 'conv5a_b' owned by layer 'conv5a', param index 1
I0522 15:52:12.215682  3445 layer_factory.hpp:77] Creating layer relu5a_neg
I0522 15:52:12.215703  3445 net.cpp:100] Creating Layer relu5a_neg
I0522 15:52:12.215708  3445 net.cpp:434] relu5a_neg <- conv5a_neg
I0522 15:52:12.215714  3445 net.cpp:395] relu5a_neg -> conv5a_neg (in-place)
I0522 15:52:12.222779  3445 net.cpp:150] Setting up relu5a_neg
I0522 15:52:12.222810  3445 net.cpp:157] Top shape: 10 256 2 7 7 (250880)
I0522 15:52:12.222815  3445 net.cpp:165] Memory required for data: 5790781440
I0522 15:52:12.222820  3445 layer_factory.hpp:77] Creating layer pool5_neg
I0522 15:52:12.222834  3445 net.cpp:100] Creating Layer pool5_neg
I0522 15:52:12.222841  3445 net.cpp:434] pool5_neg <- conv5a_neg
I0522 15:52:12.222856  3445 net.cpp:408] pool5_neg -> pool5_neg
I0522 15:52:12.223605  3445 net.cpp:150] Setting up pool5_neg
I0522 15:52:12.223618  3445 net.cpp:157] Top shape: 10 256 1 4 4 (40960)
I0522 15:52:12.223621  3445 net.cpp:165] Memory required for data: 5790945280
I0522 15:52:12.223625  3445 layer_factory.hpp:77] Creating layer fc6_neg
I0522 15:52:12.223672  3445 net.cpp:100] Creating Layer fc6_neg
I0522 15:52:12.223680  3445 net.cpp:434] fc6_neg <- pool5_neg
I0522 15:52:12.223690  3445 net.cpp:408] fc6_neg -> fc6_neg
I0522 15:52:12.493111  3445 net.cpp:150] Setting up fc6_neg
I0522 15:52:12.493152  3445 net.cpp:157] Top shape: 10 2048 (20480)
I0522 15:52:12.493156  3445 net.cpp:165] Memory required for data: 5791027200
I0522 15:52:12.493165  3445 net.cpp:493] Sharing parameters 'fc6_w' owned by layer 'fc6', param index 0
I0522 15:52:12.493171  3445 net.cpp:493] Sharing parameters 'fc6_b' owned by layer 'fc6', param index 1
I0522 15:52:12.493180  3445 layer_factory.hpp:77] Creating layer relu6_neg
I0522 15:52:12.493202  3445 net.cpp:100] Creating Layer relu6_neg
I0522 15:52:12.493208  3445 net.cpp:434] relu6_neg <- fc6_neg
I0522 15:52:12.493216  3445 net.cpp:395] relu6_neg -> fc6_neg (in-place)
I0522 15:52:12.494429  3445 net.cpp:150] Setting up relu6_neg
I0522 15:52:12.494442  3445 net.cpp:157] Top shape: 10 2048 (20480)
I0522 15:52:12.494457  3445 net.cpp:165] Memory required for data: 5791109120
I0522 15:52:12.494460  3445 layer_factory.hpp:77] Creating layer drop6_neg
I0522 15:52:12.494469  3445 net.cpp:100] Creating Layer drop6_neg
I0522 15:52:12.494509  3445 net.cpp:434] drop6_neg <- fc6_neg
I0522 15:52:12.494514  3445 net.cpp:395] drop6_neg -> fc6_neg (in-place)
I0522 15:52:12.494559  3445 net.cpp:150] Setting up drop6_neg
I0522 15:52:12.494565  3445 net.cpp:157] Top shape: 10 2048 (20480)
I0522 15:52:12.494568  3445 net.cpp:165] Memory required for data: 5791191040
I0522 15:52:12.494571  3445 layer_factory.hpp:77] Creating layer fc7_neg
I0522 15:52:12.494583  3445 net.cpp:100] Creating Layer fc7_neg
I0522 15:52:12.494588  3445 net.cpp:434] fc7_neg <- fc6_neg
I0522 15:52:12.494593  3445 net.cpp:408] fc7_neg -> fc7_neg
I0522 15:52:12.629920  3445 net.cpp:150] Setting up fc7_neg
I0522 15:52:12.629961  3445 net.cpp:157] Top shape: 10 2048 (20480)
I0522 15:52:12.629966  3445 net.cpp:165] Memory required for data: 5791272960
I0522 15:52:12.629973  3445 net.cpp:493] Sharing parameters 'fc7_w' owned by layer 'fc7', param index 0
I0522 15:52:12.629979  3445 net.cpp:493] Sharing parameters 'fc7_b' owned by layer 'fc7', param index 1
I0522 15:52:12.629983  3445 layer_factory.hpp:77] Creating layer relu7_neg
I0522 15:52:12.629993  3445 net.cpp:100] Creating Layer relu7_neg
I0522 15:52:12.629998  3445 net.cpp:434] relu7_neg <- fc7_neg
I0522 15:52:12.630005  3445 net.cpp:395] relu7_neg -> fc7_neg (in-place)
I0522 15:52:12.630285  3445 net.cpp:150] Setting up relu7_neg
I0522 15:52:12.630296  3445 net.cpp:157] Top shape: 10 2048 (20480)
I0522 15:52:12.630300  3445 net.cpp:165] Memory required for data: 5791354880
I0522 15:52:12.630302  3445 layer_factory.hpp:77] Creating layer drop7_neg
I0522 15:52:12.630309  3445 net.cpp:100] Creating Layer drop7_neg
I0522 15:52:12.630312  3445 net.cpp:434] drop7_neg <- fc7_neg
I0522 15:52:12.630317  3445 net.cpp:395] drop7_neg -> fc7_neg (in-place)
I0522 15:52:12.630359  3445 net.cpp:150] Setting up drop7_neg
I0522 15:52:12.630365  3445 net.cpp:157] Top shape: 10 2048 (20480)
I0522 15:52:12.630368  3445 net.cpp:165] Memory required for data: 5791436800
I0522 15:52:12.630372  3445 layer_factory.hpp:77] Creating layer mvn_neg
I0522 15:52:12.630427  3445 net.cpp:100] Creating Layer mvn_neg
I0522 15:52:12.630434  3445 net.cpp:434] mvn_neg <- fc7_neg
I0522 15:52:12.630439  3445 net.cpp:408] mvn_neg -> fc7_neg_norm
I0522 15:52:12.630609  3445 net.cpp:150] Setting up mvn_neg
I0522 15:52:12.630620  3445 net.cpp:157] Top shape: 10 2048 (20480)
I0522 15:52:12.630623  3445 net.cpp:165] Memory required for data: 5791518720
I0522 15:52:12.630626  3445 layer_factory.hpp:77] Creating layer save
I0522 15:52:12.634634  3445 net.cpp:100] Creating Layer save
I0522 15:52:12.634647  3445 net.cpp:434] save <- fc7_norm
I0522 15:52:12.634665  3445 net.cpp:434] save <- fc7_pos_norm
I0522 15:52:12.634670  3445 net.cpp:434] save <- fc7_neg_norm
…
