name: "C3D-Three-Streams"
layer {
  name: "data"
  type: "Data"
  top: "triplet"
  top: "label"
  include {
    phase: TRAIN
  }
  transform_param {
    crop_size: 112
    mean_value: 65
    mean_value: 74
    mean_value: 92
    mean_value: 65
    mean_value: 74
    mean_value: 92
    mean_value: 65
    mean_value: 74
    mean_value: 92
    mean_value: 65
    mean_value: 74
    mean_value: 92
    mean_value: 65
    mean_value: 74
    mean_value: 92
    mean_value: 65
    mean_value: 74
    mean_value: 92
    mean_value: 65
    mean_value: 74
    mean_value: 92
    mean_value: 65
    mean_value: 74
    mean_value: 92
    mean_value: 65
    mean_value: 74
    mean_value: 92
    mean_value: 65
    mean_value: 74
    mean_value: 92
    mean_value: 65
    mean_value: 74
    mean_value: 92
    mean_value: 65
    mean_value: 74
    mean_value: 92
    mean_value: 65
    mean_value: 74
    mean_value: 92
    mean_value: 65
    mean_value: 74
    mean_value: 92
    mean_value: 65
    mean_value: 74
    mean_value: 92
    mean_value: 65
    mean_value: 74
    mean_value: 92
    mean_value: 65
    mean_value: 74
    mean_value: 92
    mean_value: 65
    mean_value: 74
    mean_value: 92
    mean_value: 65
    mean_value: 74
    mean_value: 92
    mean_value: 65
    mean_value: 74
    mean_value: 92
    mean_value: 65
    mean_value: 74
    mean_value: 92
    mean_value: 65
    mean_value: 74
    mean_value: 92
    mean_value: 65
    mean_value: 74
    mean_value: 92
    mean_value: 65
    mean_value: 74
    mean_value: 92
    mean_value: 65
    mean_value: 74
    mean_value: 92
    mean_value: 65
    mean_value: 74
    mean_value: 92
    mean_value: 65
    mean_value: 74
    mean_value: 92
    mean_value: 65
    mean_value: 74
    mean_value: 92
    mean_value: 65
    mean_value: 74
    mean_value: 92
    mean_value: 65
    mean_value: 74
    mean_value: 92
    mean_value: 65
    mean_value: 74
    mean_value: 92
    mean_value: 65
    mean_value: 74
    mean_value: 92
    mean_value: 65
    mean_value: 74
    mean_value: 92
    mean_value: 65
    mean_value: 74
    mean_value: 92
    mean_value: 65
    mean_value: 74
    mean_value: 92
    mean_value: 65
    mean_value: 74
    mean_value: 92
    mean_value: 65
    mean_value: 74
    mean_value: 92
    mean_value: 65
    mean_value: 74
    mean_value: 92
    mean_value: 65
    mean_value: 74
    mean_value: 92
    mean_value: 65
    mean_value: 74
    mean_value: 92
    mean_value: 65
    mean_value: 74
    mean_value: 92
    mean_value: 65
    mean_value: 74
    mean_value: 92
    mean_value: 65
    mean_value: 74
    mean_value: 92
    mean_value: 65
    mean_value: 74
    mean_value: 92
    mean_value: 65
    mean_value: 74
    mean_value: 92
    mean_value: 65
    mean_value: 74
    mean_value: 92
    mean_value: 65
    mean_value: 74
    mean_value: 92
    mean_value: 65
    mean_value: 74
    mean_value: 92
    mirror: true
  }
  data_param {
    source: "/data/leo-data/Synthetic/LMDB/Triplets/train"
    backend: LMDB
    batch_size: 18
  }
}
layer {
  name: "data"
  type: "Data"
  top: "triplet"
  top: "label"
  include {
    phase: TEST
    stage: "test-on-val"
  }
  transform_param {
    crop_size: 112
    mean_value: 65
    mean_value: 74
    mean_value: 92
    mean_value: 65
    mean_value: 74
    mean_value: 92
    mean_value: 65
    mean_value: 74
    mean_value: 92
    mean_value: 65
    mean_value: 74
    mean_value: 92
    mean_value: 65
    mean_value: 74
    mean_value: 92
    mean_value: 65
    mean_value: 74
    mean_value: 92
    mean_value: 65
    mean_value: 74
    mean_value: 92
    mean_value: 65
    mean_value: 74
    mean_value: 92
    mean_value: 65
    mean_value: 74
    mean_value: 92
    mean_value: 65
    mean_value: 74
    mean_value: 92
    mean_value: 65
    mean_value: 74
    mean_value: 92
    mean_value: 65
    mean_value: 74
    mean_value: 92
    mean_value: 65
    mean_value: 74
    mean_value: 92
    mean_value: 65
    mean_value: 74
    mean_value: 92
    mean_value: 65
    mean_value: 74
    mean_value: 92
    mean_value: 65
    mean_value: 74
    mean_value: 92
    mean_value: 65
    mean_value: 74
    mean_value: 92
    mean_value: 65
    mean_value: 74
    mean_value: 92
    mean_value: 65
    mean_value: 74
    mean_value: 92
    mean_value: 65
    mean_value: 74
    mean_value: 92
    mean_value: 65
    mean_value: 74
    mean_value: 92
    mean_value: 65
    mean_value: 74
    mean_value: 92
    mean_value: 65
    mean_value: 74
    mean_value: 92
    mean_value: 65
    mean_value: 74
    mean_value: 92
    mean_value: 65
    mean_value: 74
    mean_value: 92
    mean_value: 65
    mean_value: 74
    mean_value: 92
    mean_value: 65
    mean_value: 74
    mean_value: 92
    mean_value: 65
    mean_value: 74
    mean_value: 92
    mean_value: 65
    mean_value: 74
    mean_value: 92
    mean_value: 65
    mean_value: 74
    mean_value: 92
    mean_value: 65
    mean_value: 74
    mean_value: 92
    mean_value: 65
    mean_value: 74
    mean_value: 92
    mean_value: 65
    mean_value: 74
    mean_value: 92
    mean_value: 65
    mean_value: 74
    mean_value: 92
    mean_value: 65
    mean_value: 74
    mean_value: 92
    mean_value: 65
    mean_value: 74
    mean_value: 92
    mean_value: 65
    mean_value: 74
    mean_value: 92
    mean_value: 65
    mean_value: 74
    mean_value: 92
    mean_value: 65
    mean_value: 74
    mean_value: 92
    mean_value: 65
    mean_value: 74
    mean_value: 92
    mean_value: 65
    mean_value: 74
    mean_value: 92
    mean_value: 65
    mean_value: 74
    mean_value: 92
    mean_value: 65
    mean_value: 74
    mean_value: 92
    mean_value: 65
    mean_value: 74
    mean_value: 92
    mean_value: 65
    mean_value: 74
    mean_value: 92
    mean_value: 65
    mean_value: 74
    mean_value: 92
    mean_value: 65
    mean_value: 74
    mean_value: 92
    mean_value: 65
    mean_value: 74
    mean_value: 92
    mirror: false
  }
  data_param {
    source: "/data/leo-data/Synthetic/LMDB/Triplets/val"
    backend: LMDB
    batch_size: 1
  }
}

layer {
  name: "slicer"
  type: "Slice"
  bottom: "triplet"
  top: "anchor_stacked"
  top: "positive_stacked"
  top: "negative_stacked"
  slice_param {
    slice_dim: 1
    slice_point: 48
    slice_point: 96
  }
}

layer {
  name: "reshape_anchor"
  type: "Reshape"
  bottom: "anchor_stacked"
  top: "anchor"
  reshape_param {
    shape {
      dim: 0  # copy the dimension from below
      dim: 3
      dim: 16
      dim: 112 
      dim: 112
    }
  }
}

layer {
  name: "reshape_positive"
  type: "Reshape"
  bottom: "positive_stacked"
  top: "positive"
  reshape_param {
    shape {
      dim: 0  # copy the dimension from below
      dim: 3
      dim: 16
      dim: 112 
      dim: 112
    }
  }
 }

layer {
  name: "silence_negative"
  type: "Silence"
  bottom: "negative_stacked"
}

# ----- 1st group -----
layer {
  name: "conv1a"
  type: "NdConvolution"
  bottom: "anchor"
  top: "conv1a"
  param {
    lr_mult: 1
    decay_mult: 1
  }
  param {
    lr_mult: 2
    decay_mult: 0
  }
  convolution_param {
    num_output: 64
    kernel_shape { dim: 3 dim: 3 dim: 3 }
    stride_shape { dim: 1 dim: 1 dim: 1 }
    pad_shape    { dim: 1 dim: 1 dim: 1 }
    weight_filler {
      type: "gaussian"
      std: 0.01
    }
    bias_filler {
      type: "constant"
      value: 0
    }
  }
}
layer {
  name: "relu1a"
  type: "ReLU"
  bottom: "conv1a"
  top: "conv1a"
}
layer {
  name: "pool1"
  type: "NdPooling"
  bottom: "conv1a"
  top: "pool1"
  pooling_param {
    pool: MAX
    kernel_shape { dim: 1 dim: 2 dim: 2 }
    stride_shape { dim: 1 dim: 2 dim: 2 }
  }
}

# ----- 2nd group -----
layer {
  name: "conv2a"
  type: "NdConvolution"
  bottom: "pool1"
  top: "conv2a"
  param {
    lr_mult: 1
    decay_mult: 1
  }
  param {
    lr_mult: 2
    decay_mult: 0
  }
  convolution_param {
    num_output: 128
    kernel_shape { dim: 3 dim: 3 dim: 3 }
    stride_shape { dim: 1 dim: 1 dim: 1 }
    pad_shape    { dim: 1 dim: 1 dim: 1 }
    weight_filler {
      type: "gaussian"
      std: 0.01
    }
    bias_filler {
      type: "constant"
      value: 1
    }
  }
}
layer {
  name: "relu2a"
  type: "ReLU"
  bottom: "conv2a"
  top: "conv2a"
}
layer {
  name: "pool2"
  type: "NdPooling"
  bottom: "conv2a"
  top: "pool2"
  pooling_param {
    pool: MAX
    kernel_shape { dim: 2 dim: 2 dim: 2 }
    stride_shape { dim: 2 dim: 2 dim: 2 }
  }
}

# ----- 3rd group -----
layer {
  name: "conv3a"
  type: "NdConvolution"
  bottom: "pool2"
  top: "conv3a"
  param {
    lr_mult: 1
    decay_mult: 1
  }
  param {
    lr_mult: 2
    decay_mult: 0
  }
  convolution_param {
    num_output: 256
    kernel_shape { dim: 3 dim: 3 dim: 3 }
    stride_shape { dim: 1 dim: 1 dim: 1 }
    pad_shape    { dim: 1 dim: 1 dim: 1 }
    weight_filler {
      type: "gaussian"
      std: 0.01
    }
    bias_filler {
      type: "constant"
      value: 1
    }
  }
}
layer {
  name: "relu3a"
  type: "ReLU"
  bottom: "conv3a"
  top: "conv3a"
}
layer {
  name: "pool3"
  type: "NdPooling"
  bottom: "conv3a"
  top: "pool3"
  pooling_param {
    pool: MAX
    kernel_shape { dim: 2 dim: 2 dim: 2 }
    stride_shape { dim: 2 dim: 2 dim: 2 }
  }
}

# ----- 4th group -----
layer {
  name: "conv4a"
  type: "NdConvolution"
  bottom: "pool3"
  top: "conv4a"
  param {
    lr_mult: 1
    decay_mult: 1
  }
  param {
    lr_mult: 2
    decay_mult: 0
  }
  convolution_param {
    num_output: 256
    kernel_shape { dim: 3 dim: 3 dim: 3 }
    stride_shape { dim: 1 dim: 1 dim: 1 }
    pad_shape    { dim: 1 dim: 1 dim: 1 }
    weight_filler {
      type: "gaussian"
      std: 0.01
    }
    bias_filler {
      type: "constant"
      value: 1
    }
  }
}
layer {
  name: "relu4a"
  type: "ReLU"
  bottom: "conv4a"
  top: "conv4a"
}
layer {
  name: "pool4"
  type: "NdPooling"
  bottom: "conv4a"
  top: "pool4"
  pooling_param {
    pool: MAX
    kernel_shape { dim: 2 dim: 2 dim: 2 }
    stride_shape { dim: 2 dim: 2 dim: 2 }
  }
}

# ----- 5th group -----
layer {
  name: "conv5a"
  type: "NdConvolution"
  bottom: "pool4"
  top: "conv5a"
  param {
    lr_mult: 1
    decay_mult: 1
  }
  param {
    lr_mult: 2
    decay_mult: 0
  }
  convolution_param {
    num_output: 256
    kernel_shape { dim: 3 dim: 3 dim: 3 }
    stride_shape { dim: 1 dim: 1 dim: 1 }
    pad_shape    { dim: 1 dim: 1 dim: 1 }
    weight_filler {
      type: "gaussian"
      std: 0.01
    }
    bias_filler {
      type: "constant"
      value: 1
    }
  }
}
layer {
  name: "relu5a"
  type: "ReLU"
  bottom: "conv5a"
  top: "conv5a"
}
layer {
  name: "pool5"
  type: "NdPooling"
  bottom: "conv5a"
  top: "pool5"
  pooling_param {
    pool: MAX
    kernel_shape { dim: 2 dim: 2 dim: 2 }
    stride_shape { dim: 2 dim: 2 dim: 2 }
  }
}

# ----- 1st fc group -----
layer {
  name: "fc6"
  type: "InnerProduct"
  bottom: "pool5"
  top: "fc6"
  param {
    lr_mult: 1
    decay_mult: 1
  }
  param {
    lr_mult: 2
    decay_mult: 0
  }
  inner_product_param {
    num_output: 2048
    weight_filler {
      type: "gaussian"
      std: 0.005
    }
    bias_filler {
      type: "constant"
      value: 1
    }
  }
}
layer {
  name: "relu6"
  type: "ReLU"
  bottom: "fc6"
  top: "fc6"
}
layer {
  name: "drop6"
  type: "Dropout"
  bottom: "fc6"
  top: "fc6"
  dropout_param {
    dropout_ratio: 0.5
  }
}

# ----- 2nd fc group -----
layer {
  name: "fc7"
  type: "InnerProduct"
  bottom: "fc6"
  top: "fc7"
  param {
    lr_mult: 1
    decay_mult: 1
  }
  param {
    lr_mult: 2
    decay_mult: 0
  }
  inner_product_param {
    num_output: 2048
    weight_filler {
      type: "gaussian"
      std: 0.005
    }
    bias_filler {
      type: "constant"
      value: 1
    }
  }
}
layer {
  name: "relu7"
  type: "ReLU"
  bottom: "fc7"
  top: "fc7"
}
layer {
  name: "drop7"
  type: "Dropout"
  bottom: "fc7"
  top: "fc7"
  dropout_param {
    dropout_ratio: 0.5
  }
}

# ----- Auto-Encoder -----
# ---- 8th layer ------
layer {
  name: "auto8"
  type: "NdConvolution"
  bottom: "fc7"
  top: "auto8"
  param {
    lr_mult: 1
    decay_mult: 1
  }
  param {
    lr_mult: 2
    decay_mult: 0
  }
  convolution_param {
    num_output: 1024
    kernel_shape { dim: 3 dim: 3 dim: 3 }
    stride_shape { dim: 1 dim: 1 dim: 1 }
    pad_shape    { dim: 1 dim: 1 dim: 1 }
    weight_filler {
      type: "gaussian"
      std: 0.01
    }
    bias_filler {
      type: "constant"
      value: 1
    }
  }
}
layer {
  name: "relu8"
  type: "ReLU"
  bottom: "auto8"
  top: "auto8"
}
layer {
  name: "pool8"
  type: "NdPooling"
  bottom: "auto8"
  top: "pool8"
  pooling_param {
    pool: MAX
    kernel_shape { dim: 2 dim: 2 dim: 2 }
    stride_shape { dim: 2 dim: 2 dim: 2 }
  }
}

# ---- 9th layer ------
layer {
  name: "auto9"
  type: "NdConvolution"
  bottom: "auto8"
  top: "auto9"
  param {
    lr_mult: 1
    decay_mult: 1
  }
  param {
    lr_mult: 2
    decay_mult: 0
  }
  convolution_param {
    num_output: 512
    kernel_shape { dim: 3 dim: 3 dim: 3 }
    stride_shape { dim: 1 dim: 1 dim: 1 }
    pad_shape    { dim: 1 dim: 1 dim: 1 }
    weight_filler {
      type: "gaussian"
      std: 0.01
    }
    bias_filler {
      type: "constant"
      value: 1
    }
  }
}
layer {
  name: "relu9"
  type: "ReLU"
  bottom: "auto9"
  top: "auto9"
}
layer {
  name: "pool9"
  type: "NdPooling"
  bottom: "auto9"
  top: "pool9"
  pooling_param {
    pool: MAX
    kernel_shape { dim: 2 dim: 2 dim: 2 }
    stride_shape { dim: 2 dim: 2 dim: 2 }
  }
}

# ---- 10th layer ------
layer {
  name: "auto10"
  type: "NdConvolution"
  bottom: "auto10"
  top: "auto10"
  param {
    lr_mult: 1
    decay_mult: 1
  }
  param {
    lr_mult: 2
    decay_mult: 0
  }
  convolution_param {
    num_output: 1024
    kernel_shape { dim: 3 dim: 3 dim: 3 }
    stride_shape { dim: 1 dim: 1 dim: 1 }
    pad_shape    { dim: 1 dim: 1 dim: 1 }
    weight_filler {
      type: "gaussian"
      std: 0.01
    }
    bias_filler {
      type: "constant"
      value: 1
    }
  }
}
layer {
  name: "relu10"
  type: "ReLU"
  bottom: "auto10"
  top: "auto10"
}
layer {
  name: "pool10"
  type: "NdPooling"
  bottom: "auto10"
  top: "pool10"
  pooling_param {
    pool: MAX
    kernel_shape { dim: 2 dim: 2 dim: 2 }
    stride_shape { dim: 2 dim: 2 dim: 2 }
  }
}

# ---- 11th layer ------
layer {
  name: "auto11"
  type: "NdConvolution"
  bottom: "auto11"
  top: "auto11"
  param {
    lr_mult: 1
    decay_mult: 1
  }
  param {
    lr_mult: 2
    decay_mult: 0
  }
  convolution_param {
    num_output: 2048
    kernel_shape { dim: 3 dim: 3 dim: 3 }
    stride_shape { dim: 1 dim: 1 dim: 1 }
    pad_shape    { dim: 1 dim: 1 dim: 1 }
    weight_filler {
      type: "gaussian"
      std: 0.01
    }
    bias_filler {
      type: "constant"
      value: 1
    }
  }
}
layer {
  name: "relu11"
  type: "ReLU"
  bottom: "auto11"
  top: "auto11"
}
layer {
  name: "pool11"
  type: "NdPooling"
  bottom: "auto11"
  top: "pool11"
  pooling_param {
    pool: MAX
    kernel_shape { dim: 2 dim: 2 dim: 2 }
    stride_shape { dim: 2 dim: 2 dim: 2 }
  }
}

# ---------- 2nd stream ------------
# ----- 1st group -----
layer {
  name: "conv1a_3p"
  type: "NdConvolution"
  bottom: "anchor"
  top: "conv1a_3p"
  param {
    lr_mult: 1
    decay_mult: 1
  }
  param {
    lr_mult: 2
    decay_mult: 0
  }
  convolution_param {
    num_output: 64
    kernel_shape { dim: 3 dim: 3 dim: 3 }
    stride_shape { dim: 1 dim: 1 dim: 1 }
    pad_shape    { dim: 1 dim: 1 dim: 1 }
    weight_filler {
      type: "gaussian"
      std: 0.01
    }
    bias_filler {
      type: "constant"
      value: 0
    }
  }
}
layer {
  name: "relu1a_3p"
  type: "ReLU"
  bottom: "conv1a_3p"
  top: "conv1a_3p"
}
layer {
  name: "pool1_3p"
  type: "NdPooling"
  bottom: "conv1a_3p"
  top: "pool1_3p"
  pooling_param {
    pool: MAX
    kernel_shape { dim: 1 dim: 2 dim: 2 }
    stride_shape { dim: 1 dim: 2 dim: 2 }
  }
}

# ----- 2nd group -----
layer {
  name: "conv2a_3p"
  type: "NdConvolution"
  bottom: "pool1_3p"
  top: "conv2a_3p"
  param {
    lr_mult: 1
    decay_mult: 1
  }
  param {
    lr_mult: 2
    decay_mult: 0
  }
  convolution_param {
    num_output: 128
    kernel_shape { dim: 3 dim: 3 dim: 3 }
    stride_shape { dim: 1 dim: 1 dim: 1 }
    pad_shape    { dim: 1 dim: 1 dim: 1 }
    weight_filler {
      type: "gaussian"
      std: 0.01
    }
    bias_filler {
      type: "constant"
      value: 1
    }
  }
}
layer {
  name: "relu2a_3p"
  type: "ReLU"
  bottom: "conv2a_3p"
  top: "conv2a_3p"
}
layer {
  name: "pool2_3p"
  type: "NdPooling"
  bottom: "conv2a_3p"
  top: "pool2_3p"
  pooling_param {
    pool: MAX
    kernel_shape { dim: 2 dim: 2 dim: 2 }
    stride_shape { dim: 2 dim: 2 dim: 2 }
  }
}

# ----- 3rd group -----
layer {
  name: "conv3a_3p"
  type: "NdConvolution"
  bottom: "pool2_3p"
  top: "conv3a_3p"
  param {
    lr_mult: 1
    decay_mult: 1
  }
  param {
    lr_mult: 2
    decay_mult: 0
  }
  convolution_param {
    num_output: 256
    kernel_shape { dim: 3 dim: 3 dim: 3 }
    stride_shape { dim: 1 dim: 1 dim: 1 }
    pad_shape    { dim: 1 dim: 1 dim: 1 }
    weight_filler {
      type: "gaussian"
      std: 0.01
    }
    bias_filler {
      type: "constant"
      value: 1
    }
  }
}
layer {
  name: "relu3a_3p"
  type: "ReLU"
  bottom: "conv3a_3p"
  top: "conv3a_3p"
}
layer {
  name: "pool3_3p"
  type: "NdPooling"
  bottom: "conv3a_3p"
  top: "pool3_3p"
  pooling_param {
    pool: MAX
    kernel_shape { dim: 2 dim: 2 dim: 2 }
    stride_shape { dim: 2 dim: 2 dim: 2 }
  }
}

# ----- 4th group -----
layer {
  name: "conv4a_3p"
  type: "NdConvolution"
  bottom: "pool3_3p"
  top: "conv4a_3p"
  param {
    lr_mult: 1
    decay_mult: 1
  }
  param {
    lr_mult: 2
    decay_mult: 0
  }
  convolution_param {
    num_output: 256
    kernel_shape { dim: 3 dim: 3 dim: 3 }
    stride_shape { dim: 1 dim: 1 dim: 1 }
    pad_shape    { dim: 1 dim: 1 dim: 1 }
    weight_filler {
      type: "gaussian"
      std: 0.01
    }
    bias_filler {
      type: "constant"
      value: 1
    }
  }
}
layer {
  name: "relu4a_3p"
  type: "ReLU"
  bottom: "conv4a_3p"
  top: "conv4a_3p"
}
layer {
  name: "pool4_3p"
  type: "NdPooling"
  bottom: "conv4a_3p"
  top: "pool4_3p"
  pooling_param {
    pool: MAX
    kernel_shape { dim: 2 dim: 2 dim: 2 }
    stride_shape { dim: 2 dim: 2 dim: 2 }
  }
}

# ----- 5th group -----
layer {
  name: "conv5a_3p"
  type: "NdConvolution"
  bottom: "pool4_3p"
  top: "conv5a_3p"
  param {
    lr_mult: 1
    decay_mult: 1
  }
  param {
    lr_mult: 2
    decay_mult: 0
  }
  convolution_param {
    num_output: 256
    kernel_shape { dim: 3 dim: 3 dim: 3 }
    stride_shape { dim: 1 dim: 1 dim: 1 }
    pad_shape    { dim: 1 dim: 1 dim: 1 }
    weight_filler {
      type: "gaussian"
      std: 0.01
    }
    bias_filler {
      type: "constant"
      value: 1
    }
  }
}
layer {
  name: "relu5a_3p"
  type: "ReLU"
  bottom: "conv5a_3p"
  top: "conv5a_3p"
}
layer {
  name: "pool5_3p"
  type: "NdPooling"
  bottom: "conv5a_3p"
  top: "pool5_3p"
  pooling_param {
    pool: MAX
    kernel_shape { dim: 2 dim: 2 dim: 2 }
    stride_shape { dim: 2 dim: 2 dim: 2 }
  }
}

# ----- 1st fc group -----
layer {
  name: "fc6_3p"
  type: "InnerProduct"
  bottom: "pool5_3p"
  top: "fc6_3p"
  param {
    lr_mult: 1
    decay_mult: 1
  }
  param {
    lr_mult: 2
    decay_mult: 0
  }
  inner_product_param {
    num_output: 2048
    weight_filler {
      type: "gaussian"
      std: 0.005
    }
    bias_filler {
      type: "constant"
      value: 1
    }
  }
}
layer {
  name: "relu6_3p"
  type: "ReLU"
  bottom: "fc6_3p"
  top: "fc6_3p"
}
layer {
  name: "drop6_3p"
  type: "Dropout"
  bottom: "fc6_3p"
  top: "fc6_3p"
  dropout_param {
    dropout_ratio: 0.5
  }
}

# ----- 2nd fc group -----
layer {
  name: "fc7_3p"
  type: "InnerProduct"
  bottom: "fc6_3p"
  top: "fc7_3p"
  param {
    lr_mult: 1
    decay_mult: 1
  }
  param {
    lr_mult: 2
    decay_mult: 0
  }
  inner_product_param {
    num_output: 2048
    weight_filler {
      type: "gaussian"
      std: 0.005
    }
    bias_filler {
      type: "constant"
      value: 1
    }
  }
}
layer {
  name: "relu7_3p"
  type: "ReLU"
  bottom: "fc7_3p"
  top: "fc7_3p"
}
layer {
  name: "drop7_3p"
  type: "Dropout"
  bottom: "fc7_3p"
  top: "fc7_3p"
  dropout_param {
    dropout_ratio: 0.5
  }
}

# ----- Auto-Encoder -----
# ---- 8th layer ------
layer {
  name: "auto8_3p"
  type: "NdConvolution"
  bottom: "fc7_3p"
  top: "auto8_3p"
  param {
    lr_mult: 1
    decay_mult: 1
  }
  param {
    lr_mult: 2
    decay_mult: 0
  }
  convolution_param {
    num_output: 1024
    kernel_shape { dim: 3 dim: 3 dim: 3 }
    stride_shape { dim: 1 dim: 1 dim: 1 }
    pad_shape    { dim: 1 dim: 1 dim: 1 }
    weight_filler {
      type: "gaussian"
      std: 0.01
    }
    bias_filler {
      type: "constant"
      value: 1
    }
  }
}
layer {
  name: "relu8_3p"
  type: "ReLU"
  bottom: "auto8_3p"
  top: "auto8_3p"
}
layer {
  name: "pool8_3p"
  type: "NdPooling"
  bottom: "auto8_3p"
  top: "pool8_3p"
  pooling_param {
    pool: MAX
    kernel_shape { dim: 2 dim: 2 dim: 2 }
    stride_shape { dim: 2 dim: 2 dim: 2 }
  }
}

# ---- 9th layer ------
layer {
  name: "auto9_3p"
  type: "NdConvolution"
  bottom: "auto8_3p"
  top: "auto9_3p"
  param {
    lr_mult: 1
    decay_mult: 1
  }
  param {
    lr_mult: 2
    decay_mult: 0
  }
  convolution_param {
    num_output: 512
    kernel_shape { dim: 3 dim: 3 dim: 3 }
    stride_shape { dim: 1 dim: 1 dim: 1 }
    pad_shape    { dim: 1 dim: 1 dim: 1 }
    weight_filler {
      type: "gaussian"
      std: 0.01
    }
    bias_filler {
      type: "constant"
      value: 1
    }
  }
}
layer {
  name: "relu9_3p"
  type: "ReLU"
  bottom: "auto9_3p"
  top: "auto9_3p"
}
layer {
  name: "pool9_3p"
  type: "NdPooling"
  bottom: "auto9_3p"
  top: "pool9_3p"
  pooling_param {
    pool: MAX
    kernel_shape { dim: 2 dim: 2 dim: 2 }
    stride_shape { dim: 2 dim: 2 dim: 2 }
  }
}

# ---- 10th layer ------
layer {
  name: "auto10_3p"
  type: "NdConvolution"
  bottom: "auto10_3p"
  top: "auto10_3p"
  param {
    lr_mult: 1
    decay_mult: 1
  }
  param {
    lr_mult: 2
    decay_mult: 0
  }
  convolution_param {
    num_output: 1024
    kernel_shape { dim: 3 dim: 3 dim: 3 }
    stride_shape { dim: 1 dim: 1 dim: 1 }
    pad_shape    { dim: 1 dim: 1 dim: 1 }
    weight_filler {
      type: "gaussian"
      std: 0.01
    }
    bias_filler {
      type: "constant"
      value: 1
    }
  }
}
layer {
  name: "relu10_3p"
  type: "ReLU"
  bottom: "auto10_3p"
  top: "auto10_3p"
}
layer {
  name: "pool10_3p"
  type: "NdPooling"
  bottom: "auto10_3p"
  top: "pool10_3p"
  pooling_param {
    pool: MAX
    kernel_shape { dim: 2 dim: 2 dim: 2 }
    stride_shape { dim: 2 dim: 2 dim: 2 }
  }
}

# ---- 11th layer ------
layer {
  name: "auto11_3p"
  type: "NdConvolution"
  bottom: "auto11_3p"
  top: "auto11_3p"
  param {
    lr_mult: 1
    decay_mult: 1
  }
  param {
    lr_mult: 2
    decay_mult: 0
  }
  convolution_param {
    num_output: 2048
    kernel_shape { dim: 3 dim: 3 dim: 3 }
    stride_shape { dim: 1 dim: 1 dim: 1 }
    pad_shape    { dim: 1 dim: 1 dim: 1 }
    weight_filler {
      type: "gaussian"
      std: 0.01
    }
    bias_filler {
      type: "constant"
      value: 1
    }
  }
}
layer {
  name: "relu11_3p"
  type: "ReLU"
  bottom: "auto11_3p"
  top: "auto11_3p"
}
layer {
  name: "pool11_3p"
  type: "NdPooling"
  bottom: "auto11_3p"
  top: "pool11_3p"
  pooling_param {
    pool: MAX
    kernel_shape { dim: 2 dim: 2 dim: 2 }
    stride_shape { dim: 2 dim: 2 dim: 2 }
  }
}

layer {
  type: 'Python'
  name: 'loss'
  top: 'loss'
  bottom: 'fc7'
  bottom: 'fc7_3p'
  bottom: 'pool11'
  bottom: 'pool11_3p'
  python_param {
    # the module name -- usually the filename -- that needs to be in $PYTHONPATH
    module: 'cyclic_loss'
    # the layer name -- the class name in the module
    layer: 'CyclicLossLayer'
  }
  # set loss weight so Caffe knows this is a loss layer
  loss_weight: 1
}
